VerNova/checkpoints/ntm_val_0.1572_epoch_113.pt (torch, 863092 bytes, 11 tensors)

read_vectors f4 [1, 32]
000000 76 11 f6 be fb d9 22 bf 3e 6c 8d be 0a 3d 98 bf
       -0.48060197 -0.6361386 -0.27621645 -1.1893628
000010 59 e3 77 bd 5b ab 61 be a5 09 b0 be d1 59 88 bc
       -0.06051955 -0.22038023 -0.34382358 -0.01664439
000020 b7 9c a2 3f 83 0e e3 3e dd bc 30 3f 16 32 f2 bf
       1.2704076 0.4434701 0.6903818 -1.8921535
000030 29 77 8a bf 30 e6 38 bf d5 35 19 bf 66 d1 0e 3f
       -1.0817615 -0.7222624 -0.59847766 0.55788267
000040 ef 4c a0 be 6a c0 77 3f 39 2c 48 bf 81 a7 07 3f
       -0.31308696 0.96777976 -0.7819248 0.52989966
000050 35 23 c4 be 52 9d 3d 3f 5b f8 82 bf df a4 9f 3f
       -0.3830811 0.74068177 -1.0232042 1.247219
000060 f6 dc 99 be 6c 3e 0b bf b7 7e 72 bf f3 9b 76 bf
       -0.30051392 -0.54392123 -0.947246 -0.9633171
000070 ba 62 1c 3f 3d a9 b7 bf a6 84 19 bd 14 a6 f2 3e
       0.61088145 -1.4348522 -0.03748002 0.47392333

memory.memory f4 [64, 32]
000000 76 11 f6 be fb d9 22 bf 3e 6c 8d be 0a 3d 98 bf
       -0.48060197 -0.6361386 -0.27621645 -1.1893628
000010 59 e3 77 bd 5b ab 61 be a5 09 b0 be d1 59 88 bc
       -0.06051955 -0.22038023 -0.34382358 -0.01664439
000020 b7 9c a2 3f 83 0e e3 3e dd bc 30 3f 16 32 f2 bf
       1.2704076 0.4434701 0.6903818 -1.8921535
000030 29 77 8a bf 30 e6 38 bf d5 35 19 bf 66 d1 0e 3f
       -1.0817615 -0.7222624 -0.59847766 0.55788267
000040 ef 4c a0 be 6a c0 77 3f 39 2c 48 bf 81 a7 07 3f
       -0.31308696 0.96777976 -0.7819248 0.52989966
000050 35 23 c4 be 52 9d 3d 3f 5b f8 82 bf df a4 9f 3f
       -0.3830811 0.74068177 -1.0232042 1.247219
000060 f6 dc 99 be 6c 3e 0b bf b7 7e 72 bf f3 9b 76 bf
       -0.30051392 -0.54392123 -0.947246 -0.9633171
000070 ba 62 1c 3f 3d a9 b7 bf a6 84 19 bd 14 a6 f2 3e
       0.61088145 -1.4348522 -0.03748002 0.47392333
000080 76 11 f6 be fb d9 22 bf 3e 6c 8d be 0a 3d 98 bf
       -0.48060197 -0.6361386 -0.27621645 -1.1893628
000090 59 e3 77 bd 5b ab 61 be a5 09 b0 be d1 59 88 bc
       -0.06051955 -0.22038023 -0.34382358 -0.01664439
0000a0 b7 9c a2 3f 83 0e e3 3e dd bc 30 3f 16 32 f2 bf
       1.2704076 0.4434701 0.6903818 -1.8921535
0000b0 29 77 8a bf 30 e6 38 bf d5 35 19 bf 66 d1 0e 3f
       -1.0817615 -0.7222624 -0.59847766 0.55788267
0000c0 ef 4c a0 be 6a c0 77 3f 39 2c 48 bf 81 a7 07 3f
       -0.31308696 0.96777976 -0.7819248 0.52989966
0000d0 35 23 c4 be 52 9d 3d 3f 5b f8 82 bf df a4 9f 3f
       -0.3830811 0.74068177 -1.0232042 1.247219
0000e0 f6 dc 99 be 6c 3e 0b bf b7 7e 72 bf f3 9b 76 bf
       -0.30051392 -0.54392123 -0.947246 -0.9633171
0000f0 ba 62 1c 3f 3d a9 b7 bf a6 84 19 bd 14 a6 f2 3e
       0.61088145 -1.4348522 -0.03748002 0.47392333
000100 76 11 f6 be fb d9 22 bf 3e 6c 8d be 0a 3d 98 bf
       -0.48060197 -0.6361386 -0.27621645 -1.1893628
000110 59 e3 77 bd 5b ab 61 be a5 09 b0 be d1 59 88 bc
       -0.06051955 -0.22038023 -0.34382358 -0.01664439
000120 b7 9c a2 3f 83 0e e3 3e dd bc 30 3f 16 32 f2 bf
       1.2704076 0.4434701 0.6903818 -1.8921535
000130 29 77 8a bf 30 e6 38 bf d5 35 19 bf 66 d1 0e 3f
       -1.0817615 -0.7222624 -0.59847766 0.55788267
000140 ef 4c a0 be 6a c0 77 3f 39 2c 48 bf 81 a7 07 3f
       -0.31308696 0.96777976 -0.7819248 0.52989966
000150 35 23 c4 be 52 9d 3d 3f 5b f8 82 bf df a4 9f 3f
       -0.3830811 0.74068177 -1.0232042 1.247219
000160 f6 dc 99 be 6c 3e 0b bf b7 7e 72 bf f3 9b 76 bf
       -0.30051392 -0.54392123 -0.947246 -0.9633171
000170 ba 62 1c 3f 3d a9 b7 bf a6 84 19 bd 14 a6 f2 3e
       0.61088145 -1.4348522 -0.03748002 0.47392333
000180 76 11 f6 be fb d9 22 bf 3e 6c 8d be 0a 3d 98 bf
       -0.48060197 -0.6361386 -0.27621645 -1.1893628
000190 59 e3 77 bd 5b ab 61 be a5 09 b0 be d1 59 88 bc
       -0.06051955 -0.22038023 -0.34382358 -0.01664439
0001a0 b7 9c a2 3f 83 0e e3 3e dd bc 30 3f 16 32 f2 bf
       1.2704076 0.4434701 0.6903818 -1.8921535
0001b0 29 77 8a bf 30 e6 38 bf d5 35 19 bf 66 d1 0e 3f
       -1.0817615 -0.7222624 -0.59847766 0.55788267
0001c0 ef 4c a0 be 6a c0 77 3f 39 2c 48 bf 81 a7 07 3f
       -0.31308696 0.96777976 -0.7819248 0.52989966
0001d0 35 23 c4 be 52 9d 3d 3f 5b f8 82 bf df a4 9f 3f
       -0.3830811 0.74068177 -1.0232042 1.247219
0001e0 f6 dc 99 be 6c 3e 0b bf b7 7e 72 bf f3 9b 76 bf
       -0.30051392 -0.54392123 -0.947246 -0.9633171
0001f0 ba 62 1c 3f 3d a9 b7 bf a6 84 19 bd 14 a6 f2 3e
       0.61088145 -1.4348522 -0.03748002 0.47392333
000200 76 11 f6 be fb d9 22 bf 3e 6c 8d be 0a 3d 98 bf
       -0.48060197 -0.6361386 -0.27621645 -1.1893628
000210 59 e3 77 bd 5b ab 61 be a5 09 b0 be d1 59 88 bc
       -0.06051955 -0.22038023 -0.34382358 -0.01664439
000220 b7 9c a2 3f 83 0e e3 3e dd bc 30 3f 16 32 f2 bf
       1.2704076 0.4434701 0.6903818 -1.8921535
000230 29 77 8a bf 30 e6 38 bf d5 35 19 bf 66 d1 0e 3f
       -1.0817615 -0.7222624 -0.59847766 0.55788267
000240 ef 4c a0 be 6a c0 77 3f 39 2c 48 bf 81 a7 07 3f
       -0.31308696 0.96777976 -0.7819248 0.52989966
000250 35 23 c4 be 52 9d 3d 3f 5b f8 82 bf df a4 9f 3f
       -0.3830811 0.74068177 -1.0232042 1.247219
000260 f6 dc 99 be 6c 3e 0b bf b7 7e 72 bf f3 9b 76 bf
       -0.30051392 -0.54392123 -0.947246 -0.9633171
000270 ba 62 1c 3f 3d a9 b7 bf a6 84 19 bd 14 a6 f2 3e
       0.61088145 -1.4348522 -0.03748002 0.47392333
000280 76 11 f6 be fb d9 22 bf 3e 6c 8d be 0a 3d 98 bf
       -0.48060197 -0.6361386 -0.27621645 -1.1893628
000290 59 e3 77 bd 5b ab 61 be a5 09 b0 be d1 59 88 bc
       -0.06051955 -0.22038023 -0.34382358 -0.01664439
0002a0 b7 9c a2 3f 83 0e e3 3e dd bc 30 3f 16 32 f2 bf
       1.2704076 0.4434701 0.6903818 -1.8921535
0002b0 29 77 8a bf 30 e6 38 bf d5 35 19 bf 66 d1 0e 3f
       -1.0817615 -0.7222624 -0.59847766 0.55788267
0002c0 ef 4c a0 be 6a c0 77 3f 39 2c 48 bf 81 a7 07 3f
       -0.31308696 0.96777976 -0.7819248 0.52989966
0002d0 35 23 c4 be 52 9d 3d 3f 5b f8 82 bf df a4 9f 3f
       -0.3830811 0.74068177 -1.0232042 1.247219
0002e0 f6 dc 99 be 6c 3e 0b bf b7 7e 72 bf f3 9b 76 bf
       -0.30051392 -0.54392123 -0.947246 -0.9633171
0002f0 ba 62 1c 3f 3d a9 b7 bf a6 84 19 bd 14 a6 f2 3e
       0.61088145 -1.4348522 -0.03748002 0.47392333
000300 76 11 f6 be fb d9 22 bf 3e 6c 8d be 0a 3d 98 bf
       -0.48060197 -0.6361386 -0.27621645 -1.1893628
000310 59 e3 77 bd 5b ab 61 be a5 09 b0 be d1 59 88 bc
       -0.06051955 -0.22038023 -0.34382358 -0.01664439
000320 b7 9c a2 3f 83 0e e3 3e dd bc 30 3f 16 32 f2 bf
       1.2704076 0.4434701 0.6903818 -1.8921535
000330 29 77 8a bf 30 e6 38 bf d5 35 19 bf 66 d1 0e 3f
       -1.0817615 -0.7222624 -0.59847766 0.55788267
000340 ef 4c a0 be 6a c0 77 3f 39 2c 48 bf 81 a7 07 3f
       -0.31308696 0.96777976 -0.7819248 0.52989966
000350 35 23 c4 be 52 9d 3d 3f 5b f8 82 bf df a4 9f 3f
       -0.3830811 0.74068177 -1.0232042 1.247219
000360 f6 dc 99 be 6c 3e 0b bf b7 7e 72 bf f3 9b 76 bf
       -0.30051392 -0.54392123 -0.947246 -0.9633171
000370 ba 62 1c 3f 3d a9 b7 bf a6 84 19 bd 14 a6 f2 3e
       0.61088145 -1.4348522 -0.03748002 0.47392333
000380 76 11 f6 be fb d9 22 bf 3e 6c 8d be 0a 3d 98 bf
       -0.48060197 -0.6361386 -0.27621645 -1.1893628
000390 59 e3 77 bd 5b ab 61 be a5 09 b0 be d1 59 88 bc
       -0.06051955 -0.22038023 -0.34382358 -0.01664439
0003a0 b7 9c a2 3f 83 0e e3 3e dd bc 30 3f 16 32 f2 bf
       1.2704076 0.4434701 0.6903818 -1.8921535
0003b0 29 77 8a bf 30 e6 38 bf d5 35 19 bf 66 d1 0e 3f
       -1.0817615 -0.7222624 -0.59847766 0.55788267
0003c0 ef 4c a0 be 6a c0 77 3f 39 2c 48 bf 81 a7 07 3f
       -0.31308696 0.96777976 -0.7819248 0.52989966
0003d0 35 23 c4 be 52 9d 3d 3f 5b f8 82 bf df a4 9f 3f
       -0.3830811 0.74068177 -1.0232042 1.247219
0003e0 f6 dc 99 be 6c 3e 0b bf b7 7e 72 bf f3 9b 76 bf
       -0.30051392 -0.54392123 -0.947246 -0.9633171
0003f0 ba 62 1c 3f 3d a9 b7 bf a6 84 19 bd 14 a6 f2 3e
       0.61088145 -1.4348522 -0.03748002 0.47392333

controller.lstm.weight_ih f4 [400, 64]
000000 c8 63 f5 3c e9 ae bc 3c fb a5 85 bd 83 ba 22 bc
       0.029954806 0.023032622 -0.06525799 -0.009932163
000010 05 19 24 3b fb 02 b4 3d d9 b3 ee 3d ed 22 6a 3c
       0.0025039327 0.08789631 0.11655397 0.0142905535
000020 dd 85 3a 3d 3b fd 62 3c fb 72 af bc 35 12 05 bd
       0.04553782 0.01385432 -0.021417132 -0.032488067
000030 78 14 fa 3b a4 38 59 bd 03 2f 4f 3c 82 da 61 bd
       0.0076318346 -0.053032532 0.012645486 -0.055140026
000040 e0 8b 92 3b 02 f0 76 3c e3 1d 2b 3c 1a 83 12 3d
       0.004472241 0.015071871 0.010444137 0.03576956
000050 43 70 64 3b d3 27 a2 bb 13 cb d2 bc d5 b9 ee 3c
       0.0034856952 -0.004948595 -0.025731599 0.029141346
000060 0a ee 8c 39 7d 58 36 3d a1 12 71 bd 19 25 19 bd
       0.00026880234 0.044517983 -0.058855657 -0.037388895
000070 d4 83 cc bb cd 06 69 bd 43 2d 31 bd d6 5e ce bd
       -0.006241301 -0.05689125 -0.043256056 -0.10076682
000080 54 08 4c ba e0 c3 57 bc eb b5 fe bb c0 76 03 3c
       -0.00077832234 -0.013169259 -0.007773151 0.008023918
000090 0e d2 14 bc fe c2 a1 bb e3 30 69 3c ae 96 cb bb
       -0.009083284 -0.004936575 0.014232847 -0.006213031
0000a0 e2 15 c3 3b 43 2f fc 3b ff 7c eb ba 62 ee 59 bc
       0.0059535364 0.0076960637 -0.0017966329 -0.013301464
0000b0 16 bf 3b bc f6 3f 32 3c ea 59 17 bb fd f5 1c 3c
       -0.011459133 0.010879507 -0.0023094364 0.009580133
0000c0 6a 9b 86 3c 14 48 46 bb 84 72 19 3b 8f 8f db bb
       0.01643153 -0.0030255364 0.0023414204 -0.006700463
0000d0 8e 7f 25 bc eb c4 bf ba e8 9d 3d bc b7 3c c7 bb
       -0.010101212 -0.001463083 -0.011573292 -0.006080236
0000e0 3b a3 9e bb 75 ef f4 bb 52 39 17 bc fd 04 e1 3b
       -0.004841236 -0.0074748346 -0.009229975 0.0068670497
0000f0 97 3c 13 3c 30 59 89 bc 94 e5 7f 3b b3 75 dd 3b
       0.008986614 -0.01676616 0.0039046751 0.0067584156
000100 7d 62 95 3d fa 9e 0f 3d c5 0e 06 be ff 45 13 bd
       0.07294176 0.03506372 -0.13091572 -0.035955425
000110 da be a9 3d 6a 47 23 3e c1 06 57 3e f1 da 87 bd
       0.08288355 0.15945211 0.2099867 -0.06633557
000120 2d 82 ce 3d ea 95 0e 3d f8 54 b1 bc 26 9d b1 bd
       0.10083423 0.034810938 -0.021646962 -0.08672552
000130 cc e7 29 3d 08 43 94 bd d4 df 1c 3d 39 04 c7 bd
       0.041480824 -0.07239348 0.038299397 -0.09717602
000140 ef c4 9f 3c 65 e7 21 3d a4 e2 32 3d 16 b9 9a bc
       0.019503085 0.039527316 0.043673173 -0.018887084
000150 7b d6 71 bc 8c fb 15 3d f3 e6 9a bd 44 8a 32 bd
       -0.014760609 0.036616847 -0.07563581 -0.04358889
000160 11 b6 75 3d 2e df eb bb 70 d7 31 be 96 a0 b3 bd
       0.059988085 -0.007198236 -0.17367339 -0.08770864
000170 fa b7 bc bd 4e 1b f5 bd af 14 f1 bd 8e f2 9a 3c
       -0.09214778 -0.119680986 -0.11771523 0.018914487
000180 e1 c3 03 be c5 00 1b be 5d 58 4b 3c ef 21 f9 3d
       -0.1286769 -0.15137012 0.012411204 0.121646754
000190 61 bb e9 bd f3 15 0a bd 08 44 2f 3e 0e a7 74 bc
       -0.11412693 -0.03371234 0.17115796 -0.014932407
0001a0 e6 6a 02 3c 2b db 91 3c a0 a6 8f 3d e4 53 f7 bd
       0.007960057 0.017804703 0.07014203 -0.12076548
0001b0 81 a7 3f be 61 48 72 3d 66 a5 1f 3d 99 f7 9c 3d
       -0.18716241 0.059151057 0.038976096 0.07664413
0001c0 22 d2 0b 3d 3b 9c 7c bc 62 f2 b4 bd c8 25 00 3d
       0.034135945 -0.015418108 -0.08835293 0.03128603
0001d0 90 7e af 3d 28 cb 9e 3d 68 2c 70 3d 1f f2 15 be
       0.08569062 0.07753593 0.0586361 -0.14643143
0001e0 7f 45 0f be 3b 7f fb bd 05 85 3e 3b 37 b7 0a 3d
       -0.13991354 -0.12280127 0.0029070985 0.033866134
0001f0 fc fa bb 3d e3 ea 07 bc 79 0f e1 bd 21 27 c4 3d
       0.09178731 -0.008295747 -0.10989279 0.09577776
000200 13 fb d2 3d 64 c2 bc 3d a3 52 f2 bd 1e 88 22 bd
       0.10301795 0.092167646 -0.11832168 -0.039680593
000210 bd 64 e7 3d 91 d0 db 3d 2d 2b 16 3e 43 be 0e 3d
       0.11298511 0.1073314 0.14664908 0.034849416
000220 ee d3 e3 3d ef 9f 98 3d 9b a1 78 be cd 64 bb bd
       0.11124407 0.0745238 -0.24280398 -0.091500856
000230 78 6d 3e 3d 5d 3a 55 be c9 75 06 3e 71 f5 16 be
       0.046491116 -0.20823045 0.13130869 -0.14742066
000240 61 67 18 3d 62 57 97 3d 30 9e 32 bd 6d 26 0a bd
       0.037207965 0.07389714 -0.04360789 -0.033728052
000250 d3 ea 60 bc 51 6b c5 bd 05 a2 b4 bd 1b e5 8c 3d
       -0.013727861 -0.096396096 -0.08819965 0.06879636
000260 09 21 1e be a8 f8 3d bc bc b9 cc bc c5 52 94 bd
       -0.1544229 -0.011594929 -0.024990909 -0.072423495
000270 f4 12 6b bd 88 f7 f7 bd 9a 38 1d 3d 6c ea a3 bd
       -0.057391122 -0.1210776 0.038384058 -0.08003697
000280 97 ca e1 3d 13 8b 03 3b 8d a5 17 be 04 e1 a1 bd
       0.11024969 0.0020071908 -0.14809246 -0.079042464
000290 18 f2 c5 3d af ae 4d bd 19 fd 24 be 2f d2 b3 3d
       0.09665316 -0.05021542 -0.16112174 0.08780324
0002a0 62 a1 cc bc f7 eb 57 bd e4 41 69 bd 79 e1 5e 3d
       -0.024979297 -0.052715268 -0.056947604 0.054414246
0002b0 75 c9 6b 3d 2e 22 48 be 76 e1 e6 3d 25 c0 42 b9
       0.05756517 -0.19544289 0.11273472 -0.00018572861
0002c0 77 25 38 bd b5 95 41 3e 27 3c 0c bd 22 09 38 be
       -0.044957604 0.18904765 -0.034237053 -0.17972234
0002d0 2c 65 db bd d1 b5 17 bd 9a ed 39 3d 15 e3 cd 3d
       -0.107126564 -0.037038628 0.04539261 0.10053078
0002e0 a5 c0 9e bc 94 a6 8d 3d 12 dd b6 3c f4 28 be 3b
       -0.01937897 0.06916538 0.022322211 0.005803222
0002f0 0b 5f 17 be 34 dc a9 3c 25 c1 46 3c c9 e2 96 bc
       -0.1478235 0.020734884 0.01213101 -0.018418686
000300 20 03 af 3d 22 5f 4d 3c d0 39 be bd 8b b5 c0 bd
       0.08545518 0.012534888 -0.092883706 -0.094096266
000310 a6 6a 22 3d d1 36 eb 3d 52 e3 48 3e b2 e0 76 3c
       0.03965249 0.11485065 0.19617966 0.01506822
000320 75 9b 06 ba db cb c5 3d 83 f5 6f bd d0 de fa bd
       -0.0005134859 0.09658023 -0.058583748 -0.12249529
000330 38 0a a2 3b 17 59 4b be 25 03 6f 3d da 03 3c bd
       0.004945066 -0.19858204 0.05835261 -0.04590211
000340 02 c9 9d ba 02 f4 42 3c 1b 49 ff 3b fe 8c f6 3d
       -0.0012038054 0.011898996 0.0077906973 0.12038611
000350 b7 15 81 3c 55 b8 11 be c9 d8 0a be 36 93 bb 3d
       0.015757425 -0.14230473 -0.1355926 0.09158938
000360 22 f8 4d bc 84 3f d7 3d bd c5 06 be 0b cb 84 bd
       -0.0125713665 0.105101615 -0.13161369 -0.0648404
000370 f4 14 47 3d 40 d6 3d bd d5 36 60 bd a4 51 4f be
       0.048603967 -0.046346903 -0.054739792 -0.20245987
000380 e1 20 56 bd 7a 8e 10 bd 57 40 5f 3c aa b6 86 bc
       -0.05227745 -0.035292126 0.01362618 -0.016444523
000390 54 94 7c bc 35 9f 28 bd ef 4f 4b 3d 08 04 09 3b
       -0.015416224 -0.041167457 0.049636777 0.0020906944
0003a0 6b 3d 7f 3d bf ac 88 3c 21 c9 42 bb 58 b3 58 bd
       0.062314432 0.016683934 -0.0029721933 -0.05290541
0003b0 8c d3 12 bd b6 a4 43 3d ee bb eb bb 7b f7 aa bc
       -0.035846278 0.047764502 -0.007194034 -0.020869961
0003c0 88 5a d7 3c 2c b3 12 3d c9 a3 85 bc ff 3d 48 3c
       0.026288286 0.035815403 -0.01631345 0.012221812
0003d0 b6 83 28 bc 32 56 27 3d 4f 40 b4 bc 58 3f 22 bd
       -0.010285309 0.040853687 -0.022003321 -0.03961119
0003e0 82 24 0d 3d 26 a6 19 3c f2 a4 8d bd 7a f1 82 bc
       0.034458645 0.009377992 -0.069162264 -0.015984286
0003f0 a5 ed 77 3d 2c 40 95 bc d6 df f3 bb 63 c1 f3 3c
       0.06052937 -0.018219076 -0.007442455 0.0297553

controller.lstm.weight_hh f4 [400, 100]
000000 43 d2 a6 3c 00 58 ee 3c bd 49 b5 bc 98 98 59 bc
       0.020363932 0.029094696 -0.022129888 -0.01328101
000010 1c 51 bf 3c 43 1d 38 bb b9 60 91 bc e8 3a 6e bc
       0.023354106 -0.0028093613 -0.017746316 -0.0145404115
000020 c1 d3 6e ba 53 f1 70 3c 46 41 c4 bb 43 46 e4 bc
       -0.0009110533 0.014705974 -0.0059892265 -0.027865535
000030 dc 82 d5 bc 3c 64 10 bb 77 29 a4 3c c3 78 ab 3c
       -0.026063375 -0.00220324 0.020039303 0.020931607
000040 75 81 98 3c ce 97 d2 bc 1f 75 8f 3c 39 26 71 3c
       0.018616417 -0.025707152 0.017511902 0.014718586
000050 0e 90 f0 3b 5d fd 9d bc 89 c4 a6 bc c4 06 ae 3c
       0.0073413914 -0.019285852 -0.020357387 0.02124346
000060 77 cb c5 3c 4d f7 96 3c 29 f2 19 ba 36 47 6a 3b
       0.024144871 0.01842847 -0.00058725715 0.0035748011
000070 d2 c9 cb bb e6 c8 47 3c 92 a7 b5 bb c6 69 42 3c
       -0.006219127 0.012193894 -0.0055436576 0.011866039
000080 d2 30 82 bc 60 7f ac ba 77 17 ad 3c 1c 5b a2 bc
       -0.01589242 -0.0013160519 0.021129353 -0.019818835
000090 73 a0 9c 3b d7 39 db 3b 14 f3 9f 3c cc 29 17 bc
       0.004779869 0.0066902447 0.019525088 -0.009226274
0000a0 fd 04 bd bc ab 6b b7 3c 21 3d 67 bc a2 ca 09 3c
       -0.023073668 0.022390207 -0.014113695 0.008410128
0000b0 98 40 9c 3c 9b f8 b5 bc 95 25 f6 bb 80 48 06 3a
       0.01907377 -0.02221327 -0.0075118043 0.00051224977
0000c0 58 01 2b 3b de 1f 5a 3c b9 37 b9 3c d4 3e 99 bc
       0.002609333 0.013313262 0.022609578 -0.018706717
0000d0 4f ca b8 3c 6c 2a 3e bc ee 98 c0 3a 20 93 d2 bc
       0.022557406 -0.011606794 0.0014694014 -0.02570492
0000e0 c0 7c bc bc fd 20 cf 3b 5d 47 bd 3c a3 f8 b0 3c
       -0.023008704 0.006321071 0.023105318 0.021602934
0000f0 16 34 cf 3c 40 eb 69 bb e1 b4 67 bc ef 18 b0 bc
       0.025293391 -0.0035693198 -0.014142246 -0.021496264
000100 fd e1 e6 3b db 23 e5 3b 52 e3 f5 3c 8e 11 5b 3c
       0.007045983 0.0069927997 0.030015621 0.013370885
000110 1b 4b b4 bc 6c e3 e1 bc 93 62 82 3c db c0 ee b9
       -0.02200847 -0.027574264 0.015916144 -0.00045538586
000120 e0 0b c9 bc 67 c2 b7 3c b1 47 79 bc ca 6a 84 3c
       -0.024541795 0.022431565 -0.0152148465 0.016164202
000130 da 14 c7 bc 26 10 1e 3c d3 ac 8f 3c a8 e0 a4 bc
       -0.024301935 0.009647405 0.017538464 -0.020126656
000140 4c 73 95 bc 13 4c f8 3c a9 a0 68 bc 3c 35 fb ba
       -0.018243454 0.030309713 -0.014198461 -0.0019165645
000150 cf ce 9d 3c fd fd cc 3c 5a 97 e9 bb 32 ac a1 ba
       0.019263653 0.025023455 -0.007128638 -0.0012334643
000160 42 9b 91 bc 01 94 df ba 38 62 75 3c f1 70 8a 3c
       -0.017774228 -0.0017057658 0.01497703 0.016899558
000170 8d 83 b4 bb db 39 67 3c 80 cd 1d ba e6 dd b4 bc
       -0.005508846 0.014112915 -0.00060196966 -0.022078466
000180 c9 d3 c8 3c 7c 21 a3 bc 42 88 0d 3c 00 b4 d0 bb
       0.02451505 -0.019913428 0.008638443 -0.006369114
000190 bc e0 bd 3d 27 16 be 3c 3a 41 c0 bd ed 15 9b 3d
       0.0927138 0.023203922 -0.09387441 0.075725414
0001a0 38 a0 2a bd 80 a8 09 3d 67 f6 1a be 0a 02 41 bd
       -0.041656703 0.03360796 -0.15133058 -0.047121085
0001b0 2c e7 54 bd 6b a6 da 3d 8f 32 87 bc 11 97 90 bd
       -0.051978275 0.10676273 -0.0165036 -0.07060064
0001c0 a2 6b 5a be 76 80 62 bc 50 6b 13 3e de bc 10 3e
       -0.21330121 -0.013824573 0.14396405 0.14134547
0001d0 11 57 e8 3c bc f6 03 bd 16 17 32 be 7f 25 c7 bb
       0.028361829 -0.032217726 -0.17391619 -0.006077468
0001e0 9c be ab 3d b7 1e 80 bd e3 99 0f be c7 56 47 bd
       0.08385965 -0.062558584 -0.14023547 -0.04866674
0001f0 98 a9 87 3d 4f 93 b4 bd bd 5a 34 3e 1f 57 00 be
       0.06624144 -0.088171594 0.17612739 -0.12533234
000200 f8 28 7e bd f9 be 4b 3d 7c cd 28 3d 55 d0 c7 3d
       -0.06205079 0.049742673 0.04121159 0.09756533
000210 92 92 b6 3d 6c 86 0f bc d7 3b f5 3d f3 6e cd 3d
       0.08914675 -0.008760076 0.11974304 0.100309275
000220 da 84 f1 3c a1 96 c5 3d d1 94 e4 bd 26 13 80 bd
       0.029482294 0.09647871 -0.11161197 -0.06253652
000230 9f 69 98 bd cd ae 22 be e9 e4 07 be ad 60 99 bd
       -0.074420206 -0.15886994 -0.13270916 -0.074891426
000240 d7 f2 65 bd c3 0b 85 bd 04 70 76 bd 6f ee e9 3d
       -0.056139793 -0.06496384 -0.06016542 0.11422431
000250 9c d0 c6 3d eb e3 ab 3b 77 07 1b 3e a5 ea 53 3d
       0.09707758 0.005245676 0.15139566 0.051737446
000260 87 c6 1b be ca 7a 52 3e af 58 c5 3d ca b4 1a bc
       -0.15212451 0.20554653 0.09636056 -0.0094425175
000270 d7 54 b7 bd 79 9e a9 3d cd 0f ca 3d 2a c3 eb bb
       -0.08951729 0.082821794 0.09866295 -0.007194896
000280 0b 00 0b 3e 42 8d 90 bb c5 c6 cd bd 0d 62 96 bc
       0.13574235 -0.0044113705 -0.10047678 -0.018357301
000290 e3 2c d5 bd 9d f1 3a 3d 4b b3 40 3e d2 96 7a 3e
       -0.10408952 0.045640577 0.18818395 0.24471596
0002a0 a3 15 67 be e5 35 94 bd 0f 07 cd 3c 3d cf f6 bb
       -0.22566848 -0.07236842 0.02502778 -0.007532029
0002b0 52 3f 30 bd 8a 07 80 3d b8 74 4d bd 8a 22 45 3f
       -0.043029137 0.06251438 -0.05016014 0.7700583
0002c0 80 d1 83 3d 54 e8 97 bd 3b f8 90 3d c1 48 40 bd
       0.06436443 -0.0741736 0.07078596 -0.046944384
0002d0 da cf 6d bd f5 a4 11 bd 90 99 2f bd ef 9f 9c 3d
       -0.05805955 -0.035557706 -0.042871058 0.076476924
0002e0 d9 e2 83 bd 4e a8 1f bd f9 06 08 bd a5 f8 f8 bd
       -0.06439752 -0.038978867 -0.033209775 -0.121568
0002f0 a9 36 97 bd df 43 ee 3d 92 36 5e 3d e2 6f 9d 3c
       -0.073834725 0.11634039 0.05425126 0.019218389
000300 0f e5 36 3e 35 e1 b4 3d 94 87 74 bd 75 2a 87 bd
       0.17860816 0.08832017 -0.05969961 -0.06599895
000310 25 1e 04 bc e2 f6 be bd 2c 4b 00 be 0f 64 42 be
       -0.008063828 -0.09324433 -0.12528676 -0.18983482
000320 2c e0 82 3e 63 38 e4 be 41 96 78 be 39 72 60 bd
       0.25561655 -0.4457427 -0.24276067 -0.05479643
000330 cb d3 5b be 36 3a 7e be 17 7d 5e 3d 2d 8c 19 3d
       -0.21467511 -0.24826893 0.054318514 0.037487198
000340 4a e3 17 be b4 63 02 3d 87 d4 6a bd 54 c6 9c bd
       -0.14832798 0.031833366 -0.057331588 -0.076550156
000350 1e d9 a2 3d b8 60 3a 3d 06 5d 99 3c d4 fd b0 3d
       0.07951568 0.045502394 0.018721115 0.08642164
000360 3d e0 f8 3c e0 3d f8 3d 68 4c 9e bc 38 9b fb be
       0.030380363 0.12121177 -0.019323543 -0.4914186
000370 0a 70 c0 bd b1 03 79 3e 46 00 60 bd ba db 1d be
       -0.0939637 0.24317814 -0.05468776 -0.1541585
000380 bb fa 84 bd 3b 29 73 3e c3 4e cc 3c a6 6b 2c bc
       -0.064931355 0.23746197 0.0249399 -0.010523712
000390 63 3f 0a 3e 7b 63 29 be 38 78 82 be 97 02 30 3b
       0.13500743 -0.16541855 -0.25482345 0.0026857012
0003a0 40 c6 db 3d 3c 03 17 3d 4d 1f 09 3e 18 0e 61 bd
       0.107311726 0.03686832 0.13390847 -0.05494508
0003b0 f2 1a 26 3e 83 49 99 bd 23 2a b1 3a 5a 0f 64 3e
       0.16221216 -0.074847244 0.0013516586 0.22271481
0003c0 1d e6 aa 3d fc 14 ac 3d 9a 47 4a 3e 26 15 27 3d
       0.08344672 0.0840244 0.19753876 0.040791653
0003d0 8c 87 43 be de f3 42 be e1 87 ab bb 49 28 d7 bd
       -0.19094676 -0.1903834 -0.005234704 -0.10505731
0003e0 ab 22 b7 3d 85 42 1d 3c f1 1f 77 3d 49 50 64 bd
       0.08942159 0.009598379 0.060333196 -0.05574063
0003f0 6a 45 b6 bc a7 0a ed 3c 42 4f a4 bb a6 78 bd 3d
       -0.022249896 0.028935743 -0.005014331 0.092515275

controller.lstm.bias_ih f4 [400]
000000 57 fb 65 3d 48 03 07 3e 3b a8 96 3d 42 d0 b2 3d
       0.0561479 0.13184845 0.07356306 0.08731128
000010 58 4f df 3d 3b fb b1 3d 7f 07 a4 3c fc 5e 91 3d
       0.109038055 0.086904965 0.020023106 0.07098195
000020 30 74 a7 3b aa 8c c2 3d e7 df 9a bd 4a 6f 40 3c
       0.005110286 0.09499486 -0.07562237 0.011745283
000030 f5 3d a1 3c 82 5c b2 3d 91 1f 0a 3e fd 1f 2b 3d
       0.019682864 0.08709051 0.13488604 0.041778553
000040 76 bd d6 3d 64 82 b1 3d 4e bb 18 3e fa 6a 08 bd
       0.104853556 0.08667448 0.14915201 -0.033305146
000050 38 f2 00 be a7 4f 61 3d 6c 0e 58 3d 9e 5f e5 3d
       -0.12592399 0.055007603 0.05274813 0.11199878
000060 6f 06 44 3e 59 19 23 3e 17 89 0e 3e b1 ee f4 bc
       0.19143079 0.15927638 0.13919483 -0.029898973
000070 9a 6e 93 3c 57 8c 19 3e 44 8e bf 3d 31 6e 14 3d
       0.017997075 0.14994942 0.09353307 0.0362379
000080 7d d5 4a 3c e2 ee b1 3c c5 9e a3 bc fb 9e 23 3e
       0.012380001 0.021720354 -0.019973168 0.15978615
000090 81 6c 40 3d 2b ae 6e 3d a6 84 38 bc 77 5e a0 3d
       0.046978477 0.05827157 -0.011262095 0.07830518
0000a0 c3 1b b8 3d 07 16 bb 3d be 78 00 3d 02 20 9b 3d
       0.0898967 0.09135061 0.03136515 0.075744644
0000b0 31 76 c0 3d 98 61 56 3d e2 9e b7 3d 03 4a da 3c
       0.09397543 0.052339166 0.08965851 0.02664662
0000c0 e4 c1 71 3d 7c d9 22 bd df b4 9b 3d 63 48 49 3e
       0.0590228 -0.03975819 0.07602858 0.1965652
0000d0 cc 7e 4f 3d 2a 12 68 3d be cb 74 3d 3e 4c 95 3d
       0.050658032 0.056657948 0.059764616 0.07289933
0000e0 43 55 5d 3c 4e ae 4a 3d 1a bb f0 bc bd ad 83 3d
       0.0135090975 0.049482636 -0.029386092 0.06429622
0000f0 c7 87 d1 3d 87 83 21 be 99 ea 65 bc bc 79 b2 3d
       0.102309756 -0.1577283 -0.014032983 0.08714625
000100 e5 ea c4 3d e6 31 50 3d d8 34 42 3e 5a 85 6b 3d
       0.09615115 0.050828837 0.18965471 0.05750022
000110 af 1b 05 3e 3a 15 03 bd 43 1d 2b 3d 1e 09 11 3d
       0.12998842 -0.032002665 0.041775953 0.035409085
000120 f4 f1 94 3d 69 36 c1 3d 6e cd b1 3c 37 be 05 3d
       0.072727114 0.09434206 0.021704402 0.032652106
000130 ce af cf 3d e3 53 ab bd 4f d5 aa 3d ac a7 d2 3d
       0.10140954 -0.083656095 0.08341467 0.10285887
000140 83 38 74 3d 33 0b 67 bc ac 63 00 3d 76 d5 18 3e
       0.059624206 -0.014101791 0.031345055 0.14925179
000150 4e 8f 80 3d 67 eb ec 3d 45 9e 93 bd bd 90 6f 3e
       0.06277333 0.11568337 -0.07207922 0.23395057
000160 0c 8c a9 bc eb 84 24 3e 3e ee 0a bd 1c 47 25 3c
       -0.020696662 0.16066329 -0.03391861 0.010087755
000170 db d2 3d 3c 93 04 2a 3d 87 81 68 3d 35 5c 8b 3d
       0.011585916 0.04150827 0.056764152 0.068046965
000180 e7 00 e9 bc d5 98 38 3d f0 9d f2 3d 85 94 15 3e
       -0.028442813 0.045067627 0.118465304 0.14607437
000190 d8 bb 84 3d 01 d8 ac bd ab a0 4e 3d f1 ee b5 3d
       0.06481141 -0.08439637 0.050446194 0.08883465
0001a0 1a d5 82 3d 70 f8 6d 3d a7 22 58 3d ed d5 43 3d
       0.06388302 0.058098257 0.052767422 0.047811437
0001b0 22 75 84 3d d7 44 3d bc 71 11 84 3d 1d f6 5a 3d
       0.06467654 -0.011552057 0.06448639 0.05345737
0001c0 f6 dc 91 3d 40 d5 f4 3c b4 aa 64 3d 74 f8 9f bb
       0.07122223 0.029886842 0.055826858 -0.004881913
0001d0 ef 23 1c 3d 9a 77 ce 3d e0 b6 81 bc 43 da 01 3d
       0.038120206 0.10081406 -0.015834272 0.03170229
0001e0 41 75 83 3d fe 46 87 3d b5 5d 00 3e 5f 20 84 3d
       0.06418849 0.066053376 0.12535746 0.06451487
0001f0 a9 0a 16 3e 27 70 89 3d 52 e9 66 bd 36 0b 37 3c
       0.14652504 0.067108445 -0.056374855 0.0111721065
000200 e0 91 aa 3d 84 46 b4 3d 07 2f 9a 3d 96 c3 65 3d
       0.08328605 0.08802512 0.07528501 0.05609473
000210 23 30 f2 3c 52 09 89 3d 4a b4 07 bd 63 a1 28 3e
       0.029563969 0.06691231 -0.03313092 0.16467814
000220 4c 41 78 3d 5c fb fd 3d d3 4b 33 3b dc 50 90 3d
       0.060609147 0.124014586 0.0027358427 0.07046673
000230 ea cb 42 3d a1 ae ed 3d 13 52 15 3d 45 73 c6 3d
       0.04755775 0.116055734 0.036455225 0.09689955
000240 fc c9 41 3d a7 5c 8c 3c 0b 37 56 3d e5 0c cf bc
       0.047311768 0.017134024 0.052298587 -0.025274703
000250 42 50 b6 3c 99 30 5b 3d 5b b7 3f 3d ee 22 2e 3e
       0.022255067 0.053513143 0.04680572 0.17005512
000260 32 ce 23 ba 6f d2 07 bb 68 da 1d bd e3 7d c1 3d
       -0.0006248682 -0.0020724793 -0.038538367 0.09447839
000270 91 74 c2 3d 1d 77 43 3d 2d c1 0a 3d bf 52 d0 3c
       0.094948895 0.047721017 0.033875633 0.025430081
000280 e0 d9 4d 3d a2 a0 0e 3e 2b 11 a2 3d 61 2e 15 3d
       0.05025661 0.13928464 0.07913431 0.036421183
000290 23 57 af bc d1 7c d5 3d 60 ce 41 3e d1 28 5b 3d
       -0.021403855 0.104241975 0.18926382 0.053505722
0002a0 ed 3f 9f 3b 0a 4d c5 3d c7 b4 c2 3d e9 b1 4c bb
       0.0048599155 0.09633835 0.09507137 -0.0031233972
0002b0 72 f0 e3 3c 44 2c 80 3d 85 99 89 3d 71 17 e8 3d
       0.027824614 0.06258443 0.06718735 0.11332596
0002c0 c0 a8 86 3d 2b a6 a5 3d c3 85 dd 3c 6f f1 81 3c
       0.06575155 0.08088335 0.027041322 0.015862195
0002d0 86 29 9f 3d 4b 03 db 3d 83 e0 c5 3d 38 60 d1 3d
       0.07771592 0.106939875 0.09661963 0.102234304
0002e0 08 27 7f 3d d2 86 2f 3d a1 73 2c 3d 1d 60 bd bd
       0.062293082 0.042853184 0.04210246 -0.09246848
0002f0 a2 6a df 3d 3f 58 73 3d 77 09 e7 3b f5 f7 20 3e
       0.109090105 0.05941033 0.007050689 0.15719588
000300 bb 64 b5 3d 0e 4a 64 3d 87 64 31 3d a0 d3 85 3d
       0.088571034 0.055734687 0.04330876 0.06534505
000310 89 f9 a9 3d f1 39 84 3d 0f d1 3d 3d 01 11 99 3c
       0.08299548 0.06456364 0.046341952 0.018684866
000320 37 44 bf 3d 57 23 ad 3c 16 4d f9 bd 48 15 bb bd
       0.09339183 0.021135015 -0.12172906 -0.091349185
000330 cc 28 ee 3d 42 55 88 bd 4d 31 92 3c 03 49 98 bd
       0.11628875 -0.06656887 0.017845774 -0.07435801
000340 88 e8 81 bb e8 0c 1a 3d 36 86 e7 bc 1e 82 f3 bc
       -0.0039644875 0.037609965 -0.028262239 -0.02972513
000350 87 ce 4d bd 89 33 d4 bc a0 4f e4 3d 3d b3 50 3d
       -0.050245788 -0.02590348 0.11148 0.050952185
000360 4f f6 67 bd e6 be 0e be 99 63 ec bc 80 6f 73 bc
       -0.056631383 -0.1394001 -0.028856086 -0.014858127
000370 6a 6f e2 bb ec 3c 9f bd 58 1f 14 3d 40 3a f1 3d
       -0.0069102542 -0.07775292 0.036162704 0.117786884
000380 ba 56 e8 3d 93 35 37 3d 94 35 b4 bd 5a 04 94 3a
       0.11344667 0.044728827 -0.08799282 0.0011292801
000390 06 e5 92 bd 99 0b 2c bc 19 32 cb bd 85 c7 11 3d
       -0.07172589 -0.010500812 -0.09921665 0.035590667
0003a0 c0 94 88 3c b5 4f a3 3d 7a be 8e bd 91 af ae bd
       0.016672492 0.07974187 -0.06969924 -0.085295804
0003b0 09 cf 78 3b 96 4d 8a bd b6 eb f0 3c 5d ec a3 3a
       0.00379652 -0.067530796 0.02940927 0.0012506355
0003c0 1e 9e 8e bd cf fe a6 3c 85 9f 07 be 4c a3 96 3d
       -0.06963752 0.020385174 -0.13244446 0.07355365
0003d0 a2 37 c1 3d a2 29 a5 bd 96 ae fa bd ae e7 9f bd
       0.09434439 -0.080645815 -0.12240331 -0.07807861
0003e0 12 a0 02 bc 53 9d 89 bd f3 69 85 3d de e6 16 be
       -0.007972734 -0.0671946 0.06514349 -0.14736506
0003f0 ba 99 03 3e 35 84 09 be f1 8f be 3d a6 46 65 bd
       0.12851611 -0.13429339 0.093047984 -0.05597558

controller.lstm.bias_hh f4 [400]
000000 50 69 42 3d bb b6 07 3e a9 d2 de 3c 60 3a 8d 3d
       0.047463715 0.132533 0.02720006 0.068959
000010 b2 8c df 3d 5b 44 b7 3d 38 c1 1f 3d 29 68 90 3d
       0.109155074 0.08948585 0.039002627 0.07051117
000020 13 ff 6f 3b 80 88 c4 3d bb 0f ca bd b9 93 0d 3d
       0.0036620542 0.09596348 -0.098662816 0.034564707
000030 57 63 9d bc f3 f7 b2 3d 88 0a 0b 3e 9e 58 bb 3c
       -0.019212408 0.08738699 0.13578236 0.022869404
000040 91 a4 d6 3d 73 56 c0 3d 12 06 19 3e da a0 74 bc
       0.10480607 0.09391489 0.14943722 -0.014930928
000050 d5 d5 c9 bd c9 72 65 3d 15 70 55 3d 9c f4 e6 3d
       -0.09855238 0.05601767 0.052108843 0.11277124
000060 19 72 07 3e 1e 9b 23 3e 72 c2 42 3e 59 de 26 3c
       0.13227119 0.15977141 0.19019488 0.010184848
000070 d3 a7 6d 3c 9e b9 d0 3d 50 d4 92 3d f1 74 19 3d
       0.014505344 0.10191654 0.07169402 0.03746504
000080 29 c7 c1 3c 74 43 fb 3c c8 86 c3 bc cb cf 46 3e
       0.023654537 0.030671813 -0.02386798 0.19415204
000090 e5 54 46 3d a4 c7 a7 3d 4b ae 1b 3c c3 db 9b 3d
       0.048420805 0.08192375 0.009502004 0.076102756
0000a0 fe 90 ea 3d 44 5a c3 3d ed 25 a2 3c c0 bd a7 3d
       0.11453436 0.09538701 0.019793475 0.08190489
0000b0 ac 6e bf 3d 37 0e 5b 3d fa a4 72 3d fa 0e 08 3d
       0.09347281 0.053480353 0.059239365 0.033217408
0000c0 5c 91 83 3d 2c ca d1 bb 22 28 a6 3d 2d 94 1f 3e
       0.064242095 -0.0064022746 0.081131235 0.15583868
0000d0 85 07 95 bc d8 a5 72 3d e9 59 a1 3d 8a a9 97 3d
       -0.018192062 0.059240192 0.07878477 0.07405384
0000e0 7b b4 0d 3d 48 59 f7 3c 5b 5c c7 3b fc 00 0b 3e
       0.034595948 0.03019394 0.0060840077 0.13574594
0000f0 18 32 d2 3d 89 82 44 be 87 5d 33 bd a1 ca ab 3d
       0.10263461 -0.1919042 -0.043790367 0.08388258
000100 ee d5 12 3e 8f 27 4d 3d a3 04 6b 3e be 7a 48 3d
       0.1433942 0.050086554 0.22950988 0.04894518
000110 36 f2 06 3e 1f c2 31 bb 55 00 1f bb f4 98 79 3d
       0.13178334 -0.0027123762 -0.0024261673 0.060936883
000120 a0 ed 96 3d 6a b0 c0 3d 98 35 df 3c 6a a6 23 3d
       0.07369542 0.09408648 0.027247235 0.039953627
000130 fc b1 ce 3d c8 9e cb bd d3 d4 b0 3d 56 73 df 3d
       0.100925416 -0.099423945 0.08634343 0.109106705
000140 f6 01 7e 3d 9a ca 38 bd d9 0c 31 3d e3 af 24 3e
       0.06201359 -0.04511509 0.043225143 0.1608272
000150 92 91 7f 3d 33 ff eb 3d 45 5f 13 bd e0 f8 6e 3e
       0.062394686 0.11523285 -0.035979528 0.23337126
000160 34 cc 81 3c de 6b 2e 3e 42 f9 78 bd d5 eb 64 3c
       0.015844442 0.17033336 -0.060784586 0.013972242
000170 01 00 10 3b 83 20 77 3d f0 ab 69 3d fb ad 8f 3d
       0.0021972659 0.06033374 0.057048738 0.07015606
000180 05 b5 59 bd 10 02 2f 3d 3a f6 f1 3d e4 cf e9 3d
       -0.05315115 0.042726576 0.11814542 0.11416605
000190 f6 1e 80 3d ee 1f a1 3c 5c 1e 18 3d 4b 20 cf 3d
       0.06255905 0.019668546 0.037138328 0.10113581
0001a0 a6 d2 82 3d d7 23 76 3d c1 3f 5c 3d 13 ca 43 3d
       0.06387834 0.060092773 0.053771738 0.047800135
0001b0 95 ec 59 3d 8c 54 f1 3c 1f b8 cc 3c 9b 5f 43 3d
       0.053204138 0.02945926 0.02499014 0.0476986
0001c0 f9 02 27 3e 75 48 b5 3d 50 7b 16 3c ba 0e 48 3a
       0.16309728 0.08851711 0.009184673 0.0007631589
0001d0 b4 28 1e 3d 76 4b e9 3d d8 a3 2b bb ab 84 8f 3c
       0.038613036 0.11391346 -0.0026190188 0.017519316
0001e0 c3 62 19 3e 64 7d 87 3d 72 59 c6 3d 35 18 84 3d
       0.14979081 0.06615713 0.09685029 0.064499296
0001f0 35 22 b0 3d 8f c2 1c 3e d5 29 d2 3b 34 cc 6c bc
       0.086002745 0.15308593 0.006413678 -0.014452983
000200 3c a9 ad 3d e7 55 8e bc b2 16 1a 3d 47 2a 67 3d
       0.084795445 -0.017374946 0.0376193 0.056436803
000210 15 2b f3 3c 09 2b 83 3d ea 02 1e bd 2d ad 1d 3e
       0.029683629 0.06404693 -0.038576998 0.15398093
000220 1d 14 11 3d 08 ed c5 3d 2e 97 9a bd ae 5c b8 3d
       0.035419572 0.09664351 -0.075483665 0.09002052
000230 4c fe 40 3d d6 29 e2 3d 25 41 78 3d d0 32 c6 3d
       0.047117516 0.11043136 0.060609 0.096776605
000240 20 fa 41 3d a5 83 8a 3c 9e c8 f9 3c 4d a7 f6 3c
       0.04735768 0.016908476 0.03049117 0.030109072
000250 a1 75 b9 3c b1 b2 53 3b 53 52 43 3d 1b 85 25 3e
       0.022639098 0.0032302553 0.047685932 0.16164057
000260 4a 8d b8 3d ba d3 f9 3c 70 e8 b5 bd f3 02 51 3d
       0.09011324 0.030496467 -0.088822246 0.051028203
000270 b2 f2 6f 3d 96 be 5b 3d 9c 97 58 3d aa 67 d7 3c
       0.05858106 0.053648554 0.05287896 0.026294548
000280 d4 3a 68 3d 1b 94 85 3d af ee f5 3d ac 2d c6 3c
       0.056696728 0.065223895 0.12008416 0.0241917
000290 64 17 05 bd 32 5b a3 3d 54 c1 3a 3e 6b 0d 53 3d
       -0.03249301 0.079763785 0.18237811 0.05152647
0002a0 ec d5 4c 3d 53 81 8d 3d df 2b cd 3d a3 7c 87 3c
       0.0500087 0.06909432 0.10018133 0.016538924
0002b0 d2 c8 e3 3c 7f 93 80 3d a2 b6 8d 3d 9e 72 79 3d
       0.02780572 0.06278133 0.069196 0.060900323
0002c0 1b b0 86 3d 0a 18 39 3d c7 4d da 3c a7 38 3a 3d
       0.06576558 0.04518894 0.026648415 0.045464184
0002d0 f0 2c 95 3d f7 f8 e8 3d 79 3e de 3d 3a d0 89 3d
       0.07283962 0.11375611 0.108517595 0.06729169
0002e0 d9 d0 9b 3d 00 97 3b 3d 20 6e 18 3d 11 b1 44 bc
       0.07608194 0.0457983 0.0372144 -0.012005107
0002f0 36 75 8b 3d c8 dd 45 3d 0c b6 dc 3d d2 85 23 3e
       0.068094656 0.04830721 0.1077691 0.15969017
000300 d2 58 85 bd 70 7a 5b 3d 09 0e df 3d e4 d2 85 3d
       -0.06511082 0.053583562 0.10891349 0.06534365
000310 36 8e 85 3d e1 95 ba 3d 13 ff 92 3d 4b d6 e2 3c
       0.06521265 0.091106184 0.07177558 0.027690073
000320 41 28 b4 3d 0c 1d 19 3c b8 60 07 be 52 ec 69 bc
       0.0879674 0.009345304 -0.13220489 -0.014277535
000330 b3 87 e8 3d 6e 90 c2 bd 11 8e 13 bd 91 33 8c bd
       0.113540076 -0.09500204 -0.036024157 -0.06845773
000340 d3 78 b2 ba 3b ef 43 3d 9e 21 ca 3b c7 55 e8 bc
       -0.0013616331 0.04783557 0.0061685583 -0.028361214
000350 4c 5a 5e 3c de e0 c8 bb 0f ea 21 3e 01 3c d1 3c
       0.013571333 -0.006130322 0.15811943 0.025541307
000360 c3 42 42 bd 88 30 11 be 54 41 a4 bd 24 d2 5b bd
       -0.04742695 -0.1417867 -0.08020273 -0.053667203
000370 08 a4 ba 3d d8 3a 9d bd 0f 15 54 bc cc 39 ef 3d
       0.09113318 -0.07677239 -0.012944474 0.11680946
000380 b5 b3 f4 3d eb 8d a3 3d db 77 32 bc 9d 7e a1 3d
       0.11948339 0.07986053 -0.010892834 0.07885478
000390 0d b6 a3 bd 23 3d 28 3d a1 47 11 bd 55 d1 10 3d
       -0.07993708 0.04107393 -0.0354687 0.035355885
0003a0 fc d8 0d bd 08 a9 07 bc ba 58 69 3d ea c0 7a 3c
       -0.03463076 -0.008280046 0.056969382 0.015304783
0003b0 8f 47 95 bd cd 12 a0 3b a0 81 64 3d f1 1b ec 3b
       -0.07289039 0.0048850537 0.055787683 0.0072054793
0003c0 00 2d 48 bb c0 aa ea 3d 16 b4 d4 bd 70 a5 68 3d
       -0.00305444 0.11458349 -0.10385911 0.0567984
0003d0 a0 d8 ca 3d 3c 14 9c bd 24 c4 a6 bd c7 02 8f bd
       0.09904599 -0.07621047 -0.081428796 -0.069829516
0003e0 65 03 bd 3b 2d ae 2e bd eb 33 8f 3d 89 e6 d4 bb
       0.005768227 -0.042646576 0.069923244 -0.0064972085
0003f0 71 41 03 3e e0 8d 5e 39 04 4c c8 3d f0 52 ed bd
       0.12817933 0.00021224422 0.09780124 -0.11588085

controller.fc_out.weight f4 [1000, 100]
000000 e9 6d 76 3e d8 fd bd 3c 0c 0d 1d bf 29 96 d2 be
       0.24065365 0.023192331 -0.6134803 -0.41130188
000010 8b 5c 03 3f fe 78 62 be d0 7e 2f 3d 94 e4 7d be
       0.51313084 -0.22116467 0.042845547 -0.24794227
000020 9d fe 43 3e 2a 95 28 be 6d f4 ec bd 82 a8 9b be
       0.19140096 -0.16463152 -0.11570058 -0.30402
000030 bb 1f 30 3d 4a a3 42 bf f8 ca ea 3e d2 a7 92 3e
       0.04299901 -0.7603041 0.45857978 0.28643662
000040 93 a1 74 bf 12 48 f1 be 89 64 98 bf cb 2d 22 bf
       -0.9555904 -0.47125298 -1.1905681 -0.63351125
000050 7a 29 28 be 48 ae e8 bd 1d d1 bf 3e 72 09 04 3f
       -0.16422072 -0.113613665 0.37464228 0.5157691
000060 52 a6 d6 3e 2d 0a ad 3e 9c 8e 58 bf c6 0d 88 3c
       0.41923767 0.33796826 -0.84592605 0.01660813
000070 66 eb 75 be 7e c3 bd be 6d c8 ff be f4 f1 0a be
       -0.24015579 -0.3706321 -0.499576 -0.1356886
000080 9d 93 1f 3f 45 18 49 3e 13 69 13 3e 4d 76 72 be
       0.62334615 0.19638164 0.14395551 -0.2367794
000090 a6 da 13 bf ce 2a 82 bd 18 1c df bd cb 88 07 3e
       -0.57755506 -0.063558206 -0.1089403 0.13235776
0000a0 86 8a 91 3e ae 16 a6 3e 1d 29 e5 be aa d4 83 3d
       0.28425997 0.32439178 -0.4475793 0.06437047
0000b0 a8 93 f7 3e 07 86 35 3e 86 96 d4 be d9 79 c9 be
       0.4835484 0.17726909 -0.4152109 -0.39350775
0000c0 ff 7f a1 be d0 09 91 be c8 fd 7b 3e 21 83 06 bf
       -0.31542966 -0.283278 0.24608529 -0.52543837
0000d0 06 7b 03 3f 6c 70 c9 be bd 58 b1 3e 90 b4 a1 be
       0.51359594 -0.39343584 0.34638014 -0.3158307
0000e0 5f 8f c7 be 48 c3 88 bd e0 31 15 3e 21 11 af 3e
       -0.3897657 -0.06677872 0.14569807 0.34192756
0000f0 a8 13 db 3e a0 b1 5f be e6 bc d4 3c 30 e2 da be
       0.42788434 -0.21845102 0.02596898 -0.42750692
000100 5a 96 0c 3f b2 8d 5a 3d af 5d 8a 3e 5a 78 88 3d
       0.5491692 0.053357787 0.270246 0.0666358
000110 af b4 8c bd 8f de 17 bc 5a 7f 45 3e c3 20 2e 3f
       -0.068704 -0.009269371 0.19286862 0.6801874
000120 d0 e0 7a be 03 07 02 3f 90 e4 11 3f e0 82 1e be
       -0.24499822 0.5079195 0.56989384 -0.15479612
000130 e7 de e5 be 1c 70 01 3e e1 dd 8f 3e 7b ed 3d bd
       -0.44896623 0.12640423 0.28098968 -0.046369057
000140 e2 78 91 be b6 aa f3 be 27 94 32 3e 7c 7a 33 bf
       -0.2841254 -0.4759118 0.17439328 -0.7010877
000150 fe cc 2f bf b8 f5 1b 3f fb fc b4 3e d4 78 31 bf
       -0.6867217 0.6092181 0.3534926 -0.69324994
000160 3e 80 30 3d 16 a5 46 3f 05 1a 39 3f ff a0 d9 3d
       0.04309105 0.7759565 0.7230533 0.10626411
000170 bc 94 d7 3e 0a 60 2f 3e c2 6a b0 be 6a a7 23 be
       0.42105663 0.1712648 -0.3445645 -0.15981832
000180 14 40 0e 3e 64 49 bf be fd ea a8 3e 3c 36 3f 3f
       0.13891631 -0.3736068 0.32991782 0.7469213
000190 a1 e8 e7 be 7a 62 87 be b2 91 81 be d3 bc 4e 3e
       -0.4529467 -0.2644232 -0.2530647 0.20189218
0001a0 dc e9 60 bf 8c d1 d4 be d6 5e 47 bf 38 e0 23 3b
       -0.8785684 -0.41566122 -0.77879083 0.002500547
0001b0 b4 e8 8b 3e 0a 36 a2 3f ed 5e ff 3a cf 06 07 3f
       0.27325976 1.2672741 0.0019483246 0.52744764
0001c0 b4 b8 8b 3e 26 e6 d5 be 41 5e 06 bf a9 06 a0 3f
       0.27289355 -0.41777152 -0.5248757 1.2502033
0001d0 17 a7 85 3e 2e cc 58 3e 2a c6 a6 3d 2e 07 0c 3f
       0.26104042 0.21171638 0.081432655 0.54698455
0001e0 08 30 18 bf 0d 60 11 3e 86 c3 4e bf bd e8 8a bf
       -0.5944829 0.14196797 -0.80767095 -1.0852276
0001f0 af 95 14 bf c5 c6 93 3e d3 a8 12 3e ff d3 82 bd
       -0.580409 0.28862587 0.14322214 -0.06388091
000200 f2 e1 32 3e b7 13 90 3e 69 ce cb be f8 30 f7 be
       0.17469004 0.2814004 -0.39805916 -0.48279548
000210 d4 9c 32 be 19 5c c9 bd ee 7e 0c 3f e6 d0 08 3e
       -0.17442638 -0.09832019 0.5488118 0.13360938
000220 12 db c3 3e bc 71 b2 3d 13 7e 25 bf 5f b2 43 3f
       0.38253075 0.08713099 -0.646455 0.7644405
000230 f5 26 a9 be 51 c8 92 be d6 98 d3 3e ca 83 0f bf
       -0.33037534 -0.28668454 0.41327542 -0.5606047
000240 74 e3 8a bf 7e c5 9f 3e 7f 0a 8b 3e 4e b1 93 bf
       -1.0850663 0.31205362 0.27156445 -1.1538484
000250 8f e8 3f 3f 4a ba 64 3d d1 bf a1 be 9e 39 5d bb
       0.7496423 0.05584172 -0.31591657 -0.0033756266
000260 89 cb f3 3e 6f 35 95 be 21 83 87 be f4 f5 38 bf
       0.47616223 -0.2914233 -0.2646723 -0.72250295
000270 a4 cc 8c be df 84 f8 bc d3 0b f1 3d 8f dc 02 3f
       -0.27499878 -0.030336795 0.117698334 0.51117796
000280 45 62 c6 bd dc 09 be 3e 76 c8 09 3f b0 dc e3 be
       -0.09686712 0.37116897 0.53821504 -0.4450431
000290 3e 05 b4 3e 69 e2 b2 3e 7c 1b d2 be a3 1b 60 3e
       0.3516025 0.34938362 -0.41036594 0.21885543
0002a0 d6 88 a4 be 7f 54 16 3f 11 35 ab be 73 b6 a8 be
       -0.32135648 0.5872268 -0.33438924 -0.32951698
0002b0 c8 5a 90 3e 89 3f 40 bf 06 72 63 bf 8a 72 93 bf
       0.2819426 -0.75096947 -0.8884586 -1.151933
0002c0 ff 9e 8c 3f 0e 8e d9 be 57 0f 0b bf 42 2d c7 3e
       1.0986022 -0.42491192 -0.5432028 0.38901716
0002d0 d3 fa a4 3e 0b a6 60 3e a1 fd c1 be 8b 27 d6 be
       0.32222614 0.2193834 -0.37888816 -0.41827044
0002e0 24 b6 9b 3d c6 91 38 3d 92 fe 7b 3f a4 cc 27 3f
       0.076031 0.045060895 0.9843532 0.6554663
0002f0 ff 96 35 3e 73 4c 27 3f c8 17 3a bf 73 78 71 3f
       0.17733382 0.6535103 -0.7269254 0.94324416
000300 01 6e a4 be 5e f6 82 3e 2d ac 58 bf 3c 66 14 3e
       -0.32115176 0.25578588 -0.8463772 0.14492124
000310 c9 1b d7 3c f9 05 19 be d3 cc 74 be 33 20 f2 bd
       0.026258366 -0.14943685 -0.23906259 -0.11822548
000320 63 33 ed 3e 0c d4 b2 3f d4 8e f4 bd 45 25 5a bf
       0.46328267 1.3970962 -0.11941305 -0.8521312
000330 aa 30 15 3f 21 41 48 be 96 75 3b bf ad fc da be
       0.5827738 -0.19556095 -0.73226297 -0.427709
000340 52 07 f2 be 33 e0 b4 3e 98 97 8c 3d 5c af 9a be
       -0.4727121 0.353273 0.06864852 -0.30211914
000350 a2 4a ea be 7b 16 57 3e 2e a9 d6 3f a3 70 40 3d
       -0.45760065 0.2100467 1.677038 0.04698242
000360 eb 8f bb 3d 7c 96 60 3d 51 4e 72 3f 96 9a b3 be
       0.091583095 0.054831013 0.9465075 -0.35078877
000370 3b b0 a2 3e 45 40 3a bf f4 d7 4d bf 43 47 09 3f
       0.31775078 -0.7275432 -0.80407643 0.5362436
000380 b7 1b 93 be f3 c2 3b be fe 7e 03 3e 82 a1 a7 3d
       -0.28732082 -0.18336086 0.12841412 0.08185102
000390 da 27 52 bf 26 fd 59 3e a4 d3 fd 3e da a1 12 3f
       -0.8209206 0.21287975 0.4957553 0.57278216
0003a0 41 06 b6 be 3b ce f0 3e 07 40 9a 3f 4c d5 ca be
       -0.35551646 0.4703234 1.205079 -0.39615858
0003b0 5d 4e ad bf 06 22 b6 bd c6 94 08 3e f6 2b 17 bf
       -1.353954 -0.08893208 0.13338003 -0.59051454
0003c0 0a c1 82 bf 39 71 3f 3f 86 34 0e bf 4c 3d f4 bd
       -1.0215161 0.7478214 -0.55548894 -0.11925754
0003d0 d2 04 a8 3e f6 81 17 bf 8d 80 1e 3e f1 58 bf be
       0.32816178 -0.5918268 0.15478726 -0.37372544
0003e0 95 44 11 3e db 06 88 3f 5b bb b7 3e 21 80 67 3f
       0.14186318 1.0627092 0.35885128 0.90429884
0003f0 66 b8 d6 3c 0b d8 6b 3f 74 1f 19 bf e4 6f 32 3e
       0.026210975 0.9212653 -0.5981362 0.17425495
