VerNova/checkpoints/ntm_val_0.1331_epoch_97.pt (torch, 863077 bytes, 11 tensors)

read_vectors f4 [1, 32]
00000000: c80d 073f 72c8 9abe 74b2 bf3f d99a 11bf
00000010: 26d2 ea3f 5479 0e3c b725 d93e baf9 8d3f
00000020: 4db9 16bf f555 0bbf b52e db3f b004 883e
00000030: 8c4c 2bbf 696c 82bf 269c 91bf 477a f23e
00000040: 4131 be3f 1cd3 173f d563 b1be 4e1c 83bd
00000050: f486 cc3f c218 9d3e a46f 093f 12ac 07bf
00000060: b4bd 643e 6118 6bbf 01c8 5c3f bcf8 a8bf
00000070: e3ec 37bd 30a6 393e f847 093f 85c8 bbbf
0.52755404 -0.30231053 1.4976335 -0.56876904 1.8345382 0.008695919 0.42411587 1.1091835
-0.58876497 -0.54428035 1.7123629 0.26566076 -0.66913676 -1.0189334 -1.1375778 0.47358915
1.4858781 0.593065 -0.34646478 -0.06401883 1.5978684 0.3068295 0.53685975 -0.52996933
0.22337991 -0.91834074 0.8624268 -1.3200908 -0.044903647 0.18129802 0.5362544 -1.4670569

memory.memory f4 [64, 32]
00000000: c80d 073f 72c8 9abe 74b2 bf3f d99a 11bf
00000010: 26d2 ea3f 5479 0e3c b725 d93e baf9 8d3f
00000020: 4db9 16bf f555 0bbf b52e db3f b004 883e
00000030: 8c4c 2bbf 696c 82bf 269c 91bf 477a f23e
00000040: 4131 be3f 1cd3 173f d563 b1be 4e1c 83bd
00000050: f486 cc3f c218 9d3e a46f 093f 12ac 07bf
00000060: b4bd 643e 6118 6bbf 01c8 5c3f bcf8 a8bf
00000070: e3ec 37bd 30a6 393e f847 093f 85c8 bbbf
00000080: c80d 073f 72c8 9abe 74b2 bf3f d99a 11bf
00000090: 26d2 ea3f 5479 0e3c b725 d93e baf9 8d3f
000000a0: 4db9 16bf f555 0bbf b52e db3f b004 883e
000000b0: 8c4c 2bbf 696c 82bf 269c 91bf 477a f23e
000000c0: 4131 be3f 1cd3 173f d563 b1be 4e1c 83bd
000000d0: f486 cc3f c218 9d3e a46f 093f 12ac 07bf
000000e0: b4bd 643e 6118 6bbf 01c8 5c3f bcf8 a8bf
000000f0: e3ec 37bd 30a6 393e f847 093f 85c8 bbbf
00000100: c80d 073f 72c8 9abe 74b2 bf3f d99a 11bf
00000110: 26d2 ea3f 5479 0e3c b725 d93e baf9 8d3f
00000120: 4db9 16bf f555 0bbf b52e db3f b004 883e
00000130: 8c4c 2bbf 696c 82bf 269c 91bf 477a f23e
00000140: 4131 be3f 1cd3 173f d563 b1be 4e1c 83bd
00000150: f486 cc3f c218 9d3e a46f 093f 12ac 07bf
00000160: b4bd 643e 6118 6bbf 01c8 5c3f bcf8 a8bf
00000170: e3ec 37bd 30a6 393e f847 093f 85c8 bbbf
00000180: c80d 073f 72c8 9abe 74b2 bf3f d99a 11bf
00000190: 26d2 ea3f 5479 0e3c b725 d93e baf9 8d3f
000001a0: 4db9 16bf f555 0bbf b52e db3f b004 883e
000001b0: 8c4c 2bbf 696c 82bf 269c 91bf 477a f23e
000001c0: 4131 be3f 1cd3 173f d563 b1be 4e1c 83bd
000001d0: f486 cc3f c218 9d3e a46f 093f 12ac 07bf
000001e0: b4bd 643e 6118 6bbf 01c8 5c3f bcf8 a8bf
000001f0: e3ec 37bd 30a6 393e f847 093f 85c8 bbbf
00000200: c80d 073f 72c8 9abe 74b2 bf3f d99a 11bf
00000210: 26d2 ea3f 5479 0e3c b725 d93e baf9 8d3f
00000220: 4db9 16bf f555 0bbf b52e db3f b004 883e
00000230: 8c4c 2bbf 696c 82bf 269c 91bf 477a f23e
00000240: 4131 be3f 1cd3 173f d563 b1be 4e1c 83bd
00000250: f486 cc3f c218 9d3e a46f 093f 12ac 07bf
00000260: b4bd 643e 6118 6bbf 01c8 5c3f bcf8 a8bf
00000270: e3ec 37bd 30a6 393e f847 093f 85c8 bbbf
00000280: c80d 073f 72c8 9abe 74b2 bf3f d99a 11bf
00000290: 26d2 ea3f 5479 0e3c b725 d93e baf9 8d3f
000002a0: 4db9 16bf f555 0bbf b52e db3f b004 883e
000002b0: 8c4c 2bbf 696c 82bf 269c 91bf 477a f23e
000002c0: 4131 be3f 1cd3 173f d563 b1be 4e1c 83bd
000002d0: f486 cc3f c218 9d3e a46f 093f 12ac 07bf
000002e0: b4bd 643e 6118 6bbf 01c8 5c3f bcf8 a8bf
000002f0: e3ec 37bd 30a6 393e f847 093f 85c8 bbbf
00000300: c80d 073f 72c8 9abe 74b2 bf3f d99a 11bf
00000310: 26d2 ea3f 5479 0e3c b725 d93e baf9 8d3f
00000320: 4db9 16bf f555 0bbf b52e db3f b004 883e
00000330: 8c4c 2bbf 696c 82bf 269c 91bf 477a f23e
00000340: 4131 be3f 1cd3 173f d563 b1be 4e1c 83bd
00000350: f486 cc3f c218 9d3e a46f 093f 12ac 07bf
00000360: b4bd 643e 6118 6bbf 01c8 5c3f bcf8 a8bf
00000370: e3ec 37bd 30a6 393e f847 093f 85c8 bbbf
00000380: c80d 073f 72c8 9abe 74b2 bf3f d99a 11bf
00000390: 26d2 ea3f 5479 0e3c b725 d93e baf9 8d3f
000003a0: 4db9 16bf f555 0bbf b52e db3f b004 883e
000003b0: 8c4c 2bbf 696c 82bf 269c 91bf 477a f23e
000003c0: 4131 be3f 1cd3 173f d563 b1be 4e1c 83bd
000003d0: f486 cc3f c218 9d3e a46f 093f 12ac 07bf
000003e0: b4bd 643e 6118 6bbf 01c8 5c3f bcf8 a8bf
000003f0: e3ec 37bd 30a6 393e f847 093f 85c8 bbbf
0.52755404 -0.30231053 1.4976335 -0.56876904 1.8345382 0.008695919 0.42411587 1.1091835
-0.58876497 -0.54428035 1.7123629 0.26566076 -0.66913676 -1.0189334 -1.1375778 0.47358915
1.4858781 0.593065 -0.34646478 -0.06401883 1.5978684 0.3068295 0.53685975 -0.52996933
0.22337991 -0.91834074 0.8624268 -1.3200908 -0.044903647 0.18129802 0.5362544 -1.4670569
0.52755404 -0.30231053 1.4976335 -0.56876904 1.8345382 0.008695919 0.42411587 1.1091835
-0.58876497 -0.54428035 1.7123629 0.26566076 -0.66913676 -1.0189334 -1.1375778 0.47358915
1.4858781 0.593065 -0.34646478 -0.06401883 1.5978684 0.3068295 0.53685975 -0.52996933
0.22337991 -0.91834074 0.8624268 -1.3200908 -0.044903647 0.18129802 0.5362544 -1.4670569
0.52755404 -0.30231053 1.4976335 -0.56876904 1.8345382 0.008695919 0.42411587 1.1091835
-0.58876497 -0.54428035 1.7123629 0.26566076 -0.66913676 -1.0189334 -1.1375778 0.47358915
1.4858781 0.593065 -0.34646478 -0.06401883 1.5978684 0.3068295 0.53685975 -0.52996933
0.22337991 -0.91834074 0.8624268 -1.3200908 -0.044903647 0.18129802 0.5362544 -1.4670569
0.52755404 -0.30231053 1.4976335 -0.56876904 1.8345382 0.008695919 0.42411587 1.1091835
-0.58876497 -0.54428035 1.7123629 0.26566076 -0.66913676 -1.0189334 -1.1375778 0.47358915
1.4858781 0.593065 -0.34646478 -0.06401883 1.5978684 0.3068295 0.53685975 -0.52996933
0.22337991 -0.91834074 0.8624268 -1.3200908 -0.044903647 0.18129802 0.5362544 -1.4670569
0.52755404 -0.30231053 1.4976335 -0.56876904 1.8345382 0.008695919 0.42411587 1.1091835
-0.58876497 -0.54428035 1.7123629 0.26566076 -0.66913676 -1.0189334 -1.1375778 0.47358915
1.4858781 0.593065 -0.34646478 -0.06401883 1.5978684 0.3068295 0.53685975 -0.52996933
0.22337991 -0.91834074 0.8624268 -1.3200908 -0.044903647 0.18129802 0.5362544 -1.4670569
0.52755404 -0.30231053 1.4976335 -0.56876904 1.8345382 0.008695919 0.42411587 1.1091835
-0.58876497 -0.54428035 1.7123629 0.26566076 -0.66913676 -1.0189334 -1.1375778 0.47358915
1.4858781 0.593065 -0.34646478 -0.06401883 1.5978684 0.3068295 0.53685975 -0.52996933
0.22337991 -0.91834074 0.8624268 -1.3200908 -0.044903647 0.18129802 0.5362544 -1.4670569
0.52755404 -0.30231053 1.4976335 -0.56876904 1.8345382 0.008695919 0.42411587 1.1091835
-0.58876497 -0.54428035 1.7123629 0.26566076 -0.66913676 -1.0189334 -1.1375778 0.47358915
1.4858781 0.593065 -0.34646478 -0.06401883 1.5978684 0.3068295 0.53685975 -0.52996933
0.22337991 -0.91834074 0.8624268 -1.3200908 -0.044903647 0.18129802 0.5362544 -1.4670569
0.52755404 -0.30231053 1.4976335 -0.56876904 1.8345382 0.008695919 0.42411587 1.1091835
-0.58876497 -0.54428035 1.7123629 0.26566076 -0.66913676 -1.0189334 -1.1375778 0.47358915
1.4858781 0.593065 -0.34646478 -0.06401883 1.5978684 0.3068295 0.53685975 -0.52996933
0.22337991 -0.91834074 0.8624268 -1.3200908 -0.044903647 0.18129802 0.5362544 -1.4670569

controller.lstm.weight_ih f4 [400, 64]
00000000: 9736 6f3c 7f01 4ebc 4c1d aabc 6367 373d
00000010: 3a73 be3c 3975 91bc 6292 b4bc 2755 abbb
00000020: 13f8 c5bd 53d3 dc3c 1482 2f3d 6db0 913d
00000030: 8b83 7c3b b683 1f3c 1616 2fba 9c7c d13a
00000040: a3b2 293e 94d8 6fbd adcd 4bbc 2442 643d
00000050: 71a5 36bc 7946 fb3b 022c fdbc 323f 6bbd
00000060: b57c 19bc 1f57 5ebd 1bcf a9bd 06f7 cf3d
00000070: 87a6 19bc 1433 92bc 8af5 10bb 93e5 803d
00000080: ce37 5c3d 5535 77bd 9be9 c0bd 95ac a9bc
00000090: 89f2 41be 2b80 6abd ed44 143c 77d3 a1bd
000000a0: 17ce b23d 8db8 b33e 1870 16be 03f1 a43e
000000b0: ae8e 273d 8efb 1dbd c9ee 4e3e 3a2e c13b
000000c0: e3f9 9abd f679 0bbd 2c3e 623e 6b2f 583d
000000d0: b988 81be 803a adbd 7eb1 733d aa7b fc3d
000000e0: 26f0 e13b d188 b1bc b71c ae3d 142a 173e
000000f0: dfc6 1bbe 63f4 5cbd 02a1 66be ca88 183e
00000100: 2a16 093d 36e0 91bd bc7d 103e 8faa 8f3c
00000110: ebea 3a3e 932b c6bd 97ac 1ebe 3fbb dd3d
00000120: fb09 bebd 86ee 31be f4be 8a3c bc7f 333d
00000130: 487f f0bd df4c 573d b752 b03c 9c10 e73c
00000140: f9e6 f93d 3170 f5bd 53c0 733d 5b1d d4bc
00000150: e3b4 f83b c36f fe3c ce20 43bd 8d72 46be
00000160: e798 233e 0b5d e139 e455 7bbd 07c7 a3bd
00000170: 6762 3dbe 77ea 01be 22e4 36bc 42a5 883c
00000180: d13c 2cbd c751 8cba bf8d ab3c 6111 b93c
00000190: 1065 903c 52c2 043c 4fdd ed3c 9c76 7e3d
000001a0: 87da 63bd bd03 4cbd 0e18 1cbd 3d31 10bd
000001b0: b9cd c8bc 26a7 73bd 72ce 83bd 6387 1bbd
000001c0: 6229 f83d 6846 15bd 11ec 4abd 051c 7c3c
000001d0: fcdf b13b 94a3 3bbd 9a9d 1b3c 4196 fb3c
000001e0: fbd2 80bd 33a2 2bbc 401a c3bb 34bd 3bbd
000001f0: d334 323c 5952 ab3c 8e41 b43d 041f 49bd
00000200: c24f 74bd 8db6 d3bd 0686 b43d 72aa b03d
00000210: 29c8 3e3e 42e9 04bd 6f44 6dbd 55a2 9a3d
00000220: 8876 e3bd 7c5e c6bd 5190 b23c b80a 103e
00000230: bd82 2bbd 26ee 083e 89c5 83b9 e84e 7bbb
00000240: 7166 a2bd 894c 97bd 526b 163e 8207 52be
00000250: c95c 80bd 0265 073e 3a60 73bd 6038 1cbe
00000260: 340b fd3d edfa ccbd 15fa fbbd 13bc fabd
00000270: cd39 1cbe b89f 1fbe ad80 103d 5e9b 22bd
00000280: e0a4 c93c bdca 013e 1597 07be 4bed d63e
00000290: 9355 89bd 8080 09bf d4cb 22be 4006 2abe
000002a0: 0882 ae3e 6bc3 f4bd c5a7 953d 1b7e 253f
000002b0: 4258 443e 6bae acbd 65f5 513e 6a04 f8bb
000002c0: f8df cfbd ba08 53be bc40 15be ba87 113f
000002d0: ba24 cebe 93b6 a1bd 28d2 3e3f b5ac 00bf
000002e0: 6b9b 0bbe cfb6 373e 4b4d 1abe abf4 a7bd
000002f0: 9a85 bebe 6195 863d 2261 78be bfe6 71bd
00000300: 4707 053e b80d a7bd 1c01 0b3e 0cdc f8bc
00000310: 09e2 f53c a0ec a8bd d94d c33c 59a5 5f3d
00000320: 838f ed3c d91c 06be e37a 9dbd 28cb 5a3d
00000330: 52a5 143d 0a93 793d f511 9c3c 8292 943d
00000340: 1d67 b7bd 58e4 37bd 4962 21be 3414 203d
00000350: 3a8d 773d 9a60 cfbd c2c6 a2bd b9cb 0bbe
00000360: af44 06bc 6af1 6c3d 7ac3 903c cc90 febc
00000370: a109 0ebd 1377 6bbd cfb8 debc 3946 06bd
00000380: 8539 233e 5b72 453d 66ca dc3d 1981 a6bd
00000390: 30b9 473e 9d1e 23be ff25 993e 4517 503e
000003a0: e59a 18be 87a4 05be 71fc 8e3e cb2d 573d
000003b0: d473 abbd 3544 dbbd 9034 0bbe 7dae 823e
000003c0: 105d 263c 09cb d33d 7fc8 ab3c ff64 0b3e
000003d0: 3f5e 4d3e dd08 413d 95ae 9dbc 535e f4bd
000003e0: c87c 9ebd 81a1 5fbd 7a99 f3be a60d 033c
000003f0: 3d1c ed3c c848 cabc 2077 793d 4fc8 b7bd
0.014600418 -0.012573599 -0.020765923 0.04477633 0.023248304 -0.017756091 -0.022042457 -0.005228657
-0.09666457 0.026956236 0.04284866 0.07113729 0.0038530554 0.009735992 -0.0006679011 0.0015982571
0.16572051 -0.058556154 -0.012439174 0.05572714 -0.011147843 0.007668313 -0.030904774 -0.057433315
-0.009368111 -0.054282304 -0.08291455 0.10154538 -0.009378082 -0.017846622 -0.002211901 0.06293788
0.053764157 -0.060353596 -0.09419557 -0.020712176 -0.18940176 -0.057251137 0.009049636 -0.07901662
0.08730715 0.3510174 -0.14691198 0.32215127 0.040907554 -0.03856998 0.20208277 0.005895403
-0.07567193 -0.034051858 0.22094029 0.052779596 -0.25299624 -0.084584236 0.05949544 0.123282745
0.006895083 -0.021671684 0.08501571 0.14762145 -0.15212582 -0.053944003 -0.22522357 0.14895931
0.033468403 -0.07122843 0.14110464 0.017537383 0.18253677 -0.0967628 -0.15495525 0.1082673
-0.092792474 -0.17376146 0.016936757 0.04382299 -0.11743027 0.052563544 0.021523817 0.028206162
0.12202258 -0.119842894 0.059509587 -0.025892904 0.0075899228 0.031059152 -0.047638707 -0.19379635
0.15976296 0.00042984667 -0.06136121 -0.07996946 -0.18494569 -0.12687097 -0.01116279 0.016680364
-0.042050187 -0.0010705524 0.020941613 0.022591295 0.017626315 0.00810297 0.029036192 0.062124833
-0.055628326 -0.049808253 -0.038108878 -0.035203207 -0.024512159 -0.059485577 -0.06435861 -0.03797091
0.12117268 -0.036444098 -0.049541537 0.01538754 0.0054283123 -0.045810297 0.009498024 0.030711295
-0.06290241 -0.010475683 -0.005954057 -0.045834735 0.010876852 0.02091329 0.08801566 -0.049101844
-0.059646375 -0.10337553 0.088146254 0.0862626 0.18631043 -0.032449014 -0.05792659 0.07550494
-0.111065924 -0.0968599 0.021797331 0.14066589 -0.04187273 0.13372096 -0.00025133442 -0.0038346592
-0.079296954 -0.07387645 0.14689377 -0.20510677 -0.06267697 0.13222125 -0.05941794 -0.1525588
0.123556525 -0.10008798 -0.12303559 -0.122429036 -0.15256424 -0.15588272 0.035278965 -0.03969895
0.024614751 0.12674995 -0.13241227 0.41977915 -0.06705775 -0.537117 -0.15898067 -0.16603947
0.3408358 -0.119513355 0.0730739 0.64645547 0.19174293 -0.08431705 0.20503767 -0.0075688856
-0.101501405 -0.20608798 -0.14575475 0.5684773 -0.40262395 -0.078961514 0.74539423 -0.5026353
-0.13633506 0.1794083 -0.15068547 -0.082009636 -0.37211305 0.065714605 -0.24255803 -0.059057947
0.12991057 -0.081569135 0.13574642 -0.030378364 0.030015009 -0.08248258 0.023840832 0.054601047
0.028999096 -0.13096942 -0.076894544 0.0534164 0.036290474 0.060931243 0.019051531 0.07254507
-0.08955214 -0.0448955 -0.15760149 0.039081767 0.06043742 -0.10125847 -0.07948066 -0.13651933
-0.008195086 0.057847418 0.017671335 -0.031074904 -0.03467715 -0.057486605 -0.027187733 -0.032781813
0.1593991 0.04820476 0.10780792 -0.08130092 0.19504237 -0.15929647 0.299118 0.20321377
-0.14902838 -0.13051043 0.27926973 0.052533906 -0.08371702 -0.10706369 -0.1359427 0.2552375
0.010154024 0.1034146 0.020969627 0.13612746 0.20055483 0.047127593 -0.019248286 -0.119320534
-0.07738644 -0.05459738 -0.4757803 0.0079988595 0.02894413 -0.024692908 0.060904622 -0.08973753

controller.lstm.weight_hh f4 [400, 100]
00000000: 7bb2 2bbe 016c 8fbe dd62 ddbd d1a2 9abe
00000010: 2d6b f93c 8d84 c73c 5182 37be 5536 713e
00000020: bb15 973d 126a 5dbd bf18 55bd 486e 59be
00000030: d630 e4bc 00e1 513e b24c 173b e34b 2d3d
00000040: dc0d 5b3c 6542 5cbd 71f9 283d d60c 5a3d
00000050: 1067 c93d 1dfc 81bd 4d04 913c 0c29 babd
00000060: 1421 a0bd baa5 8a3d c876 cd3b c2f8 dbbc
00000070: 2e17 abbd d276 093d ed4c adbc 9bce 53bd
00000080: ebba 823d b840 e4bd 0941 2fbe dd5f d63d
00000090: 40ca 933d 2fb6 7e3d 1d88 d13c 5500 2bbe
000000a0: 42db fd3c e669 f53d 3bce 37be c5e7 35be
000000b0: 7acf 173d 2564 06bc e715 603d 2bee d33d
000000c0: f739 b0bd a211 8ebe cbe9 15bd fc89 c03c
000000d0: 9404 333d 2f7f 103e 0466 88bd 76b0 a6bd
000000e0: 2f4b 0e3b 5513 9c3c b299 e4bc ecd0 b13d
000000f0: 4226 993e 662a ef3b 34c2 fd3d 7392 723c
00000100: 1649 4e3e 4730 3fbc 8816 83bc 760c 183e
00000110: 8be1 cabd 1f8e c1bc 79c6 db3d 2c12 a93d
00000120: b7b5 0abe c25a ad3d 315b 95bd a65a 803d
00000130: e295 fdbc 6401 49be a440 b6bd 3fab 49bd
00000140: 95f8 12bd 3100 35bb eb00 453d 0a20 8c3d
00000150: 424c 493c f712 783e 011b 623d 8a58 8cbd
00000160: 0ed9 cd3d 9e44 e9bd 31dd 013d de1e 07be
00000170: 6aab 383e e751 afbd 1ef7 c03d b789 0ebd
00000180: 8d60 d8bb c5c9 f8bc 2c7b 69be 5361 253b
00000190: 71f7 ec3c 7293 1c3d 202e 35bd 60a5 043d
000001a0: 786a c7bd b43c 813b 0316 723e 8205 cfbc
000001b0: a5f8 873d cb0f 96bd 99ad 293e 8070 bfbd
000001c0: 74d1 c63d 3918 283e 3c1b 1bbd 3e51 8b3d
000001d0: 02a1 423c 01eb 35be 8636 203d bb36 9dbc
000001e0: 2a3b 85bd dbfa e4bd 6ccd 56bc d816 b5bd
000001f0: 0628 353d f08c 733d bc88 b5bd 5ceb 39bd
00000200: ad76 4ebc a7b4 8cbb d49a d93d a838 463e
00000210: e682 1d3d 15ea d3bd 171e 25bb 1d52 22bd
00000220: 7b6b 9e3c c08a 9abd 3b30 b1bc 839b 963c
00000230: ada1 3fbd 04d7 c4bd ec05 103c f3be d5bc
00000240: 1ea3 c33a 90dc e8bc e158 a73c 6926 f8bd
00000250: 2dea d73d ac09 4a3d 4c0b b9bc f3d8 123d
00000260: 0b00 833b 990e e0ba 1646 ce3b e345 fe3d
00000270: 043b e03d aedc 8a3d 7176 0abd 456b 48bc
00000280: a753 9a3d 144c 31bd fc54 03bd d49f 6d3d
00000290: c27b 253c d445 413d b4a5 1cbd 3bf0 4abd
000002a0: 7c59 45bd c258 4fbd cee2 16bd db42 46bd
000002b0: d10f 533c c5c9 df3d ff29 123d 196e aebc
000002c0: e55a bbbb af5d 993d 4e3f 43bc 1d24 df3d
000002d0: e6ea ae3d 6f17 6a3d 0fa8 973d 21e3 2dbe
000002e0: ea21 81bd b617 23bd d000 dd3d 4d02 893d
000002f0: 0053 ecbd 8938 3cbb f6a8 db3c 8a7f 8e3d
00000300: 0958 1c3d ad5c fd3b 685c 75bd b698 99bc
00000310: 26e2 1e3e 0154 fc3c fe36 4ebd d322 02bd
00000320: 5559 a6be b0ef 7c3e 3b8e 0d3f ac99 b6be
00000330: 6d6a d83d c0e4 2d3e 7e17 803e 472f bf3e
00000340: 74ad f4be f2a2 793b 20aa 6ebf 30a4 04be
00000350: 3b2b 33c0 0418 bdbd 29dc 7abe 124b 0e3d
00000360: 0ff4 65bd f1f4 413e 1661 823d 9994 ef3d
00000370: 2dd2 023f b435 cb3d 8244 c5bc c707 d73d
00000380: 910c 923e 7457 213e 170f be3c 956b ba3e
00000390: ff73 07bf bd4a cc3d ebad 30be 6fe3 a8bd
000003a0: 8426 53be 06c8 a73d d2fc e3bd 9f42 abbc
000003b0: c88e 9abe 4511 d7bd 00c3 3dbd eacb c73e
000003c0: 517d b43d 0125 6fbd 684f e5bc 8306 0dbd
000003d0: 4c17 2d3d d6d9 cf3e 3ec8 f3be 6cbc f4bd
000003e0: 8a44 c7bd 2245 653e 83c0 f33c 098c 11bd
000003f0: 5119 a0bd 5769 a3be 5295 323c bbdf 33be
-0.16767304 -0.28012088 -0.10809872 -0.30202344 0.030446613 0.024355197 -0.17920806 0.23555882
0.07377192 -0.054056235 -0.052025553 -0.21233475 -0.027855318 0.20495987 0.0023086485 0.0423087
0.013370004 -0.053774256 0.04125351 0.053234898 0.09834111 -0.06346915 0.017702246 -0.0908986
-0.07818809 0.06769891 0.0062702633 -0.026852015 -0.083540305 0.03356058 -0.021154845 -0.051710706
0.06383308 -0.111451566 -0.17114653 0.10467503 0.072163105 0.062185463 0.0255776 -0.16699345
0.03098834 0.11983089 -0.17949764 -0.17764194 0.0370631 -0.008202587 0.054708388 0.10348161
-0.08604806 -0.27747828 -0.036599915 0.023503296 0.043705538 0.14111017 -0.06660083 -0.08139126
0.0021712293 0.019052187 -0.027905319 0.08682427 0.29912 0.0072987555 0.12390557 0.014805424
0.20145068 -0.011669225 -0.016001955 0.14848503 -0.099063 -0.023627339 0.10731215 0.08255419
-0.13545881 0.08464576 -0.07292784 0.0626729 -0.030955259 -0.19629437 -0.08899048 -0.04923558
-0.035881598 -0.0027618522 0.04809658 0.068420485 0.012286248 0.24225985 0.055201534 -0.06852825
0.100511655 -0.11390041 0.031705085 -0.13195369 0.1803414 -0.085605435 0.09422134 -0.034799304
-0.0066033066 -0.030369649 -0.22800893 0.0025235012 0.028926583 0.038226552 -0.04423344 0.032384276
-0.09737104 0.003944004 0.2364121 -0.025271181 0.06639222 -0.07327231 0.16570129 -0.093476295
0.09707919 0.1641549 -0.03786777 0.06802605 0.011879208 -0.17765428 0.039114498 -0.019191137
-0.06505425 -0.111806594 -0.0131105 -0.08842248 0.044227622 0.05946058 -0.08863971 -0.04539047
-0.012601537 -0.0042939964 0.10625234 0.1935755 0.038454913 -0.10347382 -0.0025194937 -0.03962909
0.01933836 -0.07545996 -0.021629443 0.0183847 -0.046785045 -0.096113235 0.008790474 -0.026092028
0.0014925932 -0.028425485 0.020428123 -0.12116701 0.10542712 0.04932563 -0.022588395 0.03585143
0.003997808 -0.0017094194 0.006294976 0.124156736 0.10948756 0.067803726 -0.03380436 -0.012232606
0.07535487 -0.043285444 -0.03206347 0.058013752 0.010100307 0.047185734 -0.038243964 -0.049545508
-0.048181042 -0.050621755 -0.03683739 -0.048403602 0.012882189 0.10927156 0.03568458 -0.021292733
-0.0057176226 0.07488572 -0.0119169485 0.1089556 0.08540897 0.057151254 0.074051015 -0.16981174
-0.06305297 -0.039817534 0.107911706 0.06689892 -0.115392685 -0.002872022 0.026813965 0.0695792
0.038169894 0.007731995 -0.05990258 -0.018749576 0.15515956 0.030801775 -0.050345413 -0.031771492
-0.3249003 0.24700809 0.5529515 -0.35664117 0.10567174 0.16981792 0.25017923 0.37340757
-0.47788584 0.0038091508 -0.9322834 -0.12953258 -2.7995136 -0.09233096 -0.24498047 0.03473956
-0.056140956 0.18941094 0.06366174 0.11698265 0.5110195 0.099223524 -0.024080519 0.1049953
0.28525212 0.15756017 0.023200555 0.36410204 -0.5291137 0.09975193 -0.17253844 -0.082465045
-0.20620161 0.08192448 -0.11132206 -0.02090579 -0.30187058 -0.10501341 -0.046328545 0.39022762
0.08812965 -0.0583849 -0.027991965 -0.03443004 0.042258546 0.40595883 -0.4761371 -0.11950001
-0.0972987 0.22389653 0.029754883 -0.03553394 -0.07817329 -0.31916305 0.010899859 -0.17565815

controller.lstm.bias_ih f4 [400]
00000000: 98bd 553d 32b7 da3d b9ad bc3d db5f 893d
00000010: 21c3 9b3d 0f11 bc3c 8acf f73d e271 523e
00000020: ff2a 8a3d 4d36 033e 8307 0b3e 2d27 053e
00000030: 80b2 64bd c0a2 543e 29f7 6a3d 7435 1e3c
00000040: b273 e13b bd7d 9e3d 1c9f 783d 8bce 7a3d
00000050: eb43 dd3d 1c28 d33d 0dd6 513d 1939 c03d
00000060: a044 153e fb7b d43d 233f 483e 10a5 963d
00000070: d1b5 193d 9aa6 9f3c 63e8 b03d 8be6 e53d
00000080: a39d 893d 2a8f c93d 7198 b13d 7944 f9bc
00000090: 2ac1 573b bae3 9b3d 3b72 203d 30fa 2a3e
000000a0: f39b c63d 686a 153e 2fbf 313e 9099 2bbd
000000b0: 6224 7b3d 64df f2b9 f9e2 ff3d 11a0 6d3d
000000c0: 7a84 ff3c 7f06 173e ef57 ef3d 4252 af3d
000000d0: 7668 41bc c07e 0bbd 2f0a 0c3e 283c fc3d
000000e0: 3565 dd3d d975 a63d 5ffb 86bc 3b8d ca3d
000000f0: 4e60 4dbd 45db 193d 3e33 ab3d 721b 343e
00000100: 2e0a c63d 4f13 8d3d 7f1b 0c3d 6048 4c3d
00000110: d022 e93d 671d 873a 3a8a da3d cc78 bf3b
00000120: e0cd 593d b6b4 b53d 37bd a7bb 9c02 e73d
00000130: 63ff b03c 8f61 a83c f6ce b13d ee76 ca3d
00000140: 7cba 0d3e dbd0 d03d c7e3 bc3d 3b90 863d
00000150: cd37 0b3e cf7a 883d 04ec cebc 9125 adbc
00000160: a970 283d 6b27 55bc 632d 9fbd 23e5 893d
00000170: cfbc f43d 7b2b c93d fd84 983d 5f8c 3c3d
00000180: 1cf6 cf3d ed35 f73d d480 9b3c 93b5 1f3d
00000190: 447f a5bc 8ad4 173d cede da3d 95cf b33b
000001a0: 8045 e43c d92e 913d 96d1 323d 6e11 2f3e
000001b0: d39b d03d 5af6 0c3d a3b5 1e3d 9187 62bd
000001c0: 06fa 2fbc 8152 bcbc 46de 15bc 9106 313d
000001d0: ed2b 893d 7a1d 213d c4ed 893d d277 7c3d
000001e0: 9d71 843d fd69 a73d 6c83 213d 353c 783d
000001f0: ecbd 9b3d 1405 063e 1c14 193e ba70 4d3d
00000200: fc04 a93c a2ae 863d 9d05 1f3d 4352 a13d
00000210: 2b70 843d 27d2 293e 54b0 483d 6a8e b03d
00000220: 55ae 1e3d 6c2e 653d 2d79 8b3d 3fda a9bd
00000230: 921c 8a3d a622 fb3d 9d6a 373d 4839 f5bd
00000240: 55c2 8c3d f2cd 26bd 372d f63c 2d09 a23d
00000250: 37e7 cdbc 117b 023e 704c 8d3d 02ff 073d
00000260: 9115 f9bc 3f6d 52bc 9f5e 1d3e ce7b 723d
00000270: 5221 613c d069 0fbd 6e46 cbbc 8c59 473d
00000280: c544 bd3d 2ade 273d df09 0b3e 9490 193d
00000290: fb07 2abb 5563 aebc 89f5 353d ae22 f2bc
000002a0: f179 803d 0062 b73d 88c1 69bc d1ed 00bd
000002b0: ac0f 973d 0e03 883d 3d93 2d3d 2f55 8f3d
000002c0: 2845 773d 420b 1c3d 0240 743d 9ed7 c3bd
000002d0: 7b18 bbbc 174a 803d 9e20 7f3d a2f3 a73c
000002e0: b1a1 1b3d 354e b73d cde8 57bc 9d1c a2bd
000002f0: e3fa e53b 8d4f 4f3c 4162 303d 4b40 b23d
00000300: 2947 b43b b59a d13c 64dc 743d 10d6 03bc
00000310: ebcc a03d 9ded 323d b706 213e fe16 853d
00000320: e0f4 b73d 0051 d0bb db4f 663c df2c 37bc
00000330: 66af dabd cf95 a53c d24a 0ebb ebc1 473d
00000340: 3bfc debc 82aa a6bd 50c4 3c37 854d f33d
00000350: b856 b23d 1591 09bd e5b7 ae3d d5f6 adbd
00000360: 550e 8ebc a8ed 97bd 47ab c5bd f327 bdbd
00000370: cb02 f7bd 432a febd 8e21 da3d 483f 78bd
00000380: e0d2 7d3d ca0f c63d e6bc f7bd 3e81 653d
00000390: 2125 0bbe 3003 6dbd ec67 d53d 960c f53d
000003a0: 8795 c93d 35e4 23be 6eb5 04bd d50f 6fbc
000003b0: 5e40 b63d fc21 65bd e9ff c5bc 49ba b4bd
000003c0: ba9f e1bd 4c34 1bbd d60b 09bd 7c07 173c
000003d0: 311d 723c c488 23bb 3394 e03d c1c8 72bd
000003e0: 12b7 933b 666d 70bd 48e3 01be f142 3f3d
000003f0: 8242 58bb b2bb 43be dcd3 bb3d 5f9a b63d
0.052182764 0.10679473 0.092128225 0.06707736 0.07605577 0.022957353 0.12100132 0.20551255
0.06746482 0.12813683 0.13577084 0.13003226 -0.055834293 0.20765209 0.057364617 0.009656299
0.006880247 0.077388264 0.060698614 0.06123213 0.1080397 0.10310385 0.051229525 0.093858905
0.1457696 0.1037521 0.19555335 0.07355702 0.03752691 0.019488622 0.08638074 0.11225613
0.0671952 0.098417595 0.08671654 -0.030428158 0.0032921531 0.07611795 0.03917144 0.16697001
0.09697714 0.14591372 0.17358087 -0.041894495 0.061313994 -0.00046324276 0.124944635 0.05801398
0.0311911 0.14748572 0.11686694 0.08560611 -0.011804691 -0.034056425 0.1367576 0.123161614
0.10810319 0.081279464 -0.016477285 0.09890219 -0.05014067 0.037562627 0.08359383 0.17588595
0.0966991 0.068884484 0.03420591 0.04987371 0.11383593 0.0010308445 0.10670896 0.0058432575
0.053174853 0.088723585 -0.0051189917 0.112797946 0.021606153 0.020554332 0.08682053 0.09885965
0.1384067 0.10196086 0.092231326 0.065704785 0.13595505 0.06664049 -0.025259025 -0.021136077
0.041123066 -0.013009886 -0.07772329 0.067331575 0.11950075 0.09822746 0.074472405 0.046032306
0.101543635 0.120708324 0.018982328 0.038991522 -0.020202287 0.037067927 0.10687028 0.005487392
0.027865171 0.070890136 0.043656908 0.17096493 0.10185971 0.034414627 0.03874744 -0.055305067
-0.010740763 -0.02298856 -0.009147232 0.043219153 0.06697831 0.03933475 0.06734803 0.061637707
0.064669825 0.081745125 0.039431974 0.060604293 0.07604584 0.13087875 0.14949077 0.050156333
0.02063226 0.06576277 0.038823713 0.07877018 0.06466707 0.16584073 0.048996285 0.08620913
0.038740475 0.055952474 0.06810222 -0.0829358 0.067437306 0.12262468 0.04477941 -0.11973816
0.068730034 -0.04072375 0.030050857 0.079119064 -0.025134666 0.12742259 0.06899345 0.03320218
-0.030405791 -0.012843429 0.15368126 0.0592001 0.013740854 -0.03501302 -0.024813857 0.048669383
0.09241632 0.040983357 0.13577984 0.037491396 -0.0025944698 -0.0212876 0.044423614 -0.029557552
0.062732585 0.08954239 -0.014267333 -0.0314768 0.07376036 0.06641208 0.042376745 0.06998669
0.060368687 0.038096674 0.059631355 -0.0956261 -0.022838822 0.062641315 0.062286966 0.020501915
0.037995998 0.08950464 -0.013178063 -0.07915614 0.0070184334 0.012653244 0.043062452 0.08703669
0.005501647 0.025586465 0.059780493 -0.008046642 0.07851585 0.043683637 0.15725218 0.06498526
0.08982253 -0.006357312 0.014057125 -0.011180132 -0.10677986 0.020213036 -0.0021712077 0.04876892
-0.027219882 -0.081379905 1.1251381e-05 0.1188002 0.087079465 -0.033585627 0.08531169 -0.08494345
-0.017340818 -0.07418376 -0.09651809 -0.09236135 -0.120610796 -0.124104045 0.10650931 -0.060607225
0.061968684 0.0967098 -0.120965764 0.056031458 -0.13588382 -0.057864368 0.10420212 0.11965291
0.09842973 -0.16005023 -0.032399587 -0.014591177 0.08898996 -0.055940613 -0.024169879 -0.088245936
-0.110167935 -0.03789167 -0.033458553 0.009218093 0.014777468 -0.0024953345 0.10965767 -0.059273485
0.0045079077 -0.05869808 -0.12684357 0.0466947 -0.0032998626 -0.19114569 0.09171268 0.08916163

controller.lstm.bias_hh f4 [400]
00000000: 6e47 2e3d d835 a83d e62d 033e d3f8 803d
00000010: 01bd 9a3d 3c18 393d 9c2b da3d bac6 463e
00000020: 80cf 003d e137 fa3d 6d47 033e 557c f33d
00000030: b981 523b 4fdd 3d3e bda6 333d d5f3 b63c
00000040: aa8c 9e3c 1272 cf3d c878 663d f254 743d
00000050: 8baa de3d 2737 d33d ec8d 8a3d 0070 c03d
00000060: 6602 0d3e b3cd c53d 1636 b73d f3a3 933d
00000070: f686 063d 4be6 e83c c74e b63d 0ac4 e43d
00000080: 49e6 8c3d 0ceb ac3d a631 a43d b5ea 1cbd
00000090: 4513 1d3d 40b2 ff3d e99b 183d b028 e73d
000000a0: 9bde c53d 5488 bb3d ce8f 2a3e 8ec6 79bd
000000b0: 230e 823d d899 dfbc 429c d33d 74ba 953d
000000c0: 7ff8 673c eebe 1a3e 0e65 ce3d f1b7 ae3d
000000d0: aec7 39bd c1af b53c 9d07 073e 701c f73d
000000e0: e885 bc3d 11f3 a13c 5786 9fbc c91f be3d
000000f0: fe3b a03c 58db cb3c fb5b 0b3d ceba 273e
00000100: 6927 f13d 16bb 9b3c 3bef fb3c d769 de3c
00000110: 76b4 e03d bc8e 1cbd 1413 0e3e 37ca 813c
00000120: 51fb bb3d f9db b83d 352a 2e3d 2972 b43d
00000130: 9bbc 20b8 d42a 1c3d 7af7 b33d 49c9 de3d
00000140: e78b d03d 2a83 cb3d 0622 ae3d e5bc 883d
00000150: 5dbd fe3d 5c5f 883d d1a4 43bd 9dc8 2bbc
00000160: 0d04 1e3d b3ab 02bd d9d5 97bd e203 a53d
00000170: ed70 c33d e5cd 693d 150f 9b3d b880 3d3d
00000180: fdb7 cf3d 8ae4 f73d 7001 693d c4aa 353d
00000190: 4e43 a1bc 8d6c e53d 2298 fd3d 6225 ff3a
000001a0: fd61 71bc 12ab 713d b44e ce3c 40b8 373e
000001b0: 335b d03d c18e 0c3d ba8d 2f3d 1fb8 42bd
000001c0: bbe0 bf3d 97fa 4cbd b942 56bc f149 443d
000001d0: fdca 863d 6dd6 9d3c 7313 8a3d ecbf 7c3d
000001e0: 6775 843d cd67 a73d cdc6 1a3d 9f7b 753d
000001f0: 4d3a a63d db46 013e 37d8 063e 2386 4d3d
00000200: 5ba5 b1ba 7df0 7b3d 7d2c 253d 1e4b a13d
00000210: ac7b 843d bab0 2f3e 104e fa3c 1394 aa3d
00000220: 72d5 313d 3271 8b3d b4b4 813d 41d5 8cbd
00000230: 611c 8a3d dca0 ba3d bb40 8b3d cfa4 8dbd
00000240: dc63 923d a654 da3c 7353 473d 6e81 113d
00000250: 6133 04bd 00f8 1f3e 543c 8d3d d2c4 0d3d
00000260: 7fcc 02bd b51e 163d 7b5e 003e 9e36 473d
00000270: bd5b ec3d 5395 19bd f4d2 cabc 2b82 943b
00000280: 58af 043d e92e 503d 8385 dd3d 3f5d 083d
00000290: 775a 3c3c 3671 3fbd 0da2 553d af48 68bb
000002a0: 2c85 803d 046d ab3d 73f0 503b 8508 06bd
000002b0: 3e85 813c 7007 883d 3180 f53c 6e77 7d3d
000002c0: 4622 903d e9cf 843d 0c98 733d b8e6 3dbd
000002d0: 3de4 bc3d 9648 803d a41f 7f3d 6f69 b53d
000002e0: c5ea 093d 5385 0d3d 655e 3f3c 5466 46bd
000002f0: 76bd af3b 1daf f13d f622 d03d 105f b43d
00000300: 03df ba3c 336d d63c f198 743d 0bb0 853b
00000310: c8cd a03d 32ae 203c e2eb 113e 8e9a 813d
00000320: 6ad1 be3d d6b6 afbd fd06 653d 67b2 ca3b
00000330: 2f40 d0bd 20df debc 6c70 b1bb 9962 173e
00000340: b843 ddbc f678 8cbd b395 1b3b 48dd c33d
00000350: d73b ca3a ef1a ffbc 321a 7f3d fe9e 9fbd
00000360: ac84 d03b aaf6 04be a073 cdbd 021b abbd
00000370: 8ef2 f5bd 7f23 fcbd ea61 273d 12b4 7bbd
00000380: 14d2 0f3e 153a 8b3b 8971 453d 8b71 79bc
00000390: 1b4c debd 7aae cf3c 2294 d63d 9218 f53d
000003a0: 91b2 c83d b138 93bd dcde 513c 0e72 f13d
000003b0: 20f6 b23d b2e6 bcbd 5695 d03c d723 0dbe
000003c0: 01f5 e5bd bfc4 34bc f9c8 98bd 3424 b3bd
000003d0: 4b00 abbb 7e21 7bbc fcd2 fe3d 2477 a43c
000003e0: d05c 0abd 1f90 e3bd 5a60 ecbd a22a 633d
000003f0: 441a 8dba fe2b 31be 45d1 8a3d f0f0 963d
0.04254859 0.08213395 0.12810478 0.062974595 0.07555581 0.045189127 0.10652849 0.19411746
0.031447887 0.12217689 0.12820216 0.11888949 0.0032120778 0.18541454 0.043860186 0.022333065
0.019354183 0.10129179 0.05626753 0.059651323 0.10872372 0.10313254 0.06765351 0.09396362
0.13770446 0.09658375 0.08945863 0.07209005 0.032843553 0.028430125 0.08901744 0.11170204
0.06879861 0.08443269 0.08017282 -0.03830977 0.038348455 0.1248517 0.037258063 0.112870574
0.09661599 0.09156862 0.1665642 -0.060980372 0.063503526 -0.027295038 0.10332538 0.07310954
0.014158367 0.15111896 0.100778684 0.08531178 -0.045356445 0.022178533 0.13186498 0.12065971
0.09205228 0.019769223 -0.019473238 0.09283406 0.019559857 0.024884865 0.034023266 0.16379854
0.11775095 0.019010108 0.030753722 0.027150078 0.1097192 -0.03822206 0.13874465 0.015843494
0.09178794 0.090263315 0.04252072 0.08810837 -3.8322625e-05 0.03812678 0.08787437 0.10878236
0.10182934 0.09937127 0.08502583 0.06676654 0.12438462 0.06658813 -0.047764603 -0.010484842
0.038578082 -0.031902026 -0.07413835 0.08057381 0.09543023 0.057081122 0.07571236 0.046265334
0.10142515 0.12104137 0.056886137 0.044352308 -0.019685414 0.11202345 0.12382533 0.0019466097
-0.014732835 0.059001036 0.025184013 0.1794138 0.10173645 0.03431583 0.04285977 -0.047538873
0.09369036 -0.05004367 -0.013077431 0.04792208 0.06581686 0.019267285 0.06741991 0.06170647
0.06467705 0.08174095 0.037787247 0.059932347 0.08116589 0.12624685 0.13168417 0.05017675
-0.0013553308 0.061508644 0.04032563 0.078756556 0.06468901 0.1715726 0.030554801 0.08329024
0.043416448 0.068087 0.063332945 -0.068766125 0.06743694 0.09112713 0.06799456 -0.069162
0.07147953 0.026651692 0.048663568 0.035523824 -0.03227556 0.15621948 0.06896272 0.03461153
-0.031933304 0.03665038 0.12536041 0.04863607 0.11540935 -0.037495922 -0.024758793 0.004532119
0.032393783 0.050825987 0.10816481 0.03329205 0.011496178 -0.046738826 0.052156497 -0.0035443713
0.062754005 0.083704025 0.00318816 -0.03272297 0.015810605 0.066420436 0.029968353 0.061881475
0.07037787 0.06484968 0.059471175 -0.04636261 0.092232205 0.06263845 0.062286034 0.088580005
0.03367116 0.034550976 0.01168022 -0.04843743 0.0053631617 0.11800978 0.10162918 0.08807194
0.022811418 0.026175117 0.05971617 0.004079824 0.0785175 0.009807156 0.14250138 0.06328307
0.09317286 -0.08579795 0.055914868 0.006185818 -0.10168492 -0.027206004 -0.005415013 0.14783706
-0.02700983 -0.06859009 0.002374035 0.095636904 0.0015429211 -0.031140773 0.06228084 -0.07793997
0.006363472 -0.1298472 -0.10031819 -0.08354761 -0.12009154 -0.12311458 0.040864863 -0.061451025
0.14044982 0.0042488673 0.04820398 -0.015224825 -0.1085436 0.025351752 0.10477473 0.11967577
0.09799684 -0.071885474 0.0128094815 0.11789332 0.08738351 -0.09223689 0.025461834 -0.13783203
-0.112283714 -0.011033236 -0.074602075 -0.087471396 -0.005218541 -0.015327809 0.12442586 0.020076342
-0.03377992 -0.11111473 -0.11541815 0.05546058 -0.0010765274 -0.17301938 0.06778196 0.07370174

controller.fc_out.weight f4 [1000, 100]
00000000: 08f0 a03e 1b49 a3be 50eb bdbe 72f8 023e
00000010: f951 60be e0b0 2b3e d815 7fbe b54f 0e3f
00000020: 8620 67be d5a8 08bf 4eb6 433e 7a32 1a3f
00000030: c9e3 c7bd 1d07 33bf 5d03 743e 3b06 8fbe
00000040: c28b 85bd 10bd a8be 7006 99be 371b 3abe
00000050: 03d9 0bbf 2424 bfbe 7aa2 003e 2d6a c8be
00000060: 9764 033f f237 2d3e f776 b8be 2242 bb3e
00000070: aa59 cbbe b98d f83d 69c4 f33e d5bd fa3e
00000080: 55c6 ab3e f720 fdbe af10 00be 5f7b c93e
00000090: d0bf 823e 8f01 11bf 52d1 a53d d870 3fbf
000000a0: ef54 e7be a12d fabe a721 19bf a59a 63be
000000b0: 9792 4d3d b8fa bfbd 73b3 193f 852b a8be
000000c0: 23f7 923d 05dc 1fbf 8c5f f2be 003d 813e
000000d0: cb00 b23c ab33 06bf c8a3 f63e 1d94 0b3f
000000e0: 4f02 f5be c034 953e 0edf eabd e2d6 30bf
000000f0: 990f ec3c bec7 8fbe b81a 323e b85e 39bf
00000100: 03a1 373f a384 aa3e ddfb 963d a1a7 1cbf
00000110: 146a b3be af79 e43e a25c debe 2a68 4f3d
00000120: bf97 d5be ffee b73e f25b 87be f332 523f
00000130: c73a 71be bca6 12be 869a c8be 4e19 e43e
00000140: 8acf 08bf af47 d93e 2995 f93e 1de9 8ebe
00000150: 3978 19bf f56f 783e c926 f3bd 1077 9fbd
00000160: fcf9 a3be 2807 393e 1df3 46bc 0406 11be
00000170: 2450 bd3e 441d 97be 0f3f 9bbe 278b 93be
00000180: 18a4 d93e aa7f b43e cdff acbe 2fb2 30be
00000190: 1a66 123e 4ae8 84bf 79a9 1abd 1dea 81be
000001a0: c5f9 9ebe a191 9f3f 0c4e 37bf 3a95 bfbe
000001b0: 765a 01be be40 d33d bdd7 8f3c 6ae3 043e
000001c0: 2f32 293f 3e4f 96bf 2af2 e13c 6e33 1e3e
000001d0: 54e6 debc a009 8cbe 9ad6 7bbe 48b2 39be
000001e0: b1dc 6dbe 5a09 813e 91ac 043f d8a0 74bd
000001f0: 1c94 84bf 17ad b03d 6d65 acbe 8458 08be
00000200: c030 cebd c39a b8bf 59f0 7cbf 56a3 9abe
00000210: 8c48 093e ff16 efbd d54d 0b3e df0b e73c
00000220: fc4b 5cbe fa70 553e 6b0a b7be 895c 083f
00000230: 16a3 163f 491a d33b e8db cbbd 0e2a bebb
00000240: c13b 4e3f 64ea 97bc 064f 2abd 7857 923e
00000250: 3f09 803d 4aef 383f 326e aebd 7c53 513c
00000260: eec9 0e3d 791a edbe 324a c93e ae3f 85bf
00000270: 6854 8abf 13ac 4dbe 03e1 dcbc 26c3 533e
00000280: 7c87 8a3e 18f8 023f ff23 f8be 1481 0dbf
00000290: ab3d c7be fb6f fbbe e077 8b3f 1467 82bf
000002a0: a729 203f d655 5cbf f56a 793f ce16 013d
000002b0: 8f00 29bf d4e2 81bf 588e 0b3d 5794 febe
000002c0: e081 753e 1110 bb3e 4313 cebc 6832 87bf
000002d0: cdb8 ec3d 0726 99bc 3c76 d5be a304 64be
000002e0: e2e1 843e e00b e2bd a249 133e d2a7 313e
000002f0: 658c ee3d 16e2 a23e 8a42 bdbe a0be 5dbf
00000300: 2800 233f d7cf 633d f045 a4bd 12ef 43c0
00000310: ed8e 2cbf 79e9 7ebf f636 1d40 577d f7bc
00000320: 661a fb3d 4a50 d63e e849 20c0 1806 7dbe
00000330: 5241 00bf d8cb c73c dba4 a83e e9da 133f
00000340: 5073 a03f 750b 5dbe 391c 903f 71df 60bf
00000350: 87c4 cf3f a9e1 453f de2f 193e 7399 60be
00000360: 3687 83be 3daa 37bf 7e05 15bf 81c4 06be
00000370: e01c 7b3e 7446 2abf 1d2a 82bd 7f46 5b3e
00000380: 15ca 12bf e7db 86bf cfa6 25be 85ed 7ebf
00000390: 994c dfbd fe6f abbe c8cf fe3e 2512 7a3f
000003a0: 3b7f df3e 9644 07bf f8af 683e d495 d73e
000003b0: fa58 1e3f 3a28 23c0 0c28 8fbe c7fa 173d
000003c0: c235 61be 9a25 72bf 41b2 8b3e 80ce 153d
000003d0: 2130 84bf 057e 51bf 8c45 32be edcb 753f
000003e0: 5605 563e 98e6 0dc0 3cf3 3fbe ab2c 283e
000003f0: 3a87 673e 1c6a 663f d127 78be 0677 ca3f
0.3143313 -0.31891713 -0.37093592 0.12790087 -0.2190627 0.16766691 -0.24910676 0.55590373
-0.22571 -0.5338262 0.19112512 0.6023327 -0.097602434 -0.6993273 0.23829408 -0.2793444
-0.06520797 -0.32956743 -0.29887724 -0.18174444 -0.5462801 -0.3733226 0.1256198 -0.39143506
0.5132536 0.16915873 -0.36028263 0.36573893 -0.39716846 0.121364065 0.47610787 0.48972955
0.33549753 -0.49439213 -0.12506364 0.39351937 0.25536966 -0.56643003 0.08096565 -0.7478156
-0.45181987 -0.48862937 -0.59816974 -0.22226961 0.050188627 -0.09373993 0.6003944 -0.32845703
0.07176044 -0.624451 -0.4733852 0.25241852 0.021728894 -0.5242259 0.4817183 0.5452288
-0.47853324 0.29141808 -0.114683256 -0.69077885 0.028816031 -0.2808208 0.17393005 -0.72410154
0.7173006 0.3330432 0.07372258 -0.6119328 -0.3504187 0.44624087 -0.43430048 0.050636448
-0.41717336 0.35924527 -0.26437336 0.8210899 -0.23557578 -0.14321417 -0.39180392 0.44550556
-0.5344168 0.42437503 0.48746613 -0.27912226 -0.5994907 0.24261458 -0.11872632 -0.07786381
-0.3202666 0.18069136 -0.012142924 -0.14162451 0.36975205 -0.29514515 -0.30321547 -0.28817102
0.42508006 0.3525365 -0.3378891 -0.17255472 0.14296761 -1.0383389 -0.037759278 -0.25373927
-0.31049934 1.2466317 -0.71603465 -0.37418538 -0.12632164 0.10315083 0.017558927 0.12977377
0.660922 -1.1742933 0.027581293 0.15449306 -0.027209438 -0.27351093 -0.24593583 -0.18134415
-0.23228718 0.25202447 0.51825815 -0.059723705 -1.0357699 0.08626764 -0.33671132 -0.13315016
-0.10067892 -1.442223 -0.9880424 -0.3020274 0.1340658 -0.11674308 0.1360391 0.028203903
-0.2151336 0.20843878 -0.35750136 0.532662 0.588426 0.0064423424 -0.09954053 -0.005803353
0.8055993 -0.018544383 -0.04157927 0.28582358 0.062517636 0.72240126 -0.08517112 0.012776252
0.034860544 -0.4630926 0.3931442 -1.0410058 -1.0807009 -0.20085172 -0.026962763 0.20679912
0.2705649 0.5115981 -0.48464963 -0.5527508 -0.38914236 -0.49108872 1.0895958 -1.0187707
0.62563556 -0.86068475 0.9742883 0.03151589 -0.6601648 -1.0147347 0.034071296 -0.4972255
0.23975325 0.36535695 -0.02515567 -1.0562258 0.115586855 -0.01869489 -0.41691768 -0.22267394
0.25953585 -0.11037421 0.14383557 0.17349175 0.11647872 0.31813115 -0.36964828 -0.86618996
0.63672113 0.055618133 -0.08021152 -3.0614667 -0.6740559 -0.99575 2.4564795 -0.030211134
0.122608945 0.4185813 -2.5045109 -0.24709356 -0.5009967 0.024389192 0.32938275 0.57755905
1.253519 -0.21586402 1.1258613 -0.87840945 1.623185 0.77297455 0.14959666 -0.21933536
-0.25689095 -0.7174414 -0.58211505 -0.13160898 0.24522734 -0.6651375 -0.06355689 0.21413611
-0.573396 -1.0535859 -0.16176914 -0.99581176 -0.10903282 -0.3348388 0.497679 0.97683936
0.43651757 -0.5283903 0.22723377 0.42106497 0.6185452 -2.5493302 -0.2796024 0.037104394
-0.21993163 -0.94588625 0.27284434 0.036573887 -1.0327188 -0.81832916 -0.17409343 0.9601429
0.20900473 -2.2171993 -0.1874513 0.1642329 0.22610179 0.9000566 -0.24233939 1.5817573

controller.fc_out.bias f4 [1000]
00000000: 0c9d 893f 6976 9ebc d439 663e 599d 4b3e
00000010: d257 493e 3a33 65bb 6f95 8fbd cde4 ef3e
00000020: 5953 be3e 88c7 653e 96b5 7e3e 1c5d 93bd
00000030: 6a7e 683b 88ec af3c d618 b9bb 9520 8c3d
00000040: e334 16be 6dd8 01bd 957a fc3d 3a89 9f3c
00000050: ddf9 59bd 471a 45bd 1e08 d63c 6070 c83d
00000060: 155d 14bd f61f 47bd cd0c fbbb 6ebd c13c
00000070: fd26 b33d 5095 013e 99eb 843e c18f c63d
00000080: 6ac4 713d 2d00 1d3d 21e5 61bb 54df 5fbb
00000090: 9a61 61bb f04a 5dbb a626 60bb f0ca 60bb
000000a0: 6fa6 63bb da6e 5fbb e9c9 60bb d8f9 5fbb
000000b0: bc8f 60bb 0b2f 65bb d88d 5dbb d94e 62bb
000000c0: 5519 5ebb 036c 68bb 55ef 61bb 165c 5ebb
000000d0: befc 62bb a1a6 5fbb a4f3 5fbb 7712 62bb
000000e0: 02bf 64bb 6c28 60bb 860f 5dbb a5ba 61bb
000000f0: 574b 5dbb 0a30 63bb 71df 62bb eaf4 5fbb
00000100: a41f 61bb 2d43 61bb a69a 63bb a61a 5cbb
00000110: 49f0 60bb ea0f 5fbb aaf2 5dbb 5da9 5ebb
00000120: f0c9 63bb aabe 5ebb a3af 5fbb f927 62bb
00000130: fb92 64bb ba5a 60bb 3e3b 5dbb 859c 65bb
00000140: e766 5fbb b268 63bb 5217 5dbb 69b7 5ebb
00000150: a8c4 62bb bb4c 65bb 15ad 5dbb b3b2 60bb
00000160: 4e78 61bb a0d2 63bb 770f 62bb 1ebb 61bb
00000170: 925c 5fbb 6348 64bb 738e 60bb afbf 60bb
00000180: 9ef1 61bb 607c 60bb b83f 5fbb a3fe 60bb
00000190: 4ff0 63bb 1e32 63bb c552 5dbb 59a3 5dbb
000001a0: f8b3 62bb 57ce 63bb 3132 63bb 1108 61bb
000001b0: b16d 5ebb b930 67bb 577c 5ebb a3ea 62bb
000001c0: 9ee3 5dbb 022f 6abb 97af 5ebb 98a4 62bb
000001d0: 56a0 63bb f72c 62bb 8f0e 61bb 0db2 5fbb
000001e0: 9f55 64bb 8bfa 64bb 5585 60bb 7907 61bb
000001f0: 00f8 60bb 0dc2 61bb f946 63bb 0d47 67bb
00000200: 70aa 61bb df94 60bb 8a19 5fbb b541 60bb
00000210: eb7e 64bb 86e5 62bb 6c2b 63bb e28d 60bb
00000220: 0a4c 62bb e6e0 61bb 9e49 5fbb c2fd 5ebb
00000230: 9384 5ebb 4595 63bb f16d 5fbb 395b 64bb
00000240: 6358 5fbb a391 66bb 9f3b 5ebb 739c 62bb
00000250: cead 5fbb 66e3 66bb 249a 61bb 421c 62bb
00000260: 24bc 61bb c795 67bb 29fe 5cbb 733c 5ebb
00000270: d36b 64bb 05b6 5dbb 8c24 5bbb 6485 62bb
00000280: 2f79 61bb c18b 5fbb 0328 5ebb bdf7 61bb
00000290: 1585 60bb 1c83 5dbb af03 64bb 1c1f 64bb
000002a0: 1c5a 61bb 8d29 5dbb 5caa 63bb c84f 5cbb
000002b0: 678e 63bb 209d 63bb 8356 61bb 7759 63bb
000002c0: a8e8 62bb ddf7 5fbb a097 61bb 2137 62bb
000002d0: 90ce 61bb aeeb 5fbb b58a 64bb abe8 5fbb
000002e0: 07db 5fbb 4ef4 5fbb e9eb 5ebb 4736 61bb
000002f0: 1b68 61bb 656a 62bb 14cb 5bbb 7bb3 60bb
00000300: 6b04 5ebb 03f0 63bb f05b 62bb 3c97 5ebb
00000310: 45fc 5cbb ffa9 61bb a384 61bb 87af 62bb
00000320: 7743 60bb 23c2 61bb 4751 61bb c2cd 62bb
00000330: 1770 5fbb 3325 61bb cfb1 5ebb 4807 61bb
00000340: 954e 61bb 0f68 5fbb 85fb 5fbb 57be 5fbb
00000350: af20 5cbb ec78 64bb be7c 62bb 3208 5dbb
00000360: 9ac1 60bb be08 61bb 97fa 5fbb 1bd7 61bb
00000370: 8878 62bb 8d87 60bb 66b6 64bb 5ba2 5fbb
00000380: 2868 63bb b773 63bb c968 5dbb b3b8 5ebb
00000390: 2775 5fbb 9512 61bb a486 5ebb 5b82 5fbb
000003a0: 00d5 5fbb 6954 62bb c5aa 63bb 2a61 61bb
000003b0: c0a5 5dbb 8e3e 5dbb 4adc 5fbb 45f7 60bb
000003c0: 00c5 60bb 3993 63bb bc8b 5fbb 6b8b 64bb
000003d0: e4e8 5ebb 2e93 5fbb cd23 63bb 7528 60bb
000003e0: 757e 61bb fd5a 5ebb f6b0 5fbb 660a 5fbb
000003f0: daea 5dbb 5a46 5ebb 3992 5fbb 3ace 5fbb
1.0751052 -0.019343572 0.22482997 0.19884242 0.19662407 -0.003497316 -0.07010924 0.4685425
0.37172964 0.22439396 0.24873957 -0.071954936 0.003547574 0.021475092 -0.0056487126 0.06842152
-0.14668612 -0.03170054 0.12328068 0.019474614 -0.053216804 -0.048120763 0.026126917 0.09787059
-0.036221582 -0.048614465 -0.007661438 0.023649897 0.08747671 0.12654614 0.25960997 0.09695388
0.059025206 0.038330246 -0.0034468847 -0.0034160214 -0.003439045 -0.003376659 -0.0034202724 -0.0034300648
-0.0034736653 -0.0034093172 -0.0034300035 -0.0034176018 -0.003426536 -0.0034970667 -0.003380647 -0.003453186
-0.003388961 -0.003546477 -0.0034474928 -0.00339294 -0.003463551 -0.0034126418 -0.003417232 -0.003449587
-0.0034903889 -0.003420378 -0.0033731177 -0.0034443524 -0.003376683 -0.0034666085 -0.0034618045 -0.003417308
-0.0034351135 -0.0034372315 -0.0034729629 -0.003358522 -0.0034322909 -0.0034036585 -0.0033866563 -0.003397546
-0.0034757815 -0.0033988156 -0.0034131787 -0.003450869 -0.0034877646 -0.0034233765 -0.0033757235 -0.003503592
-0.0034088434 -0.0034699854 -0.0033735824 -0.0033983833 -0.003460208 -0.0034988362 -0.0033825089 -0.00342862
-0.0034403983 -0.0034762993 -0.003449408 -0.0034443806 -0.0034082276 -0.0034833185 -0.0034264594 -0.003429394
-0.003447629 -0.003425382 -0.003406508 -0.0034331463 -0.0034780686 -0.0034667323 -0.0033771258 -0.0033819287
-0.0034592133 -0.003476044 -0.0034667368 -0.0034337083 -0.0033939893 -0.0035276844 -0.0033948624 -0.0034624718
-0.0033857594 -0.0035733585 -0.0033979171 -0.0034582969 -0.003473302 -0.0034511664 -0.0034340953 -0.0034133226
-0.0034841073 -0.0034939374 -0.003425916 -0.003433673 -0.0034327507 -0.0034447939 -0.0034679754 -0.0035290152
-0.0034433864 -0.0034268422 -0.0034042322 -0.0034218852 -0.0034865688 -0.003462167 -0.0034663333 -0.0034264256
-0.0034530186 -0.0034466325 -0.003407098 -0.0034025763 -0.0033953532 -0.0034726423 -0.003409263 -0.0034844412
-0.0034079782 -0.003518202 -0.0033910049 -0.0034578114 -0.0034130695 -0.0035230755 -0.003442415 -0.0034501706
-0.0034444416 -0.0035337077 -0.0033720827 -0.0033910542 -0.0034854307 -0.0033830416 -0.0033438532 -0.003456437
-0.0034404506 -0.00341104 -0.003389836 -0.003447994 -0.003425901 -0.003380007 -0.0034792235 -0.0034808582
-0.0034385985 -0.003374669 -0.0034738993 -0.003361689 -0.003472233 -0.0034731105 -0.003438384 -0.0034690776
-0.0034623537 -0.0034174838 -0.003442265 -0.0034517723 -0.0034455396 -0.0034167576 -0.0034872715 -0.003416578
-0.003415765 -0.0034172717 -0.0034015125 -0.0034364627 -0.0034394327 -0.003454828 -0.0033537792 -0.0034286666
-0.0033877145 -0.003478051 -0.0034539662 -0.0033964654 -0.00337197 -0.00344336 -0.0034411333 -0.0034589486
-0.00342199 -0.003444799 -0.003438072 -0.0034607504 -0.003409391 -0.0034354448 -0.0033980494 -0.0034336615
-0.0034379114 -0.0034089123 -0.0034177017 -0.003414055 -0.0033588817 -0.0034862114 -0.0034559215 -0.0033726809
-0.0034295083 -0.0034337486 -0.0034176463 -0.0034460488 -0.0034556706 -0.0034260482 -0.0034898757 -0.003412387
-0.0034699533 -0.0034706423 -0.003378438 -0.00339846 -0.0034096928 -0.003434335 -0.0033954764 -0.0034104798
-0.0034154058 -0.0034535176 -0.0034739238 -0.003439019 -0.0033820719 -0.003375921 -0.0034158402 -0.0034327072
-0.0034297109 -0.0034725203 -0.0034110388 -0.0034873139 -0.0034013325 -0.0034114826 -0.003465879 -0.0034203802
-0.003440765 -0.0033928745 -0.0034132577 -0.0034033298 -0.0033861906 -0.0033916445 -0.0034114255 -0.003415002
