VerNova/checkpoints/ntm_val_0.1095_epoch_110.pt (torch, 863092 bytes, 11 tensors)

read_vectors f4 [1, 32]
00000000: 472b e83e 7f42 e7be c43d b03f 2330 30bf
00000010: 4e38 df3f 3115 85be 1a0f 443e 36f9 803f
00000020: 7696 eabe 4b38 ddbe 3618 c23f ecc8 883e
00000030: 82fd 29bf 4ead 8ebf c547 75bf 1f07 e73e
00000040: a665 b83f d8ce cf3e 33ad 46be 4672 e63d
00000050: c644 ed3f 4f20 113d 9b3a e83e 2584 3cbf
00000060: 0391 ee3e 242f 4cbf 6648 5a3f c46f 9abf
00000070: 1e3b 1a3e 4d23 993d e755 0c3f 7412 b2bf
0.45345518 -0.4516792 1.3768849 -0.6882345 1.7439058 -0.2599273 0.19146386 1.0076053
-0.45817918 -0.4320701 1.5163639 0.2671579 -0.6640245 -1.1146638 -0.95812637 0.4512262
1.4406021 0.40587497 -0.19402008 0.11252265 1.8536613 0.035431203 0.45357212 -0.73639137
0.4659501 -0.7975943 0.8526672 -1.2065358 0.15061614 0.07477436 0.54818577 -1.3911881

memory.memory f4 [64, 32]
00000000: 472b e83e 7f42 e7be c43d b03f 2330 30bf
00000010: 4e38 df3f 3115 85be 1a0f 443e 36f9 803f
00000020: 7696 eabe 4b38 ddbe 3618 c23f ecc8 883e
00000030: 82fd 29bf 4ead 8ebf c547 75bf 1f07 e73e
00000040: a665 b83f d8ce cf3e 33ad 46be 4672 e63d
00000050: c644 ed3f 4f20 113d 9b3a e83e 2584 3cbf
00000060: 0391 ee3e 242f 4cbf 6648 5a3f c46f 9abf
00000070: 1e3b 1a3e 4d23 993d e755 0c3f 7412 b2bf
00000080: 472b e83e 7f42 e7be c43d b03f 2330 30bf
00000090: 4e38 df3f 3115 85be 1a0f 443e 36f9 803f
000000a0: 7696 eabe 4b38 ddbe 3618 c23f ecc8 883e
000000b0: 82fd 29bf 4ead 8ebf c547 75bf 1f07 e73e
000000c0: a665 b83f d8ce cf3e 33ad 46be 4672 e63d
000000d0: c644 ed3f 4f20 113d 9b3a e83e 2584 3cbf
000000e0: 0391 ee3e 242f 4cbf 6648 5a3f c46f 9abf
000000f0: 1e3b 1a3e 4d23 993d e755 0c3f 7412 b2bf
00000100: 472b e83e 7f42 e7be c43d b03f 2330 30bf
00000110: 4e38 df3f 3115 85be 1a0f 443e 36f9 803f
00000120: 7696 eabe 4b38 ddbe 3618 c23f ecc8 883e
00000130: 82fd 29bf 4ead 8ebf c547 75bf 1f07 e73e
00000140: a665 b83f d8ce cf3e 33ad 46be 4672 e63d
00000150: c644 ed3f 4f20 113d 9b3a e83e 2584 3cbf
00000160: 0391 ee3e 242f 4cbf 6648 5a3f c46f 9abf
00000170: 1e3b 1a3e 4d23 993d e755 0c3f 7412 b2bf
00000180: 472b e83e 7f42 e7be c43d b03f 2330 30bf
00000190: 4e38 df3f 3115 85be 1a0f 443e 36f9 803f
000001a0: 7696 eabe 4b38 ddbe 3618 c23f ecc8 883e
000001b0: 82fd 29bf 4ead 8ebf c547 75bf 1f07 e73e
000001c0: a665 b83f d8ce cf3e 33ad 46be 4672 e63d
000001d0: c644 ed3f 4f20 113d 9b3a e83e 2584 3cbf
000001e0: 0391 ee3e 242f 4cbf 6648 5a3f c46f 9abf
000001f0: 1e3b 1a3e 4d23 993d e755 0c3f 7412 b2bf
00000200: 472b e83e 7f42 e7be c43d b03f 2330 30bf
00000210: 4e38 df3f 3115 85be 1a0f 443e 36f9 803f
00000220: 7696 eabe 4b38 ddbe 3618 c23f ecc8 883e
00000230: 82fd 29bf 4ead 8ebf c547 75bf 1f07 e73e
00000240: a665 b83f d8ce cf3e 33ad 46be 4672 e63d
00000250: c644 ed3f 4f20 113d 9b3a e83e 2584 3cbf
00000260: 0391 ee3e 242f 4cbf 6648 5a3f c46f 9abf
00000270: 1e3b 1a3e 4d23 993d e755 0c3f 7412 b2bf
00000280: 472b e83e 7f42 e7be c43d b03f 2330 30bf
00000290: 4e38 df3f 3115 85be 1a0f 443e 36f9 803f
000002a0: 7696 eabe 4b38 ddbe 3618 c23f ecc8 883e
000002b0: 82fd 29bf 4ead 8ebf c547 75bf 1f07 e73e
000002c0: a665 b83f d8ce cf3e 33ad 46be 4672 e63d
000002d0: c644 ed3f 4f20 113d 9b3a e83e 2584 3cbf
000002e0: 0391 ee3e 242f 4cbf 6648 5a3f c46f 9abf
000002f0: 1e3b 1a3e 4d23 993d e755 0c3f 7412 b2bf
00000300: 472b e83e 7f42 e7be c43d b03f 2330 30bf
00000310: 4e38 df3f 3115 85be 1a0f 443e 36f9 803f
00000320: 7696 eabe 4b38 ddbe 3618 c23f ecc8 883e
00000330: 82fd 29bf 4ead 8ebf c547 75bf 1f07 e73e
00000340: a665 b83f d8ce cf3e 33ad 46be 4672 e63d
00000350: c644 ed3f 4f20 113d 9b3a e83e 2584 3cbf
00000360: 0391 ee3e 242f 4cbf 6648 5a3f c46f 9abf
00000370: 1e3b 1a3e 4d23 993d e755 0c3f 7412 b2bf
00000380: 472b e83e 7f42 e7be c43d b03f 2330 30bf
00000390: 4e38 df3f 3115 85be 1a0f 443e 36f9 803f
000003a0: 7696 eabe 4b38 ddbe 3618 c23f ecc8 883e
000003b0: 82fd 29bf 4ead 8ebf c547 75bf 1f07 e73e
000003c0: a665 b83f d8ce cf3e 33ad 46be 4672 e63d
000003d0: c644 ed3f 4f20 113d 9b3a e83e 2584 3cbf
000003e0: 0391 ee3e 242f 4cbf 6648 5a3f c46f 9abf
000003f0: 1e3b 1a3e 4d23 993d e755 0c3f 7412 b2bf
0.45345518 -0.4516792 1.3768849 -0.6882345 1.7439058 -0.2599273 0.19146386 1.0076053
-0.45817918 -0.4320701 1.5163639 0.2671579 -0.6640245 -1.1146638 -0.95812637 0.4512262
1.4406021 0.40587497 -0.19402008 0.11252265 1.8536613 0.035431203 0.45357212 -0.73639137
0.4659501 -0.7975943 0.8526672 -1.2065358 0.15061614 0.07477436 0.54818577 -1.3911881
0.45345518 -0.4516792 1.3768849 -0.6882345 1.7439058 -0.2599273 0.19146386 1.0076053
-0.45817918 -0.4320701 1.5163639 0.2671579 -0.6640245 -1.1146638 -0.95812637 0.4512262
1.4406021 0.40587497 -0.19402008 0.11252265 1.8536613 0.035431203 0.45357212 -0.73639137
0.4659501 -0.7975943 0.8526672 -1.2065358 0.15061614 0.07477436 0.54818577 -1.3911881
0.45345518 -0.4516792 1.3768849 -0.6882345 1.7439058 -0.2599273 0.19146386 1.0076053
-0.45817918 -0.4320701 1.5163639 0.2671579 -0.6640245 -1.1146638 -0.95812637 0.4512262
1.4406021 0.40587497 -0.19402008 0.11252265 1.8536613 0.035431203 0.45357212 -0.73639137
0.4659501 -0.7975943 0.8526672 -1.2065358 0.15061614 0.07477436 0.54818577 -1.3911881
0.45345518 -0.4516792 1.3768849 -0.6882345 1.7439058 -0.2599273 0.19146386 1.0076053
-0.45817918 -0.4320701 1.5163639 0.2671579 -0.6640245 -1.1146638 -0.95812637 0.4512262
1.4406021 0.40587497 -0.19402008 0.11252265 1.8536613 0.035431203 0.45357212 -0.73639137
0.4659501 -0.7975943 0.8526672 -1.2065358 0.15061614 0.07477436 0.54818577 -1.3911881
0.45345518 -0.4516792 1.3768849 -0.6882345 1.7439058 -0.2599273 0.19146386 1.0076053
-0.45817918 -0.4320701 1.5163639 0.2671579 -0.6640245 -1.1146638 -0.95812637 0.4512262
1.4406021 0.40587497 -0.19402008 0.11252265 1.8536613 0.035431203 0.45357212 -0.73639137
0.4659501 -0.7975943 0.8526672 -1.2065358 0.15061614 0.07477436 0.54818577 -1.3911881
0.45345518 -0.4516792 1.3768849 -0.6882345 1.7439058 -0.2599273 0.19146386 1.0076053
-0.45817918 -0.4320701 1.5163639 0.2671579 -0.6640245 -1.1146638 -0.95812637 0.4512262
1.4406021 0.40587497 -0.19402008 0.11252265 1.8536613 0.035431203 0.45357212 -0.73639137
0.4659501 -0.7975943 0.8526672 -1.2065358 0.15061614 0.07477436 0.54818577 -1.3911881
0.45345518 -0.4516792 1.3768849 -0.6882345 1.7439058 -0.2599273 0.19146386 1.0076053
-0.45817918 -0.4320701 1.5163639 0.2671579 -0.6640245 -1.1146638 -0.95812637 0.4512262
1.4406021 0.40587497 -0.19402008 0.11252265 1.8536613 0.035431203 0.45357212 -0.73639137
0.4659501 -0.7975943 0.8526672 -1.2065358 0.15061614 0.07477436 0.54818577 -1.3911881
0.45345518 -0.4516792 1.3768849 -0.6882345 1.7439058 -0.2599273 0.19146386 1.0076053
-0.45817918 -0.4320701 1.5163639 0.2671579 -0.6640245 -1.1146638 -0.95812637 0.4512262
1.4406021 0.40587497 -0.19402008 0.11252265 1.8536613 0.035431203 0.45357212 -0.73639137
0.4659501 -0.7975943 0.8526672 -1.2065358 0.15061614 0.07477436 0.54818577 -1.3911881

controller.lstm.weight_ih f4 [400, 64]
00000000: e88a 49bd 28b1 9abc c795 95bc 4a87 a33d
00000010: 177c 013d a4ed b7bc 38c8 d8bc 8b2f c3bc
00000020: bbfe cfbd dd4d db3c 1a95 4d3d fd1d a53d
00000030: c63f 44b7 20a1 823c 0b96 f2bc 38b3 e3bc
00000040: 22c5 273e cc85 7cbd 3786 d73b 58ef 373b
00000050: 7385 8cbd 8369 073d 76de 0cbd e09d 83bd
00000060: 1367 2bbb 6b98 8bbd 3f7a bbbd 9ad8 ba3d
00000070: 9294 87bc 10c4 9ebc e3db aa3b 7e37 503d
00000080: d08b 623d 847f 9dbd 7aa2 a1bd 7d69 e33c
00000090: 6d39 47be 5733 bdbd e2f1 203b f9cd 90bd
000000a0: 871f 1b3d 3992 bd3e effb 1fbe e927 c43e
000000b0: 4487 e63c 8372 77bd 8b8d 3a3e 4683 db3b
000000c0: 1cee 5fbd f373 74bd cfcb 453e 1057 943d
000000d0: 0fd4 93be 9048 ddbd 253e 863d dbb8 e43d
000000e0: 0736 e0bc bf26 eabc 53e0 a33d 42ce 203e
000000f0: 1df9 14be cf4a 91bc c6ad 3cbe a29e 1b3e
00000100: e897 da3c 8d84 b5bd 4256 143e 5e76 423c
00000110: 3fba 4c3e 1107 d1bd 7031 21be 6d4e d83d
00000120: 9728 a9bd 695d 37be 5a75 07bb 26ee 323d
00000130: b4ca f2bd b8f5 8e3d a86e 6a3c 4eb7 9d3c
00000140: 9a47 c63d 4f27 ddbd 2fc8 873d 2223 0bbd
00000150: dee7 ea3b 3f87 033d e690 38bd 8cd7 66be
00000160: 5a5a 2c3e 6d93 093c 6337 5ebd 81cd cbbd
00000170: 5279 4dbe 15b8 06be 342d 08bb 415a 06ba
00000180: 2b24 14bd fa96 a4bc 93e9 013d 2f1d fc3c
00000190: c882 a83c a0ae 383c 5169 653c e24a 633d
000001a0: 3ce1 07bd d41a 7ebc 3d36 91bc 15c0 99ba
000001b0: 737b a7bc c570 aebd 9831 7bbd 685c 1cbd
000001c0: 0ee9 023e 7d07 91bc 235d 44bd 8d47 853c
000001d0: 9206 93bb 28ce a8bc e9de dd3c 819a 8e3c
000001e0: 784a 8ebd bbb0 bebc a75b 1e3c e062 52bd
000001f0: 5132 dc3b effd 2f3c a7b2 253d 3f94 55bd
00000200: da17 543d 8558 d7bd cc15 b23d dc79 ad3d
00000210: d44e 413e 1c0f 17bd b5e2 7fbd a5ea a53d
00000220: 8203 f1bd dc64 cbbd ab05 003d a40f 143e
00000230: 7bd9 35bd 4601 0a3e 61fb d03c 8f2e 983c
00000240: 2031 39bd 3fd1 a2bd 73e9 113e dd63 f0bd
00000250: 5834 bf3b a054 fc3d 8f21 83bd c316 21be
00000260: 17ea ff3d c4e3 d5bd e54a 03be afa8 f4bd
00000270: 9134 1fbe 49c6 23be 8866 963c a100 e8bb
00000280: 7273 593d e927 c43d c52f 14be c6f4 e53e
00000290: 9eb8 9cbd bf6f 01bf c921 59be ee01 28be
000002a0: 1323 933e 1791 e1bd 8b8c 423d fa46 303f
000002b0: ffe1 3b3e 5eb8 c2bd 35ea 623e 35b8 0ebd
000002c0: c268 eebd 1e53 57be 1685 08be 7475 ee3e
000002d0: e14c d0be b560 7fbd eea2 423f 158b fdbe
000002e0: b56c 49be f1c1 253e 9d9c 12be e87f 5fbd
000002f0: ab41 c2be 0148 303d 4ab2 44be 1a49 84bd
00000300: c760 133e c0a7 d7bd 3797 133e e056 25bd
00000310: 60ba 603d 201b e4bd 0d12 06bc d8fd 8d3d
00000320: 1b1d cc3c 1f15 13be 9fa7 a6bd fe2b 543d
00000330: 92e4 a13c ceb0 bb3d 4c2c 013d a2ec 9c3d
00000340: 9847 c4bd bbb2 60bd 7fb9 21be 7618 4a3d
00000350: def7 943d 18a5 e0bd 3dfb cdbd cc0a 35be
00000360: a72d 123c 1927 813d 0581 8a3c 5404 20bd
00000370: d17b 74bd 2580 a3bd 9d5a adbc c73c 18bd
00000380: 42df 113e 7934 8f3d 32bf e63d 3cc0 c0bd
00000390: a92d 593e acb8 09be 4a30 903e 1a52 493e
000003a0: b29e 41be a586 0abe a5f9 843e 2844 663d
000003b0: 8d9b bdbd c5ed d7bd d68b d5bd cc57 703e
000003c0: 6ebe 8d3c 3fc4 8b3d 03e6 b43c 9687 dc3d
000003d0: 4fa7 593e 3af6 0d3d 6a9a acba 07ef dcbd
000003e0: 541a a8bd f690 73bd 6255 efbe 0b6a b63c
000003f0: bfb2 f03c 8fdc 9dbc 7118 873d ef15 b1bd
-0.049204737 -0.018883303 -0.018259896 0.07984789 0.031612482 -0.022452183 -0.02646266 -0.023826381
-0.10156008 0.026770527 0.050191022 0.080623604 -1.1697359e-05 0.015945971 -0.029612562 -0.02779542
0.16383794 -0.061651036 0.006577279 0.0028066244 -0.06861391 0.03305961 -0.034391843 -0.06426597
-0.0026153966 -0.06816181 -0.09154176 0.09123345 -0.016550336 -0.0193806 0.005214201 0.05083417
0.055309117 -0.07690337 -0.07892318 0.027760262 -0.194555 -0.09238308 0.0024558236 -0.07070536
0.037871864 0.37025622 -0.15623449 0.383117 0.028140672 -0.06041194 0.18218057 0.0066989986
-0.05467044 -0.05968089 0.19316028 0.07243168 -0.28872725 -0.10804856 0.06554822 0.11168071
-0.027369512 -0.028582929 0.08001771 0.15703681 -0.14548154 -0.017735867 -0.18425664 0.15197232
0.026683763 -0.08863173 0.1448603 0.011869041 0.19992922 -0.10206426 -0.15741515 0.105618335
-0.08259695 -0.17906727 -0.0020669312 0.043684147 -0.11855069 0.06980461 0.014308609 0.019252446
0.09681626 -0.10798513 0.06629979 -0.033969052 0.007168754 0.032111403 -0.04506006 -0.22543162
0.16831341 0.008396965 -0.05425204 -0.09951306 -0.20065811 -0.13156159 -0.0020778896 -0.0005125143
-0.036167305 -0.020091522 0.031716894 0.030775635 0.020570174 0.011272103 0.01400216 0.055491336
-0.033173785 -0.015509326 -0.017726058 -0.0011730219 -0.020444607 -0.08517603 -0.061326593 -0.038174063
0.12784216 -0.017703766 -0.047940385 0.01626947 -0.004486867 -0.020606115 0.02708383 0.017407658
-0.069477975 -0.023277631 0.009665406 -0.051363826 0.0067198654 0.010741695 0.04045358 -0.05214333
0.05178056 -0.10514931 0.08695564 0.084705085 0.18877727 -0.036879644 -0.062472064 0.081013955
-0.11768247 -0.09931347 0.031255405 0.14459091 -0.04439686 0.13477048 0.025510492 0.018576888
-0.045212865 -0.07950067 0.1424921 -0.117377974 0.0058350973 0.123208284 -0.06402885 -0.15731339
0.12495821 -0.104438335 -0.12821539 -0.11946236 -0.15547396 -0.15993609 0.018359438 -0.007080153
0.053088613 0.09577925 -0.14471348 0.4491331 -0.076524004 -0.50561136 -0.21204294 -0.16406986
0.28737697 -0.11014002 0.047497313 0.688583 0.1834793 -0.095078215 0.22159655 -0.034843642
-0.11641075 -0.210278 -0.13332018 0.46573985 -0.40683654 -0.062348086 0.7602986 -0.49520174
-0.19670375 0.16187264 -0.14317556 -0.05456534 -0.37940726 0.04303742 -0.19208637 -0.064592555
0.14392386 -0.10530043 0.14413153 -0.040366054 0.05486524 -0.11137986 -0.008183015 0.069331825
0.024916222 -0.14363526 -0.0813744 0.051799767 0.019762311 0.09164582 0.031536385 0.076623216
-0.09583968 -0.05485795 -0.15793417 0.049339734 0.072738394 -0.10968989 -0.100576855 -0.176799
0.008922017 0.063062854 0.016907224 -0.039066628 -0.059688393 -0.07983426 -0.021161372 -0.037167337
0.14245322 0.0699243 0.11266936 -0.09411666 0.21208824 -0.13449353 0.28161842 0.19660226
-0.18908194 -0.13527925 0.25971714 0.056217343 -0.092581846 -0.10543398 -0.10427062 0.23470992
0.017302718 0.0682454 0.022082334 0.107680485 0.2125523 0.034658648 -0.0013168578 -0.10787778
-0.08208147 -0.059464417 -0.4674483 0.022267362 0.029382108 -0.01927021 0.06596459 -0.086467616

controller.lstm.weight_hh f4 [400, 100]
00000000: 6b9d 26be dd68 afbe b957 f4bd bf6b a5be
00000010: 9718 083d 0f28 e9bb c799 50be 3212 a73e
00000020: 5659 a73d 314a bfbd 27e0 5ebd d4df 94be
00000030: 1b32 05bd eb34 5e3e 467c 3bbd a4c7 6a3d
00000040: 8800 db3c 6256 9bbd 0131 2d3d ed56 5c3c
00000050: f99b 043e 060e b8bd 41d8 c83b a0cb e8bd
00000060: 9dfb afbd 2b15 053e 4d08 133d 61ee f9bc
00000070: bbae cebd cf08 c53c b21d 133c aded 89bc
00000080: caf6 9c3d 70f7 f6bd e46c 22be f988 ca3d
00000090: 5345 d43d e672 e13d 4e26 0f3d 85d6 43be
000000a0: c5b5 fa3b 8c81 2d3e 7b9e 2dbe 7f1b ccbd
000000b0: 73d3 163d 7e88 f1bc 9a67 6c3d 67aa cc3d
000000c0: 43c4 55bd 03da 80be 4089 81bd 7d96 2f3d
000000d0: 6519 6cbc 2f8e e53d 6d7e 7abd 9c43 8fbd
000000e0: 6dce b53c 44cc 623d c9fb 52bd 8866 b33d
000000f0: 27d4 a33e 0507 ca3b 9db6 223e 2d2d 353d
00000100: 3b16 563e 7035 8bbc d8f5 acbc d71f 4c3e
00000110: b4fc bfbd 6001 13bd 26ee d93d 0425 5e3d
00000120: 3212 18be 1310 b73d eed0 09be f0ee 473d
00000130: 5582 10bd ad72 56be 75cf aabd 5194 be3b
00000140: 5f93 62bd 30e0 0d3c a02a 6d3d 8540 8f3d
00000150: 7d0d d83b 0bff 713e a50f e33d 79b9 8cbd
00000160: ccd5 f53d 236f 3ebe 18ec 2a3d 3438 88bd
00000170: 0e6e 0a3e f2a4 aabd 5809 e23d 811f 0f3c
00000180: afb4 823c 7f1d 4bbd 8cd0 9ebe a7c2 0abd
00000190: 08b7 1d3d fe8f 6dbc 12dc 1fbc 2c09 93bb
000001a0: 2bcd d2bd 2164 59bd bf45 543e 4059 89bb
000001b0: f147 363d 2dda b9bd d83d 363e 313c 43bd
000001c0: 77ee 463d 13f0 903d 4bcd 48bd f078 8d3c
000001d0: 4dc6 5abb 298d 4dbe b1ce 5d3d 13e6 89bd
000001e0: ee06 08bd c5a2 dbbd db9f 2ebb 9772 aebd
000001f0: bff9 c9bb 527b a93d dad1 97bd d3b2 a53b
00000200: 2d89 633d e12a 063c 3218 e73d dcd6 483e
00000210: 1aa9 163d c5ab aebd c68e 073b a1a5 63bb
00000220: d5d9 2f3d af71 e9bc 4cbb 67bd cbe2 5b3b
00000230: e995 99bd aff7 babd 53e7 bbbc 2525 833c
00000240: b8e4 8a3c 0b03 adbc a7cb 073c d8cd cdbd
00000250: 57c1 3a3e 1797 6c3d 0d82 ccbc 19bc 573c
00000260: caa2 d3bc 965d fd3b bcc8 e5bc 1416 fe3d
00000270: 8ce5 a13d 8221 8c3d cbcf 5ebd d119 863d
00000280: 2752 a23d 3c6c 86bd d34b 01bc 67be 1f3d
00000290: 648a 563c 74dc b13c 2d3e c0bc 2d93 c9bd
000002a0: 275f 13bd bbd9 8bbd 1548 1fbd 5f67 3abd
000002b0: 47fc 443b a3bb f33d 876f 0c3d 7f2a 0fbd
000002c0: d505 bd3c 5569 f23d fd1d 0fbc 1aeb c43c
000002d0: ade9 bf3d addd 143d 270f 953d ec62 23be
000002e0: c628 01bd b5ac 92bb 9bd7 be3d db76 e93c
000002f0: 3450 0ebe a3ba 51bc a82e 0d3d d908 c23d
00000300: 85d2 433c 6e64 303b b823 abbd dc58 bfbc
00000310: 95d9 183e b6cc 103c 2aab 43bd 5e37 aabc
00000320: 432e d6be 6d16 413e 4c1c 2a3f 5fe0 d8be
00000330: 883e 093e 7bbb 0f3e bf22 793e c5cc c43e
00000340: c58a f5be 4a59 b53c 5697 76bf f9d2 e3be
00000350: ea5b 3dc0 bab8 3dbe 5c28 aebe bc26 153d
00000360: a2d9 85bd 66fb 353e 26cf 843d ce04 ad3d
00000370: a206 203f 49a5 103e 066b 7bbd e5d7 c03d
00000380: 05b4 933e 883d 6f3e 9138 aa3c f3b2 c43e
00000390: c007 38bf 7eed 163e 722e cfbd cea8 aabd
000003a0: 9d58 4ebe 6aff 383d c4ab a6bd 640b 2cbd
000003b0: bab9 a4be 2cf4 aebd 0dfd 5fbd 094b b43e
000003c0: 0f05 b63d 20fe b1bd 4914 133e 68e9 f8bc
000003d0: 6f84 e03c 881c 033f 30db f5be 6b4d f7bd
000003e0: 8cec b6bd d4c4 733e b9ee 263d a8df f3bc
000003f0: b261 b2bc 2e41 b4be 17da 803d 2f1f 34be
-0.16270988 -0.34259692 -0.11930794 -0.32308766 0.033226576 -0.007115371 -0.20371161 0.3263107
0.08171336 -0.09340323 -0.054412987 -0.29077017 -0.032518487 0.21699874 -0.045772813 0.0573193
0.026733652 -0.075848356 0.042283062 0.013448459 0.12950124 -0.0898705 0.006129295 -0.113669634
-0.08592913 0.12996356 0.035896588 -0.030509176 -0.10091921 0.024052052 0.008979248 -0.016836965
0.07664259 -0.12058914 -0.15861851 0.09889407 0.10364785 0.11008243 0.03494864 -0.19124801
0.007651063 0.1694395 -0.16954987 -0.09966182 0.036822747 -0.02948403 0.05771599 0.09993439
-0.052189123 -0.2516633 -0.063250065 0.042868126 -0.014410351 0.1120876 -0.061155725 -0.06995317
0.022193158 0.055370584 -0.051509652 0.08759791 0.31997797 0.0061653876 0.15889974 0.044232536
0.20906918 -0.016993254 -0.021113321 0.19934021 -0.09374371 -0.035889983 0.10641126 0.05423452
-0.14850691 0.08938613 -0.13458607 0.048811853 -0.035280544 -0.20942183 -0.083403505 0.0058160205
-0.055316325 0.0086594075 0.05790198 0.06994728 0.006593405 0.23632447 0.11086968 -0.068713136
0.12003669 -0.18597083 0.041729063 -0.06651345 0.13518545 -0.08332242 0.110369384 0.008735538
0.015955297 -0.049588677 -0.31018484 -0.03387704 0.03850463 -0.014499662 -0.009757059 -0.0044871774
-0.10293039 -0.053074006 0.20729731 -0.0041915476 0.044502202 -0.09074817 0.17797029 -0.047664825
0.04856726 0.070770405 -0.049023908 0.017269582 -0.0033382357 -0.2007338 0.054152194 -0.06733336
-0.033209734 -0.10724405 -0.0026645574 -0.0851795 -0.0061638053 0.082754746 -0.07413073 0.005056718
0.055550743 0.008188934 0.11283912 0.19613212 0.03678236 -0.08528856 0.0020684465 -0.0034736174
0.04293235 -0.028496591 -0.056575105 0.0033551927 -0.07499296 -0.09129273 -0.022937452 0.016008923
0.016954765 -0.021119615 0.008288301 -0.10049027 0.18237816 0.057761278 -0.024964357 0.013167405
-0.02583446 0.0077321036 -0.02804982 0.12406555 0.07905111 0.068423286 -0.054397386 0.06547893
0.079258256 -0.06563613 -0.007891613 0.03899994 0.013094518 0.021711566 -0.023467148 -0.09842525
-0.035979416 -0.06828638 -0.038887102 -0.04550874 0.0030057596 0.11901023 0.03428605 -0.034952637
0.02307407 0.11836497 -0.008735177 0.024037886 0.09370742 0.03634422 0.07278281 -0.15955704
-0.031533025 -0.0044761547 0.09318467 0.028499058 -0.13897783 -0.012800845 0.034468323 0.09474344
0.011952047 0.002691533 -0.08356422 -0.023357801 0.14926751 0.008837869 -0.047770657 -0.020778354
-0.4183217 0.18856211 0.6644943 -0.42358682 0.1340276 0.14036362 0.24329661 0.38437477
-0.47957435 0.022137303 -0.9632467 -0.44496897 -2.958735 -0.18527499 -0.34015167 0.036413893
-0.06535651 0.17771682 0.06484823 0.08448182 0.6251012 0.14125551 -0.061381362 0.094161786
0.28848282 0.23363316 0.020778926 0.38417777 -0.71886826 0.14739034 -0.101162806 -0.08332978
-0.20150991 0.045165457 -0.081382304 -0.04200305 -0.32172948 -0.08542666 -0.054684687 0.35213497
0.088876836 -0.086910486 0.14363207 -0.030384734 0.0274069 0.5121541 -0.4801879 -0.12075313
-0.089318365 0.23805553 0.040755007 -0.029769734 -0.0217751 -0.35205978 0.06291597 -0.1759002

controller.lstm.bias_ih f4 [400]
00000000: 7806 813d e8b8 e13d fcf6 c53d f47e 8b3d
00000010: 95ff 933d bf3c 3d3d 4ca3 023e 663f 5e3e
00000020: 38ab ad3d fe4c 1e3e 9372 083e 89f5 0c3e
00000030: 61cd 85bd 0bea 6b3e b248 8b3d ea90 13bc
00000040: bc7b 993c 28ca 933d ccf7 963d d529 923d
00000050: 4408 e73d 4f57 d83d bd2e 7b3d 4f66 a53d
00000060: a780 c53d 6763 d03d c774 4b3e b559 f83d
00000070: 7630 313d c7f4 303d 5bef 9a3d fe12 f13d
00000080: 351b 8e3d 8b85 c13d 8a38 9d3d 7c7a abbc
00000090: 3bad 57bb 1f9e ef3d 0b62 e93c d9c8 2d3e
000000a0: ace1 be3d ab19 173e 9feb 203e ea33 4ebd
000000b0: a78f 983d c15c f83c 45ba d63d 1176 6b3d
000000c0: e17d 243d 2226 303e 4f15 e73d c066 c63d
000000d0: a42a 2e3c 893d c4bc 7efa 083e 7b9d f23d
000000e0: 2054 043e ffb1 c83d 583c 193d 00ec cc3d
000000f0: cff1 6bbd 50e2 233d 56ae d63d 2696 2d3e
00000100: 8abe f03d 8e98 8d3d 4ea0 443d 5a52 513d
00000110: a803 ee3d 1da7 203c 4c50 f63d 35e6 5c3c
00000120: bde8 3c3d 867b ce3d 8b4c 42ba efda f23d
00000130: ef16 a53c f310 923c 566f b43d 4610 dd3d
00000140: e473 053e ce7f d13d 74e8 b53d bb64 7f3d
00000150: 0a91 0e3e 9eea 6a3d 886a bbbc 91ab 05bd
00000160: 6677 353d 2bf6 e4bb b4cd a7bd 82c5 403d
00000170: e036 123e bdb1 cf3d 01ee c23d b7c3 c73d
00000180: b412 d43d d53c 063e 5c09 6a3c 99ce 343d
00000190: 9099 c8bc bc08 143d e3b8 d13d 7971 253c
000001a0: 604b 46bc ab77 7b3d 47db da3c 297c 3d3e
000001b0: 5252 c33d e01d 2a3d 1d18 753d 9907 68bd
000001c0: 4892 a13b 2afb bdbc 22fe 9d3b d5c9 133d
000001d0: a741 6b3d 0666 dc3c 3228 943d 856c 843d
000001e0: 08ba 853d 6379 a03d 268f 523d 7107 6c3d
000001f0: bae4 9d3d 4486 093e ccaf 243e 4b61 4d3d
00000200: 2890 843c 3a98 7d3d 9840 fa3c 1a34 ac3d
00000210: 0434 833d 4094 213e 7824 843d 05ee d53d
00000220: af1a 1d3d 9401 923d 074b 813d 074a 9dbd
00000230: 9a9f 873d 223e 013e 18de f23c 795e f4bd
00000240: 5010 a33d 4867 11bd d6d7 193d 5030 9f3d
00000250: 30a6 17bd b2d1 0a3e 6409 843d 1acc f83c
00000260: 1f5d 74bd abef 0bbc 54ff 1b3e 1b82 513d
00000270: 2907 a33b 1b81 02bd 6599 71bc 1a01 4a3d
00000280: 9a54 ce3d ee16 2c3d d1a0 183e fbb9 2e3d
00000290: ddd0 043c a037 09bd 8150 833d aea1 eebc
000002a0: 7332 8a3d 0f4f b73d 8345 22bc 1475 01bd
000002b0: 21f3 a03d 5471 843d 7c7b 253d b8bf 863d
000002c0: 2afe 7d3d 1a87 473d 9961 6f3d aaff cabd
000002d0: d883 17bd 591d 6a3d 350f 643d 0a59 113d
000002e0: fd0c d33c bba7 af3d 30b0 65bc 5b10 94bd
000002f0: ff96 f33b a590 5f3c e44d 373d 4565 a33d
00000300: 4f51 8d3c 8b9d a4ba d2f3 9c3d 5f82 eb3b
00000310: 2466 ac3d 0805 083d 23d0 273e 1942 493d
00000320: e61f cb3d 1e21 54bc f3e1 903c 4c42 45bc
00000330: 973c c9bd 32f7 1f3d 041f 9139 1d49 613d
00000340: f8f1 f3bc 3593 abbd ba41 193a bae4 f43d
00000350: 000b bb3d f204 36bd 2e2a af3d 52f1 9cbd
00000360: e372 a4bc b4bc 90bd 4f93 dabd b5eb cbbd
00000370: 7d14 fcbd b9f1 03be 4684 f13d 0588 4abd
00000380: 6131 803d d7da c13d 1597 01be 9e6a a53d
00000390: 5923 11be 30fd 67bd d7d6 e43d 3efe 003e
000003a0: 0224 cc3d eabf 27be 1ac4 59bd e146 ecbc
000003b0: 8916 c03d 1158 4fbd 052d 04bd 2909 a9bd
000003c0: f940 ecbd a717 0fbd b44b 08bd 98a0 eb3b
000003d0: fbb1 5c3c 8f3d d2bb 364d e03d e7f7 80bd
000003e0: 4fd5 dfb9 2ad4 89bd 601d fbbd 80dd 3d3d
000003f0: ecb7 28bc f539 38be 7a8c bb3d 61ed dc3d
0.06300062 0.11021596 0.09666249 0.06811324 0.07226483 0.04620051 0.12757605 0.21703872
0.08479923 0.15459058 0.13324957 0.13765539 -0.065333135 0.23038499 0.06800975 -0.009006718
0.018735759 0.072162926 0.07371482 0.07136885 0.112808734 0.10563528 0.06132387 0.080761544
0.09643679 0.101752095 0.19868766 0.12126485 0.043259107 0.043202188 0.07565185 0.117712006
0.06938783 0.094492994 0.076767996 -0.020932429 -0.003290965 0.11700081 0.028489133 0.16971149
0.09320387 0.14755885 0.15714882 -0.050342478 0.074492745 0.030317666 0.10484747 0.057485644
0.04015911 0.17202047 0.11283361 0.09687567 0.0106302835 -0.023955123 0.13376805 0.11846443
0.12922716 0.09799575 0.037411064 0.10005951 -0.057603654 0.04001075 0.10482471 0.16951808
0.117550924 0.06913863 0.04800444 0.051103927 0.11621791 0.009805468 0.12027034 0.01348262
0.046120394 0.10082154 -0.00074119185 0.118581645 0.020152537 0.017830348 0.08810298 0.107941195
0.1303249 0.10229455 0.088822275 0.062351923 0.13922516 0.057352655 -0.022877946 -0.03263432
0.04430332 -0.0069873533 -0.08193532 0.047063358 0.14278746 0.10141323 0.09518052 0.097541265
0.1035513 0.13109143 0.014284458 0.04414234 -0.024487287 0.036141142 0.102403425 0.010097855
-0.012102932 0.06139342 0.026715888 0.18504395 0.09537186 0.041532397 0.05983745 -0.05664787
0.004930768 -0.023191053 0.0048215548 0.036081154 0.057435658 0.026904117 0.07234229 0.06466011
0.06529623 0.07835653 0.05140605 0.057624284 0.07709642 0.13430125 0.16082686 0.050141614
0.01618202 0.061912753 0.030548379 0.08408375 0.064064056 0.15779209 0.06452268 0.10445789
0.038355526 0.07129207 0.063131385 -0.07680135 0.066222385 0.12621358 0.029646918 -0.11932082
0.07962096 -0.035498887 0.037559353 0.07772887 -0.037023723 0.13556555 0.064471036 0.03037076
-0.05965912 -0.008541028 0.15234119 0.05114947 0.004975219 -0.031861406 -0.014746045 0.049317457
0.1007473 0.042014055 0.14905097 0.042657834 0.0081064375 -0.033500314 0.06411839 -0.02912983
0.06747904 0.08950626 -0.009904268 -0.031605795 0.07858873 0.06466928 0.040400967 0.06579536
0.062009968 0.048712827 0.058442686 -0.09912045 -0.03699097 0.057156894 0.055678565 0.035485305
0.02576303 0.08576914 -0.014019057 -0.07229682 0.0074337716 0.013645326 0.044752017 0.079783
0.017250685 -0.0012559158 0.076636925 0.0071871723 0.08417919 0.033207923 0.16387992 0.0491353
0.099181935 -0.012947349 0.017685866 -0.012039732 -0.0982601 0.039054103 0.00027679664 0.055001367
-0.029778466 -0.08377687 0.0005846281 0.11957689 0.091329575 -0.04443831 0.08552967 -0.07663216
-0.020074314 -0.07067242 -0.10672628 -0.09957067 -0.12308595 -0.12885179 0.11792807 -0.049446125
0.06259418 0.094655685 -0.1265529 0.08076976 -0.1417364 -0.056637943 0.1117379 0.12596986
0.099678054 -0.16381803 -0.053165533 -0.028842391 0.09379298 -0.050621096 -0.032269496 -0.082537
-0.1153583 -0.034934666 -0.03327532 0.007190775 0.013470168 -0.0064160298 0.10952227 -0.062972836
-0.00042692802 -0.0672992 -0.12261462 0.046353817 -0.010297757 -0.17990859 0.09157653 0.10787464

controller.lstm.bias_hh f4 [400]
00000000: d1cf 5b3d 6571 b53d 417d 073e 413e 833d
00000010: a876 933d d610 853d 9093 e83d 49f6 523e
00000020: 0715 593d c77d 183e 5416 013e 3f8a 033e
00000030: bcb6 d5bb 5f54 5c3e 2a57 613d 6ea9 283b
00000040: 0271 d73c 8fb4 bc3d ed94 913d 315f 903d
00000050: 58ad e73d 485a d83d bfd0 923d 9d75 a53d
00000060: 747c b83d c0f4 c13d ee2a c33d ea7a f63d
00000070: 8532 1e3d 0566 463d 5a97 9f3d 1193 f03d
00000080: b410 903d 9759 a63d 47d4 913d 6f6f e5bc
00000090: bcbb fe3c e3ae 283e ab9d dc3c 8836 f03d
000000a0: e66a be3d 3eb7 bf3d ba75 1b3e 38b9 85bd
000000b0: 42f1 9a3d e0cf 2f3c 57ee b03d 002a 913d
000000c0: b1e0 c63c a9bd 323e 9297 d03d 3633 c63d
000000d0: 9984 83bc 6bbb f83c 9117 043e b49a ee3d
000000e0: 1526 ed3d 92ed 263d 48b1 0e3d a9c2 c03d
000000f0: 7b68 383c 1d87 e83c d669 673d 5b61 253e
00000100: 900d 0d3e 42ef 9f3c 1b90 3b3d 88ce ea3c
00000110: 2ae2 e93d e7e9 e8bc 7d7a 153e b1a1 bc3c
00000120: 996f a73d 13f4 cf3d 29ef 363d ad76 c13d
00000130: d611 8d3a b9eb 103d f1a5 b53d 9518 f13d
00000140: ba39 c43d b4af ce3d 16c0 aa3d 1294 813d
00000150: df66 053e 13b7 6a3d 1f16 37bd 43f1 bbbc
00000160: ae3d 2b3d a5ca c5bc a308 a2bd fb46 633d
00000170: 2399 f53d fc5d 853d 96f6 c33d b436 c83d
00000180: 9cfb d33d 085f 063e 8b79 553d 303a 443d
00000190: c4a3 c4bc 3170 e23d 7c48 f43d cc6f d73b
000001a0: 9952 41bd 3c37 6c3d 2085 183c c408 453e
000001b0: 5717 c33d 73b9 293d c016 823d e20e 49bd
000001c0: 009c dd3d c1d4 4abd 5777 8f3a e4cf 253d
000001d0: 4c36 693d d1ad 0f3c ab2e 943d 2972 843d
000001e0: a4ba 853d 2b79 a03d f719 4e3d ec2b 6b3d
000001f0: f301 a83d 75d7 043e 579d 123e 1d6a 4d3d
00000200: 625c b8bb 6f5c 783d f331 023d af32 ac3d
00000210: 4b35 833d 694a 263e 2390 3e3d 78bb d03d
00000220: 9bdc 2f3d e3b2 aa3d 71a5 703d 02dd 81bd
00000230: 979f 873d 579f c23d 6205 573d 9ca6 95bd
00000240: a2b3 a63d 7298 a13c 377d 5a3d 86e7 173d
00000250: 0526 31bd 53b3 203e 6d06 843d 29a9 003d
00000260: 3d92 78bd b9df 223d 64bc ff3d cc7b 2a3d
00000270: 265f d33d 1692 0cbd 6bee 70bc abc4 ba3b
00000280: fd3b 293d 6b57 543d 197f f93d 7839 1e3d
00000290: 1e35 b23c 8566 70bd d5f2 863d 02d1 67bb
000002a0: 0933 8a3d 50e7 ab3d 5624 b03b 1e4f 06bd
000002b0: e69e b53c 0773 843d 45e7 ea3c 7ff0 6c3d
000002c0: 2153 913d 61d1 993d 5a4a 6f3d ff5c 51bd
000002d0: 6081 9b3d fb1c 6a3d 110f 643d 9964 c63d
000002e0: 3061 bd3c 25b4 003d a9e7 293c e6e2 35bd
000002f0: cabc c33b aa99 f23d 73de bc3d d8f0 a33d
00000300: a197 0a3d 23d3 39ba 3cf1 9c3d 84dd 9c3c
00000310: 3c66 ac3d 60ea c63b 76ed 183e 2a48 443d
00000320: 7ecb d13d f67e bbbd 4b74 733d 06a5 a83b
00000330: ab4e bfbd d8de dfbb 5ba8 3cbb 5e58 1d3e
00000340: bb40 f2bc 3b9e 91bd e56d 3e3b dfce c53d
00000350: 1f8f ca3b 611f 2cbd cbfb 813d ceaa 8fbd
00000360: fd12 8ab9 5fb8 febd 6f1a dfbd 0023 c2bd
00000370: 4ca0 fbbd 80b3 03be 094e 7e3d b38b 4dbd
00000380: 0d98 0f3e ee38 203b 5880 2b3d 2ff9 843c
00000390: bda7 00be b221 ae3c e55a e53d 9100 013e
000003a0: 7d9e cb3d 2c42 9cbd 9818 1bbc b0bf cb3d
000003b0: d0d0 bc3d d482 b1bd bd13 6a3c 7bd2 00be
000003c0: 52d3 eebd f939 06bc 2319 98bd bbbb b0bd
000003d0: b2d6 9ebb d53f 99bc 21c7 fb3d d1ed 4d3c
000003e0: 0270 19bd 5d0a f2bd 3687 ecbd 3566 5e3d
000003f0: f418 08bc d9f9 26be 1db1 8a3d 3ebd bf3d
0.053664986 0.08859519 0.13231374 0.06408358 0.07200366 0.06497352 0.1135627 0.20601763
0.05299857 0.1489173 0.12606174 0.12845705 -0.006522028 0.2151656 0.055014767 0.0025735754
0.026299004 0.09214126 0.071084835 0.07049406 0.113123596 0.10564095 0.071687214 0.080790736
0.090081125 0.094705105 0.095296726 0.12035163 0.038622398 0.048437137 0.0779254 0.11746801
0.07034436 0.08122557 0.07120567 -0.028007237 0.031095378 0.16472964 0.02693065 0.11729151
0.09297733 0.093611225 0.15181628 -0.06529468 0.075655475 0.010730714 0.0863921 0.07088089
0.024277063 0.17455162 0.1018516 0.096777365 -0.016054438 0.030362805 0.12899615 0.11650601
0.11579529 0.04075391 0.034837037 0.094121285 0.011255379 0.02838474 0.056497417 0.1615042
0.13774705 0.019523267 0.045791727 0.028662935 0.114200905 -0.028431846 0.14597507 0.02302632
0.081755824 0.10153975 0.044661675 0.09446464 0.0010762762 0.035381053 0.088695414 0.11772267
0.09581323 0.100921065 0.08337419 0.0632707 0.13027523 0.0573035 -0.04469883 -0.022942191
0.04180687 -0.02414448 -0.079118036 0.055487614 0.11992099 0.06512067 0.09568517 0.09776059
0.10350725 0.13122189 0.052117866 0.047907054 -0.02400387 0.11056555 0.11927888 0.0065746065
-0.047197912 0.057669863 0.009309083 0.19241625 0.09525936 0.041436624 0.063519955 -0.04908646
0.1082077 -0.049519304 0.00109456 0.040481463 0.056936547 0.008769468 0.07235464 0.06467087
0.065297395 0.07835611 0.05031773 0.057414934 0.08203497 0.12972815 0.14317833 0.050150026
-0.0056262473 0.060635027 0.031785917 0.08408105 0.06406649 0.16239323 0.04652418 0.10192007
0.042934995 0.08334901 0.058751527 -0.06340982 0.06622236 0.09503048 0.052495368 -0.07307169
0.08139731 0.019726012 0.05334207 0.037086032 -0.04324915 0.15693407 0.06446538 0.031411324
-0.06068634 0.03976414 0.124871045 0.04162197 0.103208825 -0.034319006 -0.014705281 0.005699714
0.041316975 0.05184118 0.12182445 0.038629025 0.021753844 -0.05869152 0.06589285 -0.003537238
0.067480154 0.08393729 0.0053754253 -0.032790296 0.022170495 0.06467252 0.028674731 0.057846542
0.07095934 0.07510639 0.058420517 -0.05111408 0.07593036 0.057156544 0.05567843 0.09687156
0.023117632 0.0314218 0.0103701735 -0.04440584 0.005973433 0.11845715 0.09222116 0.08004922
0.03383601 -0.0007088652 0.07663199 0.019148596 0.08417937 0.00607042 0.14934334 0.047920384
0.10243891 -0.09155075 0.059437077 0.0051466255 -0.093411766 -0.006831985 -0.002878687 0.1536574
-0.029571882 -0.07110258 0.0029057201 0.09658598 0.006181612 -0.042022113 0.06346854 -0.07015
-0.00026335559 -0.1243751 -0.10893714 -0.09479332 -0.122864336 -0.12861443 0.06208614 -0.050182056
0.14022847 0.0024447995 0.041870445 0.016232101 -0.12563987 0.021256302 0.111989774 0.12597872
0.099423386 -0.07629809 -0.009466313 0.09948671 0.09219515 -0.086675316 0.014286933 -0.12580292
-0.116614 -0.008192533 -0.074266694 -0.08629557 -0.004847371 -0.018707195 0.1229384 0.012568907
-0.037460335 -0.11818383 -0.11549227 0.05429669 -0.008306731 -0.16306247 0.06772063 0.09362267

controller.fc_out.weight f4 [1000, 100]
00000000: 8282 a73e ecc1 8bbe 84ed aebe 08d3 043e
00000010: 00fc 2dbe 7df0 973e cb7d 4fbe 757b 063f
00000020: 5000 a1be 79cb 0abf b4e0 173e 9768 113f
00000030: 5c9e 81bd adfa 3cbf 3840 753e 8cbb 66be
00000040: 1fb4 19bd 5469 98be a5c0 9cbe 4e04 65be
00000050: b88a 04bf 8563 b7be 0f7e 273e 83de adbe
00000060: 4d37 023f bc00 2f3e bd2b bdbe 6c3a bb3e
00000070: 650e c9be 5f44 b23d 4e2e de3e 18f4 ff3e
00000080: 4672 a43e a224 f6be c9fa 2dbe f59c a43e
00000090: 7189 633e d584 09bf 234e a93d 181b 3fbf
000000a0: bdf0 e3be 2ef4 f7be 95a1 1bbf ab5f 7dbe
000000b0: 3b19 ca3d 8096 a2bd d17f 123f c521 a6be
000000c0: 320f ea3d 3a28 27bf 00c7 ebbe b316 793e
000000d0: 3dfa 9a3b bfc8 03bf 39bd de3e cd85 0e3f
000000e0: 13ed 01bf b02c a43e a343 25be c729 27bf
000000f0: 99a1 903d db7e 7cbe d333 6d3e 9ff5 34bf
00000100: 94a2 433f 0fe2 8d3e 61a4 2ebd ce21 1abf
00000110: d0fb c9be d5f4 e73e 51c7 edbe 1b14 6e3d
00000120: 2a9f cabe 03b4 b83e 63c5 9bbe f422 513f
00000130: 1b78 4bbe 2ac2 b0bd 86ce b7be 13c6 e73e
00000140: f501 00bf 3738 d73e 1610 ec3e 30ac 84be
00000150: d890 18bf 634e 863e dd06 aebd 5431 03be
00000160: 75cf aebe 2156 ec3d 8a71 0ebd a2de e3bc
00000170: 2685 cf3e f387 12be b78a a2be c921 7fbe
00000180: 98e6 cf3e cd67 ab3e 8edf a2be 54c4 4abe
00000190: 9ab6 6a3e 12e9 80bf b4ba 9ebe ae1b acbe
000001a0: 5b25 b6be 734d b03f a2e9 3cbf e2e2 99be
000001b0: 5d61 bbbd 0ffe 383e fb10 c83d 9dcf 023f
000001c0: d295 ec3e 2d38 93bf 0f9f a93c 563a 683e
000001d0: 9ff7 843d 1a5d 73be 9572 6fbe 8ad9 20be
000001e0: f7e3 81be c126 613e 1396 083f f5b9 72bd
000001f0: fb0d 8abf 8cb3 963d cda9 7ebe 5965 55be
00000200: d263 aebd fe95 d0bf 433c 5dbf a45e 79be
00000210: 0024 e83d 7616 8ebd 3bbb 213e bcf6 393e
00000220: 0ccf 4abe 0a92 c43b 9361 81be dcbe ee3e
00000230: b5fc 433f aae6 9abe 6118 0cbe 03a2 ddb8
00000240: 6f90 1f3f 9d21 2bbd b220 f33d 6f0e 9b3e
00000250: 1926 2c3d be76 303f 8ba6 82bc 6480 873d
00000260: ea07 ad3c ed86 cdbe 90f9 a13e 37e9 7fbf
00000270: 22ac 57bf 28a0 45be 0f05 973b 2aad 803c
00000280: 83ce ac3e 86a6 153f 6b9b d8be 8f87 16bf
00000290: 367b aabe dbe4 13bf e3cd 7e3f a337 73bf
000002a0: 7c0c 213f 6e09 22bf 8a5f 663f 58f3 923d
000002b0: 0ba7 20bf b3be 70bf 48df 44bd 266d e7be
000002c0: f6c9 093e 6d68 b33e cb6c 12bd 6656 7ebf
000002d0: 3448 163e 00d6 ffbd faa1 09bf c75e 3ebe
000002e0: e63f 573e 82e2 57bd c9da 7a3d df7e da3d
000002f0: 91d8 433e f918 683e b47a c4be a358 1fbf
00000300: ae9e 403f dfdb 343c fd6b d23c 4c23 43c0
00000310: 702a b0be 3d21 72bf 0456 0b40 66c0 0d3f
00000320: 06cc 243e 2a4b f43e 585f 32c0 ac19 8fbe
00000330: d207 08bf 7ecf 803d d807 b13e d2ae 1b3f
00000340: 2780 ac3f 5235 72be 3276 903f 4009 d2bf
00000350: d05b a03f 0655 4a3f d159 fe3c af1b 55be
00000360: 261a 85be 1166 37bf e1fc 18bf e9f2 d7bd
00000370: 6585 b93e d099 31bf 4c64 c3bd 2573 743e
00000380: 0898 0dbf 8b99 85bf 2237 0cbe 94f6 90bf
00000390: 4ab8 dabd 0cbf b5be afd5 f93e f3e3 7b3f
000003a0: c673 cc3e 2b7e 02bf ec7e 7a3e 11ea 0d3f
000003b0: f506 2b3f 92a0 2bc0 dbfd 87be 2f50 593d
000003c0: b952 2abe 9d68 86bf 0d7a 683e 25e6 f5bd
000003d0: 2aaa 88bf 566e 53bf ff8f 26be 19de 783f
000003e0: 7e7f 1b3e 53c5 1cc0 618d 2bbe 5159 413e
000003f0: f5bb 343e 7702 5b3f 7b4b 8dbe 7d54 bf3f
0.32716757 -0.27296388 -0.34165585 0.12971127 -0.16990662 0.29675665 -0.2026283 0.5253213
-0.3144555 -0.54216725 0.14831811 0.56800216 -0.06329033 -0.7382 0.23950279 -0.22532481
-0.037525292 -0.2976786 -0.30615726 -0.22364923 -0.5177417 -0.35818115 0.16356681 -0.33958825
0.5086563 0.17090124 -0.36947432 0.3656801 -0.39268795 0.08704447 0.43394703 0.49990916
0.32118434 -0.48074824 -0.16990198 0.32151 0.22220398 -0.5371831 0.082668565 -0.74650717
-0.44519606 -0.48428482 -0.6079343 -0.24743526 0.098680936 -0.07938862 0.5722628 -0.3244764
0.114286795 -0.65295756 -0.46050262 0.24325065 0.0047295378 -0.5147819 0.4350374 0.55672914
-0.5075237 0.32065344 -0.16139083 -0.6529812 0.07062072 -0.24657767 0.231643 -0.7068729
0.7641995 0.27711532 -0.042637233 -0.6020783 -0.3944993 0.4530398 -0.4644113 0.058124643
-0.39574558 0.36074838 -0.30424032 0.8169396 -0.19870035 -0.08630784 -0.35899752 0.45268306
-0.50002986 0.42035076 0.46106023 -0.2591262 -0.59596014 0.2623168 -0.08497403 -0.12811786
-0.34142652 0.11539865 -0.034776248 -0.02781612 0.40531272 -0.14309673 -0.31746456 -0.24915232
0.40605617 0.3347763 -0.31811184 -0.19801456 0.2292122 -1.0071127 -0.31001818 -0.33614868
-0.35575375 1.3773636 -0.73793995 -0.3005591 -0.0914943 0.18065666 0.09768864 0.5109804
0.46208054 -1.1501518 0.020705728 0.22678503 0.064925425 -0.23765984 -0.23383553 -0.15707985
-0.25369236 0.2198744 0.53353995 -0.059259374 -1.0785517 0.073584646 -0.24869461 -0.20839442
-0.08515133 -1.6295774 -0.8642008 -0.24352509 0.113349915 -0.06937878 0.15794079 0.18160528
-0.19805545 0.0059988545 -0.25269756 0.4662999 0.76557475 -0.30254108 -0.13681175 -0.00010568278
0.62329763 -0.041780103 0.118714705 0.3028445 0.04202852 0.68931186 -0.015948555 0.066162854
0.021121938 -0.40142003 0.31635714 -0.9996523 -0.8424703 -0.19299376 0.0046087573 0.015707571
0.33751306 0.5845722 -0.42306075 -0.58800596 -0.33297127 -0.5777108 0.9953291 -0.9500677
0.62909675 -0.6329564 0.8998953 0.071753204 -0.6275489 -0.94040984 -0.0480645 -0.4520046
0.13455948 0.35040608 -0.035748284 -0.99350584 0.14675981 -0.12491989 -0.5376278 -0.18590842
0.21020469 -0.05270625 0.061243806 0.1066873 0.19125582 0.22665776 -0.38374865 -0.62244624
0.75242126 0.0110387495 0.025686258 -3.0490294 -0.34407377 -0.9458197 2.177125 0.553717
0.16093454 0.47713596 -2.7870693 -0.27949274 -0.5313693 0.06289576 0.34576297 0.6081363
1.3476609 -0.23653153 1.128607 -1.6409073 1.2528019 0.79035985 0.031048687 -0.20811342
-0.25996512 -0.71640116 -0.5976086 -0.10544378 0.36234584 -0.69375324 -0.095406145 0.23872049
-0.55310106 -1.0437483 -0.13692906 -1.132525 -0.106796816 -0.3549732 0.4879584 0.983947
0.39932078 -0.5097377 0.2446248 0.5543528 0.6680749 -2.6816754 -0.26560864 0.053054985
-0.16633119 -1.0500675 0.22702809 -0.12006787 -1.067693 -0.82590234 -0.16265868 0.97213894
0.15185353 -2.4495437 -0.1675315 0.18881728 0.17649825 0.85550636 -0.2759665 1.4947659

controller.fc_out.bias f4 [1000]
00000000: 7271 883f 68ee 50bd 4975 673e 8e0e 453e
00000010: 3926 403e 8bc6 83bb 5003 fdbc c007 ff3e
00000020: 94d2 cb3e 2dce 4e3e 2287 8c3e da75 3abd
00000030: 4deb 823c f395 813d b1ea 853b fd02 c63d
00000040: 2d6b 18be 44e7 89bd a4c3 d43d ca68 2a3d
00000050: 99bb c23b bf0e 353c 7139 513d 9935 1b3e
00000060: e09c a6bc eb71 b33c 251d 82ba 702c 493c
00000070: c9a3 7d3d d331 d93d 6076 983e d0bd db3d
00000080: 64cd 833d bacd cc3d efca 83bb 15b2 83bb
00000090: 71c5 83bb d18c 83bb dcb5 83bb 3ebe 83bb
000000a0: 48d4 83bb bbab 83bb 54be 83bb 76b3 83bb
000000b0: 56bb 83bb d8c7 83bb b890 83bb 54ce 83bb
000000c0: 9c98 83bb 2136 83bb 43cb 83bb 379c 83bb
000000d0: e6d2 83bb dcae 83bb 26b3 83bb 89cc 83bb
000000e0: d8cd 83bb feb5 83bb a089 83bb 48c9 83bb
000000f0: ac8c 83bb 8bd3 83bb 7ed2 83bb 27b3 83bb
00000100: 63c2 83bb 1cc4 83bb e1d3 83bb fb7b 83bb
00000110: 46c0 83bb 9aa6 83bb 6b96 83bb c2a0 83bb
00000120: c4d3 83bb 16a2 83bb 90af 83bb 5acd 83bb
00000130: 27d0 83bb 87b8 83bb e98b 83bb 3fbf 83bb
00000140: 6bab 83bb b0d3 83bb c389 83bb a6a1 83bb
00000150: fed1 83bb 09c4 83bb 7092 83bb 23bd 83bb
00000160: 7dc6 83bb d9d4 83bb 8bcc 83bb 2bc9 83bb
00000170: ccaa 83bb 2ad2 83bb 38bb 83bb d8bd 83bb
00000180: 55cb 83bb 5fba 83bb 23a9 83bb e1c0 83bb
00000190: 0ed4 83bb b1d3 83bb 508d 83bb f191 83bb
000001a0: 5dd1 83bb cfd3 83bb ead3 83bb 59c1 83bb
000001b0: 589d 83bb 6982 83bb 179e 83bb 3dd2 83bb
000001c0: 6295 83bb e193 82bb eba0 83bb 42d1 83bb
000001d0: 38d4 83bb 87cd 83bb aec1 83bb 69af 83bb
000001e0: fcd1 83bb dbca 83bb fdba 83bb 58c1 83bb
000001f0: 8ac0 83bb 5dc9 83bb 7cd3 83bb 707e 83bb
00000200: 88c8 83bb 94bb 83bb 0ca7 83bb 34b7 83bb
00000210: 5ed1 83bb 80d2 83bb 58d3 83bb 29bb 83bb
00000220: 8dce 83bb c9ca 83bb c2a9 83bb 82a5 83bb
00000230: b69e 83bb 6ed4 83bb cfab 83bb 13d1 83bb
00000240: a0aa 83bb fba0 83bb 7e9a 83bb e3d0 83bb
00000250: 1eaf 83bb 2490 83bb e2c7 83bb decc 83bb
00000260: 44c9 83bb f56b 83bb aa88 83bb 8d9a 83bb
00000270: a7d0 83bb d192 83bb 0f6e 83bb 09d0 83bb
00000280: 7dc6 83bb 89ad 83bb 6299 83bb 9fcb 83bb
00000290: c4ba 83bb 1690 83bb ffd3 83bb edd3 83bb
000002a0: 23c5 83bb 0c8b 83bb cad3 83bb bf7e 83bb
000002b0: 86d4 83bb 4bd4 83bb d7c4 83bb 81d3 83bb
000002c0: e5d2 83bb 3fb3 83bb edc7 83bb cdcd 83bb
000002d0: ffc9 83bb c8b2 83bb 7ad0 83bb 91b2 83bb
000002e0: d9b1 83bb 18b3 83bb 86a4 83bb 79c3 83bb
000002f0: b3c5 83bb 6ccf 83bb 2477 83bb 20bd 83bb
00000300: 4897 83bb 10d4 83bb edce 83bb c09f 83bb
00000310: 5788 83bb 90c8 83bb fbc6 83bb 30d1 83bb
00000320: 5fb7 83bb 87c9 83bb b2c4 83bb a0d1 83bb
00000330: fdab 83bb a6c2 83bb 4ea1 83bb 38c1 83bb
00000340: 9ec4 83bb 55ab 83bb 7db3 83bb 4eb0 83bb
00000350: 127c 83bb 67d0 83bb f4cf 83bb 0689 83bb
00000360: d6bd 83bb 43c1 83bb 86b3 83bb 50ca 83bb
00000370: fccf 83bb 05bb 83bb e5cd 83bb c3ae 83bb
00000380: 1ed4 83bb 33d4 83bb 878e 83bb 9da1 83bb
00000390: 3fac 83bb b6c1 83bb c99e 83bb fbac 83bb
000003a0: 73b1 83bb 9bce 83bb 24d4 83bb 89c5 83bb
000003b0: c991 83bb 588c 83bb ddb1 83bb 7dc0 83bb
000003c0: 10be 83bb 4ed4 83bb 61ad 83bb e9cf 83bb
000003d0: 57a4 83bb c3ad 83bb e8d3 83bb efb5 83bb
000003e0: a7c6 83bb 6b9c 83bb 7eaf 83bb 3ca6 83bb
000003f0: e895 83bb 5c9b 83bb bcad 83bb 3cb1 83bb
1.0659621 -0.051008612 0.22603334 0.19243833 0.18764581 -0.004021471 -0.030885369 0.498106
0.39809096 0.20195837 0.27446848 -0.04552255 0.01598134 0.06327429 0.0040868153 0.09668539
-0.14884634 -0.067335635 0.10388878 0.04160384 0.0059427735 0.011050879 0.05108017 0.15157165
-0.020338476 0.021904906 -0.0009926899 0.012278661 0.061923776 0.10605206 0.29777813 0.10729563
0.064356595 0.10000177 -0.0040219943 -0.0040190318 -0.0040213396 -0.0040145894 -0.004019482 -0.0040204814
-0.0040231086 -0.0040182746 -0.0040204916 -0.004019196 -0.004020135 -0.004021626 -0.0040150546 -0.004022399
-0.004015995 -0.0040042554 -0.0040220334 -0.004016425 -0.004022944 -0.0040186476 -0.004019159 -0.004022185
-0.004022341 -0.004019498 -0.004014209 -0.0040217973 -0.004014572 -0.0040230206 -0.0040228954 -0.0040191594
-0.0040209754 -0.004021181 -0.0040230607 -0.0040125824 -0.0040207235 -0.004017663 -0.004015734 -0.0040169666
-0.004023047 -0.004017125 -0.0040187314 -0.0040222825 -0.0040226164 -0.0040198 -0.0040144813 -0.004020601
-0.0040182373 -0.004023038 -0.004014225 -0.0040170727 -0.0040228358 -0.004021172 -0.0040152594 -0.0040203496
-0.0040214644 -0.004023176 -0.004022186 -0.004021784 -0.0040181633 -0.0040228562 -0.004020121 -0.004020434
-0.004022042 -0.00402002 -0.0040179654 -0.0040207957 -0.0040230816 -0.0040230383 -0.0040146485 -0.0040152003
-0.004022761 -0.0040230523 -0.004023065 -0.0040208516 -0.0040165596 -0.004013349 -0.0040166485 -0.004022865
-0.0040156106 -0.0039849137 -0.0040169857 -0.004022748 -0.004023101 -0.0040223035 -0.004020891 -0.0040187133
-0.004022835 -0.004021985 -0.0040200935 -0.004020851 -0.004020755 -0.004021807 -0.0040230136 -0.0040128753
-0.004021708 -0.004020164 -0.0040177163 -0.0040196422 -0.0040227612 -0.0040228963 -0.004022997 -0.004020114
-0.0040224255 -0.0040219766 -0.0040180394 -0.004017533 -0.0040167226 -0.0040231263 -0.004018284 -0.0040227263
-0.004018143 -0.004016993 -0.0040162196 -0.004022704 -0.0040186783 -0.0040149856 -0.0040216306 -0.004022225
-0.0040217955 -0.004010672 -0.0040140944 -0.0040162266 -0.004022676 -0.0040153046 -0.0040109227 -0.0040226025
-0.0040214644 -0.0040184897 -0.0040160874 -0.0040220763 -0.004020067 -0.004014979 -0.0040230746 -0.0040230663
-0.0040213033 -0.0040143784 -0.00402305 -0.004012912 -0.0040231375 -0.00402311 -0.004021268 -0.004023016
-0.0040229433 -0.0040191705 -0.0040216357 -0.004022336 -0.0040218825 -0.004019115 -0.004022655 -0.0040190895
-0.004019004 -0.0040191524 -0.0040174155 -0.004021105 -0.0040213703 -0.0040225293 -0.0040120054 -0.004020348
-0.004015837 -0.0040230826 -0.00402247 -0.0040168464 -0.0040140557 -0.0040217116 -0.004021523 -0.00402274
-0.0040196623 -0.0040218267 -0.0040212506 -0.004022792 -0.0040183053 -0.0040210066 -0.0040170318 -0.004020836
-0.0040212413 -0.004018227 -0.0040191994 -0.00401882 -0.004012593 -0.004022646 -0.0040225927 -0.004014137
-0.004020433 -0.0040208413 -0.0040192036 -0.0040219203 -0.0040225964 -0.004020097 -0.0040223473 -0.004018636
-0.004023089 -0.004023099 -0.0040147933 -0.0040170685 -0.004018336 -0.004020895 -0.0040167314 -0.0040184236
-0.0040189563 -0.004022432 -0.004023092 -0.0040213508 -0.0040151817 -0.004014533 -0.0040190057 -0.004020749
-0.00402046 -0.0040231114 -0.004018471 -0.0040225876 -0.0040173936 -0.0040185167 -0.004023064 -0.004019491
-0.004021484 -0.004016449 -0.004018723 -0.0040176194 -0.004015673 -0.004016323 -0.0040185135 -0.0040189307
