VerNova/checkpoints/ntm_val_0.1164_epoch_105.pt (torch, 863092 bytes, 11 tensors)

read_vectors f4 [1, 32]
000000 4d 89 ec 3e 02 e5 ce be 43 d7 b6 3f 78 c0 29 bf
       0.46198502 -0.40409094 1.4284443 -0.6630931
000010 5b 9b e5 3f 20 2e fa bd c0 0f 8f 3e ce a9 84 3f
       1.7938036 -0.12215829 0.27941704 1.036432
000020 40 fc fb be 3a 06 e9 be d3 f3 cd 3f 98 94 a7 3e
       -0.4921589 -0.45512563 1.6090034 0.32730556
000030 a3 b1 3b bf f7 4f 88 bf 51 3c 79 bf c2 a0 c4 3e
       -0.7331793 -1.0649403 -0.9735766 0.38403898
000040 36 b5 b9 3f 72 bd ec 3e b9 29 6f be cd 9b 75 3d
       1.4508426 0.46238285 -0.2335576 0.059963036
000050 37 02 df 3f b3 8f cf 3d 6c d4 0a 3f 15 ce 1e bf
       1.7422551 0.1013483 0.5423038 -0.62033206
000060 55 9b ee 3e b8 84 3d bf db 1d 5f 3f 05 82 96 bf
       0.46602884 -0.7403064 0.8715493 -1.1758429
000070 2e 5e 0a 3e 44 19 a3 3d 87 d4 0f 3f 08 3e b7 bf
       0.13512489 0.079638034 0.56183666 -1.4315805

memory.memory f4 [64, 32]
000000 4d 89 ec 3e 02 e5 ce be 43 d7 b6 3f 78 c0 29 bf
       0.46198502 -0.40409094 1.4284443 -0.6630931
000010 5b 9b e5 3f 20 2e fa bd c0 0f 8f 3e ce a9 84 3f
       1.7938036 -0.12215829 0.27941704 1.036432
000020 40 fc fb be 3a 06 e9 be d3 f3 cd 3f 98 94 a7 3e
       -0.4921589 -0.45512563 1.6090034 0.32730556
000030 a3 b1 3b bf f7 4f 88 bf 51 3c 79 bf c2 a0 c4 3e
       -0.7331793 -1.0649403 -0.9735766 0.38403898
000040 36 b5 b9 3f 72 bd ec 3e b9 29 6f be cd 9b 75 3d
       1.4508426 0.46238285 -0.2335576 0.059963036
000050 37 02 df 3f b3 8f cf 3d 6c d4 0a 3f 15 ce 1e bf
       1.7422551 0.1013483 0.5423038 -0.62033206
000060 55 9b ee 3e b8 84 3d bf db 1d 5f 3f 05 82 96 bf
       0.46602884 -0.7403064 0.8715493 -1.1758429
000070 2e 5e 0a 3e 44 19 a3 3d 87 d4 0f 3f 08 3e b7 bf
       0.13512489 0.079638034 0.56183666 -1.4315805
000080 4d 89 ec 3e 02 e5 ce be 43 d7 b6 3f 78 c0 29 bf
       0.46198502 -0.40409094 1.4284443 -0.6630931
000090 5b 9b e5 3f 20 2e fa bd c0 0f 8f 3e ce a9 84 3f
       1.7938036 -0.12215829 0.27941704 1.036432
0000a0 40 fc fb be 3a 06 e9 be d3 f3 cd 3f 98 94 a7 3e
       -0.4921589 -0.45512563 1.6090034 0.32730556
0000b0 a3 b1 3b bf f7 4f 88 bf 51 3c 79 bf c2 a0 c4 3e
       -0.7331793 -1.0649403 -0.9735766 0.38403898
0000c0 36 b5 b9 3f 72 bd ec 3e b9 29 6f be cd 9b 75 3d
       1.4508426 0.46238285 -0.2335576 0.059963036
0000d0 37 02 df 3f b3 8f cf 3d 6c d4 0a 3f 15 ce 1e bf
       1.7422551 0.1013483 0.5423038 -0.62033206
0000e0 55 9b ee 3e b8 84 3d bf db 1d 5f 3f 05 82 96 bf
       0.46602884 -0.7403064 0.8715493 -1.1758429
0000f0 2e 5e 0a 3e 44 19 a3 3d 87 d4 0f 3f 08 3e b7 bf
       0.13512489 0.079638034 0.56183666 -1.4315805
000100 4d 89 ec 3e 02 e5 ce be 43 d7 b6 3f 78 c0 29 bf
       0.46198502 -0.40409094 1.4284443 -0.6630931
000110 5b 9b e5 3f 20 2e fa bd c0 0f 8f 3e ce a9 84 3f
       1.7938036 -0.12215829 0.27941704 1.036432
000120 40 fc fb be 3a 06 e9 be d3 f3 cd 3f 98 94 a7 3e
       -0.4921589 -0.45512563 1.6090034 0.32730556
000130 a3 b1 3b bf f7 4f 88 bf 51 3c 79 bf c2 a0 c4 3e
       -0.7331793 -1.0649403 -0.9735766 0.38403898
000140 36 b5 b9 3f 72 bd ec 3e b9 29 6f be cd 9b 75 3d
       1.4508426 0.46238285 -0.2335576 0.059963036
000150 37 02 df 3f b3 8f cf 3d 6c d4 0a 3f 15 ce 1e bf
       1.7422551 0.1013483 0.5423038 -0.62033206
000160 55 9b ee 3e b8 84 3d bf db 1d 5f 3f 05 82 96 bf
       0.46602884 -0.7403064 0.8715493 -1.1758429
000170 2e 5e 0a 3e 44 19 a3 3d 87 d4 0f 3f 08 3e b7 bf
       0.13512489 0.079638034 0.56183666 -1.4315805
000180 4d 89 ec 3e 02 e5 ce be 43 d7 b6 3f 78 c0 29 bf
       0.46198502 -0.40409094 1.4284443 -0.6630931
000190 5b 9b e5 3f 20 2e fa bd c0 0f 8f 3e ce a9 84 3f
       1.7938036 -0.12215829 0.27941704 1.036432
0001a0 40 fc fb be 3a 06 e9 be d3 f3 cd 3f 98 94 a7 3e
       -0.4921589 -0.45512563 1.6090034 0.32730556
0001b0 a3 b1 3b bf f7 4f 88 bf 51 3c 79 bf c2 a0 c4 3e
       -0.7331793 -1.0649403 -0.9735766 0.38403898
0001c0 36 b5 b9 3f 72 bd ec 3e b9 29 6f be cd 9b 75 3d
       1.4508426 0.46238285 -0.2335576 0.059963036
0001d0 37 02 df 3f b3 8f cf 3d 6c d4 0a 3f 15 ce 1e bf
       1.7422551 0.1013483 0.5423038 -0.62033206
0001e0 55 9b ee 3e b8 84 3d bf db 1d 5f 3f 05 82 96 bf
       0.46602884 -0.7403064 0.8715493 -1.1758429
0001f0 2e 5e 0a 3e 44 19 a3 3d 87 d4 0f 3f 08 3e b7 bf
       0.13512489 0.079638034 0.56183666 -1.4315805
000200 4d 89 ec 3e 02 e5 ce be 43 d7 b6 3f 78 c0 29 bf
       0.46198502 -0.40409094 1.4284443 -0.6630931
000210 5b 9b e5 3f 20 2e fa bd c0 0f 8f 3e ce a9 84 3f
       1.7938036 -0.12215829 0.27941704 1.036432
000220 40 fc fb be 3a 06 e9 be d3 f3 cd 3f 98 94 a7 3e
       -0.4921589 -0.45512563 1.6090034 0.32730556
000230 a3 b1 3b bf f7 4f 88 bf 51 3c 79 bf c2 a0 c4 3e
       -0.7331793 -1.0649403 -0.9735766 0.38403898
000240 36 b5 b9 3f 72 bd ec 3e b9 29 6f be cd 9b 75 3d
       1.4508426 0.46238285 -0.2335576 0.059963036
000250 37 02 df 3f b3 8f cf 3d 6c d4 0a 3f 15 ce 1e bf
       1.7422551 0.1013483 0.5423038 -0.62033206
000260 55 9b ee 3e b8 84 3d bf db 1d 5f 3f 05 82 96 bf
       0.46602884 -0.7403064 0.8715493 -1.1758429
000270 2e 5e 0a 3e 44 19 a3 3d 87 d4 0f 3f 08 3e b7 bf
       0.13512489 0.079638034 0.56183666 -1.4315805
000280 4d 89 ec 3e 02 e5 ce be 43 d7 b6 3f 78 c0 29 bf
       0.46198502 -0.40409094 1.4284443 -0.6630931
000290 5b 9b e5 3f 20 2e fa bd c0 0f 8f 3e ce a9 84 3f
       1.7938036 -0.12215829 0.27941704 1.036432
0002a0 40 fc fb be 3a 06 e9 be d3 f3 cd 3f 98 94 a7 3e
       -0.4921589 -0.45512563 1.6090034 0.32730556
0002b0 a3 b1 3b bf f7 4f 88 bf 51 3c 79 bf c2 a0 c4 3e
       -0.7331793 -1.0649403 -0.9735766 0.38403898
0002c0 36 b5 b9 3f 72 bd ec 3e b9 29 6f be cd 9b 75 3d
       1.4508426 0.46238285 -0.2335576 0.059963036
0002d0 37 02 df 3f b3 8f cf 3d 6c d4 0a 3f 15 ce 1e bf
       1.7422551 0.1013483 0.5423038 -0.62033206
0002e0 55 9b ee 3e b8 84 3d bf db 1d 5f 3f 05 82 96 bf
       0.46602884 -0.7403064 0.8715493 -1.1758429
0002f0 2e 5e 0a 3e 44 19 a3 3d 87 d4 0f 3f 08 3e b7 bf
       0.13512489 0.079638034 0.56183666 -1.4315805
000300 4d 89 ec 3e 02 e5 ce be 43 d7 b6 3f 78 c0 29 bf
       0.46198502 -0.40409094 1.4284443 -0.6630931
000310 5b 9b e5 3f 20 2e fa bd c0 0f 8f 3e ce a9 84 3f
       1.7938036 -0.12215829 0.27941704 1.036432
000320 40 fc fb be 3a 06 e9 be d3 f3 cd 3f 98 94 a7 3e
       -0.4921589 -0.45512563 1.6090034 0.32730556
000330 a3 b1 3b bf f7 4f 88 bf 51 3c 79 bf c2 a0 c4 3e
       -0.7331793 -1.0649403 -0.9735766 0.38403898
000340 36 b5 b9 3f 72 bd ec 3e b9 29 6f be cd 9b 75 3d
       1.4508426 0.46238285 -0.2335576 0.059963036
000350 37 02 df 3f b3 8f cf 3d 6c d4 0a 3f 15 ce 1e bf
       1.7422551 0.1013483 0.5423038 -0.62033206
000360 55 9b ee 3e b8 84 3d bf db 1d 5f 3f 05 82 96 bf
       0.46602884 -0.7403064 0.8715493 -1.1758429
000370 2e 5e 0a 3e 44 19 a3 3d 87 d4 0f 3f 08 3e b7 bf
       0.13512489 0.079638034 0.56183666 -1.4315805
000380 4d 89 ec 3e 02 e5 ce be 43 d7 b6 3f 78 c0 29 bf
       0.46198502 -0.40409094 1.4284443 -0.6630931
000390 5b 9b e5 3f 20 2e fa bd c0 0f 8f 3e ce a9 84 3f
       1.7938036 -0.12215829 0.27941704 1.036432
0003a0 40 fc fb be 3a 06 e9 be d3 f3 cd 3f 98 94 a7 3e
       -0.4921589 -0.45512563 1.6090034 0.32730556
0003b0 a3 b1 3b bf f7 4f 88 bf 51 3c 79 bf c2 a0 c4 3e
       -0.7331793 -1.0649403 -0.9735766 0.38403898
0003c0 36 b5 b9 3f 72 bd ec 3e b9 29 6f be cd 9b 75 3d
       1.4508426 0.46238285 -0.2335576 0.059963036
0003d0 37 02 df 3f b3 8f cf 3d 6c d4 0a 3f 15 ce 1e bf
       1.7422551 0.1013483 0.5423038 -0.62033206
0003e0 55 9b ee 3e b8 84 3d bf db 1d 5f 3f 05 82 96 bf
       0.46602884 -0.7403064 0.8715493 -1.1758429
0003f0 2e 5e 0a 3e 44 19 a3 3d 87 d4 0f 3f 08 3e b7 bf
       0.13512489 0.079638034 0.56183666 -1.4315805

controller.lstm.weight_ih f4 [400, 64]
000000 79 f4 b7 bc 74 cc b4 bc 18 03 6a bc 82 0c 90 3d
       -0.02245544 -0.022070147 -0.014282964 0.07033636
000010 00 38 0b 3d a9 a3 d8 bc f1 b0 fb bc f8 96 27 bc
       0.033988953 -0.026445227 -0.03072402 -0.010228865
000020 bc a9 d9 bd 8a 88 ad 3c 6e ef 5b 3d 8e fd a9 3d
       -0.106280774 0.021183271 0.053695135 0.08300315
000030 1b c9 7e bb 18 83 9d 3c 9d d3 c2 bc 66 60 93 bc
       -0.0038877192 0.01922755 -0.023782546 -0.017990302
000040 a5 c3 2e 3e 37 d8 88 bd ea 28 6d 3b 14 30 da 3c
       0.1706682 -0.06681865 0.0036187717 0.026634254
000050 09 57 3b bd 54 a6 df 3c 46 64 20 bd 47 63 8a bd
       -0.0457373 0.027300991 -0.03915813 -0.06757217
000060 28 42 90 39 76 db 8c bd 99 6b c1 bd 51 7b ba 3d
       0.0002751511 -0.06877796 -0.09444351 0.09105552
000070 65 a3 9f bc 5e 93 cb bc 3d 9c 49 3c 10 57 84 3d
       -0.019487092 -0.024850544 0.0123053165 0.06461918
000080 d0 a2 7f 3d 10 05 9b bd 29 e2 a9 bd 59 db e6 3b
       0.06241113 -0.07569325 -0.0829509 0.0070451912
000090 bc c2 41 be 37 5d a1 bd 2b 74 26 3b 80 77 8f bd
       -0.18921942 -0.078791074 0.0025398831 -0.07005215
0000a0 47 66 28 3d 51 21 b9 3e 43 88 15 be 8b d5 b7 3e
       0.041113164 0.3615823 -0.14602761 0.35905108
0000b0 4f 94 f2 3c 30 10 6a bd 15 06 3e 3e 45 8c c4 3a
       0.029611735 -0.057144344 0.18557008 0.0014995417
0000c0 b9 a1 5c bd 43 8b 2d bd 56 b7 43 3e 0d 48 4b 3d
       -0.05386517 -0.04236914 0.19112906 0.04962926
0000d0 2a bb 89 be 9a c8 d8 bd 51 01 84 3d d3 28 ec 3d
       -0.26900607 -0.10585137 0.064455636 0.11531224
0000e0 2a 8a 69 bc c1 8b 00 bd c3 db b6 3d d9 43 1d 3e
       -0.014254132 -0.03138328 0.08928635 0.15357913
0000f0 8f 50 16 be 3d 72 95 bc 47 92 46 be d5 f7 11 3e
       -0.14679168 -0.01824295 -0.19391738 0.14254697
000100 ec b4 c2 3c 54 8e cf bd eb 81 22 3e c0 f0 46 3c
       0.02376791 -0.10134569 0.15869872 0.01214236
000110 c0 e3 53 3e eb f1 d1 bd 24 9e 21 be d3 04 d8 3d
       0.20692348 -0.1025122 -0.15782982 0.10547795
000120 49 1a 9d bd bf 49 3d be 82 d9 04 bc 34 d9 14 3d
       -0.07671029 -0.18485163 -0.0081084985 0.036339954
000130 1f 37 09 be f3 ca a6 3d b6 92 49 3c c5 f2 91 3c
       -0.13399933 0.08144178 0.012303045 0.017815957
000140 2d fb bd 3d 42 60 d5 bd cc 95 90 3d 60 01 1e bd
       0.092764236 -0.1041875 0.070598215 -0.03857553
000150 13 cc 9e 3b 46 6a 10 3d b4 bf 23 bd e3 aa 5e be
       0.004846105 0.0352576 -0.039977744 -0.21744876
000160 ab aa 3a 3e b1 a8 6e 3c 16 66 3e bd a7 17 d7 bd
       0.18229167 0.014566586 -0.046484075 -0.10502558
000170 31 f2 5a be 02 1b 05 be cd 1c 5f ba c7 5f c4 bb
       -0.21381451 -0.12998584 -0.00085110666 -0.005992863
000180 1e 69 2d bd 35 05 18 bc 9f 1b e9 3c c6 8f d1 3c
       -0.042336576 -0.009278585 0.028455554 0.025581252
000190 10 73 96 3c 69 66 77 3c be 5c 62 3c 6b e2 5b 3d
       0.018365413 0.0151001 0.013816057 0.053682726
0001a0 0b 5e 01 bd 9e e3 95 bc 64 82 fd bc 90 be 9b bb
       -0.031583827 -0.018297013 -0.030945964 -0.0047529414
0001b0 45 49 b1 bc fe 03 b5 bd 81 56 51 bd 85 8e 0a bd
       -0.021641383 -0.08838652 -0.051107887 -0.033827323
0001c0 f0 55 00 3e 44 51 9e bc ce d7 44 bd a1 11 a7 3c
       0.12532783 -0.01932586 -0.04805737 0.020394148
0001d0 94 cd bf bb d7 07 02 bd 53 a4 da 3c a1 30 b8 3c
       -0.0058533642 -0.031745758 0.026689684 0.022484126
0001e0 e7 e2 8b bd e4 d0 9d bc f0 22 bc 3b e7 59 47 bd
       -0.068303876 -0.019264646 0.0057414696 -0.048669722
0001f0 2a b4 59 b9 84 72 b3 3c cb f5 2c 3d cd 7d 4d bd
       -0.00020761849 0.021905191 0.042226594 -0.0501688
000200 3f c9 9e 3c 4c 39 d7 bd f1 27 b6 3d d7 ab a9 3d
       0.019383071 -0.105089754 0.08894337 0.08284729
000210 1c 0b 41 3e 9a 62 12 bd fc 57 7b bd fd 68 a4 3d
       0.18851894 -0.035738565 -0.061363205 0.080278374
000220 bf a6 eb bd 06 f8 cb bd 91 a0 d2 3c 04 93 12 3e
       -0.11506414 -0.09959416 0.02571133 0.14313895
000230 ad b8 35 bd 51 34 0a 3e 6d b4 ea 3c ba 62 31 3c
       -0.044365574 0.1349652 0.028650487 0.010826761
000240 fb b2 92 bd 12 b8 9e bd d0 79 14 3e 67 ec 22 be
       -0.07163044 -0.077499524 0.14499593 -0.15910493
000250 6e fd ba bb 2f d8 01 3e 72 3c 80 bd 0e d2 1f be
       -0.0057064807 0.12680124 -0.06261529 -0.15607473
000260 23 50 00 3e 50 13 d1 bd ac 44 01 be 99 55 fb bd
       0.1253057 -0.10208762 -0.12623852 -0.12272186
000270 a1 c6 1e be ea eb 22 be e1 f7 b8 3c ad f6 d4 bc
       -0.15505458 -0.15910307 0.022579135 -0.02599653
000280 c3 92 3f 3d 13 a0 d6 3d df e0 11 be e9 43 e3 3e
       0.046770822 0.104797505 -0.14245938 0.4438775
000290 d9 46 9a bd 9d 47 fe be 00 9d 45 be d5 b8 29 be
       -0.07533044 -0.49664012 -0.19298172 -0.16574414
0002a0 2e 69 96 3e be d8 e1 bd e9 db 70 3d 50 1e 2f 3f
       0.2937712 -0.110276684 0.058803473 0.6840563
0002b0 80 3d 42 3e 8c 14 be bd 0b df 59 3e 02 25 c2 bc
       0.18968773 -0.09281263 0.2127649 -0.023699287
0002c0 e1 89 da bd 4b 53 50 be a8 fa 14 be c3 02 e8 3e
       -0.106708296 -0.20344274 -0.14548743 0.45314607
0002d0 f4 be ce be 20 e0 89 bd 1f 95 42 3f 04 2f fd be
       -0.4038006 -0.067322016 0.7600879 -0.49449933
0002e0 37 0e 36 be df 7b 2d 3e c1 d4 14 be ed 8f 7b bd
       -0.1777886 0.16941784 -0.14534284 -0.061416555
0002f0 9c 61 c1 be 59 a0 84 3d f8 db 57 be b6 08 85 bd
       -0.37769783 0.064758964 -0.21080005 -0.06495802
000300 12 96 0d 3e 95 49 c9 bd 5e 51 11 3e 00 97 17 bd
       0.13826779 -0.09828488 0.14191195 -0.03700924
000310 35 fe 40 3d ec 1b d0 bd e3 ee 52 3b cd 48 83 3d
       0.04711743 -0.10161576 0.0032185845 0.0641037
000320 9e 90 e0 3c 92 e4 0e be fd 98 a4 bd d5 1b 54 3d
       0.027412709 -0.1395438 -0.08036993 0.051784355
000330 bb 32 cd 3c 6d eb a8 3d 02 bd de 3c 12 97 9a 3d
       0.025048604 0.08248029 0.027189735 0.075483456
000340 64 2d c1 bd ba e7 4d bd 2b 5f 20 be fd d8 33 3d
       -0.09432486 -0.05026982 -0.15661304 0.043908108
000350 18 e3 8b 3d f9 48 da bd fc 4c bd bd b1 69 26 be
       0.06830424 -0.1065845 -0.09243199 -0.16251256
000360 62 7d 66 3b 3b c3 7c 3d 02 05 93 3c 84 cd 17 bd
       0.0035169949 0.061709624 0.017946724 -0.03706123
000370 63 19 53 bd a1 1b 93 bd 20 87 ca bc c9 54 15 bd
       -0.051537883 -0.07183004 -0.024722636 -0.03645781
000380 21 31 1a 3e 45 8c 80 3d de 33 e8 3d 86 05 b7 bd
       0.15057804 0.06276754 0.11338018 -0.089366004
000390 5b 63 58 3e 5d b7 1a be c6 9a 93 3e a9 74 50 3e
       0.21131651 -0.1510901 0.2882902 0.20357002
0003a0 19 63 37 be fe 72 0a be 70 01 86 3e 1c d5 5e 3d
       -0.17908897 -0.13520429 0.26172972 0.054402456
0003b0 75 89 b2 bd f5 ef d7 bd 46 9e 02 be eb 8c 7a 3e
       -0.08717624 -0.10543815 -0.12755689 0.24467818
0003c0 0f b9 73 3c de 0c a7 3d 3b 69 a0 3c e0 9c f8 3d
       0.014875664 0.08156751 0.019581428 0.121392965
0003d0 50 32 51 3e c8 f2 26 3d 62 e3 1f bc 9a 06 e9 bd
       0.20429349 0.040758878 -0.009758802 -0.11378212
0003e0 6d cd 9f bd 90 b1 69 bd 1d 47 f2 be 60 47 87 3c
       -0.07802854 -0.057054102 -0.4731988 0.016513526
0003f0 a7 22 ef 3c fa 8d ad bc 1b a1 84 3d 73 1d b7 bd
       0.029191328 -0.021185864 0.06476041 -0.08941164

controller.lstm.weight_hh f4 [400, 100]
000000 30 91 2c be 7b 31 ad be eb 4f d8 bd 44 2a 9e be
       -0.1685226 -0.33826813 -0.10562118 -0.3089162
000010 4e ab 00 3d 05 d0 47 bc f4 ab 45 be da 60 94 3e
       0.03141337 -0.012195592 -0.19303876 0.28980142
000020 c6 89 a9 3d 28 a4 a1 bd a5 c2 59 bd 2d 53 a1 be
       0.08278231 -0.078926384 -0.053164143 -0.3150877
000030 d1 0f aa bc 8c 80 5d 3e 7c 28 de bc 0c 75 48 3d
       -0.020759495 0.21631068 -0.027118914 0.04893975
000040 0d c2 8f 3c 1a 1e a4 bd 4e 81 28 3d c7 2d 9e bb
       0.017548585 -0.08013554 0.04113894 -0.0048272344
000050 81 42 c9 3d d3 a3 b3 bd c7 16 ed 3b a7 7b d2 bd
       0.09827138 -0.08771481 0.0072353813 -0.10277491
000060 60 51 a2 bd 35 14 db 3d 6a 8b cc 3c 34 bb 08 bd
       -0.07925677 0.106972136 0.024968822 -0.033381656
000070 dc 0e d3 bd 2b 68 c5 3c 59 5f d0 3b 59 1c 9d bc
       -0.103055686 0.024097523 0.0063590226 -0.019178556
000080 c6 1a a5 3d 4b f6 e3 bd 29 1f 23 be 8c 14 c7 3d
       0.08061747 -0.11130961 -0.15929855 0.09720716
000090 1f 71 c9 3d 82 82 cd 3d 0c 12 f8 3c f7 47 40 be
       0.09836029 0.10034658 0.030282043 -0.18777452
0000a0 68 40 b7 3b 0d cb 26 3e d0 1b 32 be 41 45 05 be
       0.0055923946 0.16288395 -0.17393422 -0.130147
0000b0 8b f4 13 3d 9c 29 c7 bc c3 13 57 3d 61 24 d4 3d
       0.036121886 -0.024311833 0.05250908 0.10358501
0000c0 3a 02 82 bd e6 5d 7a be b4 ef 69 bd 68 39 c4 3c
       -0.06348081 -0.24449882 -0.057113364 0.023953155
0000d0 3d 8e e5 bc 5a d0 f7 3d 36 f6 5c bd 16 59 98 bd
       -0.028021926 0.12100287 -0.053945743 -0.07438867
0000e0 82 16 9f 3c 8e fe 3b 3d 98 0c 58 bd 15 8b bb 3d
       0.019419912 0.04589706 -0.052746385 0.09157387
0000f0 db ab 9e 3e 50 cc 1b 3c 52 3d 15 3e 7c c2 e8 3c
       0.3099049 0.009509161 0.14574173 0.02841305
000100 56 73 4b 3e c9 48 cb bc 4f b3 c2 bc a3 13 1f 3e
       0.19868216 -0.02481498 -0.023767142 0.15534835
000110 72 38 c9 bd ac d1 0d bd 8d a5 df 3d 31 b8 ad 3d
       -0.09825219 -0.034623787 0.10920248 0.08482397
000120 12 01 11 be ca 2d bd 3d 3f 26 e3 bd 9b a8 62 3d
       -0.14160565 0.09237249 -0.11091279 0.055336576
000130 b4 a9 fc bc f2 05 56 be b3 18 bf bd 74 11 1c bc
       -0.03084264 -0.20900705 -0.09330883 -0.0095256455
000140 d0 e9 37 bd d3 7f 55 3c c7 bc 72 3d 0c fe 95 3d
       -0.044900715 0.013030964 0.059262063 0.07323846
000150 0a 37 65 3c 20 a3 70 3e f3 e1 bc 3d b3 fc 82 bd
       0.013990173 0.23499727 0.09222784 -0.06395855
000160 ad 43 f0 3d f0 a2 24 be 35 0c 22 3d 2c 62 93 bd
       0.11731658 -0.1607778 0.039562423 -0.07196459
000170 b7 64 00 3e 2b 21 9c bd 74 87 c0 3d 66 b4 82 bc
       0.1253842 -0.07623514 0.09400836 -0.015955161
000180 03 ab 47 3c 3f cd 40 bd f8 93 95 be 7d 2a 92 bc
       0.012186768 -0.047070738 -0.29214454 -0.017842526
000190 bc 0a 22 3d f5 59 b4 39 d4 9d bf bc bf 24 cd 3a
       0.03956102 0.000343993 -0.023390688 0.001565121
0001a0 35 df cc bd b8 73 5e bd e4 15 7e 3e 73 9c 30 bc
       -0.10003511 -0.054309577 0.24813038 -0.010779488
0001b0 c0 8e 64 3d 90 88 ae bd 63 fe 42 3e 3c e6 b8 bd
       0.0558002 -0.08522141 0.19042353 -0.09028289
0001c0 22 68 8b 3d 11 7d 07 3e eb 60 67 bd 17 46 2d 3d
       0.06806971 0.13231303 -0.056488913 0.04230317
0001d0 61 1a 3b bb 08 1f 55 be 25 b1 a6 3d 7a 71 51 bd
       -0.0028549659 -0.20812619 0.081392564 -0.05113361
0001e0 f5 70 2c bd aa 74 f9 bd fa 0d 6b bb 35 7c ed bd
       -0.04209991 -0.12180455 -0.0035866485 -0.11595956
0001f0 69 a2 0e 3d 40 6f 2e 3d cf 8f 9e bd e0 e4 cd bc
       0.034822855 0.042586565 -0.07742273 -0.02513355
000200 8b 37 f0 3c 60 21 be 3c 4e 21 04 3e 29 cd 5b 3e
       0.02932336 0.023209274 0.1290333 0.21464981
000210 df 47 30 3d ba e1 e2 bd a1 6b d2 3a f6 31 2d ba
       0.04303729 -0.1107821 0.0016053804 -0.0006606871
000220 b8 bc 0d 3d de 3f 86 bd c5 71 76 bd 96 b4 2b 3c
       0.034603804 -0.065551504 -0.060167093 0.010480067
000230 bd 28 a1 bd 48 c5 f3 bd 30 4c a6 bc 27 c3 3a bc
       -0.07869098 -0.11902863 -0.0203 -0.011399067
000240 88 77 f7 3c 5d 24 96 bc 1b 7c b9 3b 0a e7 04 be
       0.030208364 -0.018327886 0.0056605465 -0.1297876
000250 84 f3 1f 3e 90 8c 67 3d b1 71 c5 bc 68 a9 26 3d
       0.15620238 0.056530535 -0.024102064 0.040688902
000260 02 37 33 bd 15 e9 12 3c 53 44 c4 bc 15 65 15 3e
       -0.04375363 0.008966704 -0.02395836 0.14589341
000270 a8 85 b1 3d 53 c9 99 3d 9d 14 75 bd e9 45 02 3d
       0.08668071 0.07509103 -0.05983411 0.031804953
000280 b6 6c 81 3d bc 6c 8a bd dc 37 82 bc 7f 69 79 3d
       0.06319563 -0.06759021 -0.015895776 0.060891625
000290 cb 07 84 bb 01 97 18 3d d1 fe 62 bc a9 1b da bd
       -0.0040292493 0.037253384 -0.013854698 -0.10649807
0002a0 1d 73 f5 bc d1 1c 92 bd 6c e1 ed bc ae af a5 bd
       -0.029962117 -0.071344025 -0.029038154 -0.08090149
0002b0 7c c0 16 3c f5 dc f3 3d 76 ab 18 3d 51 9f dc bc
       0.009201165 0.119073786 0.037272893 -0.026931437
0002c0 06 dc f3 3b ac 6a e1 3d fc ed 4b bc a6 fd 98 3d
       0.0074420003 0.11006674 -0.012446877 0.074702546
0002d0 99 a1 bd 3d 3f 2b 17 3d 35 7a a2 3d 19 7f 30 be
       0.09259338 0.036906477 0.079334654 -0.17235984
0002e0 5f f3 5d bd 43 89 08 bc 22 99 f7 3d 09 e6 98 3d
       -0.054187175 -0.008333507 0.12089755 0.07465751
0002f0 92 e1 02 be a2 88 2a bc a4 cc 11 3d b2 ec c0 3d
       -0.12781361 -0.010408552 0.03559555 0.09420146
000300 43 6d 63 3d 8b 40 f9 3b 2e 9e a3 bd ee 0f 0c bc
       0.055524122 0.007606571 -0.07989155 -0.00854872
000310 b1 af 24 3e 02 e0 25 3d 29 8d 33 bd 68 1c bc bc
       0.16082646 0.040496834 -0.043835793 -0.022962764
000320 1e be d0 be 7f f7 4a 3e 04 ea 24 3f 3a 6b d0 be
       -0.40770048 0.19820975 0.6441958 -0.40706807
000330 c1 5d 05 3e ab 9f 15 3e bd b0 7f 3e ad 35 c2 3e
       0.13024046 0.1461169 0.24969764 0.37931576
000340 52 ba f7 be cb 6f 30 3c ac 07 75 bf 2b 37 c7 be
       -0.4838434 0.010768841 -0.9571483 -0.38909277
000350 1a 86 3c c0 43 f1 2e be 52 40 a4 be 0c 1e 1e 3d
       -2.945685 -0.17084222 -0.32080323 0.038602874
000360 a5 00 62 bd 4b 96 38 3e 58 bd 90 3d 05 43 c1 3d
       -0.055176396 0.18026082 0.070673645 0.09436611
000370 dd 4d 18 3f 51 78 0c 3e 97 15 51 bd 0b 85 c4 3d
       0.5949381 0.13717772 -0.05104598 0.095956884
000380 b0 a7 95 3e 17 4e 59 3e cf 05 ad 3c 3f 9d c7 3e
       0.29229498 0.21221195 0.021120934 0.38987157
000390 b6 30 2d bf 07 11 0d 3e 38 9b 00 be fa af ad bd
       -0.6765245 0.13776027 -0.12559211 -0.084808305
0003a0 e5 c8 57 be 12 f5 7e 3d 51 2e b1 bd 3a de 20 bd
       -0.21072729 0.062245436 -0.08651412 -0.03927443
0003b0 11 ba 9c be 96 87 9e bd e8 ff 40 bd 17 e1 b7 3e
       -0.30610707 -0.07740705 -0.04711905 0.35913917
0003c0 f1 10 ad 3d bb b5 97 bd 97 8b e6 3d 6f ad a3 bc
       0.08450497 -0.07407709 0.112570934 -0.01998016
0003d0 71 a1 05 3d 3b 00 f9 3e 58 c8 f4 be 1d 05 fa bd
       0.032624666 0.48632988 -0.478091 -0.122080065
0003e0 a8 3a d7 bd af 54 73 3e ce be 01 3d ce b7 f1 bc
       -0.10509235 0.23762773 0.031676106 -0.02950659
0003f0 1d c0 76 bd af 0f b0 be 64 27 30 3d df 6b 33 be
       -0.060241807 -0.34386966 0.043006316 -0.17521618

controller.lstm.bias_ih f4 [400]
000000 cc b8 84 3d 50 7f d9 3d d6 e7 c2 3d 0d 89 89 3d
       0.0648056 0.10619986 0.095168754 0.067155935
000010 d2 08 b9 3d 23 3e 18 3d e4 01 f2 3d d1 5d 61 3e
       0.090348855 0.037168633 0.11816767 0.22008444
000020 86 d8 9f 3d f5 49 11 3e b7 55 00 3e 48 ec 0c 3e
       0.078049704 0.14188369 0.12532698 0.13762009
000030 ea ba 7e bd 3a b7 5f 3e a1 f9 78 3d 63 08 13 3b
       -0.062189974 0.21847239 0.06078494 0.0022435419
000040 56 4e 8b 3c 0e c3 90 3d 6e a2 8f 3d a0 61 77 3d
       0.017005127 0.07068454 0.07013403 0.060395837
000050 0b 38 ed 3d 2a 88 d5 3d ae cc 68 3d e5 a5 d4 3d
       0.11582955 0.10426362 0.056835823 0.10383204
000060 8f 4f e0 3d ef b8 dc 3d 0f 39 49 3e 3d 95 d7 3d
       0.109526746 0.10777461 0.19650672 0.10526512
000070 61 9b 35 3d bf 25 20 3d b4 6f 9b 3d 8e bd ed 3d
       0.044337634 0.039098497 0.07589665 0.1160842
000080 1d 7c 93 3d 1b be ab 3d 5d d6 b9 3d c9 68 05 bc
       0.07201407 0.08385869 0.0907409 -0.0081426585
000090 4e 71 e5 bb c9 b2 da 3d 92 77 da 3c 48 60 2d 3e
       -0.0070020324 0.10678632 0.026668344 0.1693126
0000a0 64 40 c1 3d 5b cd 19 3e f6 da 26 3e a7 37 37 bd
       0.0943611 0.15019743 0.16294464 -0.04473081
0000b0 7d 39 94 3d dd 3e 1e 3c e4 73 d1 3d a6 7c 69 3d
       0.072375275 0.009658542 0.102271825 0.05700364
0000c0 ba 92 f1 3c 01 fb 15 3e 41 d5 ed 3d d5 d9 d9 3d
       0.02948891 0.14646532 0.116129406 0.10637251
0000d0 e5 11 9d ba 7e 27 e0 bc 43 ce 0a 3e 02 95 ea 3d
       -0.0011983482 -0.027362581 0.13555245 0.11454202
0000e0 6f 80 e9 3d a7 0e bb 3d 09 30 ea 3c bd 69 c7 3d
       0.1140145 0.09133654 0.028587358 0.09736965
0000f0 2f f4 50 bd e3 23 30 3d b1 65 c9 3d c2 b5 33 3e
       -0.05101412 0.043002974 0.09833849 0.17549804
000100 82 bd e7 3d 54 48 8d 3d 41 5e 2e 3d dd f2 5e 3d
       0.113154426 0.06898561 0.042570356 0.05443083
000110 01 31 f0 3d 3d 8e de 3b 88 54 e7 3d 5a ef 67 3b
       0.11728097 0.0067918585 0.1129542 0.0035390467
000120 8b 4c 67 3d 5a 71 bc 3d d3 49 f9 bb 4c 76 e8 3d
       0.05646948 0.092013076 -0.0076076775 0.11350688
000130 98 bb ab 3c 55 97 a0 3c e2 4e bc 3d 9b 38 d4 3d
       0.020963475 0.01960341 0.09194733 0.10362359
000140 30 6e 09 3e 2e 87 d5 3d 0a 7b bf 3d 90 6e 7a 3d
       0.1342094 0.10426174 0.0934964 0.061140597
000150 58 05 0b 3e 8e c7 4f 3d 18 08 c8 bc 75 df 03 bd
       0.13576257 0.05072742 -0.024417922 -0.032195527
000160 c2 07 26 3d ce 90 58 bc 52 61 a2 bd 47 56 94 3d
       0.040534742 -0.013218118 -0.079287186 0.072430186
000170 ee 3c 0b 3e 13 82 cc 3d a5 ed a9 3d ed 26 8d 3d
       0.13597462 0.09985747 0.0829728 0.0689219
000180 a7 c2 ce 3d 40 98 06 3e 95 7a 7e 3c 7d b2 4c 3d
       0.10095721 0.13144016 0.0155321555 0.049974907
000190 83 a6 cf bc 3f 59 1b 3d 83 5e cc 3d 84 97 0d 3c
       -0.025347954 0.03792691 0.09978964 0.008642081
0001a0 3b 47 24 3c 61 8f 92 3d 54 7b ee 3c bc cc 39 3e
       0.010026748 0.071562536 0.029111542 0.18144506
0001b0 80 60 cc 3d 61 0b 1b 3d 81 fc 35 3d 83 a6 70 bd
       0.099793434 0.03785265 0.04443026 -0.058752548
0001c0 ab 68 98 3a 66 d8 93 bc 43 59 7e 3b 89 96 27 3d
       0.0011627873 -0.018047523 0.0038810528 0.040915046
0001d0 b5 47 60 3d b7 ac 00 3d 1a aa 8b 3d 03 2f 55 3d
       0.054755885 0.031414714 0.06819554 0.052046787
0001e0 a7 59 90 3d 16 31 93 3d b4 b9 41 3d cd 0c 81 3d
       0.0704835 0.07187097 0.04729624 0.0630127
0001f0 b3 80 90 3d 71 c7 0a 3e 07 c0 1e 3e bb d6 38 3d
       0.070557974 0.13552643 0.1550294 0.045126658
000200 3d e3 8f 3c da d9 8f 3d 00 a6 42 3d 0c dd a5 3d
       0.01756441 0.07023974 0.04752159 0.08098802
000210 e5 af 8b 3d 62 92 23 3e 5c 3e 54 3d fc c8 fc 3d
       0.068206586 0.1597381 0.051817283 0.12343022
000220 f0 f0 2c 3d 77 f3 80 3d 98 47 6e 3d b8 09 a4 bd
       0.042221963 0.06296437 0.058173746 -0.08009666
000230 9a d9 83 3d f7 34 fa 3d 32 fb 05 3d e0 ea db bd
       0.064379886 0.122171335 0.03271026 -0.10738158
000240 da c9 97 3d 54 1b 2d bd 39 43 1e 3d e1 25 a4 3d
       0.07411547 -0.04226239 0.038638327 0.08015037
000250 97 7f 1b bd a5 11 04 3e 6d f6 7c 3d 4a a5 eb 3c
       -0.037963476 0.12897356 0.061758447 0.02876534
000260 ec f5 a6 bc 0f fc 13 bc bf 2a 1a 3e e5 e3 6a 3d
       -0.020380937 -0.009032263 0.15055369 0.057346243
000270 f9 9c d6 3b 42 bf 13 bd 03 eb a5 bc f3 a2 4a 3d
       0.0065494743 -0.03607107 -0.020253664 0.049471807
000280 9b 23 bf 3d e2 75 2d 3d 22 6c 14 3e b5 e2 23 3d
       0.09332963 0.04234875 0.14494374 0.040011127
000290 10 bf 93 3b 21 ad e5 bc c0 a2 67 3d 62 14 f1 bc
       0.0045088604 -0.028036656 0.056551695 -0.029428665
0002a0 cd 36 85 3d 45 0b b1 3d a1 00 36 bc 25 6b 0c bd
       0.06504593 0.086447276 -0.011108548 -0.03428187
0002b0 fe 51 a3 3d 08 12 74 3d 0a 99 1b 3d bd 83 89 3d
       0.07974623 0.05958751 0.037987746 0.0671458
0002c0 14 ce 81 3d d9 65 3c 3d 01 4d 73 3d 8d b3 c9 bd
       0.063381344 0.045995567 0.05939961 -0.098487
0002d0 5d fe d3 bc 40 c3 5f 3d d1 be 71 3d 74 40 13 3d
       -0.025878126 0.054629564 0.059019867 0.03595014
0002e0 06 ae 07 3d 9b 80 ac 3d a7 86 9f bc 88 56 98 bd
       0.033124946 0.08422967 -0.019473387 -0.074383795
0002f0 8c 0c 83 3c 09 99 5b 3c d3 68 15 3d 7b 84 96 3d
       0.015997194 0.013403186 0.03647692 0.073494874
000300 06 17 0f 3c 80 fe 6e 3c 0b 04 71 3d ed 1d 46 3b
       0.008733517 0.014587045 0.058841746 0.003023024
000310 92 c7 9a 3d 80 e5 1a 3d 75 da 23 3e 86 b5 61 3d
       0.07557596 0.037816525 0.16001303 0.055104755
000320 dd c6 c6 3d 6d cb 06 bc 21 d9 8f 3c e7 b5 67 bc
       0.09705899 -0.008227211 0.01755959 -0.01414249
000330 7b 15 de bd e8 2e f3 3c 54 ed 70 3b 3c 95 5a 3d
       -0.10843941 0.029685453 0.0036762552 0.053364977
000340 48 68 f7 bc 2d ec a5 bd 4e b1 29 3b c6 0c f3 3d
       -0.030201092 -0.081016876 0.0025893035 0.11867671
000350 7b d3 b9 3d 47 de 26 bd 0d ee ad 3d 70 cf ab bd
       0.0907354 -0.040739324 0.0849267 -0.08389175
000360 aa bb b6 bc 57 e4 9f bd 47 27 d4 bd 4a 2b b7 bd
       -0.022306282 -0.07807224 -0.10359054 -0.089438036
000370 26 38 01 be bc c6 f4 bd 18 cd d1 3d 48 66 68 bd
       -0.12619075 -0.11951968 0.10244197 -0.056738168
000380 78 ed 74 3d c0 4d c1 3d a0 3d fd bd 38 1e 84 3d
       0.05979678 0.09438658 -0.1236527 0.06451076
000390 0f 2d 16 be 1c 1f 4e bd a4 13 e0 3d 50 ef fd 3d
       -0.14665626 -0.050322637 0.10941246 0.12399161
0003a0 c9 b1 ce 3d 66 43 28 be 8f d7 21 bd cf d0 06 bc
       0.100925036 -0.1643196 -0.039512213 -0.008228495
0003b0 56 1a bf 3d 1f 54 59 bd 41 a3 c6 bc c3 62 a8 bd
       0.09331195 -0.05305874 -0.024247767 -0.08221962
0003c0 10 87 dc bd 32 65 18 bd 7e 07 09 bd 22 8b f8 3b
       -0.10767949 -0.037205882 -0.03345441 0.0075849453
0003d0 e9 9e 4f 3c 11 e4 cf bb ef fe f1 3d ea 37 6e bd
       0.0126721645 -0.0063443263 0.11816203 -0.058158793
0003e0 33 65 a1 3a cd 44 78 bd cd 27 00 be 75 30 26 3d
       0.0012313485 -0.06061249 -0.12515183 0.040573556
0003f0 b6 d9 0a bc 5b bd 3e be 94 03 bf 3d c0 cd bb 3d
       -0.008474758 -0.18626921 0.09326854 0.09170103

controller.lstm.bias_hh f4 [400]
000000 1e c5 62 3d 2d 46 ab 3d 07 16 06 3e 01 39 81 3d
       0.055363767 0.08362994 0.1309434 0.06309701
000010 d0 56 b8 3d ad 14 6a 3d ae ef d4 3d f1 f1 55 3e
       0.09000933 0.057148624 0.10397278 0.20893075
000020 4a 92 37 3d 7c 59 0b 3e 44 b3 f1 3d 28 f1 02 3e
       0.044817246 0.13608354 0.1180177 0.12787306
000030 8a 5c 57 bb ea 91 4d 3e 5e f2 42 3d b9 c0 68 3c
       -0.0032861554 0.20075193 0.04759442 0.014206105
000040 b7 6a d8 3c ba 80 bc 3d 80 0a 89 3d e9 da 72 3d
       0.026418073 0.0920424 0.06691456 0.0592908
000050 5e 16 ee 3d 3d 8d d5 3d 03 3d 8d 3d b5 be d4 3d
       0.1162536 0.1042733 0.06896403 0.10387937
000060 66 61 d2 3d 73 31 ce 3d e9 c6 bc 3d 1e 55 d5 3d
       0.102724835 0.100680254 0.092176266 0.104166254
000070 c5 8a 22 3d 2c 8b 3a 3d ec 54 a0 3d c9 13 ed 3d
       0.039683122 0.04554288 0.078286976 0.11576039
000080 48 e2 95 3d 89 16 90 3d a4 bc ad 3d cc 94 7c bc
       0.0731855 0.07035548 0.08483246 -0.015416335
000090 16 3f e2 3c a8 67 1e 3e fd b4 cc 3c 65 18 ee 3d
       0.027617972 0.15469229 0.024988646 0.11625747
0000a0 5c b2 c0 3d b1 db c4 3d 54 f1 20 3e 23 46 7a bd
       0.09409019 0.09612215 0.1571706 -0.061102044
0000b0 96 38 97 3d 02 df 4f bc 9e 74 a9 3d 9c 4a 91 3d
       0.0738384 -0.012687447 0.08274196 0.07094309
0000c0 da 63 59 3c 4d f9 18 3e a1 a4 d3 3d 94 8d d9 3d
       0.013268435 0.1493885 0.10334135 0.10622707
0000d0 7b 71 f5 bc 63 33 e3 3c 1b de 05 3e 35 3b e6 3d
       -0.029961338 0.027734464 0.13073008 0.112417616
0000e0 84 ed cb 3d 37 0f 05 3d 6f 8f d4 3c 21 28 bb 3d
       0.09957412 0.032485213 0.0259473 0.09138513
0000f0 4e f5 94 3c 6d f1 fd 3c 06 1d 4b 3d e5 13 2a 3e
       0.018183377 0.03099891 0.049588226 0.16609152
000100 89 e2 08 3e b7 d6 9d 3c 6f aa 23 3d 38 9f 02 3d
       0.13367666 0.019267423 0.03995746 0.031890124
000110 3c bb ea 3d 73 bb 02 bd 24 94 10 3e 5f 24 59 3c
       0.114614934 -0.031917047 0.14119011 0.0132533
000120 97 04 bf 3d 6c 67 be 3d 8f ef 1d 3d 95 8f b6 3d
       0.09327047 0.0929707 0.03855854 0.08914105
000130 ce 3d 74 3a 76 38 18 3d 9d d3 bd 3d bd 5b e8 3d
       0.0009317071 0.03716322 0.09268878 0.11345623
000140 93 be ca 3d 7c ea d1 3d 96 0c b3 3d 8a 6c 7e 3d
       0.098996304 0.102498025 0.08742635 0.06211523
000150 47 f4 00 3e 1b 93 4f 3d 7f 72 3e bd 36 04 b6 bc
       0.12593184 0.0506774 -0.04649591 -0.022218805
000160 19 be 1b 3d 63 2a fe bc ce 02 9c bd 2b 5c a8 3d
       0.038023088 -0.031026071 -0.076177225 0.08220705
000170 f9 c0 e6 3d 26 12 7d 3d 93 60 ab 3d 76 9b 8d 3d
       0.11267275 0.061784886 0.083680294 0.069144174
000180 9a a1 ce 3d 55 ca 06 3e 9a b2 5a 3d 82 e8 5d 3d
       0.10089417 0.13163121 0.053392984 0.054176815
000190 82 97 cb bc 81 9e e6 3d ab fb ee 3d a1 82 a7 3b
       -0.024852518 0.11260701 0.116690956 0.0051120077
0001a0 f0 6c e0 bc e5 fd 86 3d 0d c8 38 3c 91 c2 41 3e
       -0.027395695 0.06591395 0.011278165 0.18921877
0001b0 b8 23 cc 3d d4 a5 1a 3d e6 aa 45 3d f5 8b 51 bd
       0.0996775 0.037755802 0.048258685 -0.051158864
0001c0 51 d3 d6 3d 05 e4 36 bd 3a e2 bb 38 49 08 3a 3d
       0.10489524 -0.04465105 8.958993e-05 0.045418058
0001d0 fd 4b 5d 3d 20 41 4d 3c 43 b6 8b 3d 27 44 55 3d
       0.054027546 0.012527734 0.06821873 0.05206695
0001e0 e1 5a 90 3d 97 30 93 3d e5 af 3c 3d 9d 5c 80 3d
       0.07048584 0.07187002 0.046066184 0.062676646
0001f0 27 bc 9a 3d 76 12 06 3e 25 9c 0c 3e 7e e2 38 3d
       0.075554185 0.1309298 0.1373144 0.045137875
000200 b8 64 8d bb a9 f6 8b 3d 16 0f 48 3d 7a da a5 3d
       -0.004314985 0.06834156 0.048842512 0.08098312
000210 e4 b2 8b 3d 32 9d 28 3e e3 d7 09 3d 1e 58 f7 3d
       0.0682123 0.16466215 0.03365315 0.12077354
000220 4b d7 3f 3d 2b ae 99 3d 39 ce 5b 3d 50 03 88 bd
       0.04683618 0.07503923 0.053663466 -0.06641257
000230 91 d9 83 3d 47 2c ba 3d 04 10 64 3d 85 a3 74 bd
       0.06437982 0.090904765 0.055679336 -0.059726257
000240 cb 1b 9c 3d c6 11 92 3c a9 8e 63 3d e2 c4 1d 3d
       0.076224886 0.01783074 0.055555973 0.03851784
000250 fe 27 36 bd dd a2 1c 3e 2c eb 7c 3d 6a 59 f5 3c
       -0.044471733 0.15296502 0.061747715 0.029949863
000260 f3 29 b0 bc c2 e4 22 3d 14 69 fb 3d 39 82 42 3d
       -0.021504378 0.03976894 0.122759014 0.04748747
000270 c4 79 d9 3d d5 da 1d bd 9b 92 a5 bc 66 86 b9 3b
       0.10618928 -0.038538773 -0.020211508 0.0056617735
000280 aa e6 09 3d d8 bc 55 3d c8 cd f0 3d 7a 0b 13 3d
       0.033667244 0.05218205 0.11758 0.035899617
000290 fa 31 96 3c 02 74 5a bd f0 ae 75 3d e4 c8 71 bb
       0.018334378 -0.05333329 0.059981287 -0.0036893422
0002a0 b3 38 85 3d d3 6d a5 3d a3 75 9f 3b aa 5b 11 bd
       0.06504955 0.08077588 0.0048663183 -0.03548781
0002b0 f7 bc b9 3c 0f 17 74 3d a0 2c d5 3c d0 31 72 3d
       0.022673113 0.059592303 0.026022255 0.059129536
0002c0 7a 05 95 3d 24 8d 94 3d 96 1f 73 3d 83 bd 4c bd
       0.07276435 0.07253483 0.059356295 -0.04998542
0002d0 a8 52 b4 3d 72 c2 5f 3d 86 be 71 3d 95 8d cc 3d
       0.08804828 0.054628797 0.059019588 0.09987942
0002e0 15 b0 f4 3c 0f 43 f3 3c 46 c7 a6 3b dc ab 3a bd
       0.029869119 0.029695062 0.005089673 -0.045574054
0002f0 7d 44 6d 3c 74 80 f2 3d ed f4 b6 3d d4 64 97 3d
       0.014481661 0.11840907 0.08933435 0.07392278
000300 c6 78 d1 3c d8 23 78 3c e2 f6 70 3d c1 4d 76 3c
       0.025570285 0.015145265 0.058829196 0.015033186
000310 ce c7 9a 3d ed ff 09 3c ce df 14 3e 98 2d 5c 3d
       0.07557641 0.008422834 0.145385 0.05375442
000320 ec 83 cd 3d 91 95 b2 bd 29 1b 73 3d 39 28 4c 3b
       0.10034928 -0.08719934 0.059352074 0.0031151904
000330 5c fd d3 bd a1 b2 89 bc 2f 3d ff 39 2f d8 1b 3e
       -0.10351059 -0.01680881 0.00048682975 0.15219186
000340 7c b4 f5 bc d7 e2 8b bd 6d 72 a1 3b 48 e1 c3 3d
       -0.029993288 -0.06830376 0.0049269707 0.09564453
000350 16 91 b2 3b 42 ee 1c bd 36 18 80 3d 70 22 9e bd
       0.0054494245 -0.038313158 0.06254618 -0.07721412
000360 6b d5 81 ba e5 c0 07 be ac c5 d9 bd c3 aa aa bd
       -0.0009905522 -0.13257177 -0.10633406 -0.083333515
000370 28 e7 00 be f6 fc f3 bd f5 3e 32 3d f6 91 6b bd
       -0.12588179 -0.11913483 0.04351707 -0.057512246
000380 0b fe 0c 3e aa 54 08 3b ad a4 38 3d 9a fd 25 bb
       0.13768785 0.0020802417 0.045078922 -0.002532816
000390 d7 65 01 be 26 a8 f1 3c 63 c2 e0 3d d1 f5 fd 3d
       -0.12636505 0.029499125 0.10974576 0.124004014
0003a0 ee 0d ce 3d fc c5 9c bd c9 c3 9c 3b dd 25 f8 3d
       0.100612506 -0.0765495 0.0047840816 0.12116597
0003b0 e3 d2 bb 3d 92 a3 b6 bd 0f ad c0 3c 57 f4 02 be
       0.09171083 -0.08917917 0.02352002 -0.12788521
0003c0 ae a4 df bd d3 c8 2a bc 20 90 98 bd 81 12 b2 bd
       -0.10920082 -0.010423857 -0.07449365 -0.086949356
0003d0 f7 8a cc bb f5 78 9a bc b8 38 07 3e a4 13 9a 3c
       -0.006242152 -0.018856505 0.1320523 0.018808194
0003e0 f7 39 14 bd c0 96 e5 bd 0c c4 ee bd ee fe 47 3d
       -0.036188092 -0.11210394 -0.11658487 0.048827104
0003f0 1d 14 d2 bb e3 ff 2c be 15 18 8e 3d 65 d7 9d 3d
       -0.006411089 -0.16894488 0.06938187 0.07707099

controller.fc_out.weight f4 [1000, 100]
000000 7f 11 a7 3e 72 56 8a be 9e bc ab be 68 d5 fb 3d
       0.32630536 -0.27019078 -0.3354234 0.122965634
000010 a6 08 75 be 37 5c 67 3e 9c eb 78 be 0e ab 0a 3f
       -0.2392908 0.22593771 -0.24308628 0.5416726
000020 20 87 9c be 9b 55 09 bf b9 50 41 3e 68 27 1a 3f
       -0.30571842 -0.5364625 0.1887845 0.6021638
000030 c8 53 ba bd d1 0a 37 bf 12 21 8f 3e 15 fb 81 be
       -0.09098011 -0.7150088 0.27954918 -0.25386873
000040 f9 20 48 bd 53 c8 9d be a7 39 9e be 08 07 51 be
       -0.04885957 -0.30816898 -0.3090336 -0.20412838
000050 95 53 09 bf b9 7e b6 be cd 83 08 3e ce da b8 be
       -0.5364316 -0.35643557 0.13331528 -0.36104435
000060 65 49 06 3f 20 c8 24 3e 41 70 b5 be 7c 2b c7 3e
       0.5245574 0.16091967 -0.35437205 0.38900363
000070 55 e8 c6 be 94 53 d8 3d d9 b3 e2 3e 9c 2c fb 3e
       -0.3884913 0.10562816 0.44277838 0.49057472
000080 c6 3f af 3e a3 67 f5 be f9 95 07 be 0f b4 c3 3e
       0.34228343 -0.4793063 -0.13240804 0.3822331
000090 49 04 62 3e 39 2a 17 bf b9 f8 d5 3d 76 d6 42 bf
       0.22071947 -0.590488 0.10447831 -0.7610849
0000a0 3a e7 df be e8 a1 04 bf 9c 4f 17 bf 5a 3e 7b be
       -0.437311 -0.5180955 -0.5910585 -0.24535504
0000b0 82 f0 c9 3d 13 c6 9f bd 5b 36 0d 3f 95 81 af be
       0.09860326 -0.078014515 0.55161065 -0.3427855
0000c0 ab ca e0 3d 8d 50 1f bf 61 e9 ea be 31 31 73 3e
       0.10976156 -0.62232286 -0.4588118 0.23749234
0000d0 03 61 46 3c f6 0e 06 bf 9f d7 e2 3e b6 3a 08 3f
       0.01210809 -0.5236658 0.4430513 0.53214586
0000e0 8b 89 f6 be 56 66 a5 3e ce 13 16 be 5f cd 29 bf
       -0.48151812 0.3230464 -0.14655992 -0.66328996
0000f0 b8 2a 6a 3d af 71 81 be 97 ac 4f 3e f5 a6 36 bf
       0.057169646 -0.25282046 0.20280682 -0.71348506
000100 e2 a2 3c 3f 97 03 a9 3e b0 78 c5 3c 64 6d 1b bf
       0.7368604 0.3301055 0.0241054 -0.6071379
000110 50 1a c0 be 5f 7b ee 3e 80 1d e2 be 9a b5 6c 3d
       -0.37520075 0.465785 -0.44163132 0.057790376
000120 81 3d cb be 40 75 ab 3e 7d 57 98 be 25 61 50 3f
       -0.3969536 0.33487892 -0.29754248 0.8139823
000130 3e 53 5b be 8a 0c d6 bd 01 b3 be be 82 f1 de 3e
       -0.21418473 -0.104516104 -0.37245944 0.4354363
000140 35 5d 01 bf 69 f3 d1 3e c9 c7 f1 3e 1c e0 82 be
       -0.5053285 0.4100602 0.47222736 -0.25561607
000150 78 b1 18 bf f6 8a 76 3e 84 32 04 be 0f e3 eb bd
       -0.59645796 0.24076447 -0.12909895 -0.11517917
000160 09 0f a2 be 69 ea ef 3d 53 a9 d3 bc 3c 1e b4 bd
       -0.31652096 0.11714632 -0.025837576 -0.08794829
000170 3e 74 b9 3e c3 5f 79 be bd 4c 97 be 53 a5 88 be
       0.36221498 -0.24352936 -0.29550734 -0.26688632
000180 5b fa cb 3e 4f 7c a8 3e e6 ff 9f be 19 aa 45 be
       0.39839444 0.3290734 -0.31249923 -0.19303168
000190 e6 61 40 3e 03 c3 80 bf 8c d3 43 be ec 22 9e be
       0.18787345 -1.0059513 -0.19123667 -0.30886018
0001a0 3d 11 ac be ec 44 ab 3f b9 53 3a bf dc c2 aa be
       -0.33606902 1.3380408 -0.72784 -0.3335179
0001b0 2d b6 e9 bd 1a 41 2a 3e 4c 5a 63 3d ee 19 c9 3e
       -0.114117004 0.16626397 0.055506036 0.39277595
0001c0 e7 61 06 3f 8b a7 93 bf f6 ff c6 3c a4 63 55 3e
       0.5249314 -1.1535505 0.024291974 0.20838791
0001d0 2a 92 2d 3d fb 06 7b be 29 d0 79 be a2 aa 1c be
       0.04237572 -0.24514382 -0.24395813 -0.15299466
0001e0 d6 6e 77 be c7 3b 72 3e d6 3b 04 3f ad 7c a2 bd
       -0.24163374 0.23655616 0.516538 -0.07933936
0001f0 1c 7e 88 bf ab ad dc 3d ec e9 90 be 29 4f 34 be
       -1.0663486 0.10775312 -0.28303468 -0.17608322
000200 a3 a0 9f bd 23 99 c8 bf 6c 6e 6c bf 38 9f 86 be
       -0.07794311 -1.5671734 -0.9235599 -0.2629335
000210 80 f2 fd 3d d6 59 ab bd 69 62 1a 3e 51 65 f6 3d
       0.12399769 -0.08366744 0.15076603 0.12031043
000220 d0 b3 46 be 1a d1 d9 3d 28 6c 8f be da b1 f5 3e
       -0.1940453 0.10635586 -0.28012204 0.47987252
000230 e6 ae 36 3f 97 5a 4d be 17 3c f3 bd d2 1f 6c 3b
       0.71360624 -0.20054089 -0.118766956 0.0036029709
000240 cf cb 22 3f 90 eb 22 bd 7e de 9c 3d 27 1a 97 3e
       0.6359224 -0.03977543 0.076596245 0.2951214
000250 ff 06 04 3d 7c a0 32 3f cc 96 f9 bc 41 6c 74 3d
       0.032233234 0.6977613 -0.030467413 0.05967355
000260 5d 14 c8 3c b1 60 d9 be 56 40 ad 3e 1f 8c 81 bf
       0.024423772 -0.42456582 0.33838147 -1.0120887
000270 44 4c 6b bf 37 51 44 be 59 99 ac 3b 4d 9a e7 3d
       -0.9191325 -0.19171606 0.005267304 0.113087274
000280 fa cb a1 3e c4 4d 10 3f 99 5e e4 be d9 b3 13 bf
       0.31600934 0.5636866 -0.44603422 -0.576963
000290 c7 db b7 be 43 2f 0b bf de 3b 83 3f 93 ef 7a bf
       -0.35909864 -0.5436899 1.0252645 -0.9802181
0002a0 3a 3d 1e 3f 53 4a 38 bf 56 dc 6d 3f 8f 2d 4e 3d
       0.61812174 -0.7198841 0.9291433 0.050336417
0002b0 92 c3 2b bf f5 dc 7d bf b5 5a e7 bc ef 7d ef be
       -0.6709529 -0.9916528 -0.028241495 -0.46775767
0002c0 6f 01 2a 3e 45 6c bb 3e f4 90 a6 bc 5c c1 80 bf
       0.1660211 0.3660604 -0.02033279 -1.0059009
0002d0 e0 92 1b 3e 21 68 b1 bd fb af 02 bf 31 ee 3f be
       0.15192747 -0.08662439 -0.51049775 -0.18743207
0002e0 bc 88 68 3e f6 7a 4a bd 89 01 ed 3d 58 91 02 3e
       0.2270841 -0.04943367 0.115725584 0.12750757
0002f0 b1 18 2e 3e a0 ab 82 3e 68 a0 c2 be 46 81 3b bf
       0.17001607 0.25521564 -0.38013005 -0.7324413
000300 b8 c2 2e 3f b7 cc d6 3c eb 3b 07 3b 93 73 45 c0
       0.6826587 0.026220663 0.002063508 -3.085179
000310 d3 ec d9 be 62 a9 79 bf 28 00 14 40 3a 88 a8 3e
       -0.42563495 -0.9752408 2.3125095 0.32916433
000320 98 bf 09 3e 36 54 ea 3e 7e a0 2b c0 86 86 87 be
       0.13451993 0.45767373 -2.6816707 -0.2646982
000330 98 09 05 bf f0 55 19 3d 4d 69 ae 3e a7 ad 16 3f
       -0.51967764 0.037435472 0.34064713 0.5885872
000340 5e 14 a9 3f f7 00 72 be 31 90 90 3f 48 94 ad bf
       1.320934 -0.2363318 1.1294004 -1.3560877
000350 d1 c3 b3 3f b1 97 48 3f db ea 93 3d d9 74 63 be
       1.4044133 0.7835646 0.072225295 -0.22212543
000360 d1 da 88 be 93 52 37 bf 1c 9b 17 bf c5 0e ff bd
       -0.26729444 -0.71610373 -0.59221053 -0.12453989
000370 ad 8e ad 3e fc c9 2e bf 0d fb a1 bd 29 3b 6c 3e
       0.33897915 -0.68276954 -0.07909212 0.23069443
000380 be 6b 10 bf 37 97 85 bf 63 20 1a be 0f 44 8a bf
       -0.564144 -1.0436772 -0.15051417 -1.080202
000390 ce f1 c9 bd 85 65 b1 be 10 e2 f9 3e b5 92 7b 3f
       -0.09860574 -0.34647766 0.48805285 0.9827073
0003a0 f9 09 d8 3e 1a 6b 05 bf 18 b2 77 3e 38 b1 fc 3e
       0.4219511 -0.5211655 0.24189031 0.49353957
0003b0 22 fd 28 3f 95 a2 29 c0 2d 76 8e be 94 13 69 3d
       0.6601125 -2.6505482 -0.27824536 0.056903437
0003c0 94 e8 41 be 7a 78 81 bf f5 85 80 3e bc ce f8 bc
       -0.18936378 -1.0114892 0.251022 -0.030372016
0003d0 1a 34 87 bf ce d4 50 bf 08 04 2d be de 67 78 3f
       -1.0562775 -0.81574714 -0.16896069 0.9703349
0003e0 ef 4d 15 3e 27 86 16 c0 c2 53 34 be d1 0b 33 3e
       0.1458051 -2.351938 -0.17610076 0.17484976
0003f0 e1 9d 3b 3e 40 a1 5e 3f 85 4f 85 be 1e da c7 3f
       0.18321945 0.869648 -0.2603723 1.5613439

controller.fc_out.bias f4 [1000]
000000 1d 6e 87 3f 47 2b 2f bd 63 56 66 3e 41 e2 49 3e
       1.0580479 -0.042765882 0.22493891 0.19715215
000010 9b 16 49 3e 8b ec 88 bb a2 64 30 bd 89 09 f8 3e
       0.1963753 -0.0041785887 -0.04306472 0.48444775
000020 e5 77 c5 3e ba d9 50 3e 61 d8 89 3e 24 84 80 bd
       0.38568035 0.20395556 0.26922897 -0.06275204
000030 87 a6 38 3c a0 10 4a 3d b0 97 94 3b ed b9 b6 3d
       0.011270172 0.04933226 0.004534684 0.08922181
000040 86 fb 21 be 2a 49 5c bd f0 90 e6 3d b5 c6 de 3c
       -0.15818605 -0.053780712 0.112581134 0.02719436
000050 01 83 bf bc b3 cf a6 bc e5 70 1e 3d 33 16 e3 3d
       -0.023377897 -0.02036271 0.038681883 0.110882185
000060 80 6d 0e bd 73 e9 85 bc 13 87 05 bc 5f 94 70 3c
       -0.034772396 -0.016346669 -0.00814988 0.014683812
000070 56 06 91 3d 36 a2 dc 3d f1 e0 8e 3e 1f 89 d2 3d
       0.070812866 0.10773127 0.27905992 0.1028006
000080 f5 47 88 3d 9c 26 8e 3d 14 4d 87 bb ea 5e 86 bb
       0.0665435 0.06940958 -0.0041290615 -0.00410067
000090 21 0d 87 bb e2 5e 85 bb 17 7d 86 bb 41 c5 86 bb
       -0.004121438 -0.004070149 -0.0041042673 -0.00411287
0000a0 7c 2f 88 bb 6a 2c 86 bb 93 c6 86 bb b4 69 86 bb
       -0.004156051 -0.00409465 -0.0041130274 -0.0041019563
0000b0 8f ab 86 bb 37 eb 88 bb 43 78 85 bb 10 81 87 bb
       -0.004109807 -0.0041784304 -0.004073174 -0.0041352585
0000c0 2c aa 85 bb 00 a3 89 bb db 51 87 bb 90 c0 85 bb
       -0.004079124 -0.0042003393 -0.004129631 -0.004081793
0000d0 7a d9 87 bb 13 45 86 bb 51 67 86 bb 55 63 87 bb
       -0.0041457983 -0.0040975898 -0.0041016717 -0.0041317143
0000e0 bf b8 88 bb 17 7e 86 bb fe 4c 85 bb 27 38 87 bb
       -0.004172414 -0.0041043865 -0.004068016 -0.004126567
0000f0 7c 5c 85 bb aa f3 87 bb 9e ca 87 bb d7 66 86 bb
       -0.004069863 -0.00414892 -0.004144027 -0.004101615
000100 8d ed 86 bb ee fe 86 bb b7 29 88 bb 41 fc 84 bb
       -0.0041176737 -0.0041197455 -0.0041553634 -0.0040583913
000110 92 d8 86 bb 64 09 86 bb 04 9c 85 bb e6 df 85 bb
       -0.0041151727 -0.004090475 -0.0040774364 -0.0040855287
000120 7d 41 88 bb c0 ea 85 bb 03 4c 86 bb ca 6d 87 bb
       -0.0041581974 -0.0040868223 -0.004098417 -0.004132961
000130 39 a4 88 bb 63 92 86 bb 24 59 85 bb d7 18 89 bb
       -0.0041699675 -0.004106806 -0.0040694643 -0.0041838693
000140 ea 2b 86 bb 63 10 88 bb 62 4b 85 bb 60 e7 85 bb
       -0.0040945904 -0.004152344 -0.004067824 -0.00408642
000150 f9 bc 87 bb 0f f7 88 bb a3 82 85 bb a1 bb 86 bb
       -0.0041424003 -0.0041798423 -0.004074411 -0.0041117226
000160 42 18 87 bb f1 45 88 bb d0 61 87 bb f9 37 87 bb
       -0.004122765 -0.0041587283 -0.004131533 -0.0041265455
000170 fd 26 86 bb 56 80 88 bb ea a9 86 bb 27 c2 86 bb
       -0.0040940032 -0.0041656895 -0.004109611 -0.0041125
000180 f4 52 87 bb 28 a3 86 bb 7f 1a 86 bb 97 de 86 bb
       -0.004129762 -0.004108805 -0.004092514 -0.0041158902
000190 c2 54 88 bb 73 f4 87 bb 72 62 85 bb ff 7f 85 bb
       -0.0041604945 -0.0041490137 -0.0040705735 -0.004074096
0001a0 79 b4 87 bb d1 43 88 bb a1 f4 87 bb 41 e3 86 bb
       -0.004141387 -0.004158475 -0.004149035 -0.0041164462
0001b0 f3 c8 85 bb 59 8d 89 bb 6d cd 85 bb 63 d0 87 bb
       -0.004082793 -0.004197758 -0.0040833266 -0.0041447147
0001c0 ab 93 85 bb f2 2b 89 bb 86 df 85 bb ca ac 87 bb
       -0.0040764413 -0.004186147 -0.004085484 -0.004140471
0001d0 7a 2c 88 bb af 70 87 bb 6d e6 86 bb e4 47 86 bb
       -0.0041556926 -0.004133306 -0.0041168244 -0.0040979255
0001e0 8b 86 88 bb e2 d3 88 bb 97 a8 86 bb 0d e3 86 bb
       -0.0041664294 -0.004175649 -0.004109453 -0.004116422
0001f0 50 db 86 bb bd 3a 87 bb 23 ff 87 bb f0 91 89 bb
       -0.0041154996 -0.004126875 -0.0041502877 -0.0041983053
000200 31 30 87 bb b6 ad 86 bb c2 0b 86 bb fd 86 86 bb
       -0.004125618 -0.0041100634 -0.004090757 -0.0041054473
000210 b7 9a 88 bb 97 cd 87 bb eb f0 87 bb 67 a9 86 bb
       -0.004168834 -0.0041443813 -0.0041485927 -0.00410955
000220 09 80 87 bb fd 4a 87 bb 99 1f 86 bb 68 01 86 bb
       -0.004135136 -0.0041288123 -0.004093122 -0.004089523
000230 b8 d2 85 bb 18 27 88 bb 1f 2f 86 bb 70 89 88 bb
       -0.0040839575 -0.004155051 -0.0040949727 -0.0041667745
000240 8c 26 86 bb 05 6c 89 bb 00 b6 85 bb 81 a8 87 bb
       -0.0040939506 -0.004193785 -0.004080534 -0.0041399603
000250 7e 45 86 bb a7 7c 89 bb 07 28 87 bb 17 68 87 bb
       -0.0040976396 -0.004195768 -0.0041246447 -0.0041322815
000260 da 38 87 bb 7d 9a 89 bb 5d 47 85 bb 91 b6 85 bb
       -0.0041266503 -0.0041993246 -0.004067345 -0.0040806015
000270 1b 91 88 bb 2d 84 85 bb 45 ab 84 bb b7 9c 87 bb
       -0.0041676885 -0.0040745945 -0.004048737 -0.004138555
000280 9e 18 87 bb 6a 3c 86 bb a0 ae 85 bb 27 56 87 bb
       -0.0041228076 -0.0040965574 -0.004079655 -0.004130143
000290 50 a6 86 bb 4d 74 85 bb 2f 5e 88 bb fa 6b 88 bb
       -0.0041091815 -0.004072702 -0.004161618 -0.0041632624
0002a0 7d 09 87 bb f7 54 85 bb bc 31 88 bb 36 0b 85 bb
       -0.004121004 -0.0040689665 -0.0041563194 -0.0040601743
0002b0 82 23 88 bb 1d 2b 88 bb c7 06 87 bb 9d 08 88 bb
       -0.0041546235 -0.00415553 -0.004120681 -0.0041514174
0002c0 1a cf 87 bb 13 67 86 bb ae 27 87 bb 63 75 87 bb
       -0.0041445615 -0.004101643 -0.0041246032 -0.0041338666
0002d0 c6 41 87 bb 72 64 86 bb 3b a0 88 bb ae 62 86 bb
       -0.004127714 -0.0041013295 -0.0041694916 -0.004101119
0002e0 36 5d 86 bb 05 66 86 bb 4b fa 85 bb 88 f8 86 bb
       -0.004100467 -0.004101517 -0.004088675 -0.0041189827
0002f0 08 10 87 bb 61 8f 87 bb e1 dd 84 bb 5b bb 86 bb
       -0.004121784 -0.004136965 -0.0040547703 -0.00411169
000300 4a a0 85 bb a9 54 88 bb 0a 88 87 bb e5 d9 85 bb
       -0.004077946 -0.004160483 -0.00413609 -0.004084813
000310 71 43 85 bb f0 2f 87 bb 06 1e 87 bb 58 b2 87 bb
       -0.0040668775 -0.0041255876 -0.004123452 -0.0041411333
000320 31 89 86 bb c3 3b 87 bb 3c 05 87 bb 49 c1 87 bb
       -0.00410571 -0.004126997 -0.004120497 -0.0041429144
000330 fa 30 86 bb d8 ef 86 bb 98 e4 85 bb e6 e1 86 bb
       -0.004095194 -0.004117947 -0.0040860884 -0.0041162847
000340 47 04 87 bb 9b 29 86 bb 68 69 86 bb 48 51 86 bb
       -0.004120383 -0.004094315 -0.004101921 -0.004099045
000350 56 fb 84 bb b4 97 88 bb a6 98 87 bb 5f 47 85 bb
       -0.004058282 -0.004168475 -0.00413807 -0.004067346
000360 1a c2 86 bb 40 e2 86 bb 58 6a 86 bb 04 46 87 bb
       -0.004112494 -0.0041163266 -0.0041020326 -0.0041282196
000370 92 96 87 bb d1 a8 86 bb a9 b4 88 bb 50 45 86 bb
       -0.0041378224 -0.00410948 -0.004171927 -0.004097618
000380 d1 0f 88 bb 29 16 88 bb e7 69 85 bb ad e6 85 bb
       -0.004152276 -0.0041530323 -0.0040714624 -0.0040863366
000390 42 32 86 bb b3 e6 86 bb 78 d2 85 bb c4 37 86 bb
       -0.0040953467 -0.004116857 -0.0040839277 -0.0040960032
0003a0 a6 59 86 bb aa 83 87 bb 0a 32 88 bb 84 0d 87 bb
       -0.0041000424 -0.0041355686 -0.0041563557 -0.0041214842
0003b0 65 7c 85 bb b6 5d 85 bb df 5c 86 bb c1 da 86 bb
       -0.004073667 -0.004070009 -0.0041004266 -0.004115433
0003c0 f3 c3 86 bb 01 26 88 bb 27 3a 86 bb 81 a0 88 bb
       -0.0041127144 -0.004154921 -0.004096288 -0.004169524
0003d0 d1 f8 85 bb 47 3c 86 bb 18 ed 87 bb af 7d 86 bb
       -0.004088499 -0.004096541 -0.004148137 -0.004104338
0003e0 a5 1a 87 bb f5 c3 85 bb 93 4a 86 bb 88 06 86 bb
       -0.0041230493 -0.004082198 -0.0040982454 -0.004090134
0003f0 36 98 85 bb 0c be 85 bb 90 3c 86 bb d5 58 86 bb
       -0.004076983 -0.0040814932 -0.004096575 -0.004099945
