VerNova/checkpoints/ntm_val_0.1234_epoch_102.pt (torch, 863092 bytes, 11 tensors)

read_vectors f4 [1, 32]
0	0x3eebe7f5	0.46075407
1	0xbec797e7	-0.3898308
2	0x3fb69ca4	1.4266553
3	0xbf28d6ac	-0.65952563
4	0x3fe4bfa3	1.7870983
5	0xbdc0225a	-0.09381552
6	0x3e76523d	0.24054809
7	0x3f82523e	1.0181348
8	0xbeeeac27	-0.46615717
9	0xbf09b993	-0.5379879
10	0x3fd62c95	1.6732355
11	0x3e8f1e0e	0.27952617
12	0xbf35a6b2	-0.7095748
13	0xbf85b201	-1.0444947
14	0xbf6b37b9	-0.918819
15	0x3eb939f5	0.3617703
16	0x3fbb7da8	1.4647722
17	0x3efee453	0.49783573
18	0xbe87e434	-0.26541293
19	0x3d953bfb	0.07286831
20	0x3fe4e2f2	1.7881758
21	0x3dcb92d6	0.09940116
22	0x3efd6042	0.494875
23	0xbf28822f	-0.65823644
24	0x3ef229c4	0.4729749
25	0xbf3dee30	-0.7419157
26	0x3f56b339	0.8386722
27	0xbfa00d60	-1.2504082
28	0x3e4557be	0.19271752
29	0x3de59f52	0.112120286
30	0x3f16a3d0	0.5884371
31	0xbfb5bdd9	-1.4198562

memory.memory f4 [64, 32]
0	0x3eebe7f5	0.46075407
1	0xbec797e7	-0.3898308
2	0x3fb69ca4	1.4266553
3	0xbf28d6ac	-0.65952563
4	0x3fe4bfa3	1.7870983
5	0xbdc0225a	-0.09381552
6	0x3e76523d	0.24054809
7	0x3f82523e	1.0181348
8	0xbeeeac27	-0.46615717
9	0xbf09b993	-0.5379879
10	0x3fd62c95	1.6732355
11	0x3e8f1e0e	0.27952617
12	0xbf35a6b2	-0.7095748
13	0xbf85b201	-1.0444947
14	0xbf6b37b9	-0.918819
15	0x3eb939f5	0.3617703
16	0x3fbb7da8	1.4647722
17	0x3efee453	0.49783573
18	0xbe87e434	-0.26541293
19	0x3d953bfb	0.07286831
20	0x3fe4e2f2	1.7881758
21	0x3dcb92d6	0.09940116
22	0x3efd6042	0.494875
23	0xbf28822f	-0.65823644
24	0x3ef229c4	0.4729749
25	0xbf3dee30	-0.7419157
26	0x3f56b339	0.8386722
27	0xbfa00d60	-1.2504082
28	0x3e4557be	0.19271752
29	0x3de59f52	0.112120286
30	0x3f16a3d0	0.5884371
31	0xbfb5bdd9	-1.4198562
32	0x3eebe7f5	0.46075407
33	0xbec797e7	-0.3898308
34	0x3fb69ca4	1.4266553
35	0xbf28d6ac	-0.65952563
36	0x3fe4bfa3	1.7870983
37	0xbdc0225a	-0.09381552
38	0x3e76523d	0.24054809
39	0x3f82523e	1.0181348
40	0xbeeeac27	-0.46615717
41	0xbf09b993	-0.5379879
42	0x3fd62c95	1.6732355
43	0x3e8f1e0e	0.27952617
44	0xbf35a6b2	-0.7095748
45	0xbf85b201	-1.0444947
46	0xbf6b37b9	-0.918819
47	0x3eb939f5	0.3617703
48	0x3fbb7da8	1.4647722
49	0x3efee453	0.49783573
50	0xbe87e434	-0.26541293
51	0x3d953bfb	0.07286831
52	0x3fe4e2f2	1.7881758
53	0x3dcb92d6	0.09940116
54	0x3efd6042	0.494875
55	0xbf28822f	-0.65823644
56	0x3ef229c4	0.4729749
57	0xbf3dee30	-0.7419157
58	0x3f56b339	0.8386722
59	0xbfa00d60	-1.2504082
60	0x3e4557be	0.19271752
61	0x3de59f52	0.112120286
62	0x3f16a3d0	0.5884371
63	0xbfb5bdd9	-1.4198562
64	0x3eebe7f5	0.46075407
65	0xbec797e7	-0.3898308
66	0x3fb69ca4	1.4266553
67	0xbf28d6ac	-0.65952563
68	0x3fe4bfa3	1.7870983
69	0xbdc0225a	-0.09381552
70	0x3e76523d	0.24054809
71	0x3f82523e	1.0181348
72	0xbeeeac27	-0.46615717
73	0xbf09b993	-0.5379879
74	0x3fd62c95	1.6732355
75	0x3e8f1e0e	0.27952617
76	0xbf35a6b2	-0.7095748
77	0xbf85b201	-1.0444947
78	0xbf6b37b9	-0.918819
79	0x3eb939f5	0.3617703
80	0x3fbb7da8	1.4647722
81	0x3efee453	0.49783573
82	0xbe87e434	-0.26541293
83	0x3d953bfb	0.07286831
84	0x3fe4e2f2	1.7881758
85	0x3dcb92d6	0.09940116
86	0x3efd6042	0.494875
87	0xbf28822f	-0.65823644
88	0x3ef229c4	0.4729749
89	0xbf3dee30	-0.7419157
90	0x3f56b339	0.8386722
91	0xbfa00d60	-1.2504082
92	0x3e4557be	0.19271752
93	0x3de59f52	0.112120286
94	0x3f16a3d0	0.5884371
95	0xbfb5bdd9	-1.4198562
96	0x3eebe7f5	0.46075407
97	0xbec797e7	-0.3898308
98	0x3fb69ca4	1.4266553
99	0xbf28d6ac	-0.65952563
100	0x3fe4bfa3	1.7870983
101	0xbdc0225a	-0.09381552
102	0x3e76523d	0.24054809
103	0x3f82523e	1.0181348
104	0xbeeeac27	-0.46615717
105	0xbf09b993	-0.5379879
106	0x3fd62c95	1.6732355
107	0x3e8f1e0e	0.27952617
108	0xbf35a6b2	-0.7095748
109	0xbf85b201	-1.0444947
110	0xbf6b37b9	-0.918819
111	0x3eb939f5	0.3617703
112	0x3fbb7da8	1.4647722
113	0x3efee453	0.49783573
114	0xbe87e434	-0.26541293
115	0x3d953bfb	0.07286831
116	0x3fe4e2f2	1.7881758
117	0x3dcb92d6	0.09940116
118	0x3efd6042	0.494875
119	0xbf28822f	-0.65823644
120	0x3ef229c4	0.4729749
121	0xbf3dee30	-0.7419157
122	0x3f56b339	0.8386722
123	0xbfa00d60	-1.2504082
124	0x3e4557be	0.19271752
125	0x3de59f52	0.112120286
126	0x3f16a3d0	0.5884371
127	0xbfb5bdd9	-1.4198562
128	0x3eebe7f5	0.46075407
129	0xbec797e7	-0.3898308
130	0x3fb69ca4	1.4266553
131	0xbf28d6ac	-0.65952563
132	0x3fe4bfa3	1.7870983
133	0xbdc0225a	-0.09381552
134	0x3e76523d	0.24054809
135	0x3f82523e	1.0181348
136	0xbeeeac27	-0.46615717
137	0xbf09b993	-0.5379879
138	0x3fd62c95	1.6732355
139	0x3e8f1e0e	0.27952617
140	0xbf35a6b2	-0.7095748
141	0xbf85b201	-1.0444947
142	0xbf6b37b9	-0.918819
143	0x3eb939f5	0.3617703
144	0x3fbb7da8	1.4647722
145	0x3efee453	0.49783573
146	0xbe87e434	-0.26541293
147	0x3d953bfb	0.07286831
148	0x3fe4e2f2	1.7881758
149	0x3dcb92d6	0.09940116
150	0x3efd6042	0.494875
151	0xbf28822f	-0.65823644
152	0x3ef229c4	0.4729749
153	0xbf3dee30	-0.7419157
154	0x3f56b339	0.8386722
155	0xbfa00d60	-1.2504082
156	0x3e4557be	0.19271752
157	0x3de59f52	0.112120286
158	0x3f16a3d0	0.5884371
159	0xbfb5bdd9	-1.4198562
160	0x3eebe7f5	0.46075407
161	0xbec797e7	-0.3898308
162	0x3fb69ca4	1.4266553
163	0xbf28d6ac	-0.65952563
164	0x3fe4bfa3	1.7870983
165	0xbdc0225a	-0.09381552
166	0x3e76523d	0.24054809
167	0x3f82523e	1.0181348
168	0xbeeeac27	-0.46615717
169	0xbf09b993	-0.5379879
170	0x3fd62c95	1.6732355
171	0x3e8f1e0e	0.27952617
172	0xbf35a6b2	-0.7095748
173	0xbf85b201	-1.0444947
174	0xbf6b37b9	-0.918819
175	0x3eb939f5	0.3617703
176	0x3fbb7da8	1.4647722
177	0x3efee453	0.49783573
178	0xbe87e434	-0.26541293
179	0x3d953bfb	0.07286831
180	0x3fe4e2f2	1.7881758
181	0x3dcb92d6	0.09940116
182	0x3efd6042	0.494875
183	0xbf28822f	-0.65823644
184	0x3ef229c4	0.4729749
185	0xbf3dee30	-0.7419157
186	0x3f56b339	0.8386722
187	0xbfa00d60	-1.2504082
188	0x3e4557be	0.19271752
189	0x3de59f52	0.112120286
190	0x3f16a3d0	0.5884371
191	0xbfb5bdd9	-1.4198562
192	0x3eebe7f5	0.46075407
193	0xbec797e7	-0.3898308
194	0x3fb69ca4	1.4266553
195	0xbf28d6ac	-0.65952563
196	0x3fe4bfa3	1.7870983
197	0xbdc0225a	-0.09381552
198	0x3e76523d	0.24054809
199	0x3f82523e	1.0181348
200	0xbeeeac27	-0.46615717
201	0xbf09b993	-0.5379879
202	0x3fd62c95	1.6732355
203	0x3e8f1e0e	0.27952617
204	0xbf35a6b2	-0.7095748
205	0xbf85b201	-1.0444947
206	0xbf6b37b9	-0.918819
207	0x3eb939f5	0.3617703
208	0x3fbb7da8	1.4647722
209	0x3efee453	0.49783573
210	0xbe87e434	-0.26541293
211	0x3d953bfb	0.07286831
212	0x3fe4e2f2	1.7881758
213	0x3dcb92d6	0.09940116
214	0x3efd6042	0.494875
215	0xbf28822f	-0.65823644
216	0x3ef229c4	0.4729749
217	0xbf3dee30	-0.7419157
218	0x3f56b339	0.8386722
219	0xbfa00d60	-1.2504082
220	0x3e4557be	0.19271752
221	0x3de59f52	0.112120286
222	0x3f16a3d0	0.5884371
223	0xbfb5bdd9	-1.4198562
224	0x3eebe7f5	0.46075407
225	0xbec797e7	-0.3898308
226	0x3fb69ca4	1.4266553
227	0xbf28d6ac	-0.65952563
228	0x3fe4bfa3	1.7870983
229	0xbdc0225a	-0.09381552
230	0x3e76523d	0.24054809
231	0x3f82523e	1.0181348
232	0xbeeeac27	-0.46615717
233	0xbf09b993	-0.5379879
234	0x3fd62c95	1.6732355
235	0x3e8f1e0e	0.27952617
236	0xbf35a6b2	-0.7095748
237	0xbf85b201	-1.0444947
238	0xbf6b37b9	-0.918819
239	0x3eb939f5	0.3617703
240	0x3fbb7da8	1.4647722
241	0x3efee453	0.49783573
242	0xbe87e434	-0.26541293
243	0x3d953bfb	0.07286831
244	0x3fe4e2f2	1.7881758
245	0x3dcb92d6	0.09940116
246	0x3efd6042	0.494875
247	0xbf28822f	-0.65823644
248	0x3ef229c4	0.4729749
249	0xbf3dee30	-0.7419157
250	0x3f56b339	0.8386722
251	0xbfa00d60	-1.2504082
252	0x3e4557be	0.19271752
253	0x3de59f52	0.112120286
254	0x3f16a3d0	0.5884371
255	0xbfb5bdd9	-1.4198562

controller.lstm.weight_ih f4 [400, 64]
0	0xba8c1c70	-0.0010689627
1	0xbc8f443f	-0.017488597
2	0xbc8f68ad	-0.017505968
3	0x3d69df3a	0.05709765
4	0x3ceb91b3	0.028755998
5	0xbcb6ef6f	-0.022330968
6	0xbcda7620	-0.026667655
7	0xbbebeccf	-0.0071998606
8	0xbdd0f75a	-0.102034286
9	0x3cc3840f	0.023866681
10	0x3d4748e4	0.0486535
11	0x3d9e7543	0.0773721
12	0xb9168be0	-0.00014357222
13	0x3c703d07	0.014662988
14	0xbc379659	-0.011205279
15	0xbbdeb661	-0.0067966436
16	0x3e2da78b	0.16958444
17	0xbd812f42	-0.06307842
18	0xbb99a5d2	-0.004688957
19	0x3d34fdc9	0.04418734
20	0xbcd2dcac	-0.02573999
21	0x3c8b013a	0.016968358
22	0xbd10860c	-0.035284087
23	0xbd80a79e	-0.062819704
24	0xbb90a571	-0.0044142534
25	0xbd7d8fa9	-0.061904583
26	0xbdb678c9	-0.08909757
27	0x3dc5d2c8	0.09659344
28	0xbc6fe3da	-0.014641726
29	0xbcb16388	-0.021653906
30	0x3bcb4e2b	0.0062043867
31	0x3d872065	0.06597976
32	0x3d87df29	0.06634361
33	0xbd8687cd	-0.06568871
34	0xbdb67dc8	-0.089107096
35	0xbc537dee	-0.012908442
36	0xbe49e231	-0.19715191
37	0xbd859352	-0.0652224
38	0x3c3f46d6	0.011674603
39	0xbd9b6eae	-0.0758947
40	0x3d4045ff	0.046941753
41	0x3eb8ab06	0.3606798
42	0xbe18e7ba	-0.14932147
43	0x3eb1086c	0.34576738
44	0x3d17cdab	0.037061375
45	0xbd4d051a	-0.050053693
46	0x3e44f2d1	0.19233252
47	0x3ab7c7d6	0.0014021348
48	0xbd820e7d	-0.0635042
49	0xbd1780c2	-0.036988027
50	0x3e4b6cc1	0.19865705
51	0x3d3267a9	0.04355589
52	0xbe878da1	-0.26475242
53	0xbde59824	-0.11210659
54	0x3d6953fe	0.056964867
55	0x3e008c8b	0.12553613
56	0xbb1258c7	-0.0022330747
57	0xbccac9ba	-0.024754394
58	0x3db33c5f	0.08751749
59	0x3e2138d9	0.15744342
60	0xbe1aac79	-0.15104856
61	0xbc9235d4	-0.017847933
62	0xbe53f331	-0.20698239
63	0x3e15c8f4	0.14627439
64	0x3c8cd057	0.017189188
65	0xbde33dbb	-0.110957585
66	0x3e23cad2	0.15995339
67	0x3cbbd304	0.022927769
68	0x3e5b4ae8	0.21415293
69	0xbdc940f6	-0.098268434
70	0xbe1c857e	-0.15285298
71	0x3dc81357	0.09769314
72	0xbd983b2d	-0.07433162
73	0xbe350ecf	-0.1768143
74	0xbb951a74	-0.0045502726
75	0x3d33b94e	0.043877892
76	0xbe0ad2f4	-0.13557035
77	0x3db9fbed	0.09081254
78	0x3bb4723c	0.005506782
79	0x3c3b01e9	0.01141403
80	0x3dc17c31	0.09447516
81	0xbdd08ee6	-0.10183506
82	0x3d9ee127	0.07757788
83	0xbd357370	-0.044299543
84	0xbb731a15	-0.0037094404
85	0x3d3416fd	0.043967236
86	0xbd14b16c	-0.036302015
87	0xbe57b765	-0.21066053
88	0x3e4131a2	0.1886659
89	0x3bb5f725	0.0055531436
90	0xbd468362	-0.04846514
91	0xbddb17b4	-0.106978804
92	0xbe62f3d1	-0.22163321
93	0xbdfab874	-0.12242213
94	0x3baaf43f	0.0052171047
95	0xbbfbb3d1	-0.007681348
96	0xbd4d1cd3	-0.050076317
97	0xbc852993	-0.016255176
98	0x3ce913ed	0.028451884
99	0x3ce66727	0.028125359
100	0x3c707ae8	0.014677741
101	0x3c46247a	0.012093658
102	0x3c8e5dfd	0.017378801
103	0x3d5c7db9	0.053830836
104	0xbccdd433	-0.025125599
105	0xbcd74904	-0.026279934
106	0xbd0c7e49	-0.034300122
107	0xbc119ef2	-0.008887993
108	0xbcdf4e4c	-0.027259015
109	0xbdaeb856	-0.08531253
110	0xbd6597f9	-0.056053136
111	0xbd1ba646	-0.038000368
112	0x3e010279	0.125986
113	0xbc8351e2	-0.016030256
114	0xbd3ab758	-0.045585006
115	0x3c8de975	0.017323235
116	0xb98718a8	-0.00025767577
117	0xbd163ff3	-0.03668208
118	0x3cf722e5	0.030168006
119	0x3cbebcae	0.023283329
120	0xbd8c1862	-0.06840588
121	0xbc9a7d16	-0.018858474
122	0x3bbb7121	0.005720273
123	0xbd45dd2c	-0.04830663
124	0x3b89b30b	0.004202252
125	0x3c489571	0.012242661
126	0x3d226d40	0.03965497
127	0xbd51dd57	-0.051236477
128	0x3b1b13d9	0.0023662953
129	0xbddae898	-0.10688895
130	0x3dbb61e2	0.09149529
131	0x3dace8bb	0.08442827
132	0x3e42c652	0.19020966
133	0xbd1768f1	-0.036965314
134	0xbd803cf8	-0.06261629
135	0x3da71f03	0.08160212
136	0xbded1fe4	-0.11578348
137	0xbdcfb020	-0.10141015
138	0x3ccef228	0.025261953
139	0x3e13ddf8	0.14440143
140	0xbd3c9e4e	-0.04604941
141	0x3e0c3264	0.13691097
142	0x3cd2018f	0.025635509
143	0x3bf035fc	0.007330654
144	0xbda40c74	-0.08010188
145	0xbda0a396	-0.078437015
146	0x3e178f7c	0.14800829
147	0xbe36d62b	-0.17855136
148	0xbc6489aa	-0.013948837
149	0x3e05b353	0.13056688
150	0xbd8295b3	-0.06376209
151	0xbe210e23	-0.15728049
152	0x3e024b44	0.12724024
153	0xbdd3195d	-0.10307572
154	0xbe024c29	-0.12724365
155	0xbe00a0d4	-0.12561351
156	0xbe206af4	-0.156658
157	0xbe2463b1	-0.16053654
158	0x3cddf4cf	0.027094273
159	0xbd02e47b	-0.031956177
160	0x3d3ef413	0.046619486
161	0x3df382d5	0.118901886
162	0xbe0c933c	-0.1372804
163	0x3ede3128	0.43396878
164	0xbd990de3	-0.07473352
165	0xbefe9027	-0.49719355
166	0xbe33ff0b	-0.1757776
167	0xbe2984c6	-0.16554555
168	0x3e9f21d3	0.31080493
169	0xbdf3044c	-0.11866054
170	0x3d8ad204	0.067783386
171	0x3f2be135	0.67140514
172	0x3e447da6	0.19188556
173	0xbdb6009c	-0.08886835
174	0x3e596d5d	0.21233125
175	0xbc8ef654	-0.017451443
176	0xbdd19714	-0.10233894
177	0xbe45fc88	-0.19334614
178	0xbe187a23	-0.14890341
179	0x3eef7699	0.4677017
180	0xbeccb451	-0.3998132
181	0xbd72406f	-0.05914348
182	0x3f40c88f	0.7530603
183	0xbeff6d15	-0.4988791
184	0xbe2983de	-0.1655421
185	0x3e2df6d7	0.16988693
186	0xbe1353e5	-0.14387472
187	0xbd905644	-0.07047704
188	0xbec0860e	-0.37602276
189	0x3d811123	0.06302097
190	0xbe6875b3	-0.22701149
191	0xbd86cbac	-0.06581816
192	0x3e09ad7b	0.13445084
193	0xbdcb011b	-0.0991232
194	0x3e119b8c	0.14219493
195	0xbd124820	-0.035713315
196	0x3d4350ed	0.0476846
197	0xbdccc673	-0.09998789
198	0x3bcb7b57	0.0062097716
199	0x3d7e5367	0.062091257
200	0x3cedce1e	0.029028948
201	0xbe0e1b1f	-0.13877533
202	0xbda55b53	-0.08074059
203	0x3d553306	0.052050613
204	0x3cd555ef	0.026041953
205	0x3daa5209	0.08316428
206	0x3cc8c362	0.024507228
207	0x3d9863d8	0.07440919
208	0xbdc1d268	-0.0946396
209	0xbd448d2d	-0.0479862
210	0xbe1c1139	-0.15240945
211	0x3d1d1450	0.03834945
212	0x3d87a464	0.06623152
213	0xbdd6276e	-0.10456739
214	0xbdb91cf9	-0.09038729
215	0xbe23a81f	-0.15982102
216	0x3b4d847b	0.0031359482
217	0x3d7bb5a1	0.06145251
218	0x3c96aa07	0.018391622
219	0xbd1a3149	-0.03764466
220	0xbd5076a2	-0.050894387
221	0xbd8e687a	-0.06953521
222	0xbccfeb24	-0.025380678
223	0xbd18da80	-0.037317753
224	0x3e1c614d	0.15271492
225	0x3d1f7455	0.038929302
226	0x3de46b4e	0.11153279
227	0xbda6afe6	-0.08139019
228	0x3e4ee46d	0.20204325
229	0xbe1d38c8	-0.15353692
230	0x3e90732f	0.28212878
231	0x3e492756	0.19643912
232	0xbe306350	-0.17225385
233	0xbe07fd33	-0.13280182
234	0x3e89008e	0.26758236
235	0x3d6534f4	0.055958703
236	0xbdb2642b	-0.08710512
237	0xbddc48d5	-0.10756079
238	0xbe0ab16f	-0.13544248
239	0x3e7b3276	0.24530968
240	0x3c85ed05	0.016348371
241	0x3dbf0731	0.093275435
242	0x3ca85b45	0.020551333
243	0x3df5c718	0.12000865
244	0x3e5074e8	0.20357096
245	0x3d312bc7	0.04325464
246	0xbc8b87b6	-0.017032485
247	0xbdf063f4	-0.117378145
248	0xbd9b17b4	-0.075728804
249	0xbd65d890	-0.056114733
250	0xbef1183d	-0.47088805
251	0x3c83ea7a	0.016103018
252	0x3ce02ba7	0.027364565
253	0xbca55613	-0.020182645
254	0x3d81599b	0.06315919
255	0xbdba1c0e	-0.09087382

controller.lstm.weight_hh f4 [400, 100]
0	0xbe2851d7	-0.1643747
1	0xbea77576	-0.32706803
2	0xbddd6fe9	-0.10812361
3	0xbe9ca228	-0.30592465
4	0x3d0d6b7f	0.034526344
5	0x3a81f150	0.0009913836
6	0xbe43d392	-0.19123676
7	0x3e89a397	0.26882622
8	0x3db0b600	0.08628464
9	0xbd6bee64	-0.057600394
10	0xbd67b472	-0.05656857
11	0xbeaf799d	-0.3427247
12	0xbc464d44	-0.0121033825
13	0x3e5df81a	0.21676674
14	0xbc67bdca	-0.01414437
15	0x3d4e49f5	0.0503635
16	0x3cb22210	0.021744758
17	0xbd8c68b1	-0.06855906
18	0x3d331a2b	0.043726128
19	0x3cabbb51	0.020963343
20	0x3db08d9b	0.08620759
21	0xbd9fd43a	-0.07804151
22	0x3c2f6079	0.010704153
23	0xbdd37ef6	-0.1032695
24	0xbd9c6b11	-0.07637609
25	0x3db2ed98	0.08736724
26	0x3c34c9a0	0.011034399
27	0xbd0bdfb8	-0.0341489
28	0xbdcca8f8	-0.09993166
29	0x3cf82c06	0.03029443
30	0xbbc33fc7	-0.0059585306
31	0xbcf3c881	-0.029758694
32	0x3d9dd434	0.0770649
33	0xbdeaaf16	-0.11459176
34	0xbe2b76fc	-0.16744608
35	0x3dd6a3f9	0.10480494
36	0x3db91dd1	0.0903889
37	0x3d921110	0.07132161
38	0x3d0b29f6	0.033975564
39	0xbe3bd0c3	-0.18341355
40	0x3c6c0298	0.014404915
41	0x3e17931e	0.14802215
42	0xbe2cdf7c	-0.16882128
43	0xbe20e9b0	-0.15714145
44	0x3d237887	0.039909866
45	0xbc9eb3a0	-0.019372761
46	0x3d68f57e	0.056874745
47	0x3dceb520	0.100931406
48	0xbd9f33b9	-0.07773537
49	0xbe81ee3d	-0.25377074
50	0xbd348b47	-0.044078138
51	0x3cc5ae0c	0.024130844
52	0x3c5255e2	0.012837859
53	0x3e0594b7	0.13045011
54	0xbd912a7c	-0.070881814
55	0xbd8f830d	-0.07007418
56	0x3c80fb6e	0.015744891
57	0x3d27bc6f	0.04095119
58	0xbd34c2d6	-0.044131123
59	0x3dba7b98	0.09105605
60	0x3e9bf14e	0.30457538
61	0x3c7690ae	0.015049143
62	0x3e098e57	0.13433205
63	0x3cce4047	0.025177134
64	0x3e4a53f3	0.19758587
65	0xbcbae44c	-0.022813939
66	0xbca10379	-0.019654976
67	0x3e1373c5	0.14399631
68	0xbdcf54ec	-0.101236194
69	0xbcc1c97e	-0.02365565
70	0x3dd7c54c	0.10535678
71	0x3dc7952b	0.097452484
72	0xbe0b861d	-0.13625379
73	0x3db531e1	0.08847404
74	0xbdc75426	-0.09732847
75	0x3d7fe468	0.062473685
76	0xbd119cdb	-0.03554998
77	0xbe4f7a7d	-0.2026157
78	0xbdb5c8de	-0.08876203
79	0xbc59bbb2	-0.013289379
80	0xbd3d080e	-0.04615026
81	0x3bac57a2	0.00525947
82	0x3d5757fe	0.05257415
83	0x3d907705	0.07053951
84	0x3c151a7c	0.009100553
85	0x3e79388c	0.24337977
86	0x3d9f3f12	0.077757016
87	0xbd94d227	-0.07266646
88	0x3ddc5a92	0.107594624
89	0xbe14359e	-0.14473578
90	0x3d03440f	0.032047328
91	0xbdb821a9	-0.08990795
92	0x3e046a84	0.12931257
93	0xbda587d2	-0.08082546
94	0x3dc7e2b1	0.09760035
95	0xbcb53fc7	-0.022125138
96	0x3b8659f6	0.0041000796
97	0xbd254a36	-0.040353976
98	0xbe85884b	-0.26080546
99	0xbbc966b7	-0.0061462778
100	0x3cbf92eb	0.023385486
101	0x3bcffec1	0.0063475077
102	0xbc95541f	-0.018228589
103	0x3b78fe84	0.00379935
104	0xbdce9928	-0.10087806
105	0xbd39c692	-0.045355387
106	0x3e8fc8e4	0.28082955
107	0xbc5063a2	-0.012719067
108	0x3c75cd3a	0.015002543
109	0xbd95e5a5	-0.07319192
110	0x3e24bdee	0.16088077
111	0xbd9f9dfd	-0.07793806
112	0x3da5454b	0.08069857
113	0x3e247ebf	0.16063975
114	0xbd4ead01	-0.050457958
115	0x3d465471	0.048420373
116	0x3b9c33a3	0.0047668978
117	0xbe44ffce	-0.19238207
118	0x3d972e29	0.07381851
119	0xbd1a593a	-0.03768275
120	0xbd65813b	-0.056031447
121	0xbe0c3205	-0.13690956
122	0xbb6eff50	-0.0036468096
123	0xbdd1f9b3	-0.102527045
124	0x3d585eaa	0.052824654
125	0x3d989ee4	0.07452181
126	0xbda52a42	-0.08064701
127	0xbce38ede	-0.027778085
128	0x3c566e85	0.013087873
129	0x3c4dfff9	0.012573236
130	0x3e04bed2	0.12963417
131	0x3e66ae0b	0.2252733
132	0x3d39e91c	0.045388326
133	0xbde5c2aa	-0.1121877
134	0x3a54f746	0.0008124005
135	0xbd3a70f1	-0.045517866
136	0x3cd94921	0.026524128
137	0xbd3dbf4e	-0.04632502
138	0xbd129ae3	-0.035792243
139	0x3cbaf1a3	0.0228203
140	0xbda7f671	-0.08201302
141	0xbde96228	-0.11395675
142	0xbc3b0111	-0.0114138285
143	0xbcdf9d20	-0.027296603
144	0x3cf98cec	0.030462705
145	0xbcb551aa	-0.022133667
146	0x3b95d399	0.0045723435
147	0xbe053b87	-0.13010989
148	0x3e04398a	0.12912574
149	0x3d68fe89	0.05688337
150	0xbcb31ee8	-0.021865323
151	0x3cd20ab6	0.025639873
152	0xbbb628fc	-0.005559085
153	0x3bf088f4	0.007340545
154	0xbc7ed081	-0.015552641
155	0x3e1d7c2a	0.15379396
156	0x3dc97842	0.098373905
157	0x3da665f5	0.081249155
158	0xbd473ab1	-0.048639957
159	0x3d223b2e	0.03960722
160	0x3d92b73b	0.07163855
161	0xbd678b62	-0.05652941
162	0xbc8c8727	-0.01715429
163	0x3d822051	0.0635382
164	0x3cc7f50e	0.024408843
165	0x3d3e5fcf	0.04647809
166	0xbcc2afb7	-0.023765428
167	0xbdbaa0bb	-0.09112688
168	0xbd205666	-0.039144896
169	0xbd763fa2	-0.06011928
170	0xbd649061	-0.055801753
171	0xbd9ae302	-0.075628296
172	0x3aeeea6c	0.0018227822
173	0x3e0b24f0	0.1358831
174	0x3cb147ee	0.021640744
175	0xbc963eaf	-0.018340437
176	0x3c470ed0	0.012149528
177	0x3ded83a1	0.11597372
178	0xbc751629	-0.014958897
179	0x3db9c85f	0.09071421
180	0x3db64071	0.0889901
181	0x3d30fc56	0.043209396
182	0x3d9604e0	0.073251486
183	0xbe3076ef	-0.1723287
184	0xbd8e5123	-0.06949069
185	0xbc1430f7	-0.009044877
186	0x3e08d5de	0.13362834
187	0x3d6d2a5e	0.057901733
188	0xbdc74e68	-0.09731752
189	0xbc58be6b	-0.013228993
190	0x3d055903	0.03255559
191	0x3de31a5d	0.11089013
192	0x3d1550fc	0.036454186
193	0x3ba80664	0.005127715
194	0xbdab5e26	-0.08367567
195	0xbc69f833	-0.014280367
196	0x3e322ae9	0.17399181
197	0x3d33fb3e	0.043940775
198	0xbd33fe97	-0.043943968
199	0xbcc24a10	-0.023716956
200	0xbec3aaaf	-0.3821616
201	0x3e5f140a	0.21784988
202	0x3f206908	0.62660265
203	0xbec6e0c4	-0.38843358
204	0x3df3131a	0.11868878
205	0x3e18b6b2	0.14913443
206	0x3e81e5b9	0.25370577
207	0x3ebe94ea	0.37222987
208	0xbef85349	-0.48501042
209	0x3bd96924	0.006634848
210	0xbf7226ee	-0.9459065
211	0xbeb08b31	-0.34481195
212	0xc03ac933	-2.9185302
213	0xbe1fcb5f	-0.15604924
214	0xbe9683b7	-0.29397365
215	0x3d1380f6	0.03601166
216	0xbd6d88c4	-0.057991758
217	0x3e3d727d	0.18500705
218	0x3d84afdc	0.06478855
219	0x3dc2748a	0.09494884
220	0x3f103eff	0.56346124
221	0x3e03ba22	0.12863973
222	0xbd3358cc	-0.043785855
223	0x3dd13bec	0.10216507
224	0x3e961d34	0.29319155
225	0x3e4a058a	0.19728675
226	0x3c91a2f2	0.017777894
227	0x3ec5fc06	0.3866884
228	0xbf247ce5	-0.64253074
229	0x3e04bcd9	0.12962665
230	0xbe168b81	-0.14701654
231	0xbda752f0	-0.08170116
232	0xbe503580	-0.20332909
233	0x3d897b6c	0.06712994
234	0xbdb84408	-0.08997351
235	0xbd159887	-0.036522415
236	0xbe9f2234	-0.31080782
237	0xbdadfe87	-0.08495813
238	0xbd4b951a	-0.04970274
239	0x3ebafc7d	0.36520758
240	0x3d9f76f7	0.077863626
241	0xbd739996	-0.059472643
242	0x3d9cefa6	0.07662897
243	0xbd43cdf0	-0.04780382
244	0x3d036be3	0.03208531
245	0x3ee92a2f	0.45539996
246	0xbef5f4e9	-0.48038414
247	0xbdf4087b	-0.1191568
248	0xbdd05707	-0.10172849
249	0x3e732ff0	0.23748755
250	0x3cc1af23	0.023643082
251	0xbd0002ea	-0.03125278
252	0xbd93e0c3	-0.07220604
253	0xbeab6eb9	-0.33482912
254	0x3d143a7c	0.036188588
255	0xbe352ad4	-0.17692119

controller.lstm.bias_ih f4 [400]
0	0x3d710c43	0.058849584
1	0x3df12ce9	0.11776144
2	0x3dc54c72	0.096337214
3	0x3d8a96ba	0.0676703
4	0x3da8c004	0.08239749
5	0x3d12345e	0.035694472
6	0x3dfb0b18	0.12257975
7	0x3e6655f0	0.2249372
8	0x3d9ead91	0.07747949
9	0x3e0ac190	0.135504
10	0x3e04fb7d	0.1298656
11	0x3e13b7c8	0.14425576
12	0xbd6e0f80	-0.05812025
13	0x3e5bd944	0.21469599
14	0x3d773665	0.06035461
15	0x3b76b1c3	0.0037642575
16	0x3c7095e0	0.0146841705
17	0x3d8b8769	0.06812937
18	0x3d8cec5c	0.068810195
19	0x3d8bd6c7	0.06828075
20	0x3de3e1ad	0.111270286
21	0x3dd5d262	0.10440518
22	0x3d825c7e	0.06365298
23	0x3dccbea8	0.09997302
24	0x3df5eb53	0.12007775
25	0x3ddf0707	0.10890012
26	0x3e438604	0.19094092
27	0x3db8c3c0	0.09021711
28	0x3d281ac8	0.041041166
29	0x3cbbd4ab	0.022928556
30	0x3d9c15ba	0.076213315
31	0x3def217e	0.1167631
32	0x3d8cea01	0.0688057
33	0x3dc9ba8e	0.098500356
34	0x3dc3438b	0.09534367
35	0xbcd19b28	-0.02558668
36	0xbba9dd3e	-0.005183845
37	0x3dc16424	0.094429284
38	0x3cd3885a	0.025821853
39	0x3e2afb6a	0.1669747
40	0x3dc3a6bd	0.09553287
41	0x3e19e90d	0.15030308
42	0x3e2378bb	0.15964024
43	0xbd35114d	-0.044205952
44	0x3d8a6d98	0.067591846
45	0xba9ac04c	-0.0011806577
46	0x3ded9a7f	0.116017334
47	0x3d67179f	0.05641901
48	0x3cf72da9	0.03017314
49	0x3e180c5b	0.14848463
50	0x3df0801c	0.11743185
51	0x3dc053a6	0.09390955
52	0xbb702984	-0.003664584
53	0xbced70cf	-0.028984455
54	0x3e0acee6	0.13555488
55	0x3df943aa	0.12171109
56	0x3de4e45d	0.11176369
57	0x3db505cb	0.088389955
58	0x3c945015	0.018104592
59	0x3dcee624	0.101024896
60	0xbd5792fd	-0.052630413
61	0x3d1e9225	0.038713593
62	0x3dbcec75	0.09224788
63	0x3e33281e	0.17495772
64	0x3de2df72	0.11077775
65	0x3d8e65e3	0.06953027
66	0x3d1db073	0.038498353
67	0x3d58cdf2	0.05293078
68	0x3df5ddec	0.12005219
69	0x3bb179d1	0.005416133
70	0x3de2e8d8	0.11079568
71	0x3be0f7ef	0.0068654935
72	0x3d601df3	0.05471606
73	0x3db2c29a	0.087285236
74	0xbbe3969c	-0.0069454443
75	0x3de746dd	0.11292813
76	0x3cd5cd0d	0.026098752
77	0x3ca175f3	0.019709563
78	0x3db776b2	0.08958186
79	0x3dd01410	0.101600766
80	0x3e0a960d	0.13533802
81	0x3dd3d88a	0.10344036
82	0x3dbcf4b6	0.092263624
83	0x3d817904	0.0632191
84	0x3e0bd1a6	0.13654193
85	0x3d6cfa16	0.057855688
86	0xbcb8cdb5	-0.022559026
87	0xbce061cb	-0.027390381
88	0x3d1f8573	0.038945626
89	0xbc5e617f	-0.01357305
90	0xbdaf8d01	-0.08571816
91	0x3d86a9b6	0.065753385
92	0x3e043d76	0.1291407
93	0x3dd7ac5a	0.1053092
94	0x3dabdcad	0.083917
95	0x3d39df82	0.04537917
96	0x3dd7bdac	0.10534224
97	0x3e060e12	0.13091305
98	0x3c8939b8	0.016751155
99	0x3d34a3ad	0.044101406
100	0xbcc2a608	-0.02376081
101	0x3d196a35	0.037454803
102	0x3dcea4b3	0.10090008
103	0x3c01ed99	0.007930183
104	0x3ca69910	0.020336658
105	0x3d95455f	0.07288622
106	0x3cfd0bb8	0.030889377
107	0x3e3b0d0c	0.18266696
108	0x3dd34b52	0.103171006
109	0x3d21bd58	0.039487213
110	0x3d3cab67	0.0460619
111	0xbd6d597c	-0.057946667
112	0xba62df1b	-0.0008654461
113	0xbc881639	-0.01661216
114	0xbaf3cebc	-0.001860104
115	0x3d217161	0.039414767
116	0x3d782ec2	0.060591467
117	0x3d0652bd	0.03279375
118	0x3d93d9fe	0.07219313
119	0x3d85cd0d	0.06533251
120	0x3d891ec3	0.066953205
121	0x3d8bec0b	0.06832131
122	0x3d42ddeb	0.04757492
123	0x3d7d138e	0.061786227
124	0x3d9218af	0.07133614
125	0x3e09a071	0.1344011
126	0x3e1d7f5a	0.15380612
127	0x3d428093	0.0474859
128	0x3c99dafb	0.018781176
129	0x3d90b1f5	0.070651926
130	0x3d26c247	0.04071262
131	0x3da14508	0.07874495
132	0x3d8614da	0.06546946
133	0x3e2f0ef6	0.17095551
134	0x3d51389a	0.05107937
135	0x3dabca9e	0.083882555
136	0x3d32534d	0.043536473
137	0x3d63ce69	0.05561677
138	0x3d7a8278	0.06115958
139	0xbda11627	-0.07865553
140	0x3d843ba7	0.0645669
141	0x3df826d0	0.12116778
142	0x3d1e74e4	0.038685694
143	0xbded5f61	-0.11590458
144	0x3d99411d	0.074831225
145	0xbd10f91a	-0.03539381
146	0x3d089ea8	0.03335443
147	0x3da5633a	0.080755666
148	0xbcf5fbd7	-0.030027313
149	0x3e08b203	0.13349156
150	0x3d89123f	0.06692933
151	0x3d034c76	0.03205534
152	0xbbec6404	-0.007214071
153	0xbc2734a6	-0.010205423
154	0x3e1962ba	0.14979067
155	0x3d8338d6	0.06407325
156	0x3c5fa975	0.013651242
157	0xbd1743bf	-0.036929842
158	0xbc8eda4f	-0.017438082
159	0x3d44496d	0.047921587
160	0x3db6a8f2	0.089189425
161	0x3d2b7771	0.041861955
162	0x3e10b5ce	0.14131853
163	0x3d1a5153	0.037675213
164	0x3b63f800	0.003478527
165	0xbce2da19	-0.027691888
166	0x3d421dcc	0.047391698
167	0xbcfc2e6c	-0.030783854
168	0x3d888d84	0.06667617
169	0x3daec6c2	0.08534004
170	0xbc5f1413	-0.013615626
171	0xbd16f13c	-0.036851153
172	0x3d9b7a22	0.07591654
173	0x3d6900e7	0.056885626
174	0x3d204161	0.03912485
175	0x3d8cbff1	0.068725474
176	0x3d811782	0.06303312
177	0x3d34f87d	0.04418229
178	0x3d6b6934	0.057473376
179	0xbdc5eb37	-0.09664004
180	0xbccbd2d4	-0.024880804
181	0x3d6bc375	0.05755945
182	0x3d6d82b5	0.05798598
183	0x3ce0e5af	0.027453272
184	0x3d06f15e	0.03294503
185	0x3dacc466	0.084358975
186	0xbc56184c	-0.013067316
187	0xbd9e7e3d	-0.07738922
188	0x3c6637eb	0.014051418
189	0x3c53c71a	0.0129258875
190	0x3d2dd264	0.042436972
191	0x3db133c9	0.08652455
192	0x3c0f319e	0.008739857
193	0x3c5341af	0.012894078
194	0x3d8472e3	0.064672254
195	0xbbb8947d	-0.0056329356
196	0x3da0f3be	0.0785899
197	0x3d32475f	0.043525096
198	0x3e222221	0.15833332
199	0x3d85991c	0.06523344
200	0x3db9549c	0.09049341
201	0xbc2753da	-0.010212863
202	0x3c808302	0.01568747
203	0xbc256030	-0.010093734
204	0xbdef3b52	-0.11681236
205	0x3ce7a9a5	0.028279135
206	0x3a72d3ad	0.00092631095
207	0x3d5483d1	0.051883522
208	0xbcf1a5a9	-0.029497938
209	0xbda85dbf	-0.08221006
210	0x3b0f5085	0.0021868062
211	0x3df4e1bc	0.11957118
212	0x3db70314	0.08936134
213	0xbd1f947b	-0.03895996
214	0x3da644a9	0.08118565
215	0xbdb170ad	-0.08664069
216	0xbcac7d82	-0.02105594
217	0xbd911652	-0.070843354
218	0xbdd003fc	-0.1015701
219	0xbdc60c56	-0.09670322
220	0xbdfc2bd3	-0.12313046
221	0xbdf38f4c	-0.11892566
222	0x3de6a7e3	0.112624906
223	0xbd68bd8e	-0.0568214
224	0x3d81d6cf	0.063397996
225	0x3dc0eb21	0.09419847
226	0xbdf98333	-0.121832274
227	0x3d819183	0.06326582
228	0xbe11c9a7	-0.1423708
229	0xbd5b2051	-0.053497616
230	0x3ddb149b	0.106972896
231	0x3e005135	0.12530978
232	0x3dc9fc5d	0.098625876
233	0xbe25c11d	-0.16186948
234	0xbd1a24dd	-0.03763281
235	0xbc458038	-0.0120544955
236	0x3dbf6bea	0.09346755
237	0xbd6c2fb9	-0.0576627
238	0xbcc387f1	-0.023868533
239	0xbda880cb	-0.0822769
240	0xbddf17ef	-0.10893237
241	0xbd17bea3	-0.03704704
242	0xbcfe9d83	-0.031080967
243	0x3c0e50dc	0.008686271
244	0x3c21777e	0.009855149
245	0xbc10df4c	-0.008842301
246	0x3deafdcb	0.114741884
247	0xbd611c24	-0.054958478
248	0x39c2f3d5	0.00037184232
249	0xbd82a37f	-0.06378841
250	0xbe013d90	-0.1262114
251	0x3d272200	0.04080391
252	0xbb80b2a2	-0.0039275447
253	0xbe410eb4	-0.18853265
254	0x3dbe901f	0.09304833
255	0x3dc6bcea	0.09704001

controller.lstm.bias_hh f4 [400]
0	0x3d4a1a31	0.049341384
1	0x3dc1a257	0.09454792
2	0x3e075c2c	0.13218755
3	0x3d823ed5	0.063596405
4	0x3da7f237	0.08200496
5	0x3d675211	0.05647475
6	0x3dddc434	0.108284384
7	0x3e5ad34a	0.21369663
8	0x3d3120a7	0.04324403
9	0x3e04c06c	0.12964028
10	0x3dfad49d	0.12247584
11	0x3e094aee	0.1340749
12	0x3a5b3cc7	0.00083632435
13	0x3e4805c0	0.19533443
14	0x3d40b8a0	0.047051072
15	0x3c82d06c	0.015968524
16	0x3ccec710	0.025241405
17	0x3db91a92	0.09038271
18	0x3d8574a9	0.06516392
19	0x3d8939d7	0.06700485
20	0x3de4ea86	0.11177544
21	0x3dd5d9bc	0.1044192
22	0x3d9e3a0f	0.077259175
23	0x3dccdf6a	0.1000355
24	0x3de73897	0.112900905
25	0x3dd0708f	0.10177719
26	0x3db03f07	0.086057715
27	0x3db6423f	0.08899354
28	0x3d14fefa	0.036375977
29	0x3cf7570c	0.030192874
30	0x3da12681	0.07868672
31	0x3dee56cb	0.11637648
32	0x3d8f9fc6	0.07012896
33	0x3dadbf4c	0.084837526
34	0x3db6ad2f	0.08919751
35	0xbd078ed0	-0.03309518
36	0x3cf266c5	0.02959002
37	0x3e11fdde	0.14256999
38	0x3cc5242e	0.024065103
39	0x3de88490	0.11353409
40	0x3dc30824	0.09523037
41	0x3dc4e4f5	0.096139826
42	0x3e1d2e82	0.15349773
43	0xbd7bf1da	-0.061509944
44	0x3d8de31a	0.06928082
45	0xbcceb122	-0.025230948
46	0x3dc418ef	0.09575068
47	0x3d90e858	0.07075566
48	0x3c6086ac	0.013703983
49	0x3e1b4eea	0.15166822
50	0x3dd3d403	0.103431724
51	0x3dbff1a5	0.09372262
52	0xbd0b552f	-0.034016784
53	0x3cd983ec	0.026552163
54	0x3e05d7ad	0.13070555
55	0x3df4a424	0.1194537
56	0x3dc611be	0.09671353
57	0x3cea2937	0.028584106
58	0x3c7c4a23	0.015398535
59	0x3dc294ee	0.09501062
60	0x3c892a91	0.01674393
61	0x3cd8dd23	0.026472634
62	0x3d30f6ca	0.043204106
63	0x3e2889aa	0.16458765
64	0x3e06a848	0.13150132
65	0x3ca1cfc5	0.019752393
66	0x3d11d43b	0.03560279
67	0x3cf8687b	0.030323258
68	0x3def62de	0.11688779
69	0xbd0953b6	-0.0335271
70	0x3e0fe780	0.14053154
71	0x3c889e59	0.016677069
72	0x3dbcdf2a	0.09222253
73	0x3db51979	0.08842749
74	0x3d22b615	0.03972443
75	0x3db51984	0.08842757
76	0x3bb35a95	0.0054734447
77	0x3d18acde	0.037274234
78	0x3db9352b	0.09043344
79	0x3de447e1	0.11146522
80	0x3dcc0509	0.09961898
81	0x3dcfa49e	0.1013882
82	0x3dafaa9b	0.08577462
83	0x3d83893e	0.06422661
84	0x3e0120f7	0.12610231
85	0x3d6cc4ba	0.0578048
86	0xbd37797c	-0.04479359
87	0xbc8ccfa6	-0.017188858
88	0x3d153061	0.03642309
89	0xbd0223b5	-0.031772334
90	0xbda8d11b	-0.08243009
91	0x3d9d1060	0.07669139
92	0x3dd8334e	0.105566606
93	0x3d874a57	0.06605976
94	0x3dada780	0.08479214
95	0x3d3acc11	0.04560477
96	0x3dd7946e	0.105263576
97	0x3e064c49	0.13115038
98	0x3d5fc263	0.05462874
99	0x3d4775bb	0.04869626
100	0xbcbe86f7	-0.023257716
101	0x3de5e660	0.11225581
102	0x3df14b1b	0.11781903
103	0x3b900f1f	0.004396334
104	0xbc9a1d6b	-0.018812856
105	0x3d8638b8	0.06553787
106	0x3c5200a0	0.012817532
107	0x3e433fa4	0.19067246
108	0x3dd30d3b	0.10305258
109	0x3d215715	0.03938969
110	0x3d4cb696	0.049978815
111	0xbd4e21d6	-0.050325237
112	0x3dd33994	0.103137165
113	0xbd31ae81	-0.04337931
114	0xbbbab10f	-0.0056973766
115	0x3d342bf5	0.043987233
116	0x3d748e37	0.05970594
117	0x3c5cbf2b	0.013473312
118	0x3d93eca8	0.07222873
119	0x3d85ddbe	0.065364346
120	0x3d89209c	0.06695673
121	0x3d8beb25	0.0683196
122	0x3d3d4844	0.046211496
123	0x3d7b440a	0.061344184
124	0x3d9c69c2	0.07637359
125	0x3e04e80f	0.12979148
126	0x3e0b529f	0.13605736
127	0x3d428ee0	0.047499537
128	0xbb4daa58	-0.003138205
129	0x3d8b4ccf	0.068017595
130	0x3d2c6b55	0.042094547
131	0x3da1414d	0.07873783
132	0x3d8619ae	0.06547867
133	0x3e345f49	0.17614473
134	0x3d0665bd	0.03281187
135	0x3da625dd	0.081126906
136	0x3d4550a9	0.048172627
137	0x3d8aaa97	0.06770819
138	0x3d67b314	0.056567267
139	0xbd84b0c0	-0.06479025
140	0x3d843b96	0.064566776
141	0x3db7fb9f	0.0898354
142	0x3d7ce013	0.06173713
143	0xbd89dd0f	-0.06731617
144	0x3d9e049f	0.07715725
145	0x3ce2076d	0.027591432
146	0x3d50925e	0.050920837
147	0x3d1d6ebf	0.038435694
148	0xbd16743d	-0.036731947
149	0x3e230539	0.15919961
150	0x3d8909bd	0.066913106
151	0x3d0882ac	0.033327743
152	0xbc0a1435	-0.008427669
153	0x3d1f2585	0.03885414
154	0x3df98413	0.12183394
155	0x3d5d04b2	0.053959556
156	0x3de99a28	0.11406356
157	0xbd216520	-0.03940308
158	0xbc8e7db9	-0.017393934
159	0x3b82c238	0.003990438
160	0x3cf0b983	0.029385334
161	0x3d53c235	0.051698882
162	0x3de93144	0.1138635
163	0x3d0950cb	0.033524316
164	0x3c8e998a	0.017407198
165	0xbd5948d2	-0.053047962
166	0x3d55ca36	0.052194797
167	0xbba21882	-0.004946769
168	0x3d889156	0.06668346
169	0x3da30bf0	0.07961261
170	0x3b3b7495	0.0028603424
171	0xbd1bf057	-0.038071003
172	0x3c976aa6	0.018483471
173	0x3d690735	0.05689164
174	0x3cdd3ac6	0.027005564
175	0x3d78857b	0.060674172
176	0x3d94cd02	0.07265665
177	0x3d910140	0.070803165
178	0x3d6b1e1a	0.057401754
179	0xbd440d10	-0.04786402
180	0x3db7643d	0.08954666
181	0x3d6bc213	0.05755813
182	0x3d6d823b	0.057985526
183	0x3dbe5001	0.09292603
184	0x3cf0031e	0.029298361
185	0x3cf3407d	0.029693836
186	0x3c3dfd1a	0.011595989
187	0xbd44451e	-0.047917478
188	0x3c4c9a75	0.012487997
189	0x3df1c989	0.11806018
190	0x3dc85651	0.097820885
191	0x3db26fea	0.08712752
192	0x3cd2e997	0.02574615
193	0x3c5c92cc	0.0134627335
194	0x3d846650	0.06464827
195	0x3bd240b6	0.0064164056
196	0x3da0f41e	0.07859062
197	0x3c4ceec8	0.012508102
198	0x3e131a6e	0.14365551
199	0x3d82904e	0.0637518
200	0x3dc01d06	0.09380536
201	0xbdb709b8	-0.089374006
202	0x3d6b887b	0.057503205
203	0x3bec0ac5	0.0072034323
204	0xbde503e5	-0.111823834
205	0xbc9824a5	-0.018572161
206	0xbb15a59b	-0.0022834304
207	0x3e1a6b3c	0.15079969
208	0xbceff046	-0.029289376
209	0xbd8e46d0	-0.069471
210	0x3b9491d9	0.004533988
211	0x3dc5a518	0.0965063
212	0x3b82a8e8	0.0039874204
213	0xbd159d6d	-0.036527086
214	0x3d6fe689	0.058569465
215	0xbda38722	-0.07984759
216	0x3a981461	0.0011602753
217	0xbe00cc61	-0.12577964
218	0xbdd664de	-0.10468458
219	0xbdb78f6b	-0.08962902
220	0xbdfb676a	-0.12275584
221	0xbdf27383	-0.11838438
222	0x3d51bbe1	0.051204566
223	0xbd6c03bd	-0.057620753
224	0x3e10de5c	0.14147323
225	0x3af082b5	0.0018349501
226	0x3d40bfc6	0.04705789
227	0xbbafd9f5	-0.0053665587
228	0xbdf4d2ee	-0.11954294
229	0x3ce21cc5	0.027601609
230	0x3ddbe6fe	0.10737418
231	0x3e005532	0.125325
232	0x3dc94302	0.09827234
233	0xbd9778ba	-0.07396074
234	0x3be63560	0.0070254058
235	0x3df2b40c	0.118507475
236	0x3dbc2366	0.09186439
237	0xbdc0303f	-0.09384202
238	0x3cc9864d	0.024600172
239	0xbe048ea9	-0.12945046
240	0xbde29fd9	-0.11065645
241	0xbc27be78	-0.010238282
242	0xbd93c523	-0.07215335
243	0xbdb15aa5	-0.08659867
244	0xbc1ab222	-0.009441884
245	0xbcafe407	-0.021471037
246	0x3e041203	0.12897496
247	0x3cbbb063	0.022911256
248	0xbd18ece9	-0.03733531
249	0xbdecce2c	-0.11562762
250	0xbdeed9fa	-0.116626695
251	0x3d49b9f1	0.049249593
252	0xbaed861b	-0.0018121632
253	0xbe2f0282	-0.170908
254	0x3d8d9cb5	0.06914655
255	0x3da81e27	0.08208876

controller.fc_out.weight f4 [1000, 100]
0	0x3e8fc3a0	0.28078938
1	0xbe984cd3	-0.29746112
2	0xbeb8db94	-0.36105025
3	0x3e26f613	0.16304807
4	0xbe8211c2	-0.25404173
5	0x3e6a30c2	0.22870162
6	0xbe86132a	-0.26186496
7	0x3f0ef769	0.5584627
8	0xbe8a078f	-0.26958892
9	0xbf0a2b85	-0.53972656
10	0x3e4f3c4b	0.20237844
11	0x3f1e7fc1	0.61913687
12	0xbda8c9dd	-0.08241627
13	0xbf35ab94	-0.7096493
14	0x3e71a4f3	0.2359808
15	0xbe90a116	-0.282479
16	0xbd74d24a	-0.05977086
17	0xbe9f989c	-0.3117112
18	0xbe9dcca0	-0.3082018
19	0xbe45b2e1	-0.19306518
20	0xbf0a6c63	-0.54071635
21	0xbebc0ef8	-0.3673017
22	0x3e1be89f	0.15225457
23	0xbec599d8	-0.38593936
24	0x3f04a017	0.5180678
25	0x3e27a9e6	0.16373405
26	0xbeb4eb5a	-0.3533581
27	0x3ec0b598	0.37638545
28	0xbecd19a7	-0.40058634
29	0x3e026194	0.12732536
30	0x3eeee53f	0.46659276
31	0x3efd6e24	0.49498093
32	0x3eac9c16	0.33712834
33	0xbef95cae	-0.4870352
34	0xbe02373f	-0.12716387
35	0x3ec323bb	0.38113198
36	0x3e79f52a	0.24409929
37	0xbf1748b4	-0.5909531
38	0x3dc20f0b	0.094755255
39	0xbf438694	-0.76377225
40	0xbee4d50f	-0.446938
41	0xbf0b39a0	-0.54384804
42	0xbf18f344	-0.59746194
43	0xbe61c264	-0.2204681
44	0x3d6a1e01	0.05715752
45	0xbd8149ad	-0.06312881
46	0x3f16b4bd	0.58869535
47	0xbe9e14d6	-0.30875272
48	0x3dab8ded	0.083766796
49	0xbf2362ba	-0.6382252
50	0xbeefca11	-0.46833852
51	0x3e76b35f	0.24091862
52	0x3ba103c5	0.0049137794
53	0xbf06710a	-0.52516234
54	0x3eec2a70	0.46126127
55	0x3f0d9bc8	0.5531583
56	0xbef25eac	-0.47337854
57	0x3e9cbc0e	0.30612224
58	0xbde27d71	-0.11059082
59	0xbf2d1451	-0.67609125
60	0x3d2038cf	0.039116677
61	0xbe8d29d3	-0.27570972
62	0x3e4aeee8	0.19817698
63	0xbf382882	-0.7193681
64	0x3f375ff5	0.71630794
65	0x3eb44ef6	0.35216492
66	0x3d80db3c	0.06291816
67	0xbf1d46a8	-0.6143594
68	0xbebe3547	-0.37150022
69	0x3ee4e08d	0.4470257
70	0xbee3f569	-0.4452317
71	0x3d020398	0.03174171
72	0xbed32acc	-0.4124359
73	0x3ead9773	0.3390461
74	0xbe87c55b	-0.26517758
75	0x3f532465	0.8247741
76	0xbe7287cd	-0.23684616
77	0xbe04c8e7	-0.12967263
78	0xbec54dcf	-0.38535926
79	0x3ee67e8c	0.45018423
80	0xbf0b0944	-0.54311013
81	0x3ed78948	0.42096925
82	0x3ef51227	0.47865412
83	0xbe8ced87	-0.2752497
84	0xbf17e444	-0.5933268
85	0x3e797ea1	0.24364711
86	0xbdcf1126	-0.10110693
87	0xbdaf46b5	-0.08558408
88	0xbea27c6b	-0.31735548
89	0x3e1c4830	0.15261912
90	0xbcbd932a	-0.023141462
91	0xbe1d76ce	-0.15377352
92	0x3eb81b71	0.35958436
93	0xbe71ce6f	-0.23613904
94	0xbe9b138c	-0.3028835
95	0xbe86cd5b	-0.2632855
96	0x3ed38b4a	0.41317207
97	0x3eaf8af4	0.342857
98	0xbea6a173	-0.3254505
99	0xbe2c5d0b	-0.16832368
100	0x3e2a9f13	0.16662244
101	0xbf819bd3	-1.0125679
102	0xbdef8afd	-0.11696432
103	0xbe96e7f4	-0.2947384
104	0xbea6155e	-0.32438177
105	0x3fa6bc9a	1.3026307
106	0xbf398f4f	-0.72484297
107	0xbeb2a4eb	-0.34891447
108	0xbe02186e	-0.12704632
109	0x3e12efe5	0.14349325
110	0x3d093a66	0.03350296
111	0x3e9454bd	0.289709
112	0x3f11b265	0.56912833
113	0xbf95167b	-1.1647485
114	0x3cba6722	0.022754256
115	0x3e3f3a50	0.18674588
116	0x3c4557a2	0.012044819
117	0xbe7f1245	-0.24909313
118	0xbe7d93a3	-0.2476335
119	0xbe2d0c69	-0.16899265
120	0xbe72bf33	-0.23705749
121	0x3e62e146	0.22156247
122	0x3f050660	0.5196285
123	0xbd9bcc3a	-0.076073125
124	0xbf86f492	-1.0543387
125	0x3de17650	0.110088944
126	0xbe9baaa3	-0.30403623
127	0xbe1d50d5	-0.15362866
128	0xbdaae716	-0.083448574
129	0xbfc244ab	-1.5177206
130	0xbf7250b7	-0.9465441
131	0xbe81eaa5	-0.25374332
132	0x3e0aac5e	0.13542315
133	0xbdd24a34	-0.102680594
134	0x3e13f442	0.14448646
135	0x3da21a06	0.0791512
136	0xbe502c65	-0.20329435
137	0x3e1800ce	0.14844057
138	0xbe9fbc4f	-0.31198356
139	0x3f0087da	0.50207293
140	0x3f2a6253	0.6655628
141	0xbdedd44a	-0.116127566
142	0xbdcc6fa3	-0.099822305
143	0x3b541f3c	0.003236725
144	0x3f31ab37	0.6940188
145	0xbce5301a	-0.027977038
146	0x3cdef3c9	0.027215855
147	0x3e929ca5	0.28635135
148	0x3d17e885	0.037086982
149	0x3f346b9a	0.70476687
150	0xbd4c6a40	-0.049906015
151	0x3d2d19c8	0.042260915
152	0x3ce3743d	0.027765388
153	0xbedf4f2b	-0.43615088
154	0x3eb9ecdc	0.36313522
155	0xbf828078	-1.0195456
156	0xbf7a4044	-0.9775431
157	0xbe42da3f	-0.19028567
158	0xbc67d262	-0.01414928
159	0x3e1e80f1	0.15478875
160	0x3e95f65f	0.2928953
161	0x3f0c9d54	0.54927564
162	0xbeea64b1	-0.45779946
163	0xbf10bfb8	-0.5654254
164	0xbeba1c1f	-0.3634958
165	0xbf0587e9	-0.5216051
166	0x3f865323	1.0494121
167	0xbf7e8c19	-0.9943252
168	0x3f1f8f17	0.6232771
169	0xbf466de2	-0.7751142
170	0x3f71910c	0.9436195
171	0x3d37145d	0.044697154
172	0xbf2bf5ad	-0.67171746
173	0xbf7fd524	-0.999346
174	0x3aaf6421	0.0013381281
175	0xbef063eb	-0.4695123
176	0x3e4a6992	0.19766834
177	0x3ebaf320	0.36513615
178	0xbc93ca53	-0.018040812
179	0xbf82fe0f	-1.0233783
180	0x3e1103ae	0.1416156
181	0xbd8aff24	-0.067869455
182	0xbef45103	-0.47718057
183	0xbe5507f5	-0.20803817
184	0x3e72ce0f	0.23711418
185	0xbda1078c	-0.078627676
186	0x3e0930d2	0.1339753
187	0x3e1b1f80	0.15148735
188	0x3e15d839	0.14633264
189	0x3e8b8d91	0.27256444
190	0xbebd5837	-0.36981365
191	0xbf48f755	-0.785024
192	0x3f247728	0.6424432
193	0x3d0f9d2a	0.035061993
194	0xbd0ecc3d	-0.034862746
195	0xc045a661	-3.08828
196	0xbef944d4	-0.48685324
197	0xbf7b0dd4	-0.98067975
198	0x40180d6e	2.3758197
199	0x3e34943b	0.1763467
200	0x3e06c2dd	0.13160272
201	0x3ee25541	0.4420567
202	0xc026f702	-2.6088262
203	0xbe80be21	-0.25145057
204	0xbf033265	-0.5124877
205	0x3c987f8a	0.018615503
206	0x3eac33d7	0.336333
207	0x3f14cdbe	0.5812644
208	0x3fa67123	1.3003277
209	0xbe709d8a	-0.23497596
210	0x3f909822	1.1296427
211	0xbf9a4be9	-1.2054416
212	0x3fbf30df	1.4936789
213	0x3f47d82f	0.78064245
214	0x3dda59d1	0.10661662
215	0xbe661177	-0.224676
216	0xbe8887c1	-0.26666072
217	0xbf376b56	-0.71648157
218	0xbf16cb00	-0.58903503
219	0xbe07c567	-0.13258897
220	0x3e9e6682	0.30937582
221	0xbf2cce0e	-0.67501915
222	0xbd998c25	-0.074974336
223	0x3e65f560	0.22456884
224	0xbf11c2a7	-0.5693764
225	0xbf8675f8	-1.0504751
226	0xbe22c8d3	-0.15896921
227	0xbf86850b	-1.0509351
228	0xbdc495cd	-0.09598885
229	0xbeae7f1a	-0.34081346
230	0x3efaa4fd	0.48954
231	0x3f7adff7	0.97997993
232	0x3edd60b8	0.43237853
233	0xbf0744c0	-0.5283928
234	0x3e74422f	0.23853372
235	0x3eecaec7	0.46227095
236	0x3f24b203	0.64334124
237	0xc028a813	-2.6352584
238	0xbe901667	-0.28142092
239	0x3d5a14e7	0.05324259
240	0xbe4f6b20	-0.20255709
241	0xbf7cd069	-0.9875551
242	0x3e867923	0.26264295
243	0xbb29fdde	-0.002593867
244	0xbf8634aa	-1.0484822
245	0xbf4fc426	-0.81158674
246	0xbe2e1510	-0.17000222
247	0x3f77e8d6	0.96839654
248	0x3e2d87b3	0.16946296
249	0xc01237b8	-2.2846508
250	0xbe3a3456	-0.18184027
251	0x3e2e2299	0.17005385
252	0x3e4c998d	0.1998045
253	0x3f620018	0.88281393
254	0xbe81bbd4	-0.25338614
255	0x3fc9c15f	1.5762137

controller.fc_out.bias f4 [1000]
0	0x3f885ac2	1.0652697
1	0xbd1754b5	-0.036946017
2	0x3e66fbca	0.22556987
3	0x3e4c467b	0.19948761
4	0x3e427adb	0.18992178
5	0xbb8d82b6	-0.0043185605
6	0xbd722879	-0.05912063
7	0x3ef64038	0.4809587
8	0x3ec1062a	0.37700015
9	0x3e5bb539	0.2145585
10	0x3e88deb9	0.26732424
11	0xbd8bf425	-0.06833676
12	0x3c21d65e	0.009877769
13	0x3d1fca5f	0.039011355
14	0xbbc84f84	-0.0061129946
15	0x3d9fe16f	0.0780667
16	0xbe1dd0ca	-0.15411678
17	0xbd2bda6b	-0.041956346
18	0x3dec4558	0.11536664
19	0x3cc4002e	0.023925867
20	0xbd183cb5	-0.03716727
21	0xbd03ffc9	-0.032226358
22	0x3d0bed0f	0.034161624
23	0x3dd2a2b8	0.102849424
24	0xbd2211a3	-0.0395676
25	0xbd075033	-0.03303547
26	0xbc0dd209	-0.008656033
27	0x3c59250e	0.013253463
28	0x3d9cbf83	0.076537155
29	0x3debddcc	0.11516914
30	0x3e903099	0.28162077
31	0x3dc8bd94	0.09801784
32	0x3d7a1247	0.061052587
33	0x3d5d8b22	0.054087766
34	0xbb8f04f4	-0.004364604
35	0xbb907597	-0.004408549
36	0xbb8f5ce0	-0.0043750852
37	0xbb9283e5	-0.0044712895
38	0xbb904037	-0.0044021863
39	0xbb8fc838	-0.0043878816
40	0xbb8e0a75	-0.0043347427
41	0xbb90d05f	-0.004419371
42	0xbb8fc768	-0.0043877847
43	0xbb90620d	-0.00440622
44	0xbb8ff230	-0.0043928847
45	0xbb8d8123	-0.004318373
46	0xbb924a57	-0.0044644284
47	0xbb8ec2df	-0.0043567265
48	0xbb91daf3	-0.0044511496
49	0xbb8d7114	-0.0043164585
50	0xbb8efeaa	-0.0043638544
51	0xbb91a996	-0.004445265
52	0xbb8e5ec0	-0.004344791
53	0xbb90a364	-0.004414009
54	0xbb906680	-0.00440675
55	0xbb8ee80f	-0.0043611596
56	0xbb8da011	-0.00432206
57	0xbb903e85	-0.004401984
58	0xbb92af7a	-0.004476485
59	0xbb8f20e7	-0.004367936
60	0xbb92882c	-0.0044717994
61	0xbb8e43dd	-0.004341586
62	0xbb8e6e85	-0.004346671
63	0xbb9066a3	-0.0044067665
64	0xbb8f8ac6	-0.0043805568
65	0xbb8f71b6	-0.004377569
66	0xbb8e1082	-0.004335464
67	0xbb9375ae	-0.0045001125
68	0xbb8faba8	-0.0043844767
69	0xbb9115f6	-0.004427667
70	0xbb91f9f3	-0.004454845
71	0xbb9168c9	-0.00443754
72	0xbb8dfb37	-0.0043329257
73	0xbb915471	-0.004435115
74	0xbb9098a2	-0.0044127265
75	0xbb8edadf	-0.0043595876
76	0xbb8dacbc	-0.00432357
77	0xbb901ac3	-0.0043977215
78	0xbb929127	-0.00447287
79	0xbb8d6a50	-0.004315652
80	0xbb90d316	-0.0044196947
81	0xbb8e282a	-0.004338284
82	0xbb92b0fe	-0.0044766655
83	0xbb915ad8	-0.0044358782
84	0xbb8e7d6a	-0.0043484466
85	0xbb8d7eb5	-0.004318083
86	0xbb923261	-0.004461572
87	0xbb8fd88a	-0.004389827
88	0xbb8f4d57	-0.0043732333
89	0xbb8df535	-0.0043322095
90	0xbb8eea1e	-0.004361405
91	0xbb8f20cb	-0.004367923
92	0xbb90dc06	-0.00442076
93	0xbb8dc76f	-0.004326753
94	0xbb8ff40d	-0.004393107
95	0xbb8fcebb	-0.004388658
96	0xbb8efd29	-0.004363675
97	0xbb900054	-0.0043945704
98	0xbb90f397	-0.0044235694
99	0xbb8fa1ff	-0.004383325
100	0xbb8de98f	-0.004330821
101	0xbb8e42d5	-0.004341463
102	0xbb927c07	-0.0044703516
103	0xbb9238e7	-0.0044623497
104	0xbb8e8716	-0.0043495996
105	0xbb8df918	-0.004332673
106	0xbb8e4263	-0.00434141
107	0xbb8f9ae7	-0.0043824795
108	0xbb9198a7	-0.0044432464
109	0xbb8d57ac	-0.00431343
110	0xbb918ebc	-0.004442064
111	0xbb8e68cb	-0.0043459884
112	0xbb920ad5	-0.0044568577
113	0xbb8dacbb	-0.0043235696
114	0xbb916829	-0.0044374657
115	0xbb8e8fa3	-0.004350619
116	0xbb8e0d55	-0.0043350854
117	0xbb8ed76f	-0.004359178
118	0xbb8f9633	-0.004381919
119	0xbb909cda	-0.0044132294
120	0xbb8dc25f	-0.0043261494
121	0xbb8d8f01	-0.004320026
122	0xbb8ff889	-0.0043936414
123	0xbb8f9b2b	-0.004382511
124	0xbb8fa6f8	-0.004383918
125	0xbb8f1c87	-0.0043674144
126	0xbb8e38c6	-0.004340264
127	0xbb8d5741	-0.00431338
128	0xbb8f2b7e	-0.0043691983
129	0xbb8feeae	-0.0043924665
130	0xbb9110a5	-0.004427033
131	0xbb902dd6	-0.0043999953
132	0xbb8db256	-0.004324238
133	0xbb8e6b76	-0.0043463064
134	0xbb8e46a1	-0.0043419157
135	0xbb8ff4de	-0.004393204
136	0xbb8ec47e	-0.00435692
137	0xbb8f07d3	-0.0043649464
138	0xbb90ea6a	-0.0044224756
139	0xbb912594	-0.0044295285
140	0xbb9184b5	-0.0044408687
141	0xbb8e11fe	-0.004335641
142	0xbb90cd58	-0.00441901
143	0xbb8dc1dd	-0.004326089
144	0xbb90ddba	-0.004420963
145	0xbb8d519a	-0.004312706
146	0xbb91c0e7	-0.0044480446
147	0xbb8e94a8	-0.0043512173
148	0xbb90a126	-0.0044137416
149	0xbb8d5863	-0.004313515
150	0xbb8f36d3	-0.004370549
151	0xbb8ee211	-0.0043604453
152	0xbb8f1fe7	-0.0043678167
153	0xbb8d5f05	-0.0043143057
154	0xbb92bcfe	-0.004478096
155	0xbb91bfd5	-0.004447917
156	0xbb8dbc01	-0.0043253903
157	0xbb922e2d	-0.004461071
158	0xbb9447ae	-0.0045251464
159	0xbb8ea231	-0.004352831
160	0xbb8f4c86	-0.004373136
161	0xbb90b4ff	-0.0044161077
162	0xbb91d0a5	-0.004449921
163	0xbb8ef921	-0.0043631946
164	0xbb8ffa61	-0.004393861
165	0xbb925369	-0.0044655097
166	0xbb8de135	-0.0043298253
167	0xbb8dd55c	-0.004328413
168	0xbb8f6256	-0.004375736
169	0xbb929bf4	-0.0044741575
170	0xbb8e0963	-0.004334615
171	0xbb934ee3	-0.004495488
172	0xbb8e150b	-0.0043360046
173	0xbb8e0e8d	-0.0043352307
174	0xbb8f654a	-0.0043760883
175	0xbb8e2fba	-0.0043391855
176	0xbb8e695e	-0.004346057
177	0xbb9065a8	-0.0044066496
178	0xbb8f37d4	-0.004370669
179	0xbb8ed172	-0.004358464
180	0xbb8f13dc	-0.004366381
181	0xbb906bd1	-0.004407384
182	0xbb8daf75	-0.0043238946
183	0xbb906ebe	-0.0044077327
184	0xbb9078d2	-0.004408934
185	0xbb9067c9	-0.0044069034
186	0xbb913395	-0.004431198
187	0xbb8f7ad3	-0.0043786555
188	0xbb8f587d	-0.0043745623
189	0xbb8eb204	-0.004354717
190	0xbb93c138	-0.0045091175
191	0xbb8fd85e	-0.0043898067
192	0xbb91ef56	-0.00445358
193	0xbb8de9b1	-0.0043308367
194	0xbb8ebacd	-0.0043557645
195	0xbb9175f3	-0.0044391095
196	0xbb92c480	-0.004478991
197	0xbb8f2c06	-0.0043692617
198	0xbb8f44e8	-0.004372228
199	0xbb8e8989	-0.0043498916
200	0xbb902b14	-0.0043996666
201	0xbb8f1c03	-0.004367353
202	0xbb8f681c	-0.0043764245
203	0xbb8e78fc	-0.0043479186
204	0xbb90ca7f	-0.0044186707
205	0xbb8f874d	-0.004380143
206	0xbb916013	-0.004436502
207	0xbb8f9c69	-0.004382659
208	0xbb8f69a0	-0.004376605
209	0xbb90d5c2	-0.004420013
210	0xbb9061f3	-0.0044062077
211	0xbb908e61	-0.004411504
212	0xbb9376a7	-0.0045002284
213	0xbb8db706	-0.0043247966
214	0xbb8ea708	-0.004353408
215	0xbb92bafa	-0.0044778557
216	0xbb8fcdf3	-0.0043885647
217	0xbb8f9b8e	-0.0043825572
218	0xbb906178	-0.0044061504
219	0xbb8f0e1d	-0.004365696
220	0xbb8ea975	-0.004353697
221	0xbb8ff78a	-0.0043935226
222	0xbb8da37d	-0.004322468
223	0xbb90a411	-0.0044140895
224	0xbb8e27ed	-0.0043382556
225	0xbb8e2205	-0.0043375515
226	0xbb926aab	-0.004468282
227	0xbb915bc5	-0.0044359886
228	0xbb90c752	-0.004418292
229	0xbb8f949e	-0.00438173
230	0xbb91849c	-0.004440857
231	0xbb90bcfb	-0.0044170595
232	0xbb907e8f	-0.004409618
233	0xbb8ebfc0	-0.0043563545
234	0xbb8e0888	-0.004334513
235	0xbb8f5cbc	-0.0043750685
236	0xbb923eae	-0.0044630384
237	0xbb928839	-0.0044718054
238	0xbb9078bc	-0.004408924
239	0xbb8fa797	-0.004383992
240	0xbb8fcb5b	-0.0043882555
241	0xbb8e132b	-0.004335781
242	0xbb90b7d7	-0.0044164467
243	0xbb8db083	-0.0043240204
244	0xbb913659	-0.0044315276
245	0xbb90b327	-0.004415888
246	0xbb8e49b9	-0.0043422845
247	0xbb903f37	-0.004402067
248	0xbb8f4949	-0.00437275
249	0xbb91a46a	-0.0044446485
250	0xbb9099e6	-0.0044128774
251	0xbb911b7a	-0.0044283243
252	0xbb9201c7	-0.0044557783
253	0xbb91b216	-0.0044462783
254	0xbb90b31a	-0.004415882
255	0xbb908161	-0.0044099544
