VerNova/checkpoints/ntm_val_0.1763_epoch_78.pt (torch, 863077 bytes, 11 tensors)

read_vectors f4 [1, 32]
0	0x3ef461be	0.4773082
1	0xbea3b15c	-0.31971252
2	0x3fc284dc	1.5196795
3	0xbeae1896	-0.34003133
4	0x3fde3b64	1.7361875
5	0x3b424644	0.0029643932
6	0x3edb18c2	0.42792326
7	0x3f8ba8bc	1.0910869
8	0xbf368b4f	-0.7130632
9	0xbf214393	-0.62993735
10	0x3fed6d3e	1.8548963
11	0x3e7bc4f1	0.24586846
12	0xbf0f14d5	-0.5589116
13	0xbf5d24d7	-0.8638434
14	0xbf8dedbd	-1.1088177
15	0x3f28cf84	0.65941644
16	0x3fb8e376	1.4444416
17	0x3f598e1c	0.84982467
18	0xbee75cd3	-0.45188007
19	0xbe839fa3	-0.2570773
20	0x3fc153a5	1.5103651
21	0x3f0a098d	0.53920823
22	0x3ec41ab4	0.38301623
23	0xbf3fa830	-0.7486601
24	0xbdcea312	-0.10089697
25	0xbf5cef3e	-0.86302555
26	0x3f6400ef	0.89063925
27	0xbfc06127	-1.5029649
28	0xbd7fcf0d	-0.06245332
29	0x3e0fff9a	0.14062348
30	0x3e271966	0.16318282
31	0xbfbbcab9	-1.4671241

memory.memory f4 [64, 32]
0	0x3ef461be	0.4773082
1	0xbea3b15c	-0.31971252
2	0x3fc284dc	1.5196795
3	0xbeae1896	-0.34003133
4	0x3fde3b64	1.7361875
5	0x3b424644	0.0029643932
6	0x3edb18c2	0.42792326
7	0x3f8ba8bc	1.0910869
8	0xbf368b4f	-0.7130632
9	0xbf214393	-0.62993735
10	0x3fed6d3e	1.8548963
11	0x3e7bc4f1	0.24586846
12	0xbf0f14d5	-0.5589116
13	0xbf5d24d7	-0.8638434
14	0xbf8dedbd	-1.1088177
15	0x3f28cf84	0.65941644
16	0x3fb8e376	1.4444416
17	0x3f598e1c	0.84982467
18	0xbee75cd3	-0.45188007
19	0xbe839fa3	-0.2570773
20	0x3fc153a5	1.5103651
21	0x3f0a098d	0.53920823
22	0x3ec41ab4	0.38301623
23	0xbf3fa830	-0.7486601
24	0xbdcea312	-0.10089697
25	0xbf5cef3e	-0.86302555
26	0x3f6400ef	0.89063925
27	0xbfc06127	-1.5029649
28	0xbd7fcf0d	-0.06245332
29	0x3e0fff9a	0.14062348
30	0x3e271966	0.16318282
31	0xbfbbcab9	-1.4671241
32	0x3ef461be	0.4773082
33	0xbea3b15c	-0.31971252
34	0x3fc284dc	1.5196795
35	0xbeae1896	-0.34003133
36	0x3fde3b64	1.7361875
37	0x3b424644	0.0029643932
38	0x3edb18c2	0.42792326
39	0x3f8ba8bc	1.0910869
40	0xbf368b4f	-0.7130632
41	0xbf214393	-0.62993735
42	0x3fed6d3e	1.8548963
43	0x3e7bc4f1	0.24586846
44	0xbf0f14d5	-0.5589116
45	0xbf5d24d7	-0.8638434
46	0xbf8dedbd	-1.1088177
47	0x3f28cf84	0.65941644
48	0x3fb8e376	1.4444416
49	0x3f598e1c	0.84982467
50	0xbee75cd3	-0.45188007
51	0xbe839fa3	-0.2570773
52	0x3fc153a5	1.5103651
53	0x3f0a098d	0.53920823
54	0x3ec41ab4	0.38301623
55	0xbf3fa830	-0.7486601
56	0xbdcea312	-0.10089697
57	0xbf5cef3e	-0.86302555
58	0x3f6400ef	0.89063925
59	0xbfc06127	-1.5029649
60	0xbd7fcf0d	-0.06245332
61	0x3e0fff9a	0.14062348
62	0x3e271966	0.16318282
63	0xbfbbcab9	-1.4671241
64	0x3ef461be	0.4773082
65	0xbea3b15c	-0.31971252
66	0x3fc284dc	1.5196795
67	0xbeae1896	-0.34003133
68	0x3fde3b64	1.7361875
69	0x3b424644	0.0029643932
70	0x3edb18c2	0.42792326
71	0x3f8ba8bc	1.0910869
72	0xbf368b4f	-0.7130632
73	0xbf214393	-0.62993735
74	0x3fed6d3e	1.8548963
75	0x3e7bc4f1	0.24586846
76	0xbf0f14d5	-0.5589116
77	0xbf5d24d7	-0.8638434
78	0xbf8dedbd	-1.1088177
79	0x3f28cf84	0.65941644
80	0x3fb8e376	1.4444416
81	0x3f598e1c	0.84982467
82	0xbee75cd3	-0.45188007
83	0xbe839fa3	-0.2570773
84	0x3fc153a5	1.5103651
85	0x3f0a098d	0.53920823
86	0x3ec41ab4	0.38301623
87	0xbf3fa830	-0.7486601
88	0xbdcea312	-0.10089697
89	0xbf5cef3e	-0.86302555
90	0x3f6400ef	0.89063925
91	0xbfc06127	-1.5029649
92	0xbd7fcf0d	-0.06245332
93	0x3e0fff9a	0.14062348
94	0x3e271966	0.16318282
95	0xbfbbcab9	-1.4671241
96	0x3ef461be	0.4773082
97	0xbea3b15c	-0.31971252
98	0x3fc284dc	1.5196795
99	0xbeae1896	-0.34003133
100	0x3fde3b64	1.7361875
101	0x3b424644	0.0029643932
102	0x3edb18c2	0.42792326
103	0x3f8ba8bc	1.0910869
104	0xbf368b4f	-0.7130632
105	0xbf214393	-0.62993735
106	0x3fed6d3e	1.8548963
107	0x3e7bc4f1	0.24586846
108	0xbf0f14d5	-0.5589116
109	0xbf5d24d7	-0.8638434
110	0xbf8dedbd	-1.1088177
111	0x3f28cf84	0.65941644
112	0x3fb8e376	1.4444416
113	0x3f598e1c	0.84982467
114	0xbee75cd3	-0.45188007
115	0xbe839fa3	-0.2570773
116	0x3fc153a5	1.5103651
117	0x3f0a098d	0.53920823
118	0x3ec41ab4	0.38301623
119	0xbf3fa830	-0.7486601
120	0xbdcea312	-0.10089697
121	0xbf5cef3e	-0.86302555
122	0x3f6400ef	0.89063925
123	0xbfc06127	-1.5029649
124	0xbd7fcf0d	-0.06245332
125	0x3e0fff9a	0.14062348
126	0x3e271966	0.16318282
127	0xbfbbcab9	-1.4671241
128	0x3ef461be	0.4773082
129	0xbea3b15c	-0.31971252
130	0x3fc284dc	1.5196795
131	0xbeae1896	-0.34003133
132	0x3fde3b64	1.7361875
133	0x3b424644	0.0029643932
134	0x3edb18c2	0.42792326
135	0x3f8ba8bc	1.0910869
136	0xbf368b4f	-0.7130632
137	0xbf214393	-0.62993735
138	0x3fed6d3e	1.8548963
139	0x3e7bc4f1	0.24586846
140	0xbf0f14d5	-0.5589116
141	0xbf5d24d7	-0.8638434
142	0xbf8dedbd	-1.1088177
143	0x3f28cf84	0.65941644
144	0x3fb8e376	1.4444416
145	0x3f598e1c	0.84982467
146	0xbee75cd3	-0.45188007
147	0xbe839fa3	-0.2570773
148	0x3fc153a5	1.5103651
149	0x3f0a098d	0.53920823
150	0x3ec41ab4	0.38301623
151	0xbf3fa830	-0.7486601
152	0xbdcea312	-0.10089697
153	0xbf5cef3e	-0.86302555
154	0x3f6400ef	0.89063925
155	0xbfc06127	-1.5029649
156	0xbd7fcf0d	-0.06245332
157	0x3e0fff9a	0.14062348
158	0x3e271966	0.16318282
159	0xbfbbcab9	-1.4671241
160	0x3ef461be	0.4773082
161	0xbea3b15c	-0.31971252
162	0x3fc284dc	1.5196795
163	0xbeae1896	-0.34003133
164	0x3fde3b64	1.7361875
165	0x3b424644	0.0029643932
166	0x3edb18c2	0.42792326
167	0x3f8ba8bc	1.0910869
168	0xbf368b4f	-0.7130632
169	0xbf214393	-0.62993735
170	0x3fed6d3e	1.8548963
171	0x3e7bc4f1	0.24586846
172	0xbf0f14d5	-0.5589116
173	0xbf5d24d7	-0.8638434
174	0xbf8dedbd	-1.1088177
175	0x3f28cf84	0.65941644
176	0x3fb8e376	1.4444416
177	0x3f598e1c	0.84982467
178	0xbee75cd3	-0.45188007
179	0xbe839fa3	-0.2570773
180	0x3fc153a5	1.5103651
181	0x3f0a098d	0.53920823
182	0x3ec41ab4	0.38301623
183	0xbf3fa830	-0.7486601
184	0xbdcea312	-0.10089697
185	0xbf5cef3e	-0.86302555
186	0x3f6400ef	0.89063925
187	0xbfc06127	-1.5029649
188	0xbd7fcf0d	-0.06245332
189	0x3e0fff9a	0.14062348
190	0x3e271966	0.16318282
191	0xbfbbcab9	-1.4671241
192	0x3ef461be	0.4773082
193	0xbea3b15c	-0.31971252
194	0x3fc284dc	1.5196795
195	0xbeae1896	-0.34003133
196	0x3fde3b64	1.7361875
197	0x3b424644	0.0029643932
198	0x3edb18c2	0.42792326
199	0x3f8ba8bc	1.0910869
200	0xbf368b4f	-0.7130632
201	0xbf214393	-0.62993735
202	0x3fed6d3e	1.8548963
203	0x3e7bc4f1	0.24586846
204	0xbf0f14d5	-0.5589116
205	0xbf5d24d7	-0.8638434
206	0xbf8dedbd	-1.1088177
207	0x3f28cf84	0.65941644
208	0x3fb8e376	1.4444416
209	0x3f598e1c	0.84982467
210	0xbee75cd3	-0.45188007
211	0xbe839fa3	-0.2570773
212	0x3fc153a5	1.5103651
213	0x3f0a098d	0.53920823
214	0x3ec41ab4	0.38301623
215	0xbf3fa830	-0.7486601
216	0xbdcea312	-0.10089697
217	0xbf5cef3e	-0.86302555
218	0x3f6400ef	0.89063925
219	0xbfc06127	-1.5029649
220	0xbd7fcf0d	-0.06245332
221	0x3e0fff9a	0.14062348
222	0x3e271966	0.16318282
223	0xbfbbcab9	-1.4671241
224	0x3ef461be	0.4773082
225	0xbea3b15c	-0.31971252
226	0x3fc284dc	1.5196795
227	0xbeae1896	-0.34003133
228	0x3fde3b64	1.7361875
229	0x3b424644	0.0029643932
230	0x3edb18c2	0.42792326
231	0x3f8ba8bc	1.0910869
232	0xbf368b4f	-0.7130632
233	0xbf214393	-0.62993735
234	0x3fed6d3e	1.8548963
235	0x3e7bc4f1	0.24586846
236	0xbf0f14d5	-0.5589116
237	0xbf5d24d7	-0.8638434
238	0xbf8dedbd	-1.1088177
239	0x3f28cf84	0.65941644
240	0x3fb8e376	1.4444416
241	0x3f598e1c	0.84982467
242	0xbee75cd3	-0.45188007
243	0xbe839fa3	-0.2570773
244	0x3fc153a5	1.5103651
245	0x3f0a098d	0.53920823
246	0x3ec41ab4	0.38301623
247	0xbf3fa830	-0.7486601
248	0xbdcea312	-0.10089697
249	0xbf5cef3e	-0.86302555
250	0x3f6400ef	0.89063925
251	0xbfc06127	-1.5029649
252	0xbd7fcf0d	-0.06245332
253	0x3e0fff9a	0.14062348
254	0x3e271966	0.16318282
255	0xbfbbcab9	-1.4671241

controller.lstm.weight_ih f4 [400, 64]
0	0x3d401410	0.046894133
1	0xbba9b900	-0.0051795244
2	0xbce25562	-0.027628604
3	0x3d086af1	0.033305112
4	0x3c7da847	0.015482015
5	0xbc289565	-0.010289525
6	0xbc705bd4	-0.014670331
7	0xbbbe5878	-0.005808886
8	0xbdb667e9	-0.08906538
9	0x3d0abcd8	0.0338715
10	0x3d1c8f2a	0.03822247
11	0x3d81a55b	0.06330367
12	0x3c29d821	0.010366471
13	0x3afb8f94	0.001919257
14	0x3c64457a	0.01393258
15	0x3c994d1c	0.018713526
16	0x3e2fa7bd	0.17153831
17	0xbd568377	-0.05237147
18	0xbcc061e5	-0.02348418
19	0x3d95d3b1	0.073157676
20	0x3c627c12	0.013823526
21	0xbba492a4	-0.0050223637
22	0xbcccd1cb	-0.02500238
23	0xbd47f97a	-0.048821904
24	0xbc900d8f	-0.01758459
25	0xbd36679a	-0.044532396
26	0xbd9883ec	-0.07447037
27	0x3de276e0	0.1105783
28	0xbaa1bea8	-0.0012340145
29	0xbc396a9a	-0.01131692
30	0xbc23d599	-0.009999656
31	0x3d85ed12	0.06539358
32	0xbd15cdb9	-0.036573146
33	0xbd8d6621	-0.06904245
34	0xbdad43a0	-0.08460164
35	0xbd049ff4	-0.032379106
36	0xbe18fb9b	-0.1493973
37	0xbd5b7218	-0.053575605
38	0xbc59c73f	-0.013292133
39	0xbd9ded98	-0.07711333
40	0x3da325ec	0.079662174
41	0x3e9597a6	0.2921726
42	0xbe18bd85	-0.14916046
43	0x3e8a5511	0.27018026
44	0x3d004307	0.031313922
45	0xbcab2671	-0.020892354
46	0x3e1a3175	0.15057929
47	0x3b0e864c	0.0021747528
48	0xbdaf768c	-0.08567533
49	0xbd0adf40	-0.033904314
50	0x3e36db09	0.17856993
51	0x3d87d551	0.06632484
52	0xbe40bcb4	-0.18821985
53	0xbe1539d0	-0.14572835
54	0x3d874271	0.066044696
55	0x3dfb19e5	0.12260798
56	0x3d1bc1e8	0.03802672
57	0xbb277934	-0.002555442
58	0x3d8b7aa4	0.06810501
59	0x3e0d9c2a	0.13829103
60	0xbe18ca07	-0.14920817
61	0xbce89950	-0.028393418
62	0xbe436987	-0.19083224
63	0x3e1397a0	0.14413309
64	0x3b43d901	0.0029883983
65	0xbdf70602	-0.12061693
66	0x3e0ae40c	0.13563555
67	0x3dc1d531	0.09464491
68	0x3e6096ac	0.21932477
69	0xbdafe5c0	-0.08588743
70	0xbe10ccc6	-0.14140615
71	0x3d83c785	0.0643454
72	0xbdcf89f0	-0.10133731
73	0xbe030a4a	-0.12796894
74	0x3d8351b3	0.06412067
75	0x3dcb05ed	0.0991324
76	0xbdf98816	-0.121841595
77	0x3de8d1e1	0.11368156
78	0xbc8f72d4	-0.017510809
79	0x3abf176e	0.0014579126
80	0x3e20e0e1	0.15710784
81	0xbe06332d	-0.1310546
82	0x3dc281e9	0.09497435
83	0xbd42ce7b	-0.047560196
84	0xbd495912	-0.04915721
85	0x3db72f08	0.089445174
86	0xbd4a475b	-0.049384456
87	0xbe22291b	-0.15835993
88	0x3e3b5c0d	0.18296833
89	0xbd6d3c21	-0.05791867
90	0xbdc1f3cb	-0.09470328
91	0xbd8c5e95	-0.068539776
92	0xbe654a03	-0.22391514
93	0xbdaf9232	-0.085728064
94	0x3cd02db1	0.025412412
95	0x3d01d1f0	0.031694353
96	0xbcda4fd4	-0.026649393
97	0xbcc5a828	-0.024128035
98	0x3decaea1	0.11556745
99	0x3ce27303	0.027642732
100	0x3d465ae2	0.048426516
101	0xbc85398b	-0.01626279
102	0x3d026c9c	0.03184186
103	0x3df5a17c	0.11993691
104	0xbd9429e9	-0.07234556
105	0xbd0f8516	-0.03503903
106	0x3d2b04fa	0.041752793
107	0xbc517383	-0.012783888
108	0xbdd02b04	-0.101644546
109	0xbdb8af3c	-0.09017798
110	0xbd28b7dd	-0.04119097
111	0xbd1c7f2a	-0.03820721
112	0x3e26e2a5	0.16297396
113	0xbd1a372b	-0.03765027
114	0xbd40edfd	-0.047101963
115	0x3c857a66	0.016293716
116	0xbb52f2c6	-0.0032188161
117	0xbd83049b	-0.06397363
118	0x3d1f6e78	0.03892371
119	0x3cad1320	0.021127284
120	0xbdc6a13d	-0.096987225
121	0xbd843e46	-0.0645719
122	0x3cd096b2	0.025462482
123	0xbd8ff9c8	-0.07030064
124	0x3ca69f38	0.020339593
125	0xbb0b1ec7	-0.0021228062
126	0x3d47f5ac	0.048818275
127	0xbd7726f3	-0.06033988
128	0xbdb65c05	-0.0890427
129	0xbddb3fbc	-0.10705516
130	0x3dbe8a3a	0.093037084
131	0x3daffab6	0.08592741
132	0x3e418382	0.18897822
133	0xbd0e25de	-0.03470408
134	0xbd778670	-0.060430944
135	0x3daa2ff3	0.08309927
136	0xbde9f489	-0.114235945
137	0xbdcef367	-0.10105019
138	0x3cbfbb0b	0.023404619
139	0x3e1310ac	0.14361829
140	0xbd366a0d	-0.04453473
141	0x3e0daf8d	0.13836499
142	0xbd3c229a	-0.045931436
143	0xbb0b57a5	-0.0021261957
144	0xbdac9239	-0.08426327
145	0xbd9e7db8	-0.07738823
146	0x3e19f955	0.15036519
147	0xbe66a7e3	-0.22524981
148	0xbdab86c0	-0.08375311
149	0x3e0dd12d	0.13849325
150	0xbd807169	-0.06271631
151	0xbe1e0974	-0.15433294
152	0x3e023086	0.12713823
153	0xbdd308c3	-0.103044055
154	0xbe00a70b	-0.12563722
155	0xbdfed65c	-0.124432296
156	0xbe1f220f	-0.15540336
157	0xbe23bb1f	-0.1598935
158	0x3d77efe0	0.060531497
159	0xbd27830c	-0.04089646
160	0x3d1e4daf	0.038648304
161	0xbcfeb45c	-0.031091861
162	0xbdcedde8	-0.10100919
163	0x3e9cc849	0.30621555
164	0x3c6c4fc9	0.014423319
165	0xbef6772b	-0.48137793
166	0xbe408134	-0.18799287
167	0xbe10c291	-0.14136721
168	0x3ebc4aca	0.3677581
169	0xbe203994	-0.15646964
170	0x3dc92df1	0.09823216
171	0x3ef9ab3d	0.48763457
172	0x3e37c707	0.17947017
173	0xbd5c5a8e	-0.053797297
174	0x3e653e50	0.22387052
175	0x3da32e22	0.079677835
176	0xbdaae4ba	-0.083444074
177	0xbdca5d0f	-0.09881031
178	0xbe61097b	-0.21976273
179	0x3f1dffbc	0.61718345
180	0xbeb38f6d	-0.35070363
181	0xbda6a0de	-0.08136152
182	0x3f0fa7d0	0.56115437
183	0xbefff5ff	-0.49992368
184	0xbd4f9899	-0.050682638
185	0x3e349a31	0.17636944
186	0xbe15d5d0	-0.14632344
187	0xbdc1ae17	-0.09457033
188	0xbea8ebe3	-0.32992467
189	0xbd620998	-0.05518493
190	0xbe73934d	-0.2378666
191	0xbd7fe850	-0.06247741
192	0x3db5cda6	0.08877115
193	0xbce9377a	-0.028468836
194	0x3df31984	0.11870101
195	0xbc4c9c80	-0.012488484
196	0xbc984656	-0.018588226
197	0xbca3425e	-0.019929107
198	0x3db1a8a1	0.086747415
199	0x3cbfdc6c	0.023420535
200	0x3d51e21e	0.051241033
201	0xbdd7d2bf	-0.105382435
202	0xbd984377	-0.07434743
203	0x3d459679	0.048239205
204	0x3d8d8665	0.06910399
205	0xbbc5713a	-0.0060254605
206	0xbc7d1535	-0.015446951
207	0x3d327303	0.043566715
208	0xbda8ab6c	-0.08235821
209	0xba4c6ddf	-0.00077983545
210	0xbe177775	-0.14791663
211	0xbb8e6bbc	-0.004346339
212	0x3d0c0011	0.03417975
213	0xbda86abd	-0.08223484
214	0xbb4851d8	-0.003056636
215	0xbd82747b	-0.06369873
216	0xbd2b7fec	-0.041870043
217	0x3d58a513	0.052891802
218	0x3ceca9bd	0.028889531
219	0xbca34e52	-0.019934807
220	0x3c7967e7	0.015222526
221	0xbc322f9d	-0.01087561
222	0xbb8a10cc	-0.004213428
223	0xbd008c44	-0.031383768
224	0x3e277276	0.16352257
225	0x3b3aa1b6	0.0028477735
226	0x3dd442d7	0.10364311
227	0xbda5e9da	-0.08101244
228	0x3e6224a1	0.22084285
229	0xbe5e9a50	-0.21738553
230	0x3e839966	0.2570297
231	0x3e29db0d	0.16587467
232	0xbd95029a	-0.07275887
233	0xbdeb2e96	-0.11483495
234	0x3e9f1982	0.31074148
235	0x3d5e4e5f	0.05427396
236	0xbd3e25a9	-0.046422634
237	0xbdda05bb	-0.10645624
238	0xbe1300b7	-0.14355741
239	0x3ea9f607	0.33195516
240	0xbc808667	-0.015689088
241	0x3e41189f	0.18857048
242	0x3d046017	0.0323182
243	0x3e366b3c	0.17814344
244	0x3e444fc9	0.1917106
245	0x3d68317a	0.05668781
246	0xbd806d8f	-0.06270897
247	0xbdefa195	-0.11700741
248	0xbdb22949	-0.08699281
249	0xbd3546ca	-0.044256963
250	0xbf014869	-0.50501114
251	0x3c011ef4	0.007880915
252	0x3bf70279	0.0075381366
253	0xbd74dd4a	-0.05978135
254	0x3cd1dc25	0.025617668
255	0xbd7ff698	-0.06249103

controller.lstm.weight_hh f4 [400, 100]
0	0xbdd704cd	-0.104989626
1	0xbe39d735	-0.18148501
2	0xbd8c0301	-0.068365104
3	0xbe6f811d	-0.23389097
4	0x3cc3d4d4	0.023905195
5	0xbcf310ad	-0.029671038
6	0xbe4358b2	-0.19076803
7	0x3e3e7c21	0.18602039
8	0x3d279be5	0.040920157
9	0xbd8ded5c	-0.06930038
10	0xbd2bd221	-0.04194844
11	0xbb976328	-0.0046199746
12	0xbad1643f	-0.001597531
13	0x3e4788f1	0.19485833
14	0xbbdeccf5	-0.006799335
15	0x3d288f04	0.041152015
16	0x3c1141d4	0.008865792
17	0xbd0e4a69	-0.03473893
18	0x3d92f0f2	0.07174863
19	0x3d1bba8b	0.038019698
20	0xbbb2f00b	-0.0054607443
21	0xbd664b38	-0.056224078
22	0x3d824f58	0.0636279
23	0xbdd0b31e	-0.10190414
24	0xbda690ab	-0.08133062
25	0xb99c4d2d	-0.0002981214
26	0x3cffc671	0.031222554
27	0x3cb1ccb9	0.021704065
28	0xbd0ee3ef	-0.034885343
29	0x3d9e924c	0.07742748
30	0xbd290404	-0.041263595
31	0xbd65c671	-0.05609745
32	0x3d8419c0	0.06450224
33	0xbd586cec	-0.05283825
34	0xbe3bf66e	-0.18355724
35	0x3dd09b09	0.101858206
36	0x3d97ac60	0.07405925
37	0x3d1a762a	0.037710346
38	0x3ce6ac2f	0.028158275
39	0xbde9d9ec	-0.114185184
40	0x3c51b3e2	0.012799235
41	0x3b88f0a0	0.0041790754
42	0xbe281fed	-0.16418429
43	0xbe39594d	-0.18100472
44	0x3db0cc05	0.08632664
45	0x3c7a91fe	0.015293596
46	0x3d718597	0.05896529
47	0x3dcb0f69	0.09915049
48	0xbd5f47d7	-0.05451187
49	0xbe701b2d	-0.23447867
50	0xbcdd5e56	-0.027022522
51	0x3d2c5f36	0.042082988
52	0x3ca46c07	0.020071043
53	0x3e1e39e5	0.15451773
54	0xbbc4cc81	-0.006005824
55	0xbd94f803	-0.07273867
56	0xbdb216f5	-0.08695785
57	0xbd2b91c8	-0.041887075
58	0xbd40f0da	-0.047104694
59	0x3d7427d0	0.05960828
60	0x3e3e79c0	0.18601131
61	0xbc03d407	-0.008046157
62	0x3de8dc55	0.1137015
63	0xbc82fb30	-0.015988916
64	0x3e21a2d4	0.1578477
65	0x3cb7cf32	0.022437666
66	0x3d09bef1	0.03362936
67	0xbc804e8e	-0.015662458
68	0xbd81e03e	-0.06341599
69	0xbc00dc9c	-0.007865097
70	0x3dd0b668	0.10191041
71	0x3e0679f5	0.1313246
72	0xbdf8740a	-0.12131508
73	0x3dc271bf	0.094943516
74	0xbd3d2a1b	-0.046182733
75	0x3d3f82eb	0.046755712
76	0xbd2332d7	-0.039843407
77	0xbe069c00	-0.13145447
78	0xbdb65631	-0.089031585
79	0xbd4e7f8d	-0.05041461
80	0xbd12d69a	-0.03584919
81	0xbbb0667f	-0.0053833122
82	0x3d2d69ae	0.042337112
83	0x3d2a6ce4	0.041607752
84	0x3b728cc5	0.0037010175
85	0x3e8c0fce	0.27355808
86	0x3d892257	0.06696003
87	0xbd305c96	-0.043057047
88	0x3d86717b	0.065646134
89	0xbdcb48a8	-0.099259675
90	0x3c67d173	0.014149058
91	0xbe0bf8ba	-0.136691
92	0x3e6c8876	0.2309893
93	0xbdb0e3cd	-0.086371996
94	0x3db12933	0.08650436
95	0xbb0d4b35	-0.002155972
96	0x3bdb865a	0.0066993656
97	0x3cf69666	0.030101012
98	0xbdbd60de	-0.092469916
99	0x3cba7441	0.022760512
100	0xbd0c2ba9	-0.034221325
101	0x3d22c81a	0.039741613
102	0x3d04b4a3	0.03239883
103	0x3c413966	0.01179347
104	0xbda03eec	-0.078245014
105	0xbd5cf833	-0.05394764
106	0x3e27ccce	0.1638672
107	0x3af34d1e	0.0018562411
108	0x3d377643	0.044790518
109	0xbd7eac6d	-0.062176157
110	0x3db93611	0.090435155
111	0xbd1498c1	-0.03627849
112	0x3c199670	0.009374246
113	0x3df5668a	0.119824484
114	0xbd21c49a	-0.039494134
115	0x3b6859bd	0.0035453879
116	0xbc39a252	-0.011330204
117	0xbdfb8a05	-0.122821845
118	0xbd09cbdf	-0.033641692
119	0xbbbada5e	-0.005702301
120	0xbdad9575	-0.08475772
121	0xbdcecff7	-0.1009826
122	0xbcf29e17	-0.029616399
123	0xbc628143	-0.013824764
124	0x3b950516	0.0045477254
125	0xbc8a1494	-0.016855516
126	0xbd81ef84	-0.06344512
127	0xbd6a9426	-0.05727019
128	0xbd6c36ca	-0.05766944
129	0xbd174506	-0.03693106
130	0x3dfd2618	0.123607814
131	0x3e147bd8	0.14500368
132	0x3d63c02d	0.055603195
133	0xbc1ae487	-0.009453899
134	0x3c62bb22	0.013838561
135	0xbe250345	-0.16114528
136	0x3cdbcd01	0.026831152
137	0x3d173728	0.036917835
138	0xbd296c8f	-0.041363295
139	0xbbefccec	-0.0073181298
140	0xbda0c227	-0.078495316
141	0xbbf08b32	-0.007340812
142	0x3d251384	0.040301815
143	0xbd0bbf95	-0.034118254
144	0xbcd177a5	-0.025569746
145	0xbd169e74	-0.036772206
146	0xbd06749e	-0.03282606
147	0xbcb6cc59	-0.022314237
148	0x3d2e276a	0.042518057
149	0x3d4119d8	0.047143787
150	0xbd89c4ee	-0.067270145
151	0xbbec1470	-0.007204585
152	0x3bcece15	0.006311188
153	0xbc7247a1	-0.0147875855
154	0x3d4cd226	0.0500051
155	0x3d50bfea	0.050964274
156	0x3dc708a5	0.09718446
157	0x3d238545	0.039922018
158	0xbc49cd0e	-0.012316955
159	0x3cf498f0	0.029858083
160	0x3dc27506	0.09494977
161	0xbc9f2239	-0.019425498
162	0xbcb8725d	-0.02251547
163	0xbcc61fed	-0.024185145
164	0xbcfab640	-0.030604482
165	0x3d7659b5	0.060144145
166	0xbd98b975	-0.07457248
167	0xbd20bf96	-0.03924521
168	0xbd8751a8	-0.066073716
169	0xbdd6b67f	-0.10484027
170	0x3c366f06	0.0111348685
171	0xbd0aeb40	-0.033915758
172	0xbd150d3d	-0.036389578
173	0x3e116e4b	0.1420223
174	0x3ccb5380	0.02482009
175	0xbd57842b	-0.05261628
176	0x3d040cbe	0.032238714
177	0xbcf411f1	-0.029793711
178	0xbd8ad19e	-0.067782626
179	0x3daac57a	0.08338447
180	0x3d6d3725	0.057913918
181	0x3e0c5616	0.13704714
182	0x3db28f1a	0.08718701
183	0xbd26d885	-0.040733833
184	0x3c4238f2	0.011854397
185	0xbd29f125	-0.04148974
186	0xbc116631	-0.008874462
187	0x3d829a99	0.063771434
188	0xbd90b577	-0.07065862
189	0xb9f63625	-0.00046961117
190	0x3d2e9a0a	0.04262737
191	0x3d864307	0.06555753
192	0xbb982e8f	-0.004644222
193	0x3cbcee5e	0.023062881
194	0xbd78fb29	-0.0607864
195	0xbce83a5e	-0.028348144
196	0x3e133c6d	0.1437852
197	0xbb47c7c2	-0.0030484055
198	0xbda09627	-0.07841139
199	0x3cb268f9	0.02177857
200	0xbddb54f1	-0.10709561
201	0x3ee8f5ff	0.4550018
202	0x3e84ed55	0.2596232
203	0xbe71093c	-0.23538679
204	0x3d3da494	0.046299532
205	0x3e46c5ff	0.19411467
206	0x3e7238db	0.23654501
207	0x3ebb1d0d	0.365456
208	0xbee958f2	-0.45575672
209	0x3d181a8c	0.037134692
210	0xbf685f20	-0.9077015
211	0xbbf0d594	-0.0073496792
212	0xc00e1220	-2.2198563
213	0xbd6aec6c	-0.057354376
214	0xbe13195c	-0.14365143
215	0x3ba209eb	0.00494503
216	0xbda8d847	-0.08244377
217	0x3e771cda	0.241321
218	0x3d162d9c	0.03666459
219	0x3d7b9dd6	0.06142982
220	0x3eb463a1	0.3523226
221	0x3e26feb1	0.16308095
222	0xbd153b07	-0.036433246
223	0x3e0e7b99	0.13914336
224	0x3e8e4876	0.27789658
225	0xbb7f5340	-0.0038959533
226	0x3d197857	0.03746828
227	0x3ec87f6b	0.39159712
228	0xbe2f8905	-0.17142113
229	0x3dd0d33c	0.1019654
230	0xbe55c529	-0.20875992
231	0xbdc447bf	-0.09583997
232	0xbe04c12a	-0.12964311
233	0x3e06f844	0.13180643
234	0xbe2459ff	-0.16049956
235	0xbcdddd44	-0.027083047
236	0xbe63fb7e	-0.22263905
237	0xbe1adf70	-0.15124297
238	0xbd67a563	-0.05655421
239	0x3ee1a0b2	0.44067913
240	0x3d3330b1	0.043747608
241	0x3bed6a5b	0.0072453446
242	0xbdf9eb65	-0.12203101
243	0xbd380d47	-0.044934537
244	0x3d48c863	0.04901923
245	0x3ee714f2	0.45133168
246	0xbef38f2f	-0.47570178
247	0xbde362f7	-0.111028604
248	0x3cf0324e	0.029320862
249	0x3e6d15bb	0.23152821
250	0xbcd6b94e	-0.026211407
251	0xbd9949bb	-0.07484766
252	0xbd780e80	-0.060560703
253	0xbeb81f35	-0.3596131
254	0x3b99e913	0.004696974
255	0xbe4a9052	-0.19781616

controller.lstm.bias_ih f4 [400]
0	0x3d2e69d9	0.042581413
1	0x3e3d2e1a	0.18474618
2	0x3dc0222c	0.09381518
3	0x3d646380	0.055758953
4	0x3d959c89	0.07305247
5	0x3c45cd24	0.012072835
6	0x3e0630ab	0.13104503
7	0x3e4b5fdc	0.19860786
8	0x3dd9bcae	0.10631691
9	0x3dbb7a74	0.091542155
10	0x3e2fe902	0.17178729
11	0x3ca104a6	0.019655537
12	0xbd56cf18	-0.052443594
13	0x3e2b031d	0.16700406
14	0x3d373d68	0.044736296
15	0x3c35fd59	0.011107766
16	0xbbcc894d	-0.0062419535
17	0x3d99f27d	0.07516954
18	0x3d36180a	0.04445652
19	0x3d8a16a4	0.067425996
20	0x3dddee40	0.10836458
21	0x3ded8085	0.11596779
22	0x3cc5d87b	0.024151077
23	0x3e0164a4	0.12636048
24	0x3e3e786b	0.18600623
25	0x3d29efe8	0.041488558
26	0x3e40d0f9	0.18829717
27	0x3c0f5850	0.008749083
28	0x3d01e083	0.03170825
29	0x3b5112c5	0.0031902057
30	0x3da8c22f	0.082401626
31	0x3de49c35	0.111626066
32	0x3d89dea7	0.06731921
33	0x3df08f28	0.11746055
34	0x3d88cdf6	0.06679909
35	0xbca0088a	-0.019535322
36	0x3d21130e	0.039324813
37	0x3de392b3	0.11111965
38	0x3d0c5113	0.034257006
39	0x3e1d32bb	0.15351383
40	0x3dc069ef	0.09395205
41	0x3e25b9ac	0.1618411
42	0x3e300809	0.17190565
43	0xbd3285b3	-0.043584537
44	0x3da31edf	0.079648726
45	0x3aea334d	0.0017868072
46	0x3e0dccae	0.1384761
47	0x3d390507	0.04517081
48	0x3c349922	0.011022838
49	0x3e2203a4	0.15821701
50	0x3dec7252	0.11545242
51	0x3dc862c2	0.097844616
52	0xbcf7f13b	-0.030266395
53	0xbd1676ea	-0.0367345
54	0x3e0dda8b	0.13852899
55	0x3e063606	0.13106546
56	0x3dcd571a	0.10026379
57	0x3da2b7ad	0.079451896
58	0xbd434f20	-0.04768288
59	0x3dcfa8ce	0.10139619
60	0xbd77444e	-0.060367875
61	0x3d5cded2	0.053923436
62	0x3d829c9f	0.06377529
63	0x3e031462	0.12800744
64	0x3d98d367	0.07462197
65	0x3d892c40	0.06697893
66	0x3c86b965	0.016445825
67	0x3d34b5e0	0.044118762
68	0x3df14762	0.11781193
69	0x3bacd870	0.005274825
70	0x3dcc5772	0.09977616
71	0x3c77411d	0.015091208
72	0x3d76ee82	0.060286053
73	0x3db2b2e3	0.08725526
74	0xbc65b405	-0.014019971
75	0x3dd711f6	0.10501473
76	0x3ce6620d	0.028122926
77	0x3ca26b5a	0.01982658
78	0x3dba902e	0.09109531
79	0x3dd8921a	0.10574742
80	0x3e1f010c	0.15527743
81	0x3dc73506	0.0972691
82	0x3d9986b3	0.07496395
83	0x3d8cac55	0.06868807
84	0x3e14cca9	0.14531197
85	0x3d8c76b3	0.068585776
86	0xbd07a75e	-0.0331186
87	0xbc9ffa39	-0.019528495
88	0x3d32fecd	0.04370003
89	0xbcfab5b2	-0.030604217
90	0xbdda0ffa	-0.106475785
91	0x3dafa0b7	0.08575576
92	0x3d91f8c7	0.07127529
93	0x3dcc78f9	0.09984011
94	0x3da5f5fa	0.08103557
95	0x3d93a863	0.072098516
96	0x3de74ab6	0.11293547
97	0x3df4a06f	0.11944663
98	0x3cdd7a40	0.027035832
99	0x3d35b4b4	0.044361785
100	0xbca7204c	-0.020401143
101	0x3d1421b0	0.03616494
102	0x3debafd3	0.11508145
103	0xbb51df7b	-0.0032024074
104	0x3cec88e7	0.028873874
105	0x3e02fc53	0.12791567
106	0x3d00aedf	0.03141677
107	0x3e180ee9	0.14849438
108	0x3e0c9b80	0.13731194
109	0x3d1ff74b	0.039054196
110	0x3d310e03	0.043226253
111	0xbdab95c9	-0.083781786
112	0xbbee460c	-0.007271534
113	0xbcbc4b7f	-0.022985218
114	0xbc9c872d	-0.019107426
115	0x3d41c793	0.04730947
116	0x3db11f13	0.08648505
117	0x3d3d0f6e	0.046157293
118	0x3d949873	0.0725564
119	0x3d8c1d74	0.06841555
120	0x3d878557	0.066172294
121	0x3da2fbaf	0.07958161
122	0x3d57a2bb	0.052645426
123	0x3da1ad15	0.07894341
124	0x3db757ca	0.08952291
125	0x3de2304c	0.11044368
126	0x3e15f185	0.14642914
127	0x3db44633	0.08802452
128	0x3c1dda34	0.009634543
129	0x3d334185	0.043763656
130	0x3d177568	0.0369772
131	0x3db5169f	0.08842205
132	0x3d8d137d	0.06888483
133	0x3e2aa52d	0.16664572
134	0x3d1677d1	0.03673536
135	0x3da776fd	0.08176992
136	0x3d33cf24	0.043898717
137	0x3cf1fa57	0.029538317
138	0x3d625795	0.055259306
139	0xbd9de149	-0.07708985
140	0x3d8a1732	0.067427054
141	0x3de0a419	0.10968799
142	0x3d4029af	0.046914753
143	0xbdfdd381	-0.12393857
144	0x3d7a4e52	0.06110985
145	0xbce43cf5	-0.027861098
146	0x3cfe1331	0.03101501
147	0x3dadcf51	0.08486808
148	0xbd0a12eb	-0.033709448
149	0x3dc21433	0.09476509
150	0x3d8c5620	0.068523645
151	0x3d2b6e82	0.041853435
152	0xbd128c4a	-0.03577832
153	0xbc2eff41	-0.010680974
154	0x3e153bf5	0.14573653
155	0x3d8cf677	0.06882947
156	0x3c92adca	0.017905135
157	0xbcecd18e	-0.028908517
158	0xbc9ddec9	-0.019271271
159	0x3d5e5f1e	0.05428993
160	0x3dcae9a9	0.099078484
161	0x3d317607	0.04332545
162	0x3e05a6a2	0.13051847
163	0x3cf80cc3	0.030279523
164	0x3ac61790	0.0015113223
165	0xbca34e5f	-0.019934831
166	0x3d0a806b	0.033813875
167	0xbce9f5f1	-0.028559657
168	0x3d8c07e8	0.068374455
169	0x3db4bb0b	0.08824738
170	0xbca8163c	-0.020518415
171	0xbd1d4ecc	-0.038405225
172	0x3d949d01	0.072565086
173	0x3daab2a0	0.08334851
174	0x3d0a81b3	0.033815097
175	0x3da26e29	0.07931168
176	0x3d6d6553	0.05795796
177	0x3d031cd3	0.03200991
178	0x3d52d694	0.05147417
179	0xbdc3fbfe	-0.09569548
180	0xbcc79450	-0.024362713
181	0x3d7a4feb	0.061111372
182	0x3d644e44	0.055738702
183	0x3ccc85a5	0.02496607
184	0x3d8dc840	0.0692296
185	0x3db745ae	0.08948837
186	0xbc71cf38	-0.014758877
187	0xbdbc83f7	-0.09204858
188	0x3c9114a9	0.017710047
189	0x3c27cbb9	0.010241442
190	0x3d2e25d4	0.042516544
191	0x3dbda245	0.09259466
192	0x3cb94614	0.022616424
193	0x3d16580d	0.036705066
194	0x3d84cd34	0.06484452
195	0xbd05343f	-0.03252053
196	0x3db1b536	0.08677141
197	0x3cf13da6	0.029448342
198	0x3e1d2c79	0.15348996
199	0x3d72e0a3	0.05929626
200	0x3d64fe49	0.055906568
201	0x3aa4639d	0.0012541894
202	0x3c771efc	0.015083071
203	0xbc10900a	-0.008823404
204	0xbdb5a0d7	-0.088685684
205	0x3bf05055	0.007333795
206	0xbb741fda	-0.003725043
207	0x3d25c567	0.04047146
208	0xbbd5ae77	-0.006521042
209	0xbdae5cd6	-0.08513801
210	0xbb8e2818	-0.0043382756
211	0x3e110b5d	0.14164491
212	0x3db895cc	0.090129465
213	0xbcef169e	-0.02918559
214	0x3dbe3cd1	0.092889436
215	0xbdacd32d	-0.08438716
216	0xbc2151c5	-0.0098461555
217	0xbda7050d	-0.0815526
218	0xbdb3f60b	-0.08787163
219	0xbdc8416b	-0.097781025
220	0xbdfbfbf3	-0.12303915
221	0xbdfef18a	-0.12448414
222	0x3e08aef8	0.13347995
223	0xbd9a77f9	-0.07542414
224	0x3d56f362	0.0524782
225	0x3dba27b8	0.09089607
226	0xbdf0dd9e	-0.1176102
227	0x3ceab7c8	0.028652087
228	0xbe07b05f	-0.13250874
229	0xbd8e252d	-0.069406845
230	0x3dea8bdd	0.11452458
231	0x3df51ad2	0.11968006
232	0x3dcfada2	0.1014054
233	0xbe205577	-0.15657602
234	0xbcb30232	-0.021851633
235	0xbc4fb3b1	-0.012677119
236	0x3dad4f58	0.08462399
237	0xbd4e0d8c	-0.050305888
238	0xbd056dbd	-0.032575358
239	0xbdb1388e	-0.08653365
240	0xbdd45439	-0.10367627
241	0xbd2bd941	-0.041955236
242	0xbcf29ea4	-0.029616661
243	0x3c3f56e4	0.011678431
244	0x3c87b2e5	0.016564796
245	0x3b495b94	0.003072475
246	0x3e02c413	0.12770109
247	0xbd8342b3	-0.06409206
248	0x3b49e0f6	0.0030804253
249	0xbd56524e	-0.052324586
250	0xbe0554eb	-0.13020675
251	0x3d1b1ae6	0.03786745
252	0x3a59022f	0.00082782184
253	0xbe4a5c0b	-0.19761674
254	0x3db4990e	0.08818255
255	0x3da77d2d	0.08178172

controller.lstm.bias_hh f4 [400]
0	0x3d046fcf	0.03233319
1	0x3e1d11d8	0.15338838
2	0x3e054e10	0.1301806
3	0x3d531d5e	0.05154168
4	0x3d92d95c	0.07170364
5	0x3d2da5ec	0.042394564
6	0x3dedc106	0.11609082
7	0x3e3f18bd	0.1866178
8	0x3d838699	0.06422157
9	0x3dae97ce	0.08525048
10	0x3e275811	0.16342188
11	0x3ac31db6	0.0014886174
12	0x3be25c7d	0.006907998
13	0x3e089ab6	0.13340268
14	0x3cf96d01	0.030447485
15	0x3cd422f4	0.025895573
16	0x3c4b6a6e	0.0124155115
17	0x3dda02e4	0.106450826
18	0x3d17070a	0.036871947
19	0x3d83a90e	0.06428729
20	0x3de25e59	0.11053152
21	0x3dee2f4b	0.11630114
22	0x3d4d5efe	0.05013942
23	0x3e02083b	0.12698452
24	0x3e2debaf	0.16984437
25	0x3d0bbd5e	0.03411614
26	0x3da11563	0.07865407
27	0x3bb95ae6	0.005656588
28	0x3cdcec64	0.026968189
29	0x3ca5ca71	0.020238133
30	0x3daf8cb7	0.08571761
31	0x3de06308	0.10956389
32	0x3d8f561b	0.06998845
33	0x3dd1fd0b	0.10253342
34	0x3d7297ef	0.059226926
35	0xbced1131	-0.028938862
36	0x3d9b25c5	0.07575563
37	0x3e2737eb	0.16329925
38	0x3d01aa03	0.031656276
39	0x3dc76d1c	0.09737608
40	0x3dbef205	0.09323505
41	0x3dda2d2e	0.106531486
42	0x3e23ed5e	0.16008517
43	0xbd901c06	-0.07036595
44	0x3dafa8ae	0.08577095
45	0xbd0e3bfe	-0.03472518
46	0x3de457f0	0.11149585
47	0x3d830b8d	0.063986875
48	0xbc155762	-0.009115072
49	0x3e27fbc5	0.16404636
50	0x3db7e23a	0.08978696
51	0x3dc599f1	0.096485026
52	0xbda26047	-0.0792852
53	0x3cab9be3	0.020948356
54	0x3e08bc79	0.13353147
55	0x3e02b41b	0.12764017
56	0x3da58a1f	0.08082985
57	0x3c4727f8	0.012155525
58	0xbd55c411	-0.052188937
59	0x3dc2c5c2	0.095103756
60	0x3c2b48ce	0.01045437
61	0x3d1d8483	0.03845645
62	0x3c512364	0.012764785
63	0x3ddff4e7	0.10935383
64	0x3dc59c92	0.09649004
65	0x3c8a41bc	0.016877048
66	0x3c2ce66a	0.010552982
67	0x3caaf135	0.02086697
68	0x3ddccf4f	0.107817285
69	0xbd0d3d08	-0.034482032
70	0x3e0fd366	0.14045486
71	0x3cd33151	0.025780352
72	0x3dd21ab4	0.102589995
73	0x3dbbd987	0.091723494
74	0x3d197c20	0.03747189
75	0x3da3a498	0.07990378
76	0x3b08289c	0.0020776158
77	0x3d194a05	0.037424106
78	0x3dbf43f9	0.09339137
79	0x3ded64f8	0.11591524
80	0x3deed1af	0.11661088
81	0x3dbb6a47	0.0915113
82	0x3d845dff	0.06463241
83	0x3d8f30e6	0.069917485
84	0x3e025afd	0.12730022
85	0x3d8c58ce	0.06852876
86	0xbd67053c	-0.056401476
87	0xbbdcf3cb	-0.0067429296
88	0x3d2820e3	0.04104699
89	0xbd603d90	-0.05474621
90	0xbdd13f9b	-0.1021721
91	0x3de32be0	0.11092353
92	0x3d39c111	0.045350138
93	0x3d5af1b3	0.05345316
94	0x3daeb58c	0.08530721
95	0x3d9436ce	0.07237016
96	0x3de618c6	0.11235194
97	0x3df67de3	0.1203573
98	0x3d853bc6	0.065055415
99	0x3d5ab7eb	0.053398054
100	0xbca25f3c	-0.019820802
101	0x3de42630	0.11140096
102	0x3e075f93	0.13220052
103	0xbbddc623	-0.0067680045
104	0xbcc5ad6f	-0.024130551
105	0x3db6d74a	0.08927782
106	0x3c3fc52c	0.011704724
107	0x3e2254c5	0.1585265
108	0x3e0c6c62	0.1371322
109	0x3d1f89be	0.03894972
110	0x3d445171	0.04792923
111	0xbd8d6ca2	-0.06905486
112	0x3dc96ca2	0.09835173
113	0xbd522139	-0.051301215
114	0xbcbf54bd	-0.023355836
115	0x3d579805	0.05263521
116	0x3dad120d	0.084507085
117	0x3cc5a63d	0.02412712
118	0x3d95c6b5	0.07313291
119	0x3d8e393d	0.06944511
120	0x3d87acde	0.06624769
121	0x3da29dd1	0.07940257
122	0x3d4b34fa	0.04961107
123	0x3d9c8d7b	0.07644173
124	0x3dc39acd	0.0955101
125	0x3dd86c7a	0.10567565
126	0x3e0392cc	0.12848967
127	0x3db4aa9c	0.08821604
128	0xbc4de175	-0.01256596
129	0x3d019531	0.03163642
130	0x3d1fd865	0.03902473
131	0x3db4bd99	0.088252254
132	0x3d8d8684	0.069104224
133	0x3e321d43	0.17393975
134	0x3c920ea7	0.017829252
135	0x3da08d23	0.0783942
136	0x3d47c21d	0.048769105
137	0x3d2e1ac2	0.042505987
138	0x3d4b18f3	0.04958434
139	0xbd7dbc24	-0.061947003
140	0x3d8a11fc	0.067417115
141	0x3d9eb75c	0.07749817
142	0x3d90d415	0.070717014
143	0xbd896317	-0.06708353
144	0x3d86fe69	0.06591494
145	0x3d47d0e1	0.048783187
146	0x3d5b9824	0.05361189
147	0x3d0d12d1	0.034441773
148	0xbd364df5	-0.04450794
149	0x3e0a9d2e	0.13536522
150	0x3d8bd210	0.068271756
151	0x3d353f4a	0.04424981
152	0xbd251adb	-0.040308814
153	0x3d2395ce	0.039937787
154	0x3dedfef8	0.11620897
155	0x3d67cf10	0.056593955
156	0x3dfbdf58	0.12298459
157	0xbd00ae0a	-0.031415977
158	0xbc9c8100	-0.01910448
159	0x3c1c0a3f	0.009523927
160	0x3d1d56f5	0.038413007
161	0x3d59e683	0.05319835
162	0x3dd18395	0.102301754
163	0x3cd20da5	0.025641272
164	0x3c82f47a	0.015985716
165	0xbd3ac4bb	-0.045597773
166	0x3d75d44e	0.060016923
167	0xbadf9c0b	-0.0017060054
168	0x3d8d383b	0.06895491
169	0x3da830e5	0.08212451
170	0x3a91370f	0.0011079031
171	0xbd22dc0f	-0.039760645
172	0x3c5abf2c	0.013351243
173	0x3daac956	0.08339183
174	0x3ca6657c	0.020312063
175	0x3d918dc2	0.07107116
176	0x3d8eb481	0.06968022
177	0x3d72329c	0.059130296
178	0x3d4ab0e9	0.04948512
179	0xbd38475c	-0.04498993
180	0x3dbc07fb	0.0918121
181	0x3d7a240f	0.061069544
182	0x3d644540	0.055730104
183	0x3dd40c2c	0.10353884
184	0x3d80096f	0.06251799
185	0x3d08f20c	0.03343396
186	0x3c2e38e5	0.010633682
187	0xbd60abd8	-0.054851383
188	0x3c808513	0.015688455
189	0x3dee328f	0.11630737
190	0x3dda3349	0.10654313
191	0x3dc4588a	0.095872
192	0x3d29003f	0.04126
193	0x3d190111	0.037354533
194	0x3d82c2f4	0.063848406
195	0xbca2045f	-0.019777475
196	0x3db1cf06	0.08682065
197	0xbc6c48fe	-0.0144217
198	0x3e0dc46d	0.13844462
199	0x3d68b246	0.05681064
200	0x3d738975	0.05945726
201	0xbda14bc3	-0.078757785
202	0x3d69bce9	0.057064924
203	0x3c0fd0ea	0.008777836
204	0xbdaa8a19	-0.08327121
205	0xbd2c1e8f	-0.04202133
206	0xbbe74620	-0.00705792
207	0x3e0f5bc4	0.1399985
208	0xbbce7508	-0.0063005723
209	0xbd92ed6d	-0.071741916
210	0xbafbfe58	-0.0019225581
211	0x3decbe88	0.115597785
212	0x3b78ca16	0.003796225
213	0xbcdaaaa7	-0.026692702
214	0x3d8ce582	0.06879713
215	0xbd9a9071	-0.07547081
216	0x3c9735cf	0.018458275
217	0xbe0e7265	-0.13910826
218	0xbdc161c8	-0.094424784
219	0xbda304c3	-0.079598926
220	0xbdf847ee	-0.121230945
221	0xbdf30b40	-0.1186738
222	0x3d4d760f	0.050161418
223	0xbd9c7e2f	-0.07641255
224	0x3e0a42be	0.13502023
225	0xbb1434d7	-0.0022614503
226	0x3d55d8fa	0.052208878
227	0xbd5978cc	-0.053093717
228	0xbda8c38c	-0.082404226
229	0x3cafe72f	0.021472542
230	0x3defb4e1	0.11704422
231	0x3df5505c	0.11978218
232	0x3dce13a8	0.10062343
233	0xbd8ad38a	-0.06778629
234	0x3ccc1a2f	0.024914829
235	0x3e002b5b	0.12516539
236	0x3da9fe72	0.08300485
237	0xbdb79d56	-0.08965556
238	0x3cacb442	0.021082047
239	0xbe125105	-0.14288719
240	0xbdde4892	-0.108536854
241	0xbc747da7	-0.014922536
242	0xbd919a0d	-0.07109461
243	0xbdb6492a	-0.08900674
244	0xbbcc7e31	-0.006240629
245	0xbc284f8d	-0.010272873
246	0x3e13cb99	0.14433135
247	0x3ca2a175	0.01985238
248	0xbd1f8894	-0.03894861
249	0xbdd9d69a	-0.10636635
250	0xbddf4c4a	-0.10903223
251	0x3d44833b	0.047976714
252	0x3b6b96aa	0.0035947957
253	0xbe365b48	-0.17808259
254	0x3d836e9d	0.06417582
255	0x3d84764b	0.06467875

controller.fc_out.weight f4 [1000, 100]
0	0x3c8b5a28	0.017010763
1	0xbecdf3e0	-0.40225124
2	0xbed31746	-0.41228694
3	0x3e3f4897	0.18680035
4	0xbe093a2d	-0.13401099
5	0x3d750ed1	0.059828583
6	0xbe217f68	-0.15771258
7	0x3f082439	0.5318027
8	0xbce03bc0	-0.027372241
9	0xbf00ad11	-0.5026408
10	0x3e1d3919	0.15353812
11	0x3ef16d7a	0.47153836
12	0xbdfbd3cc	-0.122962564
13	0xbf3382b5	-0.7012132
14	0x3e51e7f3	0.20498638
15	0xbe92902b	-0.28625616
16	0xbbafed37	-0.0053688544
17	0xbea3a23d	-0.31959715
18	0xbe706acf	-0.23478244
19	0xbe3009f9	-0.17191304
20	0xbf158928	-0.5841241
21	0xbebac46c	-0.36477983
22	0x3dd20c06	0.102561995
23	0xbefc21fe	-0.49244684
24	0x3f1a9b81	0.6039353
25	0x3e28e76e	0.16494533
26	0xbeac8d98	-0.33701777
27	0x3e5ab6e7	0.21358834
28	0xbed26968	-0.41096044
29	0x3d1881a3	0.037233006
30	0x3eff0fc1	0.49816707
31	0x3ef86590	0.48514986
32	0x3eab2fac	0.33434808
33	0xbefe7f16	-0.49706334
34	0xbcd08d3a	-0.025457967
35	0x3ed04764	0.40679467
36	0x3eac5625	0.33659473
37	0xbf1ff8a8	-0.62488794
38	0x3e666d06	0.22502527
39	0xbf392d84	-0.72335076
40	0xbeed5e71	-0.46361116
41	0xbef722b8	-0.48268676
42	0xbf09fb7e	-0.5389937
43	0xbe684c9e	-0.22685477
44	0x3e19ba1b	0.150124
45	0xbd29e80d	-0.041481066
46	0x3f38abd5	0.72137195
47	0xbebc1142	-0.36731917
48	0x3e17cdde	0.14824626
49	0xbf33d81d	-0.7025164
50	0xbef9728f	-0.48720214
51	0x3ebcbc54	0.36862433
52	0xbd04550e	-0.032307677
53	0xbf114243	-0.5674173
54	0x3efbf24d	0.49208298
55	0x3f0367ce	0.5133027
56	0xbef80734	-0.48442996
57	0x3e9b2839	0.30304125
58	0xbdf0acc7	-0.11751705
59	0xbf396554	-0.7242024
60	0xbab2c99e	-0.0013640409
61	0xbe8d87f5	-0.2764279
62	0x3d8889d8	0.066669166
63	0xbf4148f1	-0.75501925
64	0x3f494d92	0.7863399
65	0x3ed63ab6	0.41841668
66	0x3e3c78af	0.18405412
67	0xbf26b792	-0.65123856
68	0xbea31d5f	-0.31858346
69	0x3f06ca28	0.52652216
70	0xbf0bd376	-0.5461954
71	0x3d8465f5	0.06464759
72	0xbed1b920	-0.40961552
73	0x3ead9940	0.33905983
74	0xbe6c39c4	-0.23068911
75	0x3f75c923	0.96010035
76	0xbe87173a	-0.26384908
77	0xbe1f8e86	-0.15581712
78	0xbece5a2a	-0.40303165
79	0x3f008d76	0.5021585
80	0xbf077c5e	-0.52924144
81	0x3ecd0bb5	0.40047994
82	0x3edefacd	0.4355072
83	0xbe8ae2e9	-0.27126244
84	0xbf24907c	-0.64282966
85	0x3e81c559	0.25345877
86	0xbdcf1e9b	-0.101132594
87	0xbde90d1d	-0.11379454
88	0xbecefe28	-0.4042828
89	0x3e099b08	0.13438046
90	0xbc4c3fe9	-0.012466409
91	0xbe4d9ae3	-0.20078616
92	0x3ee2bace	0.44283146
93	0xbea73ff7	-0.3266599
94	0xbe93b923	-0.28852186
95	0xbebb99fd	-0.3664092
96	0x3ee17813	0.44036922
97	0x3eabe324	0.33571732
98	0xbeb43af6	-0.35201234
99	0xbe80447f	-0.25052258
100	0xbd66e59d	-0.05637132
101	0xbf85425e	-1.0410879
102	0x3e0fd7e3	0.14047198
103	0xba924920	-0.0011160709
104	0xbe8e2ed5	-0.27770105
105	0x3f7a5c83	0.9779741
106	0xbf65dc76	-0.8978952
107	0xbeeb4c4e	-0.45956653
108	0xbd8e23f2	-0.0694045
109	0x3d52f19c	0.051499948
110	0xbc18b1d5	-0.009319742
111	0x3de33be4	0.110954076
112	0x3f6c717f	0.9236068
113	0xbf86ecd6	-1.0541027
114	0x3c6e50ba	0.014545614
115	0x3d848b96	0.064719364
116	0xbe12c538	-0.14333045
117	0xbeb07ad8	-0.34468722
118	0xbe7eb134	-0.24872285
119	0xbdcd64d3	-0.10028996
120	0xbe8926d2	-0.2678743
121	0x3eec90a9	0.46204117
122	0x3ee12960	0.4397688
123	0xbd7398fd	-0.059472073
124	0xbf6e7ea0	-0.93161964
125	0x3da2e60d	0.07954035
126	0xbeda90b9	-0.4268854
127	0xbdf49eb5	-0.119443335
128	0xbe003c4a	-0.12522998
129	0xbf76c834	-0.96399236
130	0xbf8392ac	-1.0279136
131	0xbf131244	-0.57449746
132	0x3e080e4d	0.13286705
133	0xbe6c5538	-0.23079383
134	0x3deb4fbe	0.11489819
135	0xbd20508b	-0.03913931
136	0xbe50e9a7	-0.20401631
137	0x3eb2d2ec	0.34926546
138	0xbeb488f8	-0.3526075
139	0x3f1a394c	0.6024368
140	0x3eb10eb2	0.34581524
141	0x3ebb3139	0.3656099
142	0xbe377be2	-0.17918351
143	0xbc46b5ed	-0.012128335
144	0x3fa12860	1.2590446
145	0xbdb3fe64	-0.087887555
146	0xbdf9c069	-0.121949024
147	0x3ea68568	0.32523656
148	0x3e534c5c	0.20634598
149	0x3f4a4e13	0.7902538
150	0xbdf180f7	-0.11792176
151	0xbd31cc34	-0.043407634
152	0x3d50264b	0.05081777
153	0xbf1820f2	-0.5942527
154	0x3ededac1	0.4352627
155	0xbf91a9da	-1.137996
156	0xbfa5b96d	-1.2947212
157	0xbdb455c4	-0.08805421
158	0xbd9eb51f	-0.0774939
159	0x3e8e5218	0.27797008
160	0x3e96c0f6	0.29444093
161	0x3eda7ea7	0.42674753
162	0xbf0a40b2	-0.5400497
163	0xbef48d8b	-0.4776424
164	0xbf1bd57c	-0.60872626
165	0xbec94902	-0.39313513
166	0x3f942404	1.1573491
167	0xbf88b0ad	-1.0678917
168	0x3f0fb02b	0.56128186
169	0xbf85dc16	-1.045779
170	0x3f8a3a92	1.0799124
171	0x3ba27bd0	0.0049586073
172	0xbf1f6588	-0.622643
173	0xbf8d1a39	-1.1023628
174	0x3dfae313	0.12250342
175	0xbf00370b	-0.5008399
176	0x3e84e713	0.25957546
177	0x3ea8255f	0.32841012
178	0xbdb2f749	-0.08738572
179	0xbf842a44	-1.0325398
180	0x3d7c85b2	0.06165094
181	0x3d83a9a6	0.06428842
182	0xbe5c7dfa	-0.21532431
183	0xbe58ceae	-0.21172592
184	0x3eae1317	0.3399894
185	0xbdfb2597	-0.12263029
186	0x3dce9c23	0.100883745
187	0x3e0603fc	0.13087457
188	0x3cdb0ef8	0.026740536
189	0x3eddc441	0.43313792
190	0xbe990f69	-0.2989457
191	0xbf99fc19	-1.2030059
192	0x3eb58278	0.35451102
193	0x3e09ec12	0.1346896
194	0xbe0e6ebc	-0.1390943
195	0xc02b8e37	-2.680555
196	0xbf651f38	-0.8950076
197	0xbf92ae8f	-1.1459521
198	0x402bdc97	2.6853387
199	0x3c84bf3d	0.01620447
200	0x3dcf67e7	0.1012724
201	0x3eef6034	0.46753085
202	0xc004f90f	-2.0777013
203	0xbe8c1917	-0.27362892
204	0xbed1c154	-0.4096781
205	0xbd97d850	-0.07414305
206	0x3e9c823d	0.30568114
207	0x3f0b7fcd	0.54491884
208	0x3f8c0e46	1.0941856
209	0xbe60032c	-0.2187621
210	0x3f8a1767	1.0788392
211	0xbeabb657	-0.33537552
212	0x3fb2e705	1.3976752
213	0x3f350a76	0.7071909
214	0x3e6b507f	0.22979926
215	0xbe7b2992	-0.24527577
216	0xbe8ac43e	-0.27102846
217	0xbf3425f0	-0.7037039
218	0xbf0c485b	-0.54797906
219	0xbe113071	-0.14178635
220	0x3dafdf7d	0.08587549
221	0xbf21b844	-0.6317179
222	0xbd2071b6	-0.039170943
223	0x3e5cf24c	0.21576804
224	0xbef8ee87	-0.48619482
225	0xbf37cae5	-0.7179397
226	0xbe383bea	-0.17991605
227	0xbf4bd30b	-0.796189
228	0xbdc70fd8	-0.09719819
229	0xbea8dad5	-0.32979456
230	0x3f02cb9a	0.5109192
231	0x3f77058d	0.96492845
232	0x3ec693da	0.38784677
233	0xbf0646b5	-0.5245164
234	0x3e47d3a5	0.1951433
235	0x3e84d3a9	0.25942734
236	0x3ee182dc	0.4404515
237	0xc008f0a2	-2.139687
238	0xbea60fd2	-0.32433945
239	0x3de3bd7e	0.11120127
240	0xbe7819b3	-0.24228553
241	0xbf09888c	-0.5372398
242	0x3ea9cc1e	0.33163542
243	0x3d8eb918	0.069688976
244	0xbf77f6a0	-0.96860695
245	0xbf461b2d	-0.77385217
246	0xbe399652	-0.18123749
247	0x3f66d21f	0.9016437
248	0x3e98c239	0.2983568
249	0xbfef8f19	-1.8715545
250	0xbe559138	-0.20856178
251	0x3da76b9b	0.08174821
252	0x3e81f989	0.25385693
253	0x3f588e61	0.8459225
254	0xbe35a94a	-0.1774036
255	0x3fbfc1d0	1.4981022

controller.fc_out.bias f4 [1000]
0	0x3f8ee004	1.1162114
1	0x3d5f6283	0.054537307
2	0x3e5fcd8c	0.21855754
3	0x3e435b6c	0.19077843
4	0x3e4e04f7	0.20119081
5	0xbba9308d	-0.0051632584
6	0xbd32f1a3	-0.043687474
7	0x3ed53e41	0.41649058
8	0x3e9ce31d	0.30642024
9	0x3e4ef3c5	0.20210178
10	0x3e34d4ba	0.17659274
11	0xbd9ea27b	-0.077458344
12	0xbc15961f	-0.00913003
13	0xbcdee0c9	-0.027206795
14	0xbcd8d9ed	-0.026471103
15	0x3d0e6270	0.034761846
16	0xbe49c5b3	-0.19704323
17	0xbc1dd7a0	-0.009633929
18	0x3dffbe86	0.12487511
19	0x3c8472dc	0.01616805
20	0xbdd8baa9	-0.105824776
21	0xbdacaadd	-0.08431027
22	0x3cacf800	0.02111435
23	0x3d9fedf1	0.078090556
24	0x3c44c115	0.012008925
25	0xbd439e5e	-0.047758453
26	0x3ca0ba1b	0.019619992
27	0x3d655e36	0.05599805
28	0x3dea0a5d	0.11427758
29	0x3e1e3c1e	0.1545262
30	0x3e72c0ef	0.23706411
31	0x3e001a99	0.12510146
32	0x3c775254	0.015095312
33	0x3cdda428	0.027055815
34	0xbbaaaa43	-0.005208285
35	0xbbab6711	-0.0052307923
36	0xbbaadea3	-0.0052145286
37	0xbbabf9a0	-0.0052482635
38	0xbbab4f05	-0.0052279257
39	0xbbab1357	-0.0052208113
40	0xbba9e648	-0.0051849224
41	0xbbab82a8	-0.0052340813
42	0xbbab18fd	-0.0052214847
43	0xbbab5d7c	-0.00522965
44	0xbbab2b4a	-0.0052236663
45	0xbba935e7	-0.0051638964
46	0xbbabf14c	-0.0052472707
47	0xbbaa7740	-0.005202204
48	0xbbabd8b0	-0.005244337
49	0xbba7f9d8	-0.0051262192
50	0xbbaaa52f	-0.0052076797
51	0xbbabc98a	-0.005242531
52	0xbbaa323b	-0.005193976
53	0xbbab7542	-0.005232484
54	0xbbab604f	-0.0052299867
55	0xbbaa95dc	-0.005205853
56	0xbba96685	-0.005169692
57	0xbbab4e7b	-0.0052278615
58	0xbbac0376	-0.005249436
59	0xbbaabc5c	-0.0052104425
60	0xbbabf806	-0.0052480726
61	0xbbaa1a39	-0.0051911143
62	0xbbaa40f5	-0.0051957318
63	0xbbab5d94	-0.0052296612
64	0xbbaaf597	-0.005217265
65	0xbbaaebf9	-0.0052161184
66	0xbba9e840	-0.005185157
67	0xbbac1466	-0.005251455
68	0xbbab0cda	-0.005220038
69	0xbbaba0d0	-0.005237676
70	0xbbabdfed	-0.0052452
71	0xbbabb875	-0.005240495
72	0xbba9d31f	-0.0051826383
73	0xbbabb86d	-0.005240491
74	0xbbab7855	-0.0052328506
75	0xbbaa8e7e	-0.0052049747
76	0xbba97c64	-0.005172299
77	0xbbab39b4	-0.0052253846
78	0xbbabfb6a	-0.0052484768
79	0xbba9053a	-0.0051580938
80	0xbbab894d	-0.0052348734
81	0xbba9fd09	-0.005187635
82	0xbbabff76	-0.005248959
83	0xbbabb894	-0.0052405093
84	0xbbaa4d96	-0.0051972372
85	0xbba9232a	-0.0051616626
86	0xbbabebb7	-0.0052466053
87	0xbbab203f	-0.00522235
88	0xbbaad81c	-0.0052137505
89	0xbba9d7db	-0.0051832027
90	0xbbaa99d6	-0.005206327
91	0xbbaab89f	-0.005209997
92	0xbbab8b37	-0.0052351016
93	0xbba99d1e	-0.0051762005
94	0xbbab289c	-0.005223347
95	0xbbab1e88	-0.0052221455
96	0xbbaaa3b1	-0.005207502
97	0xbbab3394	-0.0052246545
98	0xbbab9231	-0.0052359332
99	0xbbab0523	-0.005219118
100	0xbba9c6a5	-0.005181151
101	0xbbaa1ac2	-0.005191178
102	0xbbabf924	-0.0052482057
103	0xbbabee5f	-0.005246922
104	0xbbaa51b5	-0.0051977285
105	0xbba9d208	-0.0051825084
106	0xbbaa1d41	-0.0051914756
107	0xbbab01b8	-0.0052187108
108	0xbbabc691	-0.005242177
109	0xbba86043	-0.0051384284
110	0xbbabc2bf	-0.0052417214
111	0xbbaa35be	-0.005194395
112	0xbbabe063	-0.005245255
113	0xbba790fc	-0.005113719
114	0xbbabb50c	-0.0052400883
115	0xbbaa5c66	-0.005199003
116	0xbba9e87c	-0.005185185
117	0xbbaa8ce0	-0.005204782
118	0xbbaaffbe	-0.005218475
119	0xbbab6e42	-0.0052316496
120	0xbba997cc	-0.0051755663
121	0xbba94c1e	-0.0051665446
122	0xbbab35cd	-0.0052249194
123	0xbbab01a8	-0.0052187033
124	0xbbab0792	-0.0052194083
125	0xbbaab215	-0.0052092173
126	0xbbaa0c54	-0.005189458
127	0xbba85864	-0.00513749
128	0xbbaac019	-0.005210888
129	0xbbab2995	-0.005223463
130	0xbbab9d1b	-0.0052372343
131	0xbbab4186	-0.005226317
132	0xbba98804	-0.005173685
133	0xbbaa3d9b	-0.005195332
134	0xbbaa19c6	-0.0051910607
135	0xbbab28e0	-0.0052233785
136	0xbbaa8066	-0.0052032946
137	0xbbaaacf5	-0.0052086064
138	0xbbab90ee	-0.005235783
139	0xbbaba58f	-0.005238242
140	0xbbabc26a	-0.005241682
141	0xbba9ef9d	-0.005186035
142	0xbbab8860	-0.005234763
143	0xbba9913b	-0.0051747835
144	0xbbab8e8a	-0.005235498
145	0xbba89f3c	-0.0051459353
146	0xbbabd0fb	-0.0052434183
147	0xbbaa5e0a	-0.0051991986
148	0xbbab7000	-0.0052318573
149	0xbba87c5c	-0.005141778
150	0xbbaac810	-0.0052118376
151	0xbbaa91e8	-0.0052053817
152	0xbbaaba64	-0.005210208
153	0xbba83ceb	-0.005134215
154	0xbbac0583	-0.0052496805
155	0xbbabd138	-0.0052434467
156	0xbba98921	-0.0051738177
157	0xbbabe9c7	-0.0052463743
158	0xbbac0e51	-0.00525073
159	0xbbaa62e9	-0.0051997793
160	0xbbaad58e	-0.005213446
161	0xbbab8168	-0.0052339323
162	0xbbabd481	-0.0052438383
163	0xbbaaa2d7	-0.0052074003
164	0xbbab2d7e	-0.005223929
165	0xbbabf354	-0.005247513
166	0xbba9be7d	-0.0051801787
167	0xbba9b45c	-0.005178971
168	0xbbaae389	-0.0052151126
169	0xbbabfece	-0.005248881
170	0xbba9e09b	-0.0051842458
171	0xbbac1197	-0.0052511203
172	0xbba9f35c	-0.0051864814
173	0xbba9eb0e	-0.0051854914
174	0xbbaadef3	-0.005214566
175	0xbbaa02a0	-0.005188301
176	0xbbaa3fa7	-0.005195576
177	0xbbab5b1e	-0.005229368
178	0xbbaacce3	-0.0052124127
179	0xbbaa8742	-0.0052041123
180	0xbbaab297	-0.005209278
181	0xbbab6364	-0.005230354
182	0xbba9804f	-0.0051727663
183	0xbbab63d2	-0.0052304054
184	0xbbab690c	-0.0052310284
185	0xbbab5cfd	-0.005229591
186	0xbbaba95f	-0.0052386965
187	0xbbaaef25	-0.0052164965
188	0xbbaada9e	-0.0052140495
189	0xbbaa721a	-0.0052015902
190	0xbbac13e3	-0.005251394
191	0xbbab1d5e	-0.0052220067
192	0xbbabdab3	-0.005244577
193	0xbba9c723	-0.0051812096
194	0xbbaa772e	-0.0052021956
195	0xbbabbea6	-0.005241233
196	0xbbac02e0	-0.005249366
197	0xbbaac232	-0.005211138
198	0xbbaad10a	-0.0052129077
199	0xbbaa5244	-0.005197795
200	0xbbab4441	-0.0052266424
201	0xbbaab87a	-0.0052099796
202	0xbbaae3e5	-0.0052151554
203	0xbbaa40d7	-0.005195718
204	0xbbab8991	-0.005234905
205	0xbbaaf38e	-0.0052170223
206	0xbbabb8b4	-0.005240524
207	0xbbaaff4a	-0.005218421
208	0xbbaae5aa	-0.0052153664
209	0xbbab84d9	-0.0052343425
210	0xbbab5b04	-0.005229356
211	0xbbab71a7	-0.0052320543
212	0xbbac1325	-0.0052513056
213	0xbba98531	-0.0051733484
214	0xbbaa69f0	-0.005200617
215	0xbbac0120	-0.0052491575
216	0xbbab1974	-0.00522154
217	0xbbaafd53	-0.005218187
218	0xbbab5f69	-0.0052298796
219	0xbbaaadf8	-0.005208727
220	0xbbaa6e4d	-0.005201137
221	0xbbab321e	-0.0052244803
222	0xbba96913	-0.0051699965
223	0xbbab795c	-0.005232973
224	0xbbaa01a0	-0.005188182
225	0xbba9fd60	-0.0051876754
226	0xbbabf63c	-0.0052478593
227	0xbbabb789	-0.005240385
228	0xbbab85d2	-0.0052344585
229	0xbbaaf87f	-0.0052176113
230	0xbbabc0c3	-0.005241485
231	0xbbab81e6	-0.005233991
232	0xbbab68cf	-0.005231
233	0xbbaa778a	-0.0052022384
234	0xbba9e3b8	-0.005184617
235	0xbbaae1cf	-0.0052149068
236	0xbbabeaf0	-0.0052465126
237	0xbbabfd2d	-0.0052486868
238	0xbbab6644	-0.005230697
239	0xbbab069d	-0.005219294
240	0xbbab1a0c	-0.005221611
241	0xbba9ef65	-0.0051860088
242	0xbbab7da1	-0.005233482
243	0xbba97da6	-0.005172449
244	0xbbaba9b7	-0.0052387374
245	0xbbab796b	-0.00523298
246	0xbbaa2547	-0.005192432
247	0xbbab4ea6	-0.0052278815
248	0xbbaad0db	-0.005212886
249	0xbbabccfc	-0.005242942
250	0xbbab737a	-0.0052322717
251	0xbbaba262	-0.0052378634
252	0xbbabe073	-0.0052452623
253	0xbbabd3eb	-0.0052437684
254	0xbbab7b08	-0.0052331723
255	0xbbab6f3d	-0.0052317665
