VerNova/checkpoints/ntm_val_0.1424_epoch_92.pt (torch, 863077 bytes, 11 tensors)

read_vectors f4 [1, 32]
00000000: 068b fa3e 6511 9dbe 1b3d bd3f ec50 0abf
00000010: e4cc e33f 7692 c13c a4a6 b63e 5b9d 893f
00000020: 4dbc 0dbf e606 12bf 37a9 e73f 791e 9f3e
00000030: 7731 14bf 98eb 6ebf bac6 82bf b714 083f
00000040: b721 bb3f e71a 2d3f 959f a7be 54e6 3abe
00000050: b2de d23f 5e37 e83e 8b8d 103f 535b 18bf
00000060: 260b d23d febc 6abf a2f6 563f 0c87 bfbf
00000070: 20bf 91bb 9ffa 5a3e 815a ca3e 67b6 b4bf
0.4893419 -0.30677333 1.4784273 -0.54029727 1.7796903 0.023629408 0.35674012 1.0751146
-0.5536545 -0.57041776 1.8098515 0.31077936 -0.5788798 -0.9332824 -1.0216897 0.5315661
1.4619664 0.67619175 -0.3273894 -0.18251926 1.6474211 0.45354742 0.5646598 -0.5951435
0.10256033 -0.9169463 0.8397008 -1.4963088 -0.0044478327 0.21384667 0.39522174 -1.4118165

memory.memory f4 [64, 32]
00000000: 068b fa3e 6511 9dbe 1b3d bd3f ec50 0abf
00000010: e4cc e33f 7692 c13c a4a6 b63e 5b9d 893f
00000020: 4dbc 0dbf e606 12bf 37a9 e73f 791e 9f3e
00000030: 7731 14bf 98eb 6ebf bac6 82bf b714 083f
00000040: b721 bb3f e71a 2d3f 959f a7be 54e6 3abe
00000050: b2de d23f 5e37 e83e 8b8d 103f 535b 18bf
00000060: 260b d23d febc 6abf a2f6 563f 0c87 bfbf
00000070: 20bf 91bb 9ffa 5a3e 815a ca3e 67b6 b4bf
00000080: 068b fa3e 6511 9dbe 1b3d bd3f ec50 0abf
00000090: e4cc e33f 7692 c13c a4a6 b63e 5b9d 893f
000000a0: 4dbc 0dbf e606 12bf 37a9 e73f 791e 9f3e
000000b0: 7731 14bf 98eb 6ebf bac6 82bf b714 083f
000000c0: b721 bb3f e71a 2d3f 959f a7be 54e6 3abe
000000d0: b2de d23f 5e37 e83e 8b8d 103f 535b 18bf
000000e0: 260b d23d febc 6abf a2f6 563f 0c87 bfbf
000000f0: 20bf 91bb 9ffa 5a3e 815a ca3e 67b6 b4bf
00000100: 068b fa3e 6511 9dbe 1b3d bd3f ec50 0abf
00000110: e4cc e33f 7692 c13c a4a6 b63e 5b9d 893f
00000120: 4dbc 0dbf e606 12bf 37a9 e73f 791e 9f3e
00000130: 7731 14bf 98eb 6ebf bac6 82bf b714 083f
00000140: b721 bb3f e71a 2d3f 959f a7be 54e6 3abe
00000150: b2de d23f 5e37 e83e 8b8d 103f 535b 18bf
00000160: 260b d23d febc 6abf a2f6 563f 0c87 bfbf
00000170: 20bf 91bb 9ffa 5a3e 815a ca3e 67b6 b4bf
00000180: 068b fa3e 6511 9dbe 1b3d bd3f ec50 0abf
00000190: e4cc e33f 7692 c13c a4a6 b63e 5b9d 893f
000001a0: 4dbc 0dbf e606 12bf 37a9 e73f 791e 9f3e
000001b0: 7731 14bf 98eb 6ebf bac6 82bf b714 083f
000001c0: b721 bb3f e71a 2d3f 959f a7be 54e6 3abe
000001d0: b2de d23f 5e37 e83e 8b8d 103f 535b 18bf
000001e0: 260b d23d febc 6abf a2f6 563f 0c87 bfbf
000001f0: 20bf 91bb 9ffa 5a3e 815a ca3e 67b6 b4bf
00000200: 068b fa3e 6511 9dbe 1b3d bd3f ec50 0abf
00000210: e4cc e33f 7692 c13c a4a6 b63e 5b9d 893f
00000220: 4dbc 0dbf e606 12bf 37a9 e73f 791e 9f3e
00000230: 7731 14bf 98eb 6ebf bac6 82bf b714 083f
00000240: b721 bb3f e71a 2d3f 959f a7be 54e6 3abe
00000250: b2de d23f 5e37 e83e 8b8d 103f 535b 18bf
00000260: 260b d23d febc 6abf a2f6 563f 0c87 bfbf
00000270: 20bf 91bb 9ffa 5a3e 815a ca3e 67b6 b4bf
00000280: 068b fa3e 6511 9dbe 1b3d bd3f ec50 0abf
00000290: e4cc e33f 7692 c13c a4a6 b63e 5b9d 893f
000002a0: 4dbc 0dbf e606 12bf 37a9 e73f 791e 9f3e
000002b0: 7731 14bf 98eb 6ebf bac6 82bf b714 083f
000002c0: b721 bb3f e71a 2d3f 959f a7be 54e6 3abe
000002d0: b2de d23f 5e37 e83e 8b8d 103f 535b 18bf
000002e0: 260b d23d febc 6abf a2f6 563f 0c87 bfbf
000002f0: 20bf 91bb 9ffa 5a3e 815a ca3e 67b6 b4bf
00000300: 068b fa3e 6511 9dbe 1b3d bd3f ec50 0abf
00000310: e4cc e33f 7692 c13c a4a6 b63e 5b9d 893f
00000320: 4dbc 0dbf e606 12bf 37a9 e73f 791e 9f3e
00000330: 7731 14bf 98eb 6ebf bac6 82bf b714 083f
00000340: b721 bb3f e71a 2d3f 959f a7be 54e6 3abe
00000350: b2de d23f 5e37 e83e 8b8d 103f 535b 18bf
00000360: 260b d23d febc 6abf a2f6 563f 0c87 bfbf
00000370: 20bf 91bb 9ffa 5a3e 815a ca3e 67b6 b4bf
00000380: 068b fa3e 6511 9dbe 1b3d bd3f ec50 0abf
00000390: e4cc e33f 7692 c13c a4a6 b63e 5b9d 893f
000003a0: 4dbc 0dbf e606 12bf 37a9 e73f 791e 9f3e
000003b0: 7731 14bf 98eb 6ebf bac6 82bf b714 083f
000003c0: b721 bb3f e71a 2d3f 959f a7be 54e6 3abe
000003d0: b2de d23f 5e37 e83e 8b8d 103f 535b 18bf
000003e0: 260b d23d febc 6abf a2f6 563f 0c87 bfbf
000003f0: 20bf 91bb 9ffa 5a3e 815a ca3e 67b6 b4bf
0.4893419 -0.30677333 1.4784273 -0.54029727 1.7796903 0.023629408 0.35674012 1.0751146
-0.5536545 -0.57041776 1.8098515 0.31077936 -0.5788798 -0.9332824 -1.0216897 0.5315661
1.4619664 0.67619175 -0.3273894 -0.18251926 1.6474211 0.45354742 0.5646598 -0.5951435
0.10256033 -0.9169463 0.8397008 -1.4963088 -0.0044478327 0.21384667 0.39522174 -1.4118165
0.4893419 -0.30677333 1.4784273 -0.54029727 1.7796903 0.023629408 0.35674012 1.0751146
-0.5536545 -0.57041776 1.8098515 0.31077936 -0.5788798 -0.9332824 -1.0216897 0.5315661
1.4619664 0.67619175 -0.3273894 -0.18251926 1.6474211 0.45354742 0.5646598 -0.5951435
0.10256033 -0.9169463 0.8397008 -1.4963088 -0.0044478327 0.21384667 0.39522174 -1.4118165
0.4893419 -0.30677333 1.4784273 -0.54029727 1.7796903 0.023629408 0.35674012 1.0751146
-0.5536545 -0.57041776 1.8098515 0.31077936 -0.5788798 -0.9332824 -1.0216897 0.5315661
1.4619664 0.67619175 -0.3273894 -0.18251926 1.6474211 0.45354742 0.5646598 -0.5951435
0.10256033 -0.9169463 0.8397008 -1.4963088 -0.0044478327 0.21384667 0.39522174 -1.4118165
0.4893419 -0.30677333 1.4784273 -0.54029727 1.7796903 0.023629408 0.35674012 1.0751146
-0.5536545 -0.57041776 1.8098515 0.31077936 -0.5788798 -0.9332824 -1.0216897 0.5315661
1.4619664 0.67619175 -0.3273894 -0.18251926 1.6474211 0.45354742 0.5646598 -0.5951435
0.10256033 -0.9169463 0.8397008 -1.4963088 -0.0044478327 0.21384667 0.39522174 -1.4118165
0.4893419 -0.30677333 1.4784273 -0.54029727 1.7796903 0.023629408 0.35674012 1.0751146
-0.5536545 -0.57041776 1.8098515 0.31077936 -0.5788798 -0.9332824 -1.0216897 0.5315661
1.4619664 0.67619175 -0.3273894 -0.18251926 1.6474211 0.45354742 0.5646598 -0.5951435
0.10256033 -0.9169463 0.8397008 -1.4963088 -0.0044478327 0.21384667 0.39522174 -1.4118165
0.4893419 -0.30677333 1.4784273 -0.54029727 1.7796903 0.023629408 0.35674012 1.0751146
-0.5536545 -0.57041776 1.8098515 0.31077936 -0.5788798 -0.9332824 -1.0216897 0.5315661
1.4619664 0.67619175 -0.3273894 -0.18251926 1.6474211 0.45354742 0.5646598 -0.5951435
0.10256033 -0.9169463 0.8397008 -1.4963088 -0.0044478327 0.21384667 0.39522174 -1.4118165
0.4893419 -0.30677333 1.4784273 -0.54029727 1.7796903 0.023629408 0.35674012 1.0751146
-0.5536545 -0.57041776 1.8098515 0.31077936 -0.5788798 -0.9332824 -1.0216897 0.5315661
1.4619664 0.67619175 -0.3273894 -0.18251926 1.6474211 0.45354742 0.5646598 -0.5951435
0.10256033 -0.9169463 0.8397008 -1.4963088 -0.0044478327 0.21384667 0.39522174 -1.4118165
0.4893419 -0.30677333 1.4784273 -0.54029727 1.7796903 0.023629408 0.35674012 1.0751146
-0.5536545 -0.57041776 1.8098515 0.31077936 -0.5788798 -0.9332824 -1.0216897 0.5315661
1.4619664 0.67619175 -0.3273894 -0.18251926 1.6474211 0.45354742 0.5646598 -0.5951435
0.10256033 -0.9169463 0.8397008 -1.4963088 -0.0044478327 0.21384667 0.39522174 -1.4118165

controller.lstm.weight_ih f4 [400, 64]
00000000: 806c 173d 6e44 d6bb dd33 d2bc 7d10 f43c
00000010: e730 883c 3759 49bc e8b4 88bc 2ad8 5cbb
00000020: 05d9 babd f637 fe3c b5b9 183d 1239 833d
00000030: 63a7 123c c83a 6f3b 696e 143c 6b00 143c
00000040: 8d91 2d3e 9b3d 5cbd c01b b8bc 61f3 943d
00000050: 1bc8 033c 5494 92bb a9b0 d4bc 21b1 51bd
00000060: 0d13 7fbc 091a 3bbd 96e5 9bbd 12d0 de3d
00000070: b33e 47bb 4dfe 5cbc 570b 39bc 9bcc 893d
00000080: a710 233d aaeb 84bd 376b bebd 3590 f0bc
00000090: ad5c 3dbe 9193 54bd dfd5 593b 88fe aabd
000000a0: 28f1 ec3d 0d8f ad3e 1394 16be 734f 9e3e
000000b0: 07f4 223d 454c 06bd 779f 5c3e 52f1 983c
000000c0: e0ca adbd 6e35 8dbc 5563 743e 783f 3d3d
000000d0: 571c 5cbe 67e6 c5bd b45c 5f3d 1ca9 033e
000000e0: cdae c63c 57a4 30bc de6b b03d c8af 123e
000000f0: 6e9d 1fbe 9ff5 93bd add1 77be ed0d 1f3e
00000100: 2aef fa3c 28f3 aebd 60d2 0f3e 37e4 043d
00000110: 4c56 433e 1bf0 d0bd c343 22be 459a d13d
00000120: 86fe cbbd 84eb 2abe 844a f43c 0e11 7b3d
00000130: 0a13 f8bd 2bfa 923d 01e0 963c 131c dd3c
00000140: 7dfc 073e 86ba 02be eaf3 823d 641a dcbc
00000150: 0378 71ba 9783 243d 7b59 5ebd b3ba 46be
00000160: 1db8 293e 3435 77bc 7d12 98bd 0c4f 99bd
00000170: 1e18 4abe 3e73 fbbd 3ed6 3abc 4213 c03c
00000180: ace9 15bd 14e7 e0bb 1f04 3b3d d6bf df3c
00000190: 56e9 ee3c e5c5 1ebb 4bd8 ec3c 3a7e aa3d
000001a0: b148 57bd d80a 70bd f960 03bc a3e2 25bd
000001b0: ed34 44bd 8797 88bd 0f27 45bd 59bf 37bd
000001c0: 7493 073e 6da9 32bd 816d 4fbd 41ba c03c
000001d0: 95f8 2a3c eba1 4abd 6466 4e3c 7dc9 d53c
000001e0: 2718 93bd 54bc c6bc aadd ea3b bb53 65bd
000001f0: c397 f33c e690 013c e213 b93d 3a79 64bd
00000200: 022d cebd da85 d9bd 03fc b93d 86d1 bd3d
00000210: e484 413e 1cff 0dbd 6668 76bd c773 9e3d
00000220: cbec e8bd 3add cabd d3fb cd3c b928 133e
00000230: 0089 34bd 7c1d 0c3e da4b 03bd 9e7c b8bb
00000240: 6eb3 9cbd 41af 9cbd a271 1a3e 0fae 62be
00000250: 0c9c cfbd 7f73 0d3e c4de 7dbd 067c 1ebe
00000260: 6f4c 013e a084 d4bd 50de 00be 2b47 ffbd
00000270: 11df 1ebe 131e 22be f43e 383d 0c22 1abd
00000280: 9f0c c23c 5de4 c03d 18d5 04be 53d4 bf3e
00000290: fd80 1abd b832 00bf 8aae 28be 32c9 1dbe
000002a0: fdfc ab3e da1e 00be 5cfb a33d 41ed 163f
000002b0: e836 3f3e eaa1 9cbd 14ac 543e b5db c03b
000002c0: fe35 c8bd 373c 3ebe b7c8 47be 0cbd 1b3f
000002d0: 3a1b c7be 0f75 cdbd 079f 353f 3394 ffbe
000002e0: a037 d5bd 070f 353e b841 19be 29e2 abbd
000002f0: 45ee b7be 6359 5d3d c98b 70be ff6f 76bd
00000300: c0d8 f73d 2ab0 97bd da52 093e 7f6b e0bc
00000310: d7e7 bb3c abcf 92bd 6adc 113d a4e1 483d
00000320: 913a 0a3d 024a 02be fc53 9ebd ba1c 563d
00000330: 1341 293d 19d9 4e3d daa2 4b3c 1190 8c3d
00000340: 4bcd b6bd cad2 15bd 9718 1dbe 5606 ef3c
00000350: 8eaa 633d 42d0 c7bd 53cd 85bd 043d fbbd
00000360: 8e26 55bc 29b8 6b3d db54 a53c ad9b f8bc
00000370: 2a28 dcbc 653a 49bd f47a c0bc 95e5 09bd
00000380: 759d 2a3e 27a3 323d 7ff9 dd3d ae09 b1bd
00000390: 9233 503e 3702 36be 6196 983e 43ae 503e
000003a0: af8b 1dbe 2f44 01be 3a27 983e 59b7 553d
000003b0: e4b0 a3bd a83b d8bd c28a 18be a38e 8c3e
000003c0: bb5f 463b ec79 fd3d 710f c63c 6677 1b3e
000003d0: 9da1 523e a492 3c3d 741a 09bd 73a5 eebd
000003e0: aae4 a4bd 5d5f 57bd 015f f7be 0818 673c
000003f0: 8c7e ba3c 8b04 96bc 06d2 5c3d 1b96 acbd
0.036968708 -0.006538919 -0.025659496 0.029793018 0.016624881 -0.012289337 -0.016687825 -0.003369818
-0.091234244 0.031032544 0.03728648 0.0640737 0.008951041 0.0036503542 0.009059527 0.009033303
0.16950054 -0.05376969 -0.02247417 0.07272983 0.008043314 -0.0044732485 -0.025963144 -0.051194314
-0.015568507 -0.045679126 -0.076121494 0.1087953 -0.0030402362 -0.013488364 -0.011294208 0.067284785
0.039810803 -0.06490262 -0.09297793 -0.029365638 -0.18492384 -0.051898543 0.003323905 -0.08349329
0.115694344 0.33898202 -0.14704923 0.3091999 0.039783504 -0.03278758 0.21545206 0.018669758
-0.08485961 -0.017237391 0.23866017 0.046203107 -0.21495186 -0.096630864 0.054531768 0.12857479
0.024253273 -0.010781369 0.08614324 0.14324868 -0.15587398 -0.07224583 -0.24201079 0.15532656
0.03063162 -0.08542472 0.14045095 0.032444205 0.19075888 -0.102020465 -0.15846162 0.10234503
-0.09960656 -0.16691405 0.029820688 0.06129556 -0.121130064 0.07176622 0.01841736 0.026990926
0.1327991 -0.12766466 0.06394179 -0.026868053 -0.00092113035 0.040164556 -0.054284554 -0.19407158
0.1657414 -0.015088368 -0.07425401 -0.0748578 -0.19735762 -0.1227784 -0.011403618 0.023446683
-0.0365998 -0.006863484 0.045658227 0.027313154 0.029163998 -0.002422684 0.02891173 0.08324857
-0.05255956 -0.05860409 -0.008018726 -0.04049934 -0.047902036 -0.066695265 -0.048132952 -0.044860218
0.13239843 -0.04361861 -0.05064154 0.023526313 0.010435243 -0.049470823 0.012597654 0.026097054
-0.07182341 -0.024259724 0.0071675377 -0.055988055 0.029735452 0.007908082 0.090369955 -0.055779673
-0.10067178 -0.10621233 0.090812705 0.09268479 0.1889835 -0.03466712 -0.060158156 0.077369265
-0.1137329 -0.09905477 0.025144493 0.14371003 -0.044075966 0.13683122 -0.03205476 -0.00563009
-0.07651411 -0.076506145 0.1508241 -0.2213671 -0.101371855 0.1381359 -0.061980024 -0.15476999
0.12626813 -0.10376859 -0.12584805 -0.12464746 -0.1551478 -0.15831785 0.04498191 -0.037630126
0.023687659 0.09418557 -0.12971914 0.37466678 -0.03772067 -0.5007739 -0.16472831 -0.15408781
0.33591452 -0.12511769 0.08006927 0.5895577 0.18673289 -0.0764807 0.20768768 0.005885566
-0.09775923 -0.18577658 -0.1951016 0.6083534 -0.3888796 -0.10032093 0.7094578 -0.49917755
-0.10411 0.17681514 -0.14966476 -0.08392746 -0.35923973 0.054040324 -0.23490824 -0.0601654
0.12101889 -0.074066475 0.13410512 -0.027395008 0.022937698 -0.07168516 0.035610594 0.049043313
0.03374726 -0.12723544 -0.077308625 0.05227349 0.041321825 0.05050001 0.012428964 0.06863416
-0.08925875 -0.036577977 -0.15341412 0.029177826 0.055582576 -0.09756519 -0.06533303 -0.12267497
-0.01300968 0.057548676 0.020182064 -0.03034767 -0.02687462 -0.049127955 -0.023496129 -0.033666212
0.16661628 0.043612625 0.10838603 -0.086444244 0.20332173 -0.17774282 0.2980223 0.20378976
-0.15385316 -0.12623666 0.29717427 0.052176807 -0.079927236 -0.105582535 -0.14896682 0.27452573
0.0030269462 0.123767704 0.024177285 0.15182266 0.20569463 0.046038285 -0.033472493 -0.11652651
-0.08051427 -0.05258118 -0.4831467 0.014104851 0.02276542 -0.018312713 0.05391123 -0.08427068

controller.lstm.weight_hh f4 [400, 100]
00000000: 9d16 1cbe 4c3d 81be 8193 b1bd d141 86be
00000010: 1cdf f63c cd6a 553c 7e3c 3ebe 469f 583e
00000020: 6b62 633d 285c 86bd 68ce 67bd e7e9 62bd
00000030: 1712 70bc 3afb 3e3e bd20 8a3c a0c5 253d
00000040: 6fa5 553c 7a3e 31bd 9fdc 3c3d b815 5a3d
00000050: 4a87 923d 7e01 61bd 0d51 fe3c bbf8 babd
00000060: 97d1 a9bd 8dd8 a83d 36fc 123b d38e 6cbc
00000070: 23be 7abd f4c9 453d e7c4 07bd 0339 7dbd
00000080: ee7a 823d 4d91 e5bd 0f33 3abe afdb cc3d
00000090: 3a9c 873d 665b 453d eb7f d73c 774b 20be
000000a0: 8ee2 013d cc56 a93d f901 30be 77ee 3abe
000000b0: 823a 4c3d 5260 103c ba64 613d e272 ca3d
000000c0: ab86 5fbd 574d 8ebe 6f3e dbbc 41f5 ad3c
000000d0: 7f41 443d d6ef 1e3e e7e4 2cbd 515a a2bd
000000e0: f200 87bc 2109 62bc 1cd5 04bd 88a9 a03d
000000f0: d326 8d3e 1c62 dc3b 4796 d23d 71c7 063c
00000100: f61a 483e 7d51 a03b 453d 02bb 03a7 d03d
00000110: 7fd4 c7bd 3c12 94bc d146 cb3d 40bc c63d
00000120: b664 fcbd 0953 a93d c2ef a3bd 5629 853d
00000130: fc0e 0abd 7b25 2fbe 4b96 adbd 81c8 8abd
00000140: 4fa2 10bd feac 0bbc d7e5 4d3d 0962 783d
00000150: 40af f63b e91a 863e d54f 893d b493 79bd
00000160: b51f c43d 9235 bebd 0a22 df3c b367 0ebe
00000170: 77e5 733e ce62 bbbd 4c6f bb3d 25ba 04bd
00000180: e55e 12bc 58d0 aebb 7481 3ebe 05a9 353c
00000190: cbf1 b43c 64b2 613d 7234 42bc 00ce 023d
000001a0: 286f cebd cae5 4bbb 3a82 6b3e a657 dbbc
000001b0: ddec 0a3d b4ea 83bd 2625 0c3e ab59 b7bd
000001c0: c51d 813d 1f57 1a3e 329d 23bd fdb4 833d
000001d0: f423 e03b 28f7 2bbe aea4 863c d5d4 90bc
000001e0: e1b8 9fbd 7d44 06be c5cb 9fbc d90f 83bd
000001f0: 3507 603d a0b4 243d 8e1a afbd ab87 36bd
00000200: 612a 11bd 6645 debc 2914 fe3d 2e27 493e
00000210: 02e3 023d 7317 4ebd 18c8 683b 35f5 85bd
00000220: 64d2 9c3c ca17 39bd 203f 37bc bd53 633c
00000230: 5961 53bd 231a 5bbd 1ad2 413c 1c96 17bd
00000240: 85cb 5cbc 1e50 0ebd ac49 233c 981c c9bd
00000250: 93ac c83d cd32 5d3d 91d9 f4bc 5435 813c
00000260: 9313 6e3c 90e3 f2ba d5c9 ab3c 3e9e dc3d
00000270: 5131 e63d 0ae1 873d bdf2 f4bc de38 c039
00000280: 0426 b23d 4a7e f8bc bcc4 0bbd fee2 513d
00000290: 8fed 433c 0332 2a3d 81f1 87bd a3f1 2ebd
000002a0: 7359 68bd ca7d 71bd 02c8 04bd db09 19bd
000002b0: 1021 3bbb 2638 0e3e 4ba1 f63c 6848 bcbc
000002c0: ff78 b13b ad92 213d 660c 76bc 2747 c43d
000002d0: 9b3b 9e3d e046 9f3d 0273 8e3d 4bd2 13be
000002e0: 0d4b 6dbd 7f86 42bd 4b91 9b3d ae10 773d
000002f0: 3cd8 06be 8256 053b e755 023d 4a4d a53d
00000300: 8300 9c3c 2cc7 443c 683e 8abd 93da 06bd
00000310: 0387 2a3e 504e 6e3c ba9d 73bd a78c abbc
00000320: f4bc 81be 7e86 953e 3b2b e13e 53be 9ebe
00000330: 2a6a bd3d 4fbf 3c3e f6ef 7d3e db1a bd3e
00000340: 09bb ecbe 7dc5 b83c f158 6cbf 307e 08bb
00000350: f505 28c0 23b3 a9bd 32de 43be c21b 0c3d
00000360: 9c44 84bd 7d74 483e 7ae8 7d3d d50e cc3d
00000370: 14e3 ea3e 40d1 dc3d f28b babc 4c0b dd3d
00000380: 735c 8b3e 5f80 073e 51f5 b83c 860f b73e
00000390: a177 d1be 86cb b73d f14c 48be 183c b9bd
000003a0: 340a 40be 6966 ba3d 7750 01be 52e2 55bc
000003b0: aeff 94be b406 bfbd b346 3cbd 57b1 d13e
000003c0: dea4 a63d 0bcf 55bd a632 9dbd e556 13bd
000003d0: bd6f 243d 71ad d23e 660e f0be f519 e7bd
000003e0: 3e9e 27bd 89b8 623e e739 c23c 3eb2 57bd
000003f0: e7df 73bd 5cc8 aebe 1296 8bba 108a 3fbe
-0.15243001 -0.25242078 -0.08670712 -0.2622209 0.030135684 0.013025952 -0.18577763 0.21154508
0.05551378 -0.06560546 -0.05659333 -0.055398848 -0.01465275 0.18650523 0.016861314 0.040471673
0.013039931 -0.043272473 0.04610884 0.05324337 0.071547106 -0.054933064 0.031044507 -0.09129473
-0.08291929 0.08244429 0.0022428161 -0.014438349 -0.061216485 0.0482883 -0.033146765 -0.06182195
0.06371103 -0.112093545 -0.1818354 0.10002839 0.06621595 0.048182867 0.026306113 -0.15653788
0.0317102 0.08268508 -0.17188253 -0.1825503 0.049860485 0.008812027 0.0550277 0.098851934
-0.05457179 -0.2779338 -0.02676317 0.02123511 0.047914024 0.15521178 -0.042210486 -0.07927383
-0.016479943 -0.013796122 -0.0324298 0.078448355 0.27568683 0.0067255627 0.102825694 0.0082262615
0.19541535 0.0048925267 -0.0019872945 0.10188105 -0.09757327 -0.018075101 0.099256165 0.097038746
-0.123238966 0.08267791 -0.080047145 0.06502025 -0.033705696 -0.17104141 -0.08475932 -0.06776524
-0.03531104 -0.008525131 0.05026802 0.06064037 0.0075282156 0.26192406 0.0670468 -0.060931876
0.0957636 -0.092875615 0.02723791 -0.13906746 0.23818003 -0.09149705 0.091520876 -0.032404084
-0.008933757 -0.005334895 -0.1860407 0.011087661 0.022087952 0.055101767 -0.011853324 0.03193474
-0.10079795 -0.0031112307 0.22998896 -0.026775192 0.033917297 -0.064412504 0.13686046 -0.0895265
0.06304506 0.15072297 -0.039944835 0.06431005 0.0068402234 -0.16793501 0.016435947 -0.017679611
-0.07798935 -0.13112064 -0.019506345 -0.06399507 0.054694373 0.04021132 -0.08549987 -0.044562977
-0.035440806 -0.027132701 0.12406189 0.19643852 0.031954773 -0.05031533 0.0035519656 -0.0654091
0.01914329 -0.045188703 -0.011184484 0.013874945 -0.05160651 -0.053491723 0.011829877 -0.03700839
-0.013476257 -0.034744374 0.009966295 -0.09819907 0.09798541 0.054003526 -0.0298889 0.0157725
0.014531034 -0.0018530954 0.020970264 0.1077237 0.11239875 0.0663472 -0.029900903 0.00036663463
0.08698657 -0.030333657 -0.034123167 0.051241867 0.011958494 0.0415516 -0.0663786 -0.04271091
-0.05672593 -0.058957852 -0.032417305 -0.037362915 -0.0028553642 0.13888606 0.030106207 -0.022983745
0.005416035 0.03944652 -0.015017604 0.09583884 0.077262126 0.0777719 0.0695553 -0.14435689
-0.057932902 -0.047491547 0.07596072 0.06031864 -0.13168424 0.0020345752 0.031820204 0.08071382
0.019043213 0.012010377 -0.06750184 -0.032923292 0.16653065 0.014545038 -0.05947659 -0.020941092
-0.25339472 0.29204172 0.43978295 -0.3100458 0.09248765 0.18432353 0.24798569 0.36934552
-0.46236446 0.022555107 -0.92323214 -0.0020827167 -2.6253636 -0.08286121 -0.1912773 0.03420616
-0.06458399 0.19575687 0.061989285 0.099637665 0.45876372 0.10782099 -0.02277181 0.1079317
0.2721897 0.13232563 0.022577913 0.3575403 -0.40911582 0.08974366 -0.19560601 -0.09044665
-0.18753892 0.091015644 -0.12628351 -0.013054447 -0.29101318 -0.093274504 -0.04596586 0.40955612
0.08136915 -0.052199405 -0.07675676 -0.03597154 0.040145624 0.4114795 -0.46885985 -0.11284248
-0.040922396 0.22140707 0.02370925 -0.05266022 -0.0595397 -0.34137237 -0.0010649583 -0.1870501

controller.lstm.bias_ih f4 [400]
00000000: 5367 363d 696c 053e 2218 c23d e659 853d
00000010: f4ff 983d 092f a93c 561c fa3d eb27 573e
00000020: 608e b13d b176 e13d a3f7 123e caf7 763d
00000030: 60db 60bd 2271 4b3e 0dc3 573d ab3b 313c
00000040: 0537 773b 13c2 9c3d 8d84 653d 6d55 683d
00000050: cbba cf3d b45f ed3d 5766 303d f207 e03d
00000060: a241 113e 06f1 cc3d 0949 463e f1b8 613d
00000070: 39e6 063d fad3 473c 4b91 b53d 27fc ef3d
00000080: 849f 843d 1623 e73d 19b2 9c3d 8433 f0bc
00000090: e64c f63b 5356 d53d 8854 133d 6f85 2a3e
000000a0: 8192 c53d a247 193e d4d8 343e 3acf 20bd
000000b0: 7cb0 8e3d 2980 23bb b539 053e b043 4d3d
000000c0: e806 053d 1351 193e 6c06 ef3d 4664 bb3d
000000d0: dbce afbc cd54 03bd 326b 0b3e b900 033e
000000e0: 0846 d73d 01c2 af3d 0e89 f3bc 3902 c83d
000000f0: 4c32 5abd 895d 353d 15e5 a53d 9e7b 373e
00000100: 7b8b bb3d 2b1c 903d 97bd 093d b05e 483d
00000110: f336 f43d 603e 5e3b a7bc ce3d 11e4 c03b
00000120: 42ad 4e3d 8a76 b53d cc8c 2ebc f35f e23d
00000130: 0e2c ce3c a530 ab3c 9b5f b03d 653a d23d
00000140: 6d60 153e 2c0b d63d f08a b83d 3893 833d
00000150: c4a1 113e a8bc 893d b8ab d0bc e7e1 82bc
00000160: 6f56 193d ac0f c9bc 9af6 adbd 76dc 963d
00000170: 01a0 dd3d 590d cc3d ba1e 953d e1c6 393d
00000180: 0aa0 e73d 6d9c e03d 1e60 af3c 42d9 3e3d
00000190: ad90 c4bc 26da 1f3d 5be8 e03d 9824 db3b
000001a0: 5bb2 e53c 9c61 bf3d b69d 243d 0e70 303e
000001b0: 3293 e63d 25f6 fd3c a841 273d 74b9 9ebd
000001c0: 3063 3fbc 6c96 f1bc cb29 4bbc 5dfa 343d
000001d0: a560 9a3d cedb 413d 5191 8c3d bf15 833d
000001e0: d1fe 803d 2fe8 a43d 2255 103d 9708 8f3d
000001f0: 211e 953d f228 023e 75b4 183e 54f0 993d
00000200: b210 903c 4f10 653d 02fb 393d 55b7 a93d
00000210: 80d2 823d 7b7c 243e c2ad 393d cc5b af3d
00000220: cf67 093d 8435 283d 6ffb 823d ca53 a8bd
00000230: 8b21 853d c4cc f73d 2051 3a3d b3c9 ffbd
00000240: 9df6 7f3d 16b9 2dbd 608d d53c 0f5d a73d
00000250: 64a6 1abd 660a dd3d 647c 8c3d 8d39 0c3d
00000260: 93c5 14bd 7077 34bc 1512 1b3e c01a 8e3d
00000270: 3e10 7c3c 968e 05bd 72d7 c7bc 778c 483d
00000280: 2ee2 c33d d782 293d 1e50 0a3e ff01 1f3d
00000290: 827e 77bb 5665 b2bc 2c19 2a3d 8991 e6bc
000002a0: c5e0 883d 3a73 b13d 8e36 50bc 6867 25bd
000002b0: 96f7 8b3d b4f2 8b3d 488d 163d ee66 973d
000002c0: a598 703d 794d 0d3d 93cc 6c3d 1ae8 cabd
000002d0: e215 a6bc c04c 843d e5d1 823d e003 7e3c
000002e0: e9b0 4f3d e3ac b33d 0b69 fbbb 4a24 b6bd
000002f0: f660 8b3c 3c3a 4e3c 3114 2e3d 80ed b33d
00000300: c81c 0a3c 6a63 e73c 151a 843d bd88 45bc
00000310: f91f b13d 8024 323d dd81 213e 0c5e 863d
00000320: 7432 ad3d d21f 2bbb 414f 4e3c c579 61bc
00000330: d4f5 d7bd cfd9 893c 418d 85b8 451b 403d
00000340: 9d79 cbbc 89ea a0bd 73c5 e9ba 1dd9 eb3d
00000350: ccb7 b33d 34e3 06bd c756 b53d 6ce3 aabd
00000360: c253 6fbc 60b7 9fbd abfd c5bd 332f b5bd
00000370: 77b8 e9bd 2333 ffbd e314 d83d 2a1e 86bd
00000380: 571f 6e3d 61d6 cb3d 39d2 f6bd 83e9 563d
00000390: e52d 14be ebeb 7dbd adda eb3d 8771 ff3d
000003a0: c5a8 c93d bf8e 20be 7024 c7bc 38f2 38bc
000003b0: 5211 ae3d a860 4abd 39a2 c4bc 228a abbd
000003c0: bed5 dfbd 26b0 1ebd 4286 01bd 6a65 2e3c
000003d0: 2937 8e3c 38f3 9cbb 5cd5 f73d 0094 80bd
000003e0: 5c89 b73b 683a 62bd c920 03be f5e0 453d
000003f0: 5a8f 84bb 0afb 49be 10b4 b73d 6900 ad3d
0.04453213 0.13029636 0.09477259 0.065112874 0.07470694 0.02065231 0.12212436 0.21011321
0.08669734 0.11008967 0.14352278 0.060294904 -0.054896712 0.19867375 0.05267625 0.010817449
0.0037722003 0.07654204 0.056034613 0.056722093 0.1014305 0.115905195 0.04306635 0.109390154
0.14185193 0.10006909 0.19363798 0.055108014 0.0329344 0.012196535 0.08865603 0.11718016
0.06475738 0.11285989 0.07651157 -0.02932144 0.007516491 0.10416856 0.035969287 0.16652463
0.09647084 0.14968732 0.17660838 -0.039260127 0.069672555 -0.0024948216 0.13010295 0.05011338
0.03247729 0.14972334 0.11671147 0.09149985 -0.021460941 -0.032063294 0.1361511 0.12793244
0.10511404 0.08581925 -0.029728439 0.09766049 -0.053270623 0.044278655 0.081003346 0.1791825
0.09157463 0.070366226 0.033628073 0.048918426 0.11924543 0.003391169 0.10094576 0.0058865626
0.0504582 0.088605 -0.010653686 0.11053457 0.025167491 0.020897219 0.08611985 0.10265044
0.14587565 0.104513496 0.09010875 0.06424564 0.14221865 0.067254364 -0.025472507 -0.01597686
0.037435945 -0.024543606 -0.08494301 0.07366268 0.10821534 0.09963483 0.07281251 0.04535568
0.11309822 0.10967336 0.021408137 0.046593912 -0.023994768 0.039026402 0.10981818 0.006687712
0.028039148 0.093447894 0.040189467 0.17230245 0.11258544 0.03100116 0.0408341 -0.07750216
-0.011681363 -0.029490672 -0.012400101 0.044184078 0.07537965 0.047328763 0.068636544 0.06400632
0.06298602 0.08052098 0.03523744 0.0698406 0.07281137 0.12710932 0.14912589 0.07516542
0.017586086 0.055923756 0.045405395 0.08286921 0.06387806 0.1606311 0.045331724 0.08562431
0.033546265 0.04106666 0.063956134 -0.082191065 0.065005384 0.12099603 0.045487523 -0.12489643
0.062491048 -0.04241284 0.02606839 0.081720464 -0.03775634 0.10792999 0.06859663 0.034234572
-0.036321234 -0.011014804 0.15143616 0.06938696 0.015384732 -0.032606684 -0.024394725 0.048962083
0.09564625 0.041384544 0.13507125 0.038820263 -0.0037764614 -0.021776836 0.041527912 -0.028145568
0.066834964 0.08664556 -0.012708319 -0.04038182 0.06834333 0.06833401 0.03675583 0.07392679
0.058739323 0.03449771 0.057812285 -0.09907551 -0.020274106 0.064599514 0.063876905 0.015503854
0.050705824 0.0877321 -0.007672434 -0.0889364 0.017014008 0.012587126 0.042499725 0.08785534
0.008429714 0.028245647 0.06450287 -0.012056527 0.086486764 0.04349184 0.15772195 0.06560907
0.08456889 -0.0026111496 0.012592138 -0.013761942 -0.10544935 0.016827492 -6.368245e-05 0.046901006
-0.024838263 -0.07857234 -0.0017835334 0.115160204 0.08775291 -0.03293152 0.08854442 -0.083441585
-0.014607372 -0.07798648 -0.09667524 -0.08846893 -0.11412137 -0.124609254 0.10550859 -0.06548722
0.058135357 0.09952999 -0.120518155 0.052468788 -0.14470632 -0.061992567 0.115163185 0.124728255
0.09846643 -0.15679453 -0.024309367 -0.011288218 0.08499397 -0.049408585 -0.024003135 -0.08375956
-0.1092944 -0.038742207 -0.03162218 0.010644296 0.017360287 -0.004789736 0.12101242 -0.06278229
0.0056010913 -0.05523148 -0.12805475 0.04831024 -0.004045409 -0.1972467 0.08969891 0.08447344

controller.lstm.bias_hh f4 [400]
00000000: 3f44 0e3d 9226 d53d e401 063e 03c6 793d
00000010: e8b7 973d cca0 363d 9722 dc3d 6058 4b3e
00000020: 88a5 483d 1214 d53d 9f00 0b3e 11b7 433d
00000030: 0d0d 8b3b 116a 313e bb90 1f3d 8ec8 c43c
00000040: 24ec 933c 1e6a d13d ae22 503d d56d 603d
00000050: 9ca7 d13d 947f ed3d a67f 7f3d 4869 e03d
00000060: 86a5 073e 672d be3d e1cb b03d 5763 5a3d
00000070: 654a e73c ce4c bd3c 1a5f bb3d 1d4d ee3d
00000080: 827c 883d 22d1 c93d ada0 8e3d 8dd7 19bd
00000090: 6aa9 2f3d 7289 1d3e 81b4 0a3d 9fe0 e43d
000000a0: f9af c43d 00c9 c23d 9982 2c3e 981d 77bd
000000b0: 039e 943d fde8 02bd da27 db3d e46c 873d
000000c0: e601 713c 658a 1d3e 2561 c93d ca75 ba3d
000000d0: 74fb 70bd 8dc1 ca3c 6c5f 063e a235 003e
000000e0: 5e4a b43d 8d4d b83c feb0 07bd 8376 bb3d
000000f0: f422 893c 4d32 fe3c f588 fd3c d614 293e
00000100: db40 e73d 2539 a73c f0e4 f13c e181 d53c
00000110: 4c52 e93d a6c5 13bd da98 0a3e 44a9 833c
00000120: cec3 b83d c6cf b93d 7ac2 1b3d d67d af3d
00000130: 71e5 203b 429a 1d3d 7209 b33d 41af e63d
00000140: df3f de3d 606a cf3d e42d a83d b0db 853d
00000150: f753 043e 57a0 893d 3486 45bd e386 9cbb
00000160: 3ecf 0e3d 9150 35bd 9a18 a6bd 5b7f b73d
00000170: 9d43 ab3d c9a9 683d 27ae 983d cbc3 3a3d
00000180: 803d e73d 7483 e13d 730e 733d 465e 583d
00000190: f632 c0bc 36aa e93d 69dc 013e b2c6 4d3b
000001a0: 5b01 92bc 0dd8 983d 8e78 ae3c 8a88 393e
000001b0: 934e e63d d923 fd3c 7aec 383d 8eed 8cbd
000001c0: 65c4 be3d 6df6 68bd b685 86bc 59d9 483d
000001d0: 0c73 973d 5da9 d93c f9d8 8c3d 0962 833d
000001e0: 5a06 813d 0ce2 a43d b93d 083d 3303 8d3d
000001f0: e2d3 9f3d 1dc8 fa3d 736b 063e 8503 9a3d
00000200: 1f45 92bb f9a7 4b3d 9ebc 403d 93a9 a93d
00000210: 19eb 823d 74ee 2a3e 6504 db3c 9a13 a93d
00000220: 67bd 1c3d 6c9d 5a3d bf73 713d 2fad 8abd
00000230: 0921 853d 49e0 b63d 960f 8d3d 7ffa 93bd
00000240: ca9e 863d 5418 e93c df8b 3b3d cf7c 153d
00000250: 4e19 3bbd 103e 0f3e 5d5f 8c3d 38c1 123d
00000260: 6ff0 1cbd 303d 1f3d 835a fb3d b811 6f3d
00000270: 820d f23d ddc2 0fbd f33c c7bc 8dad 973b
00000280: 1927 113d ecda 513d 37c5 db3d da78 0d3d
00000290: 7a4f 2b3c 56c1 41bd a5c9 583d 11e7 fcba
000002a0: ddff 883d 2c49 a53d 0464 bf3b 199d 2abd
000002b0: 0645 233c 62f9 8b3d 1bf9 c43c 10b5 863d
000002c0: ffa7 8d3d 735b 7b3d 356c 6b3d 120d 4abd
000002d0: 3819 c33d 8749 843d ecd0 823d 1af0 b03d
000002e0: 3a2f 3b3d 89d0 043d bc44 8e3c a304 68bd
000002f0: 09f3 793c 5509 f23d 6c9a d33d db31 b73d
00000300: f377 d53c f75c ec3c c1cb 833d 370c 2439
00000310: 2622 b13d 112a e43b 5e52 123e 276e 823d
00000320: 7324 b43d 237f a8bd 2d31 5f3d 1d0b 713b
00000330: 7152 cdbd 4a38 ffbc 61cb 5abb 6a9c 153e
00000340: babd c9bc 3c92 86bd 47b4 1b3a b8a9 bb3d
00000350: 9ffe 033b 29a4 f9bc b377 853d bcfa 9bbd
00000360: f0a2 2b3c 1083 09be 7c2f cfbd 9d1a 9fbd
00000370: f63b e8bd 417d fbbd 7a27 123d 51ef 87bd
00000380: 877a 0c3e c627 e43b 093d 483d 6d23 b1bc
00000390: e707 e4bd c3b6 bf3c 9ba4 ed3d 2384 ff3d
000003a0: 3399 c83d 4b1c 8cbd 1b16 af3c 2ccd fb3d
000003b0: 3ac5 aa3d 7a8b b0bd dc59 da3c 7bbe 0abe
000003c0: 5c37 e5bd d2e3 41bc dd38 95bd 6dfc b2bd
000003d0: 8905 5dbb 18d8 91bc b997 0b3e 480d 933c
000003e0: 5728 09bd 988c ddbd 936c eabd e23d 6b3d
000003f0: 3b39 ddba f3f1 36be 4ca3 863d 985a 8c3d
0.034733053 0.10407747 0.13086659 0.060979854 0.07408124 0.04458694 0.10748785 0.19857931
0.048985988 0.10404219 0.13574456 0.047782008 0.004243499 0.17325617 0.038956385 0.024021413
0.018056937 0.10225318 0.050814323 0.054792244 0.10237047 0.11596599 0.062377594 0.10957581
0.13246736 0.092860036 0.08632637 0.053317394 0.028233716 0.023107912 0.091489986 0.11635802
0.06664373 0.09854342 0.0696424 -0.03755908 0.042886175 0.15384462 0.03386355 0.111756556
0.096038766 0.09510994 0.16846694 -0.060330957 0.07256701 -0.031960476 0.107009605 0.06612566
0.014709925 0.15384825 0.09832982 0.09104498 -0.058833554 0.024750495 0.13122338 0.1252046
0.08803247 0.022497917 -0.033127777 0.09153464 0.0167403 0.031029845 0.030949095 0.16511855
0.11291667 0.02041299 0.029528111 0.026062908 0.1139265 -0.036077164 0.1353487 0.016071923
0.09021722 0.09072833 0.038027264 0.08568923 0.002455082 0.03847719 0.08742036 0.11263896
0.10852026 0.10127711 0.08211878 0.06536043 0.12922655 0.067200355 -0.04822369 -0.004776822
0.03486561 -0.044266287 -0.08110161 0.08959838 0.083625056 0.056802545 0.07455092 0.04559688
0.11291027 0.11011401 0.05933995 0.05282428 -0.0234618 0.11409418 0.12681736 0.003139895
-0.017822912 0.074630834 0.02129772 0.18118492 0.112454556 0.030900883 0.045147397 -0.068812475
0.09314803 -0.056875635 -0.01642118 0.049035404 0.0739499 0.026570017 0.06877322 0.06415183
0.063000396 0.080509275 0.03326199 0.06885376 0.07804085 0.122452 0.13126926 0.075202025
-0.0044638063 0.049720738 0.04705488 0.08284297 0.063924976 0.16692525 0.026735494 0.08255692
0.038266566 0.053372785 0.058948275 -0.067713134 0.065004416 0.08929498 0.068877384 -0.07225513
0.06573255 0.028453983 0.04578769 0.03649598 -0.04567843 0.13988519 0.068541266 0.0358288
-0.038315233 0.038876712 0.12273123 0.058366507 0.11818983 -0.035097945 -0.024321055 0.004628843
0.035437677 0.05123417 0.10730975 0.03453908 0.01045596 -0.04730352 0.05292668 -0.0019294937
0.06689427 0.08070597 0.00584078 -0.041653726 0.009965187 0.06834675 0.024044564 0.06577504
0.06916808 0.06136651 0.05747624 -0.04932887 0.095262945 0.06459337 0.06387505 0.08639546
0.045699336 0.032425437 0.01736676 -0.056645047 0.015255698 0.11818186 0.10332188 0.08945056
0.026058173 0.028852923 0.06435347 0.00015644809 0.086490914 0.0069630225 0.14289233 0.06368666
0.08796015 -0.082273744 0.054490257 0.0036780306 -0.1002549 -0.03115477 -0.0033385383 0.14610448
-0.024626601 -0.06570861 0.0005939644 0.09163231 0.002014078 -0.030473785 0.065169714 -0.07616183
0.010475859 -0.13428903 -0.10116479 -0.07768748 -0.11339562 -0.1227975 0.03568218 -0.06637443
0.13718615 0.006962749 0.048886333 -0.021623338 -0.1113432 0.023402577 0.116036616 0.12476375
0.097948454 -0.06841334 0.021372845 0.12294993 0.08338399 -0.08620353 0.026654176 -0.13549225
-0.111921996 -0.011834102 -0.072862364 -0.08739553 -0.0033725223 -0.017803237 0.13632096 0.017950669
-0.033485737 -0.10817832 -0.1144649 0.057432063 -0.0016878018 -0.17865734 0.06574115 0.06853217

controller.fc_out.weight f4 [1000, 100]
00000000: 5ae7 873e 619a b0be 230a c9be 23c7 f03d
00000010: ddb5 56be 78a7 1f3e f5d7 79be 4585 0f3f
00000020: e11d 7fbe 2ec0 06bf b9f4 3e3e 1925 fd3e
00000030: 9402 eabd e399 36bf c866 843e 1e34 95be
00000040: 2703 5abd 62e6 abbe 2c0a a5be da99 33be
00000050: 6461 0fbf cf9c c8be 5d23 ed3d e571 d5be
00000060: 561e 0a3f a31a 3a3e a708 c3be 1241 b03e
00000070: 7776 cfbe 583c e73d 0198 fa3e cbd2 003f
00000080: 177c b33e 5662 02bf 8129 cfbd 8ceb cf3e
00000090: 262b 903e d5a0 14bf ce16 003e 3332 46bf
000000a0: 6f20 f0be 825a febe 6551 18bf 2641 6cbe
000000b0: 0864 453d 9fa5 d8bd 7cc1 223f f3bf b3be
000000c0: c450 c23d 0bd9 23bf 3bca fbbe 0776 8f3e
000000d0: 57e3 ad3c b713 0cbf 0955 023f 669c 0d3f
000000e0: 17fa e6be 6a62 a13e 36ad b4bd 37dd 35bf
000000f0: 8df4 1f3d 9c9a 95be 133b 1d3e 5aaf 3ebf
00000100: b2ad 403f 6462 bc3e a2e0 b73d 2731 22bf
00000110: 1dee b7be 98d2 f63e 6191 eebe 7955 983d
00000120: 8259 d9be 1e4c ba3e aae9 8cbe fcd2 5a3f
00000130: d65c 6dbe 61f5 1dbe 4695 ccbe c77d ed3e
00000140: 5336 08bf d2d2 e03e c1d7 ff3e 2105 94be
00000150: 223e 21bf 531b 7c3e 0cda 18be b2e6 c0bd
00000160: 10b0 afbe e352 373e 4acf d3bc 4b0a 1dbe
00000170: 7fc5 c23e 2a17 87be 5967 9cbe db6f 90be
00000180: e61f e73e f36c 9a3e c0d7 b4be afa0 4bbe
00000190: e7a5 cf3d cca2 84bf 6760 ca3b 34a4 1cbe
000001a0: 5f90 a0be 16f3 943f 960d 43bf 9a05 d0be
000001b0: 6b91 dabd f064 ef3d ad01 e83b 4fee 343d
000001c0: 335f 4e3f d04e 93bf 2738 2a3d 7d88 033e
000001d0: d806 40bd 1aa1 94be ec9a 7fbe b07b 2ebe
000001e0: a3e2 76be 9770 a73e f6f1 f83e a8b2 89bd
000001f0: 6d48 81bf 57b0 9e3d 2ef8 bbbe 6758 01be
00000200: 7f71 efbd 6912 a9bf 0fe1 85bf 28df a7be
00000210: 78d5 133e 6ebc 08be e21f fe3d 4885 6c3b
00000220: ceff 58be fcd2 823e 50e5 b9be 562d 073f
00000230: fa7f 043f 4916 b13d 8e67 0cbe 97a8 81bb
00000240: b60f 6c3f 17ab 19bd 9f3b 9ebd 0e76 983e
00000250: 37ce c83d 3185 3e3f 2d51 ccbd 1b63 383c
00000260: 7d21 273d a630 00bf 2a39 cb3e db04 89bf
00000270: 4e6b 90bf b943 40be 3d2d ebbc 0207 843e
00000280: c327 8f3e 2eaa fd3e 616a 02bf 83c1 09bf
00000290: 22b8 e8be ed9c ebbe 6af6 8d3f 6bb4 85bf
000002a0: cbed 183f 4ae1 69bf 06d8 803f e6b2 bd3c
000002b0: 13fb 28bf e0c8 85bf 8dd9 653d 1c37 04bf
000002c0: 1a3f 813e 0af4 b53e 7025 34bd 4811 87bf
000002d0: b4ed 013e ed4a 813c fd64 bbbe de37 6abe
000002e0: 01e8 913e 7f33 f2bd c688 263e cd54 383e
000002f0: 4c07 c43d d596 b53e 4229 bcbe 7c2d 77bf
00000300: 59eb 1a3f a601 a33d 5921 cbbd 43a9 3dc0
00000310: 5071 4ebf a995 85bf 1082 2240 4c31 10be
00000320: 8728 e03d 3b04 e73e a3c7 19c0 fffc 89be
00000330: 1361 f6be df61 0e3c 4bc9 a33e 4723 133f
00000340: dacc 993f 91f8 4ebe 857f 8e3f 808c e5be
00000350: 19ba cf3f 0a6c 413f ef51 233e 680e 5ebe
00000360: af52 80be b972 35bf f37f 12bf a3f5 f4bd
00000370: 9ba2 373e f7f3 26bf da99 76bd 6592 4f3e
00000380: 75d3 0dbf 2d1d 81bf 4f03 1fbe ab2e 6ebf
00000390: 4e41 04be 526d a9be d7d1 fe3e 9bbb 783f
000003a0: 0b60 db3e 2def 05bf bab3 5c3e 7921 c43e
000003b0: 3e8b 1c3f 53bb 19c0 278c 91be d4f0 e43c
000003c0: af95 6cbe 4bd6 5ebf cd84 8f3e 9241 743d
000003d0: 9b12 82bf 8c2b 52bf 7e15 30be 353f 723f
000003e0: ea5f 643e ca13 08c0 4948 3fbe e673 1a3e
000003f0: 3cd7 733e f626 6a3f f0bc 6dbe 5675 c73f
0.26543695 -0.34492782 -0.39265546 0.11756732 -0.20967813 0.15591228 -0.24398787 0.5606273
-0.24913742 -0.5263699 0.18648042 0.49442366 -0.11426273 -0.7132856 0.25859666 -0.29141325
-0.053225663 -0.33574206 -0.32234323 -0.17539158 -0.5600798 -0.39182135 0.11579011 -0.41688457
0.5395254 0.18174224 -0.3809254 0.34424645 -0.4052007 0.112908065 0.48944095 0.50321645
0.3505561 -0.509313 -0.10115338 0.40609396 0.2815792 -0.5805791 0.125087 -0.7742035
-0.46899745 -0.49678427 -0.594992 -0.23071727 0.0481911 -0.10578465 0.63576484 -0.35107383
0.09488061 -0.64003056 -0.49177727 0.28019735 0.021226568 -0.5471758 0.50911003 0.5531677
-0.45112678 0.31520396 -0.088221 -0.7104067 0.03905158 -0.2921952 0.15354566 -0.74486315
0.7526504 0.36793816 0.08978392 -0.6335625 -0.35923854 0.48207545 -0.4659529 0.074381776
-0.42451102 0.36386198 -0.27522022 0.85478187 -0.23179945 -0.15425636 -0.39957637 0.46385023
-0.5320789 0.43910843 0.49969295 -0.28910163 -0.6298543 0.24619798 -0.14926928 -0.09419002
-0.34314013 0.17902713 -0.025855679 -0.15335958 0.38041303 -0.2638486 -0.30547598 -0.2821034
0.45141524 0.30161247 -0.35320854 -0.19885515 0.10139065 -1.0362182 0.006176043 -0.15297014
-0.31360146 1.1636684 -0.76192605 -0.40629274 -0.106722675 0.11689174 0.007080278 0.04417258
0.8061401 -1.1508427 0.041557457 0.12845035 -0.046881527 -0.2902916 -0.24961442 -0.1703937
-0.24109893 0.32703087 0.48622102 -0.06723529 -1.0100228 0.07748478 -0.36712784 -0.12631379
-0.116915695 -1.3208743 -1.0459307 -0.32787442 0.144369 -0.1335313 0.12408425 0.0036090184
-0.21191332 0.25551593 -0.36307764 0.5280355 0.51757777 0.08646829 -0.13711378 -0.003956865
0.92211473 -0.03751668 -0.077262156 0.2977757 0.09804957 0.74421984 -0.099764206 0.011254097
0.04080342 -0.5007423 0.3969205 -1.0704607 -1.1282747 -0.18775834 -0.028708095 0.25786597
0.27960023 0.495439 -0.5094357 -0.538109 -0.45452982 -0.46018162 1.1090825 -1.0445684
0.59737843 -0.9135939 1.0065925 0.023156594 -0.6600811 -1.0451927 0.056115676 -0.5164659
0.25243455 0.3553775 -0.043981016 -1.0552149 0.12688333 0.015782798 -0.36600485 -0.22872874
0.28497317 -0.11826228 0.16263112 0.18001099 0.09571704 0.35466638 -0.36750227 -0.9655378
0.6051536 0.07959299 -0.0991847 -2.963456 -0.8064165 -1.0436298 2.5391884 -0.14081305
0.1094523 0.45120415 -2.4028099 -0.26950833 -0.48120937 0.0086903265 0.31989512 0.57475704
1.2015641 -0.20212008 1.1132666 -0.44833755 1.6228667 0.7555548 0.15949224 -0.21685183
-0.25063083 -0.7087818 -0.57226485 -0.11960914 0.17933123 -0.6521601 -0.060205318 0.20270689
-0.5540078 -1.0087029 -0.15528606 -0.9303996 -0.12915537 -0.33091217 0.4976947 0.97161263
0.42846712 -0.5231808 0.21552935 0.38306788 0.61149967 -2.4020584 -0.2842724 0.027946867
-0.23103975 -0.87045735 0.28031006 0.059632845 -1.0161928 -0.820977 -0.17195699 0.94627696
0.22302213 -2.1262078 -0.18679918 0.15083274 0.23812574 0.914657 -0.23216605 1.5582683

controller.fc_out.bias f4 [1000]
00000000: 3a73 8c3f ca39 373b b835 633e 15ed 4a3e
00000010: d4c4 523e efd6 5abb 94f7 bbbd 11e3 ec3e
00000020: c858 be3e c5b4 5f3e 4165 743e 569f 96bd
00000030: 3d15 7a3b 4b9b 8c3b 888e d2bb 8d06 723d
00000040: 157f 1fbe fa28 93bc 6bc1 033e f573 4b3c
00000050: a9c6 91bd 5438 8bbd 2719 8f3c 4cb5 c23d
00000060: 72b8 d9bc 763a 71bd b49b 43bb 3361 1b3d
00000070: e01d d33d 1933 0b3e a4fd 7e3e d2ab e43d
00000080: 44f4 5d3d a31c f73c fef0 54bb 1d7a 52bb
00000090: 7b38 54bb 78e6 50bb 91c2 52bb 9d7d 53bb
000000a0: 0cd3 57bb 2715 52bb 8775 53bb 4995 52bb
000000b0: e134 53bb d7be 5abb e2fd 50bb d4a5 55bb
000000c0: 4834 51bb 12c6 61bb e101 55bb a650 51bb
000000d0: 38ac 56bb 9545 52bb 0f8e 52bb fc38 55bb
000000e0: 14e7 59bb c1c5 52bb d1de 50bb e5af 54bb
000000f0: 36e0 50bb 9208 57bb 8674 56bb 3391 52bb
00000100: 4ae7 53bb 860d 54bb accc 57bb c8d8 50bb
00000110: 6ea0 53bb 91cd 51bb fb22 51bb 4785 51bb
00000120: 0220 58bb 3f92 51bb c94c 52bb e351 55bb
00000130: 9688 59bb cefe 52bb 1ae2 50bb 7e9c 5bbb
00000140: 470f 52bb 1a79 57bb b7d6 50bb d88e 51bb
00000150: fe44 56bb 5314 5bbb d606 51bb 0f5b 53bb
00000160: 9a51 54bb ac0e 58bb d62a 55bb ebba 54bb
00000170: c605 52bb daff 58bb 9238 53bb db64 53bb
00000180: e306 55bb 1e1c 53bb b9ed 51bb 99b5 53bb
00000190: b653 58bb e904 57bb 6fea 50bb df04 51bb
000001a0: f834 56bb d925 58bb 07fd 56bb 5dc3 53bb
000001b0: ba5e 51bb 1906 5fbb b864 51bb 689f 56bb
000001c0: 5a16 51bb 3e3a 66bb 9582 51bb 730e 56bb
000001d0: a5ca 57bb 135c 55bb a0ca 53bb c650 52bb
000001e0: 7714 59bb 7a5a 5abb 1e1e 53bb b6c3 53bb
000001f0: e7ac 53bb 2bcd 54bb 7b3c 57bb ee33 5fbb
00000200: d4a2 54bb 6d3a 53bb b4d0 51bb 80e3 52bb
00000210: 1957 59bb 8f81 56bb cc05 57bb 0136 53bb
00000220: a988 55bb 52e8 54bb 76f6 51bb 65bc 51bb
00000230: c86e 51bb afb0 57bb 5f13 52bb 0832 59bb
00000240: ab02 52bb fe9f 5dbb 8a43 51bb b107 56bb
00000250: 5649 52bb 6564 5ebb ad84 54bb e846 55bb
00000260: 22b8 54bb a6e6 5fbb f4dc 50bb 6944 51bb
00000270: 8b4f 59bb ed04 51bb cd12 51bb fff1 55bb
00000280: e859 54bb 422e 52bb fd39 51bb 940b 55bb
00000290: 082c 53bb 61f9 50bb bf71 58bb 239d 58bb
000002a0: 1427 54bb a5e2 50bb 48eb 57bb cece 50bb
000002b0: e7a0 57bb edc2 57bb 7e30 54bb d262 57bb
000002c0: f078 56bb 7893 52bb b17a 54bb 4e6d 55bb
000002d0: a4d2 54bb a387 52bb 4277 59bb 7683 52bb
000002e0: 6975 52bb 978f 52bb 77b1 51bb cdff 53bb
000002f0: 1745 54bb 4abd 55bb 62da 50bb f960 53bb
00000300: 5b26 51bb 8f52 58bb 6caa 55bb be79 51bb
00000310: a8d5 50bb d69a 54bb c268 54bb 6333 56bb
00000320: 3de2 52bb 57be 54bb 9e25 54bb 2971 56bb
00000330: d314 52bb 00ec 53bb db8b 51bb f8c4 53bb
00000340: af21 54bb bf0e 52bb c197 52bb e05b 52bb
00000350: 14d1 50bb 5e64 59bb 3fdb 55bb 91d7 50bb
00000360: 9270 53bb 8dc9 53bb 8b90 52bb 41e3 54bb
00000370: 17cc 55bb 3624 53bb 93dc 59bb ec42 52bb
00000380: 4265 57bb 7d7a 57bb dfee 50bb 3d8c 51bb
00000390: 9d1b 52bb fbd8 53bb 406e 51bb da27 52bb
000003a0: e36f 52bb 04a3 55bb ace0 57bb 6931 54bb
000003b0: 1cfb 50bb 8beb 50bb 8778 52bb 5bae 53bb
000003c0: bb6f 53bb 0cb1 57bb 642d 52bb 5184 59bb
000003d0: 7cae 51bb 3f35 52bb 67dc 56bb 65c2 52bb
000003e0: 7866 54bb b257 51bb 5a50 52bb dfc5 51bb
000003f0: 8c1d 51bb ae4f 51bb 8033 52bb a867 52bb
1.0972664 0.002795803 0.22188461 0.19817002 0.20582896 -0.003339227 -0.09178081 0.46266988
0.3717711 0.21846302 0.2386675 -0.0735461 0.0038159632 0.0042909733 -0.0064256825 0.05908828
-0.15575822 -0.017963875 0.12866752 0.012417783 -0.071179695 -0.06797853 0.017468048 0.09507236
-0.026577208 -0.058893643 -0.0029847445 0.037934493 0.103084326 0.13593711 0.24901444 0.111655846
0.054188028 0.030165022 -0.0032492275 -0.0032116242 -0.0032382298 -0.0031875651 -0.0032159428 -0.0032270916
-0.003293219 -0.0032056065 -0.0032266097 -0.0032132438 -0.0032227563 -0.003337791 -0.0031889607 -0.0032600062
-0.0031922031 -0.0034450334 -0.003250234 -0.003193894 -0.003275646 -0.003208493 -0.003212813 -0.0032535186
-0.0033249306 -0.0032161328 -0.003187109 -0.0032453474 -0.0031871921 -0.0032811505 -0.0032723262 -0.0032130003
-0.0032333904 -0.0032356693 -0.003292839 -0.0031867493 -0.0032291668 -0.0032013396 -0.003191172 -0.0031970309
-0.0032978063 -0.0031978039 -0.0032089225 -0.003255003 -0.0033192984 -0.0032195332 -0.0031873048 -0.0033510025
-0.0032052563 -0.0032878579 -0.0031866261 -0.003197601 -0.003269493 -0.0033428862 -0.0031894944 -0.003225032
-0.003239727 -0.003296773 -0.0032526753 -0.0032460045 -0.0032046898 -0.0033111484 -0.0032229763 -0.003225616
-0.0032505326 -0.0032212804 -0.0032032563 -0.0032304286 -0.003300888 -0.0032809323 -0.0031878015 -0.0031893773
-0.003268538 -0.0032981543 -0.0032804625 -0.003231249 -0.003194733 -0.0034030734 -0.0031950902 -0.0032748822
-0.0031904192 -0.003512993 -0.0031968702 -0.003266242 -0.0032927182 -0.0032556101 -0.0032316819 -0.0032091602
-0.003312377 -0.0033318088 -0.0032213996 -0.0032312698 -0.0032299103 -0.0032470922 -0.0032842446 -0.0034058052
-0.0032445686 -0.003223087 -0.0032015266 -0.0032179058 -0.0033163487 -0.0032731032 -0.0032809852 -0.0032228234
-0.0032582677 -0.0032487107 -0.0032037771 -0.003200316 -0.00319569 -0.0032911708 -0.0032055003 -0.0033141393
-0.0032045047 -0.0033817287 -0.0031931126 -0.0032658393 -0.0032087169 -0.0033934352 -0.0032427714 -0.0032543484
-0.0032458385 -0.0034164577 -0.003186998 -0.0031931645 -0.0033158984 -0.0031893805 -0.0031902075 -0.0032645462
-0.003240222 -0.003207103 -0.0031925433 -0.0032508122 -0.003222229 -0.0031886923 -0.0033026782 -0.0033052645
-0.0032371925 -0.0031873372 -0.0032946635 -0.0031861546 -0.0032902302 -0.0032922581 -0.0032377536 -0.0032865298
-0.0032725893 -0.0032131355 -0.0032421763 -0.0032566371 -0.0032474184 -0.0032124303 -0.0033182655 -0.0032121814
-0.003211344 -0.0032129043 -0.0031996646 -0.0032348514 -0.0032389814 -0.0032614046 -0.0031868448 -0.0032253845
-0.003191373 -0.0033008193 -0.00326028 -0.0031963433 -0.003186563 -0.0032440922 -0.0032411073 -0.0032684437
-0.0032178306 -0.0032462084 -0.0032371054 -0.0032721257 -0.003205587 -0.0032336712 -0.003197423 -0.0032313447
-0.003236871 -0.0032052246 -0.003213391 -0.0032098219 -0.0031862902 -0.0033171396 -0.0032631902 -0.003186677
-0.0032263142 -0.0032316179 -0.0032129611 -0.0032484087 -0.0032622868 -0.0032217628 -0.0033243045 -0.0032083346
-0.003286675 -0.0032879405 -0.003188066 -0.0031974458 -0.0032059916 -0.0032325375 -0.0031956583 -0.003206721
-0.0032110147 -0.0032598386 -0.0032940311 -0.0032378084 -0.0031887954 -0.0031878676 -0.0032115297 -0.003229997
-0.0032262641 -0.0032911925 -0.0032070512 -0.003319044 -0.003199487 -0.0032075194 -0.0032785179 -0.0032159325
-0.003240971 -0.003194314 -0.003209135 -0.003200881 -0.003190848 -0.0031938362 -0.0032074153 -0.003210524
