VerNova/checkpoints/ntm_val_0.1277_epoch_101.pt (torch, 863092 bytes, 11 tensors)

read_vectors f4 [1, 32]
00000000: 8928 013f db34 a5be 045b b93f bf7c 26bf
00000010: 1bfc e23f 5190 17bd 8037 8c3e 8bed 843f
00000020: be69 f6be 17ec 12bf 95eb d63f 8362 833e
00000030: 03fe 24bf 71b4 80bf 5eed 6fbf 2c95 d93e
00000040: c6ce bb3f 8327 183f 596c a6be f7d1 5f3d
00000050: 55f3 de3f 4ca6 9a3e 3456 f73e 39be 20bf
00000060: c17e a03e e053 69bf ea5b 493f c35d acbf
00000070: d85f c13d 4ea0 023e 1af4 083f 7c8b b5bf
0.50452477 -0.32266888 1.4480901 -0.650341 1.7733186 -0.037002865 0.27386093 1.0384992
-0.4812755 -0.57391495 1.6790644 0.25661096 -0.6445009 -1.0055066 -0.9372157 0.42496622
1.4672477 0.5943529 -0.32504538 0.054643597 1.7418009 0.30205 0.48307955 -0.62790257
0.31346706 -0.9114361 0.78655875 -1.3466114 0.09442109 0.12756464 0.5349747 -1.4183192

memory.memory f4 [64, 32]
00000000: 8928 013f db34 a5be 045b b93f bf7c 26bf
00000010: 1bfc e23f 5190 17bd 8037 8c3e 8bed 843f
00000020: be69 f6be 17ec 12bf 95eb d63f 8362 833e
00000030: 03fe 24bf 71b4 80bf 5eed 6fbf 2c95 d93e
00000040: c6ce bb3f 8327 183f 596c a6be f7d1 5f3d
00000050: 55f3 de3f 4ca6 9a3e 3456 f73e 39be 20bf
00000060: c17e a03e e053 69bf ea5b 493f c35d acbf
00000070: d85f c13d 4ea0 023e 1af4 083f 7c8b b5bf
00000080: 8928 013f db34 a5be 045b b93f bf7c 26bf
00000090: 1bfc e23f 5190 17bd 8037 8c3e 8bed 843f
000000a0: be69 f6be 17ec 12bf 95eb d63f 8362 833e
000000b0: 03fe 24bf 71b4 80bf 5eed 6fbf 2c95 d93e
000000c0: c6ce bb3f 8327 183f 596c a6be f7d1 5f3d
000000d0: 55f3 de3f 4ca6 9a3e 3456 f73e 39be 20bf
000000e0: c17e a03e e053 69bf ea5b 493f c35d acbf
000000f0: d85f c13d 4ea0 023e 1af4 083f 7c8b b5bf
00000100: 8928 013f db34 a5be 045b b93f bf7c 26bf
00000110: 1bfc e23f 5190 17bd 8037 8c3e 8bed 843f
00000120: be69 f6be 17ec 12bf 95eb d63f 8362 833e
00000130: 03fe 24bf 71b4 80bf 5eed 6fbf 2c95 d93e
00000140: c6ce bb3f 8327 183f 596c a6be f7d1 5f3d
00000150: 55f3 de3f 4ca6 9a3e 3456 f73e 39be 20bf
00000160: c17e a03e e053 69bf ea5b 493f c35d acbf
00000170: d85f c13d 4ea0 023e 1af4 083f 7c8b b5bf
00000180: 8928 013f db34 a5be 045b b93f bf7c 26bf
00000190: 1bfc e23f 5190 17bd 8037 8c3e 8bed 843f
000001a0: be69 f6be 17ec 12bf 95eb d63f 8362 833e
000001b0: 03fe 24bf 71b4 80bf 5eed 6fbf 2c95 d93e
000001c0: c6ce bb3f 8327 183f 596c a6be f7d1 5f3d
000001d0: 55f3 de3f 4ca6 9a3e 3456 f73e 39be 20bf
000001e0: c17e a03e e053 69bf ea5b 493f c35d acbf
000001f0: d85f c13d 4ea0 023e 1af4 083f 7c8b b5bf
00000200: 8928 013f db34 a5be 045b b93f bf7c 26bf
00000210: 1bfc e23f 5190 17bd 8037 8c3e 8bed 843f
00000220: be69 f6be 17ec 12bf 95eb d63f 8362 833e
00000230: 03fe 24bf 71b4 80bf 5eed 6fbf 2c95 d93e
00000240: c6ce bb3f 8327 183f 596c a6be f7d1 5f3d
00000250: 55f3 de3f 4ca6 9a3e 3456 f73e 39be 20bf
00000260: c17e a03e e053 69bf ea5b 493f c35d acbf
00000270: d85f c13d 4ea0 023e 1af4 083f 7c8b b5bf
00000280: 8928 013f db34 a5be 045b b93f bf7c 26bf
00000290: 1bfc e23f 5190 17bd 8037 8c3e 8bed 843f
000002a0: be69 f6be 17ec 12bf 95eb d63f 8362 833e
000002b0: 03fe 24bf 71b4 80bf 5eed 6fbf 2c95 d93e
000002c0: c6ce bb3f 8327 183f 596c a6be f7d1 5f3d
000002d0: 55f3 de3f 4ca6 9a3e 3456 f73e 39be 20bf
000002e0: c17e a03e e053 69bf ea5b 493f c35d acbf
000002f0: d85f c13d 4ea0 023e 1af4 083f 7c8b b5bf
00000300: 8928 013f db34 a5be 045b b93f bf7c 26bf
00000310: 1bfc e23f 5190 17bd 8037 8c3e 8bed 843f
00000320: be69 f6be 17ec 12bf 95eb d63f 8362 833e
00000330: 03fe 24bf 71b4 80bf 5eed 6fbf 2c95 d93e
00000340: c6ce bb3f 8327 183f 596c a6be f7d1 5f3d
00000350: 55f3 de3f 4ca6 9a3e 3456 f73e 39be 20bf
00000360: c17e a03e e053 69bf ea5b 493f c35d acbf
00000370: d85f c13d 4ea0 023e 1af4 083f 7c8b b5bf
00000380: 8928 013f db34 a5be 045b b93f bf7c 26bf
00000390: 1bfc e23f 5190 17bd 8037 8c3e 8bed 843f
000003a0: be69 f6be 17ec 12bf 95eb d63f 8362 833e
000003b0: 03fe 24bf 71b4 80bf 5eed 6fbf 2c95 d93e
000003c0: c6ce bb3f 8327 183f 596c a6be f7d1 5f3d
000003d0: 55f3 de3f 4ca6 9a3e 3456 f73e 39be 20bf
000003e0: c17e a03e e053 69bf ea5b 493f c35d acbf
000003f0: d85f c13d 4ea0 023e 1af4 083f 7c8b b5bf
0.50452477 -0.32266888 1.4480901 -0.650341 1.7733186 -0.037002865 0.27386093 1.0384992
-0.4812755 -0.57391495 1.6790644 0.25661096 -0.6445009 -1.0055066 -0.9372157 0.42496622
1.4672477 0.5943529 -0.32504538 0.054643597 1.7418009 0.30205 0.48307955 -0.62790257
0.31346706 -0.9114361 0.78655875 -1.3466114 0.09442109 0.12756464 0.5349747 -1.4183192
0.50452477 -0.32266888 1.4480901 -0.650341 1.7733186 -0.037002865 0.27386093 1.0384992
-0.4812755 -0.57391495 1.6790644 0.25661096 -0.6445009 -1.0055066 -0.9372157 0.42496622
1.4672477 0.5943529 -0.32504538 0.054643597 1.7418009 0.30205 0.48307955 -0.62790257
0.31346706 -0.9114361 0.78655875 -1.3466114 0.09442109 0.12756464 0.5349747 -1.4183192
0.50452477 -0.32266888 1.4480901 -0.650341 1.7733186 -0.037002865 0.27386093 1.0384992
-0.4812755 -0.57391495 1.6790644 0.25661096 -0.6445009 -1.0055066 -0.9372157 0.42496622
1.4672477 0.5943529 -0.32504538 0.054643597 1.7418009 0.30205 0.48307955 -0.62790257
0.31346706 -0.9114361 0.78655875 -1.3466114 0.09442109 0.12756464 0.5349747 -1.4183192
0.50452477 -0.32266888 1.4480901 -0.650341 1.7733186 -0.037002865 0.27386093 1.0384992
-0.4812755 -0.57391495 1.6790644 0.25661096 -0.6445009 -1.0055066 -0.9372157 0.42496622
1.4672477 0.5943529 -0.32504538 0.054643597 1.7418009 0.30205 0.48307955 -0.62790257
0.31346706 -0.9114361 0.78655875 -1.3466114 0.09442109 0.12756464 0.5349747 -1.4183192
0.50452477 -0.32266888 1.4480901 -0.650341 1.7733186 -0.037002865 0.27386093 1.0384992
-0.4812755 -0.57391495 1.6790644 0.25661096 -0.6445009 -1.0055066 -0.9372157 0.42496622
1.4672477 0.5943529 -0.32504538 0.054643597 1.7418009 0.30205 0.48307955 -0.62790257
0.31346706 -0.9114361 0.78655875 -1.3466114 0.09442109 0.12756464 0.5349747 -1.4183192
0.50452477 -0.32266888 1.4480901 -0.650341 1.7733186 -0.037002865 0.27386093 1.0384992
-0.4812755 -0.57391495 1.6790644 0.25661096 -0.6445009 -1.0055066 -0.9372157 0.42496622
1.4672477 0.5943529 -0.32504538 0.054643597 1.7418009 0.30205 0.48307955 -0.62790257
0.31346706 -0.9114361 0.78655875 -1.3466114 0.09442109 0.12756464 0.5349747 -1.4183192
0.50452477 -0.32266888 1.4480901 -0.650341 1.7733186 -0.037002865 0.27386093 1.0384992
-0.4812755 -0.57391495 1.6790644 0.25661096 -0.6445009 -1.0055066 -0.9372157 0.42496622
1.4672477 0.5943529 -0.32504538 0.054643597 1.7418009 0.30205 0.48307955 -0.62790257
0.31346706 -0.9114361 0.78655875 -1.3466114 0.09442109 0.12756464 0.5349747 -1.4183192
0.50452477 -0.32266888 1.4480901 -0.650341 1.7733186 -0.037002865 0.27386093 1.0384992
-0.4812755 -0.57391495 1.6790644 0.25661096 -0.6445009 -1.0055066 -0.9372157 0.42496622
1.4672477 0.5943529 -0.32504538 0.054643597 1.7418009 0.30205 0.48307955 -0.62790257
0.31346706 -0.9114361 0.78655875 -1.3466114 0.09442109 0.12756464 0.5349747 -1.4183192

controller.lstm.weight_ih f4 [400, 64]
00000000: b24f 803c cc0c 63bc 6c67 a7bc 9843 433d
00000010: 8ab6 ca3c 3ca2 9cbc e0b5 c0bc 8bb8 afbb
00000020: 60b5 cabd d03c d63c 29d2 373d 79ee 953d
00000030: f2d5 443b 5171 353c 8eef b23b 8bc6 bc3b
00000040: 040f 2e3e 86b3 76bd 4c10 34bc 2d55 6c3d
00000050: 1a2f 25bc 7a2f 163c cb03 04bd 86c9 72bd
00000060: 196f 04bc 0078 69bd 0381 aebd 25fa ce3d
00000070: eb33 33bc 0188 9cbc bff7 95bb b772 8b3d
00000080: d7c5 833d c072 84bd 8102 bcbd 44d9 7cbc
00000090: c0a7 4dbe 796e 80bd afc9 453c faf2 a2bd
000000a0: 36f0 623d 4b36 b83e 56b3 1bbe 6495 b03e
000000b0: b96f 283d 67fa 3abd 0602 463e 33de 9d3b
000000c0: 4347 8cbd c08c 0dbd 4168 513e 7199 263d
000000d0: 7e60 88be b19e dcbd 66de 5c3d d8b7 023e
000000e0: d709 433a c245 adbc 1144 ac3d 2b8f 213e
000000f0: 6eac 1dbe 4ca3 e2bc 03c2 5bbe f755 193e
00000100: 9e23 693c 9644 ddbd e6bb 193e e683 013d
00000110: c842 5a3e e0e6 bebd c91d 17be 830e bc3d
00000120: 1165 9dbd 77ed 29be e47f ad3b 1bee 603d
00000130: 8e16 00be ff6b b63d 83c2 e03a fca6 023c
00000140: e1e5 d03d db1c d3bd aabd a33d c744 3abd
00000150: 8eb0 15bc 7049 483d 59c7 13bd 1883 51be
00000160: 4ce1 3a3e 68a0 e5bb 4c4e 65bd a905 d2bd
00000170: eb2b 5dbe 1e7a eebd 8488 0a3c 4098 66bb
00000180: 087b 75bd d35b a4bc 8811 0e3d 5b0c 003d
00000190: 03e4 a93c 4db9 ee3b 9c44 753c 7c0a 723d
000001a0: 7475 f0bc af85 b5bc b838 cabc d53a 30bb
000001b0: 539b 10bd 8d30 b9bd c51b 61bd cb57 27bd
000001c0: f162 053e cfcc afbc e7da 3dbd 1093 a23c
000001d0: e959 bcbb 0d63 22bd 9c70 143d a779 ac3c
000001e0: 5a25 96bd c341 d6bc d81f 1b3c c876 53bd
000001f0: bb57 c93b 6626 543b 4cae 193d 0e95 54bd
00000200: 8c07 6dbb b583 d8bd 7004 b93d fcc2 ac3d
00000210: bb79 413e a6f9 11bd 2fda 7abd f618 a43d
00000220: 4475 eabd eee2 ccbd 484b c93c 1aaa 123e
00000230: 625e 37bd e016 0b3e f7dc d63c 1d00 c33b
00000240: 1a87 a3bd 1509 9ebd 87b0 163e 95e3 39be
00000250: 08db a3bc 836a 053e 1d05 80bd 859e 1fbe
00000260: 0b0b 013e b62b d1bd c704 01be 59a8 febd
00000270: ea1b 1fbe 8c02 23be a924 f23c f229 07bd
00000280: c591 353d 5eef ec3d 91a8 09be 5c34 de3e
00000290: ac79 95bd 965f 00bf ed15 34be 7b40 2abe
000002a0: cf15 a03e 8293 f0bd 7368 8d3d b63c 2c3f
000002b0: 42b8 453e 594c b9bd 46c6 523e 9847 2abc
000002c0: 5bdc cfbd 13d6 3fbe 881a 1dbe 8f28 f63e
000002d0: 5fa1 ccbe 4c00 80bd ce0c 413f 9916 ffbe
000002e0: 328f 26be 5b02 303e e874 15be 701c 92bd
000002f0: 1b12 c2be ef09 823d dddb 6bbe d69d 84bd
00000300: a740 083e 00b1 d0bd 2aef 113e ceca 0fbd
00000310: 7c35 4d3d 2f0e d0bd d42a b23b d93a 7c3d
00000320: 56a7 eb3c 062a 0ebe 891d a5bd 09b5 583d
00000330: 004c d33c 74c3 b13d d034 c03c 0169 973d
00000340: f2cf c1bd 6bae 46bd 274f 19be 2574 153d
00000350: 500d 863d d5fd d3bd 3f2e bdbd 5ad3 25be
00000360: d820 7d3b d2e0 793d 3178 913c 8e97 1bbd
00000370: a5fe 56bd 72b1 8ebd bf72 cdbc 6a60 19bd
00000380: 68c2 1c3e e22c 113d 8c14 e73d 72c6 a5bd
00000390: bdaa 4f3e d947 1ebe 0f3d 913e ea30 4f3e
000003a0: 9768 32be e098 07be 476c 8b3e f8af 673d
000003b0: 9d24 b6bd 3ea6 debd e0df 0abe b100 7b3e
000003c0: 572d 943c 37d4 c23d fc19 aa3c ff06 fa3d
000003d0: d349 513e 7c8f 2f3d ef40 83bc c293 f1bd
000003e0: f548 9cbd f3fd 69bd 4973 f0be 0525 7d3c
000003f0: bab5 e13c 5f94 b1bc 1741 823d e858 bbbd
0.015663002 -0.0138580315 -0.020435058 0.047671884 0.024745245 -0.019120328 -0.023524225 -0.0053625754
-0.09897876 0.026152045 0.04487816 0.07320876 0.0030034748 0.01107438 0.005460686 0.005760973
0.16997916 -0.0602298 -0.010990214 0.057698417 -0.010082031 0.009166593 -0.03223018 -0.05927422
-0.008083128 -0.056999207 -0.08520701 0.10106305 -0.010937671 -0.01910782 -0.004576653 0.068089895
0.06434219 -0.06467199 -0.09180165 -0.01543266 -0.20083523 -0.06271071 0.012072011 -0.079565
0.055404864 0.35978922 -0.1520513 0.34488976 0.041122172 -0.04564896 0.1933671 0.004817748
-0.068495296 -0.034558058 0.20449926 0.040673677 -0.26636118 -0.107724555 0.053923033 0.12765443
0.0007440126 -0.021151427 0.0841142 0.1577727 -0.15397808 -0.027665757 -0.21460728 0.14974199
0.014229683 -0.10804097 0.15013084 0.03161993 0.21314538 -0.0932138 -0.14757456 0.091824554
-0.076852925 -0.16594492 0.0052947868 0.054914575 -0.12508604 0.08907317 0.0017147813 0.0079743825
0.10200096 -0.10308238 0.0799516 -0.045475747 -0.009136332 0.04889816 -0.036078785 -0.20460165
0.18250006 -0.0070076473 -0.055982873 -0.10254986 -0.21598785 -0.11644386 0.008455399 -0.0035185963
-0.059931785 -0.020063316 0.034684688 0.031261783 0.020738607 0.007285273 0.014969971 0.05909203
-0.029352881 -0.022158472 -0.024685249 -0.0026890535 -0.03530438 -0.090424635 -0.054958124 -0.04085521
0.13026024 -0.021459965 -0.04635134 0.019845515 -0.005748023 -0.039645243 0.036240205 0.021054102
-0.07331343 -0.026154405 0.009468041 -0.05162695 0.0061444915 0.003237152 0.037519738 -0.051899962
-0.0036167828 -0.10571996 0.090340495 0.08435628 0.18894093 -0.035638474 -0.061243232 0.080125734
-0.11448148 -0.10004221 0.02457203 0.14322701 -0.044767745 0.13582945 0.026228411 0.0059509412
-0.07984753 -0.07716576 0.14715777 -0.18153222 -0.020001903 0.13028912 -0.06250975 -0.15587814
0.12601869 -0.10213415 -0.12599479 -0.124344535 -0.15537992 -0.1591894 0.029558497 -0.032998987
0.04432847 0.11569093 -0.13443209 0.43399322 -0.07298598 -0.5014585 -0.17586489 -0.1662616
0.3126664 -0.11746885 0.06904688 0.6728014 0.1930857 -0.09047765 0.20583448 -0.010393046
-0.10149451 -0.18734007 -0.15342152 0.4807782 -0.39966866 -0.062500566 0.75410163 -0.49821928
-0.16265562 0.17188399 -0.14595377 -0.0713433 -0.37904438 0.06349551 -0.2303309 -0.06475417
0.13305913 -0.1019001 0.1425139 -0.03510552 0.050099835 -0.10158955 0.0054372344 0.06157956
0.028766315 -0.13883218 -0.08062274 0.052907024 0.025793076 0.08679858 0.023462683 0.07393075
-0.094634905 -0.04850618 -0.149716 0.036487717 0.06545508 -0.10351149 -0.09237336 -0.16193905
0.0038624313 0.06100542 0.017757507 -0.03798633 -0.05248894 -0.06967439 -0.02507913 -0.037445463
0.15308535 0.035443194 0.11283216 -0.08094491 0.20279975 -0.15457095 0.28366897 0.20233503
-0.1742271 -0.13241911 0.27231047 0.0565643 -0.08893702 -0.10871552 -0.13561964 0.24511983
0.018088026 0.09513133 0.020764343 0.12208366 0.20438318 0.042861447 -0.016022174 -0.11795761
-0.07631103 -0.05712695 -0.46962956 0.015450721 0.027552474 -0.021677194 0.06360071 -0.09147817

controller.lstm.weight_hh f4 [400, 100]
00000000: 1bb1 25be 94ad a2be 0692 d9bd ab93 9dbe
00000010: 7305 153d 9791 5b3c 83e6 42be a0c4 893e
00000020: 4828 a23d b88f 5ebd ddcd 6dbd 93e0 abbe
00000030: 0f57 5cbc 57a2 5d3e 02cf cfbb 2438 4c3d
00000040: 0d57 b63c 595c 7fbd 45af 353d ebda 023d
00000050: ae7e b93d 601c 98bd d9a2 683c c313 d1bd
00000060: 1498 94bd 4633 ae3d f27b 1b3c fa46 f7bc
00000070: 8d18 c2bd a646 023d 3e0a 21bc a77e 11bd
00000080: 9a2f 903d 316e e5bd 6e0e 2fbe 6f22 d73d
00000090: 95c9 bc3d 478f 783d b19e 0c3d 24dd 33be
000000a0: 8445 c13c ce71 143e 9868 30be 2a41 31be
000000b0: c4be 253d 0259 76bc 3177 6f3d 7201 ca3d
000000c0: 3dd5 a8bd 4f19 89be 186d 23bd d4ad b23c
000000d0: fc6f 053d acf6 083e 63f7 91bd f815 8cbd
000000e0: cd21 213c 5d79 143d c0f4 24bd 4aad c03d
000000f0: f912 953e cee5 8a3c bea1 073e 8fe3 df3c
00000100: 2f07 4e3e 6305 b7bc 3ed3 94bc 04f0 1a3e
00000110: d180 c9bd 7511 a2bc 1daa d13d 8bec c73d
00000120: e875 09be e21b b13d 9494 c0bd 0af5 843d
00000130: e307 16bd 454f 4dbe 538b b0bd 7e7a b0bc
00000140: 380a 3abd c79e f639 a706 433d 7e15 8c3d
00000150: d52f 893b 5d89 793e 095f 913d f2be 9abd
00000160: e6a1 dc3d e8cf 11be b703 f33c 1b63 d3bd
00000170: c51d 093e 9040 aebd 315e c73d fffb babc
00000180: 2cda fa39 d4d3 12bd 6829 81be a18e 4fbb
00000190: cf94 113d e82d 1e3b a33c 59bc 8ce6 c0ba
000001a0: d8b1 d5bd 88c8 3fbd 2b5a 923e 06df b0bb
000001b0: 045c 443c ebe1 9ebd daae 173e 57e2 99bd
000001c0: b577 943d 9865 2b3e 6ae9 51bd 368d 5a3d
000001d0: 5963 74b9 4e8f 46be 921a 743d 7e06 42bd
000001e0: 2a3a 77bd f026 15be b141 f5bb 0bbc bdbd
000001f0: 8aaf 233d 784d a23d fc30 9ebd d6c1 fcbc
00000200: 5d9a 0d3c 2174 583b 20e2 0b3e 6ea5 6d3e
00000210: 6def 623d 5902 e7bd 014d 3d3b b7b3 6bbd
00000220: 68dd b53c fce4 1abd 0bcc 1ebd 3b25 953c
00000230: 4d26 b1bd ad87 d2bd 6a7d 62bc a228 a1bc
00000240: ee51 9b3c c908 dcbc 4e46 6eba f2c1 f4bd
00000250: 2db9 043e ff39 6e3d a3a1 04bd 990e b83c
00000260: 31ae baba 0801 123c 7317 8cbc 7ba2 1a3e
00000270: fcbd c33d 43ab ac3d ae7f 69bd 8d0d 423d
00000280: 57db a83d e2e1 7cbd 121f ffbb 4c7a 6d3d
00000290: 7c49 f63c 04ac 333d 32a3 10bd b10b babd
000002a0: ba3a 20bd 3998 88bd 54d9 55bd 1799 9ebd
000002b0: 107d f7bb 4470 1a3e cb40 e73c 24c0 92bc
000002c0: 8370 9e3c 1fc5 ed3d 754a a6bc 8d97 cd3d
000002d0: 5011 b73d fdc6 3c3d 92c1 943d 940d 29be
000002e0: 6a64 82bd d4c7 0cba 9337 0a3e cc6a 6b3d
000002f0: fefc bcbd 7d1d 77bc 3155 133d 88a4 ec3d
00000300: a8c1 073d d98a 953b 7db2 b9bd e64a a8bc
00000310: b06a 393e f245 1a3d 011b 39bd bf76 35bc
00000320: 6cbf bdbe a833 613e 84be 1d3f de86 c4be
00000330: 273b f13d 9caa 1b3e 6a71 813e b5f8 be3e
00000340: 3371 f7be 3853 04bb 735e 71bf c8d7 a7be
00000350: daca 39c0 6464 1cbe 878e 92be a787 103d
00000360: ce7c 61bd e5ab 3d3e 8f18 863d 7493 c63d
00000370: ed70 0d3f 2a81 003e 777d 1ebd 7421 d23d
00000380: a69b 953e 4e18 473e cb38 9b3c 7760 c33e
00000390: 6331 20bf 9044 003e f70f 1dbe 4d97 a7bd
000003a0: 46b0 50be df74 943d 86ca bfbd c6ab 11bd
000003b0: 73b4 9fbe 35b5 bfbd b8f7 40bd 6dbc be3e
000003c0: e673 a13d a0f2 80bd 567c 793d f4fa 40bd
000003d0: 94c4 103d 93d3 e53e dfc5 f5be b9dd f6bd
000003e0: 1f39 cbbd 3c55 713e 0c3c b13c d7c1 04bd
000003f0: 540a 9abd ec4c aabe 3a5d 013d 298e 32be
-0.16180842 -0.31773055 -0.10623555 -0.30776724 0.03638215 0.013401411 -0.19033246 0.26907825
0.07917839 -0.05433628 -0.058057655 -0.33569774 -0.013448491 0.21643959 -0.006341816 0.049858227
0.022258306 -0.06234393 0.044356603 0.031947058 0.09057365 -0.07427287 0.014198982 -0.102088474
-0.07255569 0.085058734 0.00949 -0.030185211 -0.09477339 0.031805657 -0.009829102 -0.035521176
0.07040329 -0.11202658 -0.17095348 0.105046146 0.09218136 0.060683515 0.034331027 -0.17564827
0.023592718 0.14496538 -0.172274 -0.17310014 0.04046513 -0.01503587 0.05846328 0.09863557
-0.08243797 -0.2677712 -0.03989896 0.021811403 0.0325775 0.13375348 -0.071272634 -0.06840128
0.009834719 0.036248554 -0.040272474 0.09408052 0.29116037 0.016955283 0.13245293 0.027330188
0.20119928 -0.022341436 -0.018167134 0.15130621 -0.09839023 -0.019783715 0.10237525 0.09761914
-0.13423884 0.08647896 -0.09403339 0.0649205 -0.036628615 -0.2004977 -0.08620324 -0.021542784
-0.0454199 0.00047039075 0.047613766 0.06840037 0.00418661 0.24368806 0.07098205 -0.07555951
0.10773067 -0.14239466 0.029664857 -0.10321637 0.13390262 -0.08508408 0.097347625 -0.02282524
0.00047846267 -0.035846546 -0.25226903 -0.0031670707 0.035542306 0.002413625 -0.013259086 -0.0014717146
-0.10434312 -0.0468221 0.28584418 -0.00539768 0.011984829 -0.07757934 0.14812794 -0.07513874
0.07249395 0.16737974 -0.05124799 0.053357325 -0.00023306663 -0.19390604 0.059595652 -0.047369473
-0.060358204 -0.14565635 -0.0074846377 -0.09264382 0.03996233 0.07924932 -0.07724187 -0.030854147
0.00864276 0.0033028203 0.13660479 0.23207638 0.055404115 -0.11279745 0.002888501 -0.057544436
0.022200301 -0.037816033 -0.03876881 0.01820623 -0.086498834 -0.10279784 -0.013823846 -0.019672696
0.018959966 -0.026859658 -0.00090894557 -0.11951055 0.12961264 0.058160778 -0.03238071 0.022467898
-0.0014242587 0.008911379 -0.017101025 0.15101044 0.09557721 0.08431103 -0.05700653 0.047376204
0.08244961 -0.061738856 -0.0077856863 0.05797796 0.030064337 0.04386522 -0.035311885 -0.09084261
-0.039118506 -0.06669659 -0.052209213 -0.07744043 -0.0075527504 0.15081888 0.028229138 -0.017913885
0.01934076 0.116098635 -0.020299176 0.10038672 0.08938849 0.046088208 0.07263483 -0.16509086
-0.06366809 -0.0005370353 0.13497762 0.057474896 -0.09227942 -0.015082714 0.035969917 0.11554819
0.03314367 0.004563671 -0.09067247 -0.020543527 0.18107104 0.03766436 -0.04519177 -0.011075675
-0.37060106 0.21992362 0.6161883 -0.38384145 0.117788605 0.15201801 0.2528184 0.37299123
-0.48328552 -0.0020191204 -0.94284743 -0.32781816 -2.903006 -0.15272671 -0.28624365 0.03528562
-0.055050664 0.18522604 0.06547653 0.09696093 0.55250436 0.12549272 -0.03869387 0.10260287
0.29220313 0.19442865 0.01894798 0.38159534 -0.6257536 0.12526155 -0.15338121 -0.08183155
-0.20379743 0.07248854 -0.093648 -0.035564207 -0.3119236 -0.093607344 -0.047111243 0.37253132
0.07883434 -0.06296277 0.06090959 -0.047114328 0.03534372 0.4488798 -0.48002526 -0.12054009
-0.09923004 0.2356767 0.021635078 -0.032411423 -0.07521501 -0.33261812 0.03158305 -0.17437042

controller.lstm.bias_ih f4 [400]
00000000: 474e 5f3d e8b6 033e a4a2 c23d f127 8d3d
00000010: ff83 ab3d e4ef 0e3d 3b63 f93d 9640 633e
00000020: 5345 913d 3779 073e adf5 063e 9341 143e
00000030: 3fa2 6ebd f909 5c3e 6c50 6e3d c305 cd3b
00000040: aef6 373c d9e4 8e3d 603a 8b3d 03d4 8c3d
00000050: dd95 e43d 26e0 e13d 1c08 833d 96ed cf3d
00000060: 3d22 053e 5cfe d63d 1440 433e 1c66 b13d
00000070: 6614 1e3d 303f a63c 666e 9f3d 5351 f53d
00000080: 9b89 8c3d 27ac d33d 721b c03d 999e fabc
00000090: 6583 7fbb 8d0d b13d 2c0d f63c fec5 2a3e
000000a0: 08b8 c53d 9879 193e 06e6 273e cdf8 3dbd
000000b0: 451a 973d e9c7 f2ba a7fa ea3d e463 703d
000000c0: 8f0b ff3c b8c4 183e 1c86 f23d 350c c73d
000000d0: de1d 31bc e7ca fabc 2942 0a3e e6fc fe3d
000000e0: 039a e13d 31b5 b03d 81d0 3f3c a1fb ce3d
000000f0: e007 64bd ca87 1b3d d843 c23d be16 343e
00000100: b722 e03d c1f1 8b3d e850 183d 57d9 523d
00000110: ac11 003e f820 ed3b af72 e13d c2a9 d63b
00000120: 0e0f 6b3d b5c4 b93d e8c0 abbb 0fbc e93d
00000130: cd4e aa3c c9d3 9b3c 09a8 b83d da84 cf3d
00000140: a465 0b3e 23ac d93d 9ca4 bd3d 0a7c 863d
00000150: 3ec0 0c3e 7451 823d 6d1c a9bc 9396 dabc
00000160: fd0b 2d3d d6d2 57bc 7534 bbbd 99e4 863d
00000170: f821 fc3d bb0c ce3d 8434 ae3d 5f69 363d
00000180: 2881 e03d ec91 073e 77ab 873c 83ef 2b3d
00000190: 1ac5 bebc 151c 183d f6a1 d03d e541 093c
000001a0: 7b2f da3c bf4b 953d 387c 113d 325c 3b3e
000001b0: 565f d13d 01d8 103d af30 3b3d a809 75bd
000001c0: e973 85ba b76d 9cbc b27c 8bbb aacc 253d
000001d0: de97 7c3d d346 163d 6cba 973d b2a6 903d
000001e0: 7c47 913d 3ac8 9a3d 297d 313d b5ce 863d
000001f0: f178 973d cde0 093e 245f 1d3e 1b1d 623d
00000200: dc85 943c 95c5 983d 3c56 1e3d 14c3 aa3d
00000210: 0b78 873d 30aa 303e 8fad 473d f18e a43d
00000220: 42bd 293d 3f9e 633d 1c51 863d 04da a0bd
00000230: 5213 8f3d 1591 fa3d f02a 283d e758 f1bd
00000240: 22d2 943d cb00 0dbd 6881 103d 8eec ab3d
00000250: fbc2 05bd 08e8 093e a436 913d 3a27 003d
00000260: fa8c ccbc e25e 2bbc a122 183e e3f5 793d
00000270: 281a 223c 0391 1ebd db4f a7bc cdc8 493d
00000280: 95a8 bf3d 3841 2b3d 4d77 0f3e 8227 173d
00000290: 6281 2e38 77da cabc ec6a 5b3d 4a5d febc
000002a0: 0c97 9a3d 7474 b73d aa80 56bc 6a26 26bd
000002b0: 56d5 983d d96f 833d c00e 263d 9fcf 8d3d
000002c0: cef5 823d 6f5a 313d d900 783d 04f8 c8bd
000002d0: e56f c4bc 79cb 823d 3e12 783d 0d22 e33c
000002e0: 4fb1 103d b6c0 b03d 6535 65bc 7c15 9ebd
000002f0: 6ff1 643c b12c 613c 309b 2f3d cf9e c43d
00000300: d898 343c 63ae 9c3c 60b2 8e3d 508e 03bc
00000310: 72da ab3d ca16 233d 65ce 223e 993a 873d
00000320: 4849 b83d 513c 31bc ce9f 793c 439e 25bc
00000330: df74 f2bd e11e e73c 30a6 883a 7ec3 523d
00000340: 750b e5bc 34dd a4bd 4bed ed3a f0f0 f33d
00000350: 8be2 b83d b5bb 1abd 1caf ac3d 0895 b6bd
00000360: d992 9cbc 28ce 8dbd 4c2b d1bd 85b7 c9bd
00000370: c244 febd 79b8 00be 38b7 e13d f0e1 67bd
00000380: f7e5 763d 5a59 c13d 06ee f9bd 9180 823d
00000390: 57e5 11be 141d 62bd 8ebc e13d dc51 043e
000003a0: 8913 cb3d 1296 27be 9749 0bbd 902d 55bc
000003b0: 4442 bd3d dab0 69bd 15f2 c2bc cf71 aabd
000003c0: 7fee e1bd 3ece 1cbd 1d83 01bd 0da1 0f3c
000003d0: bc37 443c 3808 48bc 156e ee3d 3f5e 6cbd
000003e0: b4e7 03bb b084 81bd 15cb 02be aa80 233d
000003f0: c670 93bb 7e3f 3fbe b444 be3d ee5d c93d
0.05451801 0.12862742 0.095036775 0.06892384 0.08374786 0.034896746 0.1217713 0.22192606
0.07093301 0.13229834 0.13179655 0.1447814 -0.0582602 0.2148818 0.058182165 0.0062567904
0.011228247 0.06977243 0.067982435 0.068763755 0.11161397 0.11029081 0.06398031 0.10152738
0.13001342 0.10497734 0.19067413 0.08662054 0.038593672 0.020293802 0.07784729 0.11978402
0.06862184 0.1033557 0.09380235 -0.030593203 -0.003898823 0.08645163 0.030035578 0.1667709
0.09654242 0.1498779 0.1639634 -0.046379853 0.073780574 -0.0018522713 0.114735894 0.058689013
0.031133441 0.14918792 0.118419856 0.09719125 -0.010810344 -0.03061433 0.135018 0.1245058
0.110157035 0.086283095 0.011707426 0.10106588 -0.055671573 0.037971295 0.094855964 0.175868
0.10944121 0.0683322 0.037186533 0.051476803 0.12506741 0.007236596 0.11008202 0.0065509984
0.057387404 0.09070722 -0.005241502 0.114128225 0.020789528 0.019021885 0.09016425 0.10132761
0.13612992 0.106285356 0.09259912 0.06566627 0.1374521 0.06363192 -0.020643437 -0.026683128
0.04224776 -0.013172826 -0.09140865 0.0658657 0.123111665 0.10061022 0.0850611 0.044534083
0.109621346 0.13239259 0.016561253 0.041976463 -0.023287345 0.037136156 0.101871416 0.008377527
0.026633969 0.07289838 0.035518855 0.18296888 0.10223262 0.035362247 0.045700725 -0.059823662
-0.0010181639 -0.019095285 -0.004256808 0.040478386 0.06166827 0.036688637 0.07408604 0.070630446
0.07093713 0.075577214 0.043332253 0.06582395 0.073961146 0.13464661 0.15368325 0.05520354
0.018130235 0.07459561 0.03865646 0.083379894 0.06614693 0.17252421 0.048749503 0.080350764
0.041440256 0.055570837 0.06558439 -0.07854083 0.06986107 0.122347035 0.041056573 -0.11784535
0.07266642 -0.034424584 0.03527966 0.083947286 -0.03265665 0.13467419 0.070905 0.03128741
-0.024969567 -0.010459634 0.1485696 0.06102551 0.009893931 -0.038712513 -0.02042382 0.049263764
0.09358326 0.041810244 0.14010353 0.036902912 4.160533e-05 -0.024762375 0.053568766 -0.031050343
0.07548341 0.089577585 -0.013092199 -0.04056398 0.074625656 0.064178176 0.04054141 0.06924366
0.0639454 0.043299135 0.060547683 -0.0981293 -0.023979137 0.063864656 0.060564272 0.027726198
0.035325345 0.08630507 -0.013989781 -0.077189416 0.013973578 0.013743565 0.042872608 0.09600603
0.011022769 0.019126123 0.06967616 -0.008029535 0.083912745 0.039816655 0.15899046 0.066029735
0.08998352 -0.010817603 0.015235854 -0.010108533 -0.11838698 0.028212966 0.0010425504 0.051455967
-0.027959565 -0.08050004 0.0018152384 0.119111896 0.09027585 -0.037776668 0.08431837 -0.08915144
-0.019112991 -0.06924087 -0.10213336 -0.09849457 -0.12415458 -0.1257037 0.11021274 -0.056611955
0.060277905 0.094408706 -0.122036025 0.06372178 -0.14247642 -0.055203512 0.11022292 0.12921852
0.099158354 -0.16365841 -0.034005728 -0.013011351 0.09241155 -0.057053424 -0.023797074 -0.083224885
-0.11031818 -0.038282625 -0.03161918 0.008766425 0.011976179 -0.012208991 0.1164209 -0.057707068
-0.002012712 -0.06324136 -0.12772782 0.039917625 -0.0044995276 -0.18676564 0.09290448 0.09832369

controller.lstm.bias_hh f4 [400]
00000000: e245 383d 2a72 d73d d20d 063e bdcd 843d
00000010: 67ac aa3d bf27 653d 430c dc3d f1b6 573e
00000020: c5dc 143d dc72 013e 42b9 fe3d 5bae 093e
00000030: e216 3b3a dba7 473e d6ad 373d 8ce9 973c
00000040: 758b b53c 9a1a bd3d 2d77 833d c118 8a3d
00000050: a9ad e53d 7be8 e13d b1e4 9f3d 4b11 d03d
00000060: c348 fb3d 3263 c83d 5c47 af3d 30ce ae3d
00000070: fbf4 0a3d ab16 e43c 948d a43d 6f7a f43d
00000080: 485b 8f3d 8a95 b73d 495a b33d 7b60 1cbd
00000090: cb58 fd3c c2ed 093e 9471 e73c bfd9 e73d
000000a0: d713 c53d a6f5 c33d bd77 213e 070d 83bd
000000b0: a5ba 9a3d 0c9c d8bc 9df8 c03d 93d1 953d
000000c0: e5cd 6e3c 0a1e 1c3e 2c08 d53d 1aa1 c63d
000000d0: 56fa 2abd 554c cd3c ce48 053e 0b45 fa3d
000000e0: b262 c23d 9f50 d63c 78da 123c 1fa5 c23d
000000f0: 325b 613c f420 d23c 6738 3b3d d023 293e
00000100: 7b5b 053e cad5 973c 420f 0c3d be50 ec3c
00000110: b14c f93d 2028 02bd 07a8 0f3e b947 863c
00000120: c0cd c23d c43e bc3d 5461 2a3d 7479 b73d
00000130: cc43 eab7 3edd 153d 357a ba3d ecbd e33d
00000140: 7149 cd3d 1e44 d53d 0d12 b03d 7e91 883d
00000150: 00da 013e 9b36 823d 3dd9 2fbd ab60 86bc
00000160: bab2 223d 8200 01bd bf5a b4bd 7f24 9e3d
00000170: ccad cb3d 4fce 793d ff1e b03d 3f57 373d
00000180: ea54 e03d 78d4 073e c200 5f3d e44a 3f3d
00000190: a1a0 babc 9f51 e53d bb4b f33d 47ae 9e3b
000001a0: 8c36 57bc b9e1 843d 4954 8e3c bda0 433e
000001b0: cf20 d13d 7e71 103d 535e 4b3d 59c4 55bd
000001c0: e016 d33d 4414 3cbd 18de 04bc 8f9f 383d
000001d0: 85c0 783d e821 8d3c bdcf 973d ddb9 903d
000001e0: 9b49 913d 2bc7 9a3d bab6 2b3d ced2 853d
000001f0: 71d1 a13d 6627 053e 612f 0b3e 642c 623d
00000200: c031 79bb 5acc 923d 3b15 243d d5be aa3d
00000210: c77d 873d 7f10 363e 546d f93c 35d9 9e3d
00000220: 63c2 3c3d e295 8a3d 17b6 793d 0356 84bd
00000230: 3e13 8f3d 5658 ba3d d259 833d 1f2f 8dbd
00000240: fbbd 993d ae58 f13c 784b 593d da9f 293d
00000250: 4685 21bd 0bc9 243e ec2c 913d ea7a 053d
00000260: 31e4 d6bc fa6b 1e3d f8ea f63d e32d 503d
00000270: 0c66 e23d 7ab4 28bd 1ef0 a6bc 8f6f ad3b
00000280: f22c 0a3d 1a8d 533d 83a3 e63d 1c1b 063d
00000290: 9a6c 653c a35d 4dbd f131 713d d3ba a9bb
000002a0: c49b 9a3d 3baf ab3d b76b 693b f629 2bbd
000002b0: 29f4 8b3c 3c73 833d bc6a e83c ac99 7a3d
000002c0: 8ed3 963d 473f 8f3d 58a8 773d 65ce 49bd
000002d0: 9d88 b93d a9ca 823d b411 783d 28e0 bf3d
000002e0: 4737 013d d465 013d b773 2f3c 588f 42bd
000002f0: 4d0f 4b3c 578b f33d 0dbb ca3d 4b00 c63d
00000300: 7a15 e63c 8c5e a13c 03a3 8e3d 942e 843b
00000310: deda ab3d 2c51 073c a9c2 133e 4f1b 843d
00000320: 6515 bf3d b263 b8bd 77b6 693d 64f4 eb3b
00000330: 6b33 e8bd a39b 99bc 4170 0ebb f401 1a3e
00000340: 7e55 e3bc bac1 8abd 2f7f 883b d2ac c43d
00000350: 0aa3 9f3b 46c2 10bd 356b 7c3d f097 a8bd
00000360: 7cbe 5e3b 8d95 febd 15ce d7bd 618f babd
00000370: 3a74 fdbd ed19 00be c4ac 443d 2130 6bbd
00000380: 18be 0d3e 31d8 043b 4623 403d bbfb b0bb
00000390: 5e50 f3bd 9972 d73c 779c e23d 1c56 043e
000003a0: 6e52 ca3d 1107 9bbd f365 303c d37c f13d
000003b0: 72f9 b93d 52fc bebd 7bfe cb3c 4407 06be
000003c0: ff9a e5bd b0d5 3bbc 80e5 94bd a5a7 b1bd
000003d0: 382b f4bb 0bc3 cbbc 7de6 053e c580 a73c
000003e0: 4f1c 23bd 0be7 ebbd ee40 f1bd c25b 463d
000003f0: 3915 1bbb ee1a 2dbe fc4e 8d3d e489 aa3d
0.04498852 0.10519822 0.1309121 0.06484554 0.083336644 0.055946108 0.10744526 0.2106588
0.036343355 0.12641472 0.12437679 0.13445418 0.00071368937 0.19497626 0.044843517 0.018543981
0.022161225 0.092335895 0.06419215 0.06743003 0.11214764 0.1103067 0.07807291 0.10159548
0.122697376 0.09784545 0.085585326 0.08535421 0.033925038 0.02784284 0.080348164 0.11937415
0.069998324 0.08964069 0.08757455 -0.03817795 0.030926129 0.13469604 0.0282524 0.11320829
0.09622925 0.09568338 0.15768333 -0.06398969 0.07555131 -0.026441596 0.09422419 0.07315364
0.014575456 0.15245834 0.10401949 0.096986964 -0.041742645 0.025060812 0.13016054 0.122202
0.09491481 0.02616149 0.00896322 0.095041506 0.013754653 0.025650479 0.045708086 0.16517568
0.13023178 0.01853456 0.03419424 0.028847095 0.12172831 -0.031776547 0.14028941 0.016391622
0.095119 0.09191659 0.041596726 0.08958712 -2.7926544e-05 0.036587946 0.091053404 0.11120209
0.100237735 0.10413383 0.08597193 0.066683754 0.12680817 0.063580714 -0.042931784 -0.016403517
0.03972123 -0.031494625 -0.08806371 0.07721805 0.099452585 0.060987767 0.08599662 0.04476094
0.10953696 0.13264644 0.054444082 0.04670228 -0.022781672 0.111972086 0.11879679 0.004842553
-0.013135564 0.06488366 0.017374175 0.19104286 0.10211336 0.035264485 0.0496505 -0.052189205
0.103070974 -0.045917764 -0.008109592 0.045074042 0.060730476 0.017228082 0.0741267 0.070667006
0.07094117 0.075575195 0.04192231 0.065343484 0.07901276 0.1300331 0.13592292 0.055218115
-0.0038024038 0.07167883 0.04005931 0.083371796 0.06615787 0.1777973 0.03044764 0.07756273
0.04608382 0.06766869 0.06096467 -0.06461718 0.06986092 0.0909888 0.06413616 -0.06893753
0.07506939 0.029461231 0.05305049 0.041412212 -0.03943374 0.16092317 0.07088646 0.032587923
-0.026231857 0.038677193 0.120565355 0.05082501 0.1105462 -0.04118774 -0.020378169 0.00529284
0.03373427 0.051648237 0.11261656 0.032740697 0.014002943 -0.050138127 0.05888552 -0.005179742
0.07549241 0.08383032 0.0035617182 -0.041788064 0.017084198 0.064184636 0.028371207 0.06118171
0.073645696 0.06994491 0.06046328 -0.0492691 0.0905926 0.063863106 0.060563758 0.09368926
0.031546857 0.03159125 0.010708741 -0.047499985 0.012393785 0.11891811 0.09898958 0.09668025
0.028086413 0.019698404 0.06964686 0.004033873 0.08391355 0.008259099 0.14429726 0.06450521
0.093302526 -0.0900339 0.057058778 0.0072007645 -0.11337932 -0.018750971 -0.002173439 0.15039808
-0.027750727 -0.06775232 0.004165552 0.09603275 0.0048717307 -0.035341524 0.061625678 -0.08232105
0.003398805 -0.12430868 -0.10537354 -0.091093786 -0.12375684 -0.1250989 0.048016325 -0.057418946
0.13842046 0.0020270462 0.04690864 -0.0054011024 -0.11880563 0.026299762 0.110649996 0.12923473
0.098790035 -0.07569707 0.010766494 0.117913865 0.09080781 -0.0932547 0.02490162 -0.13088709
-0.11211204 -0.011464521 -0.07270336 -0.08674554 -0.007451441 -0.024873277 0.13076206 0.020447144
-0.03982192 -0.11518677 -0.117799625 0.04842735 -0.0023663773 -0.16904804 0.06899831 0.08327082

controller.fc_out.weight f4 [1000, 100]
00000000: fe8d 713e 1d5c 9fbe c694 b3be e783 293e
00000010: 8511 7ebe 8be6 603e 3aef 7ebe ff5f 0e3f
00000020: 14a9 87be 6c0d 0abf e41d 5a3e e61c 203f
00000030: 5ba7 b6bd 9ce6 39bf f089 723e 5f2b 93be
00000040: 1473 41bd 6de3 98be 83d9 9bbe 014b 35be
00000050: 5f37 09bf 3a03 bbbe 4ac3 123e 79b5 c7be
00000060: 0727 053f 7c60 2c3e 534e b4be 72c4 be3e
00000070: cba9 d0be 19e9 fb3d 68ef ee3e 9671 fc3e
00000080: a58f a63e bc15 f6be b957 e1bd 6a9f bf3e
00000090: 0127 7a3e ada0 12bf 2a53 da3d e9eb 44bf
000000a0: dee5 e1be 639d 09bf 1bcb 17bf 902c 59be
000000b0: 0f04 793d 9f44 71bd 2b02 183f 81c8 a8be
000000c0: fb86 943d 501a 24bf d516 edbe 3e3e 813e
000000d0: 1bb2 15bb deb2 06bf 5395 ec3e 7f32 0f3f
000000e0: 1a51 f9be c558 963e 8541 e1bd 94a0 2bbf
000000f0: a7a1 123d a879 8bbe c7f5 503e 03b4 38bf
00000100: 9bb6 363f a99a ba3e b905 863d 4b6a 1dbf
00000110: f738 b9be 6736 ee3e 7fa6 e8be 72a7 003d
00000120: 81e3 cebe 594f a93e 737c 86be 8b1c 583f
00000130: 9328 78be 224f 0abe e6e5 c1be 937b e63e
00000140: da97 0bbf 4379 d73e 84d5 f33e 35e7 8dbe
00000150: f2ba 17bf eef6 733e d035 febd 0818 a4bd
00000160: 948f a4be c466 203e f416 f6bc b795 1dbe
00000170: 71b9 b83e 5ba6 57be 6fcf 97be 77dc 9cbe
00000180: 2cf5 d23e 6982 a73e 1a7c a4be 380e 21be
00000190: a548 2c3e 27e8 81bf c662 cdbd 1957 92be
000001a0: f72a a3be 0199 a53f b669 3abf 3852 b4be
000001b0: 1735 05be bf62 0a3e 2b3e ee3c 3bc4 823e
000001c0: 6e96 153f 6a4c 95bf 14ee e53c f96a 373e
000001d0: 2a0c a03b 6af6 7fbe b6e1 7cbe 0922 37be
000001e0: 35c8 70be 43fa 683e cc4f 063f ae68 92bd
000001f0: 3440 86bf 31c4 de3d b72e 9ebe 65ba 14be
00000200: 60dd aabd e20a c0bf f731 75bf 1ac9 85be
00000210: e452 0a3e ee98 d3bd b36f 113e 0a1c 8a3d
00000220: c483 4ebe e584 233e 89e7 a4be d020 033f
00000230: 22ed 253f fdb0 b3bd 63ac c6bd 490a d9ba
00000240: 4278 393f 56f1 a3bc 437f 5f3c 8d10 913e
00000250: 2728 2c3d 84c6 343f 61ba 70bd c627 0d3d
00000260: 7b84 f43c ebbc e1be cfca bc3e 6eb5 82bf
00000270: a30d 80bf 9605 49be 1ccb afbc 963f 293e
00000280: 9957 923e 952d 0b3f 29c1 ecbe 54aa 0fbf
00000290: 426e bbbe ee80 03bf cf42 883f a531 7fbf
000002a0: aa0c 213f acac 4abf 5381 723f 6105 303d
000002b0: 9061 2abf 9ed3 80bf b9ad f73b eb64 f2be
000002c0: 7b68 543e 92a0 b93e d264 acbc cf21 84bf
000002d0: b133 0e3e 86ca 70bd 013e efbe ba55 5ebe
000002e0: 24fa 743e 8a5e afbd 3ba8 0f3e 6d6b 263e
000002f0: e157 103e 4dea 8f3e c6c1 bebe 09bc 4dbf
00000300: 555d 213f a976 173d 89f6 44bd e35a 45c0
00000310: 8e36 06bf 9ecf 7abf ab1d 1940 6752 fe3d
00000320: 38f7 fe3d 4b5e dd3e fc1e 25c0 6965 81be
00000330: ac0c 02bf 2357 293c d1a6 ab3e 5906 143f
00000340: 694d a53f 8358 6dbe fa70 903f c7d3 8ebf
00000350: 2d1e c23f 0c76 473f c7c6 e63d 587d 63be
00000360: 48b2 88be ec9a 37bf bf70 16bf e95f 08be
00000370: 9412 983e 5c71 2cbf 3fc4 93bd 5017 643e
00000380: acdb 11bf 2f9a 86bf 3660 25be e622 85bf
00000390: dde0 c2bd 559b adbe b6c8 fb3e 46e7 7a3f
000003a0: bec3 de3e 0384 07bf f6a6 723e 025d e63e
000003b0: bc64 223f 3c79 27c0 020e 91be bc55 4c3d
000003c0: 5728 54be 1c78 7bbf 7a49 863e c0fa ef3c
000003d0: 1dc8 85bf ed9d 4fbf 90a9 2ebe 8177 773f
000003e0: 4ff1 2f3e c3a0 10c0 ec83 3abe 2558 2b3e
000003f0: 69d4 4d3e af22 633f 5228 7fbe d8d4 ca3f
0.23589322 -0.31124964 -0.35074443 0.16554223 -0.2481137 0.21962945 -0.24895945 0.5561523
-0.26496184 -0.5392673 0.21300465 0.62544096 -0.08918639 -0.72617507 0.23685431 -0.28744027
-0.047228888 -0.29861012 -0.30439386 -0.17704393 -0.53600115 -0.365259 0.1433231 -0.3900564
0.52012676 0.16833681 -0.35216007 0.3725925 -0.40754542 0.12300319 0.46667027 0.4930541
0.32531467 -0.48063457 -0.1100306 0.3742631 0.24428941 -0.5727642 0.106603935 -0.7692247
-0.44120687 -0.5375578 -0.5929429 -0.21208405 0.060794886 -0.058903333 0.5937831 -0.32965472
0.07252308 -0.6410265 -0.46306482 0.252428 -0.0022841755 -0.5261668 0.46207675 0.55936426
-0.48694688 0.293646 -0.10998825 -0.670419 0.035798695 -0.27241254 0.20406257 -0.72149676
0.71372384 0.3644612 0.0654406 -0.61490315 -0.36176273 0.4652588 -0.45439526 0.03140969
-0.40407947 0.3306835 -0.26266822 0.84418553 -0.24234228 -0.1350675 -0.3787071 0.45016155
-0.5452858 0.42084703 0.47623837 -0.2771546 -0.5926963 0.23824665 -0.12412608 -0.08012396
-0.3214079 0.15664202 -0.030040242 -0.15389143 0.3607898 -0.21059553 -0.29650447 -0.3063695
0.41202676 0.32716683 -0.32125932 -0.1572808 0.16824587 -1.0148972 -0.10028605 -0.28582075
-0.31868717 1.2937318 -0.7281755 -0.35218978 -0.13008533 0.13514231 0.029082378 0.25540337
0.5843266 -1.1663945 0.028067626 0.179119 0.0048842626 -0.24996343 -0.24695477 -0.17884077
-0.23513873 0.22751717 0.5246551 -0.07148872 -1.0488343 0.10877264 -0.30895016 -0.14524229
-0.08343005 -1.5003321 -0.95779365 -0.2612999 0.13508183 -0.103319034 0.14202766 0.06743629
-0.20167452 0.15968664 -0.32207897 0.5122194 0.6481496 -0.08773992 -0.09700849 -0.0016558851
0.72449124 -0.020012539 0.013641181 0.2833294 0.04203048 0.7061541 -0.058771495 0.03446176
0.029848328 -0.44089445 0.3687348 -1.0211618 -1.0004162 -0.19631037 -0.021459155 0.16528162
0.28582457 0.5436643 -0.4624112 -0.56119275 -0.36607558 -0.51368606 1.0645388 -0.99685127
0.6290995 -0.79169726 0.94728583 0.04297388 -0.6655512 -1.006458 0.007558551 -0.4734262
0.20742981 0.36255318 -0.021044169 -1.0322818 0.13886906 -0.05878689 -0.46726993 -0.2171239
0.23923546 -0.08562954 0.14029019 0.16251917 0.14096023 0.28108445 -0.37257212 -0.80365044
0.6303304 0.036978398 -0.048086677 -3.0836723 -0.52426994 -0.9797305 2.3924358 0.12418061
0.12449497 0.43236002 -2.5800161 -0.25272682 -0.50800586 0.010335716 0.33525708 0.57822186
1.2914249 -0.23178296 1.1284478 -1.1158379 1.5165459 0.779145 0.112683825 -0.22215784
-0.26698518 -0.7172077 -0.58765787 -0.13317837 0.29701674 -0.6736047 -0.07215165 0.22274518
-0.5697582 -1.0515803 -0.16149983 -1.0401275 -0.095155455 -0.3390757 0.49176568 0.98009145
0.43508714 -0.5293581 0.23696503 0.44992834 0.6343496 -2.6167746 -0.28331 0.04988645
-0.20718513 -0.9823015 0.26227933 0.029294372 -1.0451695 -0.8110035 -0.1705687 0.96666723
0.17181896 -2.259812 -0.18214387 0.16732843 0.2010056 0.887248 -0.24917725 1.5846205

controller.fc_out.bias f4 [1000]
00000000: f82e 883f 2898 13bd 0fa3 673e 2869 4c3e
00000010: d74d 403e 56e6 69bb e97f 89bd d83a f73e
00000020: 55ee be3e 7704 583e 2709 873e 748e 92bd
00000030: 4c52 313c 3fc0 1a3d 48f6 87bb db8b 923d
00000040: dafe 21be 6059 35bd 5641 ef3d aaba d13c
00000050: 218c 20bd 4706 2cbd 1186 0e3d a499 ce3d
00000060: 3238 1ebd 300b 1cbd 945d 01bc 9e0c 963c
00000070: 35c7 a53d 32a4 f03d 6a73 8e3e c81e c03d
00000080: 9583 793d 6da6 593d 9f14 62bb 4e1d 5fbb
00000090: 7039 61bb 7843 5cbb e775 5fbb 1a51 60bb
000000a0: 7dad 65bb c38a 5ebb c056 60bb ac3c 5fbb
000000b0: 1d02 60bb e4d1 69bb d38a 5cbb 6bd1 62bb
000000c0: 7d19 5dbb 0bda 74bb 4a25 62bb 8b5a 5dbb
000000d0: be2f 64bb cfd1 5ebb ce35 5fbb f463 62bb
000000e0: 798d 68bb e478 5fbb fa0c 5cbb 75cb 61bb
000000f0: 5c3f 5cbb b69f 64bb b5f1 63bb f433 5fbb
00000100: 4ed1 60bb 500b 61bb 9795 65bb 3318 5bbb
00000110: 4090 60bb 4326 5ebb 52f1 5cbb 2cb1 5dbb
00000120: ac06 66bb 19d0 5dbb e5e6 5ebb e389 62bb
00000130: 750e 68bb ccb4 5fbb 2433 5cbb 651f 6bbb
00000140: 4b89 5ebb b320 65bb e00c 5cbb 1ec6 5dbb
00000150: 3cba 63bb 0f39 6abb 08a9 5cbb 3e34 60bb
00000160: 665f 61bb 2d15 66bb c15e 62bb 30ca 61bb
00000170: 477b 5ebb f647 67bb 5efc 5fbb ac49 60bb
00000180: 3429 62bb 1de9 5fbb 9e57 5ebb 56a2 60bb
00000190: d461 66bb 09a2 64bb f24c 5cbb 0ea1 5cbb
000001a0: b098 63bb 0c12 66bb 46a2 64bb 5fb1 60bb
000001b0: db70 5dbb b67e 70bb 347e 5dbb 7c0b 64bb
000001c0: dddb 5cbb 97ec 7abb ccb1 5dbb f079 63bb
000001d0: dc9f 65bb 8995 62bb 9fbb 60bb c1d9 5ebb
000001e0: 3f68 67bb c037 69bb eafb 5fbb a0b0 60bb
000001f0: ef97 60bb bbd2 61bb 26d3 64bb 9fc9 70bb
00000200: 96af 61bb ee08 60bb ad2d 5ebb 8092 5fbb
00000210: 5ad3 67bb 86fe 63bb 4593 64bb d0fa 5fbb
00000220: 55ce 62bb 8d0d 62bb 1366 5ebb 4210 5ebb
00000230: dd8b 5dbb 3086 65bb cd92 5ebb 357f 67bb
00000240: 237a 5ebb 4c49 6ebb 793b 5dbb 7f69 63bb
00000250: 69d3 5ebb 3c77 6fbb ae93 61bb 3975 62bb
00000260: fccd 61bb ede7 71bb 01fc 5bbb f53c 5dbb
00000270: a8a7 67bb 45af 5cbb 9e18 5abb e03a 63bb
00000280: 2460 61bb 43b9 5ebb 6f26 5dbb 0935 62bb
00000290: c1f1 5fbb b97f 5cbb 8d8e 66bb add3 66bb
000002a0: e02d 61bb e124 5cbb e7bb 65bb d549 5bbb
000002b0: 7874 65bb c199 65bb 3623 61bb 37fe 64bb
000002c0: 2c03 64bb 7d34 5fbb ff93 61bb 2da6 62bb
000002d0: a3ec 61bb 832d 5fbb 97f6 67bb 4b28 5fbb
000002e0: a318 5fbb 7331 5fbb e2fb 5dbb b2f5 60bb
000002f0: b242 61bb 3808 63bb acc0 5abb 8e32 60bb
00000300: f2fe 5cbb ba61 66bb 76ec 62bb 45a0 5dbb
00000310: cff3 5bbb 04af 61bb 3f72 61bb 7c90 63bb
00000320: c199 5fbb f1d7 61bb 091f 61bb a1cc 63bb
00000330: 6598 5ebb b2d8 60bb 29be 5dbb 1eac 60bb
00000340: 421c 61bb cd82 5ebb 5c3b 5fbb 92f5 5ebb
00000350: b019 5bbb 06cd 67bb a02b 63bb 62ff 5bbb
00000360: f047 60bb b0ac 60bb 573f 5fbb 9afb 61bb
00000370: af23 63bb 4afb 5fbb 4d78 68bb 98d2 5ebb
00000380: c21a 65bb fc38 65bb dd62 5cbb d1c4 5dbb
00000390: 829b 5ebb a5ba 60bb 838b 5dbb 39ab 5ebb
000003a0: a30d 5fbb d7da 62bb a9bb 65bb b73b 61bb
000003b0: f09a 5cbb c53c 5cbb d916 5fbb b195 60bb
000003c0: 6d4e 60bb a981 65bb 57b2 5ebb 64fe 67bb
000003d0: bff7 5dbb 2cb8 5ebb 7480 64bb e577 5fbb
000003e0: 1866 61bb ea61 5dbb 87e1 5ebb be1e 5ebb
000003f0: 16e7 5cbb be50 5dbb 18b9 5ebb 550c 5fbb
1.0639334 -0.03603378 0.22620796 0.19961989 0.18779694 -0.003569027 -0.0671385 0.48287082
0.37291208 0.21095453 0.2637417 -0.07156077 0.010822844 0.037780996 -0.004149232 0.071555816
-0.15819874 -0.044274688 0.11682384 0.025601704 -0.039196137 -0.041998174 0.034795824 0.100878984
-0.03862781 -0.038096607 -0.007895846 0.018316563 0.08094636 0.11750068 0.2782243 0.09380871
0.060916502 0.05313723 -0.0034497154 -0.0034044567 -0.003436651 -0.003360955 -0.0034097375 -0.0034228028
-0.0035046034 -0.003395722 -0.0034231395 -0.0034063263 -0.0034180947 -0.0035678083 -0.0033652082 -0.0034609686
-0.0033737116 -0.003736141 -0.003450709 -0.0033775892 -0.0034818496 -0.0033999567 -0.003405917 -0.003454444
-0.0035484715 -0.0034099156 -0.003357707 -0.0034453545 -0.00336071 -0.0034885234 -0.003478152 -0.0034058066
-0.0034304443 -0.0034339018 -0.003503179 -0.0033431172 -0.0034265667 -0.0033897317 -0.0033713174 -0.0033827526
-0.0035099192 -0.003384596 -0.0034012136 -0.003456705 -0.0035409008 -0.0034134863 -0.0033599818 -0.0035876867
-0.0033956345 -0.0034962117 -0.003357701 -0.003384001 -0.0034748456 -0.0035739576 -0.0033670086 -0.0034210826
-0.0034389137 -0.0035107837 -0.003454134 -0.0034452789 -0.003394799 -0.0035290695 -0.0034177522 -0.00342236
-0.0034509422 -0.0034166046 -0.0033926736 -0.0034276447 -0.0035153525 -0.003488662 -0.00336152 -0.0033665332
-0.003472846 -0.0035105972 -0.0034886762 -0.003428541 -0.003378919 -0.003669662 -0.0033797147 -0.0034796884
-0.0033700385 -0.0038287991 -0.00338279 -0.0034710132 -0.003503791 -0.0034573993 -0.0034291518 -0.0034004303
-0.0035309938 -0.0035586208 -0.0034177252 -0.0034284964 -0.0034270247 -0.003445788 -0.0034915893 -0.003674127
-0.0034436933 -0.003418501 -0.0033901737 -0.003411442 -0.0035373778 -0.003478916 -0.0034877819 -0.0034176596
-0.0034607847 -0.003449294 -0.0033935353 -0.0033884202 -0.003380529 -0.003502261 -0.0033962012 -0.0035323624
-0.003394731 -0.0036359606 -0.0033757372 -0.0034700332 -0.0034000522 -0.0036539575 -0.00344203 -0.0034554733
-0.0034455052 -0.003691192 -0.0033566954 -0.0033758257 -0.0035347734 -0.0033673805 -0.0033278833 -0.0034672543
-0.003438958 -0.0033984936 -0.0033744832 -0.0034516475 -0.0034171196 -0.0033645465 -0.0035180182 -0.0035221383
-0.003435962 -0.0033591317 -0.0035054625 -0.0033460755 -0.0035012048 -0.0035034271 -0.0034353263 -0.0034941563
-0.003479193 -0.0034058385 -0.0034420488 -0.0034583912 -0.0034473322 -0.0034054227 -0.0035394782 -0.0034051116
-0.0034041784 -0.0034056574 -0.0033872058 -0.0034326133 -0.003437203 -0.003464235 -0.0033379002 -0.003420982
-0.0033721295 -0.0035153464 -0.0034625805 -0.0033817452 -0.003356207 -0.0034436593 -0.0034400371 -0.003472357
-0.0034118744 -0.0034460986 -0.0034350774 -0.003475942 -0.0033965346 -0.0034308848 -0.0033835268 -0.0034282277
-0.0034349118 -0.0033952475 -0.003406248 -0.0034020883 -0.003343206 -0.0035370006 -0.0034663454 -0.0033568968
-0.0034222566 -0.0034282617 -0.0034064853 -0.0034482242 -0.003465872 -0.003417688 -0.0035472095 -0.0034000035
-0.0034958576 -0.0034976592 -0.0033628263 -0.0033839236 -0.0033967202 -0.0034290936 -0.003380508 -0.0033976568
-0.0034035228 -0.0034615302 -0.003505448 -0.0034367868 -0.0033661686 -0.0033605557 -0.0034040718 -0.003426891
-0.0034226433 -0.003501991 -0.003398081 -0.0035399431 -0.0033869592 -0.0033984287 -0.0034866603 -0.0034098562
-0.0034393128 -0.0033780285 -0.0034008936 -0.0033892835 -0.0033707074 -0.003377005 -0.0033984836 -0.003403445
