VerNova/checkpoints/ntm_val_0.1786_epoch_106.pt (torch, 863092 bytes, 11 tensors)

read_vectors f4 [1, 32]
00000000: 1b36 f4be 84eb e3be f61a 65be c8a7 a0bf
00000010: c2fe aebc 1998 78be 19bf 8bbe f19e 36be
00000020: 85d2 9a3f 613b 1d3f bf4d 303f 377a fabf
00000030: cd20 76bf 780d 4cbf 502d 43bf 1b7f 0a3f
00000040: 3415 a4be 0da7 793f d194 5fbf fd31 203f
00000050: b6de 82be 6fa5 243f 5e89 70bf d06f 9b3f
00000060: 6991 77be 07f4 debe 88ac 80bf 8d15 46bf
00000070: 5f90 333f 84c5 afbf 4435 773c c329 e93e
-0.4769753 -0.44515622 -0.22373566 -1.2551203 -0.021361712 -0.2427677 -0.27294233 -0.17834069
1.2095495 0.6141873 0.6886863 -1.9568547 -0.961438 -0.7970805 -0.76241016 0.541002
-0.32047427 0.97520524 -0.8733645 0.62576276 -0.2556054 0.6431493 -0.93959606 1.2143497
-0.24176563 -0.43545553 -1.0052652 -0.77376634 0.7014217 -1.3732152 0.015088383 0.45539674

memory.memory f4 [64, 32]
00000000: 1b36 f4be 84eb e3be f61a 65be c8a7 a0bf
00000010: c2fe aebc 1998 78be 19bf 8bbe f19e 36be
00000020: 85d2 9a3f 613b 1d3f bf4d 303f 377a fabf
00000030: cd20 76bf 780d 4cbf 502d 43bf 1b7f 0a3f
00000040: 3415 a4be 0da7 793f d194 5fbf fd31 203f
00000050: b6de 82be 6fa5 243f 5e89 70bf d06f 9b3f
00000060: 6991 77be 07f4 debe 88ac 80bf 8d15 46bf
00000070: 5f90 333f 84c5 afbf 4435 773c c329 e93e
00000080: 1b36 f4be 84eb e3be f61a 65be c8a7 a0bf
00000090: c2fe aebc 1998 78be 19bf 8bbe f19e 36be
000000a0: 85d2 9a3f 613b 1d3f bf4d 303f 377a fabf
000000b0: cd20 76bf 780d 4cbf 502d 43bf 1b7f 0a3f
000000c0: 3415 a4be 0da7 793f d194 5fbf fd31 203f
000000d0: b6de 82be 6fa5 243f 5e89 70bf d06f 9b3f
000000e0: 6991 77be 07f4 debe 88ac 80bf 8d15 46bf
000000f0: 5f90 333f 84c5 afbf 4435 773c c329 e93e
00000100: 1b36 f4be 84eb e3be f61a 65be c8a7 a0bf
00000110: c2fe aebc 1998 78be 19bf 8bbe f19e 36be
00000120: 85d2 9a3f 613b 1d3f bf4d 303f 377a fabf
00000130: cd20 76bf 780d 4cbf 502d 43bf 1b7f 0a3f
00000140: 3415 a4be 0da7 793f d194 5fbf fd31 203f
00000150: b6de 82be 6fa5 243f 5e89 70bf d06f 9b3f
00000160: 6991 77be 07f4 debe 88ac 80bf 8d15 46bf
00000170: 5f90 333f 84c5 afbf 4435 773c c329 e93e
00000180: 1b36 f4be 84eb e3be f61a 65be c8a7 a0bf
00000190: c2fe aebc 1998 78be 19bf 8bbe f19e 36be
000001a0: 85d2 9a3f 613b 1d3f bf4d 303f 377a fabf
000001b0: cd20 76bf 780d 4cbf 502d 43bf 1b7f 0a3f
000001c0: 3415 a4be 0da7 793f d194 5fbf fd31 203f
000001d0: b6de 82be 6fa5 243f 5e89 70bf d06f 9b3f
000001e0: 6991 77be 07f4 debe 88ac 80bf 8d15 46bf
000001f0: 5f90 333f 84c5 afbf 4435 773c c329 e93e
00000200: 1b36 f4be 84eb e3be f61a 65be c8a7 a0bf
00000210: c2fe aebc 1998 78be 19bf 8bbe f19e 36be
00000220: 85d2 9a3f 613b 1d3f bf4d 303f 377a fabf
00000230: cd20 76bf 780d 4cbf 502d 43bf 1b7f 0a3f
00000240: 3415 a4be 0da7 793f d194 5fbf fd31 203f
00000250: b6de 82be 6fa5 243f 5e89 70bf d06f 9b3f
00000260: 6991 77be 07f4 debe 88ac 80bf 8d15 46bf
00000270: 5f90 333f 84c5 afbf 4435 773c c329 e93e
00000280: 1b36 f4be 84eb e3be f61a 65be c8a7 a0bf
00000290: c2fe aebc 1998 78be 19bf 8bbe f19e 36be
000002a0: 85d2 9a3f 613b 1d3f bf4d 303f 377a fabf
000002b0: cd20 76bf 780d 4cbf 502d 43bf 1b7f 0a3f
000002c0: 3415 a4be 0da7 793f d194 5fbf fd31 203f
000002d0: b6de 82be 6fa5 243f 5e89 70bf d06f 9b3f
000002e0: 6991 77be 07f4 debe 88ac 80bf 8d15 46bf
000002f0: 5f90 333f 84c5 afbf 4435 773c c329 e93e
00000300: 1b36 f4be 84eb e3be f61a 65be c8a7 a0bf
00000310: c2fe aebc 1998 78be 19bf 8bbe f19e 36be
00000320: 85d2 9a3f 613b 1d3f bf4d 303f 377a fabf
00000330: cd20 76bf 780d 4cbf 502d 43bf 1b7f 0a3f
00000340: 3415 a4be 0da7 793f d194 5fbf fd31 203f
00000350: b6de 82be 6fa5 243f 5e89 70bf d06f 9b3f
00000360: 6991 77be 07f4 debe 88ac 80bf 8d15 46bf
00000370: 5f90 333f 84c5 afbf 4435 773c c329 e93e
00000380: 1b36 f4be 84eb e3be f61a 65be c8a7 a0bf
00000390: c2fe aebc 1998 78be 19bf 8bbe f19e 36be
000003a0: 85d2 9a3f 613b 1d3f bf4d 303f 377a fabf
000003b0: cd20 76bf 780d 4cbf 502d 43bf 1b7f 0a3f
000003c0: 3415 a4be 0da7 793f d194 5fbf fd31 203f
000003d0: b6de 82be 6fa5 243f 5e89 70bf d06f 9b3f
000003e0: 6991 77be 07f4 debe 88ac 80bf 8d15 46bf
000003f0: 5f90 333f 84c5 afbf 4435 773c c329 e93e
-0.4769753 -0.44515622 -0.22373566 -1.2551203 -0.021361712 -0.2427677 -0.27294233 -0.17834069
1.2095495 0.6141873 0.6886863 -1.9568547 -0.961438 -0.7970805 -0.76241016 0.541002
-0.32047427 0.97520524 -0.8733645 0.62576276 -0.2556054 0.6431493 -0.93959606 1.2143497
-0.24176563 -0.43545553 -1.0052652 -0.77376634 0.7014217 -1.3732152 0.015088383 0.45539674
-0.4769753 -0.44515622 -0.22373566 -1.2551203 -0.021361712 -0.2427677 -0.27294233 -0.17834069
1.2095495 0.6141873 0.6886863 -1.9568547 -0.961438 -0.7970805 -0.76241016 0.541002
-0.32047427 0.97520524 -0.8733645 0.62576276 -0.2556054 0.6431493 -0.93959606 1.2143497
-0.24176563 -0.43545553 -1.0052652 -0.77376634 0.7014217 -1.3732152 0.015088383 0.45539674
-0.4769753 -0.44515622 -0.22373566 -1.2551203 -0.021361712 -0.2427677 -0.27294233 -0.17834069
1.2095495 0.6141873 0.6886863 -1.9568547 -0.961438 -0.7970805 -0.76241016 0.541002
-0.32047427 0.97520524 -0.8733645 0.62576276 -0.2556054 0.6431493 -0.93959606 1.2143497
-0.24176563 -0.43545553 -1.0052652 -0.77376634 0.7014217 -1.3732152 0.015088383 0.45539674
-0.4769753 -0.44515622 -0.22373566 -1.2551203 -0.021361712 -0.2427677 -0.27294233 -0.17834069
1.2095495 0.6141873 0.6886863 -1.9568547 -0.961438 -0.7970805 -0.76241016 0.541002
-0.32047427 0.97520524 -0.8733645 0.62576276 -0.2556054 0.6431493 -0.93959606 1.2143497
-0.24176563 -0.43545553 -1.0052652 -0.77376634 0.7014217 -1.3732152 0.015088383 0.45539674
-0.4769753 -0.44515622 -0.22373566 -1.2551203 -0.021361712 -0.2427677 -0.27294233 -0.17834069
1.2095495 0.6141873 0.6886863 -1.9568547 -0.961438 -0.7970805 -0.76241016 0.541002
-0.32047427 0.97520524 -0.8733645 0.62576276 -0.2556054 0.6431493 -0.93959606 1.2143497
-0.24176563 -0.43545553 -1.0052652 -0.77376634 0.7014217 -1.3732152 0.015088383 0.45539674
-0.4769753 -0.44515622 -0.22373566 -1.2551203 -0.021361712 -0.2427677 -0.27294233 -0.17834069
1.2095495 0.6141873 0.6886863 -1.9568547 -0.961438 -0.7970805 -0.76241016 0.541002
-0.32047427 0.97520524 -0.8733645 0.62576276 -0.2556054 0.6431493 -0.93959606 1.2143497
-0.24176563 -0.43545553 -1.0052652 -0.77376634 0.7014217 -1.3732152 0.015088383 0.45539674
-0.4769753 -0.44515622 -0.22373566 -1.2551203 -0.021361712 -0.2427677 -0.27294233 -0.17834069
1.2095495 0.6141873 0.6886863 -1.9568547 -0.961438 -0.7970805 -0.76241016 0.541002
-0.32047427 0.97520524 -0.8733645 0.62576276 -0.2556054 0.6431493 -0.93959606 1.2143497
-0.24176563 -0.43545553 -1.0052652 -0.77376634 0.7014217 -1.3732152 0.015088383 0.45539674
-0.4769753 -0.44515622 -0.22373566 -1.2551203 -0.021361712 -0.2427677 -0.27294233 -0.17834069
1.2095495 0.6141873 0.6886863 -1.9568547 -0.961438 -0.7970805 -0.76241016 0.541002
-0.32047427 0.97520524 -0.8733645 0.62576276 -0.2556054 0.6431493 -0.93959606 1.2143497
-0.24176563 -0.43545553 -1.0052652 -0.77376634 0.7014217 -1.3732152 0.015088383 0.45539674

controller.lstm.weight_ih f4 [400, 64]
00000000: 03bd 303d 68f8 a43c 10ad 8abd 3bdb a1bc
00000010: 9b87 8fbb 72e4 c13d e3d5 f93d 0379 c53c
00000020: 8c3d 2f3d d20a d63c 01f0 03bd 7aeb 65bd
00000030: 3cf2 ba3c 9a91 a7bd 3396 0d3d 4206 69bd
00000040: 1054 b1ba 6fc8 2b3c 9422 543c 4e64 423d
00000050: db3a c6b9 da49 5fbc f795 20bd d951 2a3d
00000060: f834 12bc 43a1 6a3d aeb0 82bd 10f4 15bd
00000070: 4a2a a539 ca77 66bd 4e15 2dbd 9bbf e7bd
00000080: 9e3b 033c 7aa2 fdbb f63b b6ba acfc 703c
00000090: afe4 04bc 5bd2 87ba 276c 353c c08b 893b
000000a0: 061e 06bb 6408 34ba f07e cfbb 89b0 07bc
000000b0: fdbd 9cb6 4ffc 6b3c a073 373c 9680 a63a
000000c0: c4dc 973c b4f9 413b 4637 833b 8dd3 95bc
000000d0: aee8 99bc 975b 54bc 070f 61bc e665 213b
000000e0: 40a1 23bc 6e7d 54bc f753 85bc aba7 32bb
000000f0: e0dc 8bbb 9e8a 8bbc 36fc 383c d276 f13b
00000100: 74dc 973d c9cb d73c 9026 ffbd f8c6 2dbd
00000110: acce 903d 017e 213e abec 523e d87d 38bd
00000120: 935b b43d a971 393d 1004 d5bc 0eff aabd
00000130: d093 0d3d 59bf 90bd b662 133d 0575 babd
00000140: aa88 783c 0cfa 0e3d af55 293d 46e6 5abb
00000150: 8d4f febb 1320 b63c 7224 a1bd 9084 b0bc
00000160: fcc2 333d 8f9a 073c 7de6 31be eeb8 abbd
00000170: b4a3 92bd d7ef e9bd 9c29 e6bd 5fa6 2eba
00000180: 10e8 cdbd b66b 59be 8ce2 aa3b abf7 343e
00000190: 6bb0 dfbd e641 a8bd da6f 343e f62a 2fb9
000001a0: 4704 8a3b ca9f 2a3a 56d6 dc3d 360c eabd
000001b0: 4af4 4cbe fa5d 823c aa51 963d 443a c43d
000001c0: 1437 373d 145b 7ebd 1eaf 95bd 1017 1d3d
000001d0: d9ce bb3d 5ed8 dc3d 3ab3 8c3d a846 27be
000001e0: 1f45 e3bd fccb 56be 1d5c 613d 5783 1e3c
000001f0: c87d 9f3d 4758 0c3b 9b74 b5bd a3ca aa3d
00000200: e24d d73d 8a66 af3d 5066 febd ac93 58bd
00000210: 7431 dc3d c350 ed3d f6a7 183e 6b5e ff3c
00000220: 5941 e13d 0ebe a53d 4293 6abe 1caf d7bd
00000230: 3a84 613d d873 50be 06ab 0a3e 0b6b 19be
00000240: ccb5 fc3c 8968 803d bcc8 d0bc 49eb d2bc
00000250: c465 bcbc a5d7 c3bd 7bdf c1bd 1d5b 8b3d
00000260: 78ad 0dbe e0c1 9dbb 9c86 37bd ada6 97bd
00000270: a2e9 68bd b3b5 f5bd 4c87 e13c 813b a7bd
00000280: a007 d73d 6e88 e8bb 4488 2ebe 3c1e 8fbd
00000290: 943c c33d 505b abbd a0cd 1fbe 6d4d b83d
000002a0: 2563 e5bc 8ffe 31bd d23c 2dbd 5b14 373d
000002b0: 4448 4e3d ca99 46be 15ee d93d f813 183c
000002c0: 740a 10bd 3e22 3f3e 965f f7bc 1237 35be
000002d0: af25 bdbd 5e75 2dbd 588e 1e3d 8fee db3d
000002e0: ab3c 20bd 3e11 693d 76f6 253d 4aa4 5c3c
000002f0: 46d9 1bbe 0de7 3c3c 55e3 a63c dc07 23bc
00000300: bb8e ce3d 22f1 d93c 08f3 f6bd 0191 dabd
00000310: f783 353d fe42 033e 2972 5a3e 0929 073c
00000320: c4db e93b ed7e d43d 87d7 a9bd d0bf 18be
00000330: ab5e 1d3d 9ad0 61be 9e9a af3d a618 72bd
00000340: 24e4 2f3c 88fc 563c a62b 9a3c fe26 ff3d
00000350: 59b0 eebb 161d 27be e6ef 13be ebcf c33d
00000360: f9e0 18bc 8268 cd3d 7cec 14be 27b3 9bbd
00000370: 7ec7 2b3d bc9b 5fbd 6d7f 6cbd 1521 50be
00000380: a290 43bd 0e6d fdbc 1eb8 bb3c d4e2 5dbc
00000390: c5ee d5bb f478 b5bc fcec 393d 864c 2abb
000003a0: c329 423d c078 2b3c 89bd d1ba 15cf 2abd
000003b0: 5c2e e6bc 78c1 1c3d 8025 36bb 963e bdbc
000003c0: 9cc7 cc3c 5e06 973c 1df0 b8bc e0c6 863c
000003d0: 0263 40bb 8642 ca3c df25 cabc 618f 05bd
000003e0: 979c 093d 8fb6 7a3c 87ac 52bd 4c36 a4bb
000003f0: ea04 2f3d c558 1ebc 14e7 d0bb 25b7 013d
0.043149006 0.02013798 -0.0677129 -0.019757858 -0.004380179 0.094674006 0.12198999 0.024105554
0.042783305 0.026128206 -0.032211307 -0.05613277 0.022820584 -0.08182068 0.03456707 -0.056890734
-0.0013529081 0.010484799 0.012947697 0.04745894 -0.00037809354 -0.013628447 -0.039205518 0.041581962
-0.008923762 0.057282697 -0.06381355 -0.03660971 0.0003150276 -0.056266584 -0.042256646 -0.11315843
0.008009819 -0.007740316 -0.0013903368 0.014708679 -0.008111163 -0.0010362373 0.011073149 0.0041975677
-0.0020464673 -0.00068677054 -0.006332271 -0.008281835 -4.67128e-06 0.014403417 0.011197001 0.0012703117
0.018537886 0.0029598298 0.004004392 -0.018289352 -0.018787708 -0.01296129 -0.013736493 0.0024627387
-0.009987175 -0.012969358 -0.01627539 -0.0027260582 -0.0042682737 -0.017033871 0.0112906005 0.007368901
0.07415095 0.02634229 -0.12458527 -0.04242608 0.070706695 0.15770723 0.20598094 -0.04504189
0.08806529 0.04527441 -0.026002914 -0.08349429 0.034564793 -0.07067747 0.03598281 -0.09104351
0.015169302 0.034906432 0.04134148 -0.0033401414 -0.007760948 0.022232091 -0.078682795 -0.021547586
0.043887123 0.008276596 -0.1737308 -0.08384882 -0.0716013 -0.11422699 -0.11238405 -0.00066623645
-0.10054028 -0.21232495 0.005214995 0.17672603 -0.10922321 -0.08215694 0.17620793 -0.00016705305
0.0042119357 0.0006508796 0.10783069 -0.1142811 -0.20015064 0.015913952 0.07339795 0.09581426
0.04473026 -0.062098578 -0.073087916 0.038352072 0.091703124 0.10783456 0.06870122 -0.16335547
-0.11097168 -0.20976251 0.055019487 0.009674869 0.07787663 0.0021414922 -0.08860131 0.08339431
0.10512902 0.0856448 -0.12421858 -0.052875206 0.1075162 0.1158767 0.14907822 0.031172952
0.10998792 0.08092891 -0.22907737 -0.10531446 0.05505774 -0.20356691 0.13541803 -0.1498224
0.030848406 0.062699385 -0.025486343 -0.025746958 -0.022997744 -0.09562615 -0.09466454 0.06804488
-0.13835704 -0.0048143715 -0.044806108 -0.07404838 -0.056863435 -0.11997547 0.027530335 -0.08165646
0.10499501 -0.007096342 -0.17044169 -0.069881886 0.09533039 -0.08367026 -0.15605783 0.08999143
-0.028001377 -0.043455657 -0.04229433 0.044697147 0.050361887 -0.19394603 0.10641114 0.009282105
-0.03516622 0.18665406 -0.030196946 -0.17696789 -0.09235703 -0.04234826 0.03870997 0.10738861
-0.039120357 0.05690121 0.040518247 0.013466904 -0.15219602 0.011529696 0.020372072 -0.009950604
0.100858174 0.026604239 -0.12058073 -0.106721886 0.044315305 0.12818524 0.21332611 0.00824953
0.007136794 0.10375772 -0.08293062 -0.1491692 0.03842036 -0.22052231 0.08574413 -0.059105538
0.010735545 0.013121732 0.018819641 0.12458609 -0.007284206 -0.16319689 -0.14446983 0.095611416
-0.009330981 0.10029699 -0.14543337 -0.0760253 0.041938297 -0.05459188 -0.05773871 -0.2032512
-0.047745354 -0.03093579 0.022914942 -0.01354285 -0.0065287077 -0.022152402 0.04539202 -0.0025985553
0.04740311 0.010465801 -0.001600192 -0.041701395 -0.028098278 0.038270444 -0.0027793348 -0.023101132
0.024997525 0.018435653 -0.022575432 0.016452253 -0.0029355888 0.024689924 -0.024676261 -0.03260744
0.0335966 0.015302314 -0.051434066 -0.0050113555 0.042729296 -0.009664719 -0.006375203 0.0316688

controller.lstm.weight_hh f4 [400, 100]
00000000: 9545 be3c 97e1 ba3c 396b adbc 80fd 043c
00000010: 312e dd3c 9bfb babb 1e01 eb3b 63bc f7bc
00000020: 58d5 5cbc 6743 073d 3c0f 7d3c 285d b7bb
00000030: 2df3 bbbc 40fe 913c 17a6 103d 9c2a 053d
00000040: 7299 7e3c f416 aabc 67cd be3c b1e9 d23a
00000050: 9e39 403c 0aa8 03bd b127 6a3c 069d ac3c
00000060: bf99 003d 52e0 073d ec8f 22bc 918a 00bc
00000070: 9163 27bc 182c 5c3d e71f 7d38 73ce a43c
00000080: 01bd bdba 6c93 bf3b c2a3 05bb 1993 733c
00000090: 598d 92b8 706f 0ebc 46c1 5abc a84e 0cbd
000000a0: bb3b 8d3b cee6 f93c eb79 b1bc 60da a0bb
000000b0: e457 973c 8cab 10bd cd48 05bc 3123 9d3a
000000c0: 490f ce39 1f48 723a 58d2 103d 5782 29bd
000000d0: 2bb8 fb3c b1f4 b2bc 0abb 703c 9e54 adbc
000000e0: 7f6d 04bd 7cc1 0a3a b82a 8f3c af2c d43c
000000f0: 4ae0 f53c df10 13bc f2be eabc 4730 10bd
00000100: e6a5 993c 6a21 d6bc 9e98 463d 427d f43c
00000110: 7772 243c 95ff 1dbd 7a4c ad3c 50e9 9e3b
00000120: 7e5f 12bd 474f d93c 561e 8b3b 7933 3a3d
00000130: 9352 debc cbf0 5cba 63bd fd3c 9a0e f0bc
00000140: 82e7 dbbc 8ffc 683b c9c2 b3bc e6e1 08bc
00000150: 8554 9d3a d934 043d 084d 53bc c8d5 923b
00000160: 3fdd 7b3b 9816 f53a 8af5 a63c cfd4 e73c
00000170: ccd6 f7bb daf8 b63c 15d1 45bc 2d29 0fbd
00000180: 24d4 db3b 6f0d a9bc a5a1 c23c c9b4 0cbc
00000190: 44f8 ac3d db94 403d f8bc b4bd 8370 8b3d
000001a0: c47c 5bbd ab93 e93c 91f4 19be 81b4 fcbc
000001b0: 9a3d 4fbd c7e5 bc3d 02d4 9abb 54b4 96bd
000001c0: 1d11 20be 83f1 413c e18a ee3d 4604 4a3e
000001d0: e81c 183c b642 1fbd 44a6 07be 5053 8ebc
000001e0: d8c5 ca3d f8f7 9fbd 4443 dcbd 8a31 85bd
000001f0: 4999 9c3d 27dc 5d3b 20d1 553e 5b83 20be
00000200: cc5c 98bd aa97 453d f489 413d 84ee a63d
00000210: b247 f83d 7a30 05bd ca48 333e 06a1 e33d
00000220: efd1 673c f389 023e 7433 3cbe c2d8 b2bd
00000230: 7610 b2bd b061 38be 62de 31be f239 89bd
00000240: d529 96bd 2bf8 2ebd 19f2 a3bd 14a9 b13d
00000250: f38a 023e d1a6 e9bb b552 5f3e c186 bb3c
00000260: 73bd 4abe bf99 853e fc41 9c3d 5b83 ce3b
00000270: 6b47 b3bd 90e9 803d 5bc7 b93d cb1a 05bd
00000280: 1cdd fd3d d891 75bc 1306 c5bd dd09 49bd
00000290: ce40 0cbe bf27 063d 27a4 563e c855 893e
000002a0: 2a24 47be 9e2c a7bd ab66 ca3c 1100 d4bc
000002b0: 5a35 c9bc 5cce 583d 92a6 82bd 7e0c 5f3f
000002c0: f2d4 ab3d 6b2b 93bd 02ae 903d 4cdb 87bd
000002d0: 58b7 87bd e565 b8bb 067d 70bd cb8e d13d
000002e0: c869 c4bd 866a b1bd bb39 5dbd 34e5 24be
000002f0: ac62 a0bd ef05 c13d c06c 6a3d acdd 0a3c
00000300: 3085 e93d 00d6 9d3d d07d 93bd 503c 92bd
00000310: e966 a6bc d47b 9ebd 6281 1dbe b435 52be
00000320: 164a 843e 6eb2 debe 3048 85be d573 19bd
00000330: afd6 4bbe 4ca3 79be 91b0 233d 689a c43c
00000340: 4dc4 1cbe b375 8c3d 5bbe 98bd 4c15 19bc
00000350: d8b3 673d 283d 473d 42c4 473d 1381 c03d
00000360: 8531 313d 7670 043e bf9c 86bc 54b9 fabe
00000370: 8219 babd a00a 693e d027 17bd 50aa 20be
00000380: 06a0 67bd 2330 723e 8955 133d 3c0b 13bc
00000390: 75b1 043e 683e 26be 3719 85be 9cf0 913c
000003a0: 32c5 f23d 7c93 903c 11eb e03d 590e e6bc
000003b0: e6dd 243e 72ae 87bc 2b0d 09bc ba6b 523e
000003c0: db2f c13d 93f5 b13d 6f48 3e3e 9466 c53c
000003d0: d448 36be 889f 4fbe 6c6e 973c 544e 92bd
000003e0: ea96 b73d 1702 f1ba 7979 843d 0601 69bd
000003f0: 680a f0bc 232b 4f3d 3796 a93b af37 d43d
0.023226539 0.022812648 -0.021169292 0.00811708 0.026999565 -0.0057062632 0.007171764 -0.030241197
-0.0134785995 0.033023264 0.015445527 -0.005595822 -0.022943104 0.017821431 0.035314646 0.03251134
0.015539514 -0.020762898 0.023291303 0.0016091374 0.011732487 -0.032142676 0.01429169 0.021070968
0.031396624 0.033172913 -0.009922009 -0.007845537 -0.01021661 0.05375299 6.0349612e-05 0.020117974
-0.0014475883 0.0058464315 -0.0020391797 0.014866614 -6.9881506e-05 -0.008693561 -0.013351744 -0.0342547
0.004310099 0.030505564 -0.02166458 -0.004908845 0.018474527 -0.03531985 -0.008135033 0.0011988637
0.0003930277 0.0009242314 0.03535685 -0.041384067 0.030727467 -0.021845194 0.014693031 -0.021158513
-0.032330986 0.00052931136 0.017476425 0.025900213 0.030014176 -0.00897619 -0.028655503 -0.03520229
0.018755864 -0.02613898 0.04848539 0.029844884 0.010037056 -0.03857382 0.02115463 0.0048495904
-0.0357356 0.02652706 0.0042455597 0.045459244 -0.027138984 -0.0008428215 0.030974096 -0.029303838
-0.02684379 0.0035550927 -0.021943467 -0.00835464 0.0012003338 0.032276962 -0.012896784 0.004481051
0.0038431433 0.001869875 0.020380754 0.028299717 -0.0075634476 0.022335459 -0.012073775 -0.034951378
0.0067086387 -0.020636288 0.023758719 -0.008588024 0.084457904 0.04701696 -0.088251054 0.06808569
-0.053585783 0.028512796 -0.15034701 -0.03084779 -0.050595857 0.09223514 -0.0047249803 -0.073586136
-0.15631528 0.011837366 0.11647583 0.19728193 0.009284236 -0.03888198 -0.13247019 -0.01737371
0.09901017 -0.07810968 -0.107550174 -0.065035895 0.07646424 0.0033853145 0.20880556 -0.15675108
-0.074395746 0.04824034 0.047250703 0.08150962 0.1212305 -0.032516934 0.17508236 0.11114697
0.014149173 0.12747936 -0.18379003 -0.087327495 -0.08694546 -0.18006015 -0.17369989 -0.06700505
-0.073321976 -0.04271714 -0.08005161 0.08674827 0.12748317 -0.007130482 0.21808894 0.022891404
-0.19798832 0.2609386 0.07629773 0.00630228 -0.08753856 0.062945485 0.09071227 -0.032496255
0.12395689 -0.014988385 -0.09620299 -0.049081672 -0.13696596 0.03275275 0.20961057 0.26823258
-0.19447389 -0.08162807 0.024707159 -0.025878938 -0.024561573 0.052931175 -0.06379427 0.87128437
0.083902255 -0.07186016 0.07064439 -0.066336244 -0.06626767 -0.005627381 -0.05871298 0.10232314
-0.09590489 -0.08662896 -0.054010134 -0.16103059 -0.0783132 0.0942496 0.05723262 0.008475702
0.114023566 0.07706833 -0.07201731 -0.0714041 -0.020312743 -0.07738462 -0.15381387 -0.20528299
0.25837773 -0.43495506 -0.26031637 -0.03746398 -0.19906114 -0.24378699 0.03996331 0.023999408
-0.15309258 0.06858387 -0.074581824 -0.0093434565 0.056567997 0.048642308 0.04877115 0.09399619
0.043260116 0.12933525 -0.016432164 -0.4896952 -0.090868965 0.2275796 -0.036903203 -0.15689969
-0.056549095 0.23651175 0.035970245 -0.008974846 0.1295832 -0.16234744 -0.259958 0.017814927
0.11854018 0.017648451 0.10982335 -0.028083013 0.16100273 -0.016562674 -0.008364956 0.20548907
0.09432956 0.08689418 0.18582319 0.024096765 -0.17801219 -0.202757 0.01848527 -0.07143846
0.089643314 -0.0018387464 0.064684816 -0.05688574 -0.029301837 0.050578248 0.0051753777 0.10362183

controller.lstm.bias_ih f4 [400]
00000000: d5b6 623d 8fa5 fc3d 9750 a73d dbf1 bd3d
00000010: 8a42 cf3d 7f26 c13d 3179 d83c 06da 9c3d
00000020: f1ad 4dbb 378b c73d 56be a2bd 8d66 423c
00000030: bc82 ae3c a4b8 b63d 43c0 103e 7471 393d
00000040: 18fd e93d de7d aa3d a848 093e 70a0 dcbc
00000050: 7f52 06be 7472 3b3d 5bd7 723d 3158 d83d
00000060: 5e7b 483e 7885 2b3e 6e6e 143e 1554 07bd
00000070: 3dd0 9a3c 6be8 1b3e 8c48 c53d 958e e73c
00000080: 1f22 a33c 89d8 ba3c 4a0d 98bc fa6c 233e
00000090: 3d1b 853d 80f4 5a3d aaaa 50bc 4821 933d
000000a0: a943 b63d eef2 c93d 52bf 113d 780f 853d
000000b0: 91e8 923d 065f 353d 9675 a43d e158 243c
000000c0: 78bf 463d 8ef1 34bd b5be 993d f5b2 493e
000000d0: 8a10 563d 1d36 553d b1c1 893d bf22 b03d
000000e0: 55d5 e73b dbc1 353d aa19 e8bc 5b9f 463d
000000f0: b060 c93d f968 1ebe 6554 64bc 702e af3d
00000100: c89f c93d c05c 273d 003d 413e b90c 4d3d
00000110: 4046 fd3d d423 09bd 1f07 6e3d b20b b63c
00000120: 2f9f 9f3d 6cab a73d 4251 c33c 4390 f43b
00000130: 15b3 ba3d 7cf8 a4bd 0c30 a63d 1987 d53d
00000140: f72d 413d d0ee 883c c822 ed3c f08b 1b3e
00000150: 7956 9c3d 2833 013e 9609 8bbd 3db4 703e
00000160: b92c 81bc e438 273e 9736 52bd 18bf 4c3c
00000170: 5249 653c ff09 2e3d f67c 953d f098 763d
00000180: 2aea 8dbc 52c8 2b3d 452c f03d f271 173e
00000190: 52d7 953d 8329 c3bd 4c18 513d 2f78 e53d
000001a0: 0912 7f3d 2713 853d 76e9 793d 1c54 433d
000001b0: 77fa 8c3d bc17 f3bb 1232 6a3d 1567 1c3d
000001c0: 5ade 8c3d 9834 f33c a606 7a3d 1070 87bc
000001d0: e59c b03c e541 d43d 0cdc a9bc bb80 183d
000001e0: 5723 8b3d 52b3 7f3d 13a4 023e 0d7b 843d
000001f0: af83 103e 1836 8b3d ae9d 61bd 3b25 093c
00000200: 57ad ab3d 09d1 ad3d a336 963d e42c 4e3d
00000210: 15d8 043d 3ab2 6e3d 68f8 f6bc 1049 253e
00000220: 5a67 823d c038 063e da51 b73b 8459 a53d
00000230: 4160 873d 5b50 ef3d bb70 113d 3e50 ab3d
00000240: eb07 033d b31a 3a3b cee1 593d 04a8 febc
00000250: d9f8 8c3c a513 4d3d e814 643d 336a 323e
00000260: adaa 9cbb 09fa 21bb 8809 0ebd 5871 c73d
00000270: f668 c03d c034 733d a4b8 053d 3999 f83c
00000280: f4d4 1c3d ccca 0f3e e220 9b3d 9aa9 3e3d
00000290: b043 bebc 74a9 cb3d c645 433e 213d 4e3d
000002a0: 9f35 dd3b 9cd1 c33d 56ab c93d c18c 7fbc
000002b0: 9299 1b3d 4b19 843d 3d67 943d bc05 e73d
000002c0: 366c 823d 8253 a73d 2427 ad3c d22d 6e3c
000002d0: 418e a53d d7c3 cf3d 205e ce3d b593 cb3d
000002e0: 48b7 903d 43ff 673d 7174 453d bbc8 c5bd
000002f0: fc19 dc3d 2078 733d c4f8 0f3c c64f 1f3e
00000300: 8ac8 bc3d 6188 763d 5f08 3b3d bd8c 8c3d
00000310: efcc b43d 344c 863d fbad 4b3d fc71 733c
00000320: 4175 c93d a6e4 d93c 8851 f2bd c7dc b0bd
00000330: 197e ec3d e3a0 66bd 6105 c93c 9405 96bd
00000340: 0ba4 8abc d15d 153d d605 04bd bc4f ecbc
00000350: 46e7 52bd b3c5 adbc 4af5 e63d 1c7d 2b3d
00000360: f9de 65bd d288 13be 1f9f cebc 5948 58bc
00000370: 2bd7 0abc 34cb 9dbd ee9f 283d 6ab9 f53d
00000380: 3102 dc3d c9ce 3a3d c67d b6bd 9b7c dc3b
00000390: 6fb6 99bd 0069 43bc 1d97 c8bd 3baa 2d3d
000003a0: 2d4d 543c dcb1 953d 632e 91bd d9a5 bcbd
000003b0: 1f46 edba 2e9f 8dbd 3c28 003d 6624 a4bb
000003c0: 30b3 90bd 2412 a63c ff1d 04be 1b92 973d
000003d0: 3bc4 9e3d 1e1f b9bd 02de 12be 202e 9bbd
000003e0: af55 24bc 7b83 8fbd feeb 583d 5ce3 16be
000003f0: 1289 093e 3ea6 08be 5563 bc3d e058 53bd
0.055350143 0.12336265 0.08169668 0.09274646 0.10120113 0.09431171 0.026424976 0.07658772
-0.0031384195 0.0974335 -0.0794646 0.01186527 0.021302573 0.08921936 0.14135842 0.045274213
0.11425227 0.083247885 0.13406622 -0.026931971 -0.13117407 0.045763448 0.05928741 0.10563696
0.19578311 0.16750133 0.1449525 -0.03303917 0.018898124 0.15225379 0.09632978 0.02826623
0.019913731 0.02280833 -0.018561024 0.1595954 0.06499336 0.05345583 -0.012736002 0.07184082
0.08899624 0.09860788 0.035582848 0.06497091 0.07173265 0.044280075 0.0803024 0.010030956
0.048522443 -0.044175677 0.075070776 0.19697173 0.052261867 0.05205356 0.06726397 0.08600377
0.0070749917 0.044374328 -0.02833255 0.048491817 0.09832895 -0.15469731 -0.013936137 0.08553779
0.09844929 0.040859938 0.18870926 0.05006096 0.12366915 -0.033481434 0.05811226 0.022222374
0.07794034 0.08186993 0.023842458 0.0074634864 0.091161884 -0.08055207 0.08114633 0.104261585
0.047162976 0.016715437 0.028947249 0.151901 0.07633681 0.12617171 -0.06788938 0.23506255
-0.015768396 0.16330296 -0.051321592 0.012496732 0.013994532 0.04249 0.07299225 0.060204446
-0.017323572 0.041939087 0.11727194 0.1478956 0.0731646 -0.09529402 0.051048562 0.11204564
0.06227306 0.06497794 0.06101366 0.047687635 0.0688371 -0.007418601 0.057176657 0.038184244
0.06878348 0.029688165 0.061041497 -0.016532928 0.021559188 0.10364131 -0.02073481 0.037232142
0.0679385 0.062426873 0.12757902 0.064687826 0.14112733 0.06797427 -0.055082016 0.008370693
0.08382671 0.08487136 0.0733464 0.05033578 0.032432634 0.05827544 -0.030147746 0.16141152
0.06367369 0.13107586 0.0055944743 0.080737144 0.06610156 0.116852485 0.0355079 0.08364914
0.031989973 0.0028397262 0.05319386 -0.031085975 0.017208504 0.050067563 0.055684 0.17423324
-0.0047810883 -0.0024715683 -0.03467706 0.097384155 0.0939502 0.05937648 0.03264679 0.0303465
0.038289025 0.14042205 0.07574631 0.046548463 -0.023225635 0.0994443 0.19069585 0.050351266
0.006750777 0.09561464 0.09847133 -0.015597523 0.037988253 0.06450137 0.07246254 0.112803906
0.06368296 0.08170225 0.021136828 0.014537292 0.080837734 0.10144775 0.10076547 0.09940282
0.07066208 0.05663992 0.04820675 -0.09657427 0.107471436 0.059440732 0.008787338 0.15557775
0.09217937 0.060188655 0.04566228 0.06862781 0.088281505 0.06557503 0.049726468 0.014858719
0.098368175 0.026598286 -0.11831957 -0.0863586 0.11547489 -0.056305777 0.024538698 -0.07325283
-0.016923925 0.036466423 -0.032232128 -0.028846614 -0.05149009 -0.021212434 0.11277254 0.04186736
-0.056120846 -0.14407662 -0.02522236 -0.013200843 -0.008474152 -0.077047735 0.041168146 0.119982556
0.107426055 0.045607362 -0.08910708 0.0067287213 -0.075054996 -0.011926889 -0.097944476 0.042398673
0.012957853 0.073093146 -0.07088926 -0.092113204 -0.0018102563 -0.06915127 0.03128837 -0.005009222
-0.07065427 0.020272322 -0.12902068 0.07400914 0.07752272 -0.09039138 -0.14342502 -0.07577157
-0.010030194 -0.070075 0.052959435 -0.14735168 0.13431194 -0.13344666 0.091986336 -0.05159843

controller.lstm.bias_hh f4 [400]
00000000: 0ea0 393d d764 fe3d d8ed 0b3d e96d 923d
00000010: aba6 cf3d 2e86 ca3d 8561 453d 1773 9a3d
00000020: b3bd a3bb 7213 ca3d 5df7 d2bd 66db 143d
00000030: 1600 b7bc df5f b73d a9b8 113e 1d9b ce3c
00000040: 77ce e93d 39dc b93d 57bc 093e ab4e 02bc
00000050: b180 d3bd e844 413d aa2b 703d 8710 db3d
00000060: ede2 0a3e c81b 2c3e b46b 4d3e 7612 123c
00000070: 2174 7a3c b4e2 d33d 2009 973d 447e f53c
00000080: b40e 073d 4dab 023d 6e29 b8bc 4beb 473e
00000090: 7742 8c3d 9edd a23d c952 0c3c 7081 8b3d
000000a0: ba84 f33d a72f d43d e5f0 c03c c61b 953d
000000b0: f74a 913d a051 3a3d 62a0 423d 36fc 883c
000000c0: b9e3 5c3d 7885 2bbc 1196 a53d c4c6 1f3e
000000d0: 5665 96bc 848e 603d 859c b13d 478c b33d
000000e0: a2d9 f13c 3a7e af3c 8fcd 033c a0c5 013e
000000f0: 205a ca3d cebb 41be 0a99 33bd 0e8d a33d
00000100: 620f 163e 13dc 233d 146d 6a3e 9a3b 1f3d
00000110: 05a1 003e 8ba3 80bb cd95 113c 77b3 4a3d
00000120: 1a55 a23d bee2 a63d 9004 fe3c 9288 723c
00000130: 1b28 b93d dee1 c5bd 5441 ad3d 5565 e23d
00000140: e6b1 4d3d d4d9 92bc 5125 293d 7625 2d3e
00000150: ce2b 9b3d 6c72 003e c679 01bd 6015 703e
00000160: b74f ab3c 2561 313e 26d8 a0bd fb82 863c
00000170: 760b 8d3b 6911 843d 8035 963d 088f 823d
00000180: 2b49 2ebd f431 213d fa6c ef3d 1597 e63d
00000190: ea35 8e3d 04b1 6d3c 2946 193d 43de 003e
000001a0: 1904 7f3d 856e 8b3d 38ef 7f3d df33 433d
000001b0: 83f9 653d 43d6 153d 8d79 833c 9cf9 013d
000001c0: 4638 2a3e 7c38 b83d 4107 643c 0c0b 2ebc
000001d0: 9ab3 b53c 7272 ef3d ab30 e0bb 4ded b93c
000001e0: 532d 1f3e 6d55 803d 6fdc c93d 5068 843d
000001f0: 4e59 a33d 06c6 1e3e aa90 333c 83c9 93bc
00000200: 5bd8 ae3d 8f96 b2bc 38f8 103d df60 513d
00000210: 5673 053d 6fc9 623d 4a6f 12bd 4c7b 183e
00000220: c7f2 b83c c6d4 cf3d 9fe7 9bbd 66e9 ce3d
00000230: fd44 863d 0ba2 e33d 4f51 763d aad6 aa3d
00000240: 5c60 033d a34f 2a3b 976d e43c bdd9 ca3c
00000250: 1830 903c 776c 31ba 5413 683d c3f8 283e
00000260: eeb5 b53d cda0 f73c a3de afbd 92da 413d
00000270: d0ab 613d 558b 8a3d 0711 553d d42d 003d
00000280: 5daf 4a3d 11aa 853d 3a5a ef3d b651 be3c
00000290: 951f 0dbd 67ec 933d d7ca 3b3e b2c9 453d
000002a0: 1ebc 5a3d 7faf 8b3d 1146 d53d bea3 a43b
000002b0: 3981 1b3d 8917 853d 2138 9a3d b3c9 763d
000002c0: 1882 823d b443 393d 64dd a93c 5230 353d
000002d0: cfcc 9a3d 8ddf df3d e4da e63d 0766 833d
000002e0: bfcf b13d bb71 773d bc35 313d 5c37 78bc
000002f0: abe6 873d 03bf 453d f09f e03d 5515 223e
00000300: 6ec3 7fbd a687 6c3d 7901 e83d 5a89 8c3d
00000310: d7c5 8e3d 1230 c03d 42de 9a3d 76a4 cf3c
00000320: 26a0 bb3d cf52 6f3c 5ef5 03be 67fd e5bb
00000330: 4fa2 e33d e4c2 b1bd bf05 09bd 5226 82bd
00000340: 0c80 67bc 1628 403d 095f 383b ccda e0bc
00000350: 19ee 523c 643d 93ba 494e 233e 9ec0 5a3c
00000360: ff4d 3ebd 8d01 16be 2428 9ebd acfa 55bd
00000370: 3dda b93d 5d1e 9bbd 7690 08bc 2639 f23d
00000380: 5d84 e83d 4fc1 a53d f079 20bc 76e4 b73d
00000390: 1d1e abbd 461f 243d c844 08bd a089 2c3d
000003a0: 5ebf 2fbd 94f2 81bc e2c1 673d 13b8 5a3c
000003b0: b372 b9bd 3a41 823b ce4d 6f3d 24b9 c83a
000003c0: 96ad 06ba 5479 eb3d 3514 cdbd 4fae 653d
000003d0: 7262 a93d fbdc adbd 1da4 ccbd 2645 8abd
000003e0: ebb2 783b 8616 3abd 9711 703d 456e b9bb
000003f0: 5ad2 083e 148d e83a 4227 c63d a408 eebd
0.045318656 0.124215774 0.034162372 0.0714987 0.10139211 0.09888874 0.048188705 0.07541483
-0.004996979 0.0986699 -0.10301087 0.036342047 -0.022338908 0.08953833 0.14230599 0.025220448
0.11416333 0.09075207 0.13450752 -0.007953326 -0.1032728 0.047184855 0.05863539 0.10696512
0.13563128 0.16807473 0.20060617 0.008915534 0.015286476 0.103459746 0.07374787 0.029967435
0.032973006 0.031901646 -0.022480693 0.19523351 0.06848615 0.079524264 0.008564659 0.068117976
0.1189055 0.103606515 0.023552367 0.07280688 0.070943765 0.045488 0.047516234 0.016721826
0.05392811 -0.010468833 0.080852635 0.15603167 -0.018358868 0.054823413 0.08672432 0.0876699
0.02952272 0.021422494 0.008044614 0.12673044 0.09880471 -0.18919298 -0.04384712 0.079858884
0.14654306 0.0400048 0.22893173 0.0388752 0.12561424 -0.003925746 0.008885813 0.049487557
0.07926388 0.081487164 0.031008035 0.014803069 0.09040853 -0.09662221 0.08459726 0.11054484
0.050218485 -0.017926134 0.041295353 0.16908821 0.075767145 0.12543648 -0.031610273 0.23445654
0.020912034 0.17322214 -0.07853727 0.016419878 0.0043043448 0.06448633 0.07334423 0.06374937
-0.042550247 0.03935428 0.116907075 0.11259285 0.06943877 0.014507536 0.037420426 0.12584786
0.062259767 0.06808189 0.062483996 0.04765689 0.056146156 0.03658129 0.01604917 0.031732187
0.16623029 0.089951485 0.013917745 -0.010622751 0.022180367 0.116917506 -0.006841739 0.022696162
0.15544634 0.06266294 0.098564975 0.064652085 0.07976018 0.15505227 0.010959784 -0.018040424
0.0853736 -0.021800308 0.03539297 0.051117774 0.032580696 0.055367883 -0.035750665 0.14890784
0.022576703 0.10148005 -0.076125376 0.10103111 0.06556127 0.111148916 0.060136136 0.08341725
0.032074317 0.0025987409 0.027884288 0.024762029 0.017601058 -0.00067681767 0.056659058 0.16501145
0.08872591 0.030228043 -0.085873865 0.047327586 0.055095494 0.06764857 0.05201819 0.031293705
0.049483646 0.06526578 0.11687131 0.023232322 -0.034453947 0.072228245 0.18339096 0.048288055
0.05340206 0.068205826 0.10413755 0.0050244024 0.037965033 0.064986296 0.07530237 0.06025095
0.0637247 0.045230582 0.02073545 0.044235535 0.075585954 0.10931311 0.11272219 0.064159445
0.086822025 0.060411196 0.043264136 -0.015149917 0.06635793 0.048277866 0.10968006 0.1582845
-0.062442236 0.057746552 0.11328406 0.06862135 0.06971329 0.09384169 0.075619236 0.025346976
0.09161405 0.014607145 -0.12886569 -0.0070187333 0.11114942 -0.086797506 -0.033452746 -0.06354965
-0.01412965 0.04691323 0.0028132817 -0.02744808 0.01287415 -0.0011233506 0.15947832 0.013351588
-0.0464611 -0.14649029 -0.077225 -0.052241012 0.09074829 -0.07574151 -0.008335223 0.118273064
0.11353371 0.08093511 -0.009794697 0.08979122 -0.08355353 0.040068887 -0.03326872 0.042123437
-0.04290711 -0.01586274 0.056581385 0.013349551 -0.0905508 0.003975061 0.05842381 0.0015313965
-0.00051375607 0.11497751 -0.1001362 0.056074437 0.0827073 -0.08489414 -0.099922396 -0.0675147
0.003794844 -0.045431636 0.058610525 -0.005658897 0.13361493 0.001774224 0.096754566 -0.11622742

controller.fc_out.weight f4 [1000, 100]
00000000: 8a4b 763e 9cb4 7e3d 9b9b 21bf 3760 cdbe
00000010: 2ae4 003f 8a51 50be 527b f7ba 17a7 94be
00000020: 642a 313e 42c9 1fbe 4909 c2bd 3d45 a5be
00000030: 53be 3f3d ee67 40bf 9a87 fa3e 3dc2 8b3e
00000040: 6536 80bf 5bf6 efbe b049 98bf 6518 2bbf
00000050: f734 09be 2959 f0bd 33dc b03e 9bbc fc3e
00000060: 94ca cf3e a148 c63e 51db 55bf 1b5b 833d
00000070: beb4 8ebe 31f2 a8be bab5 06bf 822e 06be
00000080: f3be 303f a9cb 333e fc9f 0c3e 5338 76be
00000090: 1370 28bf 9799 96bd 6e54 14be 9bc7 80ba
000000a0: 84c1 9d3e 6fe8 a63e ce2e f3be 3877 ad3d
000000b0: 9d5b db3e 36ff 473e fc20 cdbe 8854 b1be
000000c0: e805 b1be ab8c 66be c948 6b3e 4376 05bf
000000d0: 094e 083f 90c1 bdbe 34db a23e 4c3e a5be
000000e0: a8fa d1be a4c3 38bd 98e5 e33d a0d8 d93e
000000f0: 8dcb eb3e c6d4 62be 5582 0a3d 413b e8be
00000100: b2fd 063f 91e1 223d c983 8d3e c596 1c3e
00000110: 2204 89bc 01d0 57bc 5fe2 113e f768 303f
00000120: 4307 8abe 57e7 f83e 648e 143f 3c79 e1bd
00000130: c937 cebe e2be 0a3e 7c82 913e e0ad 3bbd
00000140: cefb 86be 95bf e1be 510b 463e 56b4 39bf
00000150: 73fb 38bf 685a 243f f002 ab3e f5bb 2dbf
00000160: 9c1f 7e3d 786e 4d3f b132 283f 198b d03d
00000170: cfa5 f73e 530d 2e3e d958 bdbe b778 12be
00000180: edc4 163e 3d40 b4be 24a5 b33e d578 353f
00000190: 313a 00bf 7334 95be 6352 94be f3cb 793e
000001a0: 05f8 65bf da55 d8be 98df 45bf 988f 44bc
000001b0: d3bb 133e 76ae a13f dd4c f53a 67e2 053f
000001c0: a1ed 6b3e 9902 efbe de34 06bf c3a2 a53f
000001d0: 92da 893e 8bb5 683e 1006 a6bc 5009 1c3d
000001e0: 97ea 30bf 6cc0 153e 5f05 50bf 3686 95bf
000001f0: e09f 17bf eb09 953e cbd7 253e babe 22be
00000200: a7c3 193e 23f6 833e 555d ccbe b65f f4be
00000210: f07a 5cbe 6252 cebd 0404 0a3f 1679 393e
00000220: 7d3d d63e c99d b73d 1ee4 20bf 50de 693f
00000230: 7df6 b1be d1f3 84be 6b66 c33e 6c72 ecbe
00000240: 839b 96bf c18b ba3e 3a6c 8a3e 3082 94bf
00000250: 6784 223f 61c6 cd3c 071b 9cbe 4ce9 38bd
00000260: ec22 1a3f 630d bebe 759b 70be cce2 5cbf
00000270: 5662 99be 5c75 84bd 6da2 d33d 138b 023f
00000280: ecfc 65bd 331b d43e 7be4 043f 7821 f8be
00000290: 0b73 d23e c0fb b93e a17d c1be c0c2 543e
000002a0: 4303 bdbe 7797 353f 9c57 b6be 5040 afbe
000002b0: 9a6c a93e 3cd0 6cbf 0b97 5ebf 3790 94bf
000002c0: 603d 973f c919 e8be 98b5 28bf c239 d43e
000002d0: 682b ad3e db59 833e c8ea 0abf b5c6 ccbe
000002e0: c959 1b3d f14b 103e 5301 753f 588b 3c3f
000002f0: 23ff 373e 5288 2a3f ebe8 45bf ebc9 7e3f
00000300: ef10 c2be 71ec 963e 9ced 5fbf 7977 fc3d
00000310: d0b1 babd de19 44be fbf2 95be 0492 2abe
00000320: 780f ec3e 8e53 b13f a3d8 f0bd 23a1 4fbf
00000330: 2241 163f 887c 42be 1ffa 36bf 4c9d dcbe
00000340: aca6 f1be 4e57 b23e d63f 0c3e cb98 9abe
00000350: e506 eabe ead1 523e 89b5 d03f 7535 2b3d
00000360: a8d5 c03d d3bf 9e3d 6e8b 5b3f 1dc7 ec3e
00000370: 054a a23e d8bb 38bf ac01 48bf 21b5 0a3f
00000380: e85c 8cbe 8688 2fbe cf4a 0a3e b277 7b3d
00000390: 4ce4 50bf 414d 4b3e 9363 073f e587 113f
000003a0: 77d7 adbe e941 d63e 072c 963f 189b b8be
000003b0: dab2 a3bf 0c57 86bd be47 0b3e 864b 16bf
000003c0: 9cf8 80bf 1b21 313f eeda 0cbf 2d88 edbd
000003d0: 7cec aa3e d258 16bf 1ba1 153e 7d63 b6be
000003e0: f1ac 103e 3532 8b3f 8817 bb3e 0311 663f
000003f0: c4b8 493c bc55 673f b8cf 11bf 47bb 2d3e
0.24052253 0.06218396 -0.6312806 -0.4011247 0.5034815 -0.20343605 -0.0018881357 -0.2903373
0.17301327 -0.15604118 -0.09474427 -0.32279387 0.046812367 -0.75158584 0.4893158 0.2729663
-1.00166 -0.46867642 -1.1897488 -0.668341 -0.1339911 -0.11735756 0.34543 0.49362645
0.40584242 0.38727286 -0.83537775 0.06413861 -0.2787227 -0.32997277 -0.5262104 -0.13103679
0.69041365 0.17558159 0.13732904 -0.24044923 -0.6579601 -0.07353514 -0.14485332 -0.0009825112
0.30811703 0.32599208 -0.47496647 0.08470005 0.42843333 0.19530949 -0.40064228 -0.34634805
-0.3457482 -0.22514598 0.22976984 -0.5213358 0.5324407 -0.3706174 0.31807864 -0.3227409
-0.41011548 -0.045108452 0.11127776 0.42548084 0.46053734 -0.22151479 0.0338157 -0.45357707
0.5273086 0.0397659 0.27639607 0.15291889 -0.016725603 -0.013172151 0.1424651 0.68910164
-0.26958665 0.48613998 0.5802977 -0.11009452 -0.40276936 0.13549379 0.28419864 -0.045820117
-0.26363987 -0.44091478 0.19340254 -0.72540796 -0.7225868 0.6420045 0.3340068 -0.67864925
0.062041864 0.80246687 0.6570235 0.10182781 0.4836869 0.1699727 -0.36981848 -0.14303862
0.14723559 -0.3520526 0.3508693 0.708875 -0.50088793 -0.29141578 -0.28969106 0.24394207
-0.8983157 -0.42253 -0.772943 -0.011997126 0.14427118 1.2631366 0.0018714924 0.5229859
0.23039867 -0.4668167 -0.5242442 1.2940296 0.26924568 0.22725503 -0.020266563 0.03809482
-0.69107956 0.14624184 -0.81258196 -1.1681583 -0.59228325 0.2910913 0.161956 -0.15893069
0.15016042 0.25773725 -0.39914957 -0.47729272 -0.21531272 -0.10074307 0.5391238 0.18112597
0.41843787 0.08965642 -0.6284808 0.91354847 -0.34758368 -0.25967267 0.38164076 -0.46181047
-1.1766208 0.3643475 0.27035695 -1.160223 0.6348328 0.025119008 -0.3048937 -0.045144364
0.60209537 -0.37119588 -0.23496802 -0.86283565 -0.29957837 -0.06467697 0.10333715 0.5099346
-0.05614941 0.41427 0.51911134 -0.48463035 0.41103396 0.36324883 -0.3779116 0.20777416
-0.3691655 0.7093424 -0.35613716 -0.34228754 0.3309067 -0.9250524 -0.86949223 -1.1606511
1.1815605 -0.45332173 -0.6590209 0.41450316 0.3382218 0.25654492 -0.542645 -0.3999535
0.037927423 0.1409147 0.95705146 0.7365012 0.1796842 0.6661426 -0.7730853 0.9952685
-0.37903544 0.29477265 -0.8747194 0.12327475 -0.09115946 -0.19150493 -0.29286942 -0.16657263
0.46105552 1.3853624 -0.1176007 -0.8110525 0.58693135 -0.18992817 -0.71475405 -0.43088758
-0.47197473 0.34832233 0.13696226 -0.30194697 -0.45708385 0.20587888 1.63054 0.041799027
0.09415752 0.07751431 0.8575963 0.4624566 0.31697097 -0.72161627 -0.7812755 0.5418263
-0.27414632 -0.17141923 0.135051 0.061393447 -0.81598353 0.19853689 0.52886313 0.56847984
-0.3395345 0.4184716 1.1732186 -0.36055827 -1.2788956 -0.065595716 0.13601586 -0.5870899
-1.007587 0.6919114 -0.5502156 -0.11598239 0.33383548 -0.5872928 0.14612238 -0.3562278
0.14128472 1.0874697 0.3654139 0.8986971 0.012312118 0.90365195 -0.5695758 0.16965972

controller.fc_out.bias f4 [1000]
00000000: 57b8 933f ab21 493e 63b5 c83d d196 403d
00000010: cb34 d4bd ea5f 0ebb 3994 9bba c897 0fbb
00000020: f7c6 0ebb aeac c43e f836 8b3e ef93 c33e
00000030: 3fc5 923e 29bb b03e d264 2e3d 3a93 243e
00000040: 6351 d13d 809e 063e 20b2 e73c bfac 613d
00000050: 08cf f2bc 5682 71bc 4bf8 4dbd ab26 db3c
00000060: 47e1 6fbc 2e7d 123d 37c2 1e3e f57a ad3d
00000070: ef3f b63d 8d49 773d b2a4 7c3d 5a8e a43d
00000080: 7e6c 6d3e 580f a93e e6a7 bd3d 66ba 3b3e
00000090: 18bc 0ebb 749c 0ebb 0044 0fbb 14b8 0dbb
000000a0: 523e 0fbb a963 0ebb 8843 0ebb 6391 0fbb
000000b0: 19bc 0fbb 3d7b 0fbb 72ba 0ebb a204 0fbb
000000c0: d61a 0fbb ee38 0fbb 61ea 0dbb 12d4 0ebb
000000d0: 54d3 0dbb 63e6 0ebb 233c 0fbb a9b2 0fbb
000000e0: d937 0fbb 5c31 0fbb 992a 0ebb 6974 0fbb
000000f0: 23f7 0ebb 18ba 0fbb c9db 0dbb 5d96 0fbb
00000100: e363 0fbb fafc 0ebb 594c 0ebb a378 0fbb
00000110: b8f9 0ebb 4b7f 0ebb a029 0fbb 544a 0fbb
00000120: c9cd 0ebb 9edd 0ebb c26c 0fbb a64e 0ebb
00000130: 3c29 0fbb c9bc 0fbb e6f4 0dbb 3696 0fbb
00000140: bf68 0fbb 1ab2 0fbb 4eb0 0ebb eba7 0fbb
00000150: 96c6 0ebb 4469 0fbb 119c 0fbb baf8 0ebb
00000160: c66f 0fbb dbf4 0ebb 2a53 0ebb e924 0ebb
00000170: 320b 0ebb d21e 0ebb a10e 0fbb 9c82 0ebb
00000180: 56d0 0ebb 7955 0fbb d38e 0fbb 3136 0fbb
00000190: a257 0ebb 4d6f 0fbb 5fc5 0ebb 26a9 0fbb
000001a0: cc8c 0ebb cd03 0fbb b055 0ebb 0130 0fbb
000001b0: b87a 0ebb 1cf4 0ebb fde2 0dbb a6de 0dbb
000001c0: 9ba5 0fbb 696f 0fbb c9bb 0fbb 6d92 0ebb
000001d0: 7bda 0ebb cdfa 0ebb 0164 0ebb db48 0ebb
000001e0: 4610 0fbb 8720 0fbb 41a9 0fbb b67f 0ebb
000001f0: a306 0fbb 17bd 0fbb 3d54 0ebb cebd 0ebb
00000200: b14d 0ebb ac80 0fbb 18c7 0ebb 51a3 0ebb
00000210: 93e5 0dbb cfef 0ebb 4265 0ebb 599e 0ebb
00000220: 5fe4 0ebb 6c2f 0fbb d80a 0fbb dfa0 0dbb
00000230: 4b4f 0ebb c7b7 0fbb d9a4 0ebb e6a8 0ebb
00000240: da97 0ebb ddbd 0fbb 21bd 0ebb 990c 0fbb
00000250: 4215 0fbb 28a0 0fbb dc9c 0dbb 0393 0ebb
00000260: 758d 0fbb adcd 0dbb 4588 0fbb b3ce 0ebb
00000270: 5c1f 0fbb 400d 0fbb 6fcc 0dbb c480 0fbb
00000280: 0027 0fbb 28a6 0ebb ab37 0fbb ae77 0fbb
00000290: 2e72 0fbb 8e4f 0ebb a49a 0ebb 595b 0fbb
000002a0: 6ee3 0ebb fdab 0fbb 37aa 0ebb 2a4f 0fbb
000002b0: 6075 0fbb f935 0fbb 8482 0ebb d3bf 0ebb
000002c0: 01c0 0fbb 98e0 0ebb 3acd 0ebb 7652 0fbb
000002d0: 453f 0fbb 3479 0fbb 9379 0fbb e39c 0fbb
000002e0: 2c3a 0fbb 656c 0ebb f491 0fbb 0073 0dbb
000002f0: d46e 0fbb bcbb 0fbb 6d15 0ebb 99b0 0fbb
00000300: e0a4 0ebb b9bb 0ebb aea5 0fbb 40f3 0ebb
00000310: a791 0fbb aa93 0fbb 2362 0ebb c037 0ebb
00000320: aa61 0ebb 9aa2 0ebb 086f 0fbb 234d 0ebb
00000330: 1685 0dbb b51d 0fbb a51c 0fbb 92bc 0fbb
00000340: 01c0 0ebb 2431 0fbb 069d 0fbb c342 0ebb
00000350: aeac 0fbb dbb7 0fbb 3992 0ebb ecf0 0ebb
00000360: eb66 0fbb f738 0ebb b242 0ebb 1eb2 0fbb
00000370: 2e17 0ebb 504f 0ebb 0783 0ebb aa3e 0fbb
00000380: de7c 0ebb ed39 0ebb efc6 0ebb 398f 0ebb
00000390: 2dba 0fbb 5bb2 0fbb caa3 0fbb 9123 0ebb
000003a0: 431d 0fbb 758f 0fbb 14a5 0ebb 21ac 0fbb
000003b0: 82a8 0ebb 1b45 0ebb 1f51 0fbb 11cf 0ebb
000003c0: 5834 0fbb b7db 0ebb 9759 0fbb ecc1 0fbb
000003d0: 15a4 0fbb 6f4a 0ebb ecf8 0dbb 407f 0fbb
000003e0: 9ea6 0dbb 5b6a 0fbb 8390 0ebb 184f 0fbb
000003f0: 16a7 0ebb 8f67 0ebb 7197 0fbb f0e7 0ebb
1.1540631 0.1964175 0.09800222 0.04701883 -0.10361632 -0.002172465 -0.0011869735 -0.0021910537
-0.0021786073 0.38412994 0.27190375 0.38198802 0.28666112 0.34517792 0.04257662 0.16071787
0.102206014 0.131464 0.028283179 0.055096384 -0.029639736 -0.014740547 -0.05028562 0.026751837
-0.014641113 0.035763912 0.15503775 0.08470718 0.08898913 0.060372878 0.061680503 0.08034964
0.23185918 0.3301952 0.0926054 0.18332824 -0.0021779593 -0.0021760734 -0.00218606 -0.0021624612
-0.0021857214 -0.0021726883 -0.0021707732 -0.0021906726 -0.0021932183 -0.0021893524 -0.002177861 -0.002182283
-0.0021836064 -0.0021854 -0.0021654593 -0.0021793884 -0.0021640854 -0.0021804802 -0.0021855913 -0.0021926558
-0.0021853356 -0.002184949 -0.002169287 -0.0021889454 -0.0021814785 -0.002193099 -0.0021645895 -0.0021909692
-0.0021879605 -0.0021818266 -0.0021712987 -0.0021891973 -0.0021816324 -0.0021743353 -0.0021844879 -0.0021864371
-0.0021790138 -0.0021799575 -0.0021884893 -0.0021714359 -0.0021844646 -0.0021932593 -0.0021660863 -0.00219096
-0.0021882502 -0.0021926225 -0.0021772566 -0.0021920155 -0.0021785847 -0.0021882812 -0.0021913091 -0.0021815733
-0.002188669 -0.0021813426 -0.002171705 -0.002168948 -0.0021674153 -0.002168585 -0.0021828788 -0.002174533
-0.0021791658 -0.0021871014 -0.0021905198 -0.002185237 -0.0021719714 -0.0021886409 -0.0021785123 -0.0021920889
-0.0021751402 -0.0021822334 -0.0021718554 -0.002184868 -0.0021740627 -0.002181298 -0.0021650188 -0.0021647601
-0.0021918777 -0.0021886474 -0.0021931997 -0.0021754757 -0.0021797705 -0.002181697 -0.0021727087 -0.0021710906
-0.0021829768 -0.0021839456 -0.0021920952 -0.0021743602 -0.0021824024 -0.0021932775 -0.002171769 -0.0021780613
-0.0021713788 -0.0021896763 -0.002178615 -0.0021764825 -0.002165173 -0.0021810418 -0.0021727835 -0.0021761863
-0.00218036 -0.0021848334 -0.0021826532 -0.002161078 -0.0021714743 -0.0021929608 -0.0021765737 -0.0021768152
-0.002175799 -0.0021933236 -0.002178021 -0.0021827577 -0.002183274 -0.002191553 -0.0021608388 -0.0021755106
-0.0021904383 -0.0021637485 -0.0021901291 -0.0021790683 -0.002183876 -0.0021827966 -0.0021636744 -0.0021896819
-0.0021843314 -0.0021766517 -0.002185325 -0.0021891403 -0.0021888125 -0.0021714899 -0.0021759653 -0.0021874516
-0.002180304 -0.0021922581 -0.0021768936 -0.0021867254 -0.002189003 -0.0021852239 -0.0021745274 -0.0021781817
-0.0021934512 -0.0021801349 -0.0021789805 -0.002186922 -0.002185778 -0.002189231 -0.0021892532 -0.002191358
-0.0021854741 -0.0021732089 -0.0021907063 -0.0021583438 -0.0021886127 -0.0021931967 -0.0021680251 -0.0021925329
-0.0021765754 -0.0021779372 -0.002191882 -0.0021812469 -0.0021906884 -0.0021908083 -0.0021725975 -0.002170071
-0.0021725693 -0.0021764399 -0.0021886248 -0.0021713458 -0.0021594218 -0.0021837775 -0.0021837142 -0.0021932465
-0.0021781924 -0.0021849358 -0.0021913662 -0.0021707274 -0.0021922993 -0.0021929655 -0.0021754636 -0.002181108
-0.0021881412 -0.0021701434 -0.0021707234 -0.0021926234 -0.0021681297 -0.0021714754 -0.002174558 -0.002185742
-0.0021741907 -0.0021702007 -0.0021786054 -0.0021752848 -0.0021931038 -0.0021926377 -0.0021917694 -0.002168868
-0.002183751 -0.0021905575 -0.0021765875 -0.0021922665 -0.002176792 -0.002170867 -0.002186842 -0.0021790902
-0.0021851268 -0.002179844 -0.0021873468 -0.0021935655 -0.002191787 -0.0021711846 -0.0021663262 -0.0021895915
-0.0021614204 -0.002188346 -0.0021753616 -0.0021867212 -0.0021767071 -0.0021729206 -0.0021910334 -0.0021805726
