VerNova/checkpoints/ntm_val_0.1687_epoch_109.pt (torch, 863092 bytes, 11 tensors)

read_vectors f4 [1, 32]
0	0xbf0b375b	-0.5438134
1	0xbefb7e9c	-0.49120033
2	0xbe6fccbd	-0.23417945
3	0xbfa1f8cb	-1.265405
4	0xbd2a78f7	-0.041619267
5	0xbe4379eb	-0.19089477
6	0xbe8d9789	-0.27654675
7	0xbd28e9d9	-0.04123864
8	0x3f998ad7	1.1995496
9	0x3f0b2bee	0.54363906
10	0x3f263a4c	0.64932704
11	0xbfeda36a	-1.8565495
12	0xbf86a123	-1.0517925
13	0xbf22a00f	-0.6352548
14	0xbf25d648	-0.6478009
15	0x3f0c3cf8	0.5478053
16	0xbec05654	-0.37565863
17	0x3f7cd8d6	0.98768365
18	0xbf5256d4	-0.8216374
19	0x3f12fb72	0.57414925
20	0xbecb02aa	-0.3965047
21	0x3f32df95	0.6987241
22	0xbf85144c	-1.0396819
23	0x3fa0e6dd	1.2570454
24	0xbe66a533	-0.22523956
25	0xbed48c48	-0.41513276
26	0xbf7e223f	-0.99271005
27	0xbf5aebf6	-0.855163
28	0x3f124616	0.5713819
29	0xbfbac55c	-1.4591479
30	0x3c94b47e	0.018152472
31	0x3ee174c3	0.44034395

memory.memory f4 [64, 32]
0	0xbf0b375b	-0.5438134
1	0xbefb7e9c	-0.49120033
2	0xbe6fccbd	-0.23417945
3	0xbfa1f8cb	-1.265405
4	0xbd2a78f7	-0.041619267
5	0xbe4379eb	-0.19089477
6	0xbe8d9789	-0.27654675
7	0xbd28e9d9	-0.04123864
8	0x3f998ad7	1.1995496
9	0x3f0b2bee	0.54363906
10	0x3f263a4c	0.64932704
11	0xbfeda36a	-1.8565495
12	0xbf86a123	-1.0517925
13	0xbf22a00f	-0.6352548
14	0xbf25d648	-0.6478009
15	0x3f0c3cf8	0.5478053
16	0xbec05654	-0.37565863
17	0x3f7cd8d6	0.98768365
18	0xbf5256d4	-0.8216374
19	0x3f12fb72	0.57414925
20	0xbecb02aa	-0.3965047
21	0x3f32df95	0.6987241
22	0xbf85144c	-1.0396819
23	0x3fa0e6dd	1.2570454
24	0xbe66a533	-0.22523956
25	0xbed48c48	-0.41513276
26	0xbf7e223f	-0.99271005
27	0xbf5aebf6	-0.855163
28	0x3f124616	0.5713819
29	0xbfbac55c	-1.4591479
30	0x3c94b47e	0.018152472
31	0x3ee174c3	0.44034395
32	0xbf0b375b	-0.5438134
33	0xbefb7e9c	-0.49120033
34	0xbe6fccbd	-0.23417945
35	0xbfa1f8cb	-1.265405
36	0xbd2a78f7	-0.041619267
37	0xbe4379eb	-0.19089477
38	0xbe8d9789	-0.27654675
39	0xbd28e9d9	-0.04123864
40	0x3f998ad7	1.1995496
41	0x3f0b2bee	0.54363906
42	0x3f263a4c	0.64932704
43	0xbfeda36a	-1.8565495
44	0xbf86a123	-1.0517925
45	0xbf22a00f	-0.6352548
46	0xbf25d648	-0.6478009
47	0x3f0c3cf8	0.5478053
48	0xbec05654	-0.37565863
49	0x3f7cd8d6	0.98768365
50	0xbf5256d4	-0.8216374
51	0x3f12fb72	0.57414925
52	0xbecb02aa	-0.3965047
53	0x3f32df95	0.6987241
54	0xbf85144c	-1.0396819
55	0x3fa0e6dd	1.2570454
56	0xbe66a533	-0.22523956
57	0xbed48c48	-0.41513276
58	0xbf7e223f	-0.99271005
59	0xbf5aebf6	-0.855163
60	0x3f124616	0.5713819
61	0xbfbac55c	-1.4591479
62	0x3c94b47e	0.018152472
63	0x3ee174c3	0.44034395
64	0xbf0b375b	-0.5438134
65	0xbefb7e9c	-0.49120033
66	0xbe6fccbd	-0.23417945
67	0xbfa1f8cb	-1.265405
68	0xbd2a78f7	-0.041619267
69	0xbe4379eb	-0.19089477
70	0xbe8d9789	-0.27654675
71	0xbd28e9d9	-0.04123864
72	0x3f998ad7	1.1995496
73	0x3f0b2bee	0.54363906
74	0x3f263a4c	0.64932704
75	0xbfeda36a	-1.8565495
76	0xbf86a123	-1.0517925
77	0xbf22a00f	-0.6352548
78	0xbf25d648	-0.6478009
79	0x3f0c3cf8	0.5478053
80	0xbec05654	-0.37565863
81	0x3f7cd8d6	0.98768365
82	0xbf5256d4	-0.8216374
83	0x3f12fb72	0.57414925
84	0xbecb02aa	-0.3965047
85	0x3f32df95	0.6987241
86	0xbf85144c	-1.0396819
87	0x3fa0e6dd	1.2570454
88	0xbe66a533	-0.22523956
89	0xbed48c48	-0.41513276
90	0xbf7e223f	-0.99271005
91	0xbf5aebf6	-0.855163
92	0x3f124616	0.5713819
93	0xbfbac55c	-1.4591479
94	0x3c94b47e	0.018152472
95	0x3ee174c3	0.44034395
96	0xbf0b375b	-0.5438134
97	0xbefb7e9c	-0.49120033
98	0xbe6fccbd	-0.23417945
99	0xbfa1f8cb	-1.265405
100	0xbd2a78f7	-0.041619267
101	0xbe4379eb	-0.19089477
102	0xbe8d9789	-0.27654675
103	0xbd28e9d9	-0.04123864
104	0x3f998ad7	1.1995496
105	0x3f0b2bee	0.54363906
106	0x3f263a4c	0.64932704
107	0xbfeda36a	-1.8565495
108	0xbf86a123	-1.0517925
109	0xbf22a00f	-0.6352548
110	0xbf25d648	-0.6478009
111	0x3f0c3cf8	0.5478053
112	0xbec05654	-0.37565863
113	0x3f7cd8d6	0.98768365
114	0xbf5256d4	-0.8216374
115	0x3f12fb72	0.57414925
116	0xbecb02aa	-0.3965047
117	0x3f32df95	0.6987241
118	0xbf85144c	-1.0396819
119	0x3fa0e6dd	1.2570454
120	0xbe66a533	-0.22523956
121	0xbed48c48	-0.41513276
122	0xbf7e223f	-0.99271005
123	0xbf5aebf6	-0.855163
124	0x3f124616	0.5713819
125	0xbfbac55c	-1.4591479
126	0x3c94b47e	0.018152472
127	0x3ee174c3	0.44034395
128	0xbf0b375b	-0.5438134
129	0xbefb7e9c	-0.49120033
130	0xbe6fccbd	-0.23417945
131	0xbfa1f8cb	-1.265405
132	0xbd2a78f7	-0.041619267
133	0xbe4379eb	-0.19089477
134	0xbe8d9789	-0.27654675
135	0xbd28e9d9	-0.04123864
136	0x3f998ad7	1.1995496
137	0x3f0b2bee	0.54363906
138	0x3f263a4c	0.64932704
139	0xbfeda36a	-1.8565495
140	0xbf86a123	-1.0517925
141	0xbf22a00f	-0.6352548
142	0xbf25d648	-0.6478009
143	0x3f0c3cf8	0.5478053
144	0xbec05654	-0.37565863
145	0x3f7cd8d6	0.98768365
146	0xbf5256d4	-0.8216374
147	0x3f12fb72	0.57414925
148	0xbecb02aa	-0.3965047
149	0x3f32df95	0.6987241
150	0xbf85144c	-1.0396819
151	0x3fa0e6dd	1.2570454
152	0xbe66a533	-0.22523956
153	0xbed48c48	-0.41513276
154	0xbf7e223f	-0.99271005
155	0xbf5aebf6	-0.855163
156	0x3f124616	0.5713819
157	0xbfbac55c	-1.4591479
158	0x3c94b47e	0.018152472
159	0x3ee174c3	0.44034395
160	0xbf0b375b	-0.5438134
161	0xbefb7e9c	-0.49120033
162	0xbe6fccbd	-0.23417945
163	0xbfa1f8cb	-1.265405
164	0xbd2a78f7	-0.041619267
165	0xbe4379eb	-0.19089477
166	0xbe8d9789	-0.27654675
167	0xbd28e9d9	-0.04123864
168	0x3f998ad7	1.1995496
169	0x3f0b2bee	0.54363906
170	0x3f263a4c	0.64932704
171	0xbfeda36a	-1.8565495
172	0xbf86a123	-1.0517925
173	0xbf22a00f	-0.6352548
174	0xbf25d648	-0.6478009
175	0x3f0c3cf8	0.5478053
176	0xbec05654	-0.37565863
177	0x3f7cd8d6	0.98768365
178	0xbf5256d4	-0.8216374
179	0x3f12fb72	0.57414925
180	0xbecb02aa	-0.3965047
181	0x3f32df95	0.6987241
182	0xbf85144c	-1.0396819
183	0x3fa0e6dd	1.2570454
184	0xbe66a533	-0.22523956
185	0xbed48c48	-0.41513276
186	0xbf7e223f	-0.99271005
187	0xbf5aebf6	-0.855163
188	0x3f124616	0.5713819
189	0xbfbac55c	-1.4591479
190	0x3c94b47e	0.018152472
191	0x3ee174c3	0.44034395
192	0xbf0b375b	-0.5438134
193	0xbefb7e9c	-0.49120033
194	0xbe6fccbd	-0.23417945
195	0xbfa1f8cb	-1.265405
196	0xbd2a78f7	-0.041619267
197	0xbe4379eb	-0.19089477
198	0xbe8d9789	-0.27654675
199	0xbd28e9d9	-0.04123864
200	0x3f998ad7	1.1995496
201	0x3f0b2bee	0.54363906
202	0x3f263a4c	0.64932704
203	0xbfeda36a	-1.8565495
204	0xbf86a123	-1.0517925
205	0xbf22a00f	-0.6352548
206	0xbf25d648	-0.6478009
207	0x3f0c3cf8	0.5478053
208	0xbec05654	-0.37565863
209	0x3f7cd8d6	0.98768365
210	0xbf5256d4	-0.8216374
211	0x3f12fb72	0.57414925
212	0xbecb02aa	-0.3965047
213	0x3f32df95	0.6987241
214	0xbf85144c	-1.0396819
215	0x3fa0e6dd	1.2570454
216	0xbe66a533	-0.22523956
217	0xbed48c48	-0.41513276
218	0xbf7e223f	-0.99271005
219	0xbf5aebf6	-0.855163
220	0x3f124616	0.5713819
221	0xbfbac55c	-1.4591479
222	0x3c94b47e	0.018152472
223	0x3ee174c3	0.44034395
224	0xbf0b375b	-0.5438134
225	0xbefb7e9c	-0.49120033
226	0xbe6fccbd	-0.23417945
227	0xbfa1f8cb	-1.265405
228	0xbd2a78f7	-0.041619267
229	0xbe4379eb	-0.19089477
230	0xbe8d9789	-0.27654675
231	0xbd28e9d9	-0.04123864
232	0x3f998ad7	1.1995496
233	0x3f0b2bee	0.54363906
234	0x3f263a4c	0.64932704
235	0xbfeda36a	-1.8565495
236	0xbf86a123	-1.0517925
237	0xbf22a00f	-0.6352548
238	0xbf25d648	-0.6478009
239	0x3f0c3cf8	0.5478053
240	0xbec05654	-0.37565863
241	0x3f7cd8d6	0.98768365
242	0xbf5256d4	-0.8216374
243	0x3f12fb72	0.57414925
244	0xbecb02aa	-0.3965047
245	0x3f32df95	0.6987241
246	0xbf85144c	-1.0396819
247	0x3fa0e6dd	1.2570454
248	0xbe66a533	-0.22523956
249	0xbed48c48	-0.41513276
250	0xbf7e223f	-0.99271005
251	0xbf5aebf6	-0.855163
252	0x3f124616	0.5713819
253	0xbfbac55c	-1.4591479
254	0x3c94b47e	0.018152472
255	0x3ee174c3	0.44034395

controller.lstm.weight_ih f4 [400, 64]
0	0x3d18f30f	0.037341174
1	0x3ca89c74	0.020582415
2	0xbd882a9c	-0.06648752
3	0xbc8769c2	-0.016529921
4	0xbb1b4327	-0.002369115
5	0x3dbbb550	0.09165442
6	0x3df4ea5a	0.119587615
7	0x3ca8e263	0.020615762
8	0x3d31428d	0.04327636
9	0x3cb10b44	0.021611817
10	0xbcd78ebc	-0.026313178
11	0xbd3dc27e	-0.04632806
12	0x3c886a77	0.016652329
13	0xbd8d801f	-0.06909203
14	0x3cc2b4c7	0.023767842
15	0xbd6465f1	-0.05576128
16	0x39bfef96	0.00036608864
17	0x3c3e0f56	0.011600336
18	0x3c4dc9de	0.012560336
19	0x3d324048	0.043518335
20	0x3855d2cf	5.0979488e-05
21	0xbc2ffd43	-0.010741535
22	0xbd0db335	-0.034594733
23	0x3d17f122	0.037095197
24	0xbb995bae	-0.0046801185
25	0x3d58a947	0.05289581
26	0xbd7de1ed	-0.061983038
27	0xbd155dff	-0.036466595
28	0xbadfad29	-0.0017065156
29	0xbd657940	-0.056023836
30	0xbd2d490e	-0.042306
31	0xbddf415d	-0.10901139
32	0x3a535bed	0.0008062709
33	0xbc60a8ca	-0.013712117
34	0x3aeeb247	0.001821109
35	0x3c21a080	0.009864926
36	0xbc1d4bda	-0.009600604
37	0x3ab46533	0.001376307
38	0x3c3c1031	0.01147847
39	0x3b075361	0.0020649063
40	0xbb93735f	-0.0044998373
41	0x3c08268e	0.008309973
42	0x3b41247c	0.002947121
43	0xbc7bb39b	-0.0153626455
44	0xbb693378	-0.0035583656
45	0x3c5edf3e	0.01360303
46	0x3b25c306	0.0025293245
47	0x3c24ddc2	0.010062637
48	0x3c817ef7	0.015807612
49	0x3a2136a6	0.0006149806
50	0x3bc59600	0.0060298443
51	0xbc4ed7fa	-0.012624735
52	0xbc5153f6	-0.0127763655
53	0xbbed3a14	-0.0072395895
54	0xbc375ce6	-0.011191582
55	0xbaafab95	-0.0013402576
56	0xbc095cf5	-0.008383979
57	0xbbefd9c2	-0.00731966
58	0xbc65fb8b	-0.014037023
59	0xbb6ce624	-0.0036147917
60	0x3a726a4d	0.00092474074
61	0xbc83aec3	-0.016074544
62	0x3c083e14	0.008315582
63	0x3bd55e05	0.006511452
64	0x3d942c60	0.07235026
65	0x3cfb3b3b	0.030667892
66	0xbe013883	-0.12619214
67	0xbd1c1651	-0.03810722
68	0x3d9bd3e2	0.07608773
69	0x3e20fcb5	0.157214
70	0x3e535712	0.20638683
71	0xbd69a38d	-0.05704074
72	0x3dbf18c1	0.09330893
73	0x3d1f1443	0.038837682
74	0xbcbacbd2	-0.022802267
75	0xbdab909e	-0.08377193
76	0x3d18d358	0.037310928
77	0xbd8fbcf6	-0.07018463
78	0x3d136d42	0.03599287
79	0xbdbde031	-0.09271277
80	0x3c9f29fd	0.019429201
81	0x3d184905	0.03717901
82	0x3d2c7439	0.042103026
83	0xbc443eaa	-0.011977831
84	0xbc49686d	-0.012292963
85	0x3cf70a85	0.030156383
86	0xbd9be005	-0.07611088
87	0xbd0c42a4	-0.03424324
88	0x3d5ff6c3	0.05467869
89	0xba65bd9a	-0.00087639096
90	0xbe30a18d	-0.17249127
91	0xbdad4560	-0.08460498
92	0xbda4f697	-0.08054846
93	0xbdecb263	-0.11557462
94	0xbde9491e	-0.11390899
95	0x3c11d274	0.008900274
96	0xbde5030e	-0.11182223
97	0xbe3baf84	-0.18328673
98	0x3c11188a	0.008855948
99	0x3e1a9bc2	0.1509848
100	0xbddfbe37	-0.109249525
101	0xbd5ca3de	-0.053867213
102	0x3e320cb8	0.17387664
103	0xbbe21945	-0.006899985
104	0x3c18546f	0.009297474
105	0x3c137273	0.008999455
106	0x3db16749	0.08662278
107	0xbdee689a	-0.11641045
108	0xbe464bfe	-0.19364926
109	0x3d02c4ef	0.03192609
110	0x3d7697ab	0.060203236
111	0x3db355e3	0.08756616
112	0x3d134f16	0.035964094
113	0xbd0324e0	-0.03201759
114	0xbda0d6a6	-0.07853441
115	0x3d151889	0.03640035
116	0x3db4bcc1	0.088250645
117	0x3dbe60ce	0.09295808
118	0x3d8201b5	0.06347982
119	0xbe1f19b3	-0.15537147
120	0xbdf51cc9	-0.11968381
121	0xbe2feef9	-0.17181005
122	0x3d079c15	0.033107836
123	0x3c892c21	0.016744675
124	0x3da8737e	0.082251534
125	0xbb35768f	-0.0027689075
126	0xbdc84667	-0.09779053
127	0x3db20606	0.08692555
128	0x3de48f0e	0.11160098
129	0x3dbe07f7	0.09278863
130	0xbe027326	-0.12739238
131	0xbd37f8af	-0.044914898
132	0x3deaf983	0.11473372
133	0x3dfd2436	0.12360422
134	0x3e227c76	0.1586779
135	0x3d00e71f	0.031470414
136	0x3de9ac20	0.11409783
137	0x3d9e1ef6	0.07720749
138	0xbe7877d2	-0.24264458
139	0xbdd3f4b8	-0.10349411
140	0x3d533e27	0.051572945
141	0xbe583884	-0.21115309
142	0x3e0c38bd	0.13693519
143	0xbe1dff1c	-0.15429348
144	0x3d18d7a7	0.037315037
145	0x3d98cca0	0.07460904
146	0xbd07fc70	-0.033199728
147	0xbd0812b6	-0.03322097
148	0xbc8e4506	-0.017366897
149	0xbdbe4e95	-0.09292332
150	0xbdbec402	-0.09314729
151	0x3d889993	0.06669917
152	0xbe169472	-0.14705065
153	0xbc33f6cc	-0.010984134
154	0xbd396a6a	-0.0452675
155	0xbda2a8b3	-0.07942333
156	0xbd75524f	-0.05989295
157	0xbe0178e2	-0.1264377
158	0x3cea1ec6	0.028579127
159	0xbda25699	-0.079266734
160	0x3db5dc77	0.08879941
161	0xbc458d41	-0.012057603
162	0xbe210f7b	-0.15728562
163	0xbd8e3768	-0.06944162
164	0x3db0ef67	0.086394124
165	0xbda604dc	-0.081063956
166	0xbe19b7ce	-0.15011522
167	0x3daf4783	0.08558562
168	0xbcb15a45	-0.02164949
169	0xbd273c80	-0.04082918
170	0xbd15d353	-0.036578488
171	0x3d139346	0.036029123
172	0x3d39ccf4	0.045361474
173	0xbe391fb4	-0.180785
174	0x3dd0a904	0.10188487
175	0x3c1616aa	0.009160677
176	0xbd048045	-0.03234889
177	0x3e3d7b7a	0.18504134
178	0xbcddcb3e	-0.027074452
179	0xbe2ddbb5	-0.16978343
180	0xbdb3112d	-0.087435104
181	0xbd0d4eb8	-0.0344989
182	0x3d05cd9a	0.03266678
183	0x3dbaa14a	0.09112795
184	0xbd14c8be	-0.036324255
185	0x3d617e26	0.055051945
186	0x3ce7616c	0.028244697
187	0x3c1878e6	0.009306168
188	0xbe0d3ebf	-0.13793467
189	0x3be7815e	0.0070649823
190	0x3c448a16	0.011995813
191	0xbb39d3cb	-0.0028354998
192	0x3dc1bcef	0.09459864
193	0x3cd9794f	0.026547102
194	0xbde9bd05	-0.11413006
195	0xbdc95146	-0.09829955
196	0x3d314d7f	0.043286797
197	0x3dfda4db	0.12384959
198	0x3e57996c	0.2105462
199	0x3c2996a3	0.010350856
200	0x3bec445b	0.007210297
201	0x3dc4a3d0	0.09601557
202	0xbda87bb3	-0.08226719
203	0xbe0d46d7	-0.13796555
204	0x3cec1149	0.028816836
205	0xbe5cc1e9	-0.21558346
206	0x3da2b38e	0.079444036
207	0xbd6bb763	-0.057547938
208	0x3c2671dd	0.010158983
209	0x3c610e94	0.013736386
210	0x3c2849d4	0.010271508
211	0x3df161dd	0.11786244
212	0xbab8befd	-0.0014095005
213	0xbe202b71	-0.15641572
214	0xbe0f569b	-0.13997881
215	0x3dbe61d5	0.09296004
216	0xbc6a1a60	-0.014288515
217	0x3dc11397	0.094275646
218	0xbe06e79e	-0.13174292
219	0xbd934cc3	-0.071923755
220	0x3d280b2e	0.041026287
221	0xbd5ff0ba	-0.054672934
222	0xbd5cd152	-0.05391056
223	0xbe4ecb45	-0.20194729
224	0xbd3e9527	-0.04652896
225	0xbd030686	-0.031988643
226	0x3c833eee	0.016021218
227	0xbc4e4175	-0.012588848
228	0xbc0527d8	-0.008127175
229	0xbc1cfe97	-0.009582183
230	0x3d3d33b8	0.0461919
231	0xbb2897de	-0.0025725286
232	0x3d39162f	0.04518717
233	0x3c581f7a	0.013191098
234	0xbb4e95cc	-0.0031522391
235	0xbd31a5b1	-0.043370906
236	0xbcf6502b	-0.030067524
237	0x3d22ef48	0.039778978
238	0xbbd2d82b	-0.0064344606
239	0xbcaf2f5d	-0.02138489
240	0x3cccd450	0.025003582
241	0x3c946c48	0.018118039
242	0xbc97259d	-0.018450553
243	0x3c9602b4	0.018311836
244	0xbb133301	-0.002246082
245	0x3ce6d61f	0.028178273
246	0xbcbd0dba	-0.023077834
247	0xbd0c3b5e	-0.034236304
248	0x3d09da49	0.03365544
249	0x3c53fb22	0.012938293
250	0xbd46c7f4	-0.048530534
251	0xbabad3a3	-0.0014253746
252	0x3d33c1c5	0.043885965
253	0xbc4c6d89	-0.012477287
254	0xbbbb0018	-0.0057067983
255	0x3cf672be	0.03008401

controller.lstm.weight_hh f4 [400, 100]
0	0x3cb4e40c	0.022081397
1	0x3cc1875d	0.023624117
2	0xbc9e650f	-0.019335298
3	0x3ba2492c	0.0049525704
4	0x3cc8fbe7	0.024534179
5	0xbb488ef9	-0.0030602796
6	0xbb0374a5	-0.002005854
7	0xbcca47a2	-0.02469236
8	0xbc747461	-0.014920325
9	0x3ce78856	0.028263252
10	0x3bebb1a5	0.0071928077
11	0xbb914a71	-0.004433923
12	0xbcc024f5	-0.023455122
13	0x3c730795	0.014833351
14	0x3cf3d75b	0.029765775
15	0x3ce4248f	0.027849464
16	0x3c9105ac	0.0177029
17	0xbca3f2b3	-0.020013189
18	0x3cc86bbe	0.024465438
19	0x3c15bfc2	0.009139957
20	0x3c6942f0	0.014237151
21	0xbce72482	-0.02821565
22	0x3b3ea4e7	0.0029089989
23	0x3c9d546d	0.019205296
24	0x3cdcd045	0.02695478
25	0x3cd4e6a8	0.025988892
26	0xbba166a0	-0.004925564
27	0xbbfa0148	-0.0076295473
28	0xbc324129	-0.010879793
29	0x3d271f4a	0.040801324
30	0x39bd8d2f	0.0003615408
31	0x3c9aad4a	0.018881459
32	0xbc2a0ae7	-0.010378576
33	0x3aae13f2	0.0013281091
34	0x3a5c47af	0.00084030157
35	0x3bc6a5d2	0.006062248
36	0x3b35f9a9	0.0027767217
37	0xbbcbf962	-0.006224797
38	0xbbf58b4e	-0.007493413
39	0xbce31b89	-0.02772309
40	0xbb79aebb	-0.0038098532
41	0x3cdb6e5e	0.026786026
42	0xbc92b3a3	-0.017907923
43	0xbae0f35b	-0.0017162369
44	0x3c8c6a52	0.017140541
45	0xbd011449	-0.031513486
46	0xbbf3658f	-0.007427878
47	0x3b14a552	0.0022681546
48	0x3b8ef0ab	0.004362186
49	0x3c782316	0.015145084
50	0x3cf8c072	0.030365203
51	0xbd03ee69	-0.032209788
52	0x3cdc2369	0.026872354
53	0xbc8ec2f2	-0.017426942
54	0x3c20360d	0.009778512
55	0xbca13e8f	-0.01968315
56	0xbce21004	-0.027595527
57	0x3afd40cd	0.001932168
58	0x3c85d0a6	0.016334843
59	0x3cba5458	0.022745296
60	0x3cdf2b08	0.027242199
61	0xbbabb417	-0.0052399742
62	0xbcb982b2	-0.022645328
63	0xbcec0086	-0.028808843
64	0x3c73f083	0.014888885
65	0xbc88f8e7	-0.016720248
66	0x3d248deb	0.040174406
67	0x3ccf7be0	0.025327623
68	0x3b079acb	0.002069163
69	0xbd0b30cb	-0.03398208
70	0x3c95f852	0.018306885
71	0x3ac73e9f	0.0015201158
72	0xbd00ec7b	-0.031475525
73	0x3cc3f6d6	0.023921411
74	0xbb1297e1	-0.002236836
75	0x3d179a57	0.037012424
76	0xbccbc0e5	-0.024872253
77	0x3b4cac88	0.0031230766
78	0x3cd509fb	0.026005736
79	0xbcbcf021	-0.023063721
80	0xbcbba9ad	-0.022908056
81	0x3c6a581a	0.014303232
82	0xbcae7cc9	-0.021299737
83	0xbb04c077	-0.002025632
84	0x3c1a7b15	0.009428759
85	0x3ce71aad	0.028210962
86	0xbc6e7633	-0.014554548
87	0x3ba6528b	0.005075758
88	0xbbbb842e	-0.005722544
89	0xba8cf6fe	-0.0010754762
90	0x3c80e371	0.015733453
91	0x3cc2db0f	0.023786096
92	0xbc06be2c	-0.008224051
93	0x3c9c41e1	0.019074382
94	0xbbe4b4f4	-0.006979579
95	0xbcfbf263	-0.030755227
96	0x3c0a6210	0.0084462315
97	0xbc94105d	-0.018074209
98	0x3c94416f	0.018097607
99	0xbc49487e	-0.01228535
100	0x3dac1af3	0.08403578
101	0x3d0d5bac	0.034511253
102	0xbdb61c19	-0.08892078
103	0x3d9a71f2	0.075412646
104	0xbd4219f4	-0.047388032
105	0x3d0564d3	0.032566857
106	0xbe07b5f2	-0.13253
107	0xbd24914a	-0.04017762
108	0xbd4733b9	-0.04863331
109	0x3dcc0c57	0.09963291
110	0xbbca377f	-0.0061711664
111	0xbd960835	-0.07325784
112	0xbe39a0c5	-0.18127735
113	0x3b14c6c5	0.0022701484
114	0x3df96781	0.12177945
115	0x3e367e10	0.17821527
116	0x3c925bbd	0.01786601
117	0xbccd706f	-0.025078027
118	0xbe175137	-0.14777075
119	0xbc022b39	-0.007944875
120	0x3dba7d47	0.09105926
121	0xbd87adcd	-0.06624947
122	0xbded74e8	-0.11594564
123	0xbd680919	-0.0566493
124	0x3d9249ff	0.0714302
125	0xbd1bf16d	-0.03807204
126	0x3e46a4d4	0.19398814
127	0xbe09cdd0	-0.13457417
128	0xbd85fe44	-0.06542638
129	0x3d4f2dcd	0.05058079
130	0x3d37719b	0.044786077
131	0x3da1e68b	0.07905301
132	0x3ddf40cf	0.10901033
133	0xbca5cd96	-0.020239633
134	0x3e0f070f	0.13967536
135	0x3dde37a4	0.10850456
136	0x3caa33a2	0.020776574
137	0x3dec833b	0.11548468
138	0xbe19eb55	-0.15031178
139	0xbd900d59	-0.07033796
140	0xbdac3968	-0.08409387
141	0xbe31b8d1	-0.17355658
142	0xbe2225bf	-0.15834711
143	0xbd99856e	-0.07496153
144	0xbd853752	-0.06504692
145	0xbd676d4f	-0.05650073
146	0xbd9694de	-0.07352613
147	0x3db30a62	0.08742215
148	0x3df0200d	0.11724863
149	0xbacd593c	-0.0015666853
150	0x3e305339	0.17219247
151	0x3d2c7c55	0.04211076
152	0xbe3590a4	-0.17730957
153	0x3e73dc73	0.23814563
154	0x3daa76b7	0.08323424
155	0x38b4288a	8.59062e-05
156	0xbdb16d2e	-0.086634025
157	0x3d907b3b	0.07054754
158	0x3db89b7a	0.0901403
159	0xbcb8bb14	-0.022550143
160	0x3e01a410	0.12660241
161	0xbc20e7c0	-0.0098208785
162	0xbdcd2fe7	-0.10018902
163	0xbd0629cb	-0.0327547
164	0xbdeaa0e0	-0.11456466
165	0x3d1aba3a	0.037775256
166	0x3e5823c1	0.21107389
167	0x3e820a96	0.253987
168	0xbe4d106f	-0.200258
169	0xbd8e860a	-0.0695916
170	0x3cc41944	0.023937829
171	0xbc98f9a7	-0.018673731
172	0xbd049196	-0.032365404
173	0x3d67a032	0.05654926
174	0xbd5a7e0b	-0.05334286
175	0x3f5492b3	0.83036345
176	0x3d9898e3	0.07451036
177	0xbd9a515c	-0.07535049
178	0x3d8c5319	0.06851787
179	0xbd272adc	-0.04081236
180	0xbd6da05f	-0.05801427
181	0xbca45da9	-0.020064192
182	0xbd7e7145	-0.06211974
183	0x3dbcc1d3	0.092166565
184	0xbdae3849	-0.08506829
185	0xbd88b76d	-0.06675611
186	0xbd1c479c	-0.03815423
187	0xbe15f2c2	-0.14643386
188	0xbda941c7	-0.08264499
189	0x3dfbf690	0.123028874
190	0x3d62b008	0.055343658
191	0x3cbb5843	0.022869235
192	0x3e0e3990	0.13889146
193	0x3da750a6	0.08169679
194	0xbd8bb36c	-0.068213314
195	0xbd86a20d	-0.065738775
196	0xbca00f64	-0.019538589
197	0xbd9b10ce	-0.075715646
198	0xbe0fe78f	-0.14053176
199	0xbe4aa89a	-0.19790879
200	0x3e887c19	0.2665718
201	0xbed9ec77	-0.4256322
202	0xbe8831bc	-0.26600444
203	0xbd4ebfb8	-0.050475806
204	0xbe45f327	-0.19331037
205	0xbe7da31a	-0.2476925
206	0x3d0de5c4	0.03464295
207	0x3ce6b807	0.028163923
208	0xbe236b27	-0.15958844
209	0x3d7d733c	0.061877474
210	0xbd7b15fa	-0.061300255
211	0xbd2d1326	-0.04225459
212	0x3d573e1e	0.052549474
213	0x3d28b43d	0.041187514
214	0x3d6e840a	0.05823139
215	0x3dc39566	0.0954998
216	0x3d2c1cfa	0.04201982
217	0x3e123c69	0.14280857
218	0xbc495633	-0.012288618
219	0xbef77f25	-0.4833919
220	0xbdaeb518	-0.08530635
221	0x3e6025ef	0.2188947
222	0xbd2ae430	-0.041721523
223	0xbe174501	-0.14772417
224	0xbd52bfe0	-0.051452518
225	0x3e6618dd	0.22470422
226	0x3d4069a6	0.046975754
227	0x3b2726d9	0.0025505333
228	0x3deb6e18	0.11495608
229	0xbe357383	-0.17719845
230	0xbe84859f	-0.25883195
231	0x3cb0a2b1	0.021561952
232	0x3df5b3aa	0.11997159
233	0x3ca9446b	0.020662507
234	0x3df02205	0.11725239
235	0xbd0099c8	-0.031396657
236	0x3e2303d0	0.15919423
237	0xbce41a87	-0.02784468
238	0xbb5f36f6	-0.003405986
239	0x3e4992ab	0.19684856
240	0x3d9e4b33	0.07729187
241	0x3dab5ea9	0.08367664
242	0x3e35237f	0.17689322
243	0x3cc38c9f	0.023870764
244	0xbe308a13	-0.17240171
245	0xbe55fc8a	-0.20897117
246	0x3c5d79f7	0.013517848
247	0xbd8849d2	-0.06654705
248	0x3da7d870	0.08195579
249	0x3b9afb9b	0.0047297007
250	0x3d8f36e4	0.069928914
251	0xbd0eeee6	-0.0348958
252	0xbcbd5143	-0.023110038
253	0x3d45b5ea	0.04826919
254	0xbc90f458	-0.017694637
255	0x3db94ead	0.09048209

controller.lstm.bias_ih f4 [400]
0	0x3d6269f2	0.05527682
1	0x3e00c2ad	0.12574263
2	0x3dae795a	0.0851924
3	0x3db6d3e2	0.08927132
4	0x3dd8e45b	0.1059043
5	0x3dba85c3	0.09107544
6	0x3caeceb3	0.021338796
7	0x3d9fb3ab	0.07797941
8	0x3aa492cb	0.0012555955
9	0x3dca60cb	0.09881743
10	0xbda125a0	-0.078685045
11	0x3ca5f6d6	0.020259302
12	0x3c884ca1	0.016638102
13	0x3db4a137	0.08819812
14	0x3e135ff5	0.14392073
15	0x3d39fcca	0.045407094
16	0x3dd7f5a4	0.10544899
17	0x3db49083	0.08816626
18	0x3e0d4cbf	0.13798808
19	0xbd342f55	-0.04399045
20	0xbe069d29	-0.1314589
21	0x3d4398e6	0.047753237
22	0x3d61dc9c	0.05514203
23	0x3de0a3e1	0.109687574
24	0x3e44d61d	0.19222303
25	0x3e25a7d3	0.16177301
26	0x3e13c257	0.14429604
27	0xbd005672	-0.03133244
28	0x3cb43dac	0.022002064
29	0x3e19e820	0.15029955
30	0x3dc98556	0.09839885
31	0x3cf73ae7	0.030179454
32	0x3cb12b9c	0.02162724
33	0x3cac3c44	0.02102483
34	0xbca3a01e	-0.01997381
35	0x3e20c358	0.15699518
36	0x3d58a61a	0.05289278
37	0x3d3cab1d	0.046061624
38	0xbc0f1abc	-0.008734401
39	0x3d9606ee	0.073255405
40	0x3db5e4c1	0.08881522
41	0x3dbe6b08	0.09297758
42	0x3d2c9675	0.042135675
43	0x3d8c7a37	0.06859248
44	0x3da586b0	0.0808233
45	0x3d4a86cd	0.049444962
46	0x3da6f903	0.08152964
47	0x3c88412f	0.016632644
48	0x3d6a8e25	0.057264466
49	0xbd24cd76	-0.040235005
50	0x3d992a2d	0.074787475
51	0x3e4a5cc1	0.19761945
52	0x3d4825f8	0.048864335
53	0x3d74272d	0.059607673
54	0x3d8350ee	0.064119205
55	0x3d9d689e	0.0768597
56	0x3c39e05e	0.011344997
57	0x3d3f964d	0.046774197
58	0xbcfbd474	-0.030740954
59	0x3d6320ac	0.05545108
60	0x3dc3dc9c	0.09563562
61	0xbe1f805d	-0.1557631
62	0xbc5e39d3	-0.013563591
63	0x3da9050d	0.082529165
64	0x3dc6af24	0.09701374
65	0x3d395838	0.045250148
66	0x3e44a6a4	0.19204193
67	0x3d51d974	0.05123277
68	0x3e00ad6a	0.12566152
69	0xbcfd6658	-0.03093259
70	0x3d54c710	0.051947653
71	0x3ce0ba4e	0.027432587
72	0x3d9ae404	0.07563022
73	0x3db41f52	0.087950364
74	0x3cc5ecb3	0.024160719
75	0x3cc1c0ef	0.023651568
76	0x3dc4ba67	0.09605866
77	0xbda10655	-0.07862536
78	0x3daafb23	0.08348682
79	0x3dd603ff	0.10449981
80	0x3d5b128e	0.053484492
81	0x3bc5f657	0.006041329
82	0x3cee4cba	0.02908932
83	0x3e1c60f8	0.15271366
84	0x3d681a61	0.056665782
85	0x3dec61e2	0.11542107
86	0xbd8a57ba	-0.06755014
87	0x3e710d8c	0.23540324
88	0xbc9a19fc	-0.018811218
89	0x3e27104e	0.16314813
90	0xbd3faede	-0.046797626
91	0x3c65a1a4	0.014015589
92	0x3c7cbfac	0.0154265575
93	0x3d27d664	0.040975943
94	0x3d648e23	0.055799615
95	0x3d7d1f1e	0.061797254
96	0xbc80598c	-0.0156677
97	0x3d2508d3	0.04029162
98	0x3dde1556	0.10843913
99	0x3e1806c3	0.1484633
100	0x3d8b3151	0.06796516
101	0xbdb77a13	-0.08958831
102	0x3d449f0f	0.048003253
103	0x3dda4e1c	0.106594294
104	0x3d7e2735	0.06204911
105	0x3d786406	0.060642265
106	0x3d57c434	0.05267735
107	0x3d47f1f5	0.048814733
108	0x3d8acdd7	0.06777542
109	0xbc20e9cb	-0.009821366
110	0x3d6b082b	0.057380836
111	0x3d280183	0.041017067
112	0x3d8f3270	0.06992042
113	0x3d0b1f7c	0.033965573
114	0x3d733c79	0.059383843
115	0xbc620a3e	-0.013796387
116	0x3d36a2df	0.04458892
117	0x3dccde46	0.10003333
118	0xbc98ae48	-0.018637791
119	0x3ce96a5c	0.028493099
120	0x3d85bb04	0.06529811
121	0x3d8381e1	0.06421257
122	0x3e00d445	0.12580974
123	0x3d88f021	0.06686426
124	0x3e12f11a	0.14349785
125	0x3d89caa6	0.06728105
126	0xbd476405	-0.04867937
127	0x3c1bcdfe	0.009509562
128	0x3dafd092	0.085847035
129	0x3daeb225	0.08530072
130	0x3d9b2470	0.07575309
131	0x3d5ce032	0.053924747
132	0x3d088496	0.03332957
133	0x3d7ee210	0.06222731
134	0xbcec8813	-0.028873479
135	0x3e1ea367	0.1549202
136	0x3d800492	0.06250872
137	0x3df9d1ec	0.121982425
138	0x3b531f72	0.0032214788
139	0x3d993f37	0.074827604
140	0x3d754897	0.05988368
141	0x3df1e1a6	0.11810617
142	0x3d13102f	0.035904106
143	0x3daaeaa3	0.08345535
144	0x3d012f52	0.03153927
145	0x3c08baf0	0.008345351
146	0x3d525edd	0.05136
147	0xbcdf3276	-0.027245741
148	0x3cb1dfdc	0.02171319
149	0x3d615518	0.055012792
150	0x3d489cef	0.04897779
151	0x3e2c2d03	0.16814046
152	0xbb248694	-0.002510463
153	0xbb11ebf6	-0.0022265888
154	0xbd1a7ea4	-0.03771843
155	0x3dc3f986	0.09569077
156	0x3dbbf47b	0.0917749
157	0x3d67ef8c	0.056624934
158	0x3ce1e891	0.027576717
159	0x3ce7a512	0.028276954
160	0x3d2df0b3	0.042465877
161	0x3e0ecdb3	0.13945656
162	0x3d9ebdce	0.07751046
163	0x3d131e5b	0.03591762
164	0xbcc42ad7	-0.023946209
165	0x3dca0b70	0.09865463
166	0x3e4468b6	0.19180569
167	0x3d4fbf48	0.05071953
168	0x3ad8644b	0.0016509382
169	0x3dc4362c	0.09580645
170	0x3dbda199	0.09259338
171	0xbc3411ce	-0.010990573
172	0x3d170bf9	0.036876652
173	0x3d7be80b	0.06150059
174	0x3d8ebd6b	0.06969722
175	0x3de4350e	0.11142932
176	0x3d83a776	0.06428425
177	0x3da0b606	0.07847218
178	0x3cbdaa9a	0.023152638
179	0x3c69c7c7	0.014268822
180	0x3d98396d	0.07432828
181	0x3dd704e4	0.1049898
182	0x3dc9a01c	0.098449916
183	0x3dc9a691	0.09846223
184	0x3d8a0277	0.067387514
185	0x3d2bf4ac	0.041981384
186	0x3d2797c6	0.040916227
187	0xbdc2d0e1	-0.09512497
188	0x3dddd99d	0.10832522
189	0x3d76adf8	0.060224503
190	0x3c02259e	0.007943539
191	0x3e1f5975	0.15561469
192	0x3dbf5b03	0.09343531
193	0x3d6d30f0	0.057908
194	0x3d3980c9	0.045288835
195	0x3d85b378	0.065283716
196	0x3daf0aca	0.0854698
197	0x3d6eb1fd	0.05827521
198	0x3d424e61	0.04743803
199	0x3ccc97f4	0.0249748
200	0x3dc12854	0.0943152
201	0x3cc3c8fc	0.023899548
202	0xbdea87ac	-0.114516586
203	0xbdb24b3a	-0.087057546
204	0x3defa81b	0.117019854
205	0xbd6f930f	-0.058489855
206	0x3cb83867	0.022487832
207	0xbd9e5055	-0.07730166
208	0xbc332dbf	-0.0109362
209	0x3d21377b	0.03935955
210	0xbd052a64	-0.03251113
211	0xbcf0488b	-0.029331466
212	0xbd50ba9e	-0.050959222
213	0xbcbb7451	-0.022882612
214	0x3de6026e	0.11230932
215	0x3d42cd56	0.047559105
216	0xbd563e4e	-0.052305512
217	0xbe109c40	-0.14122105
218	0xbce2c843	-0.027683383
219	0xbc8404a9	-0.016115503
220	0xbc1716cd	-0.009221745
221	0xbd96b0be	-0.0735793
222	0x3d280682	0.04102183
223	0x3df6fd51	0.12060035
224	0x3ddc476c	0.1075581
225	0x3d36356e	0.04448455
226	0xbdb651c4	-0.08902314
227	0x3ae63655	0.00175638
228	0xbda112a6	-0.07864885
229	0xbc48e0a3	-0.012260589
230	0xbdc560c1	-0.09637595
231	0x3d0ee4dc	0.034886226
232	0x3c3ddac1	0.0115877995
233	0x3d98e687	0.074658446
234	0xbd91d248	-0.07120186
235	0xbdb46462	-0.08808209
236	0xbae89644	-0.0017744978
237	0xbd885e33	-0.06658592
238	0x3ce1fad0	0.027585417
239	0x3bb383ea	0.005478372
240	0xbd957bd6	-0.072990105
241	0x3cab5faa	0.02091964
242	0xbe0467d2	-0.1293023
243	0x3d96858f	0.07349693
244	0x3da8df53	0.08245721
245	0xbdb7b0fa	-0.089693025
246	0xbe0bfa80	-0.13669777
247	0xbd9e66b4	-0.07734433
248	0xbc1b2501	-0.009469272
249	0xbd8c6a44	-0.06856206
250	0x3d60d419	0.054889772
251	0xbe17d60b	-0.14827745
252	0x3e01dd3b	0.12682049
253	0xbe0a77e5	-0.13522299
254	0x3dbd1c5f	0.09233927
255	0xbd58302a	-0.052780308

controller.lstm.bias_hh f4 [400]
0	0x3d3b9a09	0.045801196
1	0x3e018fd1	0.12652518
2	0x3d1c67f1	0.038185064
3	0x3d8e1910	0.06938374
4	0x3dd9375a	0.106062606
5	0x3dc20100	0.09472847
6	0x3d2bb2ba	0.041918494
7	0x3d9e1111	0.07718099
8	0xb9dd4441	-0.00042203258
9	0x3dccae3b	0.09994169
10	0xbdd0f2cd	-0.102025606
11	0x3d344fc5	0.044021387
12	0xbccdf790	-0.025142461
13	0x3db54334	0.088507086
14	0x3e1452e0	0.1448474
15	0x3cd39cef	0.025831668
16	0x3dd7d13c	0.10537955
17	0x3dc3b64c	0.09556255
18	0x3e0dad80	0.13835716
19	0xbccf13b0	-0.025277942
20	0xbdd48db8	-0.10378593
21	0x3d48b307	0.04899886
22	0x3d5f3678	0.054495305
23	0x3de2d863	0.11076429
24	0x3e07af4f	0.13250469
25	0x3e2635d8	0.16231477
26	0x3e4ae8ba	0.1981534
27	0x3c2012b2	0.009770082
28	0x3c970cd0	0.018438727
29	0x3dd0883e	0.10182236
30	0x3d9be55a	0.07612105
31	0x3d01bcca	0.031674184
32	0x3d0b2691	0.033972327
33	0x3cf63743	0.030055648
34	0xbcc3a7de	-0.023883756
35	0x3e44a867	0.19204865
36	0x3d62a682	0.055334575
37	0x3d919a41	0.071095
38	0x3c4a59d1	0.012350515
39	0x3d8fc2ec	0.070196
40	0x3deebd1e	0.11657165
41	0x3dc7c1e3	0.09753778
42	0x3cf828b3	0.030292844
43	0x3d9afb74	0.07567492
44	0x3da4302d	0.08017001
45	0x3d4f5d95	0.050626356
46	0x3d4ba816	0.049720846
47	0x3cbea599	0.023272322
48	0x3d8032cf	0.06259691
49	0xbbda8d6c	-0.006669691
50	0x3da4778a	0.08030613
51	0x3e20873d	0.1567659
52	0xbcac753f	-0.021052001
53	0x3d7f2dc4	0.062299505
54	0x3daacb1d	0.08339522
55	0x3da0598d	0.078295805
56	0x3d084ae8	0.03327456
57	0x3ccf83fb	0.025331488
58	0x3bacfa98	0.0052788965
59	0x3e0624c2	0.1309996
60	0x3dc4b3f3	0.09604635
61	0xbe42b365	-0.19013746
62	0xbd31d3fb	-0.04341505
63	0x3d9fceaa	0.0780309
64	0x3e143a9d	0.14475484
65	0x3d360627	0.04443946
66	0x3e6dac32	0.23210219
67	0x3d288a1d	0.04114734
68	0x3e029b04	0.12754446
69	0xbac2bd79	-0.0014857493
70	0x3b9b6920	0.0047427565
71	0x3d5d2c39	0.053997252
72	0x3d9d4af2	0.0768031
73	0x3db37397	0.087622814
74	0x3cfb3de4	0.03066916
75	0x3cfdbda3	0.030974215
76	0x3dc36d3d	0.0954232
77	0xbdc1a210	-0.09454739
78	0x3db19d96	0.08672635
79	0x3de2dac1	0.1107688
80	0x3d666a52	0.05625374
81	0xbcde6b2b	-0.027150711
82	0x3d28f593	0.041249823
83	0x3e2b5ccc	0.16734618
84	0x3d662762	0.056189902
85	0x3deb2702	0.114820495
86	0xbd00600e	-0.031341605
87	0x3e707182	0.234808
88	0x3c91ec23	0.017812794
89	0x3e311f0c	0.17297
90	0xbd975043	-0.073883556
91	0x3c92d3bd	0.01792323
92	0x3bc00da4	0.005861001
93	0x3d7cc9da	0.06171594
94	0x3d65df82	0.056121357
95	0x3d847cc0	0.06469107
96	0xbd267cbd	-0.040646303
97	0x3d1ae322	0.037814267
98	0x3ddd5fe4	0.10809305
99	0x3deaba20	0.11461282
100	0x3d84ebab	0.064902626
101	0x3c920f3d	0.017829532
102	0x3d0d5fca	0.03451518
103	0x3df50092	0.119629994
104	0x3d7e1dd9	0.062040184
105	0x3d818925	0.06324986
106	0x3d5cec35	0.053936202
107	0x3d47dcee	0.04879468
108	0x3d63751d	0.05553161
109	0x3d06dc4d	0.03292494
110	0x3c8ac944	0.016941674
111	0x3d0eea04	0.034891143
112	0x3e294831	0.16531445
113	0x3dbfaeea	0.09359534
114	0x3c4c06fb	0.012452836
115	0xbc02f788	-0.007993586
116	0x3d38f3a7	0.04515424
117	0x3de7eae4	0.11324099
118	0xbba54f85	-0.00504488
119	0x3c67fcc3	0.014159384
120	0x3e1ba3cc	0.15199202
121	0x3d83dc03	0.06438448
122	0x3dc6a35f	0.09699129
123	0x3d88e28a	0.06683834
124	0x3da8ede8	0.08248502
125	0x3e1d95c5	0.15389164
126	0x3c835346	0.016030919
127	0xbc87e04a	-0.016586442
128	0x3db2f3af	0.08737885
129	0xbcaaded3	-0.020858204
130	0x3d1b4a87	0.03791287
131	0x3d5f28b7	0.054482188
132	0x3d091333	0.033465575
133	0x3d730d9b	0.059339147
134	0xbd0cf0f7	-0.03440949
135	0x3e12c65f	0.14333485
136	0x3ce5c7bb	0.02804934
137	0x3dbeeff9	0.09323115
138	0xbd9e09c8	-0.077167094
139	0x3dc2413b	0.09485098
140	0x3d733ea2	0.059385903
141	0x3de64698	0.112439334
142	0x3d771da3	0.060331
143	0x3daa8fe8	0.08328229
144	0x3d017495	0.031605322
145	0x3c04e2c6	0.008110708
146	0x3ce1e74c	0.027576111
147	0x3ce89fd2	0.02839652
148	0x3cb50ec6	0.022101771
149	0x3b91f2ed	0.004454008
150	0x3d4c74bc	0.049916014
151	0x3e2312b2	0.159251
152	0x3db806da	0.08985682
153	0x3cf9293d	0.030415172
154	0xbdb557d4	-0.088546425
155	0x3d452494	0.048130587
156	0x3d5d024b	0.053957265
157	0x3d8275f6	0.063701555
158	0x3d3fb210	0.046800673
159	0x3cef1e0c	0.029189132
160	0x3d531b0a	0.05153946
161	0x3d848c29	0.06472046
162	0x3df2d364	0.11856726
163	0x3c9425e3	0.018084472
164	0xbd0fd847	-0.035118368
165	0x3d94906e	0.0725411
166	0x3e3d2145	0.18469723
167	0x3d476b90	0.048686564
168	0x3d430236	0.04760953
169	0x3d8c346b	0.068459354
170	0x3dc8ba2c	0.098011345
171	0x3c179606	0.009252077
172	0x3d16f5a2	0.036855347
173	0x3d7d50f9	0.0618448
174	0x3d93c815	0.07215897
175	0x3d7162c9	0.0589321
176	0x3d83b5bd	0.06431148
177	0x3d2d5c36	0.042324267
178	0x3cba6845	0.022754798
179	0x3d33ed17	0.04392728
180	0x3d8dcb77	0.069235735
181	0x3de6363c	0.11240813
182	0x3de210a5	0.11038331
183	0x3d81b530	0.06333387
184	0x3da93e47	0.082638316
185	0x3d39f562	0.04540003
186	0x3d137117	0.035996523
187	0xbc665024	-0.014057193
188	0x3d89bf19	0.06725902
189	0x3d490e5a	0.049085952
190	0x3ddec2f4	0.10877028
191	0x3e2208b8	0.15823638
192	0xbd790f34	-0.060805514
193	0x3d63a1cc	0.055574223
194	0x3de5aa45	0.11214117
195	0x3d85b1a3	0.06528022
196	0x3d89dde7	0.06731778
197	0x3dafbe28	0.08581191
198	0x3d95cc0b	0.07314309
199	0x3d0edf85	0.034881134
200	0x3db47734	0.08811799
201	0x3c445ad4	0.011984546
202	0xbe00085a	-0.12503186
203	0xbc107cd9	-0.0088188285
204	0x3de82d86	0.11336808
205	0xbdb47576	-0.088114664
206	0xbd0a9732	-0.033835597
207	0xbd8e0189	-0.069338866
208	0xbc06be32	-0.008224057
209	0x3d4ba06a	0.04971353
210	0x3b155e08	0.0022791643
211	0xbce4f141	-0.02794707
212	0x3c586ea5	0.013209973
213	0xbb3f12e9	-0.0029155558
214	0x3e22cdf9	0.15898885
215	0x3ca5d94c	0.020245217
216	0xbd2f6979	-0.042825196
217	0xbe13123a	-0.14362422
218	0xbda2997d	-0.07939432
219	0xbd61541a	-0.055011846
220	0x3db75685	0.08952049
221	0xbd944f40	-0.07241678
222	0xbc085e1b	-0.008323218
223	0x3df42929	0.11921913
224	0x3de8b9db	0.11363574
225	0x3da349fb	0.07973095
226	0xbc2dd7ee	-0.010610564
227	0x3da95237	0.08267634
228	0xbdb23d16	-0.087030575
229	0x3d22108a	0.039566554
230	0xbd035abf	-0.032068964
231	0x3d0dd6ed	0.034628797
232	0xbd2ca272	-0.042147107
233	0xbc649f93	-0.013954061
234	0x3d6533a8	0.055957466
235	0x3c777d33	0.015105533
236	0xbdaf232f	-0.085516326
237	0x3bcc8c24	0.006242292
238	0x3d5efb20	0.05443871
239	0x3c4106ab	0.011781375
240	0xbb8d5b35	-0.0043138512
241	0x3dec5d01	0.115411766
242	0xbdcde7ce	-0.10053979
243	0x3d65a61a	0.05606661
244	0x3db3191d	0.08745024
245	0xbdad518e	-0.08462821
246	0xbdc0e92a	-0.094194725
247	0xbd8d7f7e	-0.06909083
248	0x3b8d7506	0.004316929
249	0xbd340e20	-0.043958783
250	0x3d767a88	0.06017545
251	0xbbe2854b	-0.0069128624
252	0x3e01548f	0.12629913
253	0xb99ac039	-0.00029516386
254	0x3dc6dd37	0.09710162
255	0xbdeceaa2	-0.1156819

controller.fc_out.weight f4 [1000, 100]
0	0x3e78c068	0.24292147
1	0x3d08b694	0.033377245
2	0xbf231a4d	-0.63712007
3	0xbed71f2c	-0.4201597
4	0x3f033510	0.5125284
5	0xbe44f41d	-0.19233747
6	0x3c4087e8	0.011751153
7	0xbe89b9a5	-0.26899448
8	0x3e343490	0.17598176
9	0xbe1f351d	-0.15547605
10	0xbd97ed2e	-0.07418285
11	0xbe9d8988	-0.3076899
12	0x3d159267	0.036516573
13	0xbf3fe418	-0.7495742
14	0x3ef87e04	0.48533642
15	0x3e9319bc	0.2873057
16	0xbf77191e	-0.965227
17	0xbef080dc	-0.46973312
18	0xbf9b1020	-1.2114296
19	0xbf25cab1	-0.6476241
20	0xbe15a099	-0.14612044
21	0xbdf5316f	-0.11972319
22	0x3ebf2ccc	0.37338865
23	0x3eff66d9	0.49883154
24	0x3ed535c0	0.4164257
25	0x3eb7d32d	0.35903302
26	0xbf561ed7	-0.8364081
27	0x3cd0601f	0.02543646
28	0xbe88b8b3	-0.26703414
29	0xbeb854ce	-0.360022
30	0xbf047035	-0.51733714
31	0xbe05f678	-0.13082302
32	0x3f266aa6	0.6500648
33	0x3e3d1d06	0.18468103
34	0x3e0c4339	0.13697518
35	0xbe7d5642	-0.24739936
36	0xbf2722fd	-0.6528776
37	0xbd90028e	-0.07031737
38	0xbe13c977	-0.14432321
39	0x3dfbb760	0.122908354
40	0x3e968461	0.29397872
41	0x3ea6c4b3	0.32571945
42	0xbeeb5fa3	-0.45971403
43	0x3d34cf53	0.044143032
44	0x3ef5f0a9	0.48035172
45	0x3e42b346	0.190137
46	0xbecd114f	-0.40052268
47	0xbeba40e4	-0.36377633
48	0xbeb54f9e	-0.35412306
49	0xbe8748b2	-0.2642265
50	0x3e5371c5	0.20648868
51	0xbf044efd	-0.51683027
52	0x3f050707	0.5196385
53	0xbec6a2ca	-0.38796073
54	0x3eb1d109	0.34729794
55	0xbea23f3d	-0.31688872
56	0xbed0a7e0	-0.40753078
57	0xbd14869d	-0.03626119
58	0x3e00a3b6	0.12562451
59	0x3ed24485	0.410679
60	0x3ee58cbe	0.4483394
61	0xbe63cd5d	-0.22246309
62	0x3c9ae66c	0.018908702
63	0xbeea6644	-0.45781147
64	0x3f0d4430	0.5518217
65	0x3d046340	0.032321215
66	0x3e859900	0.26093292
67	0x3ded0568	0.11573297
68	0xbcbc23bc	-0.022966258
69	0xbbb7ff01	-0.0056151156
70	0x3e44a49e	0.19203421
71	0x3f32ecf5	0.6989282
72	0xbe7eefde	-0.2489619
73	0x3f00d714	0.50328183
74	0x3f1b14ab	0.6057841
75	0xbe0763d7	-0.1322168
76	0xbed7804d	-0.42090073
77	0x3e0a5f84	0.13512999
78	0x3e8f558f	0.27994964
79	0xbd647ced	-0.0557832
80	0xbe8eff04	-0.27928936
81	0xbee8b4d5	-0.45450464
82	0x3e503286	0.20331773
83	0xbf348575	-0.7051614
84	0xbf37536c	-0.71611667
85	0x3f218914	0.6309979
86	0x3eb19a10	0.34687853
87	0xbf315124	-0.69264436
88	0x3d5d0842	0.053962953
89	0x3f4bf4e0	0.79670525
90	0x3f3103fb	0.691467
91	0x3de770b3	0.113007925
92	0x3eeddb62	0.46456438
93	0x3e2858c3	0.1644011
94	0xbeb0b1dd	-0.345107
95	0xbe241c81	-0.16026498
96	0x3e051db2	0.12999609
97	0xbeb5577c	-0.35418308
98	0x3ea8c765	0.32964626
99	0x3f396fbc	0.7243612
100	0xbef719f8	-0.48262
101	0xbe8f59aa	-0.27998096
102	0xbe8caeb9	-0.27477053
103	0x3e68278c	0.22671336
104	0xbf642757	-0.8912253
105	0xbedaaca1	-0.4270983
106	0xbf46bcba	-0.77631724
107	0xbb68ecd9	-0.0035541563
108	0x3e5287a3	0.20559554
109	0x3fa29ac9	1.2703487
110	0x3b2104cb	0.0024569507
111	0x3f081645	0.5315898
112	0x3e7d9821	0.24765064
113	0xbee4b528	-0.4466946
114	0xbf053a9a	-0.52042544
115	0x3fa42377	1.2823323
116	0x3e852879	0.2600744
117	0x3e5a1594	0.21297294
118	0x3cab60f2	0.02092025
119	0x3e9a6fef	0.30163524
120	0xbf26e41c	-0.6519182
121	0x3e36cbc5	0.1785117
122	0xbf4f7e68	-0.81052256
123	0xbf9218fa	-1.1413872
124	0xbf1762f5	-0.5913537
125	0x3e951266	0.291156
126	0x3e1b5f1b	0.15172999
127	0xbdf36030	-0.11883581
128	0x3e49238e	0.1964247
129	0x3e895fd9	0.26830938
130	0xbecae04c	-0.3962425
131	0xbef56428	-0.47927976
132	0xbe4ee76c	-0.20205468
133	0xbdc25a33	-0.094898604
134	0x3f0b7351	0.54472834
135	0x3e26eb43	0.16300683
136	0x3ecee346	0.4040777
137	0x3dae2abf	0.08504247
138	0xbf254ca1	-0.6457005
139	0x3f5fb871	0.8739081
140	0xbeaf1b70	-0.3420062
141	0xbe86d201	-0.26332095
142	0x3ecc91b0	0.399549
143	0xbf01da8f	-0.5072412
144	0xbf942462	-1.1573603
145	0x3eaaafc5	0.33337227
146	0x3e8b0bf0	0.27157545
147	0xbf9660b5	-1.1748263
148	0x3f3658fa	0.7122952
149	0x3d2f579d	0.042808164
150	0xbe9ed32c	-0.31020486
151	0xbca60b89	-0.020269172
152	0x3f0ff5fd	0.56234723
153	0xbeacbd1a	-0.33738023
154	0xbe7ada4a	-0.24497333
155	0xbf505d61	-0.81392485
156	0xbe92e5e0	-0.28691006
157	0xbd53e916	-0.05173596
158	0x3dde3591	0.10850061
159	0x3f02fd61	0.51167876
160	0xbd9baf0c	-0.07601747
161	0x3ecad4ca	0.3961547
162	0x3f07cf23	0.5305044
163	0xbef1ce78	-0.47227836
164	0x3ec3f9a4	0.38276398
165	0x3eb6a02a	0.3566907
166	0xbec901d0	-0.39259195
167	0x3e5a9b8c	0.21348399
168	0xbeb07dfc	-0.34471118
169	0x3f2863e0	0.657774
170	0xbeb1cbf4	-0.34725916
171	0xbeab8628	-0.3350079
172	0x3ea06ca3	0.31332883
173	0xbf5924ee	-0.84821975
174	0xbf620dd2	-0.8830234
175	0xbf9490e0	-1.1606712
176	0x3f949f4d	1.1611115
177	0xbee20caf	-0.44150302
178	0xbf1dcebf	-0.61643595
179	0x3ed42aec	0.41438997
180	0x3eb2dee0	0.34935665
181	0x3e785f67	0.24255143
182	0xbef1676f	-0.47149226
183	0xbed01ffe	-0.40649408
184	0x3d6146ed	0.05499928
185	0x3dca25b2	0.09870471
186	0x3f7bd604	0.98373437
187	0x3f342b8a	0.70378935
188	0x3e434d31	0.19072415
189	0x3f27e5e6	0.6558517
190	0xbf412541	-0.7544747
191	0x3f7c4a6f	0.98551077
192	0xbeb3e50b	-0.35135683
193	0x3e8c6532	0.27420956
194	0xbf5e2508	-0.86775255
195	0x3e2e4b22	0.17020848
196	0xbd3af198	-0.045640558
197	0xbe2a1fe1	-0.16613723
198	0xbe893a74	-0.2680241
199	0xbe140f43	-0.14458947
200	0x3eecbcde	0.46237844
201	0x3fb1e20d	1.389711
202	0xbdf51112	-0.119661465
203	0xbf54e5bb	-0.8316304
204	0x3f15ddd3	0.585416
205	0xbe457829	-0.19284119
206	0xbf39b2e0	-0.72538567
207	0xbedcee47	-0.4315054
208	0xbef20e0c	-0.47276342
209	0x3eb38f17	0.35070106
210	0x3dddc8cf	0.10829317
211	0xbe9a6d82	-0.30161673
212	0xbeea8e00	-0.45811462
213	0x3e53f192	0.2069762
214	0x3fd3dc77	1.6551656
215	0x3d33abdf	0.04386508
216	0x3dc7315b	0.09726211
217	0x3d9570cb	0.07296904
218	0x3f6554c3	0.8958246
219	0xbda2d97c	-0.07951638
220	0x3ea27bab	0.31734976
221	0xbf3968c9	-0.72425514
222	0xbf4af386	-0.7927784
223	0x3f0a026a	0.53909934
224	0xbe9040a8	-0.2817433
225	0xbe387fc9	-0.18017496
226	0x3e088c87	0.13334857
227	0x3d949706	0.07255368
228	0xbf5192d9	-0.81864697
229	0x3e5450c1	0.2073393
230	0x3f038968	0.5138154
231	0x3f126d8b	0.571984
232	0xbeb0dd89	-0.34544018
233	0x3ee13008	0.43981957
234	0x3f9862c5	1.1905142
235	0xbec1553e	-0.37760347
236	0xbfa6d922	-1.3035014
237	0xbd9b49e0	-0.0758245
238	0x3e0ba537	0.13637243
239	0xbf16cd2b	-0.5890681
240	0xbf81d79b	-1.0143923
241	0x3f381af6	0.7191614
242	0xbf0de757	-0.5543112
243	0xbdf0f0ed	-0.11764703
244	0x3ea9c9a4	0.33161652
245	0xbf16b9df	-0.58877367
246	0x3e19e3b0	0.15028262
247	0xbeb94ff1	-0.36193803
248	0x3e1078dd	0.14108606
249	0x3f8ae38c	1.0850692
250	0x3eb908a0	0.36139393
251	0x3f66ff23	0.9023306
252	0x3c898510	0.016787082
253	0x3f69d6d1	0.9134341
254	0xbf154d51	-0.583211
255	0x3e344b22	0.17606786

controller.fc_out.bias f4 [1000]
0	0x3f933150	1.1499424
1	0x3e3cbd39	0.18431558
2	0x3dc70a29	0.09718735
3	0x3d3a2e8e	0.045454554
4	0xbdd18306	-0.10230069
5	0xbb0a9162	-0.0021143784
6	0x3ca0403c	0.01956188
7	0xbb0beab1	-0.0021349604
8	0xbb0ae43e	-0.0021193172
9	0x3ec406bd	0.3828639
10	0x3e8cc9a9	0.27497604
11	0x3ebf486e	0.37359947
12	0x3e95f1fa	0.29286176
13	0x3eae90ca	0.3409484
14	0x3d3d0671	0.04614872
15	0x3e226ead	0.15862532
16	0x3dd9c4f3	0.10633268
17	0x3e0ce763	0.13760142
18	0x3cb18f0e	0.02167466
19	0x3d75e422	0.060032018
20	0xbcebf8e1	-0.028805198
21	0xbc2f7238	-0.010708384
22	0xbd4f3242	-0.05058504
23	0x3cd87704	0.026423939
24	0xbc8f3422	-0.017480914
25	0x3cfc168a	0.030772466
26	0x3e157a1a	0.1459736
27	0x3daa6dad	0.083217
28	0x3da69fc7	0.08135944
29	0x3d71b9e1	0.05901516
30	0x3d6c6853	0.05771668
31	0x3daedc75	0.085381426
32	0x3e6887c8	0.22708046
33	0x3ea92879	0.3303869
34	0x3dd87275	0.10568706
35	0x3e45e38d	0.19325085
36	0xbb0ae316	-0.0021192483
37	0xbb0ac2dd	-0.0021173276
38	0xbb0b72fe	-0.0021278257
39	0xbb0a2af6	-0.0021082736
40	0xbb0b6612	-0.0021270555
41	0xbb0a93f1	-0.002114531
42	0xbb0a7f66	-0.0021133064
43	0xbb0bde91	-0.0021342377
44	0xbb0c6910	-0.0021424927
45	0xbb0bb5ac	-0.0021318002
46	0xbb0ae003	-0.002119065
47	0xbb0b2a0c	-0.0021234779
48	0xbb0b3d31	-0.002124619
49	0xbb0b5fae	-0.0021266746
50	0xbb0a4545	-0.0021098417
51	0xbb0af5e0	-0.0021203682
52	0xbb0a3902	-0.0021091108
53	0xbb0b0845	-0.0021214646
54	0xbb0b6118	-0.002126759
55	0xbb0c2249	-0.002138274
56	0xbb0b6416	-0.0021269373
57	0xbb0b56d7	-0.0021261477
58	0xbb0a6f4a	-0.0021123462
59	0xbb0bacea	-0.0021312782
60	0xbb0b1a97	-0.0021225566
61	0xbb0c3758	-0.0021395292
62	0xbb0a3ef8	-0.0021094661
63	0xbb0be364	-0.0021345252
64	0xbb0b9623	-0.0021299205
65	0xbb0b1bac	-0.002122621
66	0xbb0a851f	-0.0021136475
67	0xbb0bb72a	-0.002131889
68	0xbb0b1d9f	-0.0021227372
69	0xbb0aaede	-0.0021161358
70	0xbb0b52f7	-0.0021259168
71	0xbb0b7be7	-0.0021283568
72	0xbb0af208	-0.002120139
73	0xbb0aff6a	-0.0021209368
74	0xbb0ba492	-0.0021307808
75	0xbb0a8a4a	-0.0021139556
76	0xbb0b4f83	-0.002125711
77	0xbb0c5803	-0.0021414764
78	0xbb0a4c80	-0.0021102726
79	0xbb0be4a0	-0.0021345988
80	0xbb0b9f15	-0.0021304537
81	0xbb0c2052	-0.002138157
82	0xbb0ad8b5	-0.0021186296
83	0xbb0c0ac4	-0.0021368722
84	0xbb0ae97a	-0.0021196292
85	0xbb0b9dc0	-0.0021303743
86	0xbb0bf2d3	-0.0021354451
87	0xbb0b1bae	-0.0021226215
88	0xbb0baa6c	-0.0021311296
89	0xbb0b1a82	-0.0021225517
90	0xbb0a8b02	-0.0021139984
91	0xbb0a6a76	-0.0021120585
92	0xbb0a5b4d	-0.0021111548
93	0xbb0a647a	-0.0021117018
94	0xbb0b328c	-0.0021239845
95	0xbb0aaf2b	-0.0021161537
96	0xbb0af27a	-0.0021201656
97	0xbb0b88fa	-0.0021291361
98	0xbb0bd5dd	-0.002133719
99	0xbb0b60df	-0.0021267456
100	0xbb0a8cf0	-0.0021141134
101	0xbb0baa18	-0.00213111
102	0xbb0aeb38	-0.002119733
103	0xbb0c05ec	-0.0021365834
104	0xbb0ab9ca	-0.0021167868
105	0xbb0b2997	-0.0021234506
106	0xbb0a8cc6	-0.0021141036
107	0xbb0b58ac	-0.002126257
108	0xbb0aa8da	-0.0021157772
109	0xbb0b15be	-0.0021222676
110	0xbb0a3fac	-0.002109508
111	0xbb0a3e6f	-0.0021094342
112	0xbb0c0164	-0.0021363134
113	0xbb0babcd	-0.0021312118
114	0xbb0c4364	-0.0021402473
115	0xbb0abe5d	-0.0021170594
116	0xbb0afaeb	-0.0021206688
117	0xbb0b1b4f	-0.0021225994
118	0xbb0a977e	-0.0021147425
119	0xbb0a837c	-0.00211355
120	0xbb0b333a	-0.002124025
121	0xbb0b4571	-0.0021251107
122	0xbb0c0965	-0.0021367904
123	0xbb0aaaa2	-0.0021158834
124	0xbb0b27ff	-0.0021233556
125	0xbb0c4c74	-0.0021407874
126	0xbb0a88b4	-0.002113861
127	0xbb0ae21f	-0.0021191908
128	0xbb0a842f	-0.0021135916
129	0xbb0bc18b	-0.0021325077
130	0xbb0aec31	-0.002119791
131	0xbb0acb7c	-0.0021178415
132	0xbb0a447a	-0.0021097944
133	0xbb0b137f	-0.0021221337
134	0xbb0a9bea	-0.002115006
135	0xbb0ac66f	-0.0021175405
136	0xbb0b04ce	-0.002121258
137	0xbb0b547d	-0.0021260076
138	0xbb0b2da7	-0.0021236928
139	0xbb0a1f08	-0.0021075625
140	0xbb0a87d7	-0.0021138096
141	0xbb0c31a2	-0.0021391888
142	0xbb0acc10	-0.002117876
143	0xbb0accf6	-0.0021179295
144	0xbb0ac354	-0.0021173554
145	0xbb0c5f2c	-0.0021419032
146	0xbb0ae436	-0.0021193153
147	0xbb0b307a	-0.002123861
148	0xbb0b3750	-0.0021242686
149	0xbb0bf711	-0.002135698
150	0xbb0a1cd2	-0.0021074307
151	0xbb0abaa6	-0.002116838
152	0xbb0bd330	-0.0021335594
153	0xbb0a36fa	-0.0021089897
154	0xbb0bcfe7	-0.0021333636
155	0xbb0af20e	-0.0021201405
156	0xbb0b42bf	-0.00212495
157	0xbb0b3009	-0.0021238348
158	0xbb0a369d	-0.002108968
159	0xbb0bc10e	-0.0021324786
160	0xbb0b5070	-0.0021257661
161	0xbb0acf00	-0.002118051
162	0xbb0b6452	-0.0021269512
163	0xbb0bb68f	-0.002131853
164	0xbb0badb3	-0.002131325
165	0xbb0a8a24	-0.0021139467
166	0xbb0c649e	-0.0021422277
167	0xbb0b8d4c	-0.0021293936
168	0xbb0b0465	-0.0021212336
169	0xbb0c87ee	-0.0021443325
170	0xbb0ad39d	-0.002118326
171	0xbb0b79d9	-0.0021282344
172	0xbb0bad97	-0.0021313184
173	0xbb0b5efb	-0.002126633
174	0xbb0ab1a7	-0.0021163018
175	0xbb0ae544	-0.0021193782
176	0xbb0c56de	-0.0021414082
177	0xbb0b0618	-0.002121335
178	0xbb0af1e4	-0.0021201307
179	0xbb0b8437	-0.0021288523
180	0xbb0b6b8b	-0.0021273817
181	0xbb0bb2b1	-0.0021316225
182	0xbb0bb899	-0.0021319746
183	0xbb0bf446	-0.0021355315
184	0xbb0b601f	-0.002126701
185	0xbb0a9b22	-0.0021149595
186	0xbb0bdf4b	-0.002134281
187	0xbb0bc1e0	-0.0021325275
188	0xbb0ba1ef	-0.0021306237
189	0xbb0c5ea9	-0.0021418727
190	0xbb0a5f3f	-0.00211139
191	0xbb0c256c	-0.002138461
192	0xbb0acc4e	-0.0021178904
193	0xbb0ae180	-0.0021191537
194	0xbb0c0590	-0.002136562
195	0xbb0b162f	-0.002122294
196	0xbb0bdf8c	-0.002134296
197	0xbb0be1d1	-0.0021344314
198	0xbb0a9718	-0.0021147188
199	0xbb0a789d	-0.002112902
200	0xbb0a955d	-0.0021146156
201	0xbb0acbc7	-0.002117859
202	0xbb0ba425	-0.0021307555
203	0xbb0a84b0	-0.0021136217
204	0xbb0a1435	-0.0021069173
205	0xbb0b46f8	-0.0021252017
206	0xbb0b3dba	-0.0021246509
207	0xbb0c4abb	-0.0021406848
208	0xbb0ae5d9	-0.0021194129
209	0xbb0b595b	-0.0021262977
210	0xbb0bef26	-0.002135226
211	0xbb0a7e1e	-0.00211323
212	0xbb0c1622	-0.0021375497
213	0xbb0c3b1f	-0.0021397544
214	0xbb0abbce	-0.002116907
215	0xbb0b1585	-0.0021222543
216	0xbb0b9bb7	-0.002130253
217	0xbb0a7a44	-0.0021130005
218	0xbb0a7e38	-0.002113236
219	0xbb0c1cfb	-0.0021379578
220	0xbb0a60ea	-0.0021114894
221	0xbb0a86e2	-0.0021137525
222	0xbb0aad4b	-0.002116042
223	0xbb0b64fd	-0.002126991
224	0xbb0aac45	-0.002115981
225	0xbb0a782e	-0.0021128762
226	0xbb0aec2c	-0.0021197898
227	0xbb0aba08	-0.0021168012
228	0xbb0c70d2	-0.002142955
229	0xbb0c225d	-0.0021382787
230	0xbb0c00e3	-0.0021362833
231	0xbb0a68d3	-0.002111961
232	0xbb0b410d	-0.002124849
233	0xbb0c9860	-0.0021453127
234	0xbb0acd34	-0.002117944
235	0xbb0c1602	-0.0021375422
236	0xbb0ace4e	-0.0021180096
237	0xbb0a7f29	-0.0021132922
238	0xbb0b8073	-0.0021286278
239	0xbb0af525	-0.0021203246
240	0xbb0b5d6d	-0.0021265403
241	0xbb0b0036	-0.0021209843
242	0xbb0b8791	-0.002129052
243	0xbb0c4b3d	-0.002140715
244	0xbb0bfdbf	-0.0021360961
245	0xbb0a857c	-0.0021136692
246	0xbb0a4ecd	-0.0021104098
247	0xbb0bbf27	-0.0021323652
248	0xbb0a22f9	-0.0021077974
249	0xbb0b9f28	-0.0021304581
250	0xbb0abc3e	-0.002116933
251	0xbb0b80fb	-0.0021286595
252	0xbb0acdac	-0.002117972
253	0xbb0a9cd0	-0.0021150596
254	0xbb0be303	-0.0021345026
255	0xbb0b0ba1	-0.0021216648
