VerNova/checkpoints/ntm_val_0.1434_epoch_143.pt (torch, 863092 bytes, 11 tensors)

read_vectors f4 [1, 32]
-0.46837676 -0.67439467 -0.059114397 -1.014162 -0.12437845 -0.20824675 -0.3156621 0.20698026
1.226652 0.27992603 0.69305134 -1.9698902 -1.1653281 -0.85909337 -0.5336427 0.504475
-0.42061827 0.7964731 -0.8823562 0.51860684 -0.6344333 0.6049796 -0.8834397 1.1623532
-0.49540612 -0.45100018 -0.8001555 -1.2078862 0.61829 -1.4630562 0.0989145 0.42993698
00000000: 14cf efbe 21a5 2cbf f021 72bd 0fd0 81bf
00000010: 21ba febd a33e 55be 769e a1be a2f2 533e
00000020: ef02 9d3f 7752 8f3e d06b 313f 5d25 fcbf
00000030: 7929 95bf 8bed 5bbf cf9c 08bf 4625 013f
00000040: 475b d7be a9e5 4b3f 19e2 61bf 6bc3 043f
00000050: 396a 22bf f1df 1a3f 1b29 62bf fdc7 943f
00000060: dfa5 fdbe 7fe9 e6be fed6 4cbf 049c 9abf
00000070: 4148 1e3f 6d45 bbbf af93 ca3d b320 dc3e

memory.memory f4 [64, 32]
-0.46837676 -0.67439467 -0.059114397 -1.014162 -0.12437845 -0.20824675 -0.3156621 0.20698026
1.226652 0.27992603 0.69305134 -1.9698902 -1.1653281 -0.85909337 -0.5336427 0.504475
-0.42061827 0.7964731 -0.8823562 0.51860684 -0.6344333 0.6049796 -0.8834397 1.1623532
-0.49540612 -0.45100018 -0.8001555 -1.2078862 0.61829 -1.4630562 0.0989145 0.42993698
-0.46837676 -0.67439467 -0.059114397 -1.014162 -0.12437845 -0.20824675 -0.3156621 0.20698026
1.226652 0.27992603 0.69305134 -1.9698902 -1.1653281 -0.85909337 -0.5336427 0.504475
-0.42061827 0.7964731 -0.8823562 0.51860684 -0.6344333 0.6049796 -0.8834397 1.1623532
-0.49540612 -0.45100018 -0.8001555 -1.2078862 0.61829 -1.4630562 0.0989145 0.42993698
-0.46837676 -0.67439467 -0.059114397 -1.014162 -0.12437845 -0.20824675 -0.3156621 0.20698026
1.226652 0.27992603 0.69305134 -1.9698902 -1.1653281 -0.85909337 -0.5336427 0.504475
-0.42061827 0.7964731 -0.8823562 0.51860684 -0.6344333 0.6049796 -0.8834397 1.1623532
-0.49540612 -0.45100018 -0.8001555 -1.2078862 0.61829 -1.4630562 0.0989145 0.42993698
-0.46837676 -0.67439467 -0.059114397 -1.014162 -0.12437845 -0.20824675 -0.3156621 0.20698026
1.226652 0.27992603 0.69305134 -1.9698902 -1.1653281 -0.85909337 -0.5336427 0.504475
-0.42061827 0.7964731 -0.8823562 0.51860684 -0.6344333 0.6049796 -0.8834397 1.1623532
-0.49540612 -0.45100018 -0.8001555 -1.2078862 0.61829 -1.4630562 0.0989145 0.42993698
-0.46837676 -0.67439467 -0.059114397 -1.014162 -0.12437845 -0.20824675 -0.3156621 0.20698026
1.226652 0.27992603 0.69305134 -1.9698902 -1.1653281 -0.85909337 -0.5336427 0.504475
-0.42061827 0.7964731 -0.8823562 0.51860684 -0.6344333 0.6049796 -0.8834397 1.1623532
-0.49540612 -0.45100018 -0.8001555 -1.2078862 0.61829 -1.4630562 0.0989145 0.42993698
-0.46837676 -0.67439467 -0.059114397 -1.014162 -0.12437845 -0.20824675 -0.3156621 0.20698026
1.226652 0.27992603 0.69305134 -1.9698902 -1.1653281 -0.85909337 -0.5336427 0.504475
-0.42061827 0.7964731 -0.8823562 0.51860684 -0.6344333 0.6049796 -0.8834397 1.1623532
-0.49540612 -0.45100018 -0.8001555 -1.2078862 0.61829 -1.4630562 0.0989145 0.42993698
-0.46837676 -0.67439467 -0.059114397 -1.014162 -0.12437845 -0.20824675 -0.3156621 0.20698026
1.226652 0.27992603 0.69305134 -1.9698902 -1.1653281 -0.85909337 -0.5336427 0.504475
-0.42061827 0.7964731 -0.8823562 0.51860684 -0.6344333 0.6049796 -0.8834397 1.1623532
-0.49540612 -0.45100018 -0.8001555 -1.2078862 0.61829 -1.4630562 0.0989145 0.42993698
-0.46837676 -0.67439467 -0.059114397 -1.014162 -0.12437845 -0.20824675 -0.3156621 0.20698026
1.226652 0.27992603 0.69305134 -1.9698902 -1.1653281 -0.85909337 -0.5336427 0.504475
-0.42061827 0.7964731 -0.8823562 0.51860684 -0.6344333 0.6049796 -0.8834397 1.1623532
-0.49540612 -0.45100018 -0.8001555 -1.2078862 0.61829 -1.4630562 0.0989145 0.42993698
00000000: 14cf efbe 21a5 2cbf f021 72bd 0fd0 81bf
00000010: 21ba febd a33e 55be 769e a1be a2f2 533e
00000020: ef02 9d3f 7752 8f3e d06b 313f 5d25 fcbf
00000030: 7929 95bf 8bed 5bbf cf9c 08bf 4625 013f
00000040: 475b d7be a9e5 4b3f 19e2 61bf 6bc3 043f
00000050: 396a 22bf f1df 1a3f 1b29 62bf fdc7 943f
00000060: dfa5 fdbe 7fe9 e6be fed6 4cbf 049c 9abf
00000070: 4148 1e3f 6d45 bbbf af93 ca3d b320 dc3e
00000080: 14cf efbe 21a5 2cbf f021 72bd 0fd0 81bf
00000090: 21ba febd a33e 55be 769e a1be a2f2 533e
000000a0: ef02 9d3f 7752 8f3e d06b 313f 5d25 fcbf
000000b0: 7929 95bf 8bed 5bbf cf9c 08bf 4625 013f
000000c0: 475b d7be a9e5 4b3f 19e2 61bf 6bc3 043f
000000d0: 396a 22bf f1df 1a3f 1b29 62bf fdc7 943f
000000e0: dfa5 fdbe 7fe9 e6be fed6 4cbf 049c 9abf
000000f0: 4148 1e3f 6d45 bbbf af93 ca3d b320 dc3e
00000100: 14cf efbe 21a5 2cbf f021 72bd 0fd0 81bf
00000110: 21ba febd a33e 55be 769e a1be a2f2 533e
00000120: ef02 9d3f 7752 8f3e d06b 313f 5d25 fcbf
00000130: 7929 95bf 8bed 5bbf cf9c 08bf 4625 013f
00000140: 475b d7be a9e5 4b3f 19e2 61bf 6bc3 043f
00000150: 396a 22bf f1df 1a3f 1b29 62bf fdc7 943f
00000160: dfa5 fdbe 7fe9 e6be fed6 4cbf 049c 9abf
00000170: 4148 1e3f 6d45 bbbf af93 ca3d b320 dc3e
00000180: 14cf efbe 21a5 2cbf f021 72bd 0fd0 81bf
00000190: 21ba febd a33e 55be 769e a1be a2f2 533e
000001a0: ef02 9d3f 7752 8f3e d06b 313f 5d25 fcbf
000001b0: 7929 95bf 8bed 5bbf cf9c 08bf 4625 013f
000001c0: 475b d7be a9e5 4b3f 19e2 61bf 6bc3 043f
000001d0: 396a 22bf f1df 1a3f 1b29 62bf fdc7 943f
000001e0: dfa5 fdbe 7fe9 e6be fed6 4cbf 049c 9abf
000001f0: 4148 1e3f 6d45 bbbf af93 ca3d b320 dc3e
00000200: 14cf efbe 21a5 2cbf f021 72bd 0fd0 81bf
00000210: 21ba febd a33e 55be 769e a1be a2f2 533e
00000220: ef02 9d3f 7752 8f3e d06b 313f 5d25 fcbf
00000230: 7929 95bf 8bed 5bbf cf9c 08bf 4625 013f
00000240: 475b d7be a9e5 4b3f 19e2 61bf 6bc3 043f
00000250: 396a 22bf f1df 1a3f 1b29 62bf fdc7 943f
00000260: dfa5 fdbe 7fe9 e6be fed6 4cbf 049c 9abf
00000270: 4148 1e3f 6d45 bbbf af93 ca3d b320 dc3e
00000280: 14cf efbe 21a5 2cbf f021 72bd 0fd0 81bf
00000290: 21ba febd a33e 55be 769e a1be a2f2 533e
000002a0: ef02 9d3f 7752 8f3e d06b 313f 5d25 fcbf
000002b0: 7929 95bf 8bed 5bbf cf9c 08bf 4625 013f
000002c0: 475b d7be a9e5 4b3f 19e2 61bf 6bc3 043f
000002d0: 396a 22bf f1df 1a3f 1b29 62bf fdc7 943f
000002e0: dfa5 fdbe 7fe9 e6be fed6 4cbf 049c 9abf
000002f0: 4148 1e3f 6d45 bbbf af93 ca3d b320 dc3e
00000300: 14cf efbe 21a5 2cbf f021 72bd 0fd0 81bf
00000310: 21ba febd a33e 55be 769e a1be a2f2 533e
00000320: ef02 9d3f 7752 8f3e d06b 313f 5d25 fcbf
00000330: 7929 95bf 8bed 5bbf cf9c 08bf 4625 013f
00000340: 475b d7be a9e5 4b3f 19e2 61bf 6bc3 043f
00000350: 396a 22bf f1df 1a3f 1b29 62bf fdc7 943f
00000360: dfa5 fdbe 7fe9 e6be fed6 4cbf 049c 9abf
00000370: 4148 1e3f 6d45 bbbf af93 ca3d b320 dc3e
00000380: 14cf efbe 21a5 2cbf f021 72bd 0fd0 81bf
00000390: 21ba febd a33e 55be 769e a1be a2f2 533e
000003a0: ef02 9d3f 7752 8f3e d06b 313f 5d25 fcbf
000003b0: 7929 95bf 8bed 5bbf cf9c 08bf 4625 013f
000003c0: 475b d7be a9e5 4b3f 19e2 61bf 6bc3 043f
000003d0: 396a 22bf f1df 1a3f 1b29 62bf fdc7 943f
000003e0: dfa5 fdbe 7fe9 e6be fed6 4cbf 049c 9abf
000003f0: 4148 1e3f 6d45 bbbf af93 ca3d b320 dc3e

controller.lstm.weight_ih f4 [400, 64]
0.010451934 0.052936632 -0.07124296 0.024550583 0.06523925 0.07602401 0.10756315 -0.052538343
0.08471608 -0.023304118 -0.0020991124 -0.006115856 0.0016434283 -0.001704839 -0.003903987 -0.06410034
0.038001027 0.050203335 0.008864034 -0.03704758 0.00664052 0.050379753 0.023728551 -0.04513769
0.03569976 -0.03035128 -0.05355086 -0.055010308 -0.067494996 -0.07780737 -0.06804461 0.009382825
0.00045730974 -0.013231422 -0.004383298 0.0038251462 -0.010264318 0.0027390104 0.015329482 -0.0063393973
-0.0012149314 0.008050015 0.002575629 -0.013671143 -0.012331368 0.013895844 -0.0040535857 0.007886913
0.018355371 -0.0017255971 0.0016422779 -0.004228759 -0.010985807 -0.0022333476 -0.011623224 -0.0015246263
-0.008124972 -0.0046456973 -0.009939513 0.003645997 0.0061528943 -0.019689584 0.0028910195 0.008195492
0.060087062 0.028555663 -0.12888895 -0.022205288 0.09100436 0.14898066 0.20627703 -0.084719144
0.101587094 0.016786184 0.0015952719 -0.08347649 0.03575398 -0.065051325 0.030357337 -0.091121964
0.013398784 0.036691673 0.034386575 -0.023586258 -0.009655505 0.060906984 -0.063539386 -0.06433143
0.07801017 -0.005490571 -0.16053626 -0.079820216 -0.10651513 -0.11020453 -0.1169834 0.052631658
-0.1466367 -0.13712926 0.03147937 0.035257287 -0.119884305 0.021043576 0.16556257 -0.0066343527
0.0035970064 0.05770262 0.043578196 -0.112058036 -0.17138606 0.08706883 -0.025419962 0.083923735
0.0565662 0.028010096 -0.055154208 0.03340346 0.039882146 0.061798614 0.041657887 -0.09530749
-0.07919718 -0.107412234 -0.05148831 0.036451634 0.13969675 -0.017025338 -0.052896332 0.090092
0.13685101 0.06894401 -0.09981923 -0.05381024 0.10119418 0.12618977 0.17092639 0.06776885
0.08504892 0.10182589 -0.24171486 -0.07260266 -0.00050883176 -0.21823424 0.099316314 -0.12455415
0.012761974 0.07594258 -0.07649488 -0.013841508 0.039548602 -0.076096356 -0.11656957 0.09381768
-0.19142826 0.013915237 -0.053907845 -0.060789477 -0.028115874 -0.107135236 0.043633327 -0.107058525
0.14741859 0.03696533 -0.120991126 -0.10792608 0.11566595 -0.051330406 -0.16984546 0.053263407
-0.05881219 -0.041301496 -0.0039000344 0.033172164 0.02208241 -0.1634616 0.09647734 0.0033506958
-0.05781328 0.19479388 -0.031933613 -0.13980827 -0.030357221 0.045223087 0.06760621 0.10183391
-0.07370421 0.097765505 -0.054432757 0.04288486 -0.08413618 0.011139409 -0.01940283 0.017669179
0.09224439 -0.046590578 -0.09863062 -0.103396595 -0.009662445 0.13103011 0.20223977 0.025737992
-0.02614844 0.0953458 0.009068902 -0.15294649 0.065219335 -0.15900923 0.06918995 -0.03680289
-0.051514532 -0.032430943 0.036328 0.13472627 -0.030402761 -0.09046854 -0.1605039 0.076629475
0.03785585 0.13737014 -0.17766184 -0.038091652 0.06416741 -0.030960651 -0.059718873 -0.21898346
-0.026668167 -0.06833574 -0.009635227 0.016961075 -0.054189708 0.0007946014 0.07595331 -0.02937003
0.0065125646 0.041465007 0.015469891 -0.053806122 -0.053053163 0.04483467 -0.04640166 0.033782914
0.052865274 -0.0155440075 0.01331221 0.033710822 -0.002085208 0.038629353 -0.037947215 -0.025911381
0.0007391343 0.0032039825 -0.015674217 0.010867743 0.050359406 -0.05766065 -0.0032716962 0.032409646
00000000: 973e 2b3c 15d4 583d d4e7 91bd 4e1e c93c
00000010: 289c 853d 7ab2 9b3d 124a dc3d 7232 57bd
00000020: a07f ad3d 47e8 bebc 4391 09bb 8567 c8bb
00000030: 4e68 d73a e774 dfba 08da 7fbb 0a47 83bd
00000040: f7a6 1b3d 03a2 4d3d 743a 113c 34bf 17bd
00000050: b898 d93b 005b 4e3d 6162 c23c 4ce2 38bd
00000060: e939 123d 3fa3 f8bc 2658 5bbd 7d52 61bd
00000070: d13a 8abd 7859 9fbd f95a 8bbd 6cba 193c
00000080: 13c3 ef39 9bc8 58bc c5a1 8fbb 4eaf 7a3b
00000090: ac2b 28bc f880 333b 8228 7b3c b8ba cfbb
000000a0: 553e 9fba 36e4 033c e2cb 283b eefc 5fbc
000000b0: 8209 4abc 65ab 633c f1d3 84bb 1c38 013c
000000c0: 015e 963c 6e2d e2ba b441 d73a 6791 8abb
000000d0: d0fd 33bc 5b5d 12bb 566f 3ebc f8d5 c7ba
000000e0: 9a1e 05bc ef3a 98bb 57d9 22bc aef1 6e3b
000000f0: 389e c93b 0d4c a1bc 4277 3d3b 6346 063c
00000100: da1d 763d 91ed e93c 77fb 03be dde7 b5bc
00000110: 7e60 ba3d 638e 183e 493a 533e 3b81 adbd
00000120: e50c d03d 2e83 893c 7118 d13a b9f5 aabd
00000130: c472 123d a139 85bd f3af f83c 279e babd
00000140: 9386 5b3c 024a 163d f0d8 0c3d f837 c1bc
00000150: 2032 1ebc 9a79 793d f020 82bd 32c0 83bd
00000160: ccc3 9f3d 3fea b3bb 9e63 24be c878 a3bd
00000170: 9b24 dabd eab2 e1bd fe94 efbd 4b94 573d
00000180: ee27 16be 9d6b 0cbe 83f0 003d f269 103d
00000190: e785 f5bd 9463 ac3c 3c89 293e fc64 d9bb
000001a0: c1bb 6b3b 9559 6c3d 0d7f 323d af7e e5bd
000001b0: d47f 2fbe 2551 b23d 863d d0bc 35e0 ab3d
000001c0: f6b1 673d 6e75 e53c 61e9 61bd 11d2 083d
000001d0: 765b 233d 8b20 7d3d 76a1 2a3d 9330 c3bd
000001e0: 2232 a2bd f2fa dbbd 68e5 52bd 4f4e 153d
000001f0: aa0c 0f3e b978 8bbc d3a9 58bd 2882 b83d
00000200: ac22 0c3e 8432 8d3d 066e ccbd 2068 5cbd
00000210: e53e cf3d e437 013e 5407 2f3e 65ca 8a3d
00000220: 212e ae3d 188a d03d 1a84 77be b4b0 94bd
00000230: 1f63 05ba cc78 5fbe 5a66 cb3d 3f16 ffbd
00000240: 9917 513c c987 9b3d 59a9 9cbd 7ec7 62bc
00000250: b7fd 213d 68d8 9bbd 07bc eebd 7c23 c03d
00000260: c505 44be bcfc 633c 79ce 5cbd 63fe 78bd
00000270: 4353 e6bc b869 dbbd dcb8 323d 8041 dbbd
00000280: e6f4 163e f568 173d 32ca f7bd 5908 ddbd
00000290: 45e2 ec3d d53f 52bd f8eb 2dbe bb2a 5a3d
000002a0: 0de5 70bd c22b 29bd b897 7fbb 89df 073d
000002b0: 2ce6 b43c 7a62 27be e995 c53d 5997 5b3b
000002c0: 9ecd 6cbd 0c78 473e d2cc 02bd e629 0fbe
000002d0: b5af f8bc d83b 393d 2075 8a3d 4c8e d03d
000002e0: 3cf2 96bd 4839 c83d e2f4 5ebd 09a8 2f3d
000002f0: 974f acbd 1182 363c aff2 9ebc f4be 903c
00000300: a0ea bc3d c3d5 3ebd dafe c9bd 98c1 d3bd
00000310: 3b4f 1ebc c22c 063e f117 4f3e 7bd8 d23c
00000320: 4135 d6bc a944 c33d bb95 143c 019e 1cbe
00000330: b791 853d 51d3 22be 76b3 8d3d a1be 16bd
00000340: e700 53bd 4fd6 04bd abcc 143d aff5 093e
00000350: 360f f9bc 9247 b9bd 225b 24be eaef 9c3d
00000360: bc0e 1b3d c2aa 0c3e fcec 35be fe05 1cbd
00000370: 346a 833d 31a1 fdbc c79b 74bd 333d 60be
00000380: 3377 dabc 9cf3 8bbd 12dd 1dbc f4f1 8a3c
00000390: 07f6 5dbd cc4c 503a 698d 9b3d 6b99 f0bc
000003a0: 5a67 d53b 36d7 293d 6d75 7d3c cf63 5cbd
000003b0: 464e 59bd 8fa4 373d ab0f 3ebd f45f 0a3d
000003c0: 4289 583d 4bac 7ebc 751b 5a3c 5c14 0a3d
000003d0: fca7 08bb d039 1e3d 8a6e 1bbd 1b44 d4bc
000003e0: 77c2 413a e8f9 513b 3767 80bc 9e0e 323c
000003f0: aa45 4e3d 932d 6cbd f469 56bb fabf 043d

controller.lstm.weight_hh f4 [400, 100]
0.022205777 0.002435923 -0.020316452 0.0028791095 0.027420096 -0.008390841 -0.0034672131 -0.022687042
-0.006471139 0.0112856915 -0.0014213114 -0.00026849532 -0.012555109 -0.007919691 0.022634352 0.019346248
-0.0010656115 -0.01956076 -0.00827866 -0.00814461 0.010873619 -0.016813444 -0.00028295803 0.026198972
0.022569446 0.011154324 -0.008857904 -0.009762403 -0.015367158 0.013764228 -0.011100493 0.0105793355
0.00072183233 -0.0007405356 -0.00077474565 0.007344119 0.015558262 -0.0067524454 -0.004950047 -0.011639965
0.0022220192 0.021236544 -0.01662275 -0.0034765066 0.027832631 -0.015339745 -0.016101597 -0.007040395
-0.0027107687 0.0039799553 0.021181323 -0.01220378 0.023511088 -0.01148287 0.009763033 -0.016853372
-0.02398981 0.0030307136 0.008223431 0.014908221 0.024670132 -0.0034094183 -0.006189512 -0.021442262
0.011656303 -0.00199182 0.014310798 0.01861163 0.00024501863 -0.017202456 0.011555031 0.008568375
-0.023978466 0.02729213 0.00078766566 0.020116627 -0.026800577 0.0043096407 0.01973296 -0.007987889
-0.01550992 0.002950938 -0.00641919 -0.006784531 0.0032094251 0.025951585 -0.0032908753 -0.010788309
-0.0018178127 0.0062445663 0.022843478 0.012169791 0.0043145004 0.02023716 -0.0120300995 -0.018178852
0.000856017 -0.018662127 0.0048638578 -0.0016779978 0.095763564 0.042521786 -0.09537855 0.021019071
-0.022653112 0.007556992 -0.14198802 -0.055105705 -0.07852125 0.09171885 -0.014809684 -0.061604965
-0.14507477 -0.056670364 0.19287623 0.08091516 0.054148786 -0.053445958 -0.1415837 -0.000717481
0.09075989 -0.06736203 -0.117273465 -0.024182111 0.060591366 -0.07421738 0.106026776 -0.110397965
-0.06263596 0.09524624 0.023103334 0.11214215 0.047003888 0.08450166 0.10538762 0.07056095
0.059598524 0.046764415 -0.0133154625 -0.05634454 -0.053692594 0.007282669 -0.09180361 -0.062525846
-0.027304867 -0.057317268 -0.039636258 0.123517014 0.17520173 0.013961802 0.1374283 0.032336857
-0.06261647 0.113361016 0.08361706 -0.055394556 -0.054714113 0.050365344 0.21168697 0.018727502
0.025732696 0.0005828244 -0.06273684 -0.050684415 -0.09017756 0.062007673 0.03853847 0.24057457
-0.20970042 -0.08075528 0.037444815 0.012688765 -0.062247157 0.10976788 -0.025690388 0.57865787
0.03260727 -0.012296599 0.09858894 -0.14082955 -0.048660673 -0.023667645 0.03252357 0.07067204
0.007796252 0.018751258 -0.101500995 -0.08384614 -0.031143812 0.15463875 0.05950705 0.034899786
0.19170696 0.08568344 -0.047714002 -0.070211455 -0.01803042 -0.100093596 -0.12248964 -0.16776252
0.25278053 -0.49145427 -0.2596319 -0.0026074057 -0.26226813 -0.18914597 0.03363408 -0.022424191
-0.1536456 0.03321189 -0.020786438 -0.10364862 0.11645375 0.056477465 0.0031784158 0.08662955
0.008962022 0.050893266 -0.06338715 -0.34110644 -0.10776329 0.27667966 -0.08879805 -0.19359948
-0.089952424 0.21617703 0.08059437 -0.025751896 0.18846129 -0.1452154 -0.21465644 0.029607356
0.011044769 0.038055185 0.11858978 -0.08669727 0.19937462 -0.13993785 0.06078797 0.26566392
-0.021549435 0.10179267 0.23063827 0.0051133744 -0.23090838 -0.19094339 0.009512089 -0.1700509
0.14544475 0.007922708 0.058324035 -0.04447006 -0.0077155996 -0.000960326 0.0366809 0.09378462
00000000: e4e8 b53c 02a4 1f3b b06e a6bc 71af 3c3b
00000010: 1ca0 e03c bd79 09bc 2f3a 63bb 2dda b9bc
00000020: d90b d4bb 9fe7 383c 4c4b baba d5c4 8cb9
00000030: f2b3 4dbc 97c1 01bc ad6b b93c 067c 9e3c
00000040: fdab 8bba e33d a0bc 37a3 07bc f870 05bc
00000050: 4327 323c 59bc 89bc fc59 94b9 3a9f d63c
00000060: 8fe3 b83c a0c0 363c be20 11bc 7cf2 1fbc
00000070: 88c6 7bbc 5b83 613c d8de 35bc f354 2d3c
00000080: 5939 3d3a 8120 42ba 4d18 4bba efa6 f03b
00000090: 15e8 7e3c 9e43 ddbb 0134 a2bb 8db5 3ebc
000000a0: 4c9f 113b 43f8 ad3c 6f2c 88bc 1ad6 63bb
000000b0: 4201 e43c 8e53 7bbc 7fe7 83bc 1db3 e6bb
000000c0: 27a7 31bb 496a 823b 7484 ad3c 5df2 47bc
000000d0: 539a c03c a622 3cbc 21f5 1f3c 1510 8abc
000000e0: 4786 c4bc f09e 463b 92bb 063c 9c41 743c
000000f0: 0419 ca3c 8c70 5fbb 64d1 cabb afa7 afbc
00000100: 14fa 3e3c 3289 02bb d677 6a3c 6b77 983c
00000110: d875 8039 2aec 8cbc 5051 3d3c 5f62 0c3c
00000120: 7d6e c4bc bf93 df3c 597b 4e3a a0cb a43c
00000130: e28c dbbc e337 8d3b 04a7 a13c a3df 02bc
00000140: 521d 7ebc 8664 413b 1258 d2bb c550 debb
00000150: 3855 523b 6b98 d43c baab 57bb 73c1 30bc
00000160: ac43 eeba 389f cc3b 3f22 bb3c ce63 473c
00000170: a760 8d3b 67c8 a53c e519 45bc d1eb 94bc
00000180: 5466 603a 51e1 98bc ff60 9f3b 43f0 dbba
00000190: b01f c43d 532b 2e3d d455 c3bd 3030 ac3c
000001a0: 0593 b9bc a5a0 f73b 4f65 11be 85b6 61bd
000001b0: c0cf a0bd 18d7 bb3d 51a4 72bc 7d55 7cbd
000001c0: 7b8e 14be 2f1f 68bd 5981 453e d9b6 a53d
000001d0: 1ecb 5d3d 26ea 5abd 51fb 10be 5615 3cba
000001e0: 52e0 b93d 1bf5 89bd 122d f0bd 9019 c6bc
000001f0: a72e 783d 48ff 97bd 9124 d93d 5418 e2bd
00000200: 4847 80bd 7610 c33d 3443 bd3c c9aa e53d
00000210: 2687 403d 350f ad3d 77d5 d73d 4282 903d
00000220: 951d 743d 0b8c 3f3d 1929 5abc 88c9 66bd
00000230: c4ec 5bbd 75a3 ee3b 8803 bcbd 8d0d 80bd
00000240: 75ae dfbc 83c5 6abd a159 22bd 7df6 fc3d
00000250: 1568 333e 0bc0 643c 01ba 0c3e a773 043d
00000260: 103d 80bd d229 e83d 6c3f ab3d 67e5 62bd
00000270: e81b 60bd e44b 4e3d 78c4 583e 6b6a 993c
00000280: 60cd d23c afc8 183a 2c7c 80bd 769a 4fbd
00000290: 03af b8bd c2fb 7d3d 84da 1d3d 2e59 763e
000002a0: b5bb 56be 0663 a5bd bc5f 193d 8ae4 4f3c
000002b0: e0f6 7ebd fbcd e03d a674 d2bc ec22 143f
000002c0: 338f 053d ad77 49bc 00e9 c93d 9f35 10be
000002d0: 6a50 47bd a6e2 c1bc 6f37 053d 81bc 903d
000002e0: b477 ff3b 3d9c 993c c1df cfbd 86b7 abbd
000002f0: 4f21 ffbc 9f59 1e3e aabd 733d 14f3 0e3d
00000300: d44e 443e cd7a af3d c26f 43bd 06cb 8fbd
00000310: 88b4 93bc dffd ccbd d9db fabd f0c9 2bbe
00000320: 736c 813e e59f fbbe 79ee 84be 02e1 2abb
00000330: 0248 86be 7baf 41be e4c3 093d f0b2 b7bc
00000340: 4655 1dbe 3109 083d 5248 aabc ba45 d4bd
00000350: 4e7f ee3d ea54 673d f84c 503b d56a b13d
00000360: 72d5 123c 7575 503d 1fd1 81bd 81a5 aebe
00000370: 00b3 dcbd f5a8 8d3e c1db b5bd f13e 46be
00000380: fa38 b8bd 835d 5d3e a90e a53d a4f5 d2bc
00000390: fffb 403e 59b3 14be e6ce 5bbe 208b f23c
000003a0: 1ef5 343c c1df 1b3d 33df f23d 578e b1bd
000003b0: dc28 4c3e de4b 0fbe cefc 783d 1a05 883e
000003c0: 7188 b0bc ad78 d03d 702c 6c3e 188e a73b
000003d0: 3f73 6cbe aa86 43be 98d8 1b3c d321 2ebe
000003e0: 78ef 143e 3fce 013c 2fe5 6e3d 3d26 36bd
000003f0: 24d3 fcbb 63be 7bba b63e 163d 2712 c03d

controller.lstm.bias_ih f4 [400]
0.0812993 0.14007655 0.07307475 0.09115696 0.120956205 0.1187616 0.018252647 0.075303234
0.03808429 0.11655384 -0.09467262 0.0120561225 0.020598516 0.10088397 0.12864758 0.03866608
0.13380924 0.07981065 0.1363866 0.03423161 -0.12789534 0.076660335 0.038674287 0.13610967
0.18943658 0.06782592 0.13168666 -0.026721058 0.020436093 0.14822337 0.08303093 0.039928496
0.071824014 0.024769552 -0.025353959 0.15358308 0.06844903 0.0687638 -0.049536 0.09020464
0.081441484 0.09266772 0.05431902 0.10386237 0.11796829 0.04670925 0.18889941 0.017661372
0.07031934 -0.027971577 0.07070829 0.20018274 0.046598613 0.07932934 0.06757501 0.07779319
0.052316245 0.03997553 -0.015742471 0.087253675 0.10197331 -0.1639885 -0.022961779 0.07755929
0.10533884 0.0051408918 0.18565494 0.061107103 0.11195385 -0.0248207 0.068508774 0.056788903
0.07351236 0.12493221 0.051058844 0.07740021 0.11809323 -0.09378975 0.10589143 0.111129135
0.06943078 -0.012075847 0.032300524 0.11490924 0.08836506 0.1091915 -0.08062157 0.23075056
-0.034974486 0.14228761 0.020210598 0.0034812964 0.017467285 0.045792714 0.058890074 0.08260181
-0.03631631 0.0801798 0.14045085 0.10942418 0.069146894 -0.08133226 0.043723322 0.083195835
0.07901268 0.060599547 0.0619045 0.06560886 0.08355103 -0.009323525 0.05439335 0.060050912
0.06912817 0.03563342 0.05234248 -0.002755795 0.052458238 0.10605552 0.0034445242 0.055408407
0.0830646 0.07663434 0.108287014 0.086066484 0.14623724 0.07911463 -0.0338598 0.019716559
0.08817693 0.08232128 0.090700485 0.06690109 0.04456354 0.07381616 -0.02417808 0.16453938
0.06406657 0.11682823 0.001606418 0.047164384 0.03624267 0.12407411 0.047680553 0.0721031
0.07228903 0.024907228 0.048937675 -0.021278474 0.03369712 0.04981631 0.031209532 0.15548438
0.00059016433 -0.005328181 -0.023892734 0.07374167 0.09019856 0.057196382 0.037434097 0.02825796
0.06894045 0.14400439 0.08340427 0.035621144 -0.030207245 0.085775286 0.20276023 0.044335607
0.0034234058 0.093111 0.09784621 0.026811162 0.03948949 0.07647247 0.046099488 0.12652545
0.08016867 0.09634115 0.041785557 0.022217909 0.081268944 0.111734256 0.09133006 0.10671465
0.044244695 0.045462605 0.033507265 -0.12134778 0.11406071 0.074392565 0.017363532 0.16789167
0.0796293 0.057893503 0.04456173 0.07409558 0.08783369 0.07247324 0.041152343 0.09279306
0.09584893 -0.0011016984 -0.12460757 -0.08491634 0.12937407 -0.07916708 0.03698019 -0.10491889
0.0046048774 0.045295097 -0.046976566 -0.025790589 -0.03510027 -0.030282438 0.10820244 0.060807947
-0.07027451 -0.14377123 -0.035077676 -0.008155862 -0.0044363784 -0.08358486 0.031063665 0.13772681
0.122630835 0.051579986 -0.085559785 -0.019444006 -0.10001502 -0.0158438 -0.10523564 0.052727807
0.030646373 0.093168944 -0.06104401 -0.078516416 0.08921046 -0.052424587 0.034978893 0.007525848
-0.0362784 0.021588098 -0.13701022 0.05539692 0.12640865 -0.086711146 -0.14729789 -0.08234014
-0.008603357 -0.06381275 0.074820295 -0.17411336 0.12276615 -0.13642274 0.09185713 -0.091667324
00000000: 3f80 a63d 3a70 0f3e 37a8 953d 80b0 ba3d
00000010: e3b7 f73d 4839 f33d 9386 953c 9538 9a3d
00000020: 46fe 1b3d c8b3 ee3d b8e3 c1bd 0b87 453c
00000030: 38be a83c 419c ce3d 31bc 033e 5360 1e3d
00000040: 4a05 093e c473 a33d eea8 0b3e 7236 0c3d
00000050: fff6 02be 1800 9d3d ee68 1e3d 5560 0b3e
00000060: aafb 413e 51e8 8a3d ded8 063e 1fe6 dabc
00000070: 9869 a73c dec7 173e 1f0c aa3d 108c 233d
00000080: 7818 933d 84e9 ca3c 1bb3 cfbc e244 1d3e
00000090: 012f 8c3d 09d4 8c3d 43e6 4abd 36bd b83d
000000a0: cbca a63d 93c8 bd3d 9f7d 5e3d cbb5 d43d
000000b0: 5c99 f13d 3352 3f3d d96e 413e 95ae 903c
000000c0: 9603 903d a624 e5bc 82cf 903d b4fc 4c3e
000000d0: 30de 3e3d 6c77 a23d c464 8a3d 0952 9f3d
000000e0: 8f49 563d 62bd 233d 5bf6 80bc 0eb2 b23d
000000f0: 62d7 d03d 9aec 27be 571a bcbc 68d7 9e3d
00000100: e4bb d73d ed74 a83b 541c 3e3e 714b 7a3d
00000110: 0f48 e53d c854 cbbc 544e 8c3d 7b9b 683d
00000120: a68d 963d 75dc ff3d 1423 513d 0084 9e3d
00000130: ddda f13d d714 c0bd 9bdd d83d ac97 e33d
00000140: ba31 8e3d c6d9 45bc 8e4d 043d 8955 eb3d
00000150: bef8 b43d cb9f df3d ec1c a5bd e049 6c3e
00000160: 6841 0fbd d8b3 113e b290 a53c 7626 643b
00000170: 8d17 8f3c 2491 3b3d b836 713d 232b a93d
00000180: 69c0 14bd 4f35 a43d 59d2 0f3e c919 e03d
00000190: e39c 8d3d 8791 a6bd 3a17 333d 9462 aa3d
000001a0: 66d1 a13d 3b37 783d 938f 7d3d f05d 863d
000001b0: cd1c ab3d b3c1 18bc 90cb 5e3d f2f7 753d
000001c0: 1293 8d3d 59f4 113d 1165 563d 919a 34bb
000001d0: 73de 563d a333 d93d 87bd 613b edf3 623d
000001e0: c61d aa3d 77f2 9c3d 95c5 dd3d a043 b03d
000001f0: 37bf 153e da06 a23d 93b0 0abd 9f84 a13c
00000200: 1b96 b43d 0f98 a83d 2dc1 b93d 7003 893d
00000210: 4288 363d ed2c 973d 1c11 c6bc 037d 283e
00000220: 5535 833d a443 ef3d 728e d23a 712f 413d
00000230: 3273 143d 911a fe3d af4c 433d caaa 933d
00000240: 450c 943d 3e0a cc3c df72 483d 3250 aebc
00000250: fe05 0a3d 300c 4c3d 22ab ff3c 4c37 1f3e
00000260: 42b5 1a3a 0698 aebb b2ba c3bc df05 973d
00000270: 06ba b83d c146 6a3d 7f54 193d 3d7d e73c
00000280: a730 8d3d e375 133e dccf aa3d 7ae7 113d
00000290: 2f75 f7bc f4aa af3d 61a0 4f3e 4199 353d
000002a0: 385b 603b fbb0 be3d 9863 c83d 15a3 db3c
000002b0: bbbf 213d 999d 9c3d d1d2 3c3d e38f 013e
000002c0: 792f a43d 824e c53d 5527 2b3d 5502 b63c
000002d0: 5570 a63d eed4 e43d 410b bb3d 368d da3d
000002e0: ed39 353d ff36 3a3d ea3e 093d 2f85 f8bd
000002f0: a998 e93d 215b 983d f73d 8e3c cbeb 2b3e
00000300: b014 a33d bd21 6d3d 5c86 363d 6cbf 973d
00000310: 26e2 b33d da6c 943d 5c8f 283d 4a0a be3d
00000320: 724c c43d dd66 90ba 4132 ffbd 9ee8 adbd
00000330: a37a 043e 5a22 a2bd 8a78 173d b7df d6bd
00000340: 83e4 963b 5a87 393d 806a 40bd c946 d3bc
00000350: 4dc5 0fbd e012 f8bc 3e99 dd3d c111 793d
00000360: 15ec 8fbd c438 13be 9cad 0fbd 2aa0 05bc
00000370: 0a5f 91bb 8a2e abbd 3a79 fe3c 4208 0d3e
00000380: e025 fb3d 8945 533d f839 afbd 0949 9fbc
00000390: add4 ccbd dbca 81bc c985 d7bd 1df9 573d
000003a0: 1a0e fb3c 5ccf be3d 4909 7abd 37cd a0bd
000003b0: f9b3 b63d 2abb 56bd 0746 0f3d 649b f63b
000003c0: a998 14bd 86d9 b03c 684c 0cbe e1e7 623d
000003d0: 4571 013e 9d95 b1bd 42d5 16be f3a1 a8bd
000003e0: 18f5 0cbc 42b0 82bd 623b 993d c64a 32be
000003f0: d26c fb3d 67b2 0bbe 971f bc3d 14bc bbbd

controller.lstm.bias_hh f4 [400]
0.077614255 0.14035788 0.03137154 0.08150886 0.12096033 0.118837334 0.028336434 0.07529444
0.03754747 0.116808295 -0.11489946 0.02806211 0.0045105754 0.10110864 0.12934218 0.024586586
0.13380763 0.08602601 0.136415 0.05145535 -0.10390497 0.07673817 0.038103577 0.13613307
0.13430326 0.068091035 0.14785708 0.007917422 0.017390838 0.1031824 0.06346199 0.040108543
0.07482038 0.033215366 -0.029075284 0.1828457 0.06846426 0.0815691 -0.031953257 0.08993484
0.08589691 0.09517969 0.04464462 0.10566842 0.11793301 0.04755168 0.16721784 0.023766931
0.07472087 0.0032674668 0.072670996 0.16008867 -0.0147182 0.08140268 0.08447546 0.078078225
0.066124685 0.029547112 0.015481765 0.13144243 0.10200676 -0.19658372 -0.05122668 0.07718689
0.14915444 0.004744322 0.22482924 0.060175214 0.11292161 0.0027436176 0.04394147 0.07408725
0.073676504 0.12491931 0.05226185 0.08450799 0.11806594 -0.10841214 0.106834255 0.11717761
0.07027412 -0.027590372 0.042127844 0.11710468 0.08834392 0.10914284 -0.04550865 0.23029834
0.00079853344 0.15073326 -0.0038895472 0.007200228 0.009148611 0.050767858 0.059065107 0.08269585
-0.058471132 0.07859944 0.14032808 0.08720807 0.06900243 0.008147383 0.032016687 0.09108269
0.07901267 0.061656054 0.06212684 0.06560871 0.08192789 0.022385875 0.022045176 0.05652033
0.0965945 0.08328101 0.0082946 0.0016301434 0.05263372 0.11822931 0.014190253 0.041833848
0.15706097 0.07663467 0.08249369 0.086066425 0.08883682 0.16222309 0.011750222 -0.0023626518
0.08954372 -0.017312054 0.054220054 0.06693542 0.044586364 0.07108116 -0.02890121 0.15895203
0.0639368 0.10025764 -0.06104659 0.06088873 0.036065884 0.1186556 0.06959235 0.07207298
0.07228938 0.02473575 0.03449708 0.032593623 0.03405486 0.0021595831 0.031693056 0.14908028
0.08233734 0.026804013 -0.06923114 0.064597435 0.06471945 0.058609936 0.054861195 0.028961595
0.06919495 0.075543486 0.12286139 0.03460482 -0.040665884 0.07262575 0.19688228 0.043149743
0.04445162 0.06701252 0.101359114 0.04282787 0.039483484 0.07647282 0.046470027 0.07473566
0.08016869 0.06486808 0.04143582 0.051348254 0.07796554 0.114260025 0.10287257 0.0741179
0.046650633 0.0459402 0.028850682 -0.04947234 0.07372739 0.06361419 0.11689715 0.16956015
-0.06907009 0.05766254 0.10003885 0.07409558 0.07233671 0.09330659 0.06427171 0.09653306
0.09411668 -0.011651817 -0.13467237 -0.015433523 0.12927347 -0.102300406 -0.004052772 -0.10451867
0.0064697904 0.054498967 -0.015514677 -0.024587298 0.017800903 -0.012249489 0.15441838 0.050468665
-0.06321096 -0.14602536 -0.08340757 -0.04661223 0.085866906 -0.08330733 -0.015702676 0.13770321
0.12826931 0.08608824 -0.01730262 0.039045207 -0.107219316 0.033812713 -0.04543701 0.052592333
-0.0008193856 0.008985756 0.05917772 0.011387635 0.053880755 0.015573962 0.05800258 0.011311382
0.018294806 0.113033175 -0.109812535 0.04119934 0.12746212 -0.08511089 -0.1132799 -0.07412977
0.0048705665 -0.039733954 0.07707398 -0.036524385 0.12275363 -0.004420341 0.09653319 -0.11390506
00000000: 39f4 9e3d fab9 0f3e 727f 003d 1eee a63d
00000010: 0dba f73d fd60 f33d cf21 e83c f933 9a3d
00000020: 60cb 193d 3039 ef3d 6850 ebbd 83e2 e53c
00000030: 73cd 933b 0c12 cf3d 4772 043e cf69 c93c
00000040: de04 093e 682e b03d 60b0 0b3e d8c2 523d
00000050: 21cc d4bd e728 9d3d 7f12 1c3d 7866 0b3e
00000060: cb86 093e 5073 8b3d d967 173e 13b8 013c
00000070: 3b77 8e3c 4b51 d33d 5cf8 813d db48 243d
00000080: 6d3b 993d d60c 083d 4a2f eebc e73b 3b3e
00000090: fd36 8c3d b30d a73d 6be1 02bd c22f b83d
000000a0: b8ea af3d 92ed c23d 47dd 363d af68 d83d
000000b0: dd86 f13d 8dc5 423d 273b 2b3e deb2 c23c
000000c0: 4107 993d ff22 563b 88d4 943d 49ee 233e
000000d0: 9b24 71bc 73b6 a63d 7801 ad3d 7ae7 9f3d
000000e0: 616c 873d c90c f23c 3ba7 7d3c d898 063e
000000f0: ece8 d03d 3e4d 49be 11d3 51bd 2914 9e3d
00000100: f1bb 183e 4276 9b3b a339 663e 497a 763d
00000110: 7243 e73d 44ce 333b f9fb 333d 0ebb 973d
00000120: b5e3 963d b2d5 ff3d 8610 563d 8612 ad3d
00000130: 8ecc f13d 2f07 debd ebcb da3d d1fa ef3d
00000140: e1eb 8f3d 3405 e2bc 3f8e 2c3d 94d4 ef3d
00000150: a8ed b43d 4886 df3d 4767 3abd 54d3 6b3e
00000160: ac54 513a d259 1a3e c6e7 7ebb e4ef eb3b
00000170: 0ee4 153c f5f1 4f3d 41ee 713d 715c a93d
00000180: 6d7f 6fbd bef8 a03d 2ab2 0f3e 259a b23d
00000190: 2551 8d3d 9a7c 053c ee23 033d 9089 ba3d
000001a0: 65d1 a13d 0f8b 7c3d b778 7e3d dc5d 863d
000001b0: cfc9 a73d 9562 b73c 1698 b43c dd81 673d
000001c0: 56d3 c53d 3c8f aa3d 13e6 073c 89aa d53a
000001d0: 7596 573d 3522 f23d 3c7e 683c f859 2b3d
000001e0: 97d4 203e a3f2 9c3d 74f2 a83d 9843 b03d
000001f0: 14f0 b53d cf1d 263e 0184 403c b8d6 1abb
00000200: b362 b73d 02d2 8dbc d915 5e3d 7015 893d
00000210: 31a0 363d 0093 913d 3bc2 ecbc 52c4 223e
00000220: 4cf1 823d e153 cd3d fd0b 7abd 7666 793d
00000230: d2b9 133d b501 f33d 6f86 8e3d 009b 933d
00000240: 740c 943d a1a2 ca3c cf4c 0d3d e480 053d
00000250: 1c7d 0b3d cb87 0d3b 94d0 013d 80a8 183e
00000260: 7ba0 a83d 1794 db3c 0ec9 8dbd a94b 843d
00000270: a28b 843d f910 703d 22b6 603d de40 ed3c
00000280: 15b6 8d3d 8bb6 9a3d c19e fb3d c9bd 0d3d
00000290: 4591 26bd cfbc 943d 829b 493e c9bd 303d
000002a0: e712 363d dc3d 893d 5e95 cf3d 476c 2f3d
000002b0: 6fb9 213d c89d 9c3d 5b57 3e3d 020f 993d
000002c0: 7b2f a43d 8ed9 843d 9bb8 293d 8c52 523d
000002d0: 66ac 9f3d 2901 ea3d dbae d23d 20cb 973d
000002e0: bc14 3f3d cb2b 3c3d 4458 ec3c 82a3 4abd
000002f0: 63fe 963d 2848 823d c667 ef3d 2da1 2d3e
00000300: 9f74 8dbd 8e2f 6c3d 2be1 cc3d 6cbf 973d
00000310: 4525 943d 8717 bf3d e3a0 833d 20b3 c53d
00000320: 3fc0 c03d 43e7 3ebc 8ee7 09be e3dc 7cbc
00000330: 4460 043e e082 d1bd 1ecd 84bb e20d d6bd
00000340: 8900 d43b 4f3a 5f3d 4631 7ebc 4d6b c9bc
00000350: 33d3 913c 15b2 48bc da1f 1e3e 3bb8 4e3d
00000360: bf74 81bd ac87 15be 97d1 aabd 77ec 3ebd
00000370: fdda af3d 099d aabd e6a2 80bc 1202 0d3e
00000380: 0859 033e 084f b03d 39be 8dbc deed 1f3d
00000390: cd95 dbbd 337f 0a3d 281c 3abd 0f6b 573d
000003a0: 09cc 56ba fe38 133c 5664 723d 3493 3a3c
000003b0: 11b2 5c3d ee29 7f3c 1d94 6d3d 6053 393c
000003c0: fdde 953c f07d e73d 65e5 e0bd a4c0 283d
000003d0: 6e85 023e 9e4e aebd 4bff e7bd 59d1 97bd
000003e0: 4699 9f3b 12c0 22bd f6d8 9d3d 989a 15bd
000003f0: 4166 fb3d 82d8 90bb 31b3 c53d 0e47 e9bd

controller.fc_out.weight f4 [1000, 100]
0.24320719 -0.21820465 -0.5364367 -0.4297245 0.46031088 -0.42635396 -0.04204749 -0.18346143
0.20109606 -0.13559633 -0.08451346 -0.27629858 0.10346829 -0.604815 0.337986 0.3241617
-0.99226743 -0.4731884 -1.0931203 -0.57814145 -0.14532706 -0.06288867 0.3397863 0.4923951
0.4267673 0.1949345 -0.7518894 0.006150159 -0.2728016 -0.3599839 -0.5338148 -0.055358984
0.67787284 0.32716513 0.1642142 -0.3581687 0.419148 -0.043627243 -0.08192528 0.3004136
0.45724332 0.30401462 -0.41954508 0.17527992 0.49175432 0.09396721 -0.6422752 -0.30117753
-0.30703062 -0.28480184 0.24728352 -0.46614525 0.48693544 -0.52578276 0.3184331 -0.2816635
-0.31007308 -0.08490108 0.2510684 0.32212916 0.3960959 -0.110918134 -0.047056396 -0.2949892
0.5683085 0.07100519 0.27177796 -0.06708256 -0.21489027 -0.031188672 0.35310075 0.63603085
-0.23618568 0.4712666 0.60659605 -0.14255664 -0.40775314 0.082604565 0.3488785 -0.064232215
-0.23235628 -0.36443007 0.13835855 -0.6671642 -0.6408135 0.4999845 0.39449012 -0.69487756
-0.016759917 0.7198848 0.69952613 0.13476768 0.30188355 0.13377637 -0.32803932 -0.10630188
0.16443186 -0.4085839 0.22653385 0.7016921 -0.347092 -0.17057933 -0.14670452 -0.027234802
-0.8867582 0.17604552 -0.8743268 0.068299994 0.34071314 1.4647125 0.037321404 0.34559673
0.18036538 -0.2637523 -0.2881483 1.1192361 0.2356043 -0.09239584 0.13533823 1.1454642
-0.33537325 0.18145847 -0.70488113 -0.961422 -0.48847297 0.24287911 0.044866268 0.223109
0.15531042 0.21938586 -0.30794325 -0.46644083 -0.019418707 -0.37236166 0.5048514 -0.12764491
0.27118626 0.09437415 -0.33909932 0.040637933 -0.3562969 -0.5530279 0.27997082 -0.95391506
-0.84179574 0.32155082 0.21407953 -0.92562777 1.0765101 0.020919157 -0.42607626 0.04747625
0.328707 -0.23796025 -0.2502057 -0.3907308 -0.27898797 0.0042535644 0.06178204 0.50637025
-0.10238202 0.22395931 0.304711 -0.33933213 0.16661054 0.28915435 -0.45634374 0.35889658
-0.36317343 0.29399377 -0.23974408 -0.26123285 0.04532888 -0.35221273 -0.77749175 -0.9193461
0.92633754 -0.44088408 -0.35377744 0.43804893 0.47489837 0.1724728 -0.13586926 -0.38591772
0.17384784 -0.13138762 1.0138954 0.513763 0.041430622 0.4999596 -0.5348234 0.6624406
-0.19050162 0.14657709 -0.7865903 0.18928663 0.20643419 0.00085419056 -0.11048847 -0.07603218
0.47230545 1.4671229 -0.11747605 -1.013892 0.5694953 -0.28958443 -0.7955425 -0.4124771
-0.47767463 0.34953374 -0.1752273 -0.31150484 -0.46531618 0.22602393 1.8513494 0.05506175
0.080305636 0.02648393 1.1963255 -0.8410659 0.25514758 -0.75551367 -0.8979735 0.52386767
-0.37520865 -0.45213407 0.09808133 0.13965966 -0.83966947 0.2306704 0.43848163 0.58153176
-0.3854524 0.54507506 1.23282 -0.5089528 -1.7528589 -0.1337257 0.13789089 -0.5920348
-1.1051086 0.8371515 -0.5606111 -0.11580047 0.30716163 -0.61725754 0.16353725 -0.5439277
0.12430581 1.045889 0.26436296 0.9077971 0.10572836 0.95716035 -0.7100404 0.18579307
00000000: 4e0b 793e 0a71 5fbe ea53 09bf da04 dcbe
00000010: dead eb3e 114b dabe fd39 2cbd 50dd 3bbe
00000020: 20ec 4d3e c4d9 0abe 6515 adbd 0277 8dbe
00000030: 2fe7 d33d 28d5 1abf 800c ad3e 86f8 a53e
00000040: 3d05 7ebf c045 f2be 5eeb 8bbf 1401 14bf
00000050: 9ed0 14be c6cb 80bd 78f8 ad3e 361b fc3e
00000060: 3e81 da3e e99c 473e d37b 40bf 4687 c93b
00000070: a7ac 8bbe cf4f b8be 16a8 08bf 1ac0 62bd
00000080: 1389 2d3f 3082 a73e c427 283e e361 b7be
00000090: 919a d63e 7bb2 32bd 71c8 a7bd d0cf 993e
000000a0: cc1b ea3e cea7 9b3e 9dce d6be 947c 333e
000000b0: 39c7 fb3e e171 c03d 266c 24bf f133 9abe
000000c0: 1e33 9dbe 8cd1 91be e437 7d3e 97aa eebe
000000d0: 9a4f f93e b399 06bf aa09 a33e 3336 90be
000000e0: e6c1 9ebe 9ee0 adbd 0a8c 803e 1dee a43e
000000f0: 15cd ca3e 0c29 e3bd 35be 40bd d308 97be
00000100: aa7c 113f 2b6b 913d 7b26 8b3e 9562 89bd
00000110: 320c 5cbe 637f ffbc 9fc9 b43e ebd2 223f
00000120: a9da 71be db49 f13e e149 1b3f 5efa 11be
00000130: 05c5 d0be 952c a93d 34a0 b23e 2e8c 83bd
00000140: ceee 6dbe 9496 babe ddad 0d3e 46cb 2abf
00000150: 5b0c 24bf f8fd ff3e 9cfa c93e 7fe3 31bf
00000160: 184c 89bc 5f4a 383f 2514 333f 8a00 0a3e
00000170: 7b90 9a3e acfc 083e c5f4 a7be cdb4 d9bd
00000180: d360 283e e931 d1be 7df8 673e 18a2 333f
00000190: 0bb6 b1be 59ac 2ebe b639 16be 851b dfbc
000001a0: 9602 63bf 4745 343e e2d3 5fbf dee0 8b3d
000001b0: f471 ae3e b37b bb3f 54de 183d 0ef2 b03e
000001c0: b4b1 383e 8b0a 87be 2d88 93be 2143 8f3f
000001d0: 4142 713e 083a bdbd 1b96 0a3e 929e 923f
000001e0: 0bb6 abbe 40d0 393e 1773 34bf c11f 76bf
000001f0: 2119 fabe 4db5 783e b1c5 373d b076 643e
00000200: b209 1f3e b0a6 603e bdaa 9dbe 55d1 eebe
00000210: fb13 9fbc 30a6 bebe f13d 013f 59b5 02be
00000220: edd8 8a3e 3c47 c13d 6d9e adbe f673 263d
00000230: 8c6c b6be 3d93 0dbf 5658 8f3e c733 74bf
00000240: ed7f 57bf 4fa2 a43e aa37 5b3e f1f5 6cbf
00000250: 15cb 893f a75e ab3c ab26 dabe 7576 423d
00000260: 494c a83e daab 73be f61a 80be de0d c8be
00000270: 83d7 8ebe 7c61 8b3b 2a0f 7d3d 7ba1 013f
00000280: aaad d1bd 9755 653e 1503 9c3e f1bc adbe
00000290: f49b 2a3e 0a0c 943e e3a5 e9be 4bc1 b73e
000002a0: def1 b9be 5a86 963e 797f 75be 50c0 85be
000002b0: c7aa 393d 3a55 b4be b309 47bf 445a 6bbf
000002c0: 7524 6d3f 8fbb e1be 5122 b5be f347 e03e
000002d0: e125 f33e b69c 303e 5021 0bbe 0297 c5be
000002e0: 2b05 323e 7a8a 06be 53c7 813f f985 033f
000002f0: 28b3 293d b4fa ff3e 30ea 08bf b595 293f
00000300: db12 43be 4e18 163e fb5d 49bf 5bd4 413e
00000310: 7c63 533e c2eb 5f3a c747 e2bd c2b6 9bbd
00000320: 05d2 f13e afca bb3f 4997 f0bd 37c7 81bf
00000330: 72ca 113f 6944 94be aca8 4bbf 3330 d3be
00000340: c591 f4be 16f6 b23e c96e 33be 907d 9fbe
00000350: ec3d eebe d172 673e 04f9 ec3f 6e88 613d
00000360: 4877 a43d d4f4 d83c 3221 993f 1850 57bf
00000370: b4a2 823e 5869 41bf 97e1 65bf 311c 063f
00000380: 591b c0be 1e7e e7be ddde c83d f102 0f3e
00000390: 94f4 56bf dd34 6c3e aa80 e03e 44df 143f
000003a0: 045a c5be 0a8a 0b3f 0ccd 9d3f bb4a 02bf
000003b0: ae5d e0bf 64ef 08be 4533 0d3e 988f 17bf
000003c0: 3374 8dbf 904f 563f 3684 0fbf cc28 edbd
000003d0: 4a44 9d3e 9704 1ebf 4f76 273e d93e 0bbf
000003e0: 0b94 fe3d b1df 853f 955a 873e 6465 683f
000003f0: 1c88 d83d 7608 753f 35c5 35bf 8a40 3e3e

controller.fc_out.bias f4 [1000]
1.0792359 0.10368427 0.07464834 0.035089433 -0.036837224 -0.0043314463 0.030224195 -0.004331825
-0.0043315287 0.37046593 0.23966487 0.3931839 0.27359223 0.3088896 0.09834362 0.21063513
0.12253611 0.1907444 0.060023326 0.13176076 -0.010582682 0.06966057 -0.03714396 0.099497974
-0.02689509 -0.05661504 0.11998162 0.13450862 0.052133843 0.097894534 0.047148906 0.10951927
0.19956134 0.26271483 0.12648782 0.25266212 -0.004331521 -0.0043314924 -0.00433167 -0.004331338
-0.0043316586 -0.0043314486 -0.004331427 -0.0043318076 -0.004332081 -0.0043317545 -0.004331519 -0.0043315925
-0.004331616 -0.004331652 -0.004331368 -0.004331542 -0.004331354 -0.0043315603 -0.0043316544 -0.004331918
-0.004331653 -0.0043316428 -0.0043314104 -0.004331743 -0.0043315776 -0.00433196 -0.0043313606 -0.004331817
-0.0043317145 -0.0043315813 -0.0043314337 -0.004331754 -0.0043315804 -0.0043314714 -0.004331635 -0.0043316795
-0.0043315366 -0.004331552 -0.0043317303 -0.0043314365 -0.0043316334 -0.004332031 -0.0043313755 -0.004331818
-0.0043317233 -0.0043319142 -0.004331511 -0.0043318747 -0.0043315296 -0.0043317243 -0.0043318365 -0.0043315785
-0.0043317373 -0.0043315766 -0.004331438 -0.004331406 -0.00433139 -0.0043314006 -0.0043316022 -0.004331473
-0.004331538 -0.0043316954 -0.0043317983 -0.0043316507 -0.00433144 -0.004331737 -0.0043315296 -0.0043318714
-0.0043314816 -0.0043315915 -0.00433144 -0.0043316423 -0.0043314663 -0.004331574 -0.0043313634 -0.0043313615
-0.004331862 -0.004331738 -0.0043319846 -0.004331486 -0.0043315478 -0.0043315804 -0.0043314504 -0.0043314323
-0.004331604 -0.0043316227 -0.004331876 -0.00433147 -0.004331592 -0.004332005 -0.0043314374 -0.0043315226
-0.004331434 -0.0043317685 -0.004331531 -0.0043314993 -0.0043313657 -0.0043315697 -0.004331453 -0.0043314947
-0.0043315575 -0.00433164 -0.0043315985 -0.0043313247 -0.004331436 -0.004331948 -0.0043315 -0.0043315026
-0.0043314905 -0.0043320535 -0.0043315226 -0.004331601 -0.00433161 -0.004331846 -0.0043313224 -0.004331486
-0.0043317946 -0.0043313513 -0.004331786 -0.004331538 -0.0043316213 -0.0043316 -0.004331351 -0.0043317685
-0.004331632 -0.004331502 -0.004331653 -0.004331752 -0.0043317415 -0.004331436 -0.004332802 -0.004331701
-0.0043315566 -0.0043321927 -0.0043315063 -0.004331682 -0.004331744 -0.0043316493 -0.0043314733 -0.004331524
-0.004332036 -0.0043315548 -0.004331536 -0.0043316903 -0.004331662 -0.0043317503 -0.004331755 -0.004331839
-0.0043316535 -0.0043314556 -0.004331808 -0.004333261 -0.004331731 -0.0043320456 -0.0043313955 -0.0043319184
-0.0043315 -0.0043315203 -0.0043318667 -0.004331574 -0.004331808 -0.0043318123 -0.0043314495 -0.004331419
-0.004331448 -0.004331499 -0.0043317317 -0.004331434 -0.0043313093 -0.0043316213 -0.0043316167 -0.004332
-0.004331525 -0.004331644 -0.004331834 -0.004331426 -0.0043318938 -0.0043319627 -0.0043314854 -0.0043315715
-0.004331721 -0.00433142 -0.0043314267 -0.00433191 -0.004331397 -0.004331435 -0.0043314723 -0.0043316577
-0.0043314686 -0.0043314206 -0.004331531 -0.0043314835 -0.004332105 -0.004331917 -0.0043318593 -0.004331405
-0.0043316185 -0.0043323 -0.0043315 -0.0043318924 -0.004331503 -0.004331428 -0.0043316875 -0.0043315385
-0.004331648 -0.0043315506 -0.004331698 -0.004332012 -0.004331857 -0.004331433 -0.0043313783 -0.0043317648
-0.004331328 -0.004331725 -0.004331484 -0.0043316856 -0.0043315017 -0.0043314537 -0.0043318174 -0.004331562
00000000: 6724 8a3f 6b58 d43d 3be1 983d f0b9 0f3d
00000010: a1e2 16bd ceee 8dbb bb98 f73c fbf1 8dbb
00000020: 7fef 8dbb b6ad bd3e b56a 753e 664f c93e
00000030: 4814 8c3e c726 9e3e 6168 c93d bcb0 573e
00000040: 36f4 fa3d 8052 433e 05db 753d 4bec 063e
00000050: fc62 2dbc 33aa 8e3d 4424 18bd 98c5 cb3d
00000060: 1753 dcbc 2ce5 67bd ecb8 f53d a1bc 093e
00000070: 4c8a 553d ee7c c83d 361f 413d a44b e03d
00000080: cf59 4c3e 8f82 863e 0686 013e ee5c 813e
00000090: 6fef 8dbb 31ef 8dbb aef0 8dbb e6ed 8dbb
000000a0: 96f0 8dbb d3ee 8dbb a5ee 8dbb d6f1 8dbb
000000b0: 21f4 8dbb 64f1 8dbb 6aef 8dbb 08f0 8dbb
000000c0: 3bf0 8dbb 88f0 8dbb 26ee 8dbb 9cef 8dbb
000000d0: 08ee 8dbb c3ef 8dbb 8df0 8dbb c3f2 8dbb
000000e0: 8af0 8dbb 74f0 8dbb 81ee 8dbb 4bf1 8dbb
000000f0: e8ef 8dbb 1df3 8dbb 16ee 8dbb eaf1 8dbb
00000100: 0ef1 8dbb f0ef 8dbb b3ee 8dbb 63f1 8dbb
00000110: eeef 8dbb 04ef 8dbb 63f0 8dbb c3f0 8dbb
00000120: 90ef 8dbb b1ef 8dbb 30f1 8dbb b9ee 8dbb
00000130: 60f0 8dbb b6f3 8dbb 36ee 8dbb ecf1 8dbb
00000140: 21f1 8dbb bbf2 8dbb 59ef 8dbb 66f2 8dbb
00000150: 81ef 8dbb 23f1 8dbb 14f2 8dbb eaef 8dbb
00000160: 3ff1 8dbb e6ef 8dbb bcee 8dbb 78ee 8dbb
00000170: 55ee 8dbb 6cee 8dbb 1df0 8dbb 07ef 8dbb
00000180: 93ef 8dbb e5f0 8dbb c2f1 8dbb 85f0 8dbb
00000190: c1ee 8dbb 3ef1 8dbb 81ef 8dbb 5ff2 8dbb
000001a0: 1aef 8dbb 06f0 8dbb c1ee 8dbb 73f0 8dbb
000001b0: f9ee 8dbb e0ef 8dbb 1cee 8dbb 18ee 8dbb
000001c0: 4bf2 8dbb 41f1 8dbb 52f3 8dbb 23ef 8dbb
000001d0: a8ef 8dbb eeef 8dbb d7ee 8dbb b0ee 8dbb
000001e0: 21f0 8dbb 49f0 8dbb 69f2 8dbb 01ef 8dbb
000001f0: 07f0 8dbb 7ef3 8dbb bbee 8dbb 72ef 8dbb
00000200: b4ee 8dbb 82f1 8dbb 84ef 8dbb 40ef 8dbb
00000210: 21ee 8dbb d7ef 8dbb dcee 8dbb 36ef 8dbb
00000220: bdef 8dbb 6ef0 8dbb 15f0 8dbb c9ed 8dbb
00000230: b8ee 8dbb 03f3 8dbb 41ef 8dbb 47ef 8dbb
00000240: 2def 8dbb e6f3 8dbb 72ef 8dbb 1af0 8dbb
00000250: 2ef0 8dbb 28f2 8dbb c4ed 8dbb 23ef 8dbb
00000260: baf1 8dbb 02ee 8dbb a8f1 8dbb 93ef 8dbb
00000270: 46f0 8dbb 18f0 8dbb 01ee 8dbb 82f1 8dbb
00000280: 5df0 8dbb 46ef 8dbb 8af0 8dbb 5ff1 8dbb
00000290: 48f1 8dbb b8ee 8dbb 2dfa 8dbb f1f0 8dbb
000002a0: bbef 8dbb 11f5 8dbb 4fef 8dbb c8f0 8dbb
000002b0: 4df1 8dbb 82f0 8dbb 08ef 8dbb 75ef 8dbb
000002c0: c0f3 8dbb b7ef 8dbb 8fef 8dbb daf0 8dbb
000002d0: 9df0 8dbb 5bf1 8dbb 65f1 8dbb 19f2 8dbb
000002e0: 8bf0 8dbb e2ee 8dbb d7f1 8dbb 07fe 8dbb
000002f0: 31f1 8dbb d5f3 8dbb 61ee 8dbb c4f2 8dbb
00000300: 41ef 8dbb 6def 8dbb 55f2 8dbb e0ef 8dbb
00000310: d7f1 8dbb e0f1 8dbb d5ee 8dbb 93ee 8dbb
00000320: d2ee 8dbb 3fef 8dbb 33f1 8dbb b4ee 8dbb
00000330: a8ed 8dbb 46f0 8dbb 3cf0 8dbb 73f3 8dbb
00000340: 77ef 8dbb 77f0 8dbb 0ff2 8dbb a3ee 8dbb
00000350: 8ff2 8dbb 23f3 8dbb 22ef 8dbb dbef 8dbb
00000360: 1cf1 8dbb 96ee 8dbb a4ee 8dbb b2f2 8dbb
00000370: 64ee 8dbb b6ee 8dbb 06ef 8dbb 94f0 8dbb
00000380: feee 8dbb 97ee 8dbb 84ef 8dbb 1eef 8dbb
00000390: 55f4 8dbb c1f2 8dbb 45f2 8dbb 75ee 8dbb
000003a0: 40f0 8dbb f7f5 8dbb 41ef 8dbb 8cf2 8dbb
000003b0: 48ef 8dbb a7ee 8dbb d4f0 8dbb 94ef 8dbb
000003c0: 7ff0 8dbb aeef 8dbb ebf0 8dbb 8df3 8dbb
000003d0: 40f2 8dbb b2ee 8dbb 3cee 8dbb 7af1 8dbb
000003e0: d0ed 8dbb 25f1 8dbb 1fef 8dbb d0f0 8dbb
000003f0: 45ef 8dbb deee 8dbb ebf1 8dbb c7ef 8dbb
