VerNova/checkpoints/ntm_val_0.1228_epoch_103.pt (torch, 863092 bytes, 11 tensors)

read_vectors f4 [1, 32]
000000 e6 09 ed 3e 99 7e c8 be 7e 4b b5 3f 95 47 2c bf
       0.46296614 -0.39159086 1.4163663 -0.67296726
000010 02 c2 e3 3f 84 8a ac bd fe b4 94 3e 9a e1 87 3f
       1.7793581 -0.08424857 0.29044336 1.0615723
000020 7d a0 f6 be 56 78 f8 be 81 2e cd 3f 34 b6 97 3e
       -0.48169318 -0.4852931 1.6029817 0.29631197
000030 66 09 39 bf 13 6f 8a bf 01 f4 70 bf ad df b9 3e
       -0.72279966 -1.0815147 -0.9412232 0.36303464
000040 eb 2c bb 3f 5d 98 e4 3e 03 f6 83 be d9 d8 95 3d
       1.4623083 0.44647494 -0.2577363 0.07316751
000050 ff f6 e1 3f 2a 2b 14 3e b8 f7 f8 3e 8d 06 23 bf
       1.7653502 0.14469591 0.48626494 -0.6368187
000060 38 d4 d1 3e a3 ee 55 bf e4 f6 56 3f 88 8a 9e bf
       0.40982223 -0.83567256 0.83970475 -1.2386026
000070 e0 c0 15 3e 03 e5 01 3e 37 63 16 3f df 84 b4 bf
       0.14624357 0.12685017 0.5874514 -1.4103049

memory.memory f4 [64, 32]
000000 e6 09 ed 3e 99 7e c8 be 7e 4b b5 3f 95 47 2c bf
       0.46296614 -0.39159086 1.4163663 -0.67296726
000010 02 c2 e3 3f 84 8a ac bd fe b4 94 3e 9a e1 87 3f
       1.7793581 -0.08424857 0.29044336 1.0615723
000020 7d a0 f6 be 56 78 f8 be 81 2e cd 3f 34 b6 97 3e
       -0.48169318 -0.4852931 1.6029817 0.29631197
000030 66 09 39 bf 13 6f 8a bf 01 f4 70 bf ad df b9 3e
       -0.72279966 -1.0815147 -0.9412232 0.36303464
000040 eb 2c bb 3f 5d 98 e4 3e 03 f6 83 be d9 d8 95 3d
       1.4623083 0.44647494 -0.2577363 0.07316751
000050 ff f6 e1 3f 2a 2b 14 3e b8 f7 f8 3e 8d 06 23 bf
       1.7653502 0.14469591 0.48626494 -0.6368187
000060 38 d4 d1 3e a3 ee 55 bf e4 f6 56 3f 88 8a 9e bf
       0.40982223 -0.83567256 0.83970475 -1.2386026
000070 e0 c0 15 3e 03 e5 01 3e 37 63 16 3f df 84 b4 bf
       0.14624357 0.12685017 0.5874514 -1.4103049
000080 e6 09 ed 3e 99 7e c8 be 7e 4b b5 3f 95 47 2c bf
       0.46296614 -0.39159086 1.4163663 -0.67296726
000090 02 c2 e3 3f 84 8a ac bd fe b4 94 3e 9a e1 87 3f
       1.7793581 -0.08424857 0.29044336 1.0615723
0000a0 7d a0 f6 be 56 78 f8 be 81 2e cd 3f 34 b6 97 3e
       -0.48169318 -0.4852931 1.6029817 0.29631197
0000b0 66 09 39 bf 13 6f 8a bf 01 f4 70 bf ad df b9 3e
       -0.72279966 -1.0815147 -0.9412232 0.36303464
0000c0 eb 2c bb 3f 5d 98 e4 3e 03 f6 83 be d9 d8 95 3d
       1.4623083 0.44647494 -0.2577363 0.07316751
0000d0 ff f6 e1 3f 2a 2b 14 3e b8 f7 f8 3e 8d 06 23 bf
       1.7653502 0.14469591 0.48626494 -0.6368187
0000e0 38 d4 d1 3e a3 ee 55 bf e4 f6 56 3f 88 8a 9e bf
       0.40982223 -0.83567256 0.83970475 -1.2386026
0000f0 e0 c0 15 3e 03 e5 01 3e 37 63 16 3f df 84 b4 bf
       0.14624357 0.12685017 0.5874514 -1.4103049
000100 e6 09 ed 3e 99 7e c8 be 7e 4b b5 3f 95 47 2c bf
       0.46296614 -0.39159086 1.4163663 -0.67296726
000110 02 c2 e3 3f 84 8a ac bd fe b4 94 3e 9a e1 87 3f
       1.7793581 -0.08424857 0.29044336 1.0615723
000120 7d a0 f6 be 56 78 f8 be 81 2e cd 3f 34 b6 97 3e
       -0.48169318 -0.4852931 1.6029817 0.29631197
000130 66 09 39 bf 13 6f 8a bf 01 f4 70 bf ad df b9 3e
       -0.72279966 -1.0815147 -0.9412232 0.36303464
000140 eb 2c bb 3f 5d 98 e4 3e 03 f6 83 be d9 d8 95 3d
       1.4623083 0.44647494 -0.2577363 0.07316751
000150 ff f6 e1 3f 2a 2b 14 3e b8 f7 f8 3e 8d 06 23 bf
       1.7653502 0.14469591 0.48626494 -0.6368187
000160 38 d4 d1 3e a3 ee 55 bf e4 f6 56 3f 88 8a 9e bf
       0.40982223 -0.83567256 0.83970475 -1.2386026
000170 e0 c0 15 3e 03 e5 01 3e 37 63 16 3f df 84 b4 bf
       0.14624357 0.12685017 0.5874514 -1.4103049
000180 e6 09 ed 3e 99 7e c8 be 7e 4b b5 3f 95 47 2c bf
       0.46296614 -0.39159086 1.4163663 -0.67296726
000190 02 c2 e3 3f 84 8a ac bd fe b4 94 3e 9a e1 87 3f
       1.7793581 -0.08424857 0.29044336 1.0615723
0001a0 7d a0 f6 be 56 78 f8 be 81 2e cd 3f 34 b6 97 3e
       -0.48169318 -0.4852931 1.6029817 0.29631197
0001b0 66 09 39 bf 13 6f 8a bf 01 f4 70 bf ad df b9 3e
       -0.72279966 -1.0815147 -0.9412232 0.36303464
0001c0 eb 2c bb 3f 5d 98 e4 3e 03 f6 83 be d9 d8 95 3d
       1.4623083 0.44647494 -0.2577363 0.07316751
0001d0 ff f6 e1 3f 2a 2b 14 3e b8 f7 f8 3e 8d 06 23 bf
       1.7653502 0.14469591 0.48626494 -0.6368187
0001e0 38 d4 d1 3e a3 ee 55 bf e4 f6 56 3f 88 8a 9e bf
       0.40982223 -0.83567256 0.83970475 -1.2386026
0001f0 e0 c0 15 3e 03 e5 01 3e 37 63 16 3f df 84 b4 bf
       0.14624357 0.12685017 0.5874514 -1.4103049
000200 e6 09 ed 3e 99 7e c8 be 7e 4b b5 3f 95 47 2c bf
       0.46296614 -0.39159086 1.4163663 -0.67296726
000210 02 c2 e3 3f 84 8a ac bd fe b4 94 3e 9a e1 87 3f
       1.7793581 -0.08424857 0.29044336 1.0615723
000220 7d a0 f6 be 56 78 f8 be 81 2e cd 3f 34 b6 97 3e
       -0.48169318 -0.4852931 1.6029817 0.29631197
000230 66 09 39 bf 13 6f 8a bf 01 f4 70 bf ad df b9 3e
       -0.72279966 -1.0815147 -0.9412232 0.36303464
000240 eb 2c bb 3f 5d 98 e4 3e 03 f6 83 be d9 d8 95 3d
       1.4623083 0.44647494 -0.2577363 0.07316751
000250 ff f6 e1 3f 2a 2b 14 3e b8 f7 f8 3e 8d 06 23 bf
       1.7653502 0.14469591 0.48626494 -0.6368187
000260 38 d4 d1 3e a3 ee 55 bf e4 f6 56 3f 88 8a 9e bf
       0.40982223 -0.83567256 0.83970475 -1.2386026
000270 e0 c0 15 3e 03 e5 01 3e 37 63 16 3f df 84 b4 bf
       0.14624357 0.12685017 0.5874514 -1.4103049
000280 e6 09 ed 3e 99 7e c8 be 7e 4b b5 3f 95 47 2c bf
       0.46296614 -0.39159086 1.4163663 -0.67296726
000290 02 c2 e3 3f 84 8a ac bd fe b4 94 3e 9a e1 87 3f
       1.7793581 -0.08424857 0.29044336 1.0615723
0002a0 7d a0 f6 be 56 78 f8 be 81 2e cd 3f 34 b6 97 3e
       -0.48169318 -0.4852931 1.6029817 0.29631197
0002b0 66 09 39 bf 13 6f 8a bf 01 f4 70 bf ad df b9 3e
       -0.72279966 -1.0815147 -0.9412232 0.36303464
0002c0 eb 2c bb 3f 5d 98 e4 3e 03 f6 83 be d9 d8 95 3d
       1.4623083 0.44647494 -0.2577363 0.07316751
0002d0 ff f6 e1 3f 2a 2b 14 3e b8 f7 f8 3e 8d 06 23 bf
       1.7653502 0.14469591 0.48626494 -0.6368187
0002e0 38 d4 d1 3e a3 ee 55 bf e4 f6 56 3f 88 8a 9e bf
       0.40982223 -0.83567256 0.83970475 -1.2386026
0002f0 e0 c0 15 3e 03 e5 01 3e 37 63 16 3f df 84 b4 bf
       0.14624357 0.12685017 0.5874514 -1.4103049
000300 e6 09 ed 3e 99 7e c8 be 7e 4b b5 3f 95 47 2c bf
       0.46296614 -0.39159086 1.4163663 -0.67296726
000310 02 c2 e3 3f 84 8a ac bd fe b4 94 3e 9a e1 87 3f
       1.7793581 -0.08424857 0.29044336 1.0615723
000320 7d a0 f6 be 56 78 f8 be 81 2e cd 3f 34 b6 97 3e
       -0.48169318 -0.4852931 1.6029817 0.29631197
000330 66 09 39 bf 13 6f 8a bf 01 f4 70 bf ad df b9 3e
       -0.72279966 -1.0815147 -0.9412232 0.36303464
000340 eb 2c bb 3f 5d 98 e4 3e 03 f6 83 be d9 d8 95 3d
       1.4623083 0.44647494 -0.2577363 0.07316751
000350 ff f6 e1 3f 2a 2b 14 3e b8 f7 f8 3e 8d 06 23 bf
       1.7653502 0.14469591 0.48626494 -0.6368187
000360 38 d4 d1 3e a3 ee 55 bf e4 f6 56 3f 88 8a 9e bf
       0.40982223 -0.83567256 0.83970475 -1.2386026
000370 e0 c0 15 3e 03 e5 01 3e 37 63 16 3f df 84 b4 bf
       0.14624357 0.12685017 0.5874514 -1.4103049
000380 e6 09 ed 3e 99 7e c8 be 7e 4b b5 3f 95 47 2c bf
       0.46296614 -0.39159086 1.4163663 -0.67296726
000390 02 c2 e3 3f 84 8a ac bd fe b4 94 3e 9a e1 87 3f
       1.7793581 -0.08424857 0.29044336 1.0615723
0003a0 7d a0 f6 be 56 78 f8 be 81 2e cd 3f 34 b6 97 3e
       -0.48169318 -0.4852931 1.6029817 0.29631197
0003b0 66 09 39 bf 13 6f 8a bf 01 f4 70 bf ad df b9 3e
       -0.72279966 -1.0815147 -0.9412232 0.36303464
0003c0 eb 2c bb 3f 5d 98 e4 3e 03 f6 83 be d9 d8 95 3d
       1.4623083 0.44647494 -0.2577363 0.07316751
0003d0 ff f6 e1 3f 2a 2b 14 3e b8 f7 f8 3e 8d 06 23 bf
       1.7653502 0.14469591 0.48626494 -0.6368187
0003e0 38 d4 d1 3e a3 ee 55 bf e4 f6 56 3f 88 8a 9e bf
       0.40982223 -0.83567256 0.83970475 -1.2386026
0003f0 e0 c0 15 3e 03 e5 01 3e 37 63 16 3f df 84 b4 bf
       0.14624357 0.12685017 0.5874514 -1.4103049

controller.lstm.weight_ih f4 [400, 64]
000000 eb 0c 9f bb 25 0b 82 bc aa 31 a1 bc 10 27 70 3d
       -0.004853835 -0.015874455 -0.019677002 0.058631003
000010 1b 41 df 3c a4 12 a9 bc 25 19 cc bc 01 26 30 bc
       0.027252724 -0.020638771 -0.024914334 -0.010751248
000020 b8 ff cd bd cc f1 d5 3c 5d 04 46 3d 5c 08 9c 3d
       -0.1005854 0.026116274 0.048344005 0.07618782
000030 a5 0f e7 3a e1 77 56 3c de 50 48 bc 91 1b 1e bc
       0.0017628564 0.013090105 -0.0122263115 -0.009650127
000040 e5 5e 30 3e b6 a7 7b bd 98 a3 b1 bb 12 37 2e 3d
       0.172237 -0.06143924 -0.005421113 0.042532988
000050 a3 77 f6 bc e6 9d 8b 3c 96 a3 09 bd 72 d9 7a bd
       -0.030086344 0.017043065 -0.033603273 -0.06124253
000060 af 1c c7 bb 15 4c 7b bd c5 f2 b3 bd ae 62 c9 3d
       -0.0060764174 -0.061351854 -0.08786539 0.09833275
000070 4a 0b 56 bc 04 01 a1 bc 1e 33 c8 3b 2a c2 87 3d
       -0.013064215 -0.019653805 0.0061096093 0.06628831
000080 2c 17 88 3d b2 8e 8d bd f7 68 b7 bd ce f4 2e bc
       0.06645045 -0.069119826 -0.08955567 -0.010678483
000090 ab 15 4b be e8 2f 89 bd e8 c9 14 3c f0 56 9d bd
       -0.19832484 -0.066985905 0.009081341 -0.07682598
0000a0 af f4 34 3d e7 50 ba 3e 79 3b 1a be a0 f0 b4 3e
       0.04417866 0.3638985 -0.1506175 0.35339832
0000b0 bf 94 1a 3d e1 01 4a bd 70 f2 3f 3e f9 c0 9e 3b
       0.03773951 -0.049318198 0.18744826 0.0048447815
0000c0 92 c3 80 bd ef 13 0c bd c7 05 4a 3e 5b 24 31 3d
       -0.06287302 -0.034198698 0.19728766 0.043247562
0000d0 6f 39 89 be 72 3b e3 bd 10 0a 6c 3d 8b 52 01 3e
       -0.2680163 -0.11095323 0.057626784 0.12629144
0000e0 6c 05 85 ba 09 17 c2 bc 35 d4 ae 3d 9e 28 24 3e
       -0.001014871 -0.023692625 0.08536569 0.16031119
0000f0 6f 78 1c be 46 55 f3 bb 19 bc 51 be 19 d9 17 3e
       -0.15280317 -0.007425937 -0.2048191 0.1482891
000100 bb 7c e1 3c 41 42 c6 bd c3 31 1d 3e 4b 80 58 3c
       0.027525296 -0.09680606 0.15351014 0.013214181
000110 1d 8b 4d 3e da 50 d3 bd 1b a9 22 be d0 69 db 3d
       0.20072599 -0.103181556 -0.15884821 0.107135415
000120 d2 8c a8 bd 86 e2 39 be f8 33 2c ba d8 6a 29 3d
       -0.08229984 -0.18152818 -0.0006569023 0.04136166
000130 c8 a9 04 be 8b 4d a1 3d c4 81 81 3c 70 86 af 3c
       -0.12955391 0.07876118 0.015808947 0.02142641
000140 e6 ec ce 3d 32 cb e0 bd fa 4d 88 3d 65 12 0b bd
       0.101037785 -0.109762564 0.06655498 -0.03395309
000150 0c 3a db 3b 3c 6e 07 3d 08 9e 33 bd 46 4e 5b be
       0.0066902693 0.033064112 -0.043851882 -0.21416578
000160 d7 54 35 3e 5a c1 0a 3c 62 36 55 bd 97 59 c8 bd
       0.17708145 0.00846895 -0.052053817 -0.09782713
000170 77 92 55 be 63 cd 05 be 5c a8 4e bb f1 41 4f 3a
       -0.20856653 -0.1306663 -0.0031533455 0.00079062494
000180 27 c8 2b bd 2b eb 38 bc ab d2 b2 3c 02 8f ba 3c
       -0.041938927 -0.011286537 0.02182897 0.02277327
000190 9f c5 23 3c 09 35 8b 3c 67 1f ae 3c 8c 89 47 3d
       0.009995847 0.016993063 0.021255208 0.04871516
0001a0 0d f5 cc bc d1 6b ee bc a5 ed 2f bd 47 b6 58 bc
       -0.025019193 -0.029104145 -0.042951245 -0.013227052
0001b0 e8 c4 a6 bc dc 7e a4 bd da ba 76 bd 6a 43 07 bd
       -0.020357564 -0.08032009 -0.06023679 -0.033023275
0001c0 fa e7 f6 3d ac cd 08 bc 11 3c 2b bd 33 8d 5a 3c
       0.12055965 -0.008349817 -0.04180533 0.013339329
0001d0 4d 40 47 3b 96 7f 17 bd fe 13 cb 3c 4c 0d e1 3c
       0.0030403316 -0.03698691 0.024789806 0.02747216
0001e0 fd ee 80 bd 93 82 53 bc f6 c9 58 3a c6 d8 31 bd
       -0.062955834 -0.012909549 0.00082698406 -0.043419622
0001f0 cf 00 2e 39 3c 07 85 3c 1b 1c 12 3d a5 3c 43 bd
       0.00016594234 0.016238801 0.035671335 -0.047665257
000200 89 45 e4 3b 2d 57 d9 bd d8 38 b8 3d 4d e9 af 3d
       0.006966297 -0.106123306 0.08995217 0.085894205
000210 33 06 42 3e c9 19 15 bd f7 12 7e bd e3 ac a4 3d
       0.18947677 -0.036401544 -0.062029805 0.08040788
000220 5d 37 ed bd bf 50 cd bd 2d 71 da 3c 04 ab 13 3e
       -0.11582825 -0.10025167 0.026665295 0.14420706
000230 4a b6 38 bd 49 66 0b 3e ee 1c b9 3c c9 02 fb 3b
       -0.04509572 0.13613237 0.022596803 0.007660244
000240 d4 06 92 bd 04 3d a0 bd 2e 60 16 3e fe 66 2d be
       -0.071302086 -0.07824138 0.14685127 -0.1693382
000250 2d 97 8f bc 0f d6 04 3e 18 cc 81 bd f9 86 20 be
       -0.01752814 0.12972282 -0.06337756 -0.15676488
000260 2a 53 01 3e ab ce d3 bd d9 35 02 be 95 4c fd bd
       0.12629381 -0.10342153 -0.12715854 -0.123681225
000270 70 ad 1f be 1f a6 23 be e7 10 ce 3c 59 05 d9 bc
       -0.15593505 -0.15981339 0.025154544 -0.026491808
000280 5b 6d 3c 3d 69 a9 d7 3d c0 1e 0f be 5b 39 df 3e
       0.046002727 0.10530359 -0.13976574 0.43598446
000290 7e 8d 97 bd 40 34 fa be fa f4 3a be 67 3a 2a be
       -0.07400034 -0.4886799 -0.18257514 -0.16623841
0002a0 f2 73 9a 3e 06 95 e7 bd ee 2e 84 3d b5 59 2e 3f
       0.30166584 -0.11307721 0.06454264 0.6810563
0002b0 4e f3 43 3e 11 8c bf bd 48 63 51 3e d0 f5 6b bc
       0.19135782 -0.093528874 0.20448029 -0.014401868
0002c0 77 bb d4 bd 5b 81 44 be 08 bb 18 be b5 1c ec 3e
       -0.103873186 -0.1918997 -0.14915097 0.46115652
0002d0 b1 33 cd be 84 c9 85 bd a1 2d 42 3f 3f 86 fe be
       -0.400785 -0.06532577 0.75850874 -0.49711797
0002e0 7f af 24 be 33 16 2f 3e 27 52 14 be c1 c2 84 bd
       -0.16082571 0.17098312 -0.14484464 -0.06482459
0002f0 46 6e c2 be 7e 4b 8d 3d 9d 4c 60 be 43 a2 86 bd
       -0.37974757 0.068991646 -0.21904226 -0.06573918
000300 7b 4d 04 3e cb 92 d1 bd 1d d1 11 3e 38 ed 0c bd
       0.12920181 -0.10233077 0.14239927 -0.034405917
000310 1b a9 55 3d c7 04 cf bd 39 e9 ad 3b 62 0f 78 3d
       0.052163225 -0.10108333 0.0053073433 0.060561545
000320 63 07 f0 3c fe d9 0d be cc e0 a4 bd af cf 59 3d
       0.029300397 -0.13852689 -0.08050689 0.053176578
000330 d7 ed ce 3c 76 56 b2 3d f0 ee ab 3c 28 4e 8f 3d
       0.025259895 0.08707897 0.020987958 0.06997329
000340 e8 78 c2 bd 33 48 42 bd bd 6f 13 be 58 cb 05 3d
       -0.09495717 -0.047432136 -0.14398094 0.032664627
000350 aa 05 83 3d 1d a1 cf bd a9 d4 b8 bd a1 83 26 be
       0.06397565 -0.10138152 -0.09024937 -0.1626115
000360 c8 14 9a 3b f0 98 78 3d c4 82 90 3c 38 bb 1e bd
       0.0047021843 0.060692728 0.017640479 -0.038752764
000370 da 46 5b bd 25 77 8d bd cc 9d a9 bc 2a da 1b bd
       -0.053534366 -0.06907491 -0.020705126 -0.038049854
000380 5b e0 19 3e 34 da 22 3d e8 ce eb 3d f1 54 99 bd
       0.15026991 0.039758876 0.115140736 -0.074869044
000390 ff de 57 3e 16 0d 24 be 7e 94 8d 3e f8 70 4f 3e
       0.2108116 -0.16020617 0.27652353 0.20257938
0003a0 95 18 33 be 92 b7 09 be ee 29 89 3e 5a cb 63 3d
       -0.17489846 -0.13448933 0.26789802 0.055613853
0003b0 8c d0 b5 bd 51 4b db bd 14 3d 09 be fb 60 76 3e
       -0.08877668 -0.10707725 -0.13402206 0.24060433
0003c0 4e 70 ae 3c 6d 95 af 3d 85 36 9f 3c 9d ae fe 3d
       0.021293785 0.085734226 0.019435177 0.124356486
0003d0 56 e1 4e 3e 5f df 30 3d cb b8 45 bc 10 d7 f6 bd
       0.20203146 0.043181773 -0.012067984 -0.12052739
0003e0 ac 17 a0 bd 63 9c 6d bd 26 86 f0 be 7a 55 20 3c
       -0.07817015 -0.05801047 -0.46977347 0.009786004
0003f0 70 25 fa 3c ef f2 a7 bc 43 80 86 3d 15 ad bf bd
       0.03053543 -0.020501582 0.06567433 -0.09359185

controller.lstm.weight_hh f4 [400, 100]
000000 6d 88 25 be 29 2f ac be c1 ca d1 bd 98 c1 9d be
       -0.16165324 -0.3362973 -0.1024375 -0.30811763
000010 89 1e 17 3d a7 62 5c b9 15 3a 49 be 2c e5 8d 3e
       0.036894355 -0.00021017586 -0.19651063 0.27713907
000020 51 e2 a0 3d fa f6 79 bd dd 2c 76 bd 8e 9b aa be
       0.078556664 -0.06102655 -0.06010138 -0.33321804
000030 b0 cd 31 bc 1a 30 5e 3e 33 05 75 bc 1b 35 56 3d
       -0.010852262 0.21698037 -0.014954853 0.05229674
000040 c3 c7 c4 3c ea e5 92 bd 08 bc 3e 3d c9 f7 48 3c
       0.024021035 -0.07172759 0.04656604 0.012266108
000050 92 f8 b8 3d 26 dc a0 bd 66 92 3a 3c e9 e5 db bd
       0.09031786 -0.0785449 0.011387443 -0.10737211
000060 f7 fa 90 bd 64 98 c8 3d b4 e9 89 3c 39 09 f8 bc
       -0.07079118 0.09794691 0.016835071 -0.030277835
000070 1d a7 c9 bd 5a 66 fc 3c 97 51 26 bb 03 eb ea bc
       -0.098463275 0.030810524 -0.0025378221 -0.028676515
000080 a2 1f 9e 3d 6d ae e1 bd 2c 17 2c be ba f6 d3 3d
       0.07720877 -0.11019597 -0.16805714 0.10349794
000090 fb e0 bd 3d 31 6b a2 3d f2 1a 18 3d 3e 49 3c be
       0.09271427 0.079306014 0.037135072 -0.18387315
0000a0 d5 a1 50 3c 34 a4 1c 3e 7f dc 2b be e9 c0 16 be
       0.012733896 0.15297014 -0.16783331 -0.14722027
0000b0 fa 3a 2d 3d 8c 51 a1 bc 48 b5 70 3d 32 1a ca 3d
       0.042292573 -0.019692205 0.058766633 0.098682776
0000c0 13 08 94 bd a3 9a 81 be fd 83 3f bd 36 a1 ca 3c
       -0.072281025 -0.2531329 -0.046756733 0.024735074
0000d0 b5 c8 99 3a e3 b4 05 3e d6 28 8b bd 70 2f 8b bd
       0.0011732789 0.13057284 -0.06794898 -0.06796157
0000e0 81 be 90 3c 15 66 10 3d cf 55 50 bd 33 d6 b5 3d
       0.017668964 0.035253603 -0.050863083 0.08878746
0000f0 b8 6d 9c 3e c2 e5 8e 3c 5c bb 0e 3e b2 79 f0 3c
       0.3055246 0.017443541 0.1393866 0.029354904
000100 f4 3c 4d 3e b4 a4 a4 bc a9 dd 95 bc db 94 14 3e
       0.20042783 -0.020098068 -0.018294172 0.14509909
000110 6d 2c c8 bd 02 ed b0 bc bb c4 d5 3d 39 d9 ce 3d
       -0.097740985 -0.02159739 0.10437914 0.10100026
000120 18 ae 09 be bd 6c b4 3d 2a 3e dd bd 7c da 81 3d
       -0.13445318 0.08809803 -0.108028725 0.06340501
000130 d4 2f 1b bd e0 ae 4f be 04 d8 b4 bd a4 6e ed bb
       -0.03788741 -0.20281553 -0.08830264 -0.0072458554
000140 1a f8 4a bd b4 c2 f1 3b 41 69 4f 3d f3 15 8b 3d
       -0.049553014 0.0073779467 0.050637487 0.06791296
000150 ff 0d 05 3c d7 65 79 3e 80 51 a4 3d 0e 97 97 bd
       0.008121013 0.24355255 0.080233574 -0.07401858
000160 27 52 f0 3d 7a 08 17 be c3 21 fd 3c 4c 96 ad bd
       0.11734419 -0.14749327 0.030899888 -0.084759325
000170 ca 67 f7 3d 2f 7d a7 bd 2a eb cb 3d 0d c2 aa bc
       0.12080343 -0.08178174 0.09956963 -0.020844484
000180 34 27 85 3b 78 25 28 bd 43 98 87 be e9 56 3d bc
       0.0040635113 -0.041051358 -0.26483354 -0.0115563655
000190 f6 23 e0 3c e3 55 1c 3c 44 0e 9a bc 92 60 12 3c
       0.027360898 0.009541961 -0.01880563 0.008934157
0001a0 3c 13 c6 bd d6 ad 52 bd da 4b 8d 3e 37 e4 65 bc
       -0.096716374 -0.051435314 0.27596933 -0.014031461
0001b0 b6 b1 eb 3c bc 2a af bd 00 0d 34 3e fc 5f b5 bd
       0.028771263 -0.08553073 0.17583084 -0.08856198
0001c0 17 aa 9d 3d 3d 50 15 3e 35 21 4e bd 9d f1 2d 3d
       0.07698458 0.1458139 -0.050324637 0.04246675
0001d0 7b f7 01 3c f0 0f 46 be d4 16 af 3d da 5c 2d bd
       0.007932539 -0.19342017 0.08549276 -0.04232488
0001e0 c3 3d 63 bd 9c 30 01 be 88 6a 73 3b a5 1d eb bd
       -0.055478822 -0.126162 0.0037142355 -0.114802636
0001f0 09 a1 44 3d 49 3c 83 3d 5b db ad bd e0 eb d0 bc
       0.048005138 0.06407983 -0.08489104 -0.025503099
000200 97 30 8f 3c 3c 18 bf 3c dd 89 fc 3d ef 3a 5c 3e
       0.017479224 0.023326986 0.12330983 0.21506856
000210 84 e3 1f 3d 55 f2 e0 bd 82 9f 3d bb a8 e7 2a bd
       0.039035335 -0.10983721 -0.0028934185 -0.04172483
000220 86 ce 03 3d b4 88 66 bd 29 42 30 bd ae 29 8f 3c
       0.032179378 -0.056282714 -0.043031845 0.01747593
000230 24 07 a4 bd fc 9e 00 be a0 18 87 bc 56 31 e8 bc
       -0.080091745 -0.12560648 -0.016491234 -0.028343838
000240 ed df 25 3d 86 90 66 bc f0 21 14 3c c0 d4 0b be
       0.040496755 -0.014072543 0.009041294 -0.13655376
000250 69 14 0f 3e b8 01 5f 3d b6 96 c1 bc ca 2d e0 3c
       0.1397263 0.054445 -0.023631435 0.027365584
000260 e3 fb 47 bc 45 51 84 3b 67 b8 36 bc 19 74 1a 3e
       -0.012206051 0.0040380084 -0.011152363 0.1508335
000270 8e 74 c4 3d 75 34 a1 3d c2 03 3f bd 81 a3 17 3d
       0.095925435 0.078713335 -0.046634443 0.037021164
000280 a5 be 87 3d 99 84 6b bd a8 e0 95 bc 6f 37 74 3d
       0.066281594 -0.0574995 -0.018295601 0.059623178
000290 78 46 eb 3c b2 88 4d 3d 27 0b 53 bc 87 83 d2 bd
       0.028720126 0.05017919 -0.012881077 -0.10278993
0002a0 73 62 1d bd 86 22 7d bd b1 bc 5c bd 45 62 9b bd
       -0.038423967 -0.061800502 -0.053890888 -0.07587103
0002b0 68 db 0c 3c 08 09 01 3e 5d 98 8d 3c ee 0c b5 bc
       0.008597232 0.12601101 0.017284567 -0.022100892
0002c0 14 a8 cf 3b 68 1e f7 3d 40 1e 83 bc 2b 4b ae 3d
       0.006337175 0.120663464 -0.016005635 0.08510431
0002d0 0b a9 ae 3d 50 ff 33 3d 71 cb a0 3d d7 41 36 be
       0.08528336 0.043944657 0.07851303 -0.17798553
0002e0 fc 1c 88 bd 68 86 42 bc 68 24 05 3e 26 92 76 3d
       -0.06646153 -0.011872865 0.13002169 0.06019797
0002f0 16 17 d6 bd c3 1a 05 bc 11 19 e9 3c 8b ef d2 3d
       -0.10453622 -0.008124056 0.028454335 0.102995954
000300 9f a9 20 3d 78 70 a2 3a ca 8c 97 bd 71 76 47 bb
       0.039224263 0.0012393137 -0.073999 -0.0030435587
000310 9e 44 28 3e 6e a9 59 3d c9 a1 46 bd ea ec f5 bc
       0.16432425 0.053140096 -0.048494134 -0.030020196
000320 69 60 c9 be 32 0f 51 3e f7 d3 21 3f e7 2e cb be
       -0.39331368 0.20415953 0.6321406 -0.3968422
000330 d9 93 00 3e e7 ba 14 3e 63 7e 7c 3e 65 fb bf 3e
       0.125564 0.14524423 0.24657588 0.37496486
000340 9f 19 f7 be 0b 96 01 3c 35 49 73 bf 46 78 bc be
       -0.48261735 0.007909308 -0.9503358 -0.3681051
000350 27 76 3b c0 31 ed 2f be 14 45 9c be c7 1f 1f 3d
       -2.9290864 -0.17180325 -0.30521452 0.038848665
000360 4d e2 5f bd 13 b3 3a 3e 38 43 8d 3d f5 96 bf 3d
       -0.054659177 0.18232374 0.068975866 0.09354965
000370 48 bb 12 3f a4 8c 0a 3e f2 5a 31 bd 9b a3 c9 3d
       0.5731702 0.13530213 -0.043299623 0.098456584
000380 47 cf 95 3e a0 74 4f 3e 6b 76 96 3c 29 64 c6 3e
       0.29259703 0.20259333 0.018367013 0.3874829
000390 7b 8b 27 bf 85 97 0b 3e 21 1a 0f be a3 4c a9 bd
       -0.65447205 0.13632019 -0.13974811 -0.082665704
0003a0 f4 5d 51 be 44 f0 89 3d c3 2b b9 bd c6 a9 19 bd
       -0.20445997 0.0673528 -0.0904155 -0.037515424
0003b0 02 05 9e be 51 1e ad bd 40 cb 3f bd a9 5a ba 3e
       -0.30863196 -0.08453048 -0.046824694 0.36397293
0003c0 bf 72 a1 3d b0 ee 91 bd ee 20 b9 3d ee 4a 37 bd
       0.07883214 -0.07125604 0.09039484 -0.044749193
0003d0 97 2b 11 3d 68 4d f1 3e 3c ea f4 be 19 c2 f7 bd
       0.03544196 0.4712937 -0.47834957 -0.12097568
0003e0 24 8d d5 bd 88 53 76 3e 20 35 cb 3c 73 d5 fd bc
       -0.10427311 0.24055302 0.024805605 -0.03098557
0003f0 c0 22 8a bd 51 52 ad be a4 04 1b 3d 07 57 32 be
       -0.06744909 -0.33851865 0.037846223 -0.17416011

controller.lstm.bias_ih f4 [400]
000000 7f 44 6c 3d cd c7 df 3d 7e c8 c4 3d 04 7e 8e 3d
       0.05768251 0.10926781 0.09608553 0.06957629
000010 15 05 ad 3d b8 00 06 3d 46 5d fc 3d 7a 00 5c 3e
       0.08448235 0.03271553 0.12322478 0.21484557
000020 d1 05 9a 3d 7f 59 0c 3e 1b 39 04 3e d9 ea 10 3e
       0.07520641 0.13706015 0.12912409 0.14152087
000030 9c e1 70 bd 3a a0 5d 3e 7f 81 80 3d aa b4 81 3b
       -0.058808908 0.21643153 0.062746994 0.0039583044
000040 0c 4c 85 3c c3 7d 8c 3d 01 69 8b 3d cd 30 8b 3d
       0.016271614 0.06859925 0.06807137 0.067964174
000050 db e6 e1 3d 2f cc dc 3d f3 6e 77 3d b7 d5 c1 3d
       0.1103036 0.107811324 0.060408544 0.09464591
000060 e4 9a f8 3d e6 f4 dd 3d ce e8 49 3e 0c 71 c2 3d
       0.12138918 0.10837726 0.19717714 0.09494218
000070 39 aa 2d 3d 2e 7e d4 3c d3 1f a7 3d 3e 56 fa 3d
       0.042398665 0.025939073 0.08160367 0.12223481
000080 8e 88 8d 3d 79 6f d6 3d 35 05 c4 3d 52 0c b9 bc
       0.06910811 0.104704805 0.09571306 -0.022588883
000090 af cc 62 bb a3 cf cb 3d 01 c8 e5 3c 93 ac 2e 3e
       -0.0034606864 0.09951713 0.02804947 0.1705802
0000a0 0b 64 c5 3d 16 3b 18 3e 7c 87 28 3e 6d 6f 37 bd
       0.09638222 0.1486629 0.16457933 -0.044784
0000b0 da 50 94 3d 87 9f 9d bb 3e 61 e5 3d 7e 50 63 3d
       0.07241984 -0.004810277 0.11200188 0.055496685
0000c0 4f c0 e2 3c 93 7a 17 3e 7d 6e ef 3d 44 6d c8 3d
       0.02767959 0.14792852 0.11690996 0.09786466
0000d0 32 fc 13 bc d4 f5 ea bc e1 1e 0b 3e cd 64 fc 3d
       -0.009032296 -0.028681673 0.13585998 0.12323914
0000e0 68 5b e6 3d 34 90 b9 3d 33 2b 74 3c e8 84 c9 3d
       0.11247903 0.09060708 0.014902878 0.09839803
0000f0 47 a6 67 bd 44 87 36 3d 53 b4 c1 3d 44 ef 32 3e
       -0.05655506 0.044562593 0.09458222 0.17474085
000100 b9 15 e4 3d 30 09 8c 3d c3 1c 22 3d 24 46 5c 3d
       0.11136956 0.0683769 0.03957821 0.05377783
000110 f9 4a fa 3d 55 00 ae 3b 5a 5d ef 3d 09 13 53 3a
       0.12221331 0.005310098 0.11687727 0.00080518477
000120 99 c6 66 3d b5 4e b3 3d 0f 1f fe bb 3f b6 e7 3d
       0.05634174 0.087552465 -0.0077551673 0.113140576
000130 6e 6e b5 3c 40 90 a4 3c a8 a4 b8 3d 76 e6 d1 3d
       0.022147384 0.020088315 0.09015781 0.10249035
000140 d7 08 0b 3e e9 75 d5 3d c0 ae bf 3d eb 6e 7f 3d
       0.13577591 0.1042288 0.09359503 0.06236164
000150 c5 40 0b 3e 00 b1 63 3d 1f 00 e0 bc 8a dc d8 bc
       0.13598926 0.055588722 -0.027343808 -0.026472349
000160 83 00 28 3d e5 9c 2c bc 84 11 ad bd 61 7b 7d 3d
       0.041016113 -0.010535453 -0.084506065 0.06188524
000170 8f b5 01 3e e7 45 da 3d 1b 3e ad 3d 63 91 27 3d
       0.12666915 0.10657864 0.08459111 0.040910136
000180 cf 9b da 3d 3c 22 0e 3e 86 61 85 3c 7f 95 34 3d
       0.106742494 0.13880247 0.016281854 0.044087883
000190 11 1c bc bc e9 2e 18 3d 72 07 cd 3d 71 ab f2 3b
       -0.022962602 0.037154112 0.10011186 0.0074056913
0001a0 d2 e9 ec 3c ba 44 7f 3d 39 ac e3 3c d1 5f 3b 3e
       0.028920088 0.062321402 0.027792083 0.1829827
0001b0 4d 08 cb 3d b9 81 1b 3d 63 02 3e 3d 25 9d 6f bd
       0.099136926 0.03796551 0.046388995 -0.058499474
0001c0 03 40 09 3b 7d 18 90 bc da a6 32 38 68 62 20 3d
       0.0020942695 -0.017589802 4.25939e-05 0.039156348
0001d0 69 44 6c 3d 87 66 05 3d 90 bf 95 3d b6 d8 85 3d
       0.05768243 0.03256848 0.07311928 0.06535475
0001e0 df d9 8e 3d cc bf 95 3d 2f 18 41 3d 81 b6 75 3d
       0.06975149 0.07311973 0.047142204 0.059988502
0001f0 3b 92 97 3d 6e 1f 0a 3e 43 be 21 3e 01 e9 2a 3d
       0.07400938 0.13488552 0.15795235 0.041726116
000200 88 80 9b 3c 69 05 9c 3d d0 9a 40 3d 0b bc af 3d
       0.018982187 0.076182194 0.04702264 0.08580788
000210 2f 02 90 3d ae fb 2f 3e b5 dc 41 3d 08 73 c3 3d
       0.070316665 0.17185852 0.047329623 0.09543425
000220 3e 51 31 3d 72 fb 6e 3d 16 0c 7a 3d ae cf a0 bd
       0.04329037 0.058345266 0.061046682 -0.07852112
000230 55 ad 89 3d 71 64 fc 3d 2d 32 19 3d 28 f1 e2 bd
       0.067225136 0.12323845 0.037401367 -0.11081153
000240 54 42 93 3d e3 01 17 bd 6c 19 19 3d 20 1c af 3d
       0.071903855 -0.036867034 0.03737776 0.08550286
000250 dd 17 08 bd a8 da 07 3e b2 31 8d 3d ac a2 0a 3d
       -0.033225883 0.13267004 0.06894244 0.033846542
000260 50 5f c4 bc 3d ee 0d bc 9a 49 1a 3e 00 7c 80 3d
       -0.02397123 -0.008662757 0.1506714 0.06273651
000270 56 34 1a 3c 41 9d 2d bd f3 39 c6 bc f7 a2 52 3d
       0.009411892 -0.042386297 -0.024197554 0.051424947
000280 12 fd c2 3d cf e4 2d 3d 13 b3 11 3e 7b 56 1b 3d
       0.095209256 0.042454537 0.14228468 0.03792427
000290 0e e3 04 3b ea 7a dc bc 09 e8 64 3d a5 ec f3 bc
       0.0020276937 -0.026914079 0.05588535 -0.029775927
0002a0 a9 36 93 3d bb 9e b0 3d d1 23 1e bc 80 7b 10 bd
       0.0718816 0.086240254 -0.009652094 -0.03527403
0002b0 0a a3 9c 3d 15 b3 65 3d ff 32 14 3d e1 d8 84 3d
       0.07648285 0.05607899 0.036181446 0.06486679
0002c0 4e 77 76 3d 96 7c 35 3d 14 62 84 3d d5 4c ce bd
       0.06017237 0.044308268 0.064640194 -0.10073248
0002d0 84 e0 bf bc bb 92 80 3d 3a 01 81 3d 2f 09 f4 3c
       -0.023422487 0.062779866 0.06299062 0.029789535
0002e0 33 8b 19 3d 01 1f ac 3d 3f 20 80 bc a1 49 9e bd
       0.037486266 0.08404351 -0.015640376 -0.07728887
0002f0 6c 57 07 3c 05 1e 55 3c 44 3a 25 3d 28 66 9c 3d
       0.008260589 0.0130076455 0.04033877 0.07636672
000300 3d 63 c4 3b f0 8d 88 3c d9 ef 89 3d bf 03 c7 bb
       0.0059932754 0.016669244 0.067352004 -0.0060734446
000310 55 14 ad 3d 49 a2 47 3d 31 11 22 3e 11 9b 83 3d
       0.08451144 0.04873875 0.1582687 0.06426061
000320 3f aa b9 3d ec da 1f bc c9 94 8b 3c b8 c1 22 bc
       0.09065675 -0.009756785 0.01703872 -0.009933881
000330 ad 5e df bd 47 dd dc 3c 2b 7a 1f 3b 75 33 5b 3d
       -0.1090673 0.026960982 0.0024334292 0.05351587
000340 b4 6b e2 bc c5 61 a7 bd 52 50 c7 3a e1 27 f0 3d
       -0.027639247 -0.08172945 0.0015206432 0.11726356
000350 73 92 b8 3d c2 65 1f bd 0f 84 a4 3d e9 e2 b0 bd
       0.09012308 -0.038915403 0.08033001 -0.0863703
000360 39 a4 b6 bc ed 82 92 bd 8f 2d cf bd 9e fa c4 bd
       -0.022295104 -0.07153878 -0.101161115 -0.09618114
000370 43 74 f9 bd 43 07 f9 bd b7 80 de 3d 5f ed 57 bd
       -0.12180378 -0.12159588 0.10864394 -0.05271661
000380 30 ca 78 3d 84 2c c3 3d 64 66 f9 bd e0 6b 82 3d
       0.060739696 0.09529975 -0.121777326 0.06368232
000390 dd f6 11 be 15 49 55 bd 00 14 e5 3d a6 35 07 3e
       -0.14254327 -0.05207165 0.11185455 0.13204059
0003a0 16 09 cc 3d 5b c1 29 be 25 a8 f6 bc 8c f5 e8 bb
       0.099626705 -0.16577666 -0.030109474 -0.0071093496
0003b0 ba 95 bf 3d 84 1c 66 bd ac e7 e8 bc 40 67 a6 bd
       0.0935473 -0.05617954 -0.028430782 -0.08125162
0003c0 17 44 e2 bd 51 02 19 bd 30 ca 04 bd d4 91 2a 3c
       -0.11048143 -0.037355725 -0.032419384 0.010410745
0003d0 ea 04 74 3c dd f1 0a bc 21 77 f3 3d dd eb 68 bd
       0.01489375 -0.008480516 0.118879564 -0.05686556
0003e0 ee 6d 8d ba 57 1b 83 bd 0d 3e 01 be 49 d6 2b 3d
       -0.0010790208 -0.06401699 -0.12621327 0.041952405
0003f0 ef f2 53 3a 8c c8 3d be 52 3f be 3d b0 3a c9 3d
       0.0008085211 -0.18533534 0.09289421 0.09825647

controller.lstm.bias_hh f4 [400]
000000 41 69 45 3d eb b4 b0 3d 87 13 07 3e 92 28 86 3d
       0.04819608 0.08628257 0.13191043 0.06550707
000010 cc 40 ac 3d ac fe 59 3d 72 27 df 3d 42 85 50 3e
       0.084107965 0.05322139 0.108961955 0.20363334
000020 cd 43 29 3d c7 5d 06 3e ec 5e f9 3d ac a4 06 3e
       0.041324425 0.1312171 0.12176308 0.13148755
000030 d5 59 08 39 86 5d 4a 3e 97 ab 4a 3d 04 b9 83 3c
       0.00013003436 0.19762239 0.049480047 0.016079433
000040 2a a7 d8 3c ae 6e b9 3d a8 3d 84 3d 60 b2 88 3d
       0.026446898 0.090543136 0.064570725 0.06674647
000050 e8 e0 e2 3d aa d2 dc 3d 7c 90 96 3d 9f f3 c1 3d
       0.11078054 0.107823685 0.07351777 0.09470295
000060 56 2e ea 3d 5a 63 cf 3d a8 70 bd 3d f4 05 c0 3d
       0.11434619 0.10126372 0.09250003 0.093761355
000070 2b 92 1a 3d 2c d8 06 3d 05 22 ac 3d 47 97 f9 3d
       0.037737053 0.032921 0.08404926 0.12187057
000080 b6 22 90 3d 92 90 ba 3d 47 9b b7 3d a2 eb f5 bc
       0.070378706 0.09109606 0.08965164 -0.030019585
000090 a6 0b 00 3d a6 1a 17 3e 28 9b d7 3c 09 29 f0 3d
       0.03126111 0.1475626 0.026319101 0.11726577
0000a0 15 cb c4 3d 67 99 c1 3d 4a 5f 22 3e ae 06 7d bd
       0.09609047 0.09453087 0.15856662 -0.06177395
0000b0 4b 9d 97 3d 50 da e7 bc a6 61 bc 3d e0 bf 8e 3d
       0.07403048 -0.028302342 0.091983125 0.06970191
0000c0 4d 1b 39 3c 29 a6 1a 3e 3c 98 d3 3d 6a 13 c8 3d
       0.011298013 0.15102448 0.10331771 0.09769328
0000d0 6f 03 1f bd f0 d2 da 3c ed 29 06 3e 85 dd f7 3d
       -0.038821634 0.026711911 0.13101931 0.12102798
0000e0 ce f1 c7 3d 30 f1 fe 3c b0 46 48 3c 0e 39 bd 3d
       0.097629175 0.031120867 0.012223884 0.09239398
0000f0 02 1d 51 3c 02 b7 04 3d ea f4 3a 3d 79 a6 28 3e
       0.012763264 0.032401092 0.045643725 0.16469754
000100 83 31 07 3e a5 87 98 3c 34 a6 16 3d 51 88 ff 3c
       0.13202481 0.018619368 0.036779597 0.03119293
000110 8c 2a f4 3d 43 75 09 bd 9d a1 15 3e e8 6f 2d 3c
       0.11922178 -0.033559095 0.14612432 0.010585763
000120 d9 b9 bf 3d 2f 83 b5 3d 01 b0 1e 3d 72 9f b5 3d
       0.093616195 0.08862912 0.03874207 0.088683024
000130 bf 69 e1 3a 6a 38 1a 3d 5e 4f ba 3d d5 14 e6 3d
       0.0017197652 0.037651457 0.09097169 0.11234442
000140 e8 44 cd 3d f8 75 d1 3d 94 ae b2 3d 28 c2 81 3d
       0.100229084 0.10227579 0.087247044 0.063358605
000150 92 c6 00 3e f8 7b 63 3d e5 d8 4a bd 7b ec 85 bc
       0.12575749 0.055538148 -0.049523253 -0.016348114
000160 7b af 1d 3d cf 5e ea bc 95 74 a6 bd d9 50 94 3d
       0.03849743 -0.028609661 -0.08127705 0.07241983
000170 a6 51 d3 3d 89 ad 8a 3d e4 e9 ae 3d b0 7c 28 3d
       0.103183076 0.067713805 0.08540705 0.041134536
000180 7d 75 da 3d 28 5c 0e 3e 7e d0 5d 3d 4b dd 46 3d
       0.1066694 0.13902342 0.05415391 0.048550885
000190 68 02 b8 bc f5 34 e5 3d a7 aa ef 3d e8 d2 7d 3b
       -0.022462085 0.111917414 0.11702471 0.0038730446
0001a0 4e 83 1d bc 3d b7 63 3d f3 84 20 3c 2a 7f 43 3e
       -0.009613825 0.05559467 0.009797323 0.19091478
0001b0 b3 ca ca 3d bb 1b 1b 3d 79 ec 4d 3d c1 70 50 bd
       0.09901943 0.037868243 0.050274346 -0.05088878
0001c0 6f 1a d9 3d ab 75 35 bd 73 ad 77 bb 1c 04 33 3d
       0.10600745 -0.04430167 -0.0037792593 0.04370509
0001d0 a7 db 68 3d 1c 6c 5b 3c c6 cf 95 3d 11 e7 85 3d
       0.0568501 0.0133924745 0.0731502 0.06538213
0001e0 7e db 8e 3d 11 bf 95 3d 55 b2 3b 3d 3d 0e 74 3d
       0.069754586 0.07311834 0.045824368 0.05958389
0001f0 d3 db a1 3d 1d 68 05 3e 8c 94 0f 3e 6c f6 2a 3d
       0.07903256 0.13027997 0.1402151 0.041738912
000200 08 9a 3f bb 11 2c 97 3d cb 2d 46 3d c3 b8 af 3d
       -0.0029236097 0.07381452 0.048383515 0.085801624
000210 45 06 90 3d 1a 35 35 3e 56 5e ee 3c 75 df bd 3d
       0.07032446 0.17696038 0.029097717 0.09271137
000220 c6 46 44 3d e1 3d 90 3d c6 59 67 3d c4 89 84 bd
       0.047919057 0.070430525 0.0564821 -0.06471589
000230 46 ad 89 3d 00 46 bc 3d a0 7f 77 3d f9 16 80 bd
       0.067225024 0.09193039 0.060424447 -0.06254382
000240 96 df 97 3d aa 38 ce 3c 32 2f 60 3d 42 cb 31 3d
       0.074156925 0.025173504 0.05473251 0.043406732
000250 bf 48 23 bd e1 99 21 3e 4f 2a 8d 3d 71 ba 0f 3d
       -0.039864298 0.15781356 0.06892835 0.035089914
000260 0e 06 ce bc dc 20 25 3d a0 6c fb 3d 06 e7 57 3d
       -0.025149371 0.04031454 0.12276578 0.052710555
000270 36 68 e0 3d 90 bc 37 bd 3e df c5 bc 0c e3 f6 3b
       0.10957377 -0.04485756 -0.024154302 0.0075343903
000280 7e 37 11 3d 56 2e 56 3d d6 3c eb 3d bd 62 0a 3d
       0.035453312 0.052290283 0.11486213 0.03378557
000290 69 6f 82 3c c7 03 56 bd 27 96 76 3d 33 2c 82 bb
       0.015922265 -0.052249696 0.06020179 -0.003972554
0002a0 b6 39 93 3d 46 ee a4 3d 56 f6 d9 3b e5 75 15 bd
       0.07188742 0.080532596 0.00665168 -0.036489386
0002b0 c3 ff 9c 3c f6 b8 65 3d 57 8b c5 3c 44 c3 68 3d
       0.019164925 0.056084596 0.024114294 0.056826845
0002c0 ac c7 8e 3d 8f 35 91 3d 50 42 84 3d de 2c 55 bd
       0.06971678 0.070902936 0.064579606 -0.05204474
0002d0 37 0f ba 3d 25 92 80 3d 06 01 81 3d ac 0f c2 3d
       0.09084933 0.06277875 0.06299023 0.094756454
0002e0 cb 27 0b 3d 3b 0c f1 3c f0 3f 13 3c e3 c4 44 bd
       0.033973496 0.029424777 0.008987412 -0.04803933
0002f0 09 ff db 3b d6 de f1 3d 8c 6d c2 3d c5 7f 9d 3d
       0.006713752 0.11810081 0.09493551 0.07690386
000300 4d f2 bb 3c f3 2e 8d 3c ac e5 89 3d 1f 5c c3 3b
       0.022942686 0.017234301 0.067332596 0.0059619094
000310 a2 14 ad 3d 8b b0 95 3c b8 0d 13 3e 11 a9 80 3d
       0.08451201 0.018272659 0.14360702 0.06282247
000320 da 6e c0 3d 70 fb b5 bd 77 09 71 3d d2 db f0 3b
       0.09396143 -0.088858485 0.058846917 0.0073504234
000330 97 31 d5 bd ab f9 a1 bc 3f c4 49 ba ca 0f 1c 3e
       -0.10409849 -0.019772371 -0.00076967845 0.15240398
000340 df b6 e0 bc 67 4f 8d bd df 45 7d 3b a1 f1 c0 3d
       -0.02743095 -0.068999104 0.0038646383 0.09421087
000350 18 9d 9c 3b 25 71 15 bd 19 b5 6c 3d 62 0d a3 bd
       0.004779469 -0.036484856 0.057789896 -0.07961537
000360 3e 30 c7 b9 24 5e 01 be c0 4b d5 bd b6 2a b7 bd
       -0.0003799218 -0.12633568 -0.10414839 -0.08943693
000370 d8 bb f8 bd 1a 0a f8 bd 86 c2 44 3d 0f 2b 5b bd
       -0.12145203 -0.12111302 0.048037075 -0.05350786
000380 5d 14 0e 3e 11 ab 41 3b 72 bf 40 3d e7 5e 91 bb
       0.13874955 0.0029551426 0.047057576 -0.004436362
000390 b1 ec f6 bd 64 58 ea 3c 4a d9 e5 3d 66 39 07 3e
       -0.12056864 0.028606601 0.11223085 0.1320549
0003a0 45 57 cb 3d 05 94 9f bd 19 6c 6c 3c b6 0b fc 3d
       0.09928755 -0.07791904 0.014430069 0.12306921
0003b0 8a 4d bc 3d a2 1b bd bd 6c 3a a2 3c 94 fd 02 be
       0.09194477 -0.09233786 0.019803248 -0.12792045
0003c0 80 a7 e5 bd 16 f4 2c bc e4 7c 96 bd a0 54 ad bd
       -0.11213589 -0.0105562415 -0.0734804 -0.084634066
0003d0 71 0c 8c bb 5d 9e ac bc ff 30 08 3e 5b a2 a9 3c
       -0.004273944 -0.021071607 0.1329994 0.0207073
0003e0 a8 74 1e bd 51 0b ed bd ae 90 ef bd ba 29 4e 3d
       -0.03868547 -0.11574424 -0.11697517 0.050332762
0003f0 c1 78 3e 3b 18 d6 2b be 66 4e 8d 3d ae d3 aa 3d
       0.0029063674 -0.16780889 0.06899719 0.08341156

controller.fc_out.weight f4 [1000, 100]
000000 b8 97 90 3e 33 ff 93 be 1a ea ac be 84 03 27 3e
       0.28240752 -0.2890564 -0.33772355 0.16309935
000010 32 02 79 be cf 26 71 3e 84 af 7f be 56 38 0c 3f
       -0.24317244 0.2354996 -0.24969298 0.5477346
000020 b9 01 8d be 1f 5a 0a bf c8 6d 40 3e 93 77 16 3f
       -0.27540377 -0.54043764 0.18791878 0.58776206
000030 91 3c a7 bd 5b b3 32 bf 14 e0 86 3e 94 ef 8b be
       -0.08165849 -0.69804925 0.26342833 -0.2733122
000040 40 7a 44 bd c4 3a a1 be a1 f0 a0 be 23 0f 4c be
       -0.04796815 -0.31490147 -0.31433585 -0.19927649
000050 e4 11 0a bf 0d dd b9 be 90 c4 13 3e 7c 23 be be
       -0.5393355 -0.3630146 0.14430451 -0.37136447
000060 e5 51 03 3f a8 fc 24 3e 0f eb b7 be 95 3b c4 3e
       0.51296836 0.16112006 -0.35921523 0.38326707
000070 b3 52 ca be 7c ca ef 3d 5b 16 ea 3e 4c 34 fe 3e
       -0.3951622 0.11708543 0.4572018 0.49649274
000080 7d 3f ac 3e cf 90 fa be ce 83 e9 bd a4 08 c3 3e
       0.33642188 -0.48938605 -0.11402093 0.3809253
000090 9f bf 7f 3e 0c 43 15 bf 94 ad df 3d 7e 04 3f bf
       0.24975441 -0.5830543 0.10921779 -0.7461623
0000a0 a5 3e e5 be 98 db 08 bf 6f b4 17 bf 0d da 6b be
       -0.44774356 -0.53460073 -0.59259695 -0.23032399
0000b0 f8 a2 7c 3d d0 95 8b bd bf 58 17 3f 20 b7 a7 be
       0.061678857 -0.06815684 0.5911979 -0.327569
0000c0 0a 22 c1 3d d3 60 22 bf 3e 52 ef be 6f 35 78 3e
       0.094303206 -0.6342899 -0.46742433 0.24239133
0000d0 89 73 83 3c b7 86 06 bf b9 4e ed 3e 92 c2 0e 3f
       0.016046302 -0.5254931 0.46349123 0.5576564
0000e0 3f 13 f5 be 38 b5 a1 3e 41 81 e7 bd 5a 48 2b bf
       -0.47866246 0.3158357 -0.1130395 -0.66907275
0000f0 23 02 54 3d 99 df 88 be 35 7e 41 3e 27 6b 36 bf
       0.05175985 -0.2673309 0.188958 -0.7125725
000100 07 b5 39 3f 40 fc ae 3e f2 5e 2e 3d 4b e2 1a bf
       0.7254185 0.34176826 0.042571016 -0.60501546
000110 19 7b c2 be 9a a5 e4 3e 44 4d e9 be 48 73 47 3d
       -0.3798454 0.44657594 -0.45566761 0.048693925
000120 88 1a d2 be f3 75 ac 3e 8f 02 8c be 16 d6 4f 3f
       -0.41035867 0.33683738 -0.27345702 0.81186044
000130 13 ae 6c be 09 f4 ee bd a4 c5 c4 be b6 d5 e2 3e
       -0.23113279 -0.1166764 -0.38432038 0.44303674
000140 61 c4 0a bf 03 e2 d5 3e 98 f2 f4 3e a8 e7 8b be
       -0.542059 0.41773996 0.47841334 -0.27325177
000150 b1 6e 18 bf b0 a3 84 3e a8 ec d5 bd d4 51 dc bd
       -0.595439 0.25906134 -0.10445529 -0.10757795
000160 de 28 a8 be d1 30 10 3e 5b 52 df bc 0a 8f 04 be
       -0.3284368 0.14081122 -0.02726095 -0.1294519
000170 34 1f ba 3e 7c 5e 86 be 41 06 9a be 2d 59 7e be
       0.3635193 -0.2624396 -0.30082896 -0.24838705
000180 69 67 d3 3e fe 19 b3 3e 64 76 a8 be 19 64 42 be
       0.41289833 0.34980768 -0.32902825 -0.18983497
000190 af 38 2f 3e c2 11 81 bf 82 4f 0c be 41 0b 9c be
       0.17111467 -1.0083544 -0.13702205 -0.30477336
0001a0 fd a9 a8 be e7 81 a8 3f 85 1a 39 bf cd 96 af be
       -0.3294219 1.3164643 -0.7230609 -0.3429474
0001b0 16 5e fa bd b8 dd 19 3e c6 8f 31 3d 2b 11 ab 3e
       -0.12224977 0.15025985 0.043350004 0.33411536
0001c0 18 aa 0d 3f ef de 94 bf 35 7a ad 3c fd ba 42 3e
       0.5533767 -1.1630534 0.021176437 0.19016643
0001d0 bf a6 82 3c 37 c2 7b be 69 a8 80 be 0f fe 29 be
       0.015948651 -0.24585806 -0.25128487 -0.16600822
0001e0 ed 5c 74 be c0 93 66 3e f3 ef 04 3f 2e 65 94 bd
       -0.23863573 0.225173 0.51928633 -0.07245861
0001f0 e7 a4 87 bf b8 9d d8 3d f1 4b 98 be 0e 43 25 be
       -1.0597199 0.105769575 -0.2974544 -0.1613886
000200 94 33 a9 bd 0a 5a c4 bf bf d4 6d bf 1b ed 82 be
       -0.08261791 -1.5339978 -0.9290275 -0.25571522
000210 73 0d 09 3e 38 ef cd bd f6 00 18 3e 85 3f bc 3d
       0.13384037 -0.10055393 0.14844117 0.09191803
000220 45 18 4e be 41 e9 0b 3e b4 fb 9d be 45 4a fd 3e
       -0.20126446 0.13663198 -0.30856097 0.49470726
000230 d5 a6 2e 3f 5e 2e 14 be 2f 9e d1 bd 22 a8 b8 3b
       0.68223315 -0.14470813 -0.10235249 0.0056352774
000240 02 9d 2c 3f 45 dd f3 bc ea fc 2b 3d b0 b3 93 3e
       0.67427075 -0.029768595 0.041989245 0.28848028
000250 0f ab 0a 3d cf 06 34 3f 1e c2 33 bd 8f 86 3a 3d
       0.03385454 0.7032289 -0.043886296 0.04553848
000260 76 bf d5 3c c1 57 dc be 40 07 b7 3e a1 42 82 bf
       0.026092272 -0.430357 0.3574772 -1.0176584
000270 81 84 75 bf 24 a5 40 be 09 ca ff bb 06 07 0e 3e
       -0.9590531 -0.18812996 -0.007806067 0.13869867
000280 27 70 98 3e e3 04 0e 3f c8 95 e8 be 32 49 12 bf
       0.29773065 0.55476207 -0.45426774 -0.5714294
000290 4c be b8 be 96 c1 07 bf 64 4f 85 3f 07 b6 7d bf
       -0.36082685 -0.53029764 1.0414853 -0.99105877
0002a0 4f 8b 1f 3f 06 48 42 bf 62 75 70 3f 6c 99 40 3d
       0.62321943 -0.7589115 0.9392911 0.047021315
0002b0 a3 e1 2c bf 6a 3a 7e bf 20 0d 3b bb ab 2f f0 be
       -0.67531794 -0.9930788 -0.0028541759 -0.46911368
0002c0 98 33 46 3e 5f eb b9 3e 34 67 99 bc cc 57 83 bf
       0.19355619 0.36312386 -0.018725969 -1.0261168
0002d0 c9 9e 13 3e 94 89 98 bd d6 dd f8 be 30 56 4d be
       0.1441604 -0.07448116 -0.48606747 -0.20052409
0002e0 4b 04 70 3e f6 b6 94 bd cf 1a 01 3e 6c fe 16 3e
       0.23439138 -0.072614595 0.12607883 0.14745492
0002f0 13 3a 18 3e b4 f6 87 3e 79 db bc be 21 47 44 bf
       0.14865904 0.26555407 -0.36886194 -0.76671034
000300 38 35 28 3f e4 d1 06 3d 16 7f d5 bc 9e aa 45 c0
       0.65706205 0.03291501 -0.026061576 -3.0885386
000310 96 17 ec be 13 ca 7a bf 76 d0 16 40 e1 07 68 3e
       -0.46111745 -0.9796459 2.3564734 0.22659256
000320 62 05 07 3e 29 a4 e3 3e 32 65 28 c0 6b c6 82 be
       0.13185647 0.44461182 -2.6311765 -0.25542006
000330 0c b7 03 bf 8a 3b c6 3c f2 0e ad 3e cb 0b 15 3f
       -0.5145118 0.024198312 0.33800465 0.5822112
000340 a6 61 a7 3f fe e8 73 be 9a 8d 90 3f b4 da 9f bf
       1.3076675 -0.23819348 1.1293213 -1.2488618
000350 51 e0 ba 3f 17 38 48 3f 98 69 c9 3d 31 b4 65 be
       1.4599706 0.78210586 0.098345935 -0.22432019
000360 e1 96 89 be db 76 37 bf f2 04 17 bf 6b 8e 04 be
       -0.26872924 -0.71665734 -0.5899192 -0.12944953
000370 a2 7f a3 3e 9b 6e 2d bf aa 98 9b bd 63 77 68 3e
       0.31933314 -0.67746896 -0.07597478 0.22701792
000380 76 94 11 bf c9 1f 86 bf 71 5d 20 be 01 c1 87 bf
       -0.5686716 -1.047845 -0.15660645 -1.0605775
000390 39 14 c2 bd 49 86 af be e1 72 fa 3e b6 20 7b 3f
       -0.094765134 -0.3428214 0.4891577 0.9809679
0003a0 f3 6b dc 3e 9d 15 07 bf 6e 9b 75 3e 27 c2 f0 3e
       0.4305111 -0.52767354 0.23985073 0.47023126
0003b0 41 7f 26 3f c0 22 29 c0 d6 08 90 be 42 ff 62 3d
       0.65037924 -2.642746 -0.2813174 0.055419214
0003c0 f9 26 4b be e0 be 7e bf 56 ed 84 3e 86 02 8f bc
       -0.19839086 -0.9951 0.25962323 -0.017457258
0003d0 5b 8f 86 bf 2c 17 50 bf 4d 89 2d be 1e 08 78 3f
       -1.0512499 -0.8128536 -0.16946907 0.96887386
0003e0 1f 6a 28 3e cf 8d 13 c0 9b 02 38 be ee b1 2f 3e
       0.16446732 -2.3055303 -0.17969744 0.17157719
0003f0 4b 7d 47 3e 17 73 61 3f dc 7c 82 be c0 7e c9 3f
       0.19481389 0.8806624 -0.25485885 1.5741806

controller.fc_out.bias f4 [1000]
000000 b9 11 88 3f da ff 1c bd 58 db 66 3e c5 f1 4b 3e
       1.0630409 -0.038329937 0.2254461 0.19916447
000010 fa 69 42 3e 16 24 88 bb c9 33 6d bd 16 fe f5 3e
       0.1898574 -0.0041546924 -0.057910714 0.48045415
000020 7c 61 c1 3e 7b 78 61 3e 44 ea 8c 3e 93 b8 74 bd
       0.37769687 0.22018616 0.2752248 -0.059746336
000030 ac b8 d5 3b 9b bb 47 3d b4 e7 20 bc 41 76 9b 3d
       0.0065222587 0.0487629 -0.009820867 0.075909145
000040 b3 08 21 be 3b f4 4a bd 4b 32 e8 3d ce 98 e5 3c
       -0.15725975 -0.049549323 0.113377176 0.028026965
000050 11 3e f4 bc 30 b4 de bc 8d d1 1c 3d 55 e3 dc 3d
       -0.029814752 -0.02718553 0.03828578 0.10785548
000060 b4 ba 1e bd 99 88 ec bc 2a af 1b bc a2 05 67 3c
       -0.038752273 -0.028873729 -0.009502212 0.014100464
000070 3b 35 92 3d 3a 8c e6 3d 6a 84 90 3e fe 81 ce 3d
       0.07139059 0.11257215 0.28226024 0.10083388
000080 f1 de 80 3d 19 68 65 3d b5 a8 86 bb 49 a2 85 bb
       0.06292523 0.05600748 -0.004109467 -0.004078184
000090 da 63 86 bb 38 84 84 bb 0f c4 85 bb 70 14 86 bb
       -0.0041012587 -0.004044082 -0.00408221 -0.004091792
0000a0 6c 8a 87 bb 65 67 85 bb 32 16 86 bb 44 ae 85 bb
       -0.004136374 -0.0040711635 -0.0040920014 -0.004079612
0000b0 1a f8 85 bb e6 21 88 bb 1f a1 84 bb 39 e1 86 bb
       -0.004088414 -0.0041544316 -0.0040475274 -0.004116204
0000c0 55 d7 84 bb 63 05 88 bb e9 ad 86 bb 4a ee 84 bb
       -0.00405399 -0.004151033 -0.004110087 -0.0040567266
0000d0 e2 38 87 bb 2b 84 85 bb a6 ab 85 bb a7 c0 86 bb
       -0.004126654 -0.0040745935 -0.0040793 -0.0041123214
0000e0 82 fe 87 bb 5a c5 85 bb 3e 73 84 bb f3 91 86 bb
       -0.0041502127 -0.004082364 -0.0040420583 -0.004106754
0000f0 9d 7f 84 bb e0 52 87 bb 7d 29 87 bb ad aa 85 bb
       -0.004043533 -0.0041297525 -0.004124819 -0.004079184
000100 93 41 86 bb 48 54 86 bb ce 86 87 bb eb 1f 84 bb
       -0.0040971725 -0.0040994026 -0.004135943 -0.004032125
000110 f5 29 86 bb 2a 42 85 bb bf c7 84 bb 9a 12 85 bb
       -0.004094357 -0.0040667253 -0.004052132 -0.0040610554
000120 21 9c 87 bb 8c 20 85 bb ab 8d 85 bb ca ca 86 bb
       -0.004138485 -0.004062718 -0.004075726 -0.00411353
000130 bd ed 87 bb 86 db 85 bb cb 7d 84 bb 0d 3e 88 bb
       -0.0041482137 -0.004085007 -0.004043316 -0.0041577877
000140 7f 68 85 bb aa 6f 87 bb 0f 6e 84 bb 70 1c 85 bb
       -0.004071295 -0.0041331844 -0.0040414403 -0.004062228
000150 87 1b 87 bb b1 2b 88 bb cf ab 84 bb ef 09 86 bb
       -0.0041231546 -0.004155599 -0.0040488015 -0.0040905396
000160 8b 6f 86 bb 75 9c 87 bb 15 be 86 bb 96 92 86 bb
       -0.0041026524 -0.004138524 -0.004112015 -0.00410683
000170 88 62 85 bb 55 d1 87 bb 17 f6 85 bb 11 11 86 bb
       -0.0040705837 -0.0041448274 -0.004088174 -0.00409139
000180 30 af 86 bb aa ee 85 bb ee 53 85 bb 95 30 86 bb
       -0.0041102394 -0.004087289 -0.004068843 -0.004095147
000190 33 ab 87 bb e4 52 87 bb b7 88 84 bb 98 a9 84 bb
       -0.0041402816 -0.0041297544 -0.004044618 -0.0040485375
0001a0 38 14 87 bb 01 9e 87 bb 2b 52 87 bb 09 36 86 bb
       -0.0041222833 -0.0041387086 -0.004129668 -0.004095797
0001b0 e4 f8 84 bb 25 55 88 bb 1f fd 84 bb d3 31 87 bb
       -0.0040579904 -0.0041605406 -0.0040584947 -0.0041258126
0001c0 5c bc 84 bb e9 ec 86 bb 3b 10 85 bb 0b 0b 87 bb
       -0.0040507745 -0.0041175974 -0.0040607727 -0.0041211895
0001d0 f7 87 87 bb 42 ce 86 bb 84 39 86 bb 45 86 85 bb
       -0.0041360813 -0.0041139433 -0.004096212 -0.004074844
0001e0 fc d5 87 bb 32 12 88 bb c2 f4 85 bb ec 35 86 bb
       -0.004145382 -0.0041525597 -0.0040880153 -0.0040957835
0001f0 ed 2c 86 bb 0f 96 86 bb 25 5f 87 bb 27 53 88 bb
       -0.004094711 -0.004107244 -0.004131215 -0.004160303
000200 5e 8a 86 bb 6d fa 85 bb ba 43 85 bb 7f ce 85 bb
       -0.00410585 -0.004088691 -0.0040669115 -0.004083454
000210 23 e5 87 bb ca 2c 87 bb a9 50 87 bb 43 f5 85 bb
       -0.0041471883 -0.0041252123 -0.0041294885 -0.0040880754
000220 e9 dd 86 bb 46 a6 86 bb 58 5a 85 bb 83 38 85 bb
       -0.004115809 -0.004109177 -0.0040696077 -0.0040655746
000230 9d 04 85 bb 60 82 87 bb 39 6c 85 bb 5c da 87 bb
       -0.004059388 -0.004135415 -0.004071739 -0.0041459035
000240 cf 62 85 bb 97 5d 88 bb c1 e3 84 bb 69 07 87 bb
       -0.004070617 -0.0041615474 -0.0040554707 -0.0041207564
000250 0f 83 85 bb 50 5a 88 bb b3 80 86 bb 94 c5 86 bb
       -0.0040744613 -0.0041611567 -0.0041046976 -0.0041129086
000260 55 93 86 bb f9 43 88 bb 84 6d 84 bb 9d e4 84 bb
       -0.004106919 -0.0041584936 -0.0040413756 -0.004055573
000270 5c e0 87 bb 2c ac 84 bb ed cd 83 bb d2 fc 86 bb
       -0.004146619 -0.004048845 -0.004022351 -0.004119494
000280 99 70 86 bb d9 7b 85 bb 83 db 84 bb 50 b2 86 bb
       -0.004102778 -0.0040736017 -0.004054488 -0.004110612
000290 3a f2 85 bb ab 9c 84 bb cb b2 87 bb e0 bd 87 bb
       -0.0040877135 -0.0040469966 -0.004141187 -0.004142508
0002a0 3a 5f 86 bb eb 7a 84 bb 69 8e 87 bb 39 2d 84 bb
       -0.0041007074 -0.0040429733 -0.0041368497 -0.0040337113
0002b0 a0 7e 87 bb 8c 86 87 bb 0e 5d 86 bb c9 68 87 bb
       -0.004134968 -0.0041359123 -0.0041004485 -0.0041323644
0002c0 b2 2c 87 bb 4c aa 85 bb 20 80 86 bb 37 d3 86 bb
       -0.004125201 -0.004079139 -0.004104629 -0.0041145342
0002d0 df 9c 86 bb d0 a8 85 bb 80 ea 87 bb 89 a6 85 bb
       -0.004108056 -0.004078962 -0.0041478276 -0.0040786904
0002e0 60 a0 85 bb 5e a9 85 bb 8c 30 85 bb 62 4d 86 bb
       -0.004077956 -0.004079028 -0.004064625 -0.00409858
0002f0 3d 67 86 bb 5a ee 86 bb 97 fd 83 bb c0 09 86 bb
       -0.0041016624 -0.004117769 -0.004028033 -0.0040905178
000300 b8 ca 84 bb 19 ab 87 bb 26 e7 86 bb 97 0c 85 bb
       -0.0040524863 -0.0041402695 -0.0041169105 -0.0040603387
000310 a3 66 84 bb 63 89 86 bb 53 76 86 bb b1 12 87 bb
       -0.0040405556 -0.0041057332 -0.004103461 -0.0041221012
000320 81 d1 85 bb 36 96 86 bb 71 5b 86 bb d5 22 87 bb
       -0.0040838127 -0.004107262 -0.004100256 -0.0041240253
000330 d7 6e 85 bb b5 43 86 bb f5 18 85 bb 54 34 86 bb
       -0.004072051 -0.004097427 -0.004061813 -0.0040955935
000340 7f 5a 86 bb 31 64 85 bb 67 ad 85 bb 29 93 85 bb
       -0.0041001434 -0.0040707816 -0.004079509 -0.0040763807
000350 98 1c 84 bb 41 e5 87 bb eb f7 86 bb ab 6a 84 bb
       -0.004031729 -0.0041472022 -0.0041189096 -0.004041036
000360 4a 11 86 bb d0 34 86 bb bf ae 85 bb c6 a1 86 bb
       -0.0040914165 -0.004095651 -0.0040796692 -0.0041086404
000370 ed f4 86 bb e6 f4 85 bb fc fb 87 bb 99 85 85 bb
       -0.004118553 -0.004088032 -0.004149912 -0.004074764
000380 1e 6d 87 bb 41 73 87 bb 88 90 84 bb bd 1a 85 bb
       -0.004132881 -0.0041336124 -0.00404555 -0.0040620253
000390 fa 6f 85 bb d6 39 86 bb 8a 03 85 bb 4c 76 85 bb
       -0.0040721865 -0.00409625 -0.00405926 -0.00407294
0003a0 da 9b 85 bb be e2 86 bb 71 8d 87 bb e7 63 86 bb
       -0.004077417 -0.0041163852 -0.004136734 -0.0041012648
0003b0 31 a2 84 bb 7a 85 84 bb ac 9f 85 bb 58 2c 86 bb
       -0.004047655 -0.004044232 -0.0040778723 -0.0040946417
0003c0 1e 13 86 bb cb 81 87 bb e8 77 85 bb df eb 87 bb
       -0.0040916344 -0.0041353456 -0.004073132 -0.004147991
0003d0 b2 2e 85 bb e0 79 85 bb fb 49 87 bb 79 c4 85 bb
       -0.0040644044 -0.0040733665 -0.004128692 -0.0040822593
0003e0 00 73 86 bb d7 f4 84 bb 1a 8b 85 bb 60 3e 85 bb
       -0.0041030645 -0.0040575075 -0.00407542 -0.0040662736
0003f0 d5 c2 84 bb bc ef 84 bb 86 7a 85 bb f3 9b 85 bb
       -0.004051546 -0.004056899 -0.004073444 -0.0040774285
