melhor_modelo_ntm.pth (torch, 233812 bytes, 29 tensors)

embedding.weight f4 [20, 64]
0	0xbd4e3688	-0.050344974
1	0xbe4fd895	-0.20297463
2	0xbec89a33	-0.39180145
3	0x3e69e64c	0.22841758
4	0xbcd65677	-0.026164277
5	0x3edcbea8	0.4311421
6	0xbf992270	-1.1963634
7	0x3f211f74	0.6293862
8	0x3fc34ffb	1.5258783
9	0xbe6fe9fd	-0.23429103
10	0x3ff19573	1.8873733
11	0xbed8cf4b	-0.42345652
12	0xbff81bbb	-1.9383463
13	0xbff9a77f	-1.9504241
14	0xbf6ad16d	-0.9172581
15	0x3f71954a	0.9436842
16	0x3ed82df1	0.4222255
17	0x3fd7a92c	1.6848502
18	0x3ec34c8f	0.38144347
19	0x3fc1967f	1.5124053
20	0xbecc3666	-0.39885253
21	0xc04bb597	-3.1829584
22	0xc0140917	-2.3130548
23	0xbf902de8	-1.126401
24	0x3f5c87e8	0.86144876
25	0x3e677140	0.22601795
26	0xbd683c11	-0.05669791
27	0x3fe42dcf	1.782648
28	0x3ee5b2e7	0.44863054
29	0xbfa33370	-1.2750072
30	0x3fe1dd40	1.7645645
31	0xbfaabbd1	-1.3338567
32	0x3f171f99	0.5903259
33	0xbf4902d6	-0.7851995
34	0x3dd91de6	0.10601406
35	0xbe8acf40	-0.27111244
36	0x4001bdc8	2.0272083
37	0xbfbfe71a	-1.4992402
38	0xbe891747	-0.26775572
39	0xbc1fc98e	-0.009752644
40	0xbf773730	-0.96568584
41	0xbf90a0f6	-1.1299121
42	0x3e6b95c0	0.23006344
43	0xbed543dc	-0.41653335
44	0xbf5ad9a1	-0.85488325
45	0xbf36b344	-0.7136729
46	0xbf0aad03	-0.54170245
47	0x3b81014c	0.003936922
48	0x3e9cc07c	0.30615604
49	0xbd9faf2a	-0.07797082
50	0xbe6300cf	-0.22168277
51	0xbf046a5b	-0.51724786
52	0xbe92049c	-0.28519142
53	0xbfebe8d7	-1.8430432
54	0xbfa41be3	-1.282101
55	0xbf90553a	-1.1276009
56	0xbf2f751c	-0.6853807
57	0xbf5518f5	-0.83241206
58	0xbdf8938d	-0.12137518
59	0xbfd12cda	-1.6341813
60	0xbe42f9d3	-0.19040613
61	0x3f861626	1.0475509
62	0x3f199138	0.5998721
63	0x3fefcf73	1.8735183
64	0x3ead23f3	0.3381649
65	0x3fdb6a4a	1.7141812
66	0xbf27c0b9	-0.65528446
67	0xbf8083e6	-1.0040252
68	0x3fb6c281	1.4278108
69	0x3fb98a5b	1.4495348
70	0xbf301df2	-0.6879569
71	0xbfe3ad3e	-1.7787244
72	0x3f8f384b	1.1189054
73	0xbf1ee271	-0.6206427
74	0x3f73bb17	0.9520735
75	0x3f342d63	0.70381755
76	0x3fe33024	1.7749066
77	0xbeea1bc5	-0.4572431
78	0xbf703bd0	-0.93841267
79	0x3fc15562	1.5104182
80	0x3ea2ed2b	0.3182157
81	0xbe727889	-0.23678793
82	0x3fc9eb5c	1.5774951
83	0xbf64d68d	-0.8938988
84	0xbfb94a12	-1.447573
85	0x3f287dbf	0.65816873
86	0x3fff52f6	1.9947193
87	0xc0403c5d	-3.0036843
88	0x3f625d15	0.8842328
89	0xc00756ce	-2.1146731
90	0x3c0c74fa	0.008572811
91	0x3f810b44	1.0081563
92	0x3e5603fb	0.20899956
93	0x3ea049f3	0.3130642
94	0x3e1a2da8	0.15056479
95	0x3ea2ba04	0.31782544
96	0xbfd6647b	-1.6749414
97	0x400d3b82	2.206757
98	0x3f5f0d3d	0.87129575
99	0x3f82634f	1.0186557
100	0x3f6b5b45	0.9193614
101	0x3f94dcf6	1.1629932
102	0xbf0b3534	-0.54378057
103	0x3f3c00f0	0.7343893
104	0x3df75285	0.12076286
105	0x3e550129	0.20801224
106	0x3e6e6286	0.23279771
107	0x3de32ec4	0.11092904
108	0x3f2bdc6d	0.6713322
109	0xbe61fb2b	-0.22068469
110	0xbe18b9d5	-0.1491464
111	0xbfa99e22	-1.3251383
112	0xbea7be45	-0.32762352
113	0x3f2f1b04	0.684006
114	0x3ef8654f	0.48514792
115	0xbf670ebc	-0.9025686
116	0x3f22c3e2	0.63580143
117	0xbfb84a1e	-1.4397619
118	0x3f1d9c60	0.61566734
119	0xbe124e7a	-0.14287749
120	0x3f843192	1.0327628
121	0x3f17b196	0.5925535
122	0x3ecda52f	0.40165088
123	0xbe18f978	-0.14938915
124	0x3f01f4f5	0.507644
125	0xc0365504	-2.848939
126	0x4018b10e	2.3858066
127	0xbf8daede	-1.106899
128	0x3f942e4c	1.1576629
129	0x3e357f7d	0.17724414
130	0xbf808743	-1.0041279
131	0xbf19e1cf	-0.6011018
132	0xc006a0c7	-2.103563
133	0x3fd6bff1	1.6777326
134	0xbf48e1a8	-0.78469324
135	0x3eae0486	0.33987826
136	0x3eaa6dad	0.332868
137	0xbf1b7ee0	-0.6074047
138	0xbfb03db2	-1.3768828
139	0xbf1b0deb	-0.6056811
140	0xbf6cbd14	-0.9247601
141	0xbf99f98c	-1.2029281
142	0xbf6eac8e	-0.9323205
143	0x3f315da6	0.6928352
144	0x3f89787e	1.0739896
145	0x3db4dd33	0.08831253
146	0xbe511590	-0.20418382
147	0x3f2d6597	0.6773314
148	0x3f123707	0.57115215
149	0x3f556ad4	0.8336613
150	0xbf3c247b	-0.73493165
151	0xbf1379cd	-0.5760773
152	0x3f2f85a7	0.6856331
153	0x3f05a47e	0.5220412
154	0x3f8282b0	1.0196133
155	0xbf0092e6	-0.5022415
156	0xbee905ce	-0.4551224
157	0xbe9a0e54	-0.30089056
158	0xc00550e4	-2.0830622
159	0xbe8cbb64	-0.27486718
160	0xbf5c34a8	-0.8601785
161	0xbf243530	-0.6414366
162	0x3e16d77c	0.14730638
163	0x3f3a2bb2	0.72722924
164	0x3f93ee23	1.1557049
165	0xbf88a93e	-1.0676649
166	0x3ecafd97	0.396466
167	0xbf91ea9d	-1.1399723
168	0xbece4904	-0.40290082
169	0xbf01dca6	-0.5072731
170	0xbf981d60	-1.1883965
171	0x3fa8dab2	1.319174
172	0xbf3e2c93	-0.74286765
173	0x3f682cef	0.90693563
174	0xbf0e8f25	-0.5568717
175	0x3f239a36	0.6390718
176	0xbff57283	-1.9175571
177	0x3f848bde	1.0355184
178	0x3f016c8c	0.50556254
179	0x3e918db8	0.28428435
180	0xbec4386c	-0.38324296
181	0xbed61db0	-0.41819525
182	0x3edf96e8	0.4366982
183	0xbf356102	-0.7085115
184	0x3eda7f82	0.42675406
185	0x3f6b6277	0.9194712
186	0x3f98164e	1.1881807
187	0x3f8cd2ed	1.100187
188	0x3f30f7a5	0.69127876
189	0x3fa08535	1.2540652
190	0xbf0a73a2	-0.5408269
191	0x3f408e22	0.7521688
192	0xad2a7747	-9.689866e-12
193	0xbf91b180	-1.1382294
194	0xbc1f032e	-0.009705348
195	0xb73cdfe9	-1.1257806e-05
196	0x3e081391	0.13288714
197	0x3b595209	0.003316047
198	0xbda0e54f	-0.07856237
199	0x3fe8f68f	1.8200244
200	0x3e6700ca	0.22558895
201	0x3d77795f	0.060418483
202	0x3a8fea39	0.0010979838
203	0x2c210946	2.2884624e-12
204	0xbe791dbf	-0.24327753
205	0xae925f30	-6.65622e-11
206	0x85b65db9	-1.7149626e-35
207	0x023b88f5	1.3777895e-37
208	0x8287f1bd	-1.9975218e-37
209	0x3de4cb12	0.11171545
210	0x0225bf4a	1.2177183e-37
211	0xa7243870	-2.2790167e-15
212	0xbcde08c4	-0.02710379
213	0x3bf3b131	0.0074368943
214	0x82a3ea48	-2.4085168e-37
215	0x39cbc749	0.00038867656
216	0xbc09f435	-0.00842004
217	0x829418d3	-2.1760894e-37
218	0xbad2c49a	-0.001608032
219	0xbf3d6d04	-0.7399447
220	0x3dc674ca	0.096902445
221	0xbc2d4275	-0.010574927
222	0xbd791b00	-0.060816765
223	0xbb995935	-0.0046798238
224	0x0281cfed	1.907419e-37
225	0x3d75eeb8	0.060042113
226	0x2d30fc20	1.0060425e-11
227	0x39a35eb3	0.0003116034
228	0x989edd22	-4.106533e-24
229	0x828941a2	-2.0168012e-37
230	0x3dd351a1	0.10318304
231	0x24875666	5.869328e-17
232	0xbed2350f	-0.41056105
233	0xbabf01e1	-0.0014572704
234	0x3f1ef48b	0.6209189
235	0x4011b7d9	2.2768462
236	0xbfae456c	-1.3614936
237	0x828a2710	-2.0299698e-37
238	0x829f6f82	-2.3426953e-37
239	0x029859b4	2.238588e-37
240	0x3cc8840f	0.024477033
241	0xbe669b7d	-0.22520252
242	0x0299ea8e	2.2615957e-37
243	0x82a081dc	-2.3584423e-37
244	0x028ddd81	2.0845225e-37
245	0x8283ded4	-1.9376617e-37
246	0x3ec0237f	0.3752708
247	0x22efb854	6.4976245e-18
248	0x35c065cb	1.433474e-06
249	0xa3036bd4	-7.124358e-18
250	0xbfabd87a	-1.3425438
251	0x38ad6935	8.268879e-05
252	0xc01cef3b	-2.4521015
253	0x829afafc	-2.2772324e-37
254	0xba61aa83	-0.0008608477
255	0x8291a746	-2.1401845e-37

controller.weight_ih f4 [256, 104]
0	0x3d900196	0.070315525
1	0xbc0b82d0	-0.008515075
2	0xbda4f1d0	-0.080539346
3	0xbdd3eb6f	-0.1034764
4	0xbda47e15	-0.08031861
5	0xbcf22cda	-0.029562403
6	0xbd6dbcb8	-0.058041304
7	0xbc8d4506	-0.017244827
8	0x3e26f88e	0.16305754
9	0xbe2537ec	-0.16134614
10	0x3da6a462	0.08136822
11	0xbd8099d2	-0.06279339
12	0xbd76257b	-0.060094338
13	0xbe0c5326	-0.13703594
14	0x3a891e89	0.0010461371
15	0x3b672faa	0.0035276213
16	0x3d9b0292	0.075688496
17	0x3dde64b5	0.10859052
18	0xbd9669f1	-0.073444255
19	0xbcd57489	-0.026056545
20	0x3d9cdb8e	0.07659064
21	0xbd89a0b1	-0.067201026
22	0x3c238897	0.009981296
23	0xbda042fe	-0.07825278
24	0x3c9e0b95	0.019292632
25	0xbde844a5	-0.11341218
26	0xbd1423af	-0.036166843
27	0x3db94d3e	0.09047936
28	0x3cc4ac1a	0.024007846
29	0x3d9dd54f	0.07706701
30	0x3da37864	0.07981947
31	0xbd5be59c	-0.05368577
32	0x3d6f5e7f	0.058439728
33	0x3ba84951	0.005135693
34	0xbd315fa0	-0.043304086
35	0x3e29526c	0.16535348
36	0x3d856da8	0.06515056
37	0x3b74c1f9	0.0037347062
38	0xbda3b2d7	-0.07993095
39	0xbdc1e28a	-0.09467037
40	0x3d1fe3d6	0.03903564
41	0xbe0cf6ba	-0.13765994
42	0x3d823992	0.06358637
43	0x3e04c499	0.12965621
44	0xbd459287	-0.048235442
45	0x3d863c48	0.065544665
46	0xbc941e2f	-0.018080799
47	0x3da20434	0.07910958
48	0x3d6eaa36	0.058267795
49	0x3d563a4b	0.052301686
50	0x3d379c52	0.044826813
51	0x3d8e5d86	0.06951432
52	0x3df75dea	0.120784596
53	0x3d692758	0.056922287
54	0x3d8a6476	0.06757443
55	0xbd135c9b	-0.035976987
56	0xbd847645	-0.064678706
57	0xbd2c2662	-0.042028792
58	0x3e2564c3	0.16151719
59	0xbdc07f87	-0.09399324
60	0x3d25961b	0.040426355
61	0x3dc6f7aa	0.09715207
62	0x3de54dca	0.11196478
63	0xbd928ac1	-0.071553715
64	0xbc72efa6	-0.014827644
65	0x3cab4663	0.020907586
66	0x3c83d16a	0.016091067
67	0x3d0397be	0.032127135
68	0x3cb33804	0.021877296
69	0x3ccd9e2a	0.025099833
70	0x3d43bffd	0.047790516
71	0xbd35f30a	-0.044421233
72	0xbcc49293	-0.023995673
73	0xbd1da1a1	-0.03848422
74	0x3db15561	0.08658863
75	0xbdb25d3a	-0.08709188
76	0x3d06d231	0.032915298
77	0xbccf64ab	-0.025316557
78	0xbcf9488f	-0.030430106
79	0xbd390fbc	-0.04518102
80	0x3dc4246f	0.09577262
81	0x38b48076	8.6069966e-05
82	0x3d46a12d	0.048493553
83	0xbc3843ea	-0.011246661
84	0x3d10216b	0.03518812
85	0xbd2a0fc3	-0.041518938
86	0x3da29791	0.07939065
87	0x3d81bd0d	0.06334887
88	0xbd9e5eb5	-0.07732908
89	0xbd5bffb7	-0.053710666
90	0xbd8fbb48	-0.07018143
91	0xbd7d0a7d	-0.06177758
92	0x3db5419f	0.08850407
93	0xbc973113	-0.018456018
94	0xbd7c8e05	-0.061658878
95	0x3d0e5030	0.03474444
96	0x3cef23f2	0.029191945
97	0xbdc1e981	-0.094683655
98	0x3d7a6d6b	0.061139505
99	0xbd5ccf88	-0.053908855
100	0xbc8fbc9a	-0.017545987
101	0x3d0c3423	0.03422941
102	0xbd3f8e5a	-0.046766616
103	0xbce09cc7	-0.027418507
104	0x3de78f20	0.11306596
105	0xbce5074b	-0.02795758
106	0xbdd92463	-0.10602643
107	0xbd5ccde1	-0.05390728
108	0x3da21266	0.079136655
109	0x3e0442da	0.12916127
110	0xbe505d30	-0.20348048
111	0x3ceeb3cf	0.029138474
112	0x3deb57a3	0.11491325
113	0xbda741f4	-0.081668764
114	0xbcdd7271	-0.027032109
115	0xbc4613a3	-0.012089643
116	0xbde26fff	-0.11056518
117	0xbe6ed821	-0.23324634
118	0xbe095e34	-0.13414842
119	0x3d963cf5	0.073358454
120	0x3e113ce4	0.14183384
121	0x3dd2a687	0.10285669
122	0x3ddf22a0	0.10895276
123	0x3da34c2a	0.079735115
124	0xbe029854	-0.12753421
125	0xbdf82cf1	-0.12117947
126	0x3cada868	0.021198466
127	0xbe138e80	-0.14409828
128	0x3dd5008d	0.10400496
129	0x3d90869e	0.07056926
130	0xbc67f4c7	-0.014157481
131	0x3e04c9d4	0.12967616
132	0x3b90788f	0.004408903
133	0xbdd94b9a	-0.10610123
134	0x3d25c1fd	0.040468205
135	0xbd03c142	-0.032166727
136	0xbc7ba544	-0.015359227
137	0xbcf2dbfa	-0.029645909
138	0xbc265917	-0.010153077
139	0x3d837df8	0.06420511
140	0x3e7ebe64	0.24877316
141	0xbdc5b320	-0.09653306
142	0xbd97de62	-0.07415463
143	0xbc32ab9a	-0.010905171
144	0xbdaff62b	-0.08591875
145	0xbd4bb31e	-0.049731366
146	0xbd8ec64a	-0.069714144
147	0x3a142063	0.0005650578
148	0xbb13ddc3	-0.00225626
149	0xbd730365	-0.05932941
150	0xbde0f743	-0.109846614
151	0x3d35d5c6	0.044393323
152	0xbe0efb42	-0.13963035
153	0x3e3db665	0.18526609
154	0xbc3e258a	-0.01160563
155	0xbdc53eed	-0.09631143
156	0x3d00118d	0.031266738
157	0xbe498012	-0.19677761
158	0xbd4cd2ed	-0.050005842
159	0xbe18f44b	-0.1493694
160	0x3d9795d2	0.07401623
161	0x3e00ad09	0.12566008
162	0x3e3edae2	0.18638185
163	0x3cbc60cc	0.022995375
164	0xbbd4ea3d	-0.00649765
165	0xbd4a24c2	-0.04935146
166	0x3ddb6de0	0.10714316
167	0x3e0c76ca	0.1371719
168	0x3c94ff62	0.018188182
169	0xbcf735e2	-0.03017706
170	0xbb830871	-0.003998809
171	0xbbbb88ed	-0.00572311
172	0xbceeafda	-0.029136587
173	0x3d8482da	0.064702705
174	0x3d8cf971	0.06883515
175	0x3aef9d56	0.0018281143
176	0x3ce21515	0.027597943
177	0x3bcb9b77	0.006213601
178	0x3d6bf266	0.057604216
179	0xbd776073	-0.060394716
180	0x3da14905	0.078752555
181	0xbcabe24e	-0.020981934
182	0xbcc50e6a	-0.024054725
183	0x3d18fdb7	0.037351336
184	0x3cfa489d	0.030552203
185	0xbd30fda8	-0.043210655
186	0x3c7f5bf8	0.015585892
187	0xbc02cd16	-0.007983467
188	0x3d7d5148	0.061845094
189	0x3dcd45ff	0.10023116
190	0x3d094a4a	0.033518113
191	0xbd2c3d7d	-0.042050827
192	0xbdb7ef2a	-0.08981164
193	0xbd2dbdc4	-0.042417303
194	0x3c8f626c	0.017502986
195	0x3bf0bef2	0.007346981
196	0x3d3f36a7	0.04668298
197	0xba260692	-0.00063333765
198	0xbd8d81ab	-0.06909498
199	0xbb7e4f4c	-0.003880459
200	0x3cfd5ed6	0.03092901
201	0x3c8e9138	0.01740323
202	0xbca3d5c4	-0.019999392
203	0xbbbacfbe	-0.0057010343
204	0xbcb6d79e	-0.022319611
205	0xbd1fd220	-0.03901875
206	0x3d2aa887	0.041664626
207	0x3c4eed7f	0.012629866
208	0x3c380164	0.0112308
209	0xbcb7f393	-0.022455012
210	0xbe0c9a52	-0.13730744
211	0xbd704774	-0.058661893
212	0x3dda9654	0.10673204
213	0x3dcc7859	0.09983892
214	0xbe36d55e	-0.1785483
215	0x3dc0d6ff	0.09416007
216	0xbcfb4d7b	-0.030676594
217	0xbd25af39	-0.04045031
218	0x3e07a65c	0.13247055
219	0x3c5840c9	0.01319904
220	0xbd11614e	-0.035493188
221	0x3d0bdb0f	0.034144457
222	0xbdf93c23	-0.12169673
223	0x3e02474d	0.12722512
224	0x3d4b0ed4	0.049574688
225	0x3dba58a8	0.09098941
226	0xbd1b94b7	-0.037983622
227	0x3e1f4b8b	0.15556161
228	0x3d1f0c5f	0.038830157
229	0xbda0a58a	-0.07844074
230	0x3cb96af0	0.022634
231	0xbe22c217	-0.15894352
232	0x3e3bfdaa	0.18358484
233	0x3d693c46	0.056942247
234	0x3d4568af	0.048195537
235	0xbc7b6a49	-0.015345165
236	0xbd150e64	-0.036390677
237	0xbdef9411	-0.11698163
238	0x3c4968b8	0.012293033
239	0xbded813a	-0.11596914
240	0x3cf73b87	0.030179752
241	0x3da0a8df	0.078447096
242	0x3df25646	0.118328616
243	0x3d2b4098	0.04180965
244	0x3e260d86	0.16216096
245	0xbdcc1cef	-0.09966456
246	0xbd3d0b9a	-0.046153642
247	0xbc8b354d	-0.01699319
248	0xbe1c8be4	-0.15287739
249	0xbcdbe059	-0.026840376
250	0x3b9462b2	0.004528367
251	0xbd3d73e3	-0.046253096
252	0xbdae12fd	-0.084997155
253	0xbba23cc0	-0.0049510896
254	0xbdce90cf	-0.10086214
255	0xbdc3e5f7	-0.09565347

controller.weight_hh f4 [256, 64]
0	0xbdfd4eb3	-0.12368526
1	0xbbd4378f	-0.0064763497
2	0x3d5bdd10	0.05367762
3	0x3d83be54	0.064327866
4	0xbd888117	-0.06665247
5	0x3a901695	0.0010993058
6	0xbdce516a	-0.10074122
7	0x3c99ef83	0.018790966
8	0x3d2f8f61	0.042861346
9	0xbe0628fc	-0.13101572
10	0xbe0a44a1	-0.13502742
11	0xbdc4bb02	-0.096059814
12	0x3ab8eba6	0.0014108315
13	0xbd2f24d7	-0.042759743
14	0xbd1fa975	-0.038979966
15	0xbd696a29	-0.056986008
16	0xbe0a638a	-0.13514534
17	0x3d034fcc	0.032058522
18	0x3d2dca47	0.042429235
19	0xbbc55354	-0.0060218964
20	0xbd4e6a93	-0.050394606
21	0xbc9d599e	-0.019207772
22	0x3dac6675	0.0841798
23	0xbd5fa025	-0.054596085
24	0x3da46513	0.08027091
25	0xbd5f824c	-0.05456762
26	0xbc90eefe	-0.017692085
27	0x3e0ced1c	0.13762325
28	0x3cec2e74	0.028830744
29	0x3d3f2054	0.04666169
30	0x3d82c82f	0.06385838
31	0xbe0659a2	-0.1312013
32	0xbd5e9a8e	-0.054346614
33	0xbe092b1c	-0.13395351
34	0x3dca9181	0.09891034
35	0x3cbcbf74	0.02304051
36	0xbe2a3d2e	-0.166249
37	0xbd44178a	-0.04787401
38	0xbc8544a0	-0.016268075
39	0xbb095aba	-0.0020958618
40	0xbd3805ca	-0.044927396
41	0xbd484f35	-0.048903663
42	0x3dbc22f7	0.091863565
43	0xbb20657b	-0.002447455
44	0xbdbf8b2c	-0.09352717
45	0xbd7e4f26	-0.0620872
46	0xbd22e0bb	-0.0397651
47	0xbc498c46	-0.01230151
48	0x3e03eaec	0.12882584
49	0x3d3239fb	0.043512326
50	0xbc45ca89	-0.012072214
51	0x3dc55184	0.096346885
52	0xbdd1e6b1	-0.10249079
53	0xbe272049	-0.1632091
54	0xbd89b560	-0.06724048
55	0x3d4bcfd1	0.049758736
56	0x3e1188ce	0.14212343
57	0x3d3a8fd5	0.045547325
58	0x3dc0be43	0.094112895
59	0x3b2fd52b	0.002682994
60	0xbd624503	-0.055241596
61	0xbd3cb926	-0.04607501
62	0xbd3aeaa6	-0.045633934
63	0xbe0cb2ae	-0.13740036
64	0xbe1086be	-0.141139
65	0x3e29f097	0.16595684
66	0x3e12caa5	0.14335115
67	0x3d858c11	0.06520856
68	0xbb76bcb3	-0.0037649095
69	0xbd249ddc	-0.04018961
70	0xbcc2de62	-0.023787681
71	0xbc856ed3	-0.016288197
72	0x3c635792	0.013875859
73	0xbe09dc2a	-0.13462892
74	0xbe324af0	-0.17411399
75	0x3cd6888c	0.026188157
76	0xbba986ad	-0.0051735253
77	0xbb75ba40	-0.0037495047
78	0x3c9c8b0b	0.01910927
79	0x3d393c53	0.045223545
80	0xbd814a5b	-0.0631301
81	0x3e115162	0.14191201
82	0xbc471bb6	-0.012152603
83	0xbd95c756	-0.07313411
84	0xbde195f2	-0.11014928
85	0x3dc88158	0.09790295
86	0x3e001723	0.12508826
87	0xbda15d48	-0.0787912
88	0x3c1246ff	0.00892806
89	0x3d5b1794	0.053489283
90	0xbd8490d9	-0.0647294
91	0x3d942022	0.07232691
92	0x3d842e52	0.064541474
93	0xbd1e1b56	-0.03860029
94	0x3e46b17f	0.19403647
95	0xbdaac3d6	-0.08338134
96	0x3d37b7d4	0.044853047
97	0xbd9f3eb1	-0.07775629
98	0x3c6526ef	0.013986333
99	0x3db719f6	0.089404985
100	0xbdcc830f	-0.09985935
101	0x3d70a711	0.058753077
102	0x3ad24378	0.0016041836
103	0x3dc4040b	0.09571084
104	0x3d53f59f	0.051747914
105	0xbdb1e2b0	-0.08685815
106	0x3e41f809	0.18942274
107	0xbd6e3113	-0.05815227
108	0xbd3d6486	-0.046238445
109	0xbc16db5a	-0.009207571
110	0xbd935916	-0.07194726
111	0x3d22e599	0.039769743
112	0x3dd0e7f0	0.102004886
113	0x3d955c3e	0.072929844
114	0x3d80a830	0.06282079
115	0x3d2f7fdc	0.042846546
116	0x3b102338	0.0021993648
117	0xbdd7ab26	-0.10530691
118	0xbdcfecf0	-0.10152614
119	0x3d23b301	0.039965633
120	0x3ae7e70b	0.0017692758
121	0xbdcce50c	-0.10004625
122	0x3cc18666	0.023623656
123	0xbdd2a7c1	-0.10285903
124	0x3c1817a7	0.009282983
125	0x3d6f8255	0.058473904
126	0x3d0c2c72	0.034222074
127	0x3ca4697f	0.020069836
128	0xbd2984fe	-0.041386597
129	0x3dced13a	0.100985005
130	0xbb6e0c41	-0.0036323222
131	0x3d85f7fe	0.065414414
132	0xba40751e	-0.00073416706
133	0xbd10a86d	-0.035316873
134	0xbd3fbf63	-0.04681338
135	0x3d467a7d	0.048456658
136	0x3da04b48	0.07826859
137	0xbc864702	-0.016391281
138	0xbd43b76b	-0.047782343
139	0x3d1dbe7d	0.038511742
140	0x3dc31908	0.09526259
141	0x3d9d629d	0.076848246
142	0xbd5789bb	-0.052621584
143	0xbc1ac744	-0.009446923
144	0xbd8bfc8c	-0.06835279
145	0x3cad0a25	0.021123001
146	0x3d872c60	0.06600261
147	0xbd0730b5	-0.033005435
148	0xbd489cd7	-0.0489777
149	0x3c623c44	0.013808314
150	0x3d9abfa3	0.07556083
151	0xbe25e245	-0.16199596
152	0xbd974d54	-0.07387796
153	0x3c910e72	0.017707083
154	0xbd9860a3	-0.07440307
155	0x3ce8e289	0.028428333
156	0x3d745b15	0.059657175
157	0xbcc2fda4	-0.023802586
158	0x3dc84801	0.09779359
159	0xbdb02381	-0.08600522
160	0x3c478a59	0.012178981
161	0xbdbffd84	-0.09374526
162	0x3d583c0e	0.052791648
163	0xbb762a75	-0.0037561927
164	0xbdeee562	-0.11664845
165	0x3d2da761	0.042395953
166	0xbcea195e	-0.02857655
167	0x3d378aba	0.044810034
168	0x3ce879f1	0.028378459
169	0x3c41b311	0.011822478
170	0x3cab3ae6	0.020902108
171	0xbd99db7b	-0.07512566
172	0x3d0a7154	0.033799484
173	0xbd94c72f	-0.07264554
174	0xbd932fb2	-0.071868315
175	0x3d079b56	0.033107124
176	0x3dbb11a2	0.091342226
177	0xbc417959	-0.011808717
178	0x3c2bbe6d	0.010482413
179	0xbd0aa0fc	-0.033844933
180	0x3c8b43d3	0.017000115
181	0xbc5168b5	-0.012781312
182	0xbd825275	-0.06363384
183	0x3c6704d6	0.014100274
184	0x3d0d41be	0.034486525
185	0xbd3f61b8	-0.04672405
186	0x3d961983	0.07329085
187	0x3c5a1ade	0.01331207
188	0x3d63033c	0.055423006
189	0x3d1f456d	0.03888457
190	0xb795cc64	-1.7857361e-05
191	0x3dd3db07	0.103445105
192	0xbc3e3fd0	-0.011611894
193	0x3d84ff7b	0.064940415
194	0x3e10e03e	0.14148042
195	0x3cc1538f	0.023599414
196	0xbc87ffa4	-0.016601391
197	0xbcdbb38b	-0.026819011
198	0xbe044bd9	-0.12919559
199	0x3d0eeefa	0.034895875
200	0x3c233103	0.009960416
201	0xbe10d9d3	-0.14145593
202	0xbe090cd9	-0.13383807
203	0xbd2f453c	-0.042790636
204	0xbc478ad3	-0.012179094
205	0x3c8271c5	0.01592339
206	0xbe1c46c2	-0.15261367
207	0x3deaca27	0.11464339
208	0xbdcf5791	-0.10124124
209	0x3e27a026	0.16369686
210	0x3df5f103	0.1200886
211	0xbd5b3804	-0.053520218
212	0xbcbad345	-0.02280582
213	0x3dd3b059	0.1033637
214	0x3d375034	0.044754222
215	0xbd99b3d7	-0.07505005
216	0xbcc58c18	-0.024114653
217	0x3dfc3f39	0.12316746
218	0xbd0e941e	-0.034809224
219	0x3e1453e5	0.14485128
220	0x3dadea10	0.084919095
221	0x3cfa6539	0.030565845
222	0x3dd1059f	0.1020615
223	0xbe242534	-0.16029817
224	0x3d3d1dbd	0.04617094
225	0xbe085485	-0.13313492
226	0x3da6cbb8	0.08144325
227	0x3d5d7518	0.054066747
228	0xbe3f9e5e	-0.18712756
229	0x3d879425	0.06620053
230	0xbdaf3bd1	-0.08556331
231	0x3ddc71eb	0.10763916
232	0x3c13b2ff	0.009014844
233	0xbddc3373	-0.10752001
234	0x3e1445d4	0.14479762
235	0xbd925769	-0.071455784
236	0xbd35611f	-0.044282075
237	0xbdc47f1d	-0.095945574
238	0xbdf3603c	-0.118835896
239	0xbc9ab593	-0.01888541
240	0x3d716e40	0.058943033
241	0x3dd5bc66	0.10436325
242	0xbcc87322	-0.024468962
243	0x3c3a1559	0.011357629
244	0xbd38fa80	-0.04516077
245	0xbdc4c656	-0.09608142
246	0xbd0a2c30	-0.033733547
247	0x3d504798	0.050849527
248	0x3d2f21bd	0.042756785
249	0xbdde4445	-0.10852865
250	0xbd00df9d	-0.031463254
251	0xbe089dc8	-0.13341439
252	0x3daa9e98	0.083310306
253	0x3c9d74fc	0.019220822
254	0x3d1966d7	0.03745159
255	0xbd9b5633	-0.075848006

controller.bias_ih f4 [256]
0	0x3dc9c20b	0.09851464
1	0x3e72617c	0.2367
2	0x3e28c46e	0.16481182
3	0x3d7f9806	0.06240084
4	0x3e059629	0.13045563
5	0x3e25d09e	0.16192862
6	0xbd462799	-0.048377607
7	0x3e0f5d60	0.14000463
8	0x3db3d758	0.08781308
9	0x3d5fbeda	0.05462537
10	0x3c0c1057	0.008548818
11	0x3de5492c	0.11195597
12	0x3e1089ee	0.14115116
13	0x3dfc47db	0.12318393
14	0x3e1aaab7	0.15104185
15	0x3e41c431	0.18922497
16	0x3e101990	0.14072251
17	0x3dfef048	0.12448174
18	0x3dad71e4	0.084689885
19	0x3dbec69d	0.09315226
20	0x3dbd7623	0.092510484
21	0x3c8b2f38	0.01699029
22	0x3e1bf838	0.15231407
23	0xbcac3745	-0.021022448
24	0xbca96d34	-0.020681955
25	0x3df7d53a	0.121012166
26	0xbcf426ce	-0.02980366
27	0x3d95f409	0.07321937
28	0x3d71423f	0.058901068
29	0xba861a28	-0.0010231184
30	0x3dd13d93	0.102168225
31	0x3e47ebf3	0.19523601
32	0xbd97243e	-0.073799595
33	0x3def49ba	0.11683984
34	0x3e47dba7	0.19517384
35	0x3da60512	0.08106436
36	0x3db877c1	0.09007216
37	0x3dcd5960	0.100268126
38	0x3dcdbd4d	0.10045872
39	0x3e0f2031	0.13977124
40	0x3d8e7be0	0.06957221
41	0xbb4236b3	-0.0029634654
42	0x3df99aa2	0.12187697
43	0x3e1d3b5c	0.15354675
44	0x3ddb2b80	0.10701656
45	0xbd5c268c	-0.0537477
46	0x3cf823fe	0.0302906
47	0x3d87c081	0.06628514
48	0x3e0eea60	0.13956594
49	0x3dbdb750	0.0926348
50	0xbc29d952	-0.010366755
51	0x3e10dba3	0.14146285
52	0x3da03718	0.07823008
53	0x3da2cb12	0.07948889
54	0x3e0a4307	0.13502131
55	0x3d6be477	0.057590928
56	0x3de77fec	0.11303696
57	0x3cf04852	0.02933136
58	0xbcbc88f8	-0.02301453
59	0xbcdf5240	-0.0272609
60	0x3e1aeda8	0.15129721
61	0x3dc3ca54	0.095600754
62	0x3e1e4332	0.1545532
63	0xbd586c65	-0.052837748
64	0x3e06ef38	0.13177192
65	0x3d5b0849	0.0534747
66	0x3e156339	0.14588632
67	0xbe02811f	-0.12744568
68	0xbd9d3728	-0.07676536
69	0xbcebd16e	-0.028786387
70	0x3dd8e003	0.10589602
71	0x3d87c361	0.066290624
72	0xbd89d17f	-0.06729411
73	0xbdc06c19	-0.09395618
74	0x3dbc13c8	0.091834605
75	0x3e2d5e74	0.16930562
76	0x3db1c765	0.086806096
77	0x3d9fcc9c	0.07802698
78	0x3d427c9a	0.04748211
79	0xbe020c5b	-0.12700026
80	0xbc8a5477	-0.01688598
81	0x3cf3073f	0.029666541
82	0xbdb648a8	-0.08900577
83	0xbd232bd9	-0.03983674
84	0x3d20da40	0.03927064
85	0xbdd01b14	-0.10161415
86	0xbd0f0ea6	-0.03492608
87	0x3d3cb496	0.046070658
88	0xbe0348d2	-0.12820747
89	0xbd1907c2	-0.037360914
90	0x3dcb66f8	0.09931749
91	0xbcd5df69	-0.026107507
92	0x3d2b1575	0.04176851
93	0xbdf3f63a	-0.11912198
94	0xbc47b224	-0.012188468
95	0xbd94a4b9	-0.07257981
96	0xbbc108b3	-0.0058909296
97	0x3d8d6f26	0.069059655
98	0x3d319500	0.043354988
99	0xbd92f3b6	-0.071753904
100	0x3c97b077	0.018516762
101	0x3d9904e5	0.07471637
102	0x3d9f9358	0.077917755
103	0xbc1bc943	-0.009508434
104	0xbd311336	-0.04323121
105	0xbdef16d6	-0.116742775
106	0x3da4cbe4	0.080467016
107	0xbdc3b626	-0.095562264
108	0x3de4d9b4	0.11174336
109	0x3dae4871	0.08509911
110	0xbd801099	-0.06253166
111	0xbdd9f4b5	-0.10642377
112	0x3cea6f05	0.028617391
113	0xbb5b5a51	-0.003347058
114	0xbd2d8d1d	-0.042370904
115	0xbd2a415e	-0.041566245
116	0xbda1bdd5	-0.07897536
117	0x3dd2146e	0.10257803
118	0x3e0cddeb	0.1375653
119	0x3d1db5bd	0.038503397
120	0xbca44064	-0.020050235
121	0xbc9c561f	-0.019084034
122	0x3dbe874a	0.09303148
123	0xbd87998a	-0.06621082
124	0x3e25d548	0.16194642
125	0xbc029561	-0.007970185
126	0xbd5f6821	-0.054542664
127	0x3da558dc	0.08073589
128	0x3d9d801c	0.076904505
129	0xbe12c1cf	-0.14331745
130	0x3c683dd6	0.014174899
131	0xbd927663	-0.07151487
132	0xbdaa32df	-0.08310484
133	0xbdaad639	-0.08341641
134	0x3ca9a34e	0.020707753
135	0xbd477721	-0.048697595
136	0xbe0a22ee	-0.13489887
137	0xbe048729	-0.12942185
138	0xbc6dca6f	-0.014513596
139	0x3a86101a	0.0010228187
140	0x3d893b8e	0.06700812
141	0x3b1be45f	0.0023787243
142	0x3dc3c451	0.09558929
143	0xbd834a2a	-0.0641063
144	0x3ca43692	0.020045552
145	0x3ded96ac	0.11601004
146	0xbdb6163e	-0.08890961
147	0x3c4025ba	0.011727745
148	0xbdf7ff97	-0.12109297
149	0x3dfa1f98	0.12213057
150	0x3e0b1df7	0.1358565
151	0x3c018a10	0.007906452
152	0x3ad29df3	0.0016068801
153	0x3ca9f3c0	0.020746112
154	0xbd35621e	-0.044283025
155	0xbcf67027	-0.030082775
156	0x3d8a7063	0.06759717
157	0xbd9175d0	-0.07102549
158	0xbd59891d	-0.053109277
159	0x3ca4efb6	0.020133834
160	0xbcc28d53	-0.02374903
161	0xbde32769	-0.11091501
162	0x3d91829e	0.071049914
163	0x3d97e94f	0.07417547
164	0x3af85f95	0.0018949384
165	0x3d1dab2a	0.038493313
166	0xbdc30fc9	-0.09524495
167	0xbda60809	-0.08107001
168	0xbdd3ab45	-0.103354014
169	0x3d5b9c48	0.05361584
170	0xbd4c062e	-0.04981058
171	0xbb2fad4f	-0.002680618
172	0xbdcdbece	-0.10046159
173	0xbd809c98	-0.06279868
174	0x3d21f767	0.039542582
175	0x3c8f8652	0.017520104
176	0xbd86d4d7	-0.06583565
177	0x3e02d8b7	0.12777983
178	0x3d838fc3	0.06423905
179	0x3ddea3c7	0.10871082
180	0x3b1c233a	0.0023824708
181	0x3ce40a2a	0.027836878
182	0x3d402d01	0.04691792
183	0x3d2f31ce	0.042772107
184	0x3dd98c52	0.10622467
185	0xbda49e8d	-0.08038054
186	0x3ddb9ff5	0.10723869
187	0x3bcbb1dd	0.0062162713
188	0xbd28e0b2	-0.04122991
189	0xbda63178	-0.08114904
190	0xbd16bca3	-0.03680099
191	0xbdf22fd7	-0.11825531
192	0x3c06ff23	0.00823954
193	0x3d72541a	0.059162237
194	0x3dea52e3	0.11441591
195	0x3e27a7b1	0.16372563
196	0x3c9fd7ea	0.019512136
197	0x3c45387a	0.012037391
198	0xbd8560e8	-0.06512624
199	0x3e43bd66	0.19115219
200	0xbae5ba7b	-0.0017526889
201	0xbdb8fb37	-0.090322904
202	0x3dba535c	0.09097931
203	0x3e4a622e	0.19764015
204	0x3e2774e6	0.16353187
205	0x3e1eced1	0.15508582
206	0x3e11969f	0.14217614
207	0x3d1eaf4f	0.038741406
208	0x3e0b261f	0.13588761
209	0xbb6917a9	-0.003556708
210	0xbc848fb3	-0.016181802
211	0x3e1a221b	0.15052073
212	0x3d30ecfc	0.043194756
213	0x3c496530	0.012292191
214	0x3caa1c8b	0.020765563
215	0x3e258975	0.16165717
216	0x3e4941ed	0.19654055
217	0x3d01fd62	0.031735785
218	0xbd8eb54d	-0.06968174
219	0x3d49eedc	0.04930006
220	0xbd02f198	-0.031968683
221	0xbcd4a059	-0.025955366
222	0x3e4a5319	0.19758262
223	0xbd1f2285	-0.03885128
224	0xbdb0c99d	-0.08632205
225	0xbd72351a	-0.059132673
226	0x3e233364	0.15937573
227	0x3e0d811a	0.1381878
228	0x3e1aa897	0.15103374
229	0x3e05c034	0.13061601
230	0x3c5f1eca	0.0136181805
231	0xbd0aed93	-0.033917975
232	0xbb6f15f9	-0.0036481603
233	0x3e4a9b5e	0.1978583
234	0xbbb5b961	-0.0055457805
235	0x3e1680dd	0.14697595
236	0xbd971760	-0.07377505
237	0x3d04868f	0.032354888
238	0x3d20b5e1	0.039235953
239	0x3de89dad	0.11358199
240	0x3c858f10	0.01630357
241	0x3dbcd63c	0.092205495
242	0x3e210eb9	0.15728272
243	0x3e0b8064	0.13623196
244	0x3dff54a5	0.124673165
245	0xbd4971ee	-0.049180917
246	0x3e07339c	0.13203281
247	0x3d9e5948	0.07731873
248	0x3d89cf3f	0.06728982
249	0x3ddc8ef5	0.107694544
250	0x3d34367c	0.043997273
251	0x3de0fb44	0.10985425
252	0x3d6dfbdd	0.058101524
253	0x3e07d799	0.13265838
254	0x3e02822b	0.12744968
255	0x3cd2559d	0.02567559

controller.bias_hh f4 [256]
0	0xbd8d14d0	-0.06888735
1	0x3ddc2487	0.107491545
2	0x3d4dd9a2	0.05025638
3	0x3e3024f1	0.17201592
4	0x3ddbe5ac	0.10737166
5	0x3e1a7dd8	0.15087068
6	0x3dbc86d3	0.09205403
7	0x3e31cd35	0.17363437
8	0x3e20d726	0.15707073
9	0x3de0a383	0.109686874
10	0x3e0871b7	0.13324629
11	0xbbba4bba	-0.005685297
12	0x3df5c43e	0.12000321
13	0x3d825777	0.06364339
14	0x3dd2b151	0.10287727
15	0x3e0ac662	0.1355224
16	0xbcca435f	-0.024690328
17	0x3d73edca	0.059552945
18	0x3c532a9d	0.012888578
19	0x3dbc4405	0.09192661
20	0x3d9964d3	0.07489934
21	0x3e27f46b	0.16401832
22	0xbca1423e	-0.019684907
23	0xbc8baf82	-0.017051462
24	0x3e0de0d3	0.13855295
25	0xbc0223b4	-0.007943083
26	0xbb308f9e	-0.0026941071
27	0x3db9a5b2	0.09064807
28	0x3df8802d	0.121338226
29	0x3db87210	0.09006131
30	0x3d583d37	0.052792754
31	0x3e636405	0.22206123
32	0x3e05c5e2	0.13063768
33	0xbd0aca98	-0.033884615
34	0x3da4a536	0.08039324
35	0x3dc1de4f	0.0946623
36	0x3e44f3d3	0.19233637
37	0x3db6874f	0.08912527
38	0x3e434a4a	0.19071308
39	0x3dec5897	0.11540335
40	0x3e4d3b2e	0.20042107
41	0x3e449169	0.19196095
42	0x3e0301b5	0.1279362
43	0x3b7e284d	0.0038781345
44	0x3d62ea33	0.05539913
45	0x3de4df83	0.11175444
46	0x3dae8305	0.08521084
47	0x3e32206e	0.17395183
48	0x3e461dc4	0.19347292
49	0x3d882469	0.0664757
50	0x3da2f43e	0.07956742
51	0x3e0c23c0	0.13685513
52	0x3e28dbfc	0.16490167
53	0x3e3037d3	0.17208795
54	0x3d9d403d	0.07678268
55	0x3cc120cd	0.023575211
56	0x3da885d9	0.082286544
57	0xbc50704f	-0.012722089
58	0x3de08fe5	0.10964946
59	0x3bd4e449	0.0064969403
60	0x3dd64811	0.10462964
61	0x3e50f7cd	0.20407028
62	0x3d04b0f1	0.032395307
63	0x3e12b322	0.14326146
64	0xbd46c7e7	-0.048530485
65	0x3cf407d2	0.029788885
66	0x3dd1f2c9	0.10251386
67	0xbdc6f4c3	-0.09714653
68	0x3d066a0c	0.032815978
69	0xbdbf5858	-0.09343022
70	0xbd8cfe08	-0.0688439
71	0xbc670c41	-0.014102043
72	0x3dc52f8d	0.0962821
73	0x3e0f4f44	0.13995081
74	0x3d8ea120	0.06964326
75	0x3e26eda4	0.1630159
76	0xbd8dc911	-0.06923116
77	0xbd8ffb96	-0.07030408
78	0x3d215618	0.039388746
79	0x3d8c4585	0.06849197
80	0xbddcc9ac	-0.10780653
81	0x3df46648	0.11933571
82	0xbd1c8d5f	-0.03822076
83	0xbe16c888	-0.14724934
84	0x3dce0af9	0.100606866
85	0x3d5e495e	0.054269187
86	0xbcea94b1	-0.028635355
87	0x3d90bcf2	0.070672885
88	0xbc386f5b	-0.011257018
89	0xbc417c32	-0.011809396
90	0xbba7b1c1	-0.0051176255
91	0x3e04d055	0.12970097
92	0x3cf61ac4	0.03004206
93	0x3d89f513	0.06736197
94	0xbdd4d35e	-0.103918776
95	0xbc73a72a	-0.014871398
96	0x3c877775	0.016536454
97	0xbd771775	-0.060325105
98	0xbd1354fa	-0.03596971
99	0xbde6aafa	-0.1126308
100	0x3c5320a6	0.012886202
101	0xbd6e89ae	-0.05823677
102	0x3b3ddc73	0.002897051
103	0x3df832ec	0.121190876
104	0xbd543d18	-0.051816076
105	0xbcf77e03	-0.030211454
106	0xbbbe6f86	-0.0058116345
107	0xbd86cbe7	-0.0658186
108	0x3dd76898	0.105179965
109	0x3dd21da1	0.102595575
110	0xbd8ba526	-0.06818609
111	0x3cb92cdc	0.022604398
112	0x3df40fd8	0.119170845
113	0x3d279366	0.040912054
114	0xbe077d36	-0.13231358
115	0x3d9764ad	0.07392249
116	0x3b8a3076	0.004217203
117	0x3e12a6ca	0.14321437
118	0xbc36e11e	-0.011162071
119	0xbd90bac3	-0.07066872
120	0x3d03527e	0.032061093
121	0x3e06e5df	0.13173626
122	0x3e2ae1b4	0.16687661
123	0x3d394037	0.045227256
124	0x3e10486c	0.14090127
125	0xbdb91b7c	-0.09038445
126	0xbd952fab	-0.072844826
127	0xbc5370d5	-0.012905319
128	0x3d50e139	0.05099604
129	0xba87da29	-0.0010364699
130	0xbd06b082	-0.032883175
131	0x3b8c65c0	0.0042845905
132	0x3db3e519	0.08783931
133	0x3dea5120	0.114412546
134	0xbd044a7b	-0.032297593
135	0x3d12f071	0.035873834
136	0x3db1de6a	0.08685
137	0xbe043cec	-0.12913865
138	0xbd6ef99e	-0.058343522
139	0x3d93a338	0.07208866
140	0xbd99484b	-0.07484492
141	0xbd6d17fe	-0.05788421
142	0x3ca7683f	0.02043545
143	0x3dfc9d14	0.12334648
144	0xbd3393e9	-0.04384223
145	0x3e27e710	0.16396737
146	0x3e058316	0.13038287
147	0xbd868ce4	-0.065698415
148	0xbd91f3c8	-0.07126576
149	0xbcb28a03	-0.021794325
150	0x3cd6be47	0.026213778
151	0xbe2b2676	-0.1671389
152	0xbdef1bff	-0.11675262
153	0x3b33acd2	0.0027416241
154	0xbdd173b7	-0.10227149
155	0xbd69e8f4	-0.057106927
156	0xbb4c455d	-0.0031169273
157	0xbd954573	-0.07288637
158	0xbc0bba11	-0.008528248
159	0xbde2313e	-0.110445485
160	0x3df58202	0.11987688
161	0x3d759c7f	0.0599637
162	0xbe089e07	-0.13341533
163	0x3d192a52	0.037393875
164	0x3d1a0c2f	0.037609275
165	0xbdc293eb	-0.09500869
166	0xbd36e7de	-0.04465472
167	0xbd7d6e31	-0.061872665
168	0x3d7227a1	0.059119824
169	0xbd857b70	-0.065176845
170	0x3ce293d2	0.027658377
171	0xbde44ec4	-0.11147836
172	0xbdc224e2	-0.09479691
173	0xbdc845ae	-0.09778915
174	0xbe144e5b	-0.14483015
175	0x3cb7dd08	0.022444263
176	0x3dc25eb1	0.09490717
177	0x3e15c62d	0.1462638
178	0x3d23051e	0.039799802
179	0xbd1d1cbd	-0.038357485
180	0x3c04b1e7	0.008099056
181	0xbca857c9	-0.020549672
182	0xbdb118e8	-0.086473286
183	0xbdb29cec	-0.08721337
184	0x3d92cf23	0.071684144
185	0xbd3cb75d	-0.046073306
186	0xbd9f65ad	-0.07783065
187	0xbddb4c8a	-0.10707958
188	0xbde79d46	-0.113092944
189	0xbd0c37f0	-0.034233034
190	0xbda78056	-0.08178775
191	0x3d0de6b6	0.03464385
192	0x3c820d5b	0.015875509
193	0xbbc3dba1	-0.0059771095
194	0x3db22b2d	0.086996414
195	0x3e2a249f	0.16615532
196	0x3dde501f	0.10855126
197	0x3d14a5ac	0.03629081
198	0x3d925e52	0.071468964
199	0x3d681894	0.056664065
200	0x3e102b56	0.14079031
201	0x3dc75bec	0.097343296
202	0xbd3e74bc	-0.046498045
203	0xbc3d50a8	-0.0115548745
204	0x3e427fa9	0.18994011
205	0x3dc1d0ce	0.094636545
206	0x3e3f1731	0.1866119
207	0x3ddcb1ca	0.10776098
208	0xbc8007c3	-0.015628701
209	0xbc40b6b6	-0.011762312
210	0x3c89ac32	0.016805742
211	0x3cfc5e39	0.030806648
212	0xbcb3c477	-0.021944268
213	0x3d94b88a	0.072617605
214	0x3cc498dd	0.023998672
215	0xbd044b4c	-0.03229837
216	0x3dacabfa	0.084312394
217	0xbc0b19b4	-0.008490015
218	0x3d0770eb	0.03306667
219	0x3cd6e60c	0.026232742
220	0xbd65b565	-0.056081194
221	0x3e2ea9c6	0.17056951
222	0x3dde1a8f	0.108449094
223	0xbb9a33de	-0.00470589
224	0x3e14eaaa	0.14542642
225	0xbd3c857d	-0.04602574
226	0x3d95b17a	0.073092416
227	0x3e0fa84c	0.14029044
228	0x3dbbee44	0.09176305
229	0x3c80ce01	0.01572323
230	0xbcf6f95d	-0.030148203
231	0xbc2ffa49	-0.010740825
232	0x3dca48df	0.0987718
233	0x3e4ab473	0.19795398
234	0xbcd50f8e	-0.026008394
235	0xbc19bf96	-0.009384057
236	0xbdbb403d	-0.09143112
237	0x3a40faeb	0.00073616084
238	0x3d83c714	0.064344555
239	0xbb8be13a	-0.0042687925
240	0x3db88b0d	0.09010897
241	0x3e14c8ea	0.14529768
242	0x3de6bc88	0.11266428
243	0xbc383f64	-0.011245582
244	0x3de8b6c2	0.11362983
245	0x3dd59f2e	0.10430752
246	0x3d952d09	0.072839804
247	0x3bda7682	0.0066669593
248	0x3e4268df	0.18985318
249	0x3e0f8bbb	0.14018147
250	0x3ce0e3d2	0.027452383
251	0xbd08e325	-0.033419747
252	0x3d953d9e	0.07287143
253	0xbd24a759	-0.040198658
254	0xbc1cfb76	-0.009581437
255	0x3da23170	0.07919586

key_proj.0.weight f4 [20, 64]
0	0xbdd1b0fc	-0.10238835
1	0x3dc70b02	0.097188964
2	0xbd0b2a46	-0.033975862
3	0xbcbceb07	-0.023061289
4	0x3d94ae53	0.07259812
5	0x3b951bc2	0.004550428
6	0x3d29f247	0.04149082
7	0xbdc28b75	-0.094992556
8	0xbcdb2885	-0.02675272
9	0xbc170ee3	-0.009219858
10	0x3d9000fd	0.070314385
11	0xbd7b273a	-0.061316706
12	0xbd0b789a	-0.03405056
13	0x3db503ff	0.08838653
14	0xbd75f291	-0.060045782
15	0xbddc4e2f	-0.107571
16	0xbd61df9e	-0.0551449
17	0xbdf47ca3	-0.11937835
18	0x3dba1bea	0.090873554
19	0xbd09b5c7	-0.033620622
20	0x3b41820f	0.0029526984
21	0xbd6b4d5a	-0.057446815
22	0x3c95e5bd	0.018298024
23	0x3df58f9b	0.11990281
24	0x3db7c45b	0.08972999
25	0xbd9a03de	-0.07520269
26	0xbcf3634f	-0.02971044
27	0x3d53724a	0.051622666
28	0xbd5e871e	-0.054328077
29	0x3dd80536	0.10547869
30	0x3d076224	0.03305258
31	0x3d125c6b	0.035732668
32	0xbde49c85	-0.11162666
33	0x3df46646	0.119335696
34	0x3dd4c541	0.10389186
35	0x3d44ee3c	0.04807876
36	0xba199a22	-0.00058594544
37	0xbc755cdc	-0.014975753
38	0xbdd18c1d	-0.102318026
39	0xbdfe0590	-0.12403405
40	0x3d988702	0.07447626
41	0x3d4b407d	0.049622048
42	0x3d9de972	0.07710542
43	0xbd2b9fe3	-0.041900527
44	0xbdc315af	-0.0952562
45	0xbd4afc7a	-0.049557187
46	0xbc919d26	-0.01777513
47	0xbdb02c24	-0.08602169
48	0xbdd3b3cb	-0.10337027
49	0x3c1162e5	0.008873676
50	0x3d728500	0.05920887
51	0xbd6a6bf9	-0.057231877
52	0x3b127f34	0.002235365
53	0xbc7c0bcd	-0.015383673
54	0xbd5904fd	-0.052983273
55	0xbc23e603	-0.01000357
56	0xbdc291c9	-0.095004626
57	0xbdbc069d	-0.09180949
58	0x3d44c91c	0.048043355
59	0xbdb7615f	-0.08954119
60	0xbda5d047	-0.080963664
61	0x3db01ecd	0.08599625
62	0xbd7e54b9	-0.062092517
63	0xbe04df66	-0.12975845
64	0xbc98f5c2	-0.018671874
65	0xbcd7aaa1	-0.02632648
66	0xbdbb306a	-0.091400936
67	0x3dfae4a4	0.12250641
68	0xbba657ad	-0.0050763697
69	0xbd81f202	-0.063449875
70	0x3c77714b	0.015102695
71	0xbcbcb743	-0.023036605
72	0x3c8936a2	0.016749684
73	0x3e0d7bae	0.13816711
74	0xbc533af3	-0.012892473
75	0x3b3d4dc1	0.0028885456
76	0xbcc7e81c	-0.02440267
77	0xbd87f098	-0.066376865
78	0x3c793fa3	0.015212926
79	0xbdfe9291	-0.12430299
80	0x3ce543a9	0.027986364
81	0xbc804a47	-0.015660418
82	0xbd13520c	-0.035966918
83	0xbd3dcbc8	-0.04633692
84	0x3dcafbdd	0.0991132
85	0x3dbe6324	0.09296253
86	0xbdfd2e2e	-0.12362324
87	0x3dd9c4d0	0.10633242
88	0x3d09bd3d	0.033627737
89	0x3d12e086	0.035858653
90	0xbdca13ef	-0.09867083
91	0xbd879115	-0.06619469
92	0xbdf2edd7	-0.118617706
93	0xbdf668fe	-0.120317444
94	0xbdc3a699	-0.0955326
95	0x3da8290d	0.08210955
96	0x3dd1c723	0.102430604
97	0x3d96cde4	0.07363489
98	0xbdc72b63	-0.09725072
99	0x3bd53bb9	0.0065073636
100	0xb93e57a4	-0.0001815246
101	0x3cbbcd11	0.022924932
102	0xbddf36c9	-0.10899121
103	0xbb20c447	-0.0024531053
104	0x3daaeeec	0.08346352
105	0x3d64130e	0.055682234
106	0xbdab79f9	-0.08372874
107	0x3d8f355f	0.069926016
108	0x3a81599f	0.0009868628
109	0x3d87a9ac	0.06624159
110	0x3d67a816	0.056556784
111	0x3dd5fd5e	0.104487166
112	0xbde9aff8	-0.114105165
113	0x3d276814	0.04087074
114	0xbc437209	-0.011929044
115	0x3cc098ba	0.023510326
116	0x3dd4cc0f	0.103904836
117	0xbd4bd7be	-0.049766295
118	0x3d985666	0.07438354
119	0x3cfd95ad	0.03095516
120	0x3ba6ad90	0.005086608
121	0xbde8ac3d	-0.11360977
122	0xbd9ced06	-0.07662396
123	0x3d6b2a14	0.057413176
124	0x3d59b465	0.053150553
125	0x3bf81f9a	0.0075721266
126	0x3db90794	0.090346485
127	0xbd8b10e6	-0.067903325
128	0xbdbdf17a	-0.092745736
129	0x3da5250d	0.080637075
130	0xbdad8658	-0.0847289
131	0x3db63426	0.08896665
132	0xbdc88152	-0.09790291
133	0x3d55eeb9	0.052229617
134	0xbdb50949	-0.08839662
135	0xbb43906b	-0.0029840718
136	0xbdf408da	-0.11915751
137	0x3c890110	0.01672414
138	0x3c3a96b7	0.011388472
139	0x3dde60ef	0.10858332
140	0xbca73635	-0.02041159
141	0x3cc80f64	0.024421401
142	0xbcfbec39	-0.030752288
143	0xbd52d415	-0.05147179
144	0xbcf6f9ec	-0.030148469
145	0x3dda06ca	0.10645826
146	0x3d922926	0.07136755
147	0xbd86431d	-0.065557696
148	0xbd5bb81f	-0.05364239
149	0xbdb4db62	-0.088309065
150	0xbd866ea0	-0.06564069
151	0xbcdd71e6	-0.02703185
152	0x3d6e97c4	0.058250204
153	0xbd0cacbf	-0.03434443
154	0xbde94d05	-0.113916434
155	0xbb6f2b51	-0.0036494324
156	0xbd775e8a	-0.060392894
157	0xbd8bfac8	-0.06834942
158	0x3cc74cda	0.024328638
159	0x3d999f6b	0.0750111
160	0x3ccbf5e2	0.02489752
161	0x3dee959b	0.11649629
162	0xbdb8a882	-0.09016515
163	0xbd7591e7	-0.059953596
164	0xbd1108bb	-0.035408717
165	0x3d2d3e6c	0.04229586
166	0x3d85c6d7	0.06532066
167	0x3dc2a2d4	0.09503713
168	0x3c85e311	0.016343625
169	0xbbaabf9d	-0.0052108304
170	0xbb3c6842	-0.0028748666
171	0x3aa4a6dc	0.0012561935
172	0x3dd516da	0.10404749
173	0x3dba2d08	0.0909062
174	0xbbda419e	-0.006660654
175	0x3c3a8a5e	0.011385528
176	0x3dd6fd19	0.10497493
177	0x3ddad487	0.106850676
178	0xbd935078	-0.071930826
179	0x3cea48cd	0.028599167
180	0xbc736899	-0.014856481
181	0x3dbcf36e	0.09226118
182	0xba2c5fff	-0.0006575584
183	0xbdb2bc4a	-0.087273195
184	0xbc3dc2f7	-0.011582128
185	0x3dc55354	0.09635034
186	0xbd4713c2	-0.048602827
187	0xbd884742	-0.06654216
188	0xbd696981	-0.056985382
189	0x3d66b297	0.05632266
190	0xbc2b0976	-0.010439267
191	0x3cbd7f6b	0.023132047
192	0xbdba7b24	-0.091055185
193	0xbd457031	-0.048202697
194	0xbddd70cb	-0.10812529
195	0xbd92a108	-0.071596205
196	0x3dbcec12	0.09224714
197	0x3de996d1	0.11405719
198	0xbcb97ed1	-0.022643479
199	0xbd80b749	-0.06284959
200	0x3dd6567a	0.10465713
201	0x3d560fb9	0.052261088
202	0x3c6651ad	0.014057559
203	0x3dabdcd9	0.08391733
204	0xbd988269	-0.07446749
205	0xbd26b870	-0.040703237
206	0xbc43a82f	-0.011941954
207	0xbdc2b1d7	-0.095065765
208	0xbdd3542a	-0.103187874
209	0xbd78ad88	-0.060712367
210	0xbdc4ad6d	-0.09603391
211	0xbdaac210	-0.08337796
212	0x3d7259d5	0.0591677
213	0x3da6b1c8	0.08139378
214	0x3b178da8	0.0023125205
215	0xbdac575a	-0.084150985
216	0xbd9b9e31	-0.07598532
217	0xbda93c09	-0.08263404
218	0x3d8eecfe	0.069787964
219	0x3df7fbe3	0.121085905
220	0xbcf0c1b7	-0.029389245
221	0x3d252c46	0.040325426
222	0x3c1584df	0.009125917
223	0xbe0d440f	-0.13795494
224	0x3c1c74e2	0.009549351
225	0xbd983dab	-0.07433637
226	0x3d436e43	0.047712576
227	0x3ded98b5	0.11601392
228	0xbdb1d4f8	-0.08683199
229	0x3cead83d	0.028667564
230	0x3d2c9f9a	0.042144395
231	0x3db0d9e7	0.086353116
232	0x3d7f9680	0.062399387
233	0x3da4f00a	0.08053596
234	0x3dd02087	0.10162454
235	0xbcaf7680	-0.02141881
236	0xbdd022e3	-0.10162904
237	0x3c9c53b2	0.019082878
238	0x3c98af57	0.018638296
239	0x3d9dc372	0.07703294
240	0xbd7a345d	-0.061085094
241	0x3e1662ae	0.14686081
242	0x3df4257a	0.119212106
243	0x3d0ae5d3	0.033910584
244	0xbce8cc7e	-0.028417822
245	0x3de173b1	0.110083945
246	0x3dbe37bc	0.09287974
247	0x3dd9b53c	0.10630271
248	0x3e11b551	0.14229323
249	0x3d02caab	0.03193156
250	0x3d4df9c2	0.050287016
251	0xbdbbb839	-0.09165997
252	0x3d982682	0.0742922
253	0x3a70f075	0.00091911043
254	0x3d79bc88	0.060970813
255	0x3d7fb72f	0.062430557

key_proj.0.bias f4 [20]
0	0x3de5d512	0.112222806
1	0x3db1efd7	0.08688324
2	0x3d328b96	0.04359015
3	0x3d869292	0.06570925
4	0xbda3c5fa	-0.079967454
5	0xbd428c82	-0.04749728
6	0xbd9c134d	-0.07620869
7	0xbdc362e5	-0.09540347
8	0xbd89fed3	-0.06738057
9	0xbdd0231f	-0.10162949
10	0xbc875bdd	-0.016523296
11	0xbddefbd7	-0.108878784
12	0x3e0291b7	0.12750898
13	0x3d6e9b03	0.0582533
14	0x3d9939c8	0.07481724
15	0xbd92e5f3	-0.071727656
16	0x3cffb428	0.031213835
17	0x3d6da45f	0.058018085
18	0xbdd9376b	-0.10606273
19	0x3e0f81d6	0.14014372

key_proj.1.weight f4 [20, 64]
0	0x3d405555	0.04695638
1	0xbcaa18b3	-0.02076373
2	0xbd7cd772	-0.061728902
3	0x3dcd0e56	0.100125
4	0xbd940ecf	-0.07229387
5	0xbd175b1e	-0.03695213
6	0xbda06af8	-0.07832903
7	0xbdb0d150	-0.08633673
8	0x3dc43045	0.09579519
9	0xbd182fb7	-0.03715488
10	0xbd5447b5	-0.051826198
11	0x3c4f1c35	0.012641002
12	0x3d9c1c53	0.0762259
13	0x3d01ccc9	0.03168944
14	0x3d5d4e04	0.05402948
15	0x3c7094ee	0.014683945
16	0xbde48fc5	-0.11160234
17	0xbc4536f3	-0.012037027
18	0xbd2a3400	-0.041553497
19	0xbd901fa2	-0.070372835
20	0x3dbbb7a9	0.0916589
21	0x3d42b373	0.047534417
22	0x3c9b3c98	0.018949792
23	0x3d1d379d	0.038383115
24	0xbc1b9f65	-0.009498452
25	0x3b7427ef	0.0037255248
26	0x3d68754c	0.056752488
27	0xbd1ba023	-0.037994515
28	0xbd9d0a52	-0.07667984
29	0x3d3cffe9	0.046142492
30	0xbdff02b1	-0.12451685
31	0x3a1224a0	0.00055749156
32	0xbddfa71c	-0.109205455
33	0x3dd92f04	0.10604671
34	0xb9937c0d	-0.0002813045
35	0x3a92ae6e	0.00111909
36	0xbc60ee85	-0.0137287425
37	0x3d5cd5fb	0.053915005
38	0x3de4a4c1	0.11164237
39	0xbce74390	-0.028230458
40	0xbcf370b3	-0.029716825
41	0xbd6b17b0	-0.057395637
42	0x3b8edcbd	0.00435981
43	0xbd4a37d4	-0.049369648
44	0xbc9db954	-0.01925341
45	0x3dda5754	0.10661188
46	0xbb9e391b	-0.004828585
47	0x3ddea103	0.10870554
48	0xbd599420	-0.05311978
49	0x3d765ba8	0.060146004
50	0x3d872384	0.06598571
51	0xbd13260d	-0.03592496
52	0x3d840e05	0.064479865
53	0x3d0f7058	0.03501925
54	0xbd480b1d	-0.048838723
55	0x3dcf9ed9	0.1013772
56	0xbd7ade70	-0.06124729
57	0xbd34d242	-0.04414583
58	0xbd9c3b89	-0.07628543
59	0xbdb8e5a2	-0.09028174
60	0xbd5a15c0	-0.0532434
61	0xbdaad13d	-0.0834069
62	0x3c957cbe	0.018247958
63	0x3ca455f9	0.020060526
64	0x3d600e39	0.054701064
65	0xbd81026f	-0.06299292
66	0xbd09a6ee	-0.033606462
67	0x3dace4d6	0.084420845
68	0xbdb0870c	-0.08619508
69	0x3da28721	0.0793593
70	0xbd4f4527	-0.05060306
71	0x3df099ff	0.117481224
72	0xbbfea4c6	-0.0077711074
73	0xbdc99b9c	-0.09844133
74	0xbc5f108a	-0.013614783
75	0x3dd0fd1e	0.10204528
76	0x3e128940	0.14310169
77	0x3dee1e68	0.11626893
78	0x3d748f83	0.059707176
79	0x3da253a0	0.079261065
80	0x3d0e822d	0.034792114
81	0x3d6551af	0.055986103
82	0x3b9891a5	0.004656034
83	0x3bae3bc9	0.0053171855
84	0xbdddbf87	-0.108275466
85	0xbdd7d731	-0.105390914
86	0x3d85dad4	0.06535879
87	0xbd23f52f	-0.040028747
88	0xbd2bfbbd	-0.041988123
89	0x3dde620e	0.10858546
90	0x3b24abe6	0.0025126874
91	0xbd82deeb	-0.063901745
92	0x3a01d614	0.00049528596
93	0xbd000ac1	-0.031260256
94	0xbdde5fce	-0.10858117
95	0xbd24272d	-0.040076423
96	0xbd49b7c0	-0.049247503
97	0xbd89d938	-0.06730884
98	0x3df80155	0.12109629
99	0x3d5ef2c9	0.054430757
100	0x3c30af0d	0.010783923
101	0x3d1a4942	0.03766752
102	0x3c86de28	0.016463354
103	0xbc883cab	-0.016630491
104	0x3de5b625	0.11216382
105	0x3dc8bba2	0.09801413
106	0x3db4d084	0.08828834
107	0x3d05ab25	0.03263392
108	0x3c86f4f8	0.016474232
109	0xbd15a0cd	-0.036530305
110	0x3cf6b392	0.030114923
111	0xbd9bcd90	-0.07607567
112	0x3d2458a8	0.04012361
113	0xbdd34114	-0.10315147
114	0xbdf5eb45	-0.12007765
115	0x3db23b52	0.08702721
116	0xbdb16b88	-0.08663088
117	0x3b367e59	0.0027846305
118	0xbd721ba2	-0.059108384
119	0xbdb2255d	-0.08698533
120	0x3d6d6259	0.05795512
121	0xba152094	-0.00056887534
122	0x3dc4c81f	0.096084826
123	0x3d725060	0.059158683
124	0x3d401692	0.046896525
125	0x3dd729c1	0.10506011
126	0xbd5d6867	-0.054054644
127	0xbd39f439	-0.045398924
128	0x3cd805ac	0.026369892
129	0xbd5602ed	-0.052248884
130	0xbd1dc93f	-0.038522
131	0xbd47ab4b	-0.048747342
132	0xbdd23efb	-0.10265919
133	0xbda6807e	-0.08129977
134	0xbc898bc1	-0.016790273
135	0x3dd4f11a	0.10397549
136	0x3b789313	0.003792946
137	0xbd17970a	-0.037009276
138	0x3deb4806	0.11488347
139	0xbdf28a53	-0.118427895
140	0xbd0447e0	-0.032295108
141	0x3da31945	0.07963804
142	0xbdd8d38c	-0.10587224
143	0xbdc6e4b0	-0.097115874
144	0xbd96275a	-0.073317245
145	0x3c9a832f	0.018861381
146	0x3dedf159	0.11618299
147	0xbdfdcdda	-0.12392779
148	0x3d1d6ca8	0.0384337
149	0xbd19446e	-0.037418775
150	0x3b4b279b	0.0030998948
151	0x3da80c1c	0.08205435
152	0xbde4c5cb	-0.111705385
153	0x3dda7256	0.10666339
154	0xbcf00f4e	-0.029304173
155	0xbc0f3c33	-0.00874238
156	0xbc91fe39	-0.017821418
157	0x3d8fd835	0.0702366
158	0x3c8f5d1f	0.017500458
159	0x3d4d5713	0.05013187
160	0xbd3f2d98	-0.04667434
161	0x3dd27fc4	0.102782756
162	0xbd6ba3b1	-0.057529155
163	0xbd81395f	-0.06309771
164	0x3d3c9db5	0.04604884
165	0xbc6b04b7	-0.014344386
166	0xbd92987c	-0.0715799
167	0x3d473450	0.048633873
168	0x3ddd54ca	0.10807188
169	0x3da4f0e3	0.08053758
170	0x39271a8f	0.00015936255
171	0x3d2f9d9c	0.042874917
172	0x3d213fe2	0.039367564
173	0xbd60d9b6	-0.054895125
174	0xbd381377	-0.044940438
175	0x3c314930	0.010820672
176	0xbde22f22	-0.11044146
177	0xbd289082	-0.04115344
178	0xbe0089e9	-0.12552609
179	0xbdad824d	-0.084721185
180	0x3dcf0dd5	0.1011006
181	0xbd8e2223	-0.06940105
182	0x3ccfb42e	0.025354471
183	0x3b4bfeaf	0.0031127145
184	0xbde93f84	-0.11389068
185	0xbdd48805	-0.10377506
186	0x3d86542a	0.06559022
187	0x3d80bcaa	0.06285985
188	0x3c9d58f0	0.019207448
189	0xbc460ee8	-0.012088515
190	0xbd731189	-0.059342895
191	0xbd9a4ab9	-0.075337835
192	0xbd8cb580	-0.06870556
193	0xbc4f4537	-0.012650779
194	0xbdb1b0f5	-0.0867633
195	0x3d173d3e	0.03692364
196	0xbd800617	-0.062511615
197	0xbde6bd93	-0.11266627
198	0x3d886d6c	0.066614956
199	0x3d87a03f	0.066223614
200	0xbd73ff5e	-0.05956971
201	0x3d274d5f	0.04084527
202	0xbde53e0c	-0.11193475
203	0xbe0e1776	-0.13876137
204	0xbd867c2c	-0.06566653
205	0x3d3f8797	0.046760168
206	0x3dc2095e	0.09474443
207	0x3daf3930	0.085558295
208	0x3d6405a9	0.05566946
209	0x3d9da421	0.07697321
210	0xbde0bd8a	-0.10973652
211	0x3d397ff1	0.04528803
212	0x3d41f530	0.04735297
213	0xbd7faa84	-0.062418476
214	0x3d4fecfb	0.05076311
215	0x3a4cee1b	0.0007817463
216	0x3d988a8a	0.07448299
217	0x3ce0a5c0	0.027422786
218	0x3d933727	0.07188254
219	0xbd646c8b	-0.055767577
220	0xbca376e0	-0.019954145
221	0xbbb6d791	-0.0055798967
222	0x3e04ff11	0.12987925
223	0x3d5a9f07	0.053374317
224	0x3c6278df	0.013822763
225	0xbca95ed4	-0.0206751
226	0x3db84470	0.089974284
227	0x3d9b1a7a	0.075734094
228	0xbdf4ebcd	-0.11959038
229	0x3d76e300	0.060275078
230	0xbdee743b	-0.11643263
231	0x3cb69438	0.022287473
232	0xbb9c914e	-0.004778064
233	0xbd2502cf	-0.04028588
234	0xbcdf31cf	-0.02724543
235	0x3d8d113f	0.06888055
236	0x3d007dfe	0.031370156
237	0x3dcb0566	0.09913139
238	0xbd0b0da4	-0.033948556
239	0xbd2daf59	-0.042403553
240	0x3df8743a	0.121315435
241	0xbcb788c7	-0.022404088
242	0xbdea3561	-0.114359625
243	0x3df5e49a	0.12006493
244	0xbd6976c0	-0.056998014
245	0x3de0dd6b	0.10979732
246	0xbc0392b0	-0.0080305785
247	0x3d460c34	0.04835148
248	0xbd3c9fe9	-0.04605094
249	0xbcefadef	-0.029257743
250	0xbdc59b10	-0.096487164
251	0x3db0862a	0.0861934
252	0xbd9aec6b	-0.075646244
253	0x3dcb0b18	0.09914225
254	0x3dc7adee	0.09749971
255	0x3ad500f7	0.0016250898

key_proj.1.bias f4 [20]
0	0xbd5c4902	-0.053780563
1	0x3d5f0ba0	0.054454446
2	0x3d8f4c8a	0.069970205
3	0xbc6c5614	-0.0144248195
4	0xbd2e5a29	-0.042566452
5	0xbc4a0922	-0.012331279
6	0x3c94476f	0.018100468
7	0xbdd45bb0	-0.103690505
8	0xbd1ea9e4	-0.03873624
9	0x3d25f0e4	0.040512934
10	0xbd850be9	-0.06496412
11	0xbdb72dfc	-0.08944318
12	0xbd9cbcca	-0.07653196
13	0x3dd5b259	0.10434408
14	0xbd3268d7	-0.043557014
15	0xbdc0f165	-0.09421042
16	0x3d67b1a1	0.056565885
17	0xbd186c7f	-0.037212845
18	0xbe03e9fa	-0.12882224
19	0x3d9ae4b4	0.07563153
