melhor_modelo_ntm.pth (torch, 392054 bytes, 40 tensors)

embedding.weight f4 [108, 64]
0.6443406 1.7064316 0.9298369 0.33688322 -0.8922332 1.7061839 0.38143384 1.3649153
0.4194883 0.03980042 -0.70910937 0.41223463 0.8004791 -0.13429223 -0.66723007 -0.59581995
-0.3426522 -1.0686734 -3.0982466 0.054338165 -0.06254435 1.5652186 0.81358695 0.47682968
-0.187148 1.2561661 0.47631374 -0.42902488 0.12776911 1.3739915 1.4328774 -0.5207792
-1.5384461 -0.90623134 -0.9887065 0.113488786 0.91451734 -0.5282107 0.39789176 -0.0022037036
0.610862 3.4056277 -0.17336479 1.1723043 -1.4711418 -0.5620103 1.8754512 1.0939618
-0.32314324 0.017679676 1.0889232 1.4805182 0.17645968 0.1761232 0.76999724 -0.5785189
0.21020348 0.6439433 -0.18895118 1.8000442 -0.39997292 0.13845164 -0.88780725 0.28467536
0.76735675 -0.38128197 0.040740687 1.363885 0.02913224 0.9704658 0.49282485 -0.27484533
0.6903027 -0.40182406 -0.3275495 1.2476507 -1.1739923 -0.5935758 0.0028569256 -0.8272939
-0.86730045 -0.6661127 -0.9046576 0.87259024 0.89249676 -0.95848364 -0.7873995 -0.68152815
0.112717405 -1.5308095 1.3567257 0.31526363 -1.2976886 -1.7165607 0.18274601 1.4050653
1.3976277 -0.5031275 0.5573495 2.1078217 1.3084096 -0.36596406 0.6882651 0.98551065
-0.79240614 -0.4916236 -0.7028235 -0.9711598 -0.43334377 -1.0170206 1.0921634 -0.011482323
-0.25395906 2.2538393 -0.34783056 -1.125874 0.2677766 0.109176554 0.33881587 -1.2463166
0.9529261 1.5586388 -0.07640042 -0.7438732 1.3257861 1.2294337 0.68359184 1.2193317
1.7543317 1.3476112 -0.44143093 -0.4316431 0.19750123 -0.27321348 -0.20264235 0.39444923
1.648779 1.0450639 1.6713747 1.245431 1.9146776 0.121208996 2.0712621 -0.28320736
0.014605504 -1.8315175 -0.56144434 -0.5363384 0.419552 -0.2320511 -0.72108227 -1.3946166
0.38342372 -2.2064545 -1.2477379 0.24665673 -0.053269763 -0.258951 0.3239109 0.15851296
-1.1108565 1.1888677 -2.535614 -0.32022735 1.5918671 0.0050381226 -0.044170436 -0.9556883
1.0410367 0.27119038 -0.6058354 1.1104416 -0.3255152 2.237225 1.1841867 -1.3914363
0.37348065 -0.4952946 1.0082769 1.390795 -1.1252095 -0.59432876 -0.63698876 -0.4428098
-0.2418983 0.15587355 -0.74502873 0.8892541 -0.2909431 0.3502256 1.371313 0.73433554
-1.0531156 -0.17544428 0.5546959 0.003412117 -1.829018 0.33260527 -1.240561 -0.010989088
0.30964997 -0.15211417 -0.650113 0.19277206 -0.06709849 -0.5515867 0.8135396 -1.4031587
-0.7855833 1.211625 -0.99441576 1.3058599 0.20721973 0.69363344 -0.62221473 -0.0056684045
-1.5344868 -1.4581892 0.6033055 -0.6626208 -0.8635203 0.12214266 -0.9058564 -1.5638065
0.7458955 -0.35050476 0.8647146 0.34748346 0.47738534 -0.31337687 -0.52665377 0.62277263
-0.23225048 0.32706782 -0.15362859 0.61918294 1.316083e-37 0.44898993 0.93088776 0.5095398
0.37114587 -1.075567 0.82260025 0.83120316 -0.50510675 1.6518358 -0.11727119 -0.75469375
-1.3017286 0.67360693 -0.008639726 -0.01357238 0.17860882 -0.7224261 -0.88043815 0.65078807
00000000: 81f3 243f 5a6c da3f cb09 6e3f f57b ac3e
00000010: 6569 64bf 3c64 da3f 4c4b c33e 8bb5 ae3f
00000020: 2cc7 d63e c405 233d 3188 35bf 6b10 d33e
00000030: 33ec 4c3f e783 09be 97cf 2abf a887 18bf
00000040: 1c70 afbe 4aca 88bf ac49 46c0 b291 5e3d
00000050: 4117 80bd 1559 c83f 3c47 503f 0523 f43e
00000060: baa3 3fbe 0dca a03f 65df f33e 26a9 dbbe
00000070: e8d5 023e f4de af3f 8768 b73f c951 05bf
00000080: cdeb c4bf c7fe 67bf df1b 7dbf cf6c e83d
00000090: cf1d 6a3f d138 07bf 78b8 cb3e 036c 10bb
000000a0: 7461 1c3f cef5 5940 8a86 31be 110e 963f
000000b0: 604e bcbf e8df 0fbf c90e f03f f106 8c3f
000000c0: 0873 a5be f8d4 903c d661 8b3f 9f81 bd3f
000000d0: d9b1 343e a459 343e 8a1e 453f d119 14bf
000000e0: 953f 573e 78d9 243f 6b7c 41be d967 e63f
000000f0: 40c9 ccbe 44c6 0d3e 5647 63bf f8c0 913e
00000100: 7e71 443f 6437 c3be b5df 263d c993 ae3f
00000110: bca6 ee3c 7270 783f 8a53 fc3e 87b8 8cbe
00000120: aeb7 303f e2bb cdbe 91b4 a7be 05b3 9f3f
00000130: 6145 96bf 95f4 17bf 423b 3b3b 88c9 53bf
00000140: 6707 5ebf 5d86 2abf a497 67bf 1362 5f3f
00000150: ab7a 643f 2f5f 75bf 0393 49bf a178 2ebf
00000160: 62d8 e63d 91f1 c3bf 30a9 ad3f 3c6a a13e
00000170: a91a a6bf 43b8 dbbf c521 3b3e 2ed9 b33f
00000180: 77e5 b23f f7cc 00bf 75ae 0e3f 8de6 0640
00000190: f779 a73f a45f bbbe 2432 303f 6d4a 7c3f
000001a0: 21db 4abf 17b6 fbbe 3eec 33bf ee9d 78bf
000001b0: 3cdf ddbe bb2d 82bf 03cc 8b3f 5a20 3cbc
000001c0: ec06 82be e73e 1040 d916 b2be a41c 90bf
000001d0: 041a 893e f597 df3d 4679 ad3e 4d87 9fbf
000001e0: f7f2 733f 7a81 c73f d377 9cbd 796e 3ebf
000001f0: 5cb3 a93f 155e 9d3f e0ff 2e3f 1013 9c3f
00000200: f18d e03f 867e ac3f 3c03 e2be 5300 ddbe
00000210: c33d 4a3e a3e2 8bbe 7a81 4fbe 40f5 c93e
00000220: 310b d33f a7c4 853f 9bef d53f 486a 9f3f
00000230: 2814 f53f 6c3c f83d 8f8f 0440 8e00 91be
00000240: ed4b 6f3c 2a6f eabf d1ba 0fbf 794d 09bf
00000250: 85cf d63e ce9e 6dbe d998 38bf cc82 b2bf
00000260: 1d50 c43e 8d36 0dc0 e0b5 9fbf 9593 7c3e
00000270: 6531 5abd 3a95 84be a6d7 a53e 3951 223e
00000280: 8c30 8ebf d12c 983f 8047 22c0 d7f4 a3be
00000290: 4dc2 cb3f d616 a53b 0fec 34bd fda7 74bf
000002a0: b140 853f 77d9 8a3e 0718 1bbf f322 8e3f
000002b0: eea9 a6be b22e 0f40 6e93 973f 961a b2bf
000002c0: db38 bf3e 4197 fdbe 380f 813f 9205 b23f
000002d0: dd06 90bf ee25 18bf b211 23bf f7b7 e2be
000002e0: 30b4 77be 519d 1f3e 34ba 3ebf 28a6 633f
000002f0: 7ef6 94be c550 b33e 2f87 af3f 6afd 3b3f
00000300: 7ecc 86bf aaa7 33be 8d00 0e3f d39d 5f3b
00000310: 431d eabf 3d4b aa3e b4ca 9ebf 930b 34bc
00000320: 718a 9e3e d1c3 1bbe ce6d 26bf 0a66 453e
00000330: ef6a 89bd c934 0dbf 2244 503f b49a b3bf
00000340: fd1b 49bf 8716 9b3f 0892 7ebf 6b26 a73f
00000350: 6931 543e f691 313f 7749 1fbf 06be b9bb
00000360: 106a c4bf f2a5 babf 3b72 1a3f 84a1 29bf
00000370: ab0f 5dbf ee25 fa3d 34e6 67bf d02a c8bf
00000380: 02f3 3e3f 5c75 b3be f05d 5d3f 5ae9 b13e
00000390: da6b f43e ef72 a0be c8d2 06bf 076e 1f3f
000003a0: 12d3 6dbe 6f75 a73e d050 1dbe c682 1e3f
000003b0: cd22 3302 02e2 e53e a94e 6e3f 3371 023f
000003c0: d506 be3e 2eac 89bf ee95 523f bbc9 543f
000003d0: ad4e 01bf 5b6f d33f e12b f0bd 9c33 41bf
000003e0: 0b9f a6bf 8171 2c3f a38d 0dbc b05e 5ebc
000003f0: 3be5 363e ebf0 38bf 6564 61bf 0c9a 263f

controller.fc.0.weight f4 [64, 256]
0.09054823 -0.023361411 0.06722046 0.052696932 -0.0044086715 0.06995238 0.020393353 0.017518139
0.07029214 0.039570633 -0.046241492 0.023832168 0.005190361 -0.025440337 -0.009339912 -0.07444708
-0.058834836 -0.07683772 -0.09327085 -0.042086117 0.06012775 -0.035440296 0.043511584 -0.02947055
0.030329492 -0.024037419 -0.04632987 -0.046810318 0.0061560855 -0.025079532 0.07741439 0.07350532
-0.028186943 0.01848891 0.013433412 0.027263502 0.08346321 -0.08604157 -0.019783529 0.020209886
-0.0010456477 0.036185186 -0.07548781 -0.018253846 -0.02838783 -0.022698812 0.056728855 -0.06956575
0.016935002 -0.030144794 0.054293916 0.033214085 -0.059500415 -0.01436952 0.010382515 -0.08515781
-0.02940099 0.02726221 -0.08276565 -0.021999655 -0.039403826 -0.01644756 0.01669698 0.014349397
0.010320149 -0.056749348 -0.062488433 0.014540302 -0.060456477 0.012941038 0.044922363 0.006275428
-0.010972122 0.048998445 0.049765266 -0.016737109 0.021226106 0.06511125 -0.018334912 -0.05918067
-0.006480006 0.05706954 -0.019600729 -0.025416708 0.04910085 0.0074697486 0.019432077 -0.039416127
-0.041170113 0.046243347 0.07882057 -0.030666828 -0.0048331674 0.06668948 -0.06067178 -0.0030198237
0.03098641 -0.03686402 -0.02885958 0.055449788 -0.04516622 0.07339479 -0.029405106 0.002280248
-0.055377167 0.01004375 -0.011459241 -0.06570836 -0.039293703 0.038354494 -0.069170505 0.04500756
0.0114135435 0.012686723 0.042816054 0.03767477 0.008078435 -0.048272323 0.010203786 0.07392175
-0.009364336 0.043454178 0.023650588 0.03522282 -0.01787113 0.038914755 -0.023886517 0.017859185
-0.020216888 -0.032841735 -0.045060974 -0.031878527 0.021978622 0.010730347 0.00852404 0.041698877
-0.010533085 0.061023068 0.06328046 -0.012272914 -0.032732733 -0.036500506 -0.05362131 0.039986823
0.0039319247 0.06970515 0.04192443 0.046583526 0.07336139 0.060376544 -0.0070696697 -0.04195212
-0.043815963 -0.052165404 0.09184178 -0.0017435118 -0.02652393 0.0030179087 -0.05075034 -0.02390177
-0.057233416 0.06863931 0.00840672 0.05409009 0.039597224 0.02771182 0.043337986 0.002260613
0.062283408 -0.024610179 0.06821889 0.029759763 -0.00046723464 0.070407115 0.05797648 0.028174968
0.0006242068 0.019196374 -0.031832896 -0.068727694 0.009945302 -0.015255278 -0.07830131 -0.0040692766
-0.039543748 0.0014938976 0.017240742 0.022835236 0.036084592 -0.047228523 0.07246989 0.026186936
-0.00752893 0.001691495 0.027520657 0.013939881 0.025401 -0.04706819 0.052730598 -0.041995544
-0.025974542 -0.03474301 0.037128408 0.039495286 -0.04962831 -0.062991105 0.059272204 0.0117065525
-0.021519449 -0.04755466 0.017738612 -0.053635124 0.012443775 0.062062934 0.04221921 -0.06324688
-0.04875382 0.03284023 0.03805673 -0.051300175 -0.043241195 0.064562395 0.050294105 0.024061302
0.05101838 -0.025157863 -0.055249833 -0.011118703 -0.05760278 -0.028032618 0.012863347 0.010214162
-0.01050151 -0.04741593 0.0354223 -0.023928512 -0.005981632 0.00557325 -0.019365663 0.033851326
0.05786379 -0.05353768 0.0113799535 0.009503586 0.046000175 -0.07154523 0.037678685 0.003805612
-0.05852222 -0.05197382 -0.041053753 0.043955743 0.04712546 -0.026481386 0.07203198 -0.034479987
00000000: 5a71 b93d 6e60 bfbc e1aa 893d bdd8 573d
00000010: 9e76 90bb 3243 8f3d f60f a73c 3382 8f3c
00000020: 53f5 8f3d d114 223d b867 3dbd ae3b c33c
00000030: e713 aa3b 4168 d0bc 6e06 19bc b677 98bd
00000040: ccfc 70bd 185d 9dbd ca04 bfbd 7e62 2cbd
00000050: 8448 763d d829 11bd 3439 323d 396c f1bc
00000060: 8e75 f83c 1fea c4bc 64c4 3dbd 2dbc 3fbd
00000070: fdb8 c93b 9773 cdbc 708b 9e3d f589 963d
00000080: 4ee8 e6bc 0e76 973c d017 5c3c b557 df3c
00000090: c2ee aa3d 9036 b0bd 1111 a2bc 348f a53c
000000a0: 1d0e 89ba eb36 143d 5a99 9abd 1789 95bc
000000b0: 988d e8bc dcf2 b9bc 845c 683d 7d78 8ebd
000000c0: 46bb 8a3c 37f2 f6bc 4c63 5e3d 7e0b 083d
000000d0: b5b6 73bd 236e 6bbc 6d1b 2a3c 3867 aebd
000000e0: 58da f0bc 0055 df3c 0981 a9bd 9f38 b4bc
000000f0: e865 21bd 09bd 86bc 1bc8 883c bc19 6b3c
00000100: d815 293c 0172 68bd dff3 7fbd 723a 6e3c
00000110: 36a1 77bd a606 543c 8300 383d 1ba2 cd3b
00000120: 6ac4 33bc 98b2 483d aad6 4b3d 431c 89bc
00000130: 5fe2 ad3c 0c59 853d 1933 96bc 6e67 72bd
00000140: 3b56 d4bb c0c1 693d b591 a0bc b336 d0bc
00000150: f91d 493d cbc4 f43b 0530 9f3c ce72 21bd
00000160: fea1 28bd aa69 3d3d ae6c a13d 0039 fbbc
00000170: 8c5f 9ebb 7e94 883d f982 78bd 3ce8 45bb
00000180: 36d7 fd3c bafe 16bd ed6a ecbc 511f 633d
00000190: 3700 39bd 0250 963d fae2 f0bc 3770 153b
000001a0: 2bd3 62bd 8a8e 243c 8abf 3bbc 1b92 86bd
000001b0: 6ff2 20bd 9a19 1d3d 44a9 8dbd d959 383d
000001c0: dfff 3a3c f9db 4f3c e35f 2f3d dc50 1a3d
000001d0: 6a5b 043c 33b9 45bd c82d 273c 4964 973d
000001e0: df6c 19bc 02fd 313d e1be c13c ce45 103d
000001f0: 7a66 92bc 1465 1f3d a8ad c3bc 6d4d 923c
00000200: e39d a5bc 0e85 06bd db91 38bd 0f93 02bd
00000210: 830c b43c 56ce 2f3c 6aa8 0b3c 71cc 2a3d
00000220: f692 2cbc 53f3 793d 3099 813d 5514 49bc
00000230: c212 06bd 8e81 15bd 05a2 5bbd 39c9 233d
00000240: 60d7 803b 93c1 8e3d f3b8 2b3d 5ece 3e3d
00000250: 7f3e 963d 654d 773d b0a8 e7bb fcd5 2bbd
00000260: 5e78 33bd 64ab 55bd 8b17 bc3d 8c86 e4ba
00000270: b648 d9bc 1bc8 453b 97df 4fbd a5cd c3bc
00000280: 966d 6abd c492 8c3d 57bc 093c 928d 5d3d
00000290: b330 223d e603 e33c 2c83 313d cb26 143b
000002a0: e31c 7f3d 499b c9bc 58b6 8b3d bfca f33c
000002b0: 2cf7 f4b9 9b31 903d bf78 6d3d 31cf e63c
000002c0: cfa1 233a b741 9d3c 3663 02bd 1bc1 8cbd
000002d0: 9ff1 223c 46f1 79bc 705c a0bd 9157 85bb
000002e0: a0f8 21bd e3ce c33a 753c 8d3c f610 bb3c
000002f0: 70cd 133d b272 41bd 186b 943d fc85 d63c
00000300: 3eb5 f6bb 27b5 dd3a 0073 e13c 1964 643c
00000310: c215 d03c 93ca 40bd 0afc 573d 8503 2cbd
00000320: 90c8 d4bc b04e 0ebd f513 183d cfc5 213d
00000330: 0e47 4bbd 7b01 81bd 69c7 723d d7cc 3f3c
00000340: 8e49 b0bc adc8 42bd 9150 913c 81b0 5bbd
00000350: fae0 4b3c b435 7e3d 0dee 2c3d 9587 81bd
00000360: 16b2 47bd 7a83 063d 60e1 1b3d 2220 52bd
00000370: ae1d 31bd 4a39 843d 3101 4e3d 351c c53c
00000380: a6f8 503d dd17 cebc a64d 62bd 382b 36bc
00000390: e5f0 6bbd a9a4 e5bc cac0 523c 4d59 273c
000003a0: 870e 2cbc 3537 42bd f916 113d ba05 c4bc
000003b0: 9101 c4bb cf9f b63b bda4 9ebc b0a7 0a3d
000003c0: 9502 6d3d 544a 5bbd fc72 3a3c eeb4 1b3c
000003d0: ae6a 3c3d 4e86 92bd f754 1a3d 9367 793b
000003e0: ffb4 6fbd 80e2 54bd fb27 28bd f00a 343d
000003f0: a006 413d 7eef d8bc 8185 933d e33a 0dbd

controller.fc.0.bias f4 [64]
0.05825574 0.07913417 0.016978176 -0.031823985 -0.01756997 0.034598846 0.08095249 -0.05272731
-0.018608652 -0.022857266 0.08711216 0.007631501 -0.0014075699 0.0644397 0.03306378 0.10544754
-0.007913724 0.029636541 -0.0023873763 0.08906841 0.007985814 -0.018964222 0.019006629 -0.023816455
-0.0056989696 -0.028429858 0.052713502 0.07454222 0.065035164 0.10858666 -0.06574301 0.0168327
0.07482082 -0.00029050073 -0.041876387 0.031027563 -0.020609058 0.027499255 0.08184892 0.063059814
-0.05094295 0.020362895 0.074835226 0.06841129 0.10061114 0.026717044 0.09692195 0.076032594
-0.00029993217 0.044488635 -0.045533106 0.011432642 0.019053623 -0.015068344 0.07342338 0.083984226
0.0050866995 0.096194476 -0.041792296 0.06931824 0.0065269084 -0.060634814 0.06213957 0.05128453
00000000: 929d 6e3d 1911 a23d d115 8b3c de59 02bd
00000010: e6ee 8fbc 85b7 0d3d 6bca a53d 98f8 57bd
00000020: 2c71 98bc 293f bbbc dc67 b23d ac11 fa3b
00000030: 357e b8ba f6f8 833d e36d 073d e1f4 d73d
00000040: 90a8 01bc 55c8 f23c 8775 1cbb 8069 b63d
00000050: eed6 023c db5a 9bbc cab3 9b3c ba1a c3bc
00000060: 6cbe babb bce5 e8bc 1dea 573d 97a9 983d
00000070: 2831 853d af62 de3d 45a4 86bd bbe4 893c
00000080: a83b 993d 594e 98b9 9386 2bbd 842d fe3c
00000090: 54d4 a8bc 1e46 e13c 68a0 a73d 8125 813d
000000a0: 8ea9 50bd 16d0 a63c 3643 993d 381b 8c3d
000000b0: 370d ce3d b4dd da3c 047f c63d fab6 9b3d
000000c0: 3740 9db9 b739 363d ec80 3abd fa4f 3b3c
000000d0: 5816 9c3c 37e1 76bc ff5e 963d ecff ab3d
000000e0: 54ae a63b 9c01 c53d 662e 2bbd b9f6 8d3d
000000f0: addf d53b 365c 78bd 1086 7e3d ba0f 523d

controller.fc.2.weight f4 [64, 64]
-0.13204628 0.087537885 0.024055563 -0.11036432 0.1176671 0.002807439 0.034304023 -0.10846225
-0.049946666 0.024220185 -0.085997574 -0.034089778 0.0025611834 -0.124523394 -0.057708748 -0.09808082
0.015780758 -0.06672714 -0.09718755 -0.02848914 0.005143219 -0.019933812 -0.1103902 -0.10384421
-0.14845239 -0.047474686 -0.035714068 -0.052282266 -0.09097724 0.019965759 -0.1405005 0.049529545
-0.03129652 -0.010268933 0.020142362 0.062117245 -0.11766783 -0.08416681 -0.09884728 0.081569314
0.028780058 0.037129417 0.09522845 -0.06626609 -0.02862031 -0.12742828 -0.09699291 -0.1364496
0.005719648 0.065323256 0.05291823 -0.12973228 -0.0041907434 0.07958272 -0.028085042 0.026560642
-0.06195855 0.049202245 0.043282207 -0.11597098 -0.06626275 -0.06507689 -0.12071422 -0.03319527
0.05634016 -0.03156703 -0.024325201 -0.022519723 -0.12735347 0.00464247 -0.053798832 -0.029839545
-0.07935602 0.11890793 -0.082309425 -0.13366622 0.1410353 0.06696255 0.089387946 -0.018194605
-0.03431148 -0.039981972 -0.017496996 -0.043301694 -0.08878237 0.069314934 -0.003407596 0.0709787
0.03524768 -0.091921665 -0.0879133 0.10783436 -0.046831515 0.041407328 0.094895326 0.016375761
-0.0082080085 -0.05942904 -0.024236 -0.028973516 0.07827719 0.089347035 -0.06197632 -0.010299896
0.06031906 0.058389693 -0.10913853 0.09946222 -0.025807453 -0.12019393 -0.05484689 0.091139264
-0.00033949732 -0.086670674 0.06262768 -0.11431679 -0.06414241 0.11251574 0.0739101 -0.07887126
-0.02633625 0.0063046943 0.01994447 -0.12200704 0.038390707 -0.091454566 -0.08562814 -0.13136153
-0.0043801693 0.031657703 0.010412084 -0.07666121 0.023472471 0.027183058 -0.06821392 0.06427924
-0.10860031 0.078461595 -0.10507139 0.09318835 -0.030362807 0.07466856 -0.096591696 0.0024214257
0.09753708 -0.082144834 -0.14359088 0.084955886 0.024466656 -0.013526863 -0.053154387 -0.05420312
0.057900377 -0.059175633 -0.029363357 -0.03940885 -0.13556316 0.0012011961 0.06092923 0.09778295
-0.12885055 -0.13398477 -0.052012086 -0.013452562 0.08720798 0.0045996495 -0.028730625 0.050070126
-0.11135177 0.07296489 -0.06541167 0.07918617 -0.13805436 0.0102684805 -0.07713956 0.09213491
0.00011089003 -0.05437382 -0.1171828 0.028058417 -0.10956732 9.177002e-05 -0.023945596 -0.047076307
0.10092255 -0.09349167 0.09397699 0.084481835 -0.024860324 -0.036440518 0.06594702 -0.10067752
-0.017045116 0.02195512 -0.13570637 0.06507324 0.06324201 0.08811146 -0.12399825 0.09822501
0.0341009 -0.0061153583 -0.07697382 -0.11381093 -0.055266127 0.0081074275 -0.014143238 0.07728277
0.034073412 -0.043097302 0.10619952 0.03539436 -0.04250102 0.006493824 -0.029743992 -0.11000102
-0.053525962 0.08780424 -0.0021236439 -0.06358995 -0.056682784 -0.031201556 0.11240614 -0.09638121
-0.031279802 0.009788744 0.00057678623 -0.13514917 0.053541157 -0.09526911 0.09045889 0.0064948876
-0.057199746 -0.017495114 0.0075260103 -0.12349704 -0.06346802 0.0026007406 0.022483846 -0.07704881
0.0038926995 0.09138118 0.013368692 0.019494861 -0.08191176 -0.12752552 -0.01529619 0.06504607
0.0015272283 -0.120550044 -0.021044642 -0.04956841 -0.109402746 -0.06952866 0.05694445 -0.012363922
00000000: 2437 07be 1047 b33d 2c10 c53c b006 e2bd
00000010: 73fb f03d 03fd 373b 6082 0c3d 7521 debd
00000020: e094 4cbd 6969 c63c 7f1f b0bd b9a1 0bbd
00000030: 87d9 273b 1f06 ffbd 0260 6cbd 99de c8bd
00000040: a646 813c 3da8 88bd 440a c7bd 0f62 e9bc
00000050: 7388 a83b 3c4c a3bc 4214 e2bd 46ac d4bd
00000060: e703 18be d174 42bd ea48 12bd ee25 56bd
00000070: 4652 babd 3b8f a33c 5ddf 0fbe 7edf 4a3d
00000080: c830 00bd 073f 28bc 9801 a53c a76e 7e3d
00000090: d5fb f0bd a65f acbd 7170 cabd d00d a73d
000000a0: 28c4 eb3c 0415 183d 2207 c33d 84b6 87bd
000000b0: 2475 eabc 8f7c 02be 38a4 c6bd 72b9 0bbe
000000c0: e36b bb3b 33c8 853d c9c0 583d 8ad8 04be
000000d0: 8152 89bb 44fc a23d 9a12 e6bc b495 d93c
000000e0: 40c8 7dbd 4b88 493d af48 313d 3182 edbd
000000f0: c4b4 87bd 0847 85bd 0439 f7bd c3f7 07bd
00000100: f1c4 663d 6e4c 01bd a545 c7bc 487b b8bc
00000110: f368 02be dc1f 983b 2a5c 5cbd 1072 f4bc
00000120: 6985 a2bd 0086 f33d d891 a8bd ccdf 08be
00000130: 8f6b 103e a923 893d 0711 b73d da0c 95bc
00000140: 328a 0cbd 23c4 23bd dc55 8fbc 1e5d 31bd
00000150: 88d3 b5bd fdf4 8d3d f951 5fbb 485d 913d
00000160: df5f 103d 6d41 bcbd e30b b4bd 43d8 dc3d
00000170: 67d2 3fbd bb9a 293d 7b58 c23d 7626 863c
00000180: e27a 06bc dd6b 73bd 938a c6bc de59 edbc
00000190: cb4f a03d 94fb b63d e2da 7dbd e5c0 28bc
000001a0: 1e11 773d 082a 6f3d 0684 dfbd d9b2 cb3d
000001b0: 276a d3bc 3c28 f6bd 22a7 60bd 39a7 ba3d
000001c0: 8ffe b1b9 6580 b1bd f142 803d ec1e eabd
000001d0: 195d 83bd a76e e63d 2e5e 973d 4187 a1bd
000001e0: 1fbf d7bc 9c97 ce3b 9662 a33c d4de f9bd
000001f0: 933f 1d3d 884c bbbd ce5d afbd a383 06be
00000200: 8687 8fbb 82ab 013d 7297 2a3c 8d00 9dbd
00000210: 5749 c03c 01af de3c bdb3 8bbd d6a4 833d
00000220: d769 debd 79b0 a03d ab2f d7bd 89d9 be3d
00000230: 6cbb f8bc d4eb 983d ded1 c5bd c8b0 1e3b
00000240: 85c1 c73d 8d3b a8bd 7d09 13be 5afd ad3d
00000250: 4c6e c83c c79f 5dbc 6ab8 59bd 1704 5ebd
00000260: f228 6d3d 2662 72bd 6c8b f0bc 2d6b 21bd
00000270: 12d1 0abe 7471 9d3a ee90 793d 6d42 c83d
00000280: 66f1 03be 4e33 09be a00a 55bd 2268 5cbc
00000290: 199a b23d a8b8 963b 7d5c ebbc 5516 4d3d
000002a0: 660c e4bd 9e6e 953d 8ef6 85bd 5c2c a23d
000002b0: 1f5e 0dbe 213d 283c 58fb 9dbd 3ab1 bc3d
000002c0: a28d e838 15b7 5ebd 89fd efbd c4da e53c
000002d0: d564 e0bd a874 c038 8e29 c4bc 16d3 40bd
000002e0: 7bb0 ce3d 9078 bfbd 0277 c03d d004 ad3d
000002f0: e1a7 cbbc a742 15bd 3b0f 873d 0430 cebd
00000300: 33a2 8bbc 39db b33c 9cf6 0abe 1e45 853d
00000310: 0785 813d c873 b43d cbf2 fdbd 322a c93d
00000320: 63ad 0b3d 5863 c8bb 73a4 9dbd b415 e9bd
00000330: bc5e 62bd 04d5 043c 0ab9 67bc 6e46 9e3d
00000340: 9090 0b3d cc86 30bd 227f d93d adf9 103d
00000350: 8d15 2ebd 25ca d43b aca9 f3bc 3748 e1bd
00000360: 0a3e 5bbd b6d2 b33d d52c 0bbb 733b 82bd
00000370: 352c 68bd 689a ffbc 3135 e63d 8363 c5bd
00000380: 401f 00bd f860 203c 7833 173a 8b64 0abe
00000390: f94d 5b3d 731c c3bd 8342 b93d 11d3 d43b
000003a0: 484a 6abd ea51 8fbc c09c f63b 04ec fcbd
000003b0: 85fb 81bd 3071 2a3b 0b30 b83c c4cb 9dbd
000003c0: a91c 7f3b 0e26 bb3d 5c08 5b3c b0b3 9f3c
000003d0: 5ac1 a7bd 0d96 02be df9c 7abc e036 853d
000003e0: 472d c83a f1e2 f6bd d065 acbc 3f08 4bbd
000003f0: 8c0e e0bd 0b65 8ebd 953e 693d 0c92 4abc

controller.fc.2.bias f4 [64]
0.11321436 -0.11767472 -0.02622813 -0.10216235 0.045851476 0.059933946 0.09936038 0.07371631
0.049453735 -0.082156934 -0.043041114 -0.120787576 0.11726329 -0.08737721 0.13404761 -0.09889471
0.0064784717 -0.10854764 0.01763357 -0.108011834 0.019205147 -0.04729878 -0.118641526 -0.020268926
0.12749702 0.066721134 0.066874385 0.0592125 0.073087506 -0.12908426 -0.10563635 0.039690603
-0.12869811 0.008539323 0.082573034 -0.084557645 0.0492447 -0.056277916 -0.049229275 -0.039269794
-0.08182414 -0.082027666 0.13344577 -0.018234193 -0.060815465 0.14730676 -0.11850095 -0.04876482
0.122348234 0.05954948 -0.03437565 0.028579833 0.057215787 0.12674196 -0.03844563 -0.093143895
-0.041459177 -0.08910887 -0.029269746 -0.07830935 -0.1238237 0.13471198 0.1276962 0.020625988
00000000: eedc e73d 72ff f0bd 60dc d6bc 7f3a d1bd
00000010: c2ce 3b3d 4c7d 753d 747d cb3d 94f8 963d
00000020: 0090 4a3d e541 a8bd e14b 30bd 7a5f f7bd
00000030: bc27 f03d d3f2 b2bd c743 093e 4f89 cabd
00000040: 5c49 d43b 3a4e debd 4774 903c 4f35 ddbd
00000050: 1d54 9d3c 5ebc 41bd 54fa f2bd 050b a6bc
00000060: 948e 023e 17a5 883d 70f5 883d ce88 723d
00000070: e7ae 953d aa2e 04be df57 d8bd 9d92 223d
00000080: 70c9 03be 84e8 0b3c 0d1c a93d 8f2c adbd
00000090: d0b4 493d ac83 66bd a3a4 49bd 5dd9 20bd
000000a0: 6a93 a7bd 1ffe a7bd 02a6 083e e05f 95bc
000000b0: a319 79bd 95d7 163e a0b0 f2bd 9fbd 47bd
000000c0: b691 fa3d 28ea 733d 7bcd 0cbd 4120 ea3c
000000d0: 1a5b 6a3d a5c8 013e 2a79 1dbd 3ac2 bebd
000000e0: 19d1 29bd b67e b6bd 1bc7 efbc a760 a0bd
000000f0: 4897 fdbd f0f1 093e cbc2 023e d5f7 a83c

key_proj.0.weight f4 [64, 64]
0.08082825 0.028067254 0.0069476124 -0.008494322 -0.096900076 -0.10978714 0.016701719 -0.022729766
0.039325055 0.032494776 0.05297256 -0.058863964 -0.05364953 0.09000354 0.116495594 0.050974477
0.0046184855 -0.12588345 0.05987348 -0.012652467 -0.056911364 -0.01248794 -0.034819074 0.013972041
-0.0040266067 0.10631289 0.04284864 -0.09661251 0.0772725 0.015987908 0.026641408 -0.10472348
-0.026828058 -0.09248158 0.07012799 0.05683203 -0.011711518 0.1028211 -0.069245614 -0.020338207
-0.10955792 -0.0074280878 -0.11375889 0.12236661 0.1073562 -0.097261235 0.03485165 -0.035088897
-0.022067184 0.09957738 0.025319427 0.11689204 0.03792761 0.04027757 0.078885555 0.04542545
-0.09923224 0.028489232 0.022116462 0.053457413 0.04376249 -0.055827208 0.063460134 -0.0131928455
0.0802049 0.03307411 -0.09799083 0.08137634 -0.11899167 -0.0798385 0.13238655 0.08538393
0.1066999 0.07453198 0.10358847 -0.10084686 0.123314686 0.073247194 -0.09185966 -0.035106014
-0.01770398 0.104680166 0.044105474 -0.04777464 0.037187736 -0.04512846 0.03962197 0.022429146
-0.025460232 -0.10029163 -0.012245501 0.12903938 -0.022174412 -0.09130847 0.08619629 -0.038260646
0.07710527 -0.015093362 -0.07625614 -0.09192278 0.017608078 -0.013822849 0.018440755 -0.027085826
-0.06966669 -0.098063394 0.06828075 -0.020496998 -0.012400543 -0.09293489 0.028092071 0.11050684
-0.06512868 -0.010689858 0.029482145 -0.099292696 -0.09889453 -0.005974536 0.12341292 0.10706076
-0.045279074 0.07231314 0.040556587 -0.13101025 -0.008465616 0.034315832 -0.059120674 0.01726523
0.043499492 -0.0152122555 -0.06998609 0.12149221 -0.025491515 -0.11772331 -0.04533877 0.12326057
-0.00016423146 -0.06273534 -0.104262106 0.054474898 0.073582076 0.009862069 -0.06805979 0.036668025
0.00806707 0.087271005 0.10598484 0.040389363 -0.02819243 -0.0013792277 0.087384574 0.074198574
-0.08076297 -0.010008424 -0.008431335 0.05094193 0.08201877 -0.056483272 0.046707984 0.008187971
0.11108002 -0.0011467269 0.111686476 -0.028308123 0.044238694 0.034027427 -0.061490204 -0.080229
0.096729584 0.10800697 0.051276952 -0.09061819 0.08082886 -0.09802967 -0.03593731 0.02967323
-0.117856495 0.10622007 -0.027889 -0.04033435 -0.10520012 0.11064287 -0.04375054 0.073258534
0.06138887 -0.023484599 -0.042315006 -0.05521021 -0.055772312 0.073933475 -0.047795303 0.08548944
0.069470964 0.07741002 0.045815464 0.04714242 0.07319059 0.001131022 -0.041368242 -0.041542947
0.08698357 0.05067588 -0.061434224 -0.10101506 0.11669679 -0.11056925 0.021476917 0.109096475
0.10367199 -0.12376206 -0.006295577 0.08052402 0.04018241 -0.00081745186 -0.047641836 0.07370499
0.03223649 -0.033605896 -0.028036073 -0.08480347 -0.015873145 -0.114348635 -0.016694944 0.0065953876
0.05224152 0.072826125 0.120406896 0.035143774 -0.06361308 -0.0067061107 -0.032650065 0.027241625
0.103806615 -0.03234096 0.091967456 -0.05559649 -0.0802953 -0.041840166 0.060751267 0.062854454
-0.05949455 0.1109873 -0.019080654 0.034983207 0.0025545876 0.04113186 -0.014487876 -0.040345382
0.04585136 0.053740423 0.0886738 -0.050857984 -0.08847511 -0.07824849 -0.094200656 -0.052458175
00000000: 4889 a53d 4ced e53c cca8 e33b c52b 0bbc
00000010: 8c73 c6bd 14d8 e0bd 0bd2 883c c633 babc
00000020: 4f13 213d 3e19 053d c1f9 583d 571b 71bd
00000030: 9cbf 5bbd c753 b83d 3e95 ee3d 9dca 503d
00000040: aa56 973b 97e7 00be e53d 753d 4b4c 4fbc
00000050: e41b 69bd 379a 4cbc 729e 0ebd fdea 643c
00000060: a0f1 83bb 93ba d93d 0e82 2f3d c8dc c5bd
00000070: 0b41 9e3d 13f9 823c 153f da3c 4479 d6bd
00000080: 84c6 dbbc fc66 bdbd 439f 8f3d b4c8 683d
00000090: abe1 3fbc de93 d23d a5d0 8dbd 509c a6bc
000000a0: e75f e0bd 5167 f3bb 6cfa e8bd 589b fa3d
000000b0: 91dd db3d e630 c7bd 9bc0 0e3d 60b9 0fbd
000000c0: 3dc6 b4bc 3aef cb3d b06a cf3c 1865 ef3d
000000d0: fb59 1b3d 18fa 243d c08e a13d 0910 3a3d
000000e0: 463a cbbd 4062 e93c 952d b53c 29f6 5a3d
000000f0: 4c40 333d 12ab 64bd 63f7 813d ce26 58bc
00000100: 7742 a43d b878 073d 6baf c8bd a3a8 a63d
00000110: e8b1 f3bd 5e82 a3bd 5790 073e c5dd ae3d
00000120: 7a85 da3d 39a4 983d 3126 d43d cc88 cebd
00000130: 698c fc3d a002 963d eb20 bcbd 53cb 0fbd
00000140: f007 91bc 8e62 d63d f1a7 343d 57af 43bd
00000150: 2b52 183d 9fd8 38bd a64a 223d 54bd b73c
00000160: fa91 d0bc b365 cdbd 5ba1 48bc e622 043e
00000170: 1da7 b5bc efff babd ae87 b03d 32b7 1cbd
00000180: 5ee9 9d3d 264a 77bc 2e2c 9cbd 0342 bcbd
00000190: d13e 903c 3b79 62bc 1111 973c 18e3 ddbc
000001a0: 69ad 8ebd 76d5 c8bd c7d6 8b3d 52e9 a7bc
000001b0: a62b 4bbc a654 bebd 5821 e63c 6951 e23d
000001c0: 2f62 85bd 8424 2fbc 8a84 f13c f859 cbbd
000001d0: 3789 cabd 0ac6 c3bb eabf fc3d ac42 db3d
000001e0: 8d76 39bd e918 943d aa1e 263d 8d27 06be
000001f0: 5eb3 0abc c28e 0c3d 8528 72bd d06f 8d3c
00000200: 862c 323d d33c 79bc de54 8fbd e8d0 f83d
00000210: 95d3 d0bc eb18 f1bd 25b5 39bd 0a70 fc3d
00000220: 8c35 2cb9 637b 80bd 5f87 d5bd 1221 5f3d
00000230: 33b2 963d 8494 213c ee62 8bbd 3631 163d
00000240: be2b 043c 24bb b23d 940e d93d 516f 253d
00000250: d0f3 e6bc 34c7 b4ba aff6 b23d 6cf5 973d
00000260: 0e67 a5bd 5ffa 23bc 9523 0abc 7ca8 503d
00000270: 75f9 a73d 015b 67bd df50 3f3d d726 063c
00000280: ec7d e33d c54d 96ba e1bb e43d 70e6 e7bc
00000290: a233 353d 5860 0b3d 27dd 7bbd 1a4f a4bd
000002a0: 291a c63d c232 dd3d c807 523d 0896 b9bd
000002b0: 9a89 a53d c8c3 c8bd 0033 13bd 4615 f33c
000002c0: bf5e f1bd e889 d93d 7977 e4bc a235 25bd
000002d0: 2973 d7bd bb98 e23d c433 33bd 9208 963d
000002e0: e572 7b3d c662 c0bc 8052 2dbd 1a24 62bd
000002f0: 8271 64bd 6f6a 973d 02c5 43bd 1615 af3d
00000300: cb46 8e3d 2589 9e3d ffa8 3b3d 6918 413d
00000310: f3e4 953d cd3e 943a bf71 29bd f028 2abd
00000320: 7124 b23d 8391 4f3d 74a2 7bbd fce0 cebd
00000330: bafe ee3d 2272 e2bd 5cf0 af3c f96d df3d
00000340: fb51 d43d f776 fdbd 214b cebb c7e9 a43d
00000350: 5096 243d 444a 56ba 1624 43bd a4f2 963d
00000360: 690a 043d 56a6 09bd e8ab e5bc 71ad adbd
00000370: 6608 82bc 9e2f eabd d6c3 88bc 1f1e d83b
00000380: 34fb 553d dd25 953d e497 f63d ebf2 0f3d
00000390: 9347 82bd efbe dbbb 13bc 05bd d429 df3c
000003a0: 9098 d43d f477 04bd 6f59 bc3d 25b9 63bd
000003b0: dd71 a4bd 9860 2bbd 52d6 783d d6b9 803d
000003c0: 8fb0 73bd 4f4d e33d 084f 9cbc 8d4a 0f3d
000003d0: de6a 273b e279 283d 8e5e 6dbc 3341 25bd
000003e0: a3ce 3b3d eb1e 5c3d 9c9a b53d 7650 50bd
000003f0: 7032 b5bd bf40 a0bd 46ec c0bd 62de 56bd

key_proj.0.bias f4 [64]
-0.08560166 -0.099134415 -0.027022399 -0.023218213 -0.080775395 0.0022017788 -0.13603306 -0.028469596
-0.0909242 0.06611166 0.065667555 -0.012693041 -0.015140528 -0.07967027 -0.081971824 -0.03631783
0.07324623 -0.023905111 -0.004456164 -0.04162286 -0.115782596 -0.037370745 -0.008832278 -0.008419301
0.10820959 0.03445462 0.10719967 -0.11128732 0.08979631 0.046900168 -0.067200854 -0.020625973
0.10684654 -0.026273021 0.04455688 0.07810136 -0.05176634 0.0463047 0.0005774526 -0.10154873
-0.08823126 0.11162608 -0.028366543 -0.04047441 -0.0060668853 -0.016025525 0.016738981 -0.038751315
-0.055397987 0.04352582 0.014014533 -0.025596086 -0.078890815 -0.060504377 0.05049997 -0.06391261
0.11357633 -0.0794269 0.111584365 -0.066129826 -0.0011171941 0.03111497 0.095933236 -0.047647383
00000000: ec4f afbd fc06 cbbd 145e ddbc 1f34 bebc
00000010: 926d a5bd b84b 103b 404c 0bbe 1239 e9bc
00000020: 7836 babd 8d65 873d b67c 863d 79f6 4fbc
00000030: fa0f 78bc 2b2a a3bd d8e0 a7bd 01c2 14bd
00000040: 1f02 963d a7d4 c3bc 0305 92bb bb7c 2abd
00000050: 6d1f edbd 1112 19bd 42b5 10bc 1cf1 09bc
00000060: fd9c dd3d 4a20 0d3d 808b db3d 9bea e3bd
00000070: 21e7 b73d 641a 403d 9aa0 89bd cdf7 a8bc
00000080: 5cd2 da3d 853a d7bc 4681 363d 9bf3 9f3d
00000090: f108 54bd ffa9 3d3d 3060 173a c8f8 cfbd
000000a0: 97b2 b4bd 379c e43d f460 e8bc 7fc8 25bd
000000b0: b9cc c6bb f647 83bc 3020 893c b3b9 1ebd
000000c0: 00e9 62bd 2148 323d 369d 653c e2ae d1bc
000000d0: 8291 a1bd 70d3 77bd 0ed9 4e3d 9de4 82bd
000000e0: b59a e83d 92aa a2bd 5886 e43d 136f 87bd
000000f0: d06e 92ba d2e4 fe3c a578 c43d e729 43bd

key_proj.1.weight f4 [64, 64]
-0.08913251 0.003982103 0.10576467 -0.07025147 0.09505498 0.064864844 0.113982126 0.0146103995
-0.032337364 -0.023617819 0.118472934 -0.03701827 -0.09536818 0.10456067 -0.046076596 -0.021037465
-0.11177271 0.042595435 -0.05576626 0.11011287 -0.11680969 0.04589683 -0.07018056 0.103092365
-0.0035388146 -0.025888758 -0.09847606 0.015899045 0.07573886 0.09615243 0.06624066 0.055946995
0.055862598 0.017332757 0.046552725 0.06820681 0.022885524 0.080419496 0.05696838 -0.110800326
-0.08139625 0.06736404 -0.031581305 0.119084276 0.04186251 -0.12084553 0.121152475 0.110041216
0.045093752 0.029053643 -0.07985231 0.028549757 -0.069625035 0.09566948 0.06300818 -0.042979684
-0.037077457 -0.033340767 0.033892415 0.1065673 0.066269636 -0.003747334 0.07003789 -0.098004654
-0.039723873 0.005058701 0.11335898 -0.054132286 -0.116031975 -0.02039994 -0.08177757 0.07417742
-0.00096624595 0.032896794 0.052454963 -0.1000716 0.07274815 0.1170808 0.046111993 -0.0821839
0.0039441786 -0.010360418 -0.06948839 0.07156109 0.111760646 -0.10004816 0.12519419 -0.07698583
0.027825175 -0.10863649 0.08714557 0.013199472 -0.06975812 0.032519437 -0.104136154 -0.08329631
0.017825311 -0.07071849 -0.080192015 -0.09965043 -0.049886603 0.084655784 0.02105283 -0.06422117
-0.07773105 0.06786485 -0.08211363 -0.066823 0.12532896 0.06429234 -0.0009493938 -0.071016006
-0.02309351 -0.007507119 0.09926712 -0.07345974 -0.046704166 0.00068885065 -0.034432348 0.01530279
0.04202359 -0.046926368 -0.049265977 0.047852464 0.11466737 0.016156139 0.06789088 0.09105641
-0.01554709 0.088533394 0.015906675 0.017625414 0.096110426 0.067543276 0.122795455 0.05904789
0.07992811 -0.100799866 0.099624656 0.009568103 -0.05754212 0.027564224 -0.10426384 -0.036373824
0.06830115 0.053709514 0.01731408 -0.11810285 0.08300738 0.07395124 0.05063371 0.0102290595
-0.013526689 0.108204566 0.089337304 0.09464058 0.051378522 -0.07421175 0.029195106 -0.062216178
-0.07521604 0.06256397 -0.039871868 -0.00826972 0.10507463 -0.021519484 -0.0077679586 -0.06483078
0.08700998 0.000730163 0.05330959 0.04042344 -0.12720259 0.085325055 -0.0059195287 -0.05080926
0.07243769 0.01397894 0.0694545 -0.0777633 -0.11155006 -0.035027385 0.103215806 0.009004993
0.024548044 0.089447185 0.10507904 0.09736679 0.01775461 0.12693025 -0.023663478 0.12549894
-0.04635048 2.9905868e-05 -0.05090327 -0.07086497 -0.097444296 -0.07223047 -0.10250326 0.11049284
-0.116682075 -0.006211721 -0.05373619 0.119683534 0.045546737 -0.105791815 -0.012826901 -0.07016567
-0.021963852 0.129098 0.10404145 -0.10827362 -0.061537486 0.03492674 -0.031849533 0.07528029
0.03910579 -0.08193996 0.029421033 -0.12902471 0.046772294 -0.11146955 0.06035317 0.039837204
0.04863484 0.05159268 -0.084741645 -0.072620586 -0.09204832 -0.10609932 -0.07195641 -0.108050115
0.025209334 0.08229432 0.03873187 0.038520746 -0.010311406 -0.07775368 0.032188438 0.056363627
0.033789065 0.020736363 -0.11453868 -0.05414777 0.015295528 -0.07397103 -0.009023456 0.09058344
0.104536705 -0.109962255 0.09631068 0.070100345 -0.10058038 -0.117131956 -0.0014506788 0.10002338
00000000: 1b8b b6bd 4d7c 823b 269b d83d 01e0 8fbd
00000010: 2fac c23d dcd7 843d 766f e93d 7560 6f3c
00000020: 2f74 04bd 287a c1bc f0a1 f23d 78a0 17bd
00000030: 6450 c3bd e823 d63d d0ba 3cbd c356 acbc
00000040: 17e9 e4bd 8d78 2e3d 296b 64bd db82 e13d
00000050: eb39 efbd 50fe 3b3d d3ba 8fbd 1722 d33d
00000060: 75eb 67bb a914 d4bc d1ad c9bd b73e 823c
00000070: fa1c 9b3d 91eb c43d 2fa9 873d ad28 653d
00000080: 2ed0 643d 6dfd 8d3c 12ae 3e3d 03b0 8b3d
00000090: 6c7a bb3c fab2 a43d ad57 693d 48eb e2bd
000000a0: 14b3 a6bd 28f6 893d 665b 01bd 75e2 f33d
000000b0: 0678 2b3d dc7d f7bd ca1e f83d 4a5d e13d
000000c0: 3ab4 383d e801 ee3c 9c89 a3bd 2ee1 e93c
000000d0: 9297 8ebd 5cee c33d 6f0a 813d 770b 30bd
000000e0: 88de 17bd 5490 08bd c6d2 0a3d f53f da3d
000000f0: 60b8 873d d595 75bb 0670 8f3d aab6 c8bd
00000100: 80b5 22bd 76c3 a53b c128 e83d d1b9 5dbd
00000110: 2ca2 edbd c61d a7bc 007b a7bd 55ea 973d
00000120: ab4b 7dba cabe 063d 04db 563d 57f2 ccbd
00000130: fbfc 943d 0fc8 ef3d eedf 3c3d 0850 a8bd
00000140: 2b3e 813b bebe 29bc ee4f 8ebd 9f8e 923d
00000150: c4e2 e43d 0de6 ccbd e832 003e bfaa 9dbd
00000160: 9ff1 e33c cf7c debd 6079 b23d 9942 583c
00000170: 58dd 8ebd 1a33 053d 5645 d5bd 4197 aabd
00000180: 6306 923c dbd4 90bd b63b a4bd 8615 ccbd
00000190: e555 4cbd 0360 ad3d fc76 ac3c 6486 83bd
000001a0: 7531 9fbd bafc 8a3d 312b a8bd 7fda 88bd
000001b0: 3c56 003e b4ab 833d bde0 78ba d770 91bd
000001c0: 9a2e bdbc 47fe f5bb 8f4c cb3d 0f72 96bd
000001d0: de4c 3fbd fc93 343a ef08 0dbd 8eb8 7a3c
000001e0: ee20 2c3d dd35 40bd 1fcb 49bd f200 443d
000001f0: bad6 ea3d e159 843c 600a 8b3d c87b ba3d
00000200: 39b9 7ebc ff50 b53d b74e 823c 2c63 903c
00000210: 8bd5 c43d 2154 8a3d 2f7c fb3d 33dc 713d
00000220: 59b1 a33d 2970 cebd 0308 cc3d 88c3 1c3c
00000230: 49b1 6bbd 5ece e13c 4888 d5bd b8fc 14bd
00000240: 79e1 8b3d 82fe 5b3d 42d6 8d3c e8df f1bd
00000250: c6ff a93d bf73 973d 4b65 4f3d c997 273c
00000260: 0c9f 5dbc 5b9a dd3d 7af6 b63d ecd2 c13d
00000270: 4972 523d 54fc 97bd 932a ef3c 64d6 7ebd
00000280: de0a 9abd 8a21 803d af50 23bd b87d 07bc
00000290: 5e31 d73d a149 b0bc 5c8a febb 00c6 84bd
000002a0: 4a32 b23d 6968 3f3a 285b 5a3d 0d93 253d
000002b0: 6541 02be e7be ae3d 9bf8 c1bb 5f1d 50bd
000002c0: 365a 943d ed07 653c 293e 8e3d 5d42 9fbd
000002d0: 5c74 e4bd e078 0fbd cf62 d33d ae89 133c
000002e0: fb18 c93c 1630 b73d ae33 d73d 3d68 c73d
000002f0: 1e72 913c 01fa 013e e9d9 c1bc cb82 003e
00000300: 00da 3dbd 5dde fa37 f27f 50bd a721 91bd
00000310: e090 c7bd 92ed 93bd 3bed d1bd 124a e23d
00000320: 03f7 eebd b18b cbbb 7b1a 5cbd a41c f53d
00000330: 378f 3a3d 61a9 d8bd ec27 52bc 05b3 8fbd
00000340: 89ed b3bc 4432 043e af13 d53d 8fbe ddbd
00000350: bb0e 7cbd 570f 0f3d a874 02bd 8d2c 9a3d
00000360: 652d 203d 23d0 a7bd 6104 f13c 0e1f 04be
00000370: 4e94 3f3d 264a e4bd e334 773d 562c 233d
00000380: 5335 473d d952 533d 078d adbd 1aba 94bd
00000390: d483 bcbd 9a4a d9bd e25d 93bd 6149 ddbd
000003a0: ce83 ce3c ed89 a83d 4fa5 1e3d eec7 1d3d
000003b0: 2cf1 28bc 523d 9fbd 06d8 033d 8cdd 663d
000003c0: 6766 0a3d 4edf a93c 4193 eabd 0dca 5dbd
000003d0: 189a 7a3c 207e 97bd 1ed7 13bc d083 b93d
000003e0: 5717 d63d e433 e1bd 893e c53d c590 8f3d
000003f0: 16fd cdbd e1e2 efbd b424 beba 0fd9 cc3d

key_proj.1.bias f4 [64]
-0.027213085 -0.086810656 0.020573935 0.07199757 0.049665626 0.08307653 0.096739344 -0.025915818
-0.04974044 -0.094726644 -0.04908055 0.1060973 -0.12681991 0.04036673 -0.10582768 -0.03593899
0.104184546 0.020708172 0.102774054 -0.13086163 -0.10670694 0.019252283 0.04624577 0.09453399
0.10701285 0.053023107 -0.09077085 -0.04883898 -0.049924426 -0.06272328 -0.072313465 0.06763326
-0.100430265 0.098730974 -0.015901547 0.022138046 -0.093220174 -0.029963583 0.028317261 -0.019631036
0.08639646 -0.09045729 0.027152982 0.048355658 0.09648433 -0.042429328 0.010387825 -0.06735622
0.071358286 -0.042690083 0.039356794 -0.12992139 0.0043580527 -0.040294517 0.070323795 -0.0066439006
-0.045362506 -0.06212789 0.071582645 0.013937644 -0.014907896 0.062220015 -0.024827996 -0.09756491
00000000: faed debc c9c9 b1bd ab8a a83c 7673 933d
00000010: 2f6e 4b3d 0724 aa3d 471f c63d 694d d4bc
00000020: a2bc 4bbd 0b00 c2bd b008 49bd 8b49 d93d
00000030: 14dd 01be 9657 253d 2fbc d8bd c334 13bd
00000040: b55e d53d 2fa4 a93c 347b d23d 9700 06be
00000050: 2b89 dabd f7b6 9d3c 346c 3d3d 099b c13d
00000060: 8e29 db3d c22e 593d 11e6 b9bd 620b 48bd
00000070: 8e7d 4cbd 1075 80bd 1519 94bd 4e83 8a3d
00000080: 62ae cdbd 7733 ca3d f643 82bc d95a b53c
00000090: 38ea bebd 3076 f5bc 9af9 e73c 44d1 a0bc
000000a0: a1f0 b03d ac41 b9bd ee6f de3c 9510 463d
000000b0: 9499 c53d 60ca 2dbd b231 2a3c 0ff2 89bd
000000c0: 4b24 923d ccdb 2ebd 9734 213d 1d0a 05be
000000d0: ffcd 8e3b dd0b 25bd ec05 903d 14b5 d9bb
000000e0: 09ce 39bd d079 7ebd ec99 923d b75a 643c
000000f0: 3f40 74bc 6ada 7e3d 1564 cbbc 1dd0 c7bd

key_proj.2.weight f4 [64, 64]
-0.05733413 0.00998075 -0.03739795 -0.07792107 -0.010933941 0.019811757 -0.053183254 -0.047578644
0.010036956 0.0039880876 0.09828771 -0.064199366 0.07544633 0.03382163 -0.11583641 -0.09049949
0.018867332 0.002532916 0.033810243 -0.04608213 -0.08271325 0.0048843375 -0.049081814 0.04730819
-0.10090728 0.01354349 0.009193264 0.026339358 0.096239045 0.01769064 -0.08342161 0.10030742
0.06501657 -0.0069495644 0.078037046 0.007249617 -0.017517148 0.10057701 0.11551133 -0.10202655
0.043464854 -0.09554599 -0.076294154 -0.11070644 0.06179924 -0.11259469 -0.035044484 -0.0438606
-0.04311981 0.11768315 -0.035303988 0.010316822 0.10487139 -0.07621602 0.10051908 0.070379496
-0.015476841 0.049310308 0.07898226 0.02142607 -0.078722216 -0.118668735 -0.06776651 0.104611754
-0.035491362 -0.105928235 0.03614339 -0.055064116 -0.09902703 0.09511586 -0.09832171 -0.033671353
-0.10540016 -0.05405655 -0.11087375 -0.06908506 0.022966841 -0.056156427 -0.07731943 -0.00820464
-0.10374297 0.120771006 -0.049876522 0.08860943 -0.03444489 -0.06619045 -0.07577996 -0.002268647
-0.022052674 0.0059706587 0.020790106 0.046273626 -0.027712306 -0.077046275 0.008488464 0.050309487
0.052144907 -0.085237026 0.103818215 -0.1086602 0.11384744 0.08128106 -0.076209225 0.0758271
-0.11071241 -0.014135661 0.070884265 0.09704668 0.012603572 0.039824836 0.053168193 -0.030926023
0.03599614 -0.08863695 -0.105259575 0.09225853 -0.051145066 -0.05021516 0.111755185 0.10612165
-0.12041699 0.04582117 -0.030780505 -0.029566117 -0.07866295 -0.013180287 0.044101004 5.7250436e-05
-0.011485825 -0.04894929 0.07147085 0.13363671 0.12549391 0.07251728 0.055389985 -0.099259295
0.030971024 -0.00063694804 0.09852378 0.0052327616 -0.07054038 -0.08067763 -0.06839163 0.074175134
-0.027311051 -0.041104577 -0.078785524 -0.060700364 0.104616985 0.12898278 0.09466619 0.10167394
-0.05246669 0.06284045 -0.0836803 0.08526251 0.012558393 0.035744928 0.09335245 -0.02165289
-0.0864977 -0.08428433 -0.015996598 0.012618396 0.064378105 -0.08760815 -0.0045841443 0.08771543
0.0907 -0.04073661 -0.05563347 0.0036666128 0.10449485 0.014279537 -0.044293657 -0.00065253704
0.010421019 0.04732349 -0.0008527201 -0.10780325 -0.075896986 0.020687342 0.03303176 -0.061170574
-0.096751295 -0.0667669 0.09436307 0.07784953 -0.021117581 -0.121412024 0.049260095 -0.10826852
-0.028032394 -0.120933905 0.07669262 0.06375899 0.037010286 -0.10728868 0.050931938 0.028153209
-0.02140863 -0.051703926 -0.044073038 0.045902394 -0.0850951 -0.11797223 -0.10136318 -0.0061211195
-0.021355232 0.08930653 0.076849885 -0.09474271 -0.08356236 0.013115791 0.10160726 -0.0023529704
0.10590885 -0.032939076 -0.014584551 0.03395572 0.06568729 0.088562004 0.090786785 -0.06277603
-0.10047667 -0.111886814 0.06627757 0.019727107 -0.11654753 -0.061823 0.09637262 -0.09515136
0.045496754 -0.104915515 -0.042287897 0.03623128 0.03512531 0.03263885 0.053971473 0.00029846944
0.047252364 -0.035577767 -0.032251757 0.09269392 -0.08661802 0.035631157 -0.048636403 0.042671893
-0.051272724 -0.06580363 -0.035837214 0.003844719 0.012543684 -0.04566856 -0.08837846 0.09673038
00000000: 31d7 6abd 4d86 233c 982e 19bd 1595 9fbd
00000010: 4624 33bc 444c a23c afd6 59bd d3e1 42bd
00000020: 0b72 243c 81ae 823b 114b c93d f57a 83bd
00000030: 9b83 9a3d 8d88 0a3d a43b edbd cc57 b9bd
00000040: aa8f 9a3c 47ff 253b 9c7c 0a3d 9ec0 3cbd
00000050: 9065 a9bd cb0c a03b 030a 49bd 3cc6 413d
00000060: 7aa8 cebd 84e5 5d3c 589f 163c a3c5 d73c
00000070: fa18 c53d f6eb 903c f3d8 aabd fa6d cd3d
00000080: 6827 853d 2cb9 e3bb e3d1 9f3d 328e ed3b
00000090: 1f80 8fbc 52fb cd3d 3491 ec3d 4cf3 d0bd
000000a0: 3408 323d 9ead c3bd 1c40 9cbd 0fba e2bd
000000b0: 3321 7d3d 0b98 e6bd ce8a 0fbd 2ca7 33bd
000000c0: 669e 30bd dd03 f13d ea9a 10bd e307 293c
000000d0: d0c6 d63d 2517 9cbd f3dc cd3d 2023 903d
000000e0: 9392 7dbc 9bf9 493d 73c1 a13d ba85 af3c
000000f0: 1d39 a1bd 9808 f3bd 2bc9 8abd b03e d63d
00000100: 645f 11bd e7f0 d8bd 170b 143d e98a 61bd
00000110: afce cabd 1bcc c23d e55c c9bd f9ea 09bd
00000120: 0adc d7bd 676a 5dbd c711 e3bd 787c 8dbd
00000130: f524 bc3c 4804 66bd a659 9ebd c16c 06bc
00000140: 3277 d4bd ca56 f73d 534b 4cbd dc78 b53d
00000150: 1616 0dbd dc8e 87bd 8632 9bbd 95ad 14bb
00000160: cfa7 b4bc 84a5 c33b 0350 aa3c 6a89 3d3d
00000170: eb04 e3bc 70ca 9dbd 3313 0b3c 5211 4e3d
00000180: e695 553d c090 aebd a59e d43d 3d89 debd
00000190: d928 e93d af76 a63d 9513 9cbd 3d4b 9b3d
000001a0: 30bd e2bd 4299 67bc c52b 913d 69c0 c63d
000001b0: 367f 4e3c 5e1f 233d e4c6 593d 9258 fdbc
000001c0: b070 133d 4a87 b5bd 5592 d7bd 0af2 bc3d
000001d0: 7d7d 51bd 69ae 4dbd e7df e43d 4f56 d93d
000001e0: 2f9d f6bd fbae 3b3d 6627 fcbc a434 f2bc
000001f0: 0a1a a1bd 21f2 57bc 41a3 343d 3020 7038
00000200: 0b2f 3cbc 0d7f 48bd 4f5f 923d 10d8 083e
00000210: 7a81 003e f183 943d 9ce0 623d 7548 cbbd
00000220: f2b6 fd3c dcf8 26ba d6c6 c93d 9677 ab3b
00000230: 7a77 90bd 503a a5bd e910 8cbd 22e9 973d
00000240: 6dbb dfbc 465d 28bd 4e5a a1bd f2a0 78bd
00000250: 6e41 d63d 1014 043e 59e0 c13d 6d3a d03d
00000260: 50e7 56bd 7eb2 803d 9460 abbd 1c9e ae3d
00000270: b8c1 4d3c 4669 123d 922f bf3d 6761 b1bc
00000280: b525 b1bd 439d acbd 4c0b 83bc 64bd 4e3c
00000290: abd8 833d e76b b3bd 9736 96bb 26a4 b33d
000002a0: ecc0 b93d 6edb 26bd ecdf 63bd 8e4b 703b
000002b0: 6501 d63d b8f4 693c 446d 35bd 050f 2bba
000002c0: ecbc 2a3c 47d6 413d 1489 5fba f3c7 dcbd
000002d0: e16f 9bbd 8078 a93c 504c 073d ff8d 7abd
000002e0: 8b25 c6bd 16bd 88bd 6d41 c13d 936f 9f3d
000002f0: c7fe acbc dea6 f8bd f4c4 493d e3bb ddbd
00000300: 31a4 e5bc 32ac f7bd 0511 9d3d 1394 823d
00000310: 1998 173d 2bba dbbd 029e 503d 8fa1 e63c
00000320: 2761 afbc 7fc7 53bd ee85 34bd 2604 3c3d
00000330: 5746 aebd 6d9b f1bd 8097 cfbd ac93 c8bb
00000340: 2bf1 aebc 58e6 b63d 7963 9d3d 7708 c2bd
00000350: be22 abbd 9de3 563c 7817 d03d 4b34 1abb
00000360: bde6 d83d 20eb 06bd 0af4 6ebc 2715 0b3d
00000370: 0f87 863d ff5f b53d 6cee b93d b890 80bd
00000380: b6c6 cdbd ea24 e5bd 89bc 873d be9a a13c
00000390: 79b0 eebd 1d3a 7dbd 025f c53d b7de c2bd
000003a0: ce5a 3a3d f2dd d6bd 1336 2dbd 4067 143d
000003b0: 8fdf 0f3d 51b0 053d 3111 5d3d e47b 9c39
000003c0: b28b 413d feb9 11bd 6b1a 04bd 4fd6 bd3d
000003d0: ca64 b1bd faf1 113d f736 47bd b9c8 2e3d
000003e0: 5903 52bd 0ec4 86bd 0bca 12bd aef7 7b3b
000003f0: 0684 4d3c f50e 3bbd c4ff b4bd 941a c63d

key_proj.2.bias f4 [64]
0.0080306595 -0.12571733 0.025448088 -0.005141662 -0.012803304 0.013055145 -0.04845548 -0.09939183
-0.054269902 0.07132173 -0.09170784 0.093903854 0.09294488 0.06191573 0.08253471 -0.065392286
-0.049771033 0.07046735 0.002454456 0.108939156 0.033243697 0.061239213 -0.020389538 -0.055032615
-0.027508829 0.0059952666 0.08227185 -0.040384676 -0.07920109 -0.002773752 0.097784 0.024050359
-0.006852964 -0.05164189 0.09667344 0.024123328 0.07434577 -0.0931675 -0.054494914 0.07394442
0.11911367 -0.024390837 0.13068362 0.017490659 -0.046530675 -0.09529911 -0.097667225 0.10385644
0.0056100674 -0.096654214 -0.02630253 -0.048715588 -0.051940966 -0.013644094 -0.09311764 0.009748868
0.0017616214 -0.01441354 0.036014605 -0.09990161 0.08567556 -0.017800087 -0.026032282 -0.10310281
00000000: 0793 033c 0bbc 00be 8278 d03c 637b a8bb
00000010: f3c4 51bc 3fe5 553c 4179 46bd f28d cbbd
00000020: 1e4a 5ebd 2111 923d 52d1 bbbd aa50 c03d
00000030: e359 be3d 599b 7d3d f507 a93d 64ec 85bd
00000040: b6dc 4bbd 3051 903d f0da 203b 7e1b df3d
00000050: 8b2a 083d f8d5 7a3d f607 a7bc e169 61bd
00000060: 325a e1bc f173 c43b 257e a83d 676a 25bd
00000070: 2e34 a2bd d6c7 35bb fa42 c83d 4205 c53c
00000080: d48e e0bb 7286 53bd b9fc c53d 499e c53c
00000090: 9842 983d 9ace bebd 0f36 5fbd 2c70 973d
000000a0: def1 f33d 4bcf c7bc edd1 053e 9248 8f3c
000000b0: f396 3ebd 2e2c c3bd c105 c8bd afb2 d43d
000000c0: a8d4 b73b a5f2 c5bd 6778 d7bc ff89 47bd
000000d0: 0dc0 54bd 7a8b 5fbc 76b4 bebd b7b9 1f3c
000000e0: 35e6 e63a c526 6cbc 0d84 133d 3799 ccbd
000000f0: ab76 af3d 7dd1 91bc a741 d5bc 9127 d3bd

beta_proj.0.weight f4 [1, 64]
-0.035095185 -0.15502551 0.06381938 -0.09774028 0.004283128 0.09912347 0.12619606 0.02560519
0.10318059 -0.07264325 0.1413668 -0.011015087 -0.08970542 0.06737963 0.043550435 0.12900436
0.010477572 0.02380214 0.033947613 0.08806029 -0.07844825 -0.021047914 -0.056159426 -0.057483166
0.13795294 0.038966738 0.02147761 0.08038041 0.02924219 -0.06173223 -0.033061713 -0.13114166
-0.040723663 -0.009361536 -0.07899012 0.012824614 0.08625971 -0.035379313 0.041847497 -0.012914127
-0.09663707 -0.065683894 0.15000774 0.15224752 -0.15051611 -0.0889057 -0.103574306 -0.055867247
0.020094464 -0.036768276 0.09406489 0.009122723 0.014205346 -0.045744427 -0.013603705 -0.09438875
-0.050550155 0.06403962 0.016811145 -0.022755018 -0.043489203 -0.0066570444 -0.07213519 -0.040513568
00000000: f8bf 0fbd 02bf 1ebe bcb3 823d 0e2c c8bd
00000010: 7b59 8c3b 3f01 cb3d 8a39 013e fac1 d13c
00000020: 5850 d33d fcc5 94bd 75c2 103e a078 34bc
00000030: 7ab7 b7bd 55fe 893d f161 323d b819 043e
00000040: 1faa 2b3c b5fc c23c a70c 0b3d f458 b43d
00000050: 7aa9 a0bd ad6c acbc 6d07 66bd 7873 6bbd
00000060: 8943 0d3e 969b 1f3d d0f1 af3c 7c9e a43d
00000070: 518d ef3c efda 7cbd b86b 07bd 004a 06be
00000080: dbcd 26bd 2161 19bc 92c5 a1bd 541e 523c
00000090: eea8 b03d e6e9 10bd 4868 2b3d c695 53bc
000000a0: a8e9 c5bd 4785 86bd a19b 193e c6e6 1b3e
000000b0: e520 1abe 3114 b6bd c41e d4bd 0ed5 64bd
000000c0: 259d a43c 559a 16bd 18a5 c03d 7977 153c
000000d0: 8abd 683c 825e 3bbd 13e2 5ebc e44e c1bd
000000e0: ae0d 4fbd 3427 833d 87b7 893c bb68 babc
000000f0: bc21 32bd 5623 dabb 9dbb 93bd 8ef1 25bd

beta_proj.1.weight f4 [1, 64]
-0.0063508186 -0.014676482 0.11054606 -0.028214084 0.12165302 0.067707494 0.074028164 -0.048642747
-0.046253648 0.053456932 0.0985438 0.07299863 -0.056046244 0.028559277 0.040656857 -0.12968327
-0.06985807 0.024769075 0.10423747 0.04405464 0.07972757 -0.13570979 -0.028601378 -0.08184526
-0.008125494 0.0481611 0.00084451947 0.07649995 -0.045043897 0.071741045 0.020800704 -0.112009406
-0.0065704766 -0.01275514 0.038893912 -0.010797557 -0.076436475 0.057492673 -0.08686758 -0.067517094
0.0066478117 -0.07410234 -0.098866366 -0.14101261 0.025138004 0.098489515 -0.07823203 -0.11130254
-0.014457175 0.059897486 -0.07742117 0.09265243 -0.10744196 -0.10173853 -0.036254417 0.056130417
-0.09390852 -0.047585625 0.09846935 0.03496622 -0.014150941 0.0015256549 -0.08982947 0.08921166
00000000: 871a d0bb a175 70bc f965 e23d 3921 e7bc
00000010: 3825 f93d 3aaa 8a3d 149c 973d 9e3d 47bd
00000020: 7774 3dbd a8f5 5a3d 55d1 c93d 4e80 953d
00000030: bf90 65bd 25f5 e93c ce87 263d b1cb 04be
00000040: bf11 8fbd 84e8 ca3c 747a d53d a372 343d
00000050: 3548 a33d 82f7 0abe 704d eabc 7d9e a7bd
00000060: cb20 05bc 9344 453d be62 5d3a 01ac 9c3d
00000070: f37f 38bd f8ec 923d 3d66 aa3c 3065 e5bd
00000080: 274d d7bb effa 50bc 394f 1f3d 3de8 30bc
00000090: ba8a 9cbd 707d 6b3d a1e7 b1bd 6746 8abd
000000a0: e3d5 d93b f8c2 97bd 737a cabd 9c65 10be
000000b0: 37ee cd3c dfb4 c93d 1d38 a0bd 96f2 e3bd
000000c0: c9dd 6cbc 1157 753d fe8e 9ebd 8fc0 bd3d
000000d0: 880a dcbd 4a5c d0bd 837f 14bd 02e9 653d
000000e0: 1c53 c0bd 25e9 42bd 4caa c93d bd38 0f3d
000000f0: 59d9 67bc 7cf8 c73a 83f8 b7bd 9ab4 b63d
