melhor_modelo_ntm.pth (torch, 233812 bytes, 29 tensors)

embedding.weight f4 [20, 64]
0	0x3dc8509b	0.09780999
1	0x3f1f8e6e	0.62326705
2	0xbf21a05a	-0.631353
3	0xbfa5d34e	-1.295511
4	0xbfafb771	-1.3727857
5	0x4015b5f7	2.3392313
6	0x3f4cf546	0.8006176
7	0xbf7a86d3	-0.97861975
8	0x3ed887c1	0.42291072
9	0x3f007b19	0.5018783
10	0x3ed7b308	0.42128778
11	0x4000af72	2.0107083
12	0xc0004c53	-2.0046585
13	0x3f28625b	0.6577508
14	0x3eff2357	0.4983165
15	0xbe77b3cc	-0.24189681
16	0xbf70e1cd	-0.94094545
17	0xbf622bce	-0.8834809
18	0xbfc13ac1	-1.5096055
19	0xbe881cb4	-0.265844
20	0x3dddf109	0.108369894
21	0x3ebf058a	0.37308913
22	0x3eea33c9	0.45742634
23	0x3fbf152c	1.4928336
24	0x3fdc9086	1.7231605
25	0x3ef7edcb	0.4842361
26	0xc0026604	-2.0374765
27	0xbdf9bdce	-0.121944055
28	0x3fb08b04	1.3792424
29	0x3fd59ee9	1.668912
30	0x3f64c1a3	0.89357966
31	0xbf072e98	-0.5280547
32	0x3aa5d790	0.0012652744
33	0xc0035d53	-2.052571
34	0x3ecf354b	0.40470347
35	0x3ffd82fd	1.98056
36	0xbefd4681	-0.49467853
37	0x3ec5d66e	0.3864016
38	0x3e3e4243	0.18579964
39	0x3f647db5	0.89254314
40	0x3fa299e1	1.270321
41	0x3cb6bd68	0.022307113
42	0x4029b753	2.6518142
43	0x3eb547f5	0.3540646
44	0xbe60379b	-0.21896212
45	0x3edf9183	0.43665704
46	0xbf11e4ee	-0.56989944
47	0xbe4c1c05	-0.19932564
48	0xbe974e25	-0.29551807
49	0xbd538202	-0.051637657
50	0xc0056cf9	-2.0847762
51	0x3da56169	0.0807522
52	0x3f16c3c1	0.58892447
53	0x3f245f56	0.6420797
54	0x3f1a8b9f	0.60369295
55	0x3f81c93a	1.0139534
56	0x3ec372bb	0.3817347
57	0xbf36327a	-0.7117077
58	0x3fdad6d0	1.7096806
59	0x3ddbc887	0.10731607
60	0xbd053d4c	-0.03252916
61	0x3f060240	0.52347183
62	0xbfbefe97	-1.4921445
63	0x3fe72493	1.8058037
64	0x3f7d31d3	0.9890415
65	0xbf1c1853	-0.60974616
66	0xbf598d80	-0.84981537
67	0x4038dc48	2.888445
68	0xbf1c4bb2	-0.61053
69	0x3fbd1317	1.4771451
70	0x3ebb1ae8	0.36543965
71	0xbf1be8ae	-0.60901916
72	0x3f7a283e	0.97717655
73	0xbfadd93f	-1.3581923
74	0x400b04f9	2.1721785
75	0x3fc253d9	1.5181838
76	0xbdebdea2	-0.11517073
77	0xbf642dc2	-0.8913232
78	0xbeb2a21b	-0.34889302
79	0x3fa27058	1.2690535
80	0xbdb5094f	-0.08839666
81	0xbf0271f9	-0.5095516
82	0xbf0c4db6	-0.5480608
83	0xc032a71a	-2.791449
84	0x3f652195	0.8950437
85	0xbfe4cc3d	-1.7874829
86	0x3e4c82a9	0.19971718
87	0xbf87bde2	-1.0604823
88	0xbf9aff2c	-1.2109122
89	0xbf0f7a36	-0.56045854
90	0xbfdb96b1	-1.7155362
91	0xbf6a6d9e	-0.9157351
92	0x3ece42eb	0.4028543
93	0x4000b9f8	2.0113506
94	0xbf41a8e8	-0.75648355
95	0x3f9e8acf	1.2386111
96	0xbe13a8e3	-0.14419894
97	0x3d5e3629	0.05425087
98	0x3db87d61	0.09008289
99	0xbe35ede8	-0.17766535
100	0x3f924bed	1.1429421
101	0x3f90db4a	1.1316922
102	0xbf3ef9eb	-0.74600095
103	0xbf52d487	-0.8235554
104	0xbfad058a	-1.3517315
105	0x3f53514f	0.8254594
106	0x3ca3168f	0.019908218
107	0xbe0d0d09	-0.13774504
108	0x3fc007ae	1.5002344
109	0xbff7f4b0	-1.9371548
110	0xbf587267	-0.84549564
111	0x3e228615	0.1587146
112	0x3da8bf07	0.082395606
113	0xbf1790fc	-0.59205604
114	0x3e91bd72	0.28464848
115	0x4006892d	2.1021225
116	0x3f72109e	0.94556606
117	0x3eacf224	0.3377849
118	0x3e9dddf9	0.30833414
119	0x3f453370	0.7703161
120	0x3d6cde77	0.057829347
121	0x402524dc	2.5803747
122	0x401c853e	2.4456325
123	0xbf862020	-1.0478554
124	0xbe5406c5	-0.20705707
125	0xc01c488e	-2.4419284
126	0xbfd95658	-1.6979475
127	0xbfe90dfb	-1.8207392
128	0x3f788ddc	0.9709146
129	0x3c53991e	0.012914924
130	0xbf6b2964	-0.9186003
131	0x3fe6212f	1.7978877
132	0x3e95c90c	0.2925495
133	0x3f176c29	0.59149414
134	0xbef7631f	-0.4831781
135	0xbf124a8b	-0.57144994
136	0x3f52a257	0.8227896
137	0xbf927a11	-1.1443502
138	0xbff32416	-1.8995388
139	0x3ebb30dd	0.36560717
140	0x3f149758	0.5804343
141	0xbfd7206d	-1.680677
142	0xbf2b33d3	-0.6687595
143	0x3f2bd9de	0.67129314
144	0xc00a0d3a	-2.1570573
145	0x3f231d62	0.6371671
146	0xbd45d30f	-0.048296984
147	0x3df46bf6	0.119346544
148	0xbea7662c	-0.32695138
149	0x3f94564b	1.1588835
150	0xbf1f025a	-0.62112963
151	0x3f4e967a	0.8069836
152	0x3f1a1874	0.6019356
153	0x3f534ea9	0.825419
154	0x3f6b7227	0.9197106
155	0x3f48530a	0.7825171
156	0xbf7e7f23	-0.99412745
157	0xbece40ff	-0.40283963
158	0xbfd0b3d5	-1.630488
159	0xbf9de063	-1.2334102
160	0xbf5475b6	-0.8299211
161	0xbf83fc2f	-1.0311335
162	0xbf559072	-0.8342353
163	0xbff7a1d0	-1.9346256
164	0x3f723bb8	0.94622374
165	0xbf618b2b	-0.8810298
166	0x3f9651b7	1.1743687
167	0xbfb9d5ff	-1.4518431
168	0x3fed0480	1.8516998
169	0x3f998b5e	1.1995656
170	0xbfe0b1a0	-1.7554207
171	0x3bb8fe09	0.0056455177
172	0x3ecc3364	0.39882958
173	0x3e4a0cea	0.19731489
174	0x3f0ec5b6	0.5577043
175	0xbf9f5087	-1.244645
176	0xbf59cc21	-0.850771
177	0xbf38b03a	-0.721439
178	0xbc835d7c	-0.016035788
179	0x3d81df33	0.063414
180	0x3f553ac6	0.83292806
181	0xbf9f27b7	-1.2433995
182	0x3ed41034	0.41418612
183	0x3ef133f7	0.4710996
184	0x3f17e741	0.5933724
185	0x3fc777f3	1.5583481
186	0xbf863eed	-1.0487953
187	0x3ed89ade	0.42305654
188	0xc0049e5d	-2.0721657
189	0xbf2900f0	-0.66017056
190	0xbe9c70a9	-0.30554703
191	0x3f003503	0.5008089
192	0x3f5ea715	0.86973697
193	0xaa337905	-1.5940381e-13
194	0xbea49d2d	-0.32151166
195	0x3f45f29a	0.77323306
196	0xb8ad99a7	-8.277903e-05
197	0x3f58c40d	0.8467415
198	0x3fc9a111	1.5752279
199	0x027f463e	1.87546e-37
200	0x8296e3b5	-2.2171217e-37
201	0x029dc771	2.318355e-37
202	0xadd02689	-2.3663975e-11
203	0x3faae44f	1.3350924
204	0x2b073844	4.803972e-13
205	0x3a8a0209	0.0010529171
206	0x27158ed7	2.0755337e-15
207	0xbe53c2e8	-0.2067982
208	0x2d441092	1.11449894e-11
209	0xb0036aba	-4.780919e-10
210	0xbe2b50fb	-0.1673011
211	0x83241fa6	-4.82316e-37
212	0xbce355ff	-0.027750967
213	0xba3a39fe	-0.00071039784
214	0x3ecf7dcf	0.40525672
215	0x3dd33f79	0.10314841
216	0xbc10f1e5	-0.008846735
217	0xb9f219dc	-0.00046177104
218	0xbe7f2308	-0.24915707
219	0xbe8f5822	-0.27996927
220	0xbf13b7bb	-0.57702225
221	0xbe05b13b	-0.1305589
222	0x333a73eb	4.3411926e-08
223	0x3d571967	0.05251446
224	0x028ae311	2.0407607e-37
225	0x3eb35bde	0.35031027
226	0x3f88270d	1.0636917
227	0xbec43add	-0.3832616
228	0xbe8d907a	-0.2764929
229	0x3409fe58	1.2851649e-07
230	0x81a5f1a2	-6.0958154e-38
231	0x8288ce2d	-2.0101743e-37
232	0x9e08b416	-7.237021e-21
233	0x3d75e158	0.060029358
234	0x1806959b	1.7394626e-24
235	0xbd1c5ede	-0.03817641
236	0x3b138f50	0.002251584
237	0x3e87e88d	0.2654461
238	0xb7916738	-1.7333412e-05
239	0x829581aa	-2.1968006e-37
240	0xbde807a5	-0.11329583
241	0xb8989be2	-7.27696e-05
242	0xbe8d90de	-0.27649587
243	0x90343646	-3.554055e-29
244	0xbcf8aa7c	-0.03035473
245	0x3c2ce566	0.01055274
246	0x3f2ad180	0.6672592
247	0xbe221bb4	-0.1583088
248	0x37f637be	2.9351442e-05
249	0xbccbf8af	-0.024898855
250	0x3d156bb7	0.036479678
251	0x290530a3	2.9574118e-14
252	0xb782e2da	-1.5602844e-05
253	0x3ab660d3	0.0013914354
254	0x8302ca09	-3.843549e-37
255	0x3dab56ea	0.08366187

controller.weight_ih f4 [256, 104]
0	0xbcdff181	-0.027336838
1	0xbd2fbea6	-0.042906426
2	0xbe5b3c25	-0.21409662
3	0x3de02b27	0.10945731
4	0xbd9614c5	-0.0732818
5	0x3de0b2d6	0.1097161
6	0x3ddaeb34	0.10689393
7	0xbe2952f2	-0.16535547
8	0x3e764667	0.24050294
9	0xbaf94ea1	-0.0019020626
10	0x3dde717d	0.1086149
11	0x3e27470d	0.16335697
12	0xbdda95fc	-0.106731385
13	0xbdd408bf	-0.10353231
14	0xbd81a892	-0.0633098
15	0xbd4810ba	-0.048844077
16	0xbe049dcd	-0.12950821
17	0xbe0090a7	-0.1255518
18	0xbe426b72	-0.189863
19	0xbdf5f5a7	-0.12009745
20	0x3dda11cd	0.106479265
21	0x3d21429b	0.03937016
22	0xbd85bc63	-0.065300725
23	0x3b18a942	0.0023294245
24	0xbd77e646	-0.06052234
25	0x3dfd6e43	0.123745464
26	0x3d1e8aaf	0.038706478
27	0xbd9d39b4	-0.076770216
28	0x3d149ce3	0.03628243
29	0x3dc47f77	0.095946245
30	0xbe07f7cd	-0.13278122
31	0xbdc36ca6	-0.095422074
32	0xbd90fdfe	-0.07079695
33	0xbd8f14e2	-0.06986405
34	0xbdbce036	-0.09222452
35	0x3d79747b	0.0609021
36	0xbd6b37c9	-0.057426248
37	0xbcadd47c	-0.021219485
38	0x3e081ce4	0.13292271
39	0xbca949cd	-0.020665074
40	0x3e39bf55	0.18139394
41	0x3df721fe	0.1206703
42	0x3dd13b53	0.10216393
43	0x3cbd1a23	0.023083752
44	0x3d69aea3	0.057051312
45	0x3dafa00f	0.08575451
46	0x3d93f4bd	0.072244145
47	0xbd71e7a0	-0.059058785
48	0xbdbf873d	-0.093519665
49	0xbd5ee2d2	-0.05441553
50	0x3d2a9e43	0.041654836
51	0x3dd36aa7	0.10323077
52	0x3ddf33c2	0.10898544
53	0x3d9d5757	0.076826744
54	0x3e5cd41a	0.21565285
55	0x3e62d989	0.22153296
56	0x3e45b652	0.19307831
57	0xbd880413	-0.06641402
58	0x3da89200	0.08230972
59	0xbde1ef30	-0.110319495
60	0xbd4f1ee0	-0.050566554
61	0x3ce1b7e3	0.027553504
62	0xbd045f8b	-0.03231768
63	0x3e0e824c	0.13916892
64	0xbd57dc6b	-0.05270044
65	0x3d0a7348	0.033801347
66	0xbd98259c	-0.074290484
67	0xbd481d64	-0.048856154
68	0x3cfaa110	0.030594379
69	0x3d18e27c	0.037325367
70	0xbc8cf6cd	-0.017207528
71	0x3c928c42	0.017889146
72	0xbcbdc38b	-0.023164531
73	0x3d72683b	0.059181433
74	0xbd85c463	-0.065315984
75	0x3d02ad0b	0.031903308
76	0x3d47deb0	0.048796356
77	0x3c021fb6	0.007942131
78	0x3c436e96	0.011928221
79	0xbcb6c5c3	-0.022311097
80	0x3c5ad8e4	0.013357375
81	0xbc27bf4d	-0.010238481
82	0x3d18b440	0.037281275
83	0x3c0a0efc	0.008426424
84	0x3db9918b	0.09060963
85	0xbdb6c756	-0.08924739
86	0xbc07c0b1	-0.008285687
87	0xbd46e1e5	-0.048555274
88	0x3c76f9e3	0.015074226
89	0x3d5e07f0	0.05420679
90	0x3cc11cdf	0.023573337
91	0x3d185855	0.037193615
92	0xbd7d6080	-0.061859608
93	0x3d91fa5e	0.07127832
94	0xbc7f3592	-0.015576737
95	0xbc9df86e	-0.0192835
96	0xbd860eb8	-0.06545776
97	0x3c982261	0.01857108
98	0xbd28f51e	-0.041249387
99	0x3c8532ad	0.016259516
100	0xbd6e2855	-0.058143932
101	0x3ca64eb7	0.020301206
102	0xba96d0aa	-0.0011506279
103	0xbb46e450	-0.0030348487
104	0x3d568c51	0.05237991
105	0x3d4786b0	0.048712432
106	0xbe22bcf3	-0.15892391
107	0xbcebb181	-0.028771164
108	0xbd731a1e	-0.05935108
109	0x3cd76866	0.026294898
110	0x3de0d029	0.109772034
111	0xbe34c77a	-0.1765422
112	0x3dee3a13	0.116321705
113	0xbdbf1f69	-0.09332163
114	0x3da2123c	0.07913634
115	0x3dafb0e0	0.08578658
116	0xbcf7fa60	-0.030270755
117	0x3cf645d1	0.030062588
118	0xbd3a38ac	-0.045464203
119	0x3cbd9d48	0.023146287
120	0xbcdcfbc8	-0.026975527
121	0x3d83713d	0.06418083
122	0xbe2a7d5b	-0.16649382
123	0xbb3d8e6e	-0.0028924006
124	0x3e0241e0	0.12720442
125	0x3df0bb9f	0.11754536
126	0xbc014503	-0.007889989
127	0x3d91685e	0.070999846
128	0x3c563128	0.013073243
129	0xbd1952ce	-0.037432484
130	0x3d269b56	0.040675484
131	0x3c905c80	0.017622232
132	0x3c4272bb	0.011868174
133	0x3e1a0198	0.1503967
134	0xbcd71e21	-0.026259484
135	0x3c6a1222	0.01428655
136	0xbd716df7	-0.05894276
137	0xbe1e386f	-0.15451215
138	0xbd0ce571	-0.0343985
139	0x3d78d90d	0.06075387
140	0xbc93003b	-0.017944446
141	0x3c982f08	0.018577114
142	0x3da3047f	0.07959842
143	0xbd30188f	-0.04299217
144	0x3e3a24e1	0.1817813
145	0x3e5b1162	0.2139335
146	0xbd7bab3f	-0.06144261
147	0x3d45a3d9	0.04825196
148	0x3e2c4d30	0.1682632
149	0x3c17cc0f	0.00926496
150	0xbdf41c48	-0.11919457
151	0x3d1ad85f	0.037804004
152	0xbddb10fd	-0.106966
153	0xbd9499a7	-0.07255869
154	0xbe29d17e	-0.16583821
155	0x3de893ef	0.11356341
156	0x3e22ea6b	0.15909736
157	0x3d5917b7	0.05300113
158	0x3ddcd5f6	0.10782997
159	0x3c75002f	0.014953657
160	0x3e076997	0.13223873
161	0x3cac4537	0.021029098
162	0x3e1258e6	0.14291725
163	0xbddc1465	-0.107460774
164	0xbe05fe71	-0.13085343
165	0xbe231bc4	-0.1592856
166	0xbde596c1	-0.11210395
167	0x3df2186d	0.11821065
168	0x3cbfdf16	0.023421805
169	0xbdbfac13	-0.093589924
170	0xbd9db28d	-0.077000715
171	0xbd5579b7	-0.05211803
172	0xbccd8fb7	-0.025092943
173	0x3dd2231a	0.10260601
174	0xbd48fdc7	-0.049070146
175	0x3c1b0b26	0.009463107
176	0x3d35bd9a	0.04437027
177	0x3af0c64d	0.0018369645
178	0xbc27df7c	-0.010246154
179	0xbd25dc7d	-0.040493477
180	0xbd8eea95	-0.06978337
181	0xbdce0ca3	-0.10061004
182	0x3d4aaaa7	0.049479153
183	0x3cadab2f	0.02119979
184	0x3cf6cbf1	0.030126544
185	0x3d8a2652	0.0674559
186	0xbd224454	-0.039615944
187	0xbd17bbf9	-0.0370445
188	0x3cfcad89	0.030844467
189	0xbd9a8c83	-0.07546332
190	0xbd8522bb	-0.06500765
191	0xbc1436cb	-0.009046267
192	0xbd34add7	-0.0441111
193	0xbd285081	-0.0410924
194	0xbc9a6713	-0.018847978
195	0xbd111306	-0.035418533
196	0xbc9b01f9	-0.01892184
197	0xbd238af3	-0.039927434
198	0x3dfcd94b	0.12346133
199	0xbd7e3157	-0.062058773
200	0xbbeeb47f	-0.0072847004
201	0xbbb3478e	-0.0054711765
202	0xbbe0eec3	-0.0068644
203	0xbe0298d5	-0.12753613
204	0xbc9ab731	-0.01888618
205	0x3c2a5798	0.010396861
206	0xbd7e7c56	-0.062130295
207	0x3c5fcbf5	0.013659467
208	0x3db3d854	0.08781496
209	0xbdab62be	-0.08368443
210	0xbe839957	-0.25702927
211	0xbcde9fca	-0.027175803
212	0xbd5c3867	-0.053764727
213	0x3e1b066a	0.15139166
214	0xbd03193a	-0.03200648
215	0xbe18d25f	-0.14924
216	0x3e2a00a3	0.16601805
217	0xbe101f84	-0.14074522
218	0xbdb9f7f4	-0.090804964
219	0x3e5ed9e5	0.21762808
220	0xbd3c700f	-0.046005305
221	0xbda23614	-0.07920471
222	0x3d23ca4f	0.03998786
223	0x3de4aa6a	0.111653164
224	0xbdbeedba	-0.093226865
225	0xbbff61c0	-0.007793635
226	0xbdf42965	-0.11921958
227	0xbe0d352d	-0.13789816
228	0x3dd56439	0.104195066
229	0x3dfb0af0	0.122579455
230	0x3d4db2ef	0.050219472
231	0xbcff1f83	-0.031142956
232	0xbd61508d	-0.05500846
233	0x3c18688b	0.009302269
234	0xbdd075c8	-0.10178715
235	0xbd574ea1	-0.05256522
236	0x3dda4fbe	0.10659741
237	0x3e45184d	0.19247551
238	0xbdabbb7f	-0.083853714
239	0xbdf6dc5f	-0.12053751
240	0xbd5a93ac	-0.053363487
241	0xbe489110	-0.19586587
242	0x3d72d2c4	0.059283033
243	0xbc9cc4ed	-0.01913687
244	0x3db7f298	0.08981818
245	0xbda786d3	-0.081800126
246	0x3e209d4e	0.15685007
247	0xbda5185a	-0.08061285
248	0x3da4cd6c	0.080469936
249	0x3d5782a4	0.052614823
250	0x3aef1fd2	0.0018243736
251	0xbd7118c0	-0.058861494
252	0xbc40e288	-0.011772759
253	0x3d8610aa	0.06546147
254	0x3d7bdb86	0.06148865
255	0xbd9a2410	-0.075264096

controller.weight_hh f4 [256, 64]
0	0x3d3213a7	0.043475773
1	0xbde70197	-0.112796
2	0xbb89b063	-0.004201935
3	0xbe17a455	-0.14808781
4	0x3d3900de	0.045166843
5	0xbd7ce4be	-0.061741583
6	0xbe06871e	-0.1313748
7	0x3bacd1f2	0.005274051
8	0xbdefb9a2	-0.117053285
9	0x3b0fae73	0.0021924048
10	0xbdd2efdc	-0.10299656
11	0x3d67d271	0.056597177
12	0x3d100c34	0.035167888
13	0x3e441fcb	0.19152753
14	0x3da8b0a2	0.08236815
15	0xbde0fc94	-0.109856755
16	0x3d4776fc	0.048697457
17	0x3c8c9e2a	0.017165262
18	0x3d8817bf	0.06645154
19	0x3cc90d16	0.024542373
20	0xbcaabb36	-0.020841222
21	0x3dc4d405	0.09610752
22	0xbdbf2342	-0.09332897
23	0x3db1a611	0.08674253
24	0xbd34abe9	-0.04410926
25	0xbda08dfe	-0.07839583
26	0x3e0225e5	0.12709768
27	0xbd375894	-0.04476221
28	0x3d279be4	0.040920153
29	0x3e2e6c99	0.17033614
30	0x3d9fd3cc	0.07804069
31	0x3e20cd29	0.15703262
32	0x3cfe38db	0.03103297
33	0xbbe171f4	-0.0068800393
34	0xbc429698	-0.011876725
35	0xbbec3ab6	-0.0072091473
36	0x3dcb53ba	0.09928079
37	0x3d1d52bf	0.03840899
38	0xbd8ea70b	-0.06965455
39	0x3da026dc	0.07819912
40	0x3e079cb4	0.13243371
41	0x3dbaac7a	0.091149285
42	0x3c2488cf	0.010042383
43	0x3dc9de2f	0.09856831
44	0x3c856772	0.016284678
45	0x3d01bea8	0.031675965
46	0xbd43e39a	-0.04782448
47	0x3d2c3cb4	0.04205008
48	0xbda51e1d	-0.08062384
49	0x3ccac787	0.024753345
50	0xbd7af583	-0.061269294
51	0x3c58fac3	0.01324338
52	0x3ccb61e8	0.024826959
53	0xbd01c2ef	-0.031680044
54	0x3db6033a	0.08887334
55	0xbe046a61	-0.12931205
56	0xbdcc30e7	-0.09970265
57	0xbc1eb846	-0.009687489
58	0x3d03186b	0.03200571
59	0xbe0c6179	-0.13709058
60	0xbd119124	-0.035538808
61	0xbc1d1529	-0.0095875645
62	0x3bfddf33	0.0077475547
63	0xbdbe1de1	-0.09283043
64	0x3c3b0d55	0.011416753
65	0x3c702a7a	0.014658565
66	0x3bbbb673	0.0057285368
67	0x3d7418d3	0.059593987
68	0x3da08c51	0.07839263
69	0x3e238404	0.15968329
70	0xbe210067	-0.1572281
71	0xbd0e9964	-0.034814253
72	0xbdb169c5	-0.08662752
73	0x3c1b9ab9	0.009497338
74	0x3df7e433	0.121040724
75	0xbd7235ae	-0.059133224
76	0x3db9ed71	0.090784915
77	0x3e4a0f98	0.19732511
78	0x3d70f1ef	0.058824476
79	0xbd5ceef6	-0.05393883
80	0xbd116375	-0.03549524
81	0x3d3f348b	0.04668097
82	0x3e372239	0.17884149
83	0x3d209d9b	0.039212804
84	0xbdca1571	-0.09867371
85	0xbd164dc3	-0.036695253
86	0xbe489ebd	-0.19591804
87	0x3db3795b	0.08763381
88	0x3d6233fc	0.055225357
89	0xbdcca604	-0.099926025
90	0x3d84342c	0.064552635
91	0xbe1e9cb8	-0.15489471
92	0xbce1dfee	-0.027572598
93	0xbda9e03c	-0.082947224
94	0x3e3235f9	0.17403401
95	0x3d0c87b1	0.034309093
96	0x3e094d1c	0.13408321
97	0xbe0f7ddb	-0.14012854
98	0x3de9b333	0.11411133
99	0xbd1ed131	-0.03877372
100	0x3d392acd	0.045206834
101	0xbd8573d1	-0.06516231
102	0xbc8a4b6b	-0.016881665
103	0xbce2ad65	-0.027670572
104	0x3de44377	0.111456804
105	0x3de547ae	0.111953124
106	0x3daea125	0.0852683
107	0x3c9095bc	0.017649524
108	0xbdb43cfd	-0.08800695
109	0xbd3c90ee	-0.046036653
110	0xbca8a96c	-0.0205886
111	0x3e2b7cb5	0.1674679
112	0xbdc81afc	-0.09770772
113	0xbd26b090	-0.040695727
114	0xbd0677a6	-0.03282895
115	0xbd5f1f8b	-0.05447344
116	0xbcd519c6	-0.026013266
117	0xbc6d51c2	-0.014484825
118	0x3c17d546	0.009267157
119	0xbddf8fe9	-0.109161206
120	0xbe1f63b6	-0.1556538
121	0x3e17f260	0.14838552
122	0x3e0387a9	0.12844719
123	0xbd3fda3f	-0.046838995
124	0xbd44eed9	-0.048079345
125	0x3d2e49be	0.042550795
126	0x3e1c0b5f	0.15238713
127	0xbd70c349	-0.05877999
128	0x3e03344d	0.1281292
129	0xbd605e55	-0.054777462
130	0xbe00c20a	-0.1257402
131	0x3d5f8380	0.054568768
132	0x3cacfdef	0.021117179
133	0xbc83cf51	-0.016090067
134	0xb9ea2b8f	-0.00044664412
135	0x3d0a5c4c	0.033779427
136	0xbd3bfd83	-0.045896064
137	0x3db92d52	0.09041847
138	0x3d9f36df	0.07774138
139	0x3c9b950e	0.018991973
140	0x3e3871e8	0.18012202
141	0x3c9b8075	0.018982152
142	0x3e085bf0	0.13316321
143	0x3d7fe2ab	0.062472027
144	0xbe0f0c07	-0.13969432
145	0x3e2e51de	0.17023417
146	0x3d30a153	0.0431226
147	0xbd358670	-0.044317663
148	0xbce9aae3	-0.028523868
149	0x3a98d884	0.0011661206
150	0xbd1ac65c	-0.037786826
151	0xbc943c1a	-0.018095065
152	0x3e0c0a2f	0.1367576
153	0x3d177cce	0.036984257
154	0x3e2f00b6	0.17090115
155	0xbe45a996	-0.19302973
156	0x3b906702	0.0044068107
157	0x3d94cbe0	0.072654486
158	0x3e4b73eb	0.19868438
159	0x3e70d5df	0.23519085
160	0x3d05cae0	0.03266418
161	0xbc93422f	-0.017975895
162	0x3d702406	0.058628105
163	0xbdb04ac6	-0.08608012
164	0x3e23a55e	0.15981051
165	0xbd237fb9	-0.039916728
166	0xbd6c1298	-0.05763492
167	0x38ba0275	8.869629e-05
168	0x3e146b14	0.14493972
169	0x3d80c60b	0.06287774
170	0xbdd75a01	-0.10515214
171	0x3d8ae40b	0.06781777
172	0xbe505221	-0.2034383
173	0xbddb8193	-0.10718074
174	0xbdb877c8	-0.090072215
175	0x3dc16888	0.09443766
176	0xbd3d7573	-0.046254586
177	0xbd9817cc	-0.07426414
178	0xbd99dadf	-0.075124495
179	0xbe1e4794	-0.15456992
180	0xbdf7faa3	-0.12108352
181	0xbe42da96	-0.19028696
182	0x3cfca942	0.030842427
183	0xbe12746d	-0.14302225
184	0xbd19ff6e	-0.037597112
185	0x3e271aea	0.1631886
186	0x3e31e6fc	0.1737327
187	0xbd540445	-0.051761884
188	0xbe0ae91b	-0.13565485
189	0x3d22b093	0.039719176
190	0x3e3300d9	0.17480792
191	0xbd475d66	-0.048673056
192	0x3e17a2df	0.14808224
193	0x3d25a9ed	0.040445257
194	0x3e78512a	0.24249712
195	0xbc1afbb7	-0.009459428
196	0x3d5522c2	0.0520351
197	0x3e44f3d0	0.19233632
198	0x3d7d2278	0.06180045
199	0xbdb75bb1	-0.089530356
200	0xbdc47bd7	-0.09593933
201	0xbd68cb94	-0.056834772
202	0x3d917baa	0.07103665
203	0xbe6f7d92	-0.23387745
204	0x3cb21e7f	0.021743057
205	0xbc9f53bb	-0.019449105
206	0x3d8142a8	0.06311542
207	0x3e1c28a0	0.15249872
208	0x3d95faad	0.07323203
209	0x3d0043bd	0.0313146
210	0xbdc5d6bb	-0.09660097
211	0x3cc76ec6	0.024344813
212	0x3d8f72fc	0.070043534
213	0xbe45e205	-0.19324501
214	0xbd6b9282	-0.057512768
215	0x3dffc10e	0.12487994
216	0x3cd82af2	0.026387665
217	0xbeb71177	-0.35755512
218	0x3d5e13cb	0.054218095
219	0xbdb990c7	-0.09060817
220	0xbc3249fc	-0.010881897
221	0xbe0789eb	-0.13236205
222	0x3a589fd5	0.0008263563
223	0xbdb784d6	-0.08960883
224	0x3e714ddb	0.23564856
225	0xbe460625	-0.19338281
226	0x3d3c72af	0.04600781
227	0xbdbcc41b	-0.09217092
228	0xbd2b753c	-0.04185985
229	0xbde4a127	-0.1116355
230	0xbd9232ec	-0.07138619
231	0xbd7620a0	-0.060089707
232	0x3db66264	0.08905485
233	0x3d1a49df	0.037668105
234	0x3e5f3dd5	0.21800931
235	0xbde448a9	-0.11146671
236	0xbdd64a99	-0.10463447
237	0xbd73b119	-0.059495065
238	0x3c4ac5ae	0.012376232
239	0x3d8595d5	0.06522719
240	0xbdbc55af	-0.0919603
241	0xbc731f5f	-0.014839022
242	0xbcd8f4bb	-0.026483884
243	0x3d040b8c	0.032237574
244	0x3d4a6014	0.049408033
245	0x3cb557ba	0.022136558
246	0x3d4c33d9	0.049854133
247	0x3e08c2fa	0.13355628
248	0x3d562dff	0.05228996
249	0xbd042d32	-0.032269664
250	0x3d27e6be	0.040991537
251	0xbda0c383	-0.07849791
252	0xbd0bf1b8	-0.034166068
253	0x3da0605b	0.07830878
254	0x3d43cb3b	0.047801238
255	0x3db0a201	0.0862465

controller.bias_ih f4 [256]
0	0x3e8081d4	0.2509905
1	0x3e5281c1	0.2055731
2	0x3db02cfa	0.086023286
3	0xbc9586d6	-0.018252771
4	0x3cda7de2	0.026671354
5	0x3cb3ed79	0.021963822
6	0x3e482705	0.19546135
7	0x3d2c9310	0.042132437
8	0xbd1c904e	-0.038223557
9	0x3defdd84	0.117121726
10	0x3d67776b	0.05651037
11	0x3dd0233d	0.10162971
12	0xbce7380b	-0.028224966
13	0x3d017bdb	0.03161226
14	0x3e08af1b	0.13348047
15	0xbc2e48c5	-0.010637467
16	0xbb5afec6	-0.0033416017
17	0xbd33b352	-0.043872185
18	0x3e0b5c0e	0.13609335
19	0x3d88a4c8	0.066720545
20	0x3e0ae5ff	0.13564299
21	0x3e5a4adf	0.21317624
22	0x3d61e92c	0.05515401
23	0x3e76ddcc	0.24108046
24	0xbd9045cd	-0.070445634
25	0xba728ed0	-0.0009252848
26	0xbc43a66d	-0.0119415345
27	0x3dc7c8f1	0.097551234
28	0x3cb22f95	0.021751205
29	0x3c06a3a2	0.008217724
30	0x3df49e8d	0.11944304
31	0x3e013e01	0.12621309
32	0x3d2fc345	0.042910833
33	0x3c9f8604	0.019473083
34	0xba1e4bf4	-0.00060385396
35	0x3d0c1e0a	0.034208335
36	0x3e33a565	0.17543562
37	0x3e01a8e6	0.12662086
38	0x3e814da0	0.25254536
39	0x3da2886c	0.07936177
40	0x3e0679c9	0.13132395
41	0x3c33104f	0.010929181
42	0x3caeee7a	0.021353949
43	0xbd3b75d7	-0.045766678
44	0x3d466c21	0.048442964
45	0x3c822076	0.01588462
46	0x3d30e597	0.043187704
47	0x3c67b108	0.014141329
48	0x3c09b21a	0.008404279
49	0x3d18fc3c	0.037349924
50	0x3d883f85	0.066527404
51	0xbd26e5ce	-0.040746503
52	0xbd34b9c5	-0.044122476
53	0x3e07b165	0.13251264
54	0x3dc28fb4	0.095000654
55	0xbc24aacb	-0.010050486
56	0x3e038d40	0.12846851
57	0x3d6c6de7	0.057722
58	0x3e0fe2c2	0.14051345
59	0x3d98a52f	0.07453381
60	0xbc07e010	-0.008293167
61	0x3dc6b0ad	0.09701667
62	0x3e2ce0dd	0.16882654
63	0x3d3fe293	0.046846937
64	0xbe07c985	-0.13260467
65	0x3cb5f4c9	0.02221145
66	0xbb4533ef	-0.003009077
67	0xbc3bc184	-0.011459712
68	0xbc4d3763	-0.012525412
69	0xbd9d7a87	-0.07689386
70	0x3d68eed1	0.056868378
71	0xbd9ffd40	-0.078119755
72	0x3dde7d9f	0.10863804
73	0xbde0369a	-0.109479144
74	0x3d5e931c	0.054339513
75	0xbdb965de	-0.09052633
76	0xbd605657	-0.05476984
77	0x3cfd08df	0.03088802
78	0xbd1a0d4f	-0.03761035
79	0x3df22030	0.118225455
80	0x3b3a5ecb	0.0028437849
81	0x3de85fa0	0.11346364
82	0x3d94de00	0.07268906
83	0xbdd6e9e5	-0.104938306
84	0x3d3497c9	0.044090066
85	0xbd2223a5	-0.039584775
86	0x3d929f7e	0.07159327
87	0x3dc525b7	0.09626334
88	0x3dff4658	0.12464589
89	0xbcba8c13	-0.02277187
90	0x3db71b2a	0.08940728
91	0x3e08d41e	0.13362166
92	0x3dab0c1f	0.08351921
93	0x3ddb132c	0.10697016
94	0xbd604075	-0.05474897
95	0x3e1defee	0.15423557
96	0x3cef91a9	0.02924426
97	0xbda50ac0	-0.08058691
98	0x3d89f5e9	0.06736357
99	0x3db91ef5	0.09039108
100	0x3db15beb	0.0866011
101	0xbd46356b	-0.048390787
102	0xbda34d91	-0.07973779
103	0x3d3552c6	0.044268392
104	0xbd5807ec	-0.05274193
105	0x3cf17d46	0.02947868
106	0xbc967206	-0.018364917
107	0xbdcaaaea	-0.098958805
108	0xbd219605	-0.03944971
109	0xbccfc845	-0.02536405
110	0x3dc13c50	0.09435332
111	0x3dbd3245	0.09238104
112	0x3d2c7373	0.04210229
113	0x3da51a03	0.08061602
114	0xbd0a42e2	-0.03375519
115	0xbd2af7ff	-0.041740414
116	0xbd463036	-0.04838582
117	0x3df7b9ee	0.1209601
118	0x3accb161	0.0015616828
119	0xbc3388d1	-0.010957913
120	0x3c367fb8	0.011138849
121	0x3e16c3cf	0.14723133
122	0x3cc9d4f8	0.024637684
123	0x3d6d9d74	0.058011487
124	0x3ca17105	0.019707212
125	0xbd04d859	-0.032432888
126	0xbd18c769	-0.037299547
127	0x3e261c22	0.1622167
128	0x3dc7263c	0.097240895
129	0xbdf463b1	-0.11933077
130	0x3d86e1b1	0.06586016
131	0xbc1937e8	-0.009351708
132	0x3d99a170	0.07501495
133	0xbdf1caa9	-0.118062325
134	0x3dc80946	0.09767394
135	0x3db515ba	0.08842035
136	0xbdc53ff0	-0.09631336
137	0xbc81578e	-0.01578882
138	0x3deb8ec2	0.11501838
139	0x3d532cb5	0.051556308
140	0x3e134943	0.14383416
141	0x3dc390b4	0.09549084
142	0xbdbe57d3	-0.09294095
143	0x3d464e60	0.048414588
144	0x3d771558	0.06032309
145	0x3d34c5f1	0.044134084
146	0xbd7244a9	-0.05914751
147	0xbd1029de	-0.035196178
148	0x3d858130	0.06518781
149	0x3e0dd9e6	0.13852653
150	0x3d9949c2	0.07484771
151	0x3c900e67	0.017584993
152	0x3de4fcdf	0.11181044
153	0xbd61d043	-0.055130254
154	0xbc8b4a12	-0.017003093
155	0x3ca3112a	0.019905645
156	0x3c27e2e1	0.010246963
157	0x3cf89019	0.030342149
158	0x3e1e338d	0.15449353
159	0x3d400fd1	0.046890084
160	0x3e027cb7	0.12742887
161	0x3b46ea96	0.0030352226
162	0x3b717d4a	0.003684836
163	0xbd8381f9	-0.06421275
164	0x3df89b50	0.121389985
165	0x3d6d3013	0.057907175
166	0xbd88ebe6	-0.06685619
167	0x3ca355a9	0.019938307
168	0x3cf67d24	0.030088969
169	0x3e13bce0	0.14427519
170	0xbac78583	-0.0015222285
171	0xbb7c8709	-0.0038532636
172	0xbdd90f79	-0.10598654
173	0xbdd4ece5	-0.103967465
174	0xbe1d251e	-0.1534619
175	0x3d28edfc	0.041242585
176	0x3da40c39	0.08010144
177	0x3d0f3706	0.034964584
178	0x3dcac3c0	0.099006176
179	0xbd96dcc4	-0.073663265
180	0x3ca45401	0.020059587
181	0xbde738aa	-0.11290105
182	0x3c12043f	0.008912145
183	0xbd9f1877	-0.07768338
184	0x3d6b48e4	0.05744256
185	0xbd5e6185	-0.05429222
186	0xbcc9c704	-0.02463103
187	0xbde1d38e	-0.11026679
188	0xbdfdc58e	-0.12391196
189	0x3db1cb9d	0.08681414
190	0x3ccab1b7	0.024742944
191	0x3c91b781	0.017787697
192	0x3e081389	0.13288702
193	0x3af8e9a8	0.0018990533
194	0x3df593a6	0.11991052
195	0x3dd89a19	0.10576267
196	0x3e05e423	0.13075309
197	0x3e52a849	0.20572008
198	0xbc935caa	-0.017988522
199	0x3dccd240	0.100010395
200	0xbd7889ba	-0.06067822
201	0x3c47b303	0.012188676
202	0xbc3322f2	-0.010933625
203	0x3dc8f89f	0.09813046
204	0xbd9b4177	-0.07580846
205	0x3ced9062	0.028999511
206	0x3e04b1d7	0.12958466
207	0x3e181ea4	0.14855438
208	0x3d1b6f98	0.03794822
209	0x3cab5fae	0.020919647
210	0xbc67e5dd	-0.014153925
211	0x3d5715a8	0.052510887
212	0x3db1b7fe	0.08677672
213	0x3d838a57	0.064228706
214	0x3d341187	0.043962028
215	0x3d2cc2c8	0.042177945
216	0xbba52bfb	-0.0050406433
217	0x3c47eb20	0.012202054
218	0x3db8d4f5	0.09024993
219	0x3cbe8b2b	0.02325972
220	0x3e64f486	0.22358903
221	0x3e296c76	0.16545281
222	0x3d16214e	0.036652856
223	0x3be54dbb	0.0069977916
224	0x3dd3fd53	0.10351052
225	0x3cea93a6	0.028634857
226	0x3d03b31c	0.032153234
227	0x3da66d33	0.08126297
228	0xbd4708de	-0.04859244
229	0x3e38f952	0.18063858
230	0x3da522f8	0.080633104
231	0x3dedc4fd	0.11609838
232	0xbd1676bf	-0.03673434
233	0x3d9d44e4	0.076791555
234	0x3dfe1bee	0.12407671
235	0xbdb370e3	-0.08761766
236	0xbb837365	-0.004011559
237	0x3cff1e3e	0.03114235
238	0xbce79be7	-0.028272582
239	0x3c41f162	0.011837335
240	0x3df61bed	0.12017045
241	0xbcbcc2a4	-0.02304203
242	0x3d975ce9	0.07390768
243	0xbcd42a7a	-0.02589916
244	0x3dfb051a	0.122568324
245	0xbdaf2401	-0.08551789
246	0x3e467cfa	0.19383612
247	0x3cd93639	0.026515113
248	0xba7a8306	-0.0009556267
249	0xbd05e37c	-0.03268765
250	0x3dba28c1	0.090898044
251	0x3d32aed0	0.043623745
252	0x3d63a5a9	0.055577908
253	0x3e13bc17	0.1442722
254	0x3dc43ad8	0.09581536
255	0x3d9c1337	0.076208524

controller.bias_hh f4 [256]
0	0x3d8f098e	0.06984244
1	0x3da52ff2	0.080657855
2	0x3d71ab18	0.05900106
3	0x3e08f38b	0.13374154
4	0x3da9af6b	0.082854114
5	0x3da3e6cb	0.08003005
6	0x3e41b577	0.1891688
7	0x3dd1d352	0.10245384
8	0x3e2d2c94	0.16911536
9	0x3e60eecd	0.21966095
10	0x3e2df624	0.16988426
11	0x3e141049	0.14459337
12	0x3dfd5f34	0.12371674
13	0xbcb6f6b7	-0.02233444
14	0x3e087f71	0.13329865
15	0x3dc37120	0.09543061
16	0x3c5a4da7	0.013324178
17	0xbcebc5d0	-0.028780848
18	0xbc97d4d5	-0.018534103
19	0x3e3ffe6f	0.18749402
20	0x3da5e0ff	0.08099555
21	0x3e4b95f8	0.19881427
22	0x3dd49ffe	0.103820786
23	0x3e35ccd5	0.17753918
24	0x3e2e379d	0.17013402
25	0xbc474065	-0.012161349
26	0x3de99637	0.11405604
27	0xb9ebba59	-0.00044961533
28	0x3e1f9387	0.15583621
29	0x3e179b3f	0.14805315
30	0x3dcdc10a	0.10046585
31	0x3e41bcd9	0.18919696
32	0x3e0ef9f0	0.13962531
33	0x3bee9098	0.0072804205
34	0x3e09cb39	0.1345643
35	0xbd76940e	-0.06019979
36	0x3c25ca3b	0.010119016
37	0x3dcebcda	0.10094614
38	0x3e2e0cad	0.16997023
39	0x3e320029	0.17382874
40	0x3dd49619	0.10380191
41	0x3dcf531b	0.10123273
42	0x3e2a75fd	0.16646571
43	0x3cac0ee7	0.0210032
44	0x3e47e572	0.1952112
45	0x3e0bd6ae	0.13656113
46	0x3de7815c	0.1130397
47	0x3d320305	0.04345991
48	0x3cbc5272	0.022988532
49	0x3e0ed879	0.13949765
50	0x3dc501f4	0.09619513
51	0x3e1bb582	0.15205958
52	0x3d101c40	0.03518319
53	0x3d87f1a3	0.066378854
54	0x3e1baa1b	0.15201609
55	0xbcb28a34	-0.021794416
56	0x3da750fa	0.08169742
57	0xbd07a70e	-0.0331183
58	0x3e07655f	0.13222264
59	0x3d885198	0.06656188
60	0x3c0bc65c	0.008531179
61	0x3d552999	0.052041624
62	0xbc7a72c0	-0.015286148
63	0x3d88baaa	0.06676228
64	0xbd0a2bc6	-0.03373315
65	0x3dc5673f	0.09638833
66	0xbcafbba4	-0.021451779
67	0xbd160765	-0.036628146
68	0x3d40bdfb	0.04705618
69	0x3d6fd9ab	0.058557194
70	0xbdf634ee	-0.12021814
71	0x3dcd2860	0.100174665
72	0xbc538d2f	-0.012912079
73	0x3d5045ae	0.0508477
74	0x3d8072b1	0.06271876
75	0x3cc03cb2	0.023466442
76	0x3d72c1d3	0.059266876
77	0x3df08174	0.11743441
78	0xbc35e23d	-0.011101303
79	0xbcf110d5	-0.029426971
80	0x3d922eaa	0.07137807
81	0x3dca2031	0.09869421
82	0x3dedb09f	0.116059534
83	0x3d5e415c	0.05426155
84	0xbd997d23	-0.07494571
85	0xbd5b8542	-0.05359388
86	0xbadbc42b	-0.0016766837
87	0x3d01f0c7	0.031723764
88	0xbc49aa2e	-0.01230864
89	0xbd7c4365	-0.06158771
90	0xbc0c4985	-0.00856245
91	0x3dff309c	0.124604434
92	0x3c2e926b	0.010655026
93	0x3dc78a4a	0.097431734
94	0x3bd5acd4	0.006520847
95	0x3d0dddf8	0.034635514
96	0x3de6350c	0.11240587
97	0x3da18123	0.07885959
98	0xbdbc984b	-0.09208735
99	0x3db3231f	0.08746933
100	0xbd9e07f4	-0.07716361
101	0x3dfd2327	0.123602204
102	0xbc282399	-0.010262393
103	0x3da7f83a	0.08201642
104	0x3dce8660	0.10084224
105	0x3dfd2179	0.123599
106	0x3e03c8e6	0.12869605
107	0xbd9c035c	-0.07617828
108	0x3d983eaf	0.07433831
109	0xbb183c39	-0.0023229255
110	0xbcba25a9	-0.022723036
111	0xbdbba215	-0.09161774
112	0x3dffff5b	0.12499877
113	0x3e16cd48	0.14726746
114	0x3ddaaa91	0.10677064
115	0x3d9c0883	0.07618811
116	0xbd418dbd	-0.047254313
117	0x3e10d2bc	0.14142889
118	0xbd301eba	-0.042998053
119	0x3e1a1539	0.15047158
120	0x3e14b4c8	0.14522088
121	0x3c36307f	0.011119961
122	0x3d808ef2	0.06277265
123	0x3dc2bef5	0.095090784
124	0xbd1afde8	-0.0378398
125	0xbd93a06d	-0.07208333
126	0xbdf69530	-0.12040174
127	0x3d22ffdb	0.039794784
128	0x3d330d69	0.04371396
129	0xbda1cb6f	-0.0790013
130	0xbc98f0a5	-0.018669436
131	0xbca39f91	-0.019973548
132	0xbd029af2	-0.03188605
133	0xbdc8ea16	-0.09810273
134	0x3b8ff94d	0.0043937326
135	0xbd0695a0	-0.032857537
136	0xbe031ed5	-0.1280473
137	0x3c992039	0.018692123
138	0xbc839a78	-0.016064867
139	0x3e1950b6	0.14972195
140	0xbbf84ea8	-0.007577736
141	0x3dc9098b	0.09816273
142	0xbda19824	-0.07890347
143	0xbd9b1c92	-0.07573809
144	0xbdf5dfc3	-0.1200557
145	0x3d49c285	0.049257774
146	0x3e25bfe4	0.16186482
147	0xbd8e9570	-0.06962097
148	0x3bfa1d11	0.0076328595
149	0xbd6f8fab	-0.05848662
150	0xba938ea8	-0.0011257725
151	0xbdda5551	-0.10660804
152	0x3e040e2b	0.1289603
153	0x3e069144	0.13141352
154	0x3e08d601	0.13362886
155	0xbd57de8d	-0.052702475
156	0x3ceea532	0.029131506
157	0xbc9b7d3c	-0.018980615
158	0xbbd7cbba	-0.0065855654
159	0x3de7fcdc	0.11327526
160	0x3d9f10b7	0.0776686
161	0xbd467c52	-0.048458405
162	0xbd266ae6	-0.04062929
163	0xbce41890	-0.027843744
164	0x3cefa469	0.029253202
165	0x3cb8c94a	0.02255692
166	0x3e0c14e7	0.13679849
167	0x3d0357db	0.032066207
168	0x3d47ec3c	0.048809275
169	0x3e17e2b9	0.14832582
170	0xbd1f931e	-0.03895866
171	0x3bc36605	0.0059630894
172	0xbde5dca0	-0.112237215
173	0x3b685555	0.0035451252
174	0x3d3d58b8	0.046227187
175	0x3dfba323	0.12286975
176	0x3da81537	0.082071714
177	0xbde2527b	-0.11050888
178	0xbddc42b9	-0.10754914
179	0xbdc6464d	-0.096813776
180	0x3bcb90e7	0.006212342
181	0xbdf09980	-0.11748028
182	0x3cfa8a28	0.030583456
183	0x3bd8977d	0.0066098557
184	0xbddb272e	-0.10700832
185	0x3cbd1946	0.02308334
186	0x3c96ceeb	0.018409213
187	0x3be6226d	0.007023147
188	0xbd625e4d	-0.055265713
189	0xbbb5bb7e	-0.0055460325
190	0xbdcbf8ef	-0.0995959
191	0x3d136119	0.03598127
192	0x3c8c1fd6	0.017105024
193	0x3da9cdc2	0.08291198
194	0xbd5aae64	-0.053388968
195	0x3db9d5f8	0.090740144
196	0x3e10be4f	0.14135097
197	0x3e6fcd7f	0.23418234
198	0x3bc0fcb5	0.0058895
199	0xbb80dede	-0.003932818
200	0x3d9489f3	0.07252874
201	0x3dc031b9	0.09384484
202	0x3dc1e3b9	0.09467263
203	0x3e6003d5	0.21876462
204	0x3d9fc676	0.07801525
205	0x3d6472bb	0.055773478
206	0x3e1a018c	0.15039653
207	0x3e006f29	0.12542404
208	0x3da80e7d	0.082058884
209	0xbd7bad3c	-0.061444506
210	0x3e2c6ae0	0.16837645
211	0x3dd18f9c	0.102324694
212	0xbd698b55	-0.057017643
213	0x3c4ada7e	0.012381194
214	0x3c261a77	0.010138146
215	0x3de6481a	0.11244221
216	0xbd47ee3c	-0.048811182
217	0xbbdc4065	-0.0067215436
218	0x3cc1e427	0.023668362
219	0x3c77c148	0.015121765
220	0x3e5bd455	0.21467717
221	0x3da717ca	0.08158834
222	0x3d7597e2	0.0599593
223	0x3e11006b	0.14160316
224	0x3da02556	0.07819621
225	0xbc571119	-0.013126635
226	0x3d92f7d7	0.07176178
227	0x3b41203f	0.0029468683
228	0xbc88221c	-0.016617827
229	0xbd5c15de	-0.05373179
230	0x3c1a9cd0	0.009436801
231	0x3e048209	0.1294023
232	0x3dca8550	0.098887086
233	0x3c630243	0.01385552
234	0x3e2a2e3e	0.16619202
235	0xbdcc2f9f	-0.099700205
236	0x3d7b88cb	0.061409753
237	0xbce704cf	-0.028200535
238	0xbd850452	-0.06494965
239	0x3e13b78c	0.14425486
240	0x3e0c95a1	0.13728954
241	0xbcfe0785	-0.031009445
242	0x3d9c7b81	0.07640744
243	0x3d11c9bf	0.03559279
244	0x3e152039	0.14563073
245	0xbcab3461	-0.020899
246	0x3de31f56	0.11089961
247	0x3da98403	0.08277132
248	0x3dcd9979	0.10039038
249	0x3e346273	0.1761568
250	0xbd5d5870	-0.05403942
251	0x3e115000	0.14190674
252	0x3d04e3fa	0.032443978
253	0x3d676fa0	0.05650294
254	0x3e06f08d	0.131777
255	0x3e3e2f04	0.18572623

key_proj.0.weight f4 [20, 64]
0	0xbcae7c0e	-0.021299388
1	0xbdce375b	-0.10069152
2	0xbde228bb	-0.11042925
3	0xbd1cdd31	-0.038296882
4	0xbd5aebc5	-0.053447504
5	0x3d55f5f4	0.052236512
6	0xbd0a9073	-0.033829164
7	0x3dbf862e	0.093517646
8	0xbced84e8	-0.028994039
9	0xbd8151d8	-0.063144386
10	0x3ca7beae	0.020476665
11	0x3d1ced43	0.038312208
12	0xbbea3562	-0.007147477
13	0x3dd7d81d	0.10539267
14	0xbc2c835a	-0.0105293635
15	0xbd6baa77	-0.057535615
16	0x3d6d5e62	0.05795134
17	0xbdba318e	-0.09091483
18	0x3e01a428	0.12660277
19	0x3d935fad	0.07195983
20	0xbd8554e6	-0.06510334
21	0x3d6696d7	0.056296196
22	0xbd868667	-0.06568604
23	0xbd816fe0	-0.063201666
24	0xbcaba2f9	-0.020951735
25	0xbe05946a	-0.13044897
26	0x3cbb4dbd	0.022864217
27	0x3d8fa298	0.07013434
28	0xbd8cf21f	-0.068821184
29	0xbd1dc90d	-0.038521815
30	0xbc69b2b5	-0.0142637985
31	0x3d5eba1f	0.054376718
32	0xbd9704cf	-0.07373964
33	0x3cc7a642	0.02437127
34	0xbd7e5456	-0.062092148
35	0x3ca94321	0.020661892
36	0xbd17575c	-0.036948547
37	0xbdd19617	-0.102337055
38	0xbcacff01	-0.02111769
39	0x3dcf546d	0.10123525
40	0x3c7cca82	0.015429141
41	0xbda298ce	-0.079393014
42	0xbcc293fb	-0.023752203
43	0x3d42e887	0.047585037
44	0xbe1a11bc	-0.15045828
45	0xbcdaae19	-0.026694344
46	0xbd86cbf3	-0.06581869
47	0x3d829224	0.0637553
48	0xbd2d99e4	-0.04238309
49	0xbdfe5430	-0.12418401
50	0x3d8cee27	0.068813615
51	0x3da17482	0.0788355
52	0xbe0b1ce3	-0.13585238
53	0x3d590428	0.05298248
54	0xbd353bf1	-0.044246618
55	0x3d84cda7	0.064845376
56	0xbdd77220	-0.105198145
57	0x3d9bf54a	0.076151446
58	0x3bc0cebf	0.005884021
59	0x3d0b86a2	0.034063943
60	0x3c51a24d	0.012795043
61	0xbc91a298	-0.017777726
62	0xbdc2f840	-0.09520006
63	0x3dd99dfa	0.10625835
64	0x3d5f8301	0.054568294
65	0x3d90f23b	0.07077452
66	0xbd22dca8	-0.039761215
67	0x3e05a557	0.13051353
68	0x3d2c21d3	0.042024445
69	0xbd437975	-0.047723252
70	0xbcd3f32f	-0.025872795
71	0xbe04e237	-0.12976919
72	0x3d8b436f	0.06799971
73	0xbd944131	-0.07238997
74	0x3cf160f2	0.029465172
75	0x3ceceef8	0.028922543
76	0xbd84b21d	-0.06479285
77	0x3dbe9ce7	0.093072705
78	0x3e06f0ae	0.1317775
79	0x3bbceb57	0.0057653594
80	0x3d921175	0.07132236
81	0x3cac310c	0.021019481
82	0x3de35218	0.110996425
83	0xbd57e605	-0.052709598
84	0xbe1b0d35	-0.15141757
85	0xbdd7a87b	-0.10530182
86	0xbc9b56cf	-0.018962292
87	0x3cd56fa8	0.026054218
88	0x3d8327dc	0.06404087
89	0x3cc81cac	0.024427734
90	0x3d4d3067	0.05009499
91	0xbce01a66	-0.027356338
92	0x3d557a22	0.052118428
93	0x3ce7faf1	0.0283179
94	0x3ccd3bac	0.025052868
95	0xbdb21967	-0.08696251
96	0x3d2f41fb	0.042787533
97	0xbca268f9	-0.019825445
98	0x3d061e5d	0.0327438
99	0x3d98c0ff	0.07458686
100	0x3deb351a	0.11484738
101	0xbdfccb3e	-0.12343453
102	0xbdc72aed	-0.09724984
103	0x3c9de3e0	0.019273698
104	0xbc7982a0	-0.015228897
105	0x3d9cfeda	0.076657966
106	0x3e062eb8	0.1310376
107	0xbda2d2fb	-0.079503976
108	0x3bab1c45	0.005221876
109	0x3da97882	0.08274938
110	0xbd3c8f34	-0.046035007
111	0xbbd2cb60	-0.0064329356
112	0x3d89933e	0.06717537
113	0x3d976e1a	0.07394047
114	0x3c6bf1d0	0.014400914
115	0xbe185a7e	-0.1487827
116	0x3db77a97	0.08958929
117	0x3da2769f	0.079327814
118	0xbd909dc8	-0.070613444
119	0x3cf87382	0.030328516
120	0x3bd0b456	0.006369154
121	0xbcc03604	-0.023463257
122	0xbc20689b	-0.009790565
123	0x3d8d7c8b	0.0690852
124	0xbd880713	-0.06641974
125	0x3dbeba28	0.0931285
126	0x3df9cc26	0.12197141
127	0x3c419536	0.01181536
128	0xbd974f12	-0.07388128
129	0x3db05af4	0.08611098
130	0xbd9c9247	-0.07645088
131	0x3d4f31f8	0.050584763
132	0x3d806db4	0.06270924
133	0x3d4cc090	0.04998833
134	0xbd96ee08	-0.073696196
135	0x3d97e9d0	0.07417643
136	0xbdaa6f3f	-0.08322
137	0x3dc05585	0.093913116
138	0x3de67a93	0.11253848
139	0xbbc712d3	-0.006075242
140	0x3dde0cd6	0.10842292
141	0xbd01b19e	-0.03166353
142	0xbdce9975	-0.10087863
143	0xbda9d43d	-0.08292434
144	0xbda72a00	-0.08162308
145	0xbda834d0	-0.08213198
146	0xbdba4d58	-0.090967834
147	0x3d389f9b	0.045074087
148	0x3d3caabb	0.04606126
149	0xbbe93719	-0.007117164
150	0x3d7574dc	0.0599259
151	0x3d638644	0.055547968
152	0xbca41207	-0.020028127
153	0xbd8fe7c4	-0.07026628
154	0x3dda160d	0.10648737
155	0xbdce0982	-0.10060407
156	0xbdf6cb03	-0.1205044
157	0x3d7ed922	0.062218793
158	0x3e040627	0.12892972
159	0x3d3cfbf6	0.046138726
160	0x3da7cd53	0.08193459
161	0xbb74d622	-0.0037359078
162	0xbd577f0e	-0.052611403
163	0xbdb1c2f3	-0.08679762
164	0x3d0aacfb	0.033856373
165	0xbd5c8522	-0.053837903
166	0x3dcfa080	0.10138035
167	0xbd54650d	-0.051854182
168	0xbcce8e99	-0.02521448
169	0xbdd50172	-0.10400666
170	0x3d854424	0.065071374
171	0x3bf2abfd	0.0074057565
172	0xbda0b387	-0.07846742
173	0x3c8fc6fe	0.017550942
174	0x3d063ddb	0.032773834
175	0x3c580685	0.013185148
176	0xbcf9f09e	-0.030510243
177	0xbd28a223	-0.04117025
178	0xbd407cd5	-0.04699405
179	0xbd921e5d	-0.071346976
180	0xbde541f7	-0.111942224
181	0xbd2d156f	-0.04225677
182	0xbd9d253a	-0.07673116
183	0x3db3a30a	0.087713316
184	0xbcbdc190	-0.023163587
185	0xbdb6f53c	-0.089334935
186	0xbd0e26b1	-0.034704868
187	0x3dc34794	0.09535137
188	0xbcb61bf9	-0.022230135
189	0x3e08a9ee	0.13346073
190	0x3abcee25	0.0014414234
191	0x3da5e278	0.08099836
192	0xbcab6653	-0.020922815
193	0x3bd430f2	0.0064755613
194	0xbcea2174	-0.028580405
195	0xbc8562fe	-0.016282555
196	0xbe228f91	-0.15875079
197	0x3cf29469	0.029611783
198	0x3def6d4e	0.1169077
199	0x3db7487d	0.08949373
200	0xbd4bc397	-0.049747076
201	0x3d5ea2ef	0.054354604
202	0x3d6be07f	0.057587143
203	0x3c3303ff	0.010926246
204	0xbd3d6736	-0.046241008
205	0xbca7a71e	-0.02046543
206	0xbdd55356	-0.10416286
207	0xbcb325e9	-0.021868663
208	0xbd3b7486	-0.045765422
209	0xbdc6c960	-0.09706378
210	0x3d2910ca	0.041275777
211	0xbe14c9a6	-0.14530048
212	0xbcb7ed11	-0.02245191
213	0xbd8dced0	-0.06924212
214	0x3d9171df	0.07101797
215	0x3d6b6a06	0.05747416
216	0x3d4d8d50	0.050183594
217	0x3d94be10	0.07262814
218	0x3d981ce6	0.07427387
219	0x3e179d1f	0.1480603
220	0xbd6ff054	-0.058578804
221	0x3d74c8e6	0.059761904
222	0xbcbc0d50	-0.022955567
223	0xbbfa9bea	-0.007647981
224	0xbd0233b7	-0.0317876
225	0x3decb7bc	0.11558482
226	0xbdeb02d5	-0.114751495
227	0x3da096c5	0.07841257
228	0xbdc7e286	-0.09760003
229	0x3df5c9bb	0.12001368
230	0x3d479734	0.048728183
231	0xbd5463e2	-0.05185307
232	0x3daf7a32	0.08568229
233	0xbc9912a4	-0.018685646
234	0xbd5ffeb4	-0.054686263
235	0x3c6c3288	0.014416344
236	0xbd9ab091	-0.075532086
237	0xbbbe9d2b	-0.0058170757
238	0xbd80e7f3	-0.06294241
239	0x3d43c75c	0.047797546
240	0x3c97e9fd	0.018544191
241	0xbccee9ad	-0.02525791
242	0x3e014327	0.12623273
243	0xbdb54d00	-0.08852577
244	0x3e150586	0.14552888
245	0x3e0ace87	0.13555346
246	0x3dc3a950	0.09553778
247	0xbd7694a1	-0.060200337
248	0x3b0fea8d	0.0021959872
249	0x3c8fb7ab	0.017543634
250	0xbdaa376b	-0.083113514
251	0x3d83e67d	0.064404465
252	0x3d683244	0.056688562
253	0x3ca73065	0.020408818
254	0x3d30e756	0.04318937
255	0x3d2ee1c9	0.042695794

key_proj.0.bias f4 [20]
0	0x3dc7cc2a	0.09755738
1	0x3d8cdb09	0.06877715
2	0xbd9039f1	-0.070423014
3	0xbe0fded8	-0.14049852
4	0xbdf53322	-0.119726434
5	0xbd945f73	-0.07244768
6	0x3cb14418	0.021638915
7	0xbbbed181	-0.0058233147
8	0x3cf00074	0.029297091
9	0xbd4886d0	-0.048956692
10	0xbd994c50	-0.074852586
11	0x3dddaaf2	0.10823621
12	0xbd005b12	-0.03133685
13	0x3d7fbde1	0.062436942
14	0x3cb77325	0.022393772
15	0xbd4cc291	-0.04999024
16	0xbd59d933	-0.053185653
17	0x3b21ce1b	0.0024689499
18	0xbdc2727c	-0.094944924
19	0xbd8bb326	-0.06821279

key_proj.1.weight f4 [20, 64]
0	0xbd510598	-0.051030725
1	0xbd9086cd	-0.07056961
2	0x3bedee09	0.007261042
3	0x3d8e3fc6	0.069457576
4	0x3d5a1b67	0.05324879
5	0xbb187545	-0.0023263257
6	0xbde0d358	-0.109778106
7	0x3d1a3b74	0.037654355
8	0x3d136127	0.035981324
9	0x3aec5812	0.0018031618
10	0xbd0813da	-0.033222057
11	0x3d1121d0	0.035432637
12	0x3d196844	0.03745295
13	0xbdb1c34f	-0.0867983
14	0xbc880b83	-0.016607052
15	0xbd9851a3	-0.07437446
16	0xbcda0a17	-0.02661614
17	0xbd229065	-0.039688487
18	0xbdac007e	-0.083985314
19	0x3d9547d0	0.07289088
20	0xbd928386	-0.07153992
21	0x3d97a0a1	0.074036844
22	0xbdbabe24	-0.09118298
23	0xbd6f0d29	-0.05836216
24	0xbd96ac08	-0.07357031
25	0xbd70cffe	-0.058792107
26	0xbaf63074	-0.0018782751
27	0x3d7f09ad	0.062265087
28	0x3de99d49	0.11406953
29	0xbde60206	-0.11230855
30	0x3c9f28c1	0.019428613
31	0x3c8b7655	0.017024199
32	0xbb4d2fd8	-0.0031309035
33	0x3c83a286	0.016068708
34	0x3cc1e561	0.023668947
35	0xbd241a5b	-0.040064197
36	0xbd525d2e	-0.051358394
37	0xbd7c7e93	-0.061644148
38	0xbd2df863	-0.04247321
39	0xbdb63997	-0.08897703
40	0xbd8c6b3f	-0.06856393
41	0x3cd2407f	0.02566552
42	0x3dea9365	0.114538945
43	0x3d81e293	0.06342044
44	0xbdb7b0a8	-0.089692414
45	0x3d3d05cb	0.046148103
46	0x3debeda4	0.11519936
47	0xbdee9fe1	-0.11651588
48	0x3ca7cf85	0.020484695
49	0xbc796e72	-0.015224086
50	0x3dbb9cee	0.09160791
51	0x3dfa4bd8	0.12221497
52	0x3d31ad7e	0.043378346
53	0x3d59f63e	0.05321335
54	0x3db6f519	0.089334674
55	0x3d077b2c	0.03307645
56	0xbd106423	-0.035251748
57	0xbd56eccd	-0.052471925
58	0xbe050662	-0.12990716
59	0x3de0927a	0.10965438
60	0x3cf3b1a4	0.029747792
61	0xbe0493a4	-0.12946945
62	0x3da0e1c0	0.078555584
63	0xbd07da84	-0.033167377
64	0xbd94dbba	-0.07268472
65	0x3dd1a1d4	0.102359444
66	0xbd97ed78	-0.074183404
67	0x3d962463	0.07331159
68	0x3ce5e59d	0.02806359
69	0xbcf911cc	-0.030403994
70	0xbcd7b060	-0.02632922
71	0xbd480198	-0.048829645
72	0xbd2d827d	-0.04236077
73	0xbb924389	-0.004463617
74	0xbe0afd85	-0.13573273
75	0xbd9d3fe2	-0.076782
76	0x3c1d1aab	0.009588878
77	0xbc298a79	-0.010347956
78	0x3d738559	0.059453342
79	0xbd0d096d	-0.034432817
80	0xbc72e254	-0.014824469
81	0x3db011ef	0.085971706
82	0x3da8af8a	0.082366064
83	0xbcc641a3	-0.02420122
84	0x3da8038f	0.08203804
85	0xbd7bbf1a	-0.061461546
86	0x3e056c14	0.1302951
87	0x3d61e0b0	0.05514592
88	0x3c140735	0.009034921
89	0x3cd192b4	0.025582649
90	0x3d1a64f9	0.03769395
91	0x3dd45765	0.10368232
92	0x3e064aa2	0.13114408
93	0xbdac615f	-0.084170096
94	0xbe0b0738	-0.13576972
95	0x3c9283c6	0.0178851
96	0xbbe16703	-0.006878735
97	0x3dcfb936	0.10142748
98	0xbdd1535e	-0.10220979
99	0x3bcb406c	0.006202748
100	0x3ca2e768	0.019885734
101	0x3da00138	0.078127325
102	0xbd30ff0a	-0.043211974
103	0x3dd86221	0.105655916
104	0xbd073eda	-0.033018924
105	0x3db5c8d8	0.088761985
106	0x3d88e997	0.06685179
107	0xbdae2f69	-0.085051365
108	0x3bae62d7	0.005321841
109	0x3de3b134	0.11117783
110	0xbcb2b5ef	-0.021815268
111	0xbe0af57a	-0.13570204
112	0x3d2e89e0	0.042611957
113	0xbcea7774	-0.028621413
114	0xbd7f75e1	-0.062368277
115	0x3b898081	0.004196227
116	0x3df092d1	0.11746753
117	0xbd9f0573	-0.07764711
118	0xbde5dd52	-0.11223854
119	0x3d99be21	0.07506967
120	0x3d92ff29	0.07177574
121	0x3db3ccce	0.08779298
122	0xbde44535	-0.11146013
123	0xbd6a1d7e	-0.057157032
124	0x3dbe738d	0.09299383
125	0x3c2a0960	0.010378212
126	0x3d069d73	0.032865
127	0xbabe9266	-0.001453948
128	0xbdb3054c	-0.08741245
129	0x3c4b697e	0.012415288
130	0x3c1e2c7a	0.009654159
131	0xbcd8a8e7	-0.026447726
132	0xbda82d5f	-0.08211779
133	0xbd824849	-0.063614435
134	0x3dbcf7a6	0.09226923
135	0xbc9964d7	-0.018724842
136	0xbd4decc3	-0.05027462
137	0xbd9e443e	-0.0772786
138	0x3d5619b3	0.052270602
139	0x3cebad5f	0.028769193
140	0x3dbf9d37	0.09356158
141	0x3d6a13d0	0.0571478
142	0x3b08ffba	0.0020904378
143	0xbd5d4bbe	-0.05402731
144	0x3d9de8bc	0.07710406
145	0xbe081b69	-0.13291706
146	0x3d994a54	0.0748488
147	0x3dc19fc1	0.09454299
148	0xbd2c1016	-0.04200753
149	0x3df5861c	0.1198847
150	0xbd896102	-0.06707956
151	0xbdcded8b	-0.10055073
152	0xbddea206	-0.10870747
153	0x3dca8b7b	0.09889885
154	0x3d2d0d88	0.042249233
155	0x3c533f4e	0.012893511
156	0xbccb3d0e	-0.024809387
157	0x3d54f631	0.0519926
158	0xbe0f7832	-0.14010695
159	0x3d8cd898	0.068772495
160	0xbdf7ea32	-0.12105216
161	0xbdf7fb56	-0.121084854
162	0x3da3c4ce	0.07996522
163	0x3c771dab	0.015082757
164	0x3c9b6935	0.018971065
165	0xbd171b9c	-0.036891565
166	0x3ceadded	0.028670276
167	0xbd6b5888	-0.057457477
168	0xbdfb6805	-0.122756995
169	0x3db37a1b	0.08763524
170	0xbde31978	-0.11088842
171	0xbd30c9b5	-0.043161113
172	0x3bc11d86	0.005893412
173	0xbd322516	-0.0434924
174	0x3de9bf6a	0.114134625
175	0xbd1b5cf5	-0.037930448
176	0x3ddb1f53	0.10699334
177	0xbd276902	-0.040871628
178	0xbd9d1f7c	-0.07672021
179	0x3bc84639	0.006111887
180	0x3c8c139c	0.017099194
181	0x3d522fd3	0.05131514
182	0xb88bff42	-6.675582e-05
183	0x3d84bbd5	0.064811386
184	0xbd9a6aa5	-0.07539872
185	0xbd5af29a	-0.05345402
186	0xbdaed6e2	-0.085370794
187	0x3deda286	0.116032645
188	0x3dd0c59f	0.10193943
189	0xbda75de5	-0.08172206
190	0x3d35eb7f	0.04441404
191	0x3d91b8ee	0.07115351
192	0xbd2d6a1c	-0.042337522
193	0xbda874b6	-0.08225386
194	0xbafd323c	-0.0019317339
195	0x3d66890b	0.056283038
196	0x3d9d4f3a	0.07681127
197	0xbd3a5b2a	-0.045497097
198	0xbd728dbc	-0.0592172
199	0x3db5686f	0.0885781
200	0x3e1670c9	0.14691462
201	0xbd9c2cb6	-0.076257154
202	0x3d142185	0.03616478
203	0xbde1d522	-0.1102698
204	0x3b419dfc	0.002954363
205	0xbccd5116	-0.025063079
206	0xbdb57380	-0.088599205
207	0xbbd28918	-0.0064250343
208	0x3cadbc1c	0.021207862
209	0xbd35d7ed	-0.044395376
210	0x3d56dbfc	0.052455887
211	0x3d69e822	0.057106145
212	0x3ddd8b8f	0.10817634
213	0x3d2b72d3	0.04185755
214	0x3d8a7535	0.06760637
215	0xbd5e56f3	-0.05428214
216	0x3d70e1e0	0.05880916
217	0x3d1bdea3	0.03805412
218	0x3c0f0d7e	0.008731244
219	0x3ccaa76c	0.024738036
220	0x3d8c20ce	0.068421945
221	0x3d891b69	0.06694681
222	0xbdecc9e0	-0.11561942
223	0xbd13646b	-0.035984438
224	0xbdb3a595	-0.08771817
225	0x3da8df82	0.08245756
226	0x3cc8e846	0.02452482
227	0x3dba02f7	0.09082597
228	0x3da7628a	0.08173092
229	0xbca92613	-0.020648038
230	0xbd2bafcb	-0.041915696
231	0x3dc29407	0.0950089
232	0x3d4567cd	0.048194695
233	0xbddcc2ad	-0.10779319
234	0x3d9dbfa2	0.07702567
235	0xbdb85e2a	-0.09002335
236	0x3cd2d51d	0.025736386
237	0x3e06d494	0.1316703
238	0x3e007258	0.12543619
239	0x3cc41fb5	0.0239409
240	0xbd9567c5	-0.07295183
241	0xbd19dadd	-0.03756224
242	0xbd865dd3	-0.06560864
243	0xbd7c27c3	-0.061561357
244	0xbd56660d	-0.052343417
245	0x3dd75260	0.10513759
246	0x39a54b98	0.00031527574
247	0x3d69fd20	0.057126164
248	0x3d69dafb	0.0570936
249	0xbd824f54	-0.06362787
250	0xbd64537d	-0.055743683
251	0x3deed125	0.11660985
252	0x3d966285	0.0734301
253	0x3d507cf1	0.050900403
254	0x3d2ee903	0.042702686
255	0xbd1bde1f	-0.038053628

key_proj.1.bias f4 [20]
0	0x3dd77a18	0.105213344
1	0xbd0d1455	-0.03444322
2	0x3d8c22d6	0.06842582
3	0x3d34d2ff	0.044146534
4	0x3db54e50	0.088528275
5	0xb94ae9e2	-0.0001935135
6	0x3cc477f9	0.023982989
7	0x3bc8c873	0.006127411
8	0xba0bfb86	-0.0005339909
9	0xbd659154	-0.0560468
10	0x3cb2ff69	0.021850305
11	0xbd9d038d	-0.07666693
12	0xbc9c8bbd	-0.019109601
13	0xbd6e8dc5	-0.05824067
14	0xbded626b	-0.11591037
15	0xbd2a88dd	-0.04163443
16	0x3cf9a9a2	0.030476395
17	0xbcabd7ff	-0.020977018
18	0x3da04477	0.07825559
19	0x3caf36c5	0.02138842

beta_proj.0.weight f4 [1, 64]
0	0xbda8d875	-0.08244411
1	0xbdb3844a	-0.087654665
2	0xbd230e4c	-0.039808556
3	0xbd98fd7d	-0.07470224
4	0xbdcc33c2	-0.099708095
5	0x3d421d7e	0.047391407
6	0x3d055834	0.03255482
7	0x3d6c9d53	0.057767224
8	0x3daa071d	0.08302138
9	0x3de4a1e3	0.1116369
10	0xbd0e3c5b	-0.03472553
11	0x3d366793	0.04453237
12	0x3cbbdf4b	0.022933623
13	0xbdd9ebda	-0.10640688
14	0x3d7bc369	0.061465655
15	0xbbcc70f5	-0.0062390515
16	0x3df84fbd	0.12124584
17	0x3df025a3	0.11725929
18	0x3dce4289	0.10071284
19	0xbd5fa6cb	-0.054602426
20	0x3c715bd9	0.014731371
21	0xbc1b0c5d	-0.009463397
22	0x3d3d58f8	0.046227425
23	0x3d726ce3	0.059185874
24	0x3af5d047	0.0018754088
25	0xbd814fa7	-0.063140206
26	0xbe0dd6b5	-0.13851435
27	0xbd9b2779	-0.07575888
28	0x3dda3e8e	0.106564626
29	0x3c95e695	0.018298427
30	0x3d28e3b0	0.041232765
31	0xbe12e1b3	-0.1434391
32	0x3d3a3331	0.045458976
33	0x3c568246	0.013092583
34	0xbd293f85	-0.041320343
35	0xbd5bcb7b	-0.05366085
36	0xbd23c011	-0.03997809
37	0x3d533879	0.05156753
38	0x3df65921	0.12028719
39	0x3da0908c	0.0784007
40	0x3d881845	0.06645254
41	0x3c4a834e	0.012360407
42	0xbda551f5	-0.08072273
43	0x3da6e97b	0.081500016
44	0x3dcb5ff5	0.09930412
45	0xbd0cab22	-0.034342892
46	0x3d4cbc0f	0.049984034
47	0x3d248aaa	0.040171303
48	0x3da496d1	0.080365784
49	0x3d3fd37e	0.046832554
50	0xbd30f642	-0.0432036
51	0x3dd59ea6	0.104306504
52	0xbd971bd8	-0.07378358
53	0x3dcb62dd	0.09930966
54	0xbd840cb4	-0.064477354
55	0xbd9ebd61	-0.07750965
56	0x3a17a267	0.00057843927
57	0x3dbdfc43	0.09276631
58	0x3da8a6b0	0.08234918
59	0x3ad4057d	0.0016175952
60	0xbc8aaecd	-0.016929055
61	0x3c2f7ca0	0.010710865
62	0xbc99bb82	-0.018766169
63	0x3d94108c	0.072297186
