ntm_val_0.1477_epoch_86.pt (torch, 863077 bytes, 11 tensors)

read_vectors f4 [1, 32]
0	0x3ef7666f	0.48320338
1	0xbe8f352d	-0.27970257
2	0x3fbbf6f8	1.4684744
3	0xbef96b10	-0.48714495
4	0x3fe36c9b	1.7767519
5	0x3c93c371	0.01803753
6	0x3eb737f9	0.3578489
7	0x3f8d690a	1.104768
8	0xbf1cef9e	-0.61303127
9	0xbf17eb71	-0.5934363
10	0x3ff09b20	1.879734
11	0x3e9f5d50	0.3112588
12	0xbf174495	-0.5908902
13	0xbf70e251	-0.9409533
14	0xbf8934e1	-1.0719262
15	0x3f124679	0.5713878
16	0x3fb875ce	1.4410951
17	0x3f33efc6	0.7028774
18	0xbedc4a31	-0.43025354
19	0xbe3a3d49	-0.18187441
20	0x3fcc6f65	1.5971495
21	0x3eab5249	0.33461216
22	0x3f01b348	0.50664186
23	0xbf248a27	-0.64273304
24	0x3dc5b50c	0.096536726
25	0xbf533e7d	-0.82517225
26	0x3f627202	0.8845521
27	0xbfc4d8b8	-1.5378637
28	0xbd414f7b	-0.04719494
29	0x3e5d1611	0.21590449
30	0x3ea60334	0.3242432
31	0xbfb6e73d	-1.4289318

memory.memory f4 [64, 32]
0	0x3ef7666f	0.48320338
1	0xbe8f352d	-0.27970257
2	0x3fbbf6f8	1.4684744
3	0xbef96b10	-0.48714495
4	0x3fe36c9b	1.7767519
5	0x3c93c371	0.01803753
6	0x3eb737f9	0.3578489
7	0x3f8d690a	1.104768
8	0xbf1cef9e	-0.61303127
9	0xbf17eb71	-0.5934363
10	0x3ff09b20	1.879734
11	0x3e9f5d50	0.3112588
12	0xbf174495	-0.5908902
13	0xbf70e251	-0.9409533
14	0xbf8934e1	-1.0719262
15	0x3f124679	0.5713878
16	0x3fb875ce	1.4410951
17	0x3f33efc6	0.7028774
18	0xbedc4a31	-0.43025354
19	0xbe3a3d49	-0.18187441
20	0x3fcc6f65	1.5971495
21	0x3eab5249	0.33461216
22	0x3f01b348	0.50664186
23	0xbf248a27	-0.64273304
24	0x3dc5b50c	0.096536726
25	0xbf533e7d	-0.82517225
26	0x3f627202	0.8845521
27	0xbfc4d8b8	-1.5378637
28	0xbd414f7b	-0.04719494
29	0x3e5d1611	0.21590449
30	0x3ea60334	0.3242432
31	0xbfb6e73d	-1.4289318
32	0x3ef7666f	0.48320338
33	0xbe8f352d	-0.27970257
34	0x3fbbf6f8	1.4684744
35	0xbef96b10	-0.48714495
36	0x3fe36c9b	1.7767519
37	0x3c93c371	0.01803753
38	0x3eb737f9	0.3578489
39	0x3f8d690a	1.104768
40	0xbf1cef9e	-0.61303127
41	0xbf17eb71	-0.5934363
42	0x3ff09b20	1.879734
43	0x3e9f5d50	0.3112588
44	0xbf174495	-0.5908902
45	0xbf70e251	-0.9409533
46	0xbf8934e1	-1.0719262
47	0x3f124679	0.5713878
48	0x3fb875ce	1.4410951
49	0x3f33efc6	0.7028774
50	0xbedc4a31	-0.43025354
51	0xbe3a3d49	-0.18187441
52	0x3fcc6f65	1.5971495
53	0x3eab5249	0.33461216
54	0x3f01b348	0.50664186
55	0xbf248a27	-0.64273304
56	0x3dc5b50c	0.096536726
57	0xbf533e7d	-0.82517225
58	0x3f627202	0.8845521
59	0xbfc4d8b8	-1.5378637
60	0xbd414f7b	-0.04719494
61	0x3e5d1611	0.21590449
62	0x3ea60334	0.3242432
63	0xbfb6e73d	-1.4289318
64	0x3ef7666f	0.48320338
65	0xbe8f352d	-0.27970257
66	0x3fbbf6f8	1.4684744
67	0xbef96b10	-0.48714495
68	0x3fe36c9b	1.7767519
69	0x3c93c371	0.01803753
70	0x3eb737f9	0.3578489
71	0x3f8d690a	1.104768
72	0xbf1cef9e	-0.61303127
73	0xbf17eb71	-0.5934363
74	0x3ff09b20	1.879734
75	0x3e9f5d50	0.3112588
76	0xbf174495	-0.5908902
77	0xbf70e251	-0.9409533
78	0xbf8934e1	-1.0719262
79	0x3f124679	0.5713878
80	0x3fb875ce	1.4410951
81	0x3f33efc6	0.7028774
82	0xbedc4a31	-0.43025354
83	0xbe3a3d49	-0.18187441
84	0x3fcc6f65	1.5971495
85	0x3eab5249	0.33461216
86	0x3f01b348	0.50664186
87	0xbf248a27	-0.64273304
88	0x3dc5b50c	0.096536726
89	0xbf533e7d	-0.82517225
90	0x3f627202	0.8845521
91	0xbfc4d8b8	-1.5378637
92	0xbd414f7b	-0.04719494
93	0x3e5d1611	0.21590449
94	0x3ea60334	0.3242432
95	0xbfb6e73d	-1.4289318
96	0x3ef7666f	0.48320338
97	0xbe8f352d	-0.27970257
98	0x3fbbf6f8	1.4684744
99	0xbef96b10	-0.48714495
100	0x3fe36c9b	1.7767519
101	0x3c93c371	0.01803753
102	0x3eb737f9	0.3578489
103	0x3f8d690a	1.104768
104	0xbf1cef9e	-0.61303127
105	0xbf17eb71	-0.5934363
106	0x3ff09b20	1.879734
107	0x3e9f5d50	0.3112588
108	0xbf174495	-0.5908902
109	0xbf70e251	-0.9409533
110	0xbf8934e1	-1.0719262
111	0x3f124679	0.5713878
112	0x3fb875ce	1.4410951
113	0x3f33efc6	0.7028774
114	0xbedc4a31	-0.43025354
115	0xbe3a3d49	-0.18187441
116	0x3fcc6f65	1.5971495
117	0x3eab5249	0.33461216
118	0x3f01b348	0.50664186
119	0xbf248a27	-0.64273304
120	0x3dc5b50c	0.096536726
121	0xbf533e7d	-0.82517225
122	0x3f627202	0.8845521
123	0xbfc4d8b8	-1.5378637
124	0xbd414f7b	-0.04719494
125	0x3e5d1611	0.21590449
126	0x3ea60334	0.3242432
127	0xbfb6e73d	-1.4289318
128	0x3ef7666f	0.48320338
129	0xbe8f352d	-0.27970257
130	0x3fbbf6f8	1.4684744
131	0xbef96b10	-0.48714495
132	0x3fe36c9b	1.7767519
133	0x3c93c371	0.01803753
134	0x3eb737f9	0.3578489
135	0x3f8d690a	1.104768
136	0xbf1cef9e	-0.61303127
137	0xbf17eb71	-0.5934363
138	0x3ff09b20	1.879734
139	0x3e9f5d50	0.3112588
140	0xbf174495	-0.5908902
141	0xbf70e251	-0.9409533
142	0xbf8934e1	-1.0719262
143	0x3f124679	0.5713878
144	0x3fb875ce	1.4410951
145	0x3f33efc6	0.7028774
146	0xbedc4a31	-0.43025354
147	0xbe3a3d49	-0.18187441
148	0x3fcc6f65	1.5971495
149	0x3eab5249	0.33461216
150	0x3f01b348	0.50664186
151	0xbf248a27	-0.64273304
152	0x3dc5b50c	0.096536726
153	0xbf533e7d	-0.82517225
154	0x3f627202	0.8845521
155	0xbfc4d8b8	-1.5378637
156	0xbd414f7b	-0.04719494
157	0x3e5d1611	0.21590449
158	0x3ea60334	0.3242432
159	0xbfb6e73d	-1.4289318
160	0x3ef7666f	0.48320338
161	0xbe8f352d	-0.27970257
162	0x3fbbf6f8	1.4684744
163	0xbef96b10	-0.48714495
164	0x3fe36c9b	1.7767519
165	0x3c93c371	0.01803753
166	0x3eb737f9	0.3578489
167	0x3f8d690a	1.104768
168	0xbf1cef9e	-0.61303127
169	0xbf17eb71	-0.5934363
170	0x3ff09b20	1.879734
171	0x3e9f5d50	0.3112588
172	0xbf174495	-0.5908902
173	0xbf70e251	-0.9409533
174	0xbf8934e1	-1.0719262
175	0x3f124679	0.5713878
176	0x3fb875ce	1.4410951
177	0x3f33efc6	0.7028774
178	0xbedc4a31	-0.43025354
179	0xbe3a3d49	-0.18187441
180	0x3fcc6f65	1.5971495
181	0x3eab5249	0.33461216
182	0x3f01b348	0.50664186
183	0xbf248a27	-0.64273304
184	0x3dc5b50c	0.096536726
185	0xbf533e7d	-0.82517225
186	0x3f627202	0.8845521
187	0xbfc4d8b8	-1.5378637
188	0xbd414f7b	-0.04719494
189	0x3e5d1611	0.21590449
190	0x3ea60334	0.3242432
191	0xbfb6e73d	-1.4289318
192	0x3ef7666f	0.48320338
193	0xbe8f352d	-0.27970257
194	0x3fbbf6f8	1.4684744
195	0xbef96b10	-0.48714495
196	0x3fe36c9b	1.7767519
197	0x3c93c371	0.01803753
198	0x3eb737f9	0.3578489
199	0x3f8d690a	1.104768
200	0xbf1cef9e	-0.61303127
201	0xbf17eb71	-0.5934363
202	0x3ff09b20	1.879734
203	0x3e9f5d50	0.3112588
204	0xbf174495	-0.5908902
205	0xbf70e251	-0.9409533
206	0xbf8934e1	-1.0719262
207	0x3f124679	0.5713878
208	0x3fb875ce	1.4410951
209	0x3f33efc6	0.7028774
210	0xbedc4a31	-0.43025354
211	0xbe3a3d49	-0.18187441
212	0x3fcc6f65	1.5971495
213	0x3eab5249	0.33461216
214	0x3f01b348	0.50664186
215	0xbf248a27	-0.64273304
216	0x3dc5b50c	0.096536726
217	0xbf533e7d	-0.82517225
218	0x3f627202	0.8845521
219	0xbfc4d8b8	-1.5378637
220	0xbd414f7b	-0.04719494
221	0x3e5d1611	0.21590449
222	0x3ea60334	0.3242432
223	0xbfb6e73d	-1.4289318
224	0x3ef7666f	0.48320338
225	0xbe8f352d	-0.27970257
226	0x3fbbf6f8	1.4684744
227	0xbef96b10	-0.48714495
228	0x3fe36c9b	1.7767519
229	0x3c93c371	0.01803753
230	0x3eb737f9	0.3578489
231	0x3f8d690a	1.104768
232	0xbf1cef9e	-0.61303127
233	0xbf17eb71	-0.5934363
234	0x3ff09b20	1.879734
235	0x3e9f5d50	0.3112588
236	0xbf174495	-0.5908902
237	0xbf70e251	-0.9409533
238	0xbf8934e1	-1.0719262
239	0x3f124679	0.5713878
240	0x3fb875ce	1.4410951
241	0x3f33efc6	0.7028774
242	0xbedc4a31	-0.43025354
243	0xbe3a3d49	-0.18187441
244	0x3fcc6f65	1.5971495
245	0x3eab5249	0.33461216
246	0x3f01b348	0.50664186
247	0xbf248a27	-0.64273304
248	0x3dc5b50c	0.096536726
249	0xbf533e7d	-0.82517225
250	0x3f627202	0.8845521
251	0xbfc4d8b8	-1.5378637
252	0xbd414f7b	-0.04719494
253	0x3e5d1611	0.21590449
254	0x3ea60334	0.3242432
255	0xbfb6e73d	-1.4289318

controller.lstm.weight_ih f4 [400, 64]
0	0x3d0fc4b4	0.0350997
1	0xbbd44a73	-0.0064786016
2	0xbcc0d3fd	-0.023538584
3	0x3cbe9070	0.023262233
4	0x3c899b74	0.016797759
5	0xbc426015	-0.011863728
6	0xbc857e63	-0.016295617
7	0xbb08f77a	-0.002089946
8	0xbdb41da2	-0.087947145
9	0x3cf4fe9c	0.029906563
10	0x3cfafd7b	0.030638447
11	0x3d7e497b	0.062081795
12	0x3c0281e2	0.007965537
13	0x3b56ff51	0.003280599
14	0xbb318dde	-0.0027092616
15	0x3c0af582	0.008481385
16	0x3e1e7c49	0.15477099
17	0xbd545bd0	-0.05184537
18	0xbcb24be3	-0.021764701
19	0x3d867ade	0.06566404
20	0x3c3a9b7b	0.0113896085
21	0xbbb2aaa3	-0.0054524704
22	0xbccd118c	-0.025032781
23	0xbd4ea186	-0.05044701
24	0xbc779cb7	-0.015113047
25	0xbd27f90b	-0.04100899
26	0xbd969151	-0.07351936
27	0x3dd775cb	0.10520514
28	0xbb40c9fa	-0.0029417262
29	0xbc5ae7d1	-0.013360933
30	0x3a5cb3d9	0.00084191334
31	0x3d463efd	0.048399914
32	0x3bc3e8c3	0.005978675
33	0xbd982cdd	-0.07430432
34	0xbdb4478a	-0.088027075
35	0xbcd3a45d	-0.02583521
36	0xbe31e6bf	-0.17373179
37	0xbd572423	-0.052524697
38	0xbc5abd68	-0.013350822
39	0xbdabcdf3	-0.08388891
40	0x3e00a391	0.12562396
41	0x3ea87ea2	0.32909113
42	0xbe177179	-0.1478938
43	0x3e9d1ff6	0.30688447
44	0x3d2380ff	0.039917942
45	0xbcedc7d5	-0.029025951
46	0x3e452159	0.19251002
47	0x3ca2a31e	0.019853171
48	0xbdae56fd	-0.085126854
49	0xbc85e829	-0.016346054
50	0x3e66e2df	0.22547482
51	0x3d68b2ed	0.056811262
52	0xbe52ab3d	-0.20573135
53	0xbdd3c07e	-0.10339449
54	0x3d7ad833	0.06124134
55	0x3e0007b5	0.1250294
56	0x3ceef477	0.029169304
57	0xbbaf2027	-0.005344409
58	0x3daebaff	0.085317604
59	0x3e0dd847	0.13852035
60	0xbe24e2cd	-0.16102143
61	0xbd66d5c5	-0.05635621
62	0xbe74db1c	-0.23911709
63	0x3e1bf2c3	0.15229325
64	0x3c11c326	0.008896625
65	0xbde6cd4c	-0.11269626
66	0x3e12eb9c	0.1434769
67	0x3d7dd849	0.061973844
68	0x3e5db752	0.21651962
69	0xbdc048c0	-0.09388876
70	0xbe1733cd	-0.14765854
71	0x3da2f1c8	0.07956272
72	0xbdbc4f44	-0.09194806
73	0xbe198abf	-0.14994334
74	0x3d1ac9e8	0.03779021
75	0x3da136d9	0.078717895
76	0xbe0079d8	-0.1254648
77	0x3dcee081	0.101014145
78	0xbb7e1c9d	-0.003877438
79	0x3c02bc4c	0.007979464
80	0x3e097fce	0.1342766
81	0xbdf66499	-0.12030906
82	0x3db3fa92	0.08788027
83	0xbd3e9c7f	-0.046535965
84	0xbce32004	-0.027725227
85	0x3d8c411a	0.06848355
86	0xbd3b0e3b	-0.045667868
87	0xbe38e0f8	-0.18054569
88	0x3e39f6f6	0.18160614
89	0xbd06906a	-0.032852568
90	0xbda2e244	-0.07953313
91	0xbdaa1d51	-0.08306373
92	0xbe6032a4	-0.21894318
93	0xbdd12c97	-0.10213583
94	0x3c1bb658	0.009503923
95	0x3c8af13a	0.016960729
96	0xbc9e2900	-0.01930666
97	0xbb82d08e	-0.003992147
98	0x3d98ae43	0.07455113
99	0x3ccefdcf	0.02526751
100	0x3d2b06bf	0.04175448
101	0xbba549d2	-0.0050442005
102	0x3cf83921	0.030300679
103	0x3dcfa0aa	0.10138066
104	0xbd9a6086	-0.07537942
105	0xbd47042f	-0.048587974
106	0x3d2050e5	0.039139647
107	0xbcf8b5be	-0.030360099
108	0xbd7fff40	-0.062499285
109	0xbd994257	-0.074833564
110	0xbceeeaf1	-0.029164763
111	0xbd27b911	-0.040947977
112	0x3e12b0f0	0.14325309
113	0xbd3c1765	-0.04592075
114	0xbd3dc93d	-0.046334494
115	0x3c780da4	0.015139971
116	0x3c25c1a0	0.010116965
117	0xbd6a8a46	-0.057260774
118	0x3c5936e9	0.0132577205
119	0x3cd0caa8	0.025487259
120	0xbda3cfea	-0.07998641
121	0xbd156f2b	-0.03648297
122	0x3c6aec33	0.014338541
123	0xbd7c28e7	-0.061562445
124	0x3cf67456	0.03008477
125	0x3c94b7e4	0.018154092
126	0x3d8ed757	0.069746666
127	0xbd65593d	-0.055993307
128	0xbdf5e63e	-0.12006806
129	0xbdd5ccf2	-0.10439481
130	0x3db8e366	0.09027748
131	0x3db118ed	0.08647332
132	0x3e3f45dc	0.18678993
133	0xbd046ec0	-0.032332182
134	0xbd6d0570	-0.057866514
135	0x3d9ebcd9	0.077508636
136	0xbde2bb22	-0.11070849
137	0xbdc8a6dd	-0.09797452
138	0x3ca9efe4	0.020744272
139	0x3e1043c1	0.14088346
140	0xbd2d70eb	-0.042344015
141	0x3e0a8d9b	0.1353058
142	0xbd49a7fd	-0.04923247
143	0xbbc4916f	-0.0059987823
144	0xbdb89753	-0.09013238
145	0xbd978146	-0.07397704
146	0x3e18c948	0.14920533
147	0xbe6d99a6	-0.23203143
148	0xbdd24482	-0.10266973
149	0x3e0bf12c	0.13666219
150	0xbd747f46	-0.05969169
151	0xbe1bc56f	-0.15212034
152	0x3dff4a8a	0.12465389
153	0xbdcd59d9	-0.10026903
154	0xbdfb7e3b	-0.12279936
155	0xbdfdd5a9	-0.12394268
156	0xbe1cb4b1	-0.15303303
157	0xbe2055f8	-0.15657794
158	0x3d608dac	0.05482261
159	0xbd426495	-0.047459204
160	0x3d05fa4b	0.0327094
161	0x3d0f59ab	0.034997623
162	0xbde625e1	-0.112376936
163	0x3eb08c83	0.34482202
164	0xbc1002d0	-0.008789733
165	0xbeff90f3	-0.49915275
166	0xbe2fdbf6	-0.17173752
167	0xbe17f2af	-0.1483867
168	0x3eae1e65	0.34007564
169	0xbe0f14b4	-0.13972741
170	0x3db5cc4c	0.08876857
171	0x3f08d4c6	0.53449667
172	0x3e4244d8	0.18971574
173	0xbd821781	-0.06352139
174	0x3e657bd8	0.22410524
175	0x3d53c50f	0.0517016
176	0xbdb8ef84	-0.09030059
177	0xbe0b551e	-0.13606688
178	0xbe6f21c0	-0.23352718
179	0x3f1c9eec	0.61179996
180	0xbebe2b9d	-0.3714265
181	0xbdcfc63e	-0.101452336
182	0x3f1f6b30	0.6227293
183	0xbeff22e8	-0.4983132
184	0xbda56fc3	-0.080779575
185	0x3e363004	0.17791754
186	0xbe1a2db8	-0.15056503
187	0xbdb466e0	-0.08808684
188	0xbeb14b54	-0.34627783
189	0x3c9f3ad7	0.019437237
190	0xbe776338	-0.24158943
191	0xbd6ac60a	-0.05731777
192	0x3dd874ad	0.10569129
193	0xbd6a8ec9	-0.057265077
194	0x3e03b79c	0.1286301
195	0xbca74ebd	-0.020423288
196	0x3c05def4	0.008170832
197	0xbd500584	-0.05078651
198	0x3d68f01a	0.056869604
199	0x3d1b0b49	0.03785256
200	0x3d2348a9	0.039864216
201	0xbdf2b9bd	-0.11851833
202	0xbd9b2e9c	-0.075772494
203	0x3d5616ec	0.052267954
204	0x3d54c254	0.05194314
205	0x3cec768f	0.028865127
206	0xba206edf	-0.00061200367
207	0x3d6d8418	0.057987303
208	0xbdb18d52	-0.08669533
209	0xbcc79fbc	-0.02436816
210	0xbe1597bf	-0.14608668
211	0x3c4c98bc	0.012487587
212	0x3d3ae9fe	0.04563331
213	0xbdb6e5c0	-0.0893054
214	0xbd3310e6	-0.043717287
215	0xbdc8f39c	-0.0981209
216	0xbcc0b9b4	-0.02352605
217	0x3d60dbbc	0.054897055
218	0x3cb6dc36	0.022321802
219	0xbcde1012	-0.027107272
220	0xbc33050d	-0.010926497
221	0xbd0803f4	-0.033206895
222	0xbc6f573f	-0.014608203
223	0xbd07d661	-0.033163432
224	0x3e24c21c	0.16089672
225	0xbbe48c66	-0.0069747446
226	0x3de5eb0d	0.11226473
227	0xbd930608	-0.07178885
228	0x3e67b213	0.22626524
229	0xbe57d8c7	-0.21078788
230	0x3e88990b	0.26679263
231	0x3e3c6b5b	0.18400328
232	0xbdfd814a	-0.123781756
233	0xbdf7b01a	-0.120941356
234	0x3ea50e95	0.32237688
235	0x3d570593	0.05249555
236	0xbd87481e	-0.06605552
237	0xbddad347	-0.10684829
238	0xbe13de8e	-0.14440367
239	0x3e98a7c4	0.29815495
240	0x3ae3d3ab	0.0017381808
241	0x3e27d536	0.16389927
242	0x3cdb5465	0.02677364
243	0x3e22c0fe	0.15893933
244	0x3e4c2b9f	0.19938515
245	0x3d545844	0.05184199
246	0xbd4a7ef3	-0.049437474
247	0xbdf9957c	-0.12186715
248	0xbdad4996	-0.08461301
249	0xbd4c5813	-0.04988868
250	0xbefbf4f4	-0.49210322
251	0x3b773e08	0.0037726182
252	0x3c8908d4	0.016727842
253	0xbd2639c0	-0.04058242
254	0x3d216c91	0.039410178
255	0xbd9b2686	-0.07575707

controller.lstm.weight_hh f4 [400, 100]
0	0xbe0a8aee	-0.1352956
1	0xbe606d63	-0.21916728
2	0xbdc387cc	-0.095473856
3	0xbe7c527b	-0.24640839
4	0x3cbfbc28	0.02340515
5	0xbc370639	-0.011170917
6	0xbe3ea36d	-0.1861703
7	0x3e545b17	0.20737873
8	0x3d494742	0.049140222
9	0xbdb8a636	-0.09016077
10	0xbd5a81f7	-0.0533466
11	0xbc0cfc17	-0.008605025
12	0x3bd300b1	0.0064392914
13	0x3e28c2bf	0.1648054
14	0xbbeb5a0d	-0.0071823657
15	0x3d21fbb9	0.039546702
16	0x3bedb46d	0.0072541744
17	0xbd1eab43	-0.038737547
18	0x3d60414b	0.05474977
19	0x3cf12b31	0.02943954
20	0x3d42d27f	0.047564026
21	0xbd5cab3d	-0.053874243
22	0x3d4a3c45	0.049373884
23	0xbdbf2c19	-0.09334583
24	0xbdb10e03	-0.08645251
25	0x3d8c48d1	0.06849826
26	0x3caa0f72	0.020759318
27	0xbb36024c	-0.0027772365
28	0xbd4b2e54	-0.04960473
29	0x3d79e8e2	0.06101311
30	0xbd28c8d4	-0.04120715
31	0xbd7fdc4a	-0.062465943
32	0x3d93007c	0.07177827
33	0xbd97ac56	-0.07405917
34	0xbe3c3bf1	-0.18382241
35	0x3dc094f7	0.09403413
36	0x3d0e7f1c	0.03478919
37	0x3d381971	0.044946138
38	0x3cc84808	0.02444841
39	0xbe0ee658	-0.13955057
40	0x3cf19c45	0.02949346
41	0x3cf5c8eb	0.030003032
42	0xbe339681	-0.17537881
43	0xbe2ce555	-0.16884358
44	0x3d85901b	0.065216266
45	0x3c940ed8	0.018073484
46	0x3d560682	0.0522523
47	0x3dcec291	0.10095704
48	0xbcff44f0	-0.031160802
49	0xbe8473c0	-0.2586956
50	0xbcd52c1a	-0.026022006
51	0x3cd720ed	0.026260817
52	0x3ccbd46d	0.024881566
53	0x3e320a6c	0.17386788
54	0xbcdcb762	-0.026942912
55	0xbd9d8bba	-0.07692666
56	0xbd625ab5	-0.055262286
57	0xbcbbb149	-0.022911685
58	0xbd673dd0	-0.056455433
59	0x3da2a165	0.0794094
60	0x3e68dfe4	0.22741657
61	0xbb9dfe12	-0.0048215473
62	0x3de078db	0.10960551
63	0xbbaa6e5e	-0.005201145
64	0x3e44e85c	0.19229263
65	0x3bd4eec2	0.0064981887
66	0x3c5f52e5	0.013630603
67	0x3d43f379	0.047839615
68	0xbdab4fcd	-0.0836483
69	0xbc9d304d	-0.01918807
70	0x3dd2d1fd	0.10293958
71	0x3dcaa02a	0.0989383
72	0xbdf882cc	-0.121343225
73	0x3db54ab1	0.08852137
74	0xbd81dd27	-0.063410096
75	0x3d84a528	0.064768136
76	0xbd0baa6c	-0.034098074
77	0xbe388092	-0.18017796
78	0xbdb9009d	-0.0903332
79	0xbd9081d6	-0.07056014
80	0xbcdb9197	-0.026802821
81	0xbc359b8d	-0.0110844495
82	0x3d40656d	0.046971727
83	0x3d627750	0.055289567
84	0x3bfd46b9	0.007729378
85	0x3e8e8ab4	0.27840197
86	0x3d867474	0.065651804
87	0xbd22f500	-0.03978443
88	0x3da0d2f3	0.07852735
89	0xbdcc0e64	-0.09963682
90	0x3ccfed5c	0.025381736
91	0xbe135633	-0.14388351
92	0x3e8ed07e	0.27893442
93	0xbdbb7a25	-0.091541566
94	0x3db1210a	0.0864888
95	0xbcf64b5f	-0.030065237
96	0xbb54a951	-0.0032449553
97	0x3c6d4dfd	0.014483926
98	0xbe0e81aa	-0.1391665
99	0x3cd221ae	0.025650825
100	0xba0db86f	-0.0005406206
101	0x3d7fdcc8	0.062466413
102	0x3c8226c8	0.015887633
103	0x3ce9603d	0.028488273
104	0xbdad3a32	-0.084583655
105	0x3a7e97b4	0.00097119366
106	0x3e4e1dde	0.20128581
107	0xbc99ca8d	-0.018773342
108	0x3cf6003e	0.030029412
109	0xbd6400bb	-0.05566476
110	0x3deecd62	0.116602674
111	0xbd399975	-0.045312364
112	0x3cfd722a	0.030938227
113	0x3e202422	0.15638784
114	0xbd4945fc	-0.049139008
115	0x3d5bd1fd	0.053667057
116	0x3b5f153a	0.0034039752
117	0xbe01e298	-0.12684095
118	0xbc550396	-0.013001343
119	0xb926c798	-0.00015905348
120	0xbda50686	-0.08057885
121	0xbdfb6985	-0.12275986
122	0xbcd902bc	-0.026490562
123	0xbc1b9afc	-0.0094974
124	0x3d26ebef	0.040752348
125	0x3c327f69	0.010894635
126	0xbda13584	-0.078715354
127	0xbd33567d	-0.043783654
128	0xbd30fd6d	-0.043210436
129	0xbd536a5e	-0.05161511
130	0x3e1cecb6	0.15324673
131	0x3e35d554	0.1775716
132	0x3d196b6b	0.037455957
133	0xbd250d4c	-0.040295884
134	0x3c127b08	0.008940466
135	0xbdd987b1	-0.10621584
136	0x3c871176	0.016487818
137	0xbb5d24f8	-0.003374396
138	0xbca03671	-0.01955721
139	0x3be5d4d5	0.007013897
140	0xbd8d17ca	-0.06889303
141	0xbb9d445c	-0.004799409
142	0x3cfed5b6	0.031107765
143	0xbd3b7406	-0.045764945
144	0xbd187c1a	-0.037227727
145	0xbd1ac576	-0.03778597
146	0xbc3c3dc2	-0.011489334
147	0xbd95b3e1	-0.073097
148	0x3d87e4c8	0.066354334
149	0x3d56f73d	0.05248188
150	0xbd49c712	-0.049262114
151	0xbc1fb893	-0.009748596
152	0x3b8e0e1c	0.004335178
153	0xbb981b30	-0.004641913
154	0x3d1b0626	0.03784766
155	0x3dbd1e6e	0.092343196
156	0x3ddc2eac	0.107510895
157	0x3d576206	0.052583717
158	0xbbedc72a	-0.007256408
159	0x3c27b2f8	0.010235541
160	0x3df033de	0.11728643
161	0xbc736cc6	-0.014857477
162	0xbd142e4b	-0.03617696
163	0x3cd53b87	0.026029361
164	0xbcdd3e3c	-0.027007215
165	0x3d802040	0.06256151
166	0xbdbcedb1	-0.092250235
167	0xbce1b0cc	-0.027550124
168	0xbd8881c0	-0.06665373
169	0xbd7cef73	-0.061751794
170	0xbcdc57ca	-0.02689733
171	0xbd6382b3	-0.055544566
172	0xbc5e07a3	-0.013551625
173	0x3e19caf3	0.15018825
174	0x3cfacd60	0.030615509
175	0xbcf5b83c	-0.029995076
176	0x3c75f1d0	0.015011266
177	0x3b02197c	0.0019851616
178	0xbd0649dc	-0.03278528
179	0x3dd6572d	0.10465846
180	0x3d85ce43	0.06533482
181	0x3dd9306a	0.106049374
182	0x3d9245aa	0.071421936
183	0xbddc26f7	-0.107496195
184	0xbd1fe88a	-0.039040126
185	0xbd4d2a3a	-0.0500891
186	0x3d77f595	0.06053694
187	0x3d9ae46e	0.07563101
188	0xbdd85dfa	-0.105647996
189	0x3b99fcb5	0.0046993145
190	0x3d0b5473	0.034016084
191	0x3da64669	0.081188984
192	0x3cbb8b5f	0.022893606
193	0x3c97d26f	0.01853296
194	0xbd804e29	-0.06264908
195	0xbcf180f0	-0.029480428
196	0x3e212716	0.15737566
197	0xbb9033ef	-0.004400722
198	0xbd987472	-0.07444085
199	0xbcb4b357	-0.022058172
200	0xbe2c9af2	-0.16855982
201	0x3ec647a6	0.38726538
202	0x3e9f3010	0.31091356
203	0xbe88db47	-0.26729795
204	0x3d8de0ce	0.06927644
205	0x3e4a44fb	0.19752876
206	0x3e7626bf	0.24038218
207	0x3ebe8876	0.37213486
208	0xbeea050a	-0.4570697
209	0x3d41830c	0.047244117
210	0xbf69c8ad	-0.9132183
211	0xbb447f3b	-0.0029983062
212	0xc0195f90	-2.3964577
213	0xbdb4ebc7	-0.088340335
214	0xbe27789f	-0.16354607
215	0x3ccc0255	0.024903456
216	0xbd8f8b7c	-0.070090264
217	0x3e635d4c	0.22203559
218	0x3d64ec89	0.05588964
219	0x3d97bdba	0.07409234
220	0x3ed2043c	0.41018856
221	0x3e173b49	0.14768709
222	0xbce053b8	-0.02738367
223	0x3dee164a	0.11625345
224	0x3e8a3884	0.26996243
225	0x3dc7315b	0.09726211
226	0x3cea66a9	0.028613405
227	0x3ebefa34	0.37300265
228	0xbe8e9654	-0.27849066
229	0x3dbc1d71	0.09185303
230	0xbe5e9791	-0.21737505
231	0xbdd61389	-0.10452945
232	0xbe213832	-0.15744093
233	0x3ddd14c0	0.107949734
234	0xbe0f074c	-0.13967627
235	0xbc7402b5	-0.0148932235
236	0xbe9e5c8c	-0.30929983
237	0xbdf207e8	-0.11817914
238	0xbd3ea8ca	-0.04654769
239	0x3edc4222	0.43019205
240	0x3d84aaea	0.06477912
241	0xbd2143ae	-0.039371185
242	0xbdd72fbf	-0.10507154
243	0xbd2a39e4	-0.041559115
244	0x3d179191	0.037004057
245	0x3ee1b7ff	0.4408569
246	0xbeef3a03	-0.46723947
247	0xbde0ecca	-0.10982664
248	0xbc62b5d5	-0.013837297
249	0x3e60bcbf	0.21947001
250	0x3b853510	0.0040651634
251	0xbd8466b9	-0.06464905
252	0xbd9127be	-0.07087658
253	0xbeb940a8	-0.3618214
254	0xbbc98b93	-0.0061506717
255	0xbe486833	-0.19570999

controller.lstm.bias_ih f4 [400]
0	0x3d2e8695	0.042608816
1	0x3e22834d	0.158704
2	0x3dbbb41f	0.09165215
3	0x3d8276ba	0.063703015
4	0x3da3e32a	0.080023125
5	0x3c8da4d7	0.017290516
6	0x3e00a8d5	0.12564404
7	0x3e482373	0.19544773
8	0x3dc7e18e	0.09759818
9	0x3dc5bd9c	0.09655306
10	0x3e1f0fd4	0.15533382
11	0x3d3f0f0a	0.0466452
12	0xbd579ddb	-0.052640777
13	0x3e3a0f5f	0.18169926
14	0x3d4e52a3	0.050371777
15	0x3bb89590	0.0056330636
16	0x3991e987	0.00027830547
17	0x3d932baf	0.07186066
18	0x3d46503d	0.048416365
19	0x3d68976e	0.05678504
20	0x3dd5e1f0	0.10443485
21	0x3dea6ff7	0.11447137
22	0x3d319f37	0.04336473
23	0x3df09b8e	0.1174842
24	0x3e2d68b2	0.1693447
25	0x3dbff590	0.09373009
26	0x3e44b05c	0.19207901
27	0x3d118423	0.035526406
28	0x3d04c4dc	0.032414302
29	0x3c8b902f	0.017036526
30	0x3dba3246	0.0909162
31	0x3de2499d	0.11049197
32	0x3d84b690	0.064801335
33	0x3ddc191e	0.10746978
34	0x3d84d291	0.06485475
35	0xbd2d94c4	-0.042378202
36	0x3c6ce80e	0.014459623
37	0x3de5060e	0.111827955
38	0x3d17fc3d	0.037105788
39	0x3e28f292	0.16498783
40	0x3dbe1877	0.0928201
41	0x3e20228c	0.15638179
42	0x3e336ab3	0.17521171
43	0xbd0b1c6d	-0.033962656
44	0x3d797fcd	0.060912896
45	0xbb6148ac	-0.0034375591
46	0x3e0556be	0.13021371
47	0x3d35699a	0.044290163
48	0x3d0e541f	0.034748193
49	0x3e1abcce	0.15111086
50	0x3dea7b4b	0.114492975
51	0x3dd1ad01	0.10238076
52	0xbcafec15	-0.021474877
53	0xbd10a1d5	-0.035310585
54	0x3e0f7259	0.14008464
55	0x3def7864	0.116928846
56	0x3dc52e2e	0.09627949
57	0x3db0d632	0.086346045
58	0xbcdecf96	-0.027198594
59	0x3dd83260	0.10556483
60	0xbd6f798a	-0.058465518
61	0x3d301519	0.04298887
62	0x3d91c358	0.07117337
63	0x3e2f7211	0.17133357
64	0x3db8facc	0.09032211
65	0x3d903e80	0.07043171
66	0x3d062936	0.032754146
67	0x3d35af74	0.04435678
68	0x3dedd33a	0.11612554
69	0x3b58ed51	0.0033100436
70	0x3dc94eef	0.098295085
71	0x3c4019f5	0.011724939
72	0x3d5b091f	0.053475495
73	0x3da9e54c	0.08295688
74	0xbbc211c3	-0.0059225275
75	0x3dd98feb	0.10623153
76	0x3ca52ec3	0.0201639
77	0x3caf4f60	0.021400154
78	0x3dad27c0	0.08454847
79	0x3dd67eec	0.10473427
80	0x3e1a0a07	0.15042888
81	0x3dcb86a4	0.0993779
82	0x3da7fbf1	0.08202351
83	0x3d8be44f	0.06830656
84	0x3e0ba146	0.1363574
85	0x3d8b20a6	0.067933366
86	0xbd0f25c9	-0.034948144
87	0xbc479ef7	-0.012183896
88	0x3cf2fb17	0.029660745
89	0xbd1530e0	-0.036423564
90	0xbdcc4a0e	-0.09975062
91	0x3dbf4387	0.09339052
92	0x3dbfd11c	0.09366056
93	0x3dd0f4cb	0.102029406
94	0x3d8ea2d3	0.0696465
95	0x3d223e04	0.039609924
96	0x3de0e447	0.109810404
97	0x3ddac94b	0.10682925
98	0x3cd25409	0.025674837
99	0x3d29efa1	0.041488294
100	0xbcbfc0c8	-0.023407355
101	0x3d1af8eb	0.037835043
102	0x3de75fa9	0.112975426
103	0x3b89f596	0.0042101843
104	0x3cfcd0ad	0.030861223
105	0x3dd85368	0.105627835
106	0x3cfa5169	0.030556398
107	0x3e21addd	0.1578898
108	0x3ddea2ac	0.10870871
109	0x3d19ac6e	0.037517957
110	0x3d1b303c	0.037887797
111	0xbd87e993	-0.066363476
112	0xbc2e1578	-0.010625236
113	0xbc9696f8	-0.018382534
114	0xbc1345f1	-0.008988843
115	0x3d247c69	0.04015771
116	0x3da22311	0.07916845
117	0x3d2a1d76	0.041532002
118	0x3d8e7a4b	0.06956919
119	0x3d832c3e	0.06404923
120	0x3d6c981d	0.057762254
121	0x3d9ed8db	0.07756206
122	0x3d09b99d	0.03362428
123	0x3d95d090	0.07315171
124	0x3da8834b	0.08228167
125	0x3dfcd103	0.12344553
126	0x3e1673f0	0.14692664
127	0x3d9f44fe	0.07776831
128	0x3c74a2af	0.014931365
129	0x3d79fc17	0.061031427
130	0x3d355fee	0.04428094
131	0x3daccc8f	0.08437454
132	0x3d841f78	0.06451315
133	0x3e23b2f4	0.15986234
134	0x3d2a5b36	0.04159089
135	0x3db22328	0.08698112
136	0x3d12e82b	0.035865944
137	0x3d0af1a4	0.033921853
138	0x3d90ce27	0.070705704
139	0xbda8c526	-0.08240728
140	0x3d73acd0	0.05949098
141	0x3df050e0	0.11734176
142	0x3d53e4e5	0.051731963
143	0xbe021197	-0.12702022
144	0x3d8d3ab3	0.068959616
145	0xbd34e62a	-0.044164814
146	0x3ce6f2b8	0.02819191
147	0x3dad4f33	0.08462372
148	0xbceb50e1	-0.02872509
149	0x3dcf7754	0.10130182
150	0x3d834084	0.0640879
151	0x3d478181	0.04870749
152	0xbccb8e02	-0.024847988
153	0xbc375877	-0.011190525
154	0x3e1ee224	0.15515953
155	0x3d873570	0.06601989
156	0x3cc01fbb	0.02345263
157	0xbd05f6cc	-0.032706067
158	0xbc89f266	-0.016839217
159	0x3d538d02	0.051648147
160	0x3dc196c3	0.09452584
161	0x3d2825ca	0.041051663
162	0x3e072ad8	0.13199937
163	0x3d0c3ed5	0.03423961
164	0x3b1239e3	0.0022312335
165	0xbc97191a	-0.018444587
166	0x3cb58d28	0.022162035
167	0xbcd02d03	-0.025412088
168	0x3d7e5607	0.06209376
169	0x3db44314	0.08801857
170	0xbc4dc9ea	-0.012560347
171	0xbd395103	-0.045243274
172	0x3d94d7f6	0.07267754
173	0x3d8b1610	0.067913175
174	0x3d17ed8c	0.037091777
175	0x3d9a31ed	0.07529054
176	0x3d690fc4	0.0568998
177	0x3d11066d	0.03540652
178	0x3d58482b	0.0528032
179	0xbdc46155	-0.09588877
180	0xbcb4f3fe	-0.022089
181	0x3d7a5df0	0.061124742
182	0x3d6f4d36	0.058423243
183	0x3c945922	0.018108908
184	0x3d61b6fc	0.055106148
185	0x3db3c447	0.08777671
186	0xbc64ae27	-0.013957537
187	0xbdad8797	-0.08473127
188	0x3c7fa64a	0.015603611
189	0x3c296da0	0.010341078
190	0x3d269ee6	0.04067888
191	0x3dcb0df0	0.09914768
192	0x3c892214	0.016739883
193	0x3ce6a143	0.028153067
194	0x3d751f60	0.059844375
195	0xbc4bfeb5	-0.012450864
196	0x3dacd782	0.08439542
197	0x3d2a613f	0.041596647
198	0x3e2042e6	0.1565052
199	0x3d82e20b	0.063907705
200	0x3d954449	0.07288415
201	0xbb164d11	-0.0022934119
202	0x3c50c9c2	0.012743415
203	0xbc6ba6c2	-0.01438302
204	0xbdc958d3	-0.09831395
205	0x3c44aac5	0.012003605
206	0xba24fb12	-0.0006293516
207	0x3d2dcdf9	0.04243276
208	0xbcafd944	-0.021465905
209	0xbda9086f	-0.08253562
210	0xbb3c6aa3	-0.0028750084
211	0x3e00417f	0.12524985
212	0x3dbad31f	0.091222994
213	0xbcde1050	-0.027107388
214	0x3dbf5c91	0.093438275
215	0xbda8e6ba	-0.082471326
216	0xbc128137	-0.00894194
217	0xbda0ccb0	-0.07851541
218	0xbdb6376b	-0.08897289
219	0xbdb1c886	-0.08680825
220	0xbdecf77c	-0.115706414
221	0xbdfae586	-0.12250809
222	0x3dd0fe1e	0.10204719
223	0xbd84eb21	-0.0649016
224	0x3d7935ed	0.060842443
225	0x3dcfebf8	0.10152429
226	0xbdf22a27	-0.11824446
227	0x3d2ab8c2	0.041680105
228	0xbe0b725c	-0.13617843
229	0xbd8b64b2	-0.068063155
230	0x3de53e00	0.11193466
231	0x3df2d1b6	0.118564054
232	0x3dc951bf	0.09830045
233	0xbe2246e0	-0.15847349
234	0xbcc31152	-0.02381197
235	0xbc8497ac	-0.016185604
236	0x3dad7950	0.08470404
237	0xbd31abd2	-0.04337675
238	0xbc5491a7	-0.012974179
239	0xbda5be95	-0.08092991
240	0xbdd99b63	-0.10625341
241	0xbd243b7f	-0.040095802
242	0xbcf2e1f7	-0.029648764
243	0x3c5d1f9c	0.013496306
244	0x3c56b5c6	0.013104862
245	0x3b7612c2	0.0037547802
246	0x3df32107	0.11871534
247	0xbd6d2fbe	-0.05790686
248	0x3bf97330	0.0076126084
249	0xbd637cad	-0.055538822
250	0xbe020e12	-0.1270068
251	0x3d43c260	0.047792792
252	0x3a91d9ee	0.001112757
253	0xbe4629a6	-0.19351825
254	0x3db6f0a6	0.08932619
255	0x3d9d0994	0.076678425

controller.lstm.bias_hh f4 [400]
0	0x3d059750	0.032615006
1	0x3e05ca38	0.13065422
2	0x3e02efaa	0.12786737
3	0x3d73daae	0.05953472
4	0x3da230b9	0.07919449
5	0x3d31d11b	0.04341231
6	0x3de30f04	0.110868484
7	0x3e3c1d37	0.1837052
8	0x3d6e0bc7	0.0581167
9	0x3db9262a	0.09040482
10	0x3e16d8f6	0.14731202
11	0x3d02bdec	0.031919405
12	0x3bd818c5	0.0065947496
13	0x3e1c5848	0.15268052
14	0x3d153042	0.036422975
15	0x3c9f56e9	0.019450622
16	0x3c876d10	0.016531497
17	0x3dcbee88	0.099576056
18	0x3d2cf666	0.04222717
19	0x3d5edd4d	0.054410268
20	0x3dd8a7c7	0.10578876
21	0x3deab4a3	0.11460235
22	0x3d867104	0.06564525
23	0x3df1475e	0.1178119
24	0x3e217b83	0.15769772
25	0x3db11a36	0.086475775
26	0x3dab562a	0.08366044
27	0x3d085a07	0.03328898
28	0x3ce2e128	0.027695253
29	0x3cf9f8be	0.030514117
30	0x3dc07180	0.093966484
31	0x3ddfba71	0.10924233
32	0x3d89375d	0.06700013
33	0x3dbe2247	0.09283882
34	0x3d6c2c65	0.057659525
35	0xbd50e0d0	-0.050995648
36	0x3d4dc28a	0.050234355
37	0x3e26968e	0.1626837
38	0x3d0e7495	0.03477915
39	0x3de05c38	0.10955089
40	0x3dbd0510	0.09229481
41	0x3dcfe951	0.101519234
42	0x3e29b2f4	0.16572171
43	0xbd6b6977	-0.057473626
44	0x3d84f2c9	0.0649162
45	0xbd11a08c	-0.0355535
46	0x3dd81cc1	0.10552359
47	0x3d7b6f1a	0.06138525
48	0x3c83cddf	0.016089378
49	0x3e1fad12	0.15593365
50	0x3dbf4898	0.09340018
51	0x3dd039f8	0.10167307
52	0xbd81f360	-0.06345248
53	0x3cb42acf	0.021993069
54	0x3e0a5eb0	0.13512683
55	0x3de961b2	0.11395587
56	0x3da010ad	0.07815681
57	0x3cadbf37	0.021209342
58	0xbcfea12b	-0.03108271
59	0x3dcb82b3	0.09937038
60	0x3c435372	0.01192175
61	0x3ced2a62	0.028950874
62	0x3ca93fe5	0.02066035
63	0x3e1ed5b9	0.15511216
64	0x3de53ddb	0.111934386
65	0x3ca7285f	0.020404993
66	0x3ce49fd3	0.027908241
67	0x3caee802	0.021350864
68	0x3ddfb930	0.109239936
69	0xbd14c8c6	-0.036324285
70	0x3e0aa073	0.13537769
71	0x3cb55051	0.022133024
72	0x3dc17e0e	0.09447871
73	0x3daffcd8	0.08593148
74	0x3d34227a	0.043978192
75	0x3da6633c	0.08124396
76	0xbb74bca0	-0.0037343875
77	0x3d1fb175	0.038987596
78	0x3db07d75	0.08617679
79	0x3deb1cee	0.11480127
80	0x3de61db9	0.11236138
81	0x3dc32162	0.09527852
82	0x3d95cb74	0.07314196
83	0x3d8e48ae	0.06947456
84	0x3df90125	0.121584214
85	0x3d8b038e	0.067877874
86	0xbd6d5f6b	-0.057952326
87	0xb9b6a282	-0.00034834823
88	0x3cddaa35	0.0270587
89	0xbd6ba19d	-0.057527173
90	0xbdc3f2b9	-0.0956778
91	0x3de7632e	0.11298214
92	0x3d8c4e8b	0.068509184
93	0x3d6bbbb7	0.057552066
94	0x3d93b343	0.07211926
95	0x3d23438c	0.03985934
96	0x3de04494	0.1095058
97	0x3ddc0bbb	0.10744425
98	0x3d8254e0	0.06363845
99	0x3d47881d	0.048713792
100	0xbcbb3838	-0.022853956
101	0x3de76c21	0.11299921
102	0x3e052599	0.13002624
103	0x3a2b6ea0	0.0006539617
104	0xbc964293	-0.018342292
105	0x3d9f22f8	0.07770342
106	0x3c38b967	0.011274672
107	0x3e2b52d0	0.16730809
108	0x3dde56c8	0.10856396
109	0x3d19418b	0.037416022
110	0x3d2d9b4a	0.042384423
111	0xbd642008	-0.05569461
112	0x3dc1b4db	0.094583236
113	0xbd3d2b97	-0.04618415
114	0xbc56aa62	-0.013102146
115	0x3d391366	0.045184515
116	0x3d9ea35a	0.077460006
117	0x3ca4ee55	0.020133177
118	0x3d8f0532	0.06983413
119	0x3d83ddbf	0.06438779
120	0x3d6cb847	0.057792928
121	0x3d9ec4a6	0.077523515
122	0x3d000ac7	0.031260278
123	0x3d92e10e	0.07171832
124	0x3db38d92	0.08767237
125	0x3df33767	0.118758015
126	0x3e041f91	0.12902667
127	0x3d9f6b39	0.07784123
128	0xbbeb8bbe	-0.0071882894
129	0x3d567749	0.052359853
130	0x3d3cd2fe	0.046099655
131	0x3dacb014	0.08432022
132	0x3d8451c4	0.06460908
133	0x3e2ab1fb	0.16669457
134	0x3cbb2355	0.022843996
135	0x3dab9215	0.08377472
136	0x3d267bd0	0.04064542
137	0x3d3e8d6b	0.046521585
138	0x3d85faae	0.06541954
139	0xbd8a7360	-0.06760287
140	0x3d73aa2a	0.059488453
141	0x3daef344	0.08542493
142	0x3d9a3b5b	0.075308524
143	0xbd942ef1	-0.07235516
144	0x3d950a46	0.0727735
145	0x3cf411cc	0.029793642
146	0x3d4975cb	0.0491846
147	0x3d193b51	0.037410084
148	0xbd1a7e2f	-0.037717994
149	0x3e0c8042	0.13720801
150	0x3d830ad6	0.06398551
151	0x3d4efd7d	0.050534714
152	0xbce25eb3	-0.027633047
153	0x3d2006bf	0.039068934
154	0x3e011ec9	0.126094
155	0x3d5f3b52	0.05449993
156	0x3e025f68	0.12731707
157	0xbd10333a	-0.035205103
158	0xbc891153	-0.016731894
159	0x3be8cbf0	0.0071043894
160	0x3d0bacd6	0.034100376
161	0x3d50877c	0.050910458
162	0x3dd52966	0.10408287
163	0x3cf41be0	0.029798448
164	0x3c87ed1b	0.016592553
165	0xbd3464a3	-0.044041287
166	0x3d1e4b23	0.038645875
167	0x3a88ca94	0.001043635
168	0x3d7eff5a	0.06225524
169	0x3da7e6af	0.08198296
170	0x3bf12f82	0.0073603997
171	0xbd3ea80f	-0.046546992
172	0x3c62bbc0	0.013838708
173	0x3d8b21af	0.06793534
174	0x3cc4d51d	0.024027402
175	0x3d896724	0.06709126
176	0x3d8ae15e	0.06781267
177	0x3d7f8882	0.062386043
178	0x3d5555f5	0.05208393
179	0xbd3b11e7	-0.04567137
180	0x3dc021db	0.093814574
181	0x3d7a4ea6	0.06111016
182	0x3d6f498f	0.05841976
183	0x3dbd08a4	0.09230164
184	0x3d4a2d49	0.049359594
185	0x3d038042	0.032104738
186	0x3c3869b0	0.011255667
187	0xbd4e8c84	-0.050426975
188	0x3c6119cc	0.013739061
189	0x3dedf4c1	0.11618949
190	0x3dd3900a	0.10330208
191	0x3dcfc240	0.10144472
192	0x3d0e6152	0.03476078
193	0x3cebc103	0.028778559
194	0x3d73c144	0.059510484
195	0xb8f0fb38	-0.00011490885
196	0x3dacdd9b	0.084407054
197	0x3b178047	0.002311723
198	0x3e10fb2f	0.14158319
199	0x3d7ce53d	0.061742056
200	0x3d9c5630	0.076336265
201	0xbda83bb4	-0.082145125
202	0x3d5ff9e1	0.054681662
203	0x3b4da37d	0.0031377964
204	0xbdbe7f71	-0.09301651
205	0xbd15c769	-0.036567125
206	0xbb80d2b8	-0.0039313696
207	0x3e11319e	0.14179084
208	0xbcae1818	-0.021251723
209	0xbd8e665d	-0.06953118
210	0xb9fc5bfd	-0.00048133722
211	0x3dcea0e2	0.1008928
212	0x3babc5ca	0.005242084
213	0xbcc9cded	-0.024634326
214	0x3d8ed3f1	0.06974018
215	0xbd993827	-0.07481413
216	0x3c8fb2d0	0.01754132
217	0xbe0ab05b	-0.13543837
218	0xbdc12662	-0.09431149
219	0xbd965c74	-0.07341853
220	0xbdeac4f0	-0.11463344
221	0xbdf42f61	-0.11923099
222	0x3ce38922	0.027775351
223	0xbd86d31b	-0.06583234
224	0x3e102bb4	0.14079171
225	0x3c107a9e	0.008818297
226	0x3d526f6d	0.051375795
227	0xbd10c92a	-0.035348095
228	0xbdc2e29b	-0.09515878
229	0x3ca0e5b5	0.019640783
230	0x3de805be	0.1132922
231	0x3df2efcc	0.11862144
232	0x3dc80e2b	0.09768327
233	0xbd8f1920	-0.06987214
234	0x3cb7673a	0.02238809
235	0x3df5110e	0.119661435
236	0x3daa2b22	0.08309008
237	0xbda64932	-0.0811943
238	0x3d1ed75c	0.0387796
239	0xbe09ec43	-0.13469033
240	0xbde0729e	-0.109593615
241	0xbc573474	-0.013135064
242	0xbd91658f	-0.07099449
243	0xbdaf9dd6	-0.08575027
244	0xbc0b5e18	-0.00850632
245	0xbc1a4a8b	-0.0094171865
246	0x3e09d639	0.13460626
247	0x3cc6b515	0.024256269
248	0xbd054ce1	-0.03254402
249	0xbddf4659	-0.109020896
250	0xbde2b9f3	-0.11070623
251	0x3d6ab0d6	0.05729755
252	0x3b6df843	0.0036311306
253	0xbe32aa45	-0.17447765
254	0x3d85d39e	0.065345034
255	0x3d76ddb3	0.060270023

controller.fc_out.weight f4 [1000, 100]
0	0x3e222e1f	0.15837906
1	0xbec2ea4f	-0.38069388
2	0xbec84c06	-0.391205
3	0x3dfef6cf	0.12449419
4	0xbe435bed	-0.19078036
5	0x3dc07a89	0.09398372
6	0xbe71a53c	-0.23598188
7	0x3f0a7d59	0.54097515
8	0xbe4363b4	-0.19081002
9	0xbf027849	-0.5096479
10	0x3e54bb19	0.20774497
11	0x3f023051	0.50854975
12	0xbe0c029c	-0.1367287
13	0xbf32fa7f	-0.69913477
14	0x3e8b6b12	0.27230126
15	0xbe98a537	-0.2981355
16	0xbc242816	-0.010019323
17	0xbea253a8	-0.3170445
18	0xbe8d8f3c	-0.27648342
19	0xbe1a22e5	-0.15052374
20	0xbf119bc1	-0.56878287
21	0xbec3d062	-0.3824492
22	0x3dcfdd86	0.10149674
23	0xbeea5d49	-0.45774296
24	0x3f16ce90	0.5890894
25	0x3e4db813	0.2008975
26	0xbebdb3cf	-0.37051246
27	0x3ea54c7d	0.32284918
28	0xbeccbaa5	-0.39986148
29	0x3ddbf7f9	0.107406564
30	0x3efcbcf4	0.4936291
31	0x3efb1ea1	0.49046806
32	0x3eaca1e3	0.3371726
33	0xbf00ccfc	-0.5031278
34	0xbd56c308	-0.05243209
35	0x3ec1293f	0.3772678
36	0x3e9e557a	0.30924588
37	0xbf16232e	-0.5864743
38	0x3e502e4d	0.20330162
39	0xbf4a12e4	-0.78935075
40	0xbeec019d	-0.4609498
41	0xbef71e27	-0.48265192
42	0xbf0b8cbd	-0.54511625
43	0xbe5e46c8	-0.21706688
44	0x3df3baa7	0.119008355
45	0xbd9ecfc9	-0.077544756
46	0x3f228d7b	0.6349713
47	0xbebb83b5	-0.36623922
48	0x3dd627a2	0.10456778
49	0xbf2c9bcf	-0.67425245
50	0xbef58138	-0.4795015
51	0x3ea27af8	0.31734443
52	0xbc455830	-0.012044951
53	0xbf0eea2e	-0.5582608
54	0x3f02afc7	0.51049465
55	0x3f043af0	0.5165243
56	0xbeefa55e	-0.46805853
57	0x3e996439	0.29959276
58	0xbdc51b65	-0.09624366
59	0xbf34b7d8	-0.70593023
60	0x3c5339d6	0.012892207
61	0xbe86ea2a	-0.26350528
62	0x3df7764f	0.120831124
63	0xbf44de40	-0.76901627
64	0x3f3f0c51	0.7462817
65	0x3ee2a945	0.44269767
66	0x3e168f9a	0.14703217
67	0xbf2726b9	-0.6529346
68	0xbeaba70f	-0.33525893
69	0x3f07a9f4	0.529937
70	0xbefe8410	-0.4971013
71	0x3d5f51de	0.054521434
72	0xbecc597e	-0.39912027
73	0x3ea56265	0.32301632
74	0xbe84f83a	-0.25970632
75	0x3f6d4d89	0.92696434
76	0xbe7af05a	-0.2450575
77	0xbe2b689a	-0.16739121
78	0xbec9d0b8	-0.39417052
79	0x3efc8b1e	0.49324888
80	0xbf0b9e87	-0.5453877
81	0x3ed8f3d9	0.4237354
82	0x3ef1800a	0.47168
83	0xbe8f02a0	-0.2793169
84	0xbf210a6d	-0.62906533
85	0x3e6dc89a	0.23221055
86	0xbe150ae8	-0.14554942
87	0xbda382e4	-0.0798395
88	0xbeb2dc63	-0.34933767
89	0x3e1d67b0	0.15371585
90	0xbd43594d	-0.047692586
91	0xbe1a3485	-0.15059097
92	0x3ed89724	0.4230281
93	0xbe9ce5d3	-0.30644092
94	0xbe922531	-0.28544
95	0xbea5f8e5	-0.32416454
96	0x3ee5951e	0.4484033
97	0x3e9d4358	0.30715442
98	0xbeb6b388	-0.35683846
99	0xbe44e552	-0.19228104
100	0x3dab62a6	0.08368425
101	0xbf84815c	-1.0351977
102	0x3d4fb582	0.05071021
103	0xbd3d5cdf	-0.046231147
104	0xbe9916e2	-0.2990027
105	0x3f8c0466	1.0938842
106	0xbf5275a6	-0.8221077
107	0xbedd5712	-0.43230492
108	0xbdc8610e	-0.09784137
109	0x3dbbc6a8	0.0916875
110	0x3c2ce550	0.010552719
111	0x3da2a452	0.07941498
112	0x3f65ddee	0.8979176
113	0xbf8da940	-1.1067276
114	0x3d6fa5db	0.05850778
115	0x3dc376f0	0.0954417
116	0xbdb1b2a0	-0.08676648
117	0xbe9b58b8	-0.30341125
118	0xbe89b7ee	-0.2689814
119	0xbe20d767	-0.1570717
120	0xbe88cd1f	-0.26718995
121	0x3eda3a05	0.4262239
122	0x3ef21b56	0.4728648
123	0xbd762cf4	-0.060101464
124	0xbf79f5b6	-0.9764055
125	0x3d69e8a4	0.05710663
126	0xbeca8481	-0.39554217
127	0xbdef43ca	-0.116828516
128	0xbdda4dcc	-0.1065937
129	0xbf98d401	-1.1939698
130	0xbf7edd1d	-0.9955614
131	0xbeb4eb61	-0.3533583
132	0x3e1f44dc	0.15553612
133	0xbe268dc3	-0.16265015
134	0x3dea1265	0.1142929
135	0xbcb6e2db	-0.02232497
136	0xbe668c76	-0.22514519
137	0x3e92f5c1	0.2870312
138	0xbebfa9fb	-0.37434372
139	0x3f1224c8	0.57087374
140	0x3edc3125	0.43006244
141	0x3e6596cd	0.22420807
142	0xbe2285bd	-0.1587133
143	0xbc4d663d	-0.012536583
144	0x3f89cc6e	1.0765512
145	0xbd6002de	-0.054690234
146	0xbdcc4b1b	-0.09975263
147	0x3e98d735	0.2985169
148	0x3e1aa040	0.15100193
149	0x3f42a867	0.7603821
150	0xbdf6820a	-0.12036522
151	0xbc6593ba	-0.014012272
152	0x3d3ed052	0.04658539
153	0xbf076387	-0.5288624
154	0x3ed189a9	0.4092534
155	0xbf8be5b5	-1.0929476
156	0xbf9cbd8b	-1.2245344
157	0xbe260d1e	-0.16215941
158	0xbd358bab	-0.04432265
159	0x3ea0c11a	0.31397325
160	0x3e8e2ee3	0.27770147
161	0x3f03e2f5	0.51518184
162	0xbf04613a	-0.51710856
163	0xbf02dc03	-0.5111696
164	0xbf030c98	-0.5119109
165	0xbeda8207	-0.42677328
166	0x3f88fc1e	1.070194
167	0xbf892aec	-1.0716224
168	0x3f16465f	0.5870113
169	0xbf78a864	-0.97131944
170	0x3f846b07	1.0345162
171	0x3ca0de38	0.019637212
172	0xbf233c94	-0.6376431
173	0xbf80af6d	-1.0053536
174	0x3dc9a11d	0.09845183
175	0xbf0404c1	-0.51569754
176	0x3e89709c	0.26843727
177	0x3ead6491	0.3386579
178	0xbd954a33	-0.07289543
179	0xbf8320f7	-1.0244435
180	0x3de8b173	0.11361971
181	0x3d422357	0.047396984
182	0xbea06c6e	-0.31332725
183	0xbe828b7b	-0.2549704
184	0x3e9bdff7	0.3044431
185	0xbdfed11c	-0.12442228
186	0x3e2c15da	0.1680521
187	0x3e3474e2	0.17622712
188	0x3d8c458e	0.06849204
189	0x3ec587ec	0.38580263
190	0xbeb743d5	-0.3579394
191	0xbf85aa5c	-1.0442615
192	0x3eddfb05	0.43355575
193	0x3dca2244	0.09869817
194	0xbe0c3e06	-0.13695535
195	0xc0378699	-2.8675902
196	0xbf4e3f5b	-0.8056542
197	0xbf8a9cc7	-1.0829095
198	0x40277702	2.6166387
199	0xbd546c4d	-0.051861096
200	0x3dc851bf	0.09781217
201	0x3f02da94	0.51114774
202	0xc011f837	-2.2807748
203	0xbe91d8b8	-0.28485656
204	0xbee54dda	-0.4478596
205	0xbd462859	-0.048378322
206	0x3e9fd272	0.31215245
207	0x3f118444	0.56842446
208	0x3f93fc8d	1.1561447
209	0xbe52b4cd	-0.20576783
210	0x3f8cc4d0	1.0997562
211	0xbeb72bb1	-0.3577552
212	0x3fc7e0c0	1.5615463
213	0x3f3a3400	0.72735596
214	0x3e35cc51	0.17753722
215	0xbe6c69df	-0.23087262
216	0xbe89b880	-0.26898575
217	0xbf3198dc	-0.6937387
218	0xbf0f5a03	-0.5599672
219	0xbdf935b5	-0.12168447
220	0x3de53d5a	0.111933425
221	0xbf23e48d	-0.64020616
222	0xbd5cb415	-0.053882677
223	0x3e5690c7	0.20953666
224	0xbf059c23	-0.5219137
225	0xbf685d19	-0.90767056
226	0xbe217a5e	-0.15769336
227	0xbf5cda14	-0.8627026
228	0xbdf83e3f	-0.121212475
229	0xbea75aa9	-0.32686356
230	0x3efdc636	0.49565285
231	0x3f7815fc	0.96908545
232	0x3ed500a2	0.41602045
233	0xbf0828a9	-0.5318704
234	0x3e524ce0	0.20537138
235	0x3ea61a10	0.3244176
236	0x3f113e2c	0.5673549
237	0xc01154dc	-2.2708044
238	0xbea144f9	-0.31497934
239	0x3d73c237	0.05951139
240	0xbe74b4bd	-0.23897071
241	0xbf45641e	-0.7710589
242	0x3e9856ab	0.29753622
243	0x3d46489c	0.04840909
244	0xbf7f6d83	-0.99776477
245	0xbf4da147	-0.80324215
246	0xbe36992f	-0.17831872
247	0x3f6de776	0.92931306
248	0x3e8411dc	0.25794876
249	0xbffd5c6f	-1.9793833
250	0xbe44e96a	-0.19229665
251	0x3dde44e8	0.108529866
252	0x3e7c0dbe	0.24614617
253	0x3f64a452	0.8931323
254	0xbe5018f9	-0.20322026
255	0x3fc48d9b	1.5355715

controller.fc_out.bias f4 [1000]
0	0x3f90180c	1.1257339
1	0x3ca5efb6	0.020255905
2	0x3e62976b	0.22128074
3	0x3e473d9d	0.19457097
4	0x3e547a12	0.20749691
5	0xbb8d3b67	-0.00431006
6	0xbd8c2554	-0.06843057
7	0x3ee628b2	0.44952923
8	0x3eb467be	0.352354
9	0x3e56492e	0.20926353
10	0x3e526c94	0.20549232
11	0xbda60422	-0.08106257
12	0xbbe328e7	-0.006932366
13	0xbc236e20	-0.009974986
14	0xbc88885c	-0.016666584
15	0x3d46f5f7	0.048574414
16	0xbe2c6b12	-0.16837719
17	0xbb9724c6	-0.004612538
18	0x3e0a8947	0.1352893
19	0x3c445654	0.011983473
20	0xbdaf735f	-0.08566927
21	0xbda279f8	-0.0793342
22	0x3ca2c267	0.019868089
23	0x3d9e26d3	0.07722249
24	0xbc75b670	-0.01499711
25	0xbd6d3e05	-0.057920475
26	0x3bb1fa1f	0.005431428
27	0x3d3301a8	0.04370275
28	0x3de7ee41	0.1132474
29	0x3e19302e	0.14959785
30	0x3e7af4de	0.24507472
31	0x3dfc4d6b	0.12319454
32	0x3d326663	0.043554675
33	0x3cf04d30	0.02933368
34	0xbb8d66ae	-0.004315219
35	0xbb8d1391	-0.004305311
36	0xbb8d5859	-0.0043135104
37	0xbb8c48d6	-0.0042811437
38	0xbb8d22b7	-0.004307117
39	0xbb8d40f8	-0.0043107234
40	0xbb8d6e5c	-0.0043161344
41	0xbb8cf573	-0.0043017208
42	0xbb8d4236	-0.0043108715
43	0xbb8d1904	-0.0043059606
44	0xbb8d3779	-0.0043095914
45	0xbb8d3e72	-0.0043104226
46	0xbb8c63e3	-0.0042843684
47	0xbb8d6cd3	-0.0043159514
48	0xbb8c937b	-0.004290042
49	0xbb8c4678	-0.0042808615
50	0xbb8d674d	-0.004315293
51	0xbb8ca66e	-0.004292301
52	0xbb8d7314	-0.004316697
53	0xbb8d04a0	-0.00430353
54	0xbb8d17e8	-0.0043058284
55	0xbb8d6a0a	-0.0043156194
56	0xbb8d50b2	-0.004312598
57	0xbb8d2340	-0.0043071806
58	0xbb8c359e	-0.0042788526
59	0xbb8d62bd	-0.004314749
60	0xbb8c45ac	-0.0042807665
61	0xbb8d7242	-0.004316599
62	0xbb8d736d	-0.0043167383
63	0xbb8d1753	-0.004305759
64	0xbb8d4ef9	-0.004312393
65	0xbb8d54ad	-0.0043130727
66	0xbb8d6db0	-0.0043160543
67	0xbb8bd191	-0.0042669256
68	0xbb8d48df	-0.0043116654
69	0xbb8cdf1c	-0.0042990576
70	0xbb8c8693	-0.0042885034
71	0xbb8cc060	-0.004295394
72	0xbb8d6af1	-0.004315727
73	0xbb8cc92c	-0.0042964425
74	0xbb8d096c	-0.0043041017
75	0xbb8d6bda	-0.0043158354
76	0xbb8d5825	-0.004313486
77	0xbb8d2c3f	-0.004308253
78	0xbb8c4280	-0.0042803884
79	0xbb8d2824	-0.0043077637
80	0xbb8cf5bd	-0.004301755
81	0xbb8d6f83	-0.0043162717
82	0xbb8c32c8	-0.0042785145
83	0xbb8cc67c	-0.004296122
84	0xbb8d7348	-0.004316721
85	0xbb8d34fd	-0.004309295
86	0xbb8c6e39	-0.0042856005
87	0xbb8d3dec	-0.00431036
88	0xbb8d5b98	-0.0043138973
89	0xbb8d6db1	-0.0043160548
90	0xbb8d6a4d	-0.0043156506
91	0xbb8d6214	-0.0043146703
92	0xbb8cf27a	-0.0043013664
93	0xbb8d60b1	-0.004314505
94	0xbb8d3661	-0.004309461
95	0xbb8d40cb	-0.0043107024
96	0xbb8d6766	-0.0043153046
97	0xbb8d340e	-0.004309184
98	0xbb8cea2c	-0.0043003764
99	0xbb8d4a87	-0.004311863
100	0xbb8d69f8	-0.004315611
101	0xbb8d72bb	-0.0043166555
102	0xbb8c4cdd	-0.0042816238
103	0xbb8c6bac	-0.0042852964
104	0xbb8d7217	-0.004316579
105	0xbb8d6ae2	-0.00431572
106	0xbb8d737b	-0.004316745
107	0xbb8d4c25	-0.0043120557
108	0xbb8cade2	-0.0042931894
109	0xbb8cb432	-0.004293942
110	0xbb8cb148	-0.0042935945
111	0xbb8d71cb	-0.0043165437
112	0xbb8c7e23	-0.0042874976
113	0xbb8b957b	-0.004259763
114	0xbb8cbf77	-0.0042952853
115	0xbb8d72b6	-0.004316653
116	0xbb8d6e7c	-0.0043161493
117	0xbb8d6c3f	-0.0043158825
118	0xbb8d4d3d	-0.004312186
119	0xbb8d05d7	-0.0043036747
120	0xbb8d5fad	-0.004314384
121	0xbb8d474f	-0.004311479
122	0xbb8d3708	-0.0043095388
123	0xbb8d4c0c	-0.004312044
124	0xbb8d4968	-0.004311729
125	0xbb8d620d	-0.004314667
126	0xbb8d70b0	-0.004316412
127	0xbb8cad9d	-0.0042931573
128	0xbb8d6092	-0.0043144906
129	0xbb8d3843	-0.0043096854
130	0xbb8ce058	-0.004299205
131	0xbb8d26e3	-0.004307614
132	0xbb8d5c1b	-0.0043139583
133	0xbb8d7341	-0.004316718
134	0xbb8d71c2	-0.0043165395
135	0xbb8d361e	-0.00430943
136	0xbb8d6e4f	-0.0043161283
137	0xbb8d666e	-0.004315189
138	0xbb8cedba	-0.0043008
139	0xbb8cd94f	-0.004298366
140	0xbb8cb60f	-0.004294164
141	0xbb8d6fa9	-0.0043162894
142	0xbb8cf7d3	-0.004302004
143	0xbb8d5cdc	-0.004314048
144	0xbb8cf274	-0.0043013636
145	0xbb8ce877	-0.004300173
146	0xbb8c9dbd	-0.004291265
147	0xbb8d71ec	-0.004316559
148	0xbb8d044b	-0.0043034903
149	0xbb8ccb5b	-0.004296703
150	0xbb8d5efa	-0.0043143006
151	0xbb8d6ab7	-0.0043157
152	0xbb8d6298	-0.004314732
153	0xbb8c9190	-0.0042898133
154	0xbb8c2f53	-0.0042781024
155	0xbb8c9e4b	-0.004291331
156	0xbb8d5b0d	-0.0043138326
157	0xbb8c6f53	-0.004285732
158	0xbb8b5782	-0.004252375
159	0xbb8d7001	-0.0043163304
160	0xbb8d5b56	-0.0043138666
161	0xbb8d0025	-0.0043029957
162	0xbb8c9756	-0.0042905016
163	0xbb8d6841	-0.0043154065
164	0xbb8d351f	-0.004309311
165	0xbb8c5fd4	-0.0042838845
166	0xbb8d68ea	-0.0043154852
167	0xbb8d674d	-0.004315293
168	0xbb8d57a6	-0.004313427
169	0xbb8c3e6e	-0.004279903
170	0xbb8d6c97	-0.0043159234
171	0xbb8be4ef	-0.0042692344
172	0xbb8d705d	-0.0043163733
173	0xbb8d6ee4	-0.0043161977
174	0xbb8d55fc	-0.0043132287
175	0xbb8d6fb4	-0.0043162946
176	0xbb8d745a	-0.0043168487
177	0xbb8d173c	-0.0043057483
178	0xbb8d5f8b	-0.004314368
179	0xbb8d6caa	-0.0043159323
180	0xbb8d6463	-0.0043149455
181	0xbb8d1683	-0.004305662
182	0xbb8d596c	-0.0043136384
183	0xbb8d157b	-0.004305539
184	0xbb8d12a5	-0.004305201
185	0xbb8d16d2	-0.004305699
186	0xbb8cd435	-0.004297758
187	0xbb8d528f	-0.0043128203
188	0xbb8d58e7	-0.0043135765
189	0xbb8d6f9f	-0.004316285
190	0xbb8ba557	-0.0042616534
191	0xbb8d3d86	-0.0043103127
192	0xbb8c8a09	-0.004288916
193	0xbb8d6a0a	-0.0043156194
194	0xbb8d6ea4	-0.004316168
195	0xbb8cbbc3	-0.004294844
196	0xbb8c2a29	-0.004277487
197	0xbb8d60d6	-0.0043145223
198	0xbb8d5ca5	-0.0043140226
199	0xbb8d71aa	-0.0043165283
200	0xbb8d2856	-0.004307787
201	0xbb8d634e	-0.0043148166
202	0xbb8d5611	-0.0043132384
203	0xbb8d7133	-0.004316473
204	0xbb8cf934	-0.0043021683
205	0xbb8d4f9e	-0.0043124696
206	0xbb8cc443	-0.004295857
207	0xbb8d4b37	-0.004311945
208	0xbb8d55e7	-0.004313219
209	0xbb8cf3b2	-0.0043015117
210	0xbb8d18a5	-0.0043059164
211	0xbb8d0c15	-0.004304419
212	0xbb8bcf87	-0.0042666825
213	0xbb8d59e8	-0.004313696
214	0xbb8d7060	-0.0043163747
215	0xbb8c2ea9	-0.0042780233
216	0xbb8d4035	-0.0043106326
217	0xbb8d4b3a	-0.004311946
218	0xbb8d197f	-0.004306018
219	0xbb8d64f3	-0.0043150126
220	0xbb8d70c9	-0.0043164236
221	0xbb8d36bf	-0.0043095048
222	0xbb8d5126	-0.004312652
223	0xbb8d053e	-0.0043036034
224	0xbb8d7119	-0.004316461
225	0xbb8d70ba	-0.0043164166
226	0xbb8c54c4	-0.004282566
227	0xbb8cc5a2	-0.0042960206
228	0xbb8cf9cd	-0.0043022395
229	0xbb8d4c86	-0.004312101
230	0xbb8cb5bc	-0.0042941254
231	0xbb8cfd2a	-0.0043026404
232	0xbb8d1080	-0.0043049455
233	0xbb8d6da7	-0.00431605
234	0xbb8d6dab	-0.004316052
235	0xbb8d58f6	-0.0043135835
236	0xbb8c671a	-0.0042847516
237	0xbb8c4850	-0.0042810813
238	0xbb8d1238	-0.0043051504
239	0xbb8d4914	-0.00431169
240	0xbb8d411a	-0.004310739
241	0xbb8d6f69	-0.0043162596
242	0xbb8cfe37	-0.0043027657
243	0xbb8d57e2	-0.004313455
244	0xbb8cd313	-0.004297623
245	0xbb8cff4f	-0.004302896
246	0xbb8d744c	-0.004316842
247	0xbb8d22f4	-0.0043071453
248	0xbb8d5b6f	-0.0043138782
249	0xbb8caa18	-0.0042927377
250	0xbb8d0814	-0.0043039415
251	0xbb8cdcf2	-0.0042987997
252	0xbb8c82dd	-0.004288061
253	0xbb8ca587	-0.0042921933
254	0xbb8cffa5	-0.004302936
255	0xbb8d1092	-0.004304954
