ntm_val_0.1600_epoch_82.pt (torch, 863077 bytes, 11 tensors)

read_vectors f4 [1, 32]
000000 52 80 f6 3e 16 48 8d be 13 dc bb 3f 8d 2a c4 be
       0.48144776 -0.2759406 1.4676536 -0.38313714
000010 f2 c1 e0 3f 36 0a 81 3b 7d 22 de 3e c0 80 8f 3f
       1.7559187 0.003937985 0.43385687 1.1211166
000020 25 06 2c bf 2e be 2a bf 68 af f0 3f 45 b2 91 3e
       -0.67196876 -0.6669644 1.880353 0.2845632
000030 ea d5 14 bf e5 b2 6d bf f5 4a 89 bf 43 8c 1d 3f
       -0.58138907 -0.92851096 -1.0726 0.6154215
000040 6a bc b6 3f 20 44 46 3f 8d c9 df be 1e 4d 45 be
       1.427625 0.774477 -0.4370846 -0.19267699
000050 bd 7d c7 3f 1e 9b d0 3e 7a 24 ed 3e b7 93 2e bf
       1.5585247 0.40743345 0.46316892 -0.68194145
000060 aa ea 8e 3c d8 86 4f bf 9d f1 65 3f 87 32 bd bf
       0.01744588 -0.8106513 0.898218 -1.4781045
000070 a7 fc 9f bd 49 bd 24 3e 3d a4 70 3e ab 8b b8 bf
       -0.078118615 0.16087832 0.23500152 -1.4417623

memory.memory f4 [64, 32]
000000 52 80 f6 3e 16 48 8d be 13 dc bb 3f 8d 2a c4 be
       0.48144776 -0.2759406 1.4676536 -0.38313714
000010 f2 c1 e0 3f 36 0a 81 3b 7d 22 de 3e c0 80 8f 3f
       1.7559187 0.003937985 0.43385687 1.1211166
000020 25 06 2c bf 2e be 2a bf 68 af f0 3f 45 b2 91 3e
       -0.67196876 -0.6669644 1.880353 0.2845632
000030 ea d5 14 bf e5 b2 6d bf f5 4a 89 bf 43 8c 1d 3f
       -0.58138907 -0.92851096 -1.0726 0.6154215
000040 6a bc b6 3f 20 44 46 3f 8d c9 df be 1e 4d 45 be
       1.427625 0.774477 -0.4370846 -0.19267699
000050 bd 7d c7 3f 1e 9b d0 3e 7a 24 ed 3e b7 93 2e bf
       1.5585247 0.40743345 0.46316892 -0.68194145
000060 aa ea 8e 3c d8 86 4f bf 9d f1 65 3f 87 32 bd bf
       0.01744588 -0.8106513 0.898218 -1.4781045
000070 a7 fc 9f bd 49 bd 24 3e 3d a4 70 3e ab 8b b8 bf
       -0.078118615 0.16087832 0.23500152 -1.4417623
000080 52 80 f6 3e 16 48 8d be 13 dc bb 3f 8d 2a c4 be
       0.48144776 -0.2759406 1.4676536 -0.38313714
000090 f2 c1 e0 3f 36 0a 81 3b 7d 22 de 3e c0 80 8f 3f
       1.7559187 0.003937985 0.43385687 1.1211166
0000a0 25 06 2c bf 2e be 2a bf 68 af f0 3f 45 b2 91 3e
       -0.67196876 -0.6669644 1.880353 0.2845632
0000b0 ea d5 14 bf e5 b2 6d bf f5 4a 89 bf 43 8c 1d 3f
       -0.58138907 -0.92851096 -1.0726 0.6154215
0000c0 6a bc b6 3f 20 44 46 3f 8d c9 df be 1e 4d 45 be
       1.427625 0.774477 -0.4370846 -0.19267699
0000d0 bd 7d c7 3f 1e 9b d0 3e 7a 24 ed 3e b7 93 2e bf
       1.5585247 0.40743345 0.46316892 -0.68194145
0000e0 aa ea 8e 3c d8 86 4f bf 9d f1 65 3f 87 32 bd bf
       0.01744588 -0.8106513 0.898218 -1.4781045
0000f0 a7 fc 9f bd 49 bd 24 3e 3d a4 70 3e ab 8b b8 bf
       -0.078118615 0.16087832 0.23500152 -1.4417623
000100 52 80 f6 3e 16 48 8d be 13 dc bb 3f 8d 2a c4 be
       0.48144776 -0.2759406 1.4676536 -0.38313714
000110 f2 c1 e0 3f 36 0a 81 3b 7d 22 de 3e c0 80 8f 3f
       1.7559187 0.003937985 0.43385687 1.1211166
000120 25 06 2c bf 2e be 2a bf 68 af f0 3f 45 b2 91 3e
       -0.67196876 -0.6669644 1.880353 0.2845632
000130 ea d5 14 bf e5 b2 6d bf f5 4a 89 bf 43 8c 1d 3f
       -0.58138907 -0.92851096 -1.0726 0.6154215
000140 6a bc b6 3f 20 44 46 3f 8d c9 df be 1e 4d 45 be
       1.427625 0.774477 -0.4370846 -0.19267699
000150 bd 7d c7 3f 1e 9b d0 3e 7a 24 ed 3e b7 93 2e bf
       1.5585247 0.40743345 0.46316892 -0.68194145
000160 aa ea 8e 3c d8 86 4f bf 9d f1 65 3f 87 32 bd bf
       0.01744588 -0.8106513 0.898218 -1.4781045
000170 a7 fc 9f bd 49 bd 24 3e 3d a4 70 3e ab 8b b8 bf
       -0.078118615 0.16087832 0.23500152 -1.4417623
000180 52 80 f6 3e 16 48 8d be 13 dc bb 3f 8d 2a c4 be
       0.48144776 -0.2759406 1.4676536 -0.38313714
000190 f2 c1 e0 3f 36 0a 81 3b 7d 22 de 3e c0 80 8f 3f
       1.7559187 0.003937985 0.43385687 1.1211166
0001a0 25 06 2c bf 2e be 2a bf 68 af f0 3f 45 b2 91 3e
       -0.67196876 -0.6669644 1.880353 0.2845632
0001b0 ea d5 14 bf e5 b2 6d bf f5 4a 89 bf 43 8c 1d 3f
       -0.58138907 -0.92851096 -1.0726 0.6154215
0001c0 6a bc b6 3f 20 44 46 3f 8d c9 df be 1e 4d 45 be
       1.427625 0.774477 -0.4370846 -0.19267699
0001d0 bd 7d c7 3f 1e 9b d0 3e 7a 24 ed 3e b7 93 2e bf
       1.5585247 0.40743345 0.46316892 -0.68194145
0001e0 aa ea 8e 3c d8 86 4f bf 9d f1 65 3f 87 32 bd bf
       0.01744588 -0.8106513 0.898218 -1.4781045
0001f0 a7 fc 9f bd 49 bd 24 3e 3d a4 70 3e ab 8b b8 bf
       -0.078118615 0.16087832 0.23500152 -1.4417623
000200 52 80 f6 3e 16 48 8d be 13 dc bb 3f 8d 2a c4 be
       0.48144776 -0.2759406 1.4676536 -0.38313714
000210 f2 c1 e0 3f 36 0a 81 3b 7d 22 de 3e c0 80 8f 3f
       1.7559187 0.003937985 0.43385687 1.1211166
000220 25 06 2c bf 2e be 2a bf 68 af f0 3f 45 b2 91 3e
       -0.67196876 -0.6669644 1.880353 0.2845632
000230 ea d5 14 bf e5 b2 6d bf f5 4a 89 bf 43 8c 1d 3f
       -0.58138907 -0.92851096 -1.0726 0.6154215
000240 6a bc b6 3f 20 44 46 3f 8d c9 df be 1e 4d 45 be
       1.427625 0.774477 -0.4370846 -0.19267699
000250 bd 7d c7 3f 1e 9b d0 3e 7a 24 ed 3e b7 93 2e bf
       1.5585247 0.40743345 0.46316892 -0.68194145
000260 aa ea 8e 3c d8 86 4f bf 9d f1 65 3f 87 32 bd bf
       0.01744588 -0.8106513 0.898218 -1.4781045
000270 a7 fc 9f bd 49 bd 24 3e 3d a4 70 3e ab 8b b8 bf
       -0.078118615 0.16087832 0.23500152 -1.4417623
000280 52 80 f6 3e 16 48 8d be 13 dc bb 3f 8d 2a c4 be
       0.48144776 -0.2759406 1.4676536 -0.38313714
000290 f2 c1 e0 3f 36 0a 81 3b 7d 22 de 3e c0 80 8f 3f
       1.7559187 0.003937985 0.43385687 1.1211166
0002a0 25 06 2c bf 2e be 2a bf 68 af f0 3f 45 b2 91 3e
       -0.67196876 -0.6669644 1.880353 0.2845632
0002b0 ea d5 14 bf e5 b2 6d bf f5 4a 89 bf 43 8c 1d 3f
       -0.58138907 -0.92851096 -1.0726 0.6154215
0002c0 6a bc b6 3f 20 44 46 3f 8d c9 df be 1e 4d 45 be
       1.427625 0.774477 -0.4370846 -0.19267699
0002d0 bd 7d c7 3f 1e 9b d0 3e 7a 24 ed 3e b7 93 2e bf
       1.5585247 0.40743345 0.46316892 -0.68194145
0002e0 aa ea 8e 3c d8 86 4f bf 9d f1 65 3f 87 32 bd bf
       0.01744588 -0.8106513 0.898218 -1.4781045
0002f0 a7 fc 9f bd 49 bd 24 3e 3d a4 70 3e ab 8b b8 bf
       -0.078118615 0.16087832 0.23500152 -1.4417623
000300 52 80 f6 3e 16 48 8d be 13 dc bb 3f 8d 2a c4 be
       0.48144776 -0.2759406 1.4676536 -0.38313714
000310 f2 c1 e0 3f 36 0a 81 3b 7d 22 de 3e c0 80 8f 3f
       1.7559187 0.003937985 0.43385687 1.1211166
000320 25 06 2c bf 2e be 2a bf 68 af f0 3f 45 b2 91 3e
       -0.67196876 -0.6669644 1.880353 0.2845632
000330 ea d5 14 bf e5 b2 6d bf f5 4a 89 bf 43 8c 1d 3f
       -0.58138907 -0.92851096 -1.0726 0.6154215
000340 6a bc b6 3f 20 44 46 3f 8d c9 df be 1e 4d 45 be
       1.427625 0.774477 -0.4370846 -0.19267699
000350 bd 7d c7 3f 1e 9b d0 3e 7a 24 ed 3e b7 93 2e bf
       1.5585247 0.40743345 0.46316892 -0.68194145
000360 aa ea 8e 3c d8 86 4f bf 9d f1 65 3f 87 32 bd bf
       0.01744588 -0.8106513 0.898218 -1.4781045
000370 a7 fc 9f bd 49 bd 24 3e 3d a4 70 3e ab 8b b8 bf
       -0.078118615 0.16087832 0.23500152 -1.4417623
000380 52 80 f6 3e 16 48 8d be 13 dc bb 3f 8d 2a c4 be
       0.48144776 -0.2759406 1.4676536 -0.38313714
000390 f2 c1 e0 3f 36 0a 81 3b 7d 22 de 3e c0 80 8f 3f
       1.7559187 0.003937985 0.43385687 1.1211166
0003a0 25 06 2c bf 2e be 2a bf 68 af f0 3f 45 b2 91 3e
       -0.67196876 -0.6669644 1.880353 0.2845632
0003b0 ea d5 14 bf e5 b2 6d bf f5 4a 89 bf 43 8c 1d 3f
       -0.58138907 -0.92851096 -1.0726 0.6154215
0003c0 6a bc b6 3f 20 44 46 3f 8d c9 df be 1e 4d 45 be
       1.427625 0.774477 -0.4370846 -0.19267699
0003d0 bd 7d c7 3f 1e 9b d0 3e 7a 24 ed 3e b7 93 2e bf
       1.5585247 0.40743345 0.46316892 -0.68194145
0003e0 aa ea 8e 3c d8 86 4f bf 9d f1 65 3f 87 32 bd bf
       0.01744588 -0.8106513 0.898218 -1.4781045
0003f0 a7 fc 9f bd 49 bd 24 3e 3d a4 70 3e ab 8b b8 bf
       -0.078118615 0.16087832 0.23500152 -1.4417623

controller.lstm.weight_ih f4 [400, 64]
000000 d8 44 74 3d c9 98 15 bc 4e f8 af bc 6a df 94 3c
       0.059635967 -0.009130665 -0.021480706 0.018172938
000010 ab 03 9d 3c 7c 1e 78 bc 8f 14 a2 bc 44 cd b1 3b
       0.019166788 -0.015143987 -0.019785194 0.005426081
000020 d9 bc be bd d4 10 da 3c e7 bd 11 3d 0f b2 85 3d
       -0.093133636 0.026619352 0.035581496 0.065281026
000030 61 ee ac 3b 77 5c c2 3b 2d 81 d3 3c d3 35 ca 3c
       0.0052774404 0.005931433 0.025818432 0.024683869
000040 2c 28 25 3e 32 7f 68 bd 6b b4 bc bc dd b9 a0 3d
       0.16128606 -0.056761928 -0.023035249 0.078479506
000050 44 eb 0b 3d 0d fa 0c bc ce 31 ef bc 33 32 5b bd
       0.034159914 -0.008604539 -0.029198553 -0.05351467
000060 f9 b8 53 bc 74 0b 33 bd 53 23 9e bd 71 65 d8 3d
       -0.012922519 -0.043712094 -0.07721581 0.105662234
000070 70 4f b5 bb 28 10 8f bc 6f a1 63 bc f8 f4 77 3d
       -0.0055331513 -0.017463759 -0.013893469 0.060536355
000080 92 f3 05 bc 22 1c 82 bd 11 b5 b2 bd 88 37 19 bd
       -0.0081757475 -0.06353022 -0.08725942 -0.037406474
000090 05 54 1e be b7 2f 62 bd 07 95 6e 3a 38 44 99 bd
       -0.15461738 -0.055221286 0.00091011863 -0.07483715
0000a0 a6 c6 bc 3d d9 05 a1 3e e8 01 12 be cc d1 90 3e
       0.09217577 0.31449774 -0.1425854 0.28285062
0000b0 75 5c 06 3d ca 8a ec bc 8d db 28 3e c1 a0 9e 3b
       0.032803018 -0.028874774 0.16490002 0.0048409407
0000c0 83 d7 ad bd f9 08 f9 bc 9c 7a 4c 3e e7 06 8d 3d
       -0.08488371 -0.030399786 0.19968647 0.06886082
0000d0 1b 53 41 be df e4 11 be df 36 8a 3d 00 10 00 3e
       -0.18879358 -0.14247464 0.06748747 0.12506104
0000e0 77 a3 14 3d f0 74 c0 bb ec a1 a1 3d 3c 28 0d 3e
       0.036288705 -0.005873315 0.07892212 0.1378488
0000f0 bb 83 18 be 4a 47 03 bd 2d 82 55 be d7 98 13 3e
       -0.14894001 -0.03205041 -0.2085044 0.14413773
000100 6d 72 a7 3c f2 0b c6 bd 84 e9 00 3e 6c d2 8c 3d
       0.020440305 -0.09670247 0.12589079 0.06876072
000110 64 e2 47 3e 25 f1 b9 bd 18 04 17 be f9 44 aa 3d
       0.19519955 -0.09079198 -0.14747655 0.08313937
000120 12 00 dd bd 0d 0b 0d be a4 17 78 3d 93 7e bc 3d
       -0.10791029 -0.13773747 0.06056942 0.092038296
000130 16 c2 de bd 87 e5 be 3d db 7b 68 3b 3b 03 8d 3c
       -0.10876863 0.093211226 0.0035474214 0.017213454
000140 65 08 22 3e 98 72 0b be 64 15 99 3d f8 20 03 bd
       0.15823515 -0.13617933 0.07474783 -0.032013863
000150 d4 69 cb bc 3f c3 81 3d 86 97 63 bd be 02 2b be
       -0.024830736 0.06336068 -0.055564426 -0.16700265
000160 55 93 26 3e 8b f8 4c bd f3 f3 c1 bd b8 a5 78 bd
       0.1626714 -0.050041717 -0.09470358 -0.060704917
000170 d6 aa 4c be 7f 51 cf bd 11 93 54 3b fc 53 1a 3d
       -0.19987044 -0.10122966 0.0032436291 0.03767775
000180 6c b2 b9 bc 72 47 e1 bb 32 33 bc 3d 97 75 8d 3c
       -0.022668086 -0.006874972 0.09189452 0.017267985
000190 0a 71 28 3d e4 25 85 bb a1 ea 17 3d 57 f2 d9 3d
       0.041123427 -0.004063355 0.037088994 0.10641926
0001a0 ec 1e a1 bd 55 c0 46 bd 04 64 06 3d b0 1c d8 bc
       -0.07867226 -0.048523266 0.032810226 -0.026380867
0001b0 98 a4 98 bd e7 b8 93 bd 0a 23 0f bd 2a 80 e5 bc
       -0.07453269 -0.07213002 -0.034945525 -0.028015215
0001c0 bc 6f 14 3e 01 18 29 bd 14 49 3c bd 27 af 50 3c
       0.14495748 -0.041282658 -0.04596813 0.012737072
0001d0 76 24 1b 3b 20 0d 6b bd 23 29 c6 3c cf 1d f3 3c
       0.0023672855 -0.057385564 0.024189537 0.0296773
0001e0 3b 03 a7 bd 34 67 2e bd 71 bf 50 3c 41 a2 72 bd
       -0.08154913 -0.04257889 0.012740956 -0.05923677
0001f0 29 9f a8 3c dd ee 25 bb b7 4e 80 3d 65 d8 59 bd
       0.020583706 -0.0025319376 0.06265014 -0.053184886
000200 53 65 c2 bd f6 25 dd bd 39 57 c0 3d ed 79 b3 3d
       -0.09491982 -0.10798256 0.093916364 0.0876349
000210 45 bf 42 3e 86 d4 12 bd 60 00 7c bd 48 e2 a9 3d
       0.19018276 -0.03584721 -0.061523795 0.08295113
000220 0a 79 eb bd 04 a9 d0 bd ae c0 c5 3c 86 0e 14 3e
       -0.11497696 -0.10188487 0.024139728 0.14458665
000230 ad e8 3a bd 75 6a 0e 3e 78 c2 38 bd 3b 94 17 bb
       -0.045632053 0.13907798 -0.045107335 -0.0023129124
000240 50 10 b1 bd de 05 a0 bd c3 5c 1b 3e 3e ce 68 be
       -0.086456895 -0.07813619 0.15172105 -0.22734925
000250 84 b1 b2 bd ba a7 0e 3e a0 22 82 bd 36 5a 1f be
       -0.08725265 0.1393117 -0.063542604 -0.15561756
000260 82 3b 03 3e 52 ba d4 bd 07 a5 01 be 80 3b 01 be
       0.12815669 -0.103871 -0.12660609 -0.12620354
000270 08 49 20 be c9 88 24 be 1a 63 6e 3d 94 be 29 bd
       -0.15652859 -0.16067804 0.05819998 -0.041441515
000280 60 78 1c 3d 76 ed 6c bc 77 01 d4 bd 66 ff a3 3e
       0.038200736 -0.014460912 -0.10351842 0.3203079
000290 1d 12 0f 3c ab 2e fb be 37 83 31 be f1 0f 10 be
       0.008732346 -0.49059042 -0.1733521 -0.14068581
0002a0 fc 23 b0 3e 45 e2 18 be 41 50 c4 3d 96 e1 01 3f
       0.34402454 -0.14930065 0.0958562 0.5073484
0002b0 23 cd 39 3e 35 db 83 bd 0b ce 5e 3e ed e6 85 3d
       0.1814466 -0.06438295 0.21758287 0.06538186
0002c0 87 c0 aa bd dd 93 f3 bd fb b2 75 be c6 55 1d 3f
       -0.08337503 -0.11893437 -0.23994057 0.61459005
0002d0 3f f1 b6 be 90 dd d4 bd 5d dd 15 3f fd ed ff be
       -0.3573093 -0.10393822 0.585409 -0.49986258
0002e0 a5 3a 68 bd 1f 66 34 3e b8 09 16 be ab e2 bd bd
       -0.056696553 0.17617081 -0.14652145 -0.09271749
0002f0 1f 04 ac be a0 bf b3 bc 25 d9 71 be bf 2a 7d bd
       -0.33596894 -0.02194196 -0.2361799 -0.061808344
000300 d0 59 cd 3d 85 ea 19 bd 48 d2 fa 3d 1f be 8c bc
       0.10026896 -0.03757717 0.12247139 -0.0171805
000310 6c f9 33 bc 5b 7f 00 bd d0 d6 99 3d f9 13 fd 3c
       -0.01098476 -0.031371456 0.07511675 0.030893313
000320 e8 2f 3b 3d 67 85 e3 bd de d1 99 bd 45 b5 47 3d
       0.045699984 -0.11109429 -0.07510732 0.048756856
000330 7c c9 7f 3d 32 23 af 3b e0 55 cc bb 9a 2a 57 3d
       0.06244801 0.005344772 -0.006235823 0.052530862
000340 07 c1 ab bd f3 8d 45 bc e9 ac 1d be d5 fd 1f 3c
       -0.083864264 -0.012057769 -0.15397991 0.009765108
000350 60 1f 28 3d 09 6a b4 bd f4 a3 a6 bc d8 f3 9a bd
       0.041045547 -0.08809287 -0.02034185 -0.07566041
000360 96 98 11 bd 7e 35 5f 3d bb b5 da 3c 97 2b b3 bc
       -0.035545908 0.054494374 0.026697984 -0.021871371
000370 fc 07 d9 3b 4f a1 a7 bc 6f 58 3b bc 38 71 00 bd
       0.0066232663 -0.02046266 -0.011434658 -0.031357974
000380 bb 82 2d 3e 7e da aa 3b e1 11 e2 3d b3 27 a4 bd
       0.16944401 0.0052140346 0.110385664 -0.080153845
000390 cd ca 65 3e 91 21 60 be 77 70 85 3e 6a a9 35 3e
       0.22440644 -0.21887805 0.26062366 0.17740408
0003a0 3a 3a e1 bd 11 2f f3 bd 16 e3 a0 3e 3e 77 4e 3d
       -0.10997434 -0.118742116 0.31423253 0.050406687
0003b0 f6 6f 5d bd 64 0b d1 bd 39 23 17 be ab 59 a3 3e
       -0.054061852 -0.10207251 -0.1475953 0.3190435
0003c0 96 9f 1e bc b8 0d 36 3e a9 40 d0 3c 02 e2 2c 3e
       -0.009681603 0.17778671 0.025421457 0.1688309
0003d0 84 da 47 3e ed a3 5d 3d 1c 10 78 bd 22 01 f4 bd
       0.19516951 0.05411141 -0.060562238 -0.119142786
0003e0 bc d0 aa bd 88 c3 39 bd 1c ad 00 bf ff 45 dc 3b
       -0.08340594 -0.04535249 -0.50264144 0.0067222114
0003f0 57 7b 3b 3c 4b 5b 24 bd d8 f8 06 3d 7d 9a 8b bd
       0.011442981 -0.040126126 0.03295216 -0.06816576

controller.lstm.weight_hh f4 [400, 100]
000000 69 59 f1 bd 61 1f 50 be 5f ca b2 bd 97 3f 77 be
       -0.11784632 -0.2032447 -0.087300055 -0.24145351
000010 9f 9e c2 3c 05 21 a5 bc d4 40 3f be ea 7f 43 3e
       0.023757277 -0.020157347 -0.18677074 0.19091764
000020 b5 b1 57 3d d2 b0 9a bd 4e 83 21 bd 07 e6 05 bc
       0.05265971 -0.07553257 -0.039431863 -0.008172519
000030 a4 82 c9 3b c3 8c 48 3e 08 aa ef bb 8b 96 2a 3d
       0.006149607 0.19584946 -0.0073139705 0.041647475
000040 c4 a4 1f 3c 94 17 21 bd 1a 7b 82 3d 47 37 03 3d
       0.009743873 -0.039329126 0.06371136 0.03203514
000050 97 89 f8 3b 35 04 54 bd ba a5 6b 3d ba c2 c9 bd
       0.0075847614 -0.051761825 0.057531096 -0.09851594
000060 d2 a7 b9 bd 1c 57 e1 3b 26 cb 91 3c ba d4 19 3c
       -0.09065212 0.0068768393 0.017797064 0.009389097
000070 cd 71 37 bd 66 d6 89 3d e6 a5 30 bd cc 1a 81 bd
       -0.044786263 0.067303464 -0.043126963 -0.06303939
000080 61 be 8d 3d da 15 81 bd 90 79 38 be e6 13 d3 3d
       0.069210775 -0.06302996 -0.18015122 0.1030653
000090 c8 60 23 3d 90 0d 44 3d 7d ef df 3c fa 69 05 be
       0.03988722 0.047864497 0.027335877 -0.13028708
0000a0 26 cf b0 3c 37 08 30 3c 23 a4 26 be cb 88 2a be
       0.021583151 0.010744146 -0.1627355 -0.16653745
0000b0 0f 61 98 3d 66 5b 55 3c 35 f3 60 3d 70 87 d8 3d
       0.074403875 0.013022279 0.05491944 0.10572708
0000c0 7d f3 05 bd c7 f9 74 be b9 7a ef bc 29 9e 11 3d
       -0.03270291 -0.23923407 -0.029233323 0.035551224
0000d0 b1 23 81 3c 80 31 25 3e 30 7a 07 bc 0c 61 a6 bd
       0.01576409 0.16132164 -0.008268878 -0.08123979
0000e0 9c 63 97 bd 77 aa fb bc ec 10 76 bd dd bf 88 3d
       -0.07392046 -0.030720932 -0.06007473 0.0667722
0000f0 62 31 50 3e 0b 96 e2 bb 1f 24 d9 3d 41 ed 94 bc
       0.20331338 -0.006914859 0.10602593 -0.018179538
000100 8e eb 2a 3e 6e 09 3e 3c 9f 6a b3 3c 26 36 c3 ba
       0.1669142 0.011598928 0.021901427 -0.0014893457
000110 e5 89 99 bd 0c f4 91 bc 43 77 e2 3d b5 82 f7 3d
       -0.074970044 -0.017816566 0.110579036 0.12085477
000120 a7 b9 fc bd 5a 7d be 3d fc 6a 49 bd 66 fa 40 3d
       -0.12340098 0.09301253 -0.049174294 0.0471138
000130 cd 56 1a bd c4 e2 2a be ed f4 bd bd cc 7c 58 bd
       -0.037680436 -0.16688067 -0.092752315 -0.05285339
000140 15 47 10 bd 7e 30 a2 bb 1b 55 2d 3d 13 ab 53 3d
       -0.03522404 -0.0049496284 0.04231749 0.05167682
000150 75 8c 5c 3c 57 5a 90 3e 72 e1 85 3d 4a f9 2c bd
       0.013461222 0.28193924 0.06537141 -0.042229928
000160 07 88 9c 3d cb ff c3 bd 54 76 9c 3c 35 d8 17 be
       0.07643133 -0.09570273 0.019099392 -0.1482857
000170 ef 63 83 3e 02 59 b0 bd 34 91 ba 3d da 3a ce bc
       0.2566218 -0.08610727 0.091097265 -0.025174547
000180 3c 17 83 ba f2 76 82 3c 10 46 e1 bd d0 fc 00 3d
       -0.0010001431 0.015925858 -0.109996915 0.0314911
000190 96 54 ad bc ea ab 7e 3d aa 23 f5 3c 0a e6 c6 3c
       -0.021158498 0.06217567 0.029924233 0.024279613
0001a0 a2 2c 90 bd 2b c9 f7 bc 5a 1f 27 3e 59 ca 12 bc
       -0.07039763 -0.030247292 0.16320553 -0.008959376
0001b0 6a c8 23 3d 81 de 72 bd 1d 9c c1 3d 7d 0e 4c bd
       0.03998605 -0.059294228 0.09453604 -0.049818505
0001c0 bf dc c4 3c 71 e7 f9 3d f5 57 05 bd d4 52 01 3d
       0.024031041 0.12202347 -0.032554585 0.03157313
0001d0 12 b2 a8 3b 16 19 f3 bd 33 c8 a4 bc 2f 70 18 3b
       0.0051481808 -0.11870019 -0.020114994 0.0023260226
0001e0 dc 00 ad bd f2 1a cf bd 31 98 ab bc 3d 2b 09 bc
       -0.084474295 -0.10112561 -0.020946594 -0.008372125
0001f0 b3 a2 ad 3c a7 f0 85 bc de c5 97 bd bf 29 48 bd
       0.021195745 -0.016350104 -0.07410787 -0.048867937
000200 39 8b 43 bd 16 cb 18 bd 63 45 ea 3d 55 17 0c 3e
       -0.047740195 -0.037303053 0.11439016 0.13680775
000210 9e a5 23 3d 0b 5f 1b bc 10 0b b4 3b 29 1a 0a be
       0.039952867 -0.009483109 0.005494483 -0.13486542
000220 c9 67 de 3c d3 82 9e 3c 49 30 c7 bc 64 8c d0 bb
       0.027149098 0.019349491 -0.024315016 -0.006364392
000230 c4 de 9d bd 49 28 83 bb 52 e9 44 3d 93 40 00 bd
       -0.07708505 -0.004002605 0.048074074 -0.031311583
000240 e0 8a aa bc 57 b5 e0 bc 0d 7d 8e bc db 40 3a bd
       -0.020818174 -0.02743022 -0.017393613 -0.045472007
000250 ea f9 29 3d 2b 86 37 3d 82 ba 73 bd cc 93 a7 bc
       0.041498102 0.044805687 -0.05950404 -0.020456217
000260 e4 3b 09 3c a2 bb 8c bc a0 b0 3e 3d 2a e2 83 3d
       0.008376095 -0.017179314 0.04655516 0.06439622
000270 a8 4a cb 3d dc 69 09 3d db 71 07 bc b2 7b a4 3c
       0.09926349 0.03354822 -0.008266891 0.020078514
000280 1d fc db 3d 64 07 20 bc 9c d0 0a bd 1f 48 1e 3b
       0.10741446 -0.009767387 -0.03389035 0.0024151874
000290 50 e5 d2 bc fa c9 8a 3d b9 fa 9d bd 5d ba 0b bd
       -0.02574411 0.06776805 -0.07713837 -0.034113277
0002a0 66 21 81 bd 81 98 a2 bd e7 6a 2a bc 1e 09 40 bd
       -0.06305198 -0.07939244 -0.010401464 -0.046883695
0002b0 27 a0 a2 bc 1d 45 12 3e 93 e9 9f 3c 9e 46 41 bd
       -0.019851757 0.14284177 0.019520557 -0.047186486
0002c0 0c b4 91 3c c3 ca f9 bb d1 f4 68 bd 5f ce d0 3d
       0.017786048 -0.007623048 -0.0568741 0.10195612
0002d0 30 38 51 3d 2b 61 04 3e d3 fe ac 3d fb c6 8d bd
       0.051078975 0.12927692 0.08447041 -0.06922718
0002e0 9f 8f 4b bc 15 c3 67 bd da 94 02 bb 09 f0 88 3d
       -0.012424379 -0.05658253 -0.0019925148 0.06686408
0002f0 63 ff c5 bd 95 a7 04 3c d0 e3 fa 3c b1 17 83 3d
       -0.09667852 0.008096595 0.030626208 0.06401003
000300 43 61 de ba 76 21 2d 3c b7 28 50 bd 87 18 b4 bc
       -0.0016966242 0.01056706 -0.05082008 -0.021984352
000310 84 7b 08 3e 26 7f 75 bb 63 20 9b bd 57 65 eb ba
       0.13328367 -0.003745982 -0.07574537 -0.0017959279
000320 19 bc 18 be 86 00 dc 3e 24 a2 8a 3e d4 4e 7b be
       -0.14915504 0.4296915 0.27076828 -0.2454179
000330 33 81 6f 3d 0b 9e 44 3e 4a c9 7a 3e 25 2a bb 3e
       0.058472823 0.19200914 0.24490848 0.3655559
000340 27 76 e8 be 2b eb 2e 3d ad 61 68 bf 0e 6c 8f 3b
       -0.45402643 0.042704742 -0.9077404 0.004376895
000350 92 94 12 c0 7f a8 9b bd 6b c9 25 be 27 81 63 3c
       -2.290318 -0.076004975 -0.16190116 0.013885773
000360 8f 04 91 bd 09 79 6b 3e 3c 84 42 3d 8c 6e 85 3d
       -0.070809476 0.2299539 0.04748939 0.06515226
000370 76 9e c3 3e 98 ed 23 3e 9c d7 05 bd 87 ca 01 3e
       0.38206834 0.16008604 -0.032676324 0.12674914
000380 c9 b2 8d 3e 26 aa e0 3c 73 12 fe 3c d7 51 c4 3e
       0.27675465 0.027424883 0.031014657 0.3834369
000390 af 06 69 be fc cc c1 3d 8b 32 5f be 25 ce ca bd
       -0.22756456 0.09462926 -0.21796624 -0.099026
0003a0 82 66 14 be 1c 19 fd 3d d7 a8 18 be cb 00 b0 bc
       -0.14492229 0.12358305 -0.14908157 -0.021484753
0003b0 81 23 91 be bd 20 07 be e0 1f 43 bd d8 46 e0 3e
       -0.283474 -0.13196082 -0.04763782 0.4380405
0003c0 8a f4 4a 3d 24 68 bf bc e9 a8 e9 bd 01 3d d1 bc
       0.049549617 -0.023365088 -0.1140917 -0.025541784
0003d0 af 9c 24 3d f5 3b e4 3e 88 ce f1 be f2 86 d9 bd
       0.040188488 0.44576994 -0.47227883 -0.10621442
0003e0 3d a3 66 3a 73 54 67 3e 89 c3 94 bc b9 73 8f bd
       0.0008798128 0.22590809 -0.018159645 -0.07004494
0003f0 a0 e3 8d bd ba b1 bb be 4b 51 5a bb 6f 83 4e be
       -0.06928182 -0.36659032 -0.0033312615 -0.20167325

controller.lstm.bias_ih f4 [400]
000000 31 4e 39 3d 03 88 2d 3e b2 bc c2 3d d2 d0 6a 3d
       0.045240585 0.16946416 0.09508647 0.057328053
000010 c5 03 42 3d 52 d9 29 3c b5 a6 06 3e 45 af 48 3e
       0.047366876 0.010366755 0.13149531 0.1959811
000020 fb 1c d6 3d 33 d8 bb 3d cc ef 27 3e 30 2c 06 3d
       0.10454746 0.09172096 0.16400069 0.032756984
000030 55 68 5b bd 6c 30 30 3e 8e 1a 3d 3d 93 37 71 3c
       -0.053566296 0.17205971 0.046167903 0.014722723
000040 22 5d 55 bb db ea 84 3d d3 d3 40 3d 7a a1 81 3d
       -0.0032556732 0.064901076 0.04707701 0.06329627
000050 3f 95 ce 3d 7e e0 db 3d 06 d5 be 3c 90 bb dd 3d
       0.1008706 0.10736178 0.023294937 0.1082679
000060 72 6a 31 3e 6f 40 9b 3d 2d 2f 40 3e a3 9e 60 3c
       0.17325762 0.07580649 0.18767996 0.013709697
000070 7f 74 fb 3c b8 87 0c 3c ca 8c a6 3d 9a 69 db 3d
       0.030695198 0.00857728 0.08132322 0.10713501
000080 3d 5a 83 3d e2 de e7 3d 5d e4 75 3d 22 24 e4 bc
       0.06413696 0.113218084 0.060032237 -0.02784926
000090 60 97 06 3d fd 59 e1 3d 32 30 0f 3d 1a 6f 23 3e
       0.032859206 0.11003492 0.034958072 0.1596035
0000a0 e2 96 b8 3d 19 c2 25 3e 52 02 2b 3e 54 89 0e bd
       0.090131536 0.16187324 0.16700104 -0.034798935
0000b0 c3 8b 9f 3d 0a 58 06 bc c2 d1 04 3e 2b f2 4e 3d
       0.07790329 -0.008199701 0.12970641 0.050523918
0000c0 c0 83 c1 3c 50 d1 19 3e f1 2b e7 3d dd b0 b4 3d
       0.023622394 0.15021253 0.11287678 0.088227965
0000d0 cc d8 05 bd 3d 36 15 bd f9 84 0d 3e d9 4e f1 3d
       -0.032677457 -0.03642868 0.13820256 0.11782617
0000e0 7f e9 cc 3d f5 0a 9c 3d 7c 21 44 bd 56 5b d8 3d
       0.10005473 0.076192774 -0.047883496 0.10564296
0000f0 8f e5 73 bd bb 01 3e 3d fb 04 87 3d 54 e6 09 3e
       -0.059545096 0.04638837 0.06592747 0.1346677
000100 f7 c4 a2 3d 5f 59 89 3d fd db df 3c 61 84 35 3d
       0.07947724 0.06706499 0.027326578 0.0443157
000110 67 1e e1 3d 9a 4f cd 3b 4c 8b c4 3d 70 0e 45 3c
       0.10992127 0.0062655928 0.09596881 0.012027368
000120 b7 9a 72 3d c1 94 aa 3d 93 58 6a bc 6f 3c d8 3d
       0.05922958 0.08329154 -0.014303344 0.10558402
000130 5a 01 be 3c 30 e7 a9 3c 98 fb b1 3d 72 82 db 3d
       0.023194004 0.020740122 0.08690566 0.1071824
000140 b8 2a 1a 3e 49 67 c3 3d 13 cd 98 3d 0c 4c 89 3d
       0.15055358 0.095411845 0.0746099 0.06703958
000150 5e c4 0f 3e 9c ef 8b 3d 2a 75 0f bd a5 dd 3c bc
       0.14039752 0.06832811 -0.035023846 -0.011527454
000160 23 2a 0a 3d 6f 34 11 bd e6 ac d2 bd 83 dd b8 3d
       0.03373159 -0.035450395 -0.10286884 0.09026625
000170 c0 c9 a5 3d 1c 27 d2 3d 57 99 9e 3d 13 44 02 3d
       0.080951214 0.10261366 0.07744091 0.031803202
000180 be ae dc 3d 15 e3 e4 3d 20 0e e5 3c 36 98 3b 3d
       0.10775517 0.11176125 0.027960837 0.045799457
000190 0b fa b4 bc 6e 4e 16 3d 52 b1 e8 3d 77 8f af b9
       -0.022091886 0.03669589 0.11361946 -0.0003348549
0001a0 f7 38 08 3d 21 b2 e8 3d 2d 2c ff 3c 76 04 19 3e
       0.03325745 0.113621004 0.031148994 0.14943108
0001b0 e0 a1 0b 3e dd 97 21 3d 74 5d 27 3d d5 43 82 bd
       0.13635969 0.03945147 0.04086061 -0.06360594
0001c0 27 e5 13 bc 07 35 a8 bc af 54 9b bc f4 95 30 3d
       -0.009026802 -0.020533098 -0.018961279 0.043111756
0001d0 40 4c ad 3d bb 89 3e 3d 4a 20 86 3d fd ab 77 3d
       0.08461809 0.04651807 0.065491274 0.060466755
0001e0 88 39 71 3d cc 18 9c 3d f6 9c 47 3d 82 e9 9b 3d
       0.058892757 0.07621917 0.048733674 0.076128975
0001f0 3c c1 96 3d 7b f9 f5 3d 83 ce 16 3e f6 e4 bb 3d
       0.07361075 0.12010475 0.14727215 0.0917453
000200 5c dc 3f 3c 04 02 5a 3d 69 37 31 3d 5e 56 a7 3d
       0.011710253 0.05322458 0.043265734 0.0817077
000210 83 89 7c 3d e9 a7 28 3e 90 94 22 3d e9 1c ab 3d
       0.06165458 0.16470303 0.03969246 0.083551235
000220 7f fd 24 3d e4 09 fc 3c d8 e4 7d 3d 43 6f a2 bd
       0.040280815 0.030766435 0.06198582 -0.07931378
000230 9b 7f 6a 3d 87 75 e4 3d 3c 17 5a 3d 9f 93 05 be
       0.0572506 0.11155229 0.053244814 -0.13044594
000240 e8 9f 83 3d 17 7a 04 bd 04 9a 16 3d 25 97 b1 3d
       0.06426984 -0.032342996 0.036767974 0.08671407
000250 e0 07 04 bd fb 20 c1 3d 4a 96 81 3d 0e 84 ec 3c
       -0.032234073 0.09430119 0.063274935 0.028871562
000260 7b 9a 1d bd 8c 5c 2c bc af 9f 1c 3e f0 a0 91 3d
       -0.038477402 -0.010520112 0.1529529 0.071107745
000270 8e df b1 3c 4d e2 fa bc 5f 31 91 bc de 24 55 3d
       0.021713044 -0.030625487 -0.017723737 0.052037112
000280 27 08 c7 3d 68 08 31 3d fa a0 06 3e ba ff 01 3d
       0.09718352 0.043220907 0.13147345 0.03173802
000290 be 8b 1a 3b e5 e0 9d bc 5b 35 f6 3c e1 c3 e3 bc
       0.0023581828 -0.019272277 0.030054739 -0.027803363
0002a0 a4 c2 7a 3d 33 a7 ac 3d e3 5a a3 bc 20 77 3f bd
       0.06122078 0.08430328 -0.0199408 -0.046744466
0002b0 66 54 94 3d 2f 78 90 3d 3f df 07 3d 5f b2 9e 3d
       0.0724266 0.07054173 0.03317189 0.07748865
0002c0 cd b3 79 3d 86 4f fa 3c 44 e3 48 3d 4c 8e c2 bd
       0.060962487 0.030555498 0.049044862 -0.09499797
0002d0 b1 82 c0 bc 47 0e 7e 3d 25 e7 62 3d bf 89 bf 3c
       -0.023499819 0.062025335 0.055396218 0.023381112
0002e0 15 a5 81 3d 40 1c b8 3d 71 3e 7a bc 63 d0 b5 bd
       0.06330315 0.08989763 -0.015273676 -0.08877637
0002f0 6d e1 c2 3c 12 ae 27 3c cf 8b 2c 3d 2f 0a b5 3d
       0.023789132 0.010234373 0.04212552 0.08839833
000300 30 fa c8 3c 43 10 0d 3d 47 b7 7e 3d 83 06 81 bc
       0.024533361 0.034439337 0.062186506 -0.015750175
000310 64 95 a4 3d 3a 99 0a 3d 2f 51 1f 3e c0 09 73 3d
       0.080363065 0.033837534 0.15558313 0.05933547
000320 9c 17 81 3d 67 8b 05 ba 3d a5 5e 3c 53 d1 4d bc
       0.06303331 -0.000509432 0.013589201 -0.012562114
000330 33 4a bb bd ef 8a da 3b d3 35 91 bb 98 f5 29 3d
       -0.09145012 0.006669394 -0.004431465 0.041493982
000340 70 39 c9 bb 47 b3 a2 bd d7 dc 8f bb 61 d9 0c 3e
       -0.0061408803 -0.07944351 -0.00439034 0.13754798
000350 7e fb b6 3d 3e 4e df bc 19 82 c0 3d 10 55 b0 bd
       0.08934687 -0.027258988 0.09399814 -0.086099744
000360 b6 79 0c bc ed 5b a4 bd 3b ac b2 bd ab 2a bf bd
       -0.00857394 -0.08025346 -0.087242566 -0.0933431
000370 48 51 e8 bd 11 42 f2 bd b9 39 f9 3d 74 c7 8e bd
       -0.11343628 -0.118290074 0.12169213 -0.069716364
000380 2c 70 64 3d d7 d8 c7 3d 18 c9 f0 bd d7 0c 10 3d
       0.055771038 0.09758156 -0.117571056 0.035168495
000390 87 63 05 be d4 de 8e bd 0e 9f da 3d 04 1b ea 3d
       -0.13026248 -0.06976095 0.106748685 0.11430934
0003a0 8e 3c c5 3d 53 ad 22 be fe a8 c8 bc 7e 06 3c bc
       0.096306905 -0.1588643 -0.024494644 -0.011476157
0003b0 1f 29 ae 3d c5 e6 45 bd ab 42 d6 bc eb 32 a2 bd
       0.08503937 -0.048315782 -0.026154837 -0.07919868
0003c0 6f 27 ce bd 90 1e 27 bd 60 d7 09 bd ba 28 29 3c
       -0.10066115 -0.04080063 -0.033652663 0.010324651
0003d0 26 a3 7f 3c 2d 97 6f ba a8 a1 ea 3d 74 d6 84 bd
       0.015602862 -0.00091396534 0.11456615 -0.06486216
0003e0 6a 02 9c 3b 01 d3 4e bd 96 e1 00 be 3d 0e 3b 3d
       0.00476103 -0.050494198 -0.12586054 0.045667876
0003f0 b7 a0 3d ba b8 86 4c be db bf b8 3d 78 8f 9c 3d
       -0.0007233726 -0.19973266 0.090209685 0.07644552

controller.lstm.bias_hh f4 [400]
000000 55 d8 0f 3d 52 30 0f 3e 7b 88 06 3e d1 a3 59 3d
       0.03511842 0.13983276 0.13138 0.053134743
000010 0b c6 3d 3d 7b 01 1e 3d c2 da ee 3d b7 89 3c 3e
       0.046331447 0.03857563 0.116628185 0.18411909
000020 47 a5 82 3d cd 19 af 3d a6 89 1f 3e fb 2b 85 3c
       0.063791804 0.08549843 0.15579852 0.016256323
000030 1b c1 bb 3b 6f e2 0f 3e 2a 36 03 3d 9b f0 ed 3c
       0.005729807 0.14051221 0.032034077 0.029045394
000040 a3 8b 69 3c 8c 76 c1 3d c6 8b 24 3d 5d f6 77 3d
       0.014254483 0.09446439 0.04017236 0.060537685
000050 2a 2b d2 3d 1f 51 dc 3d 76 83 42 3d ca ad de 3d
       0.10262139 0.1075766 0.047488652 0.108729914
000060 99 3b 23 3e 36 4e 8c 3d de f1 a0 3d 09 ea 34 3c
       0.15940703 0.06850855 0.078586325 0.011042126
000070 1b b4 d4 3c 02 bd c3 3c 72 16 ad 3d 51 10 d8 3d
       0.025964787 0.023893837 0.08451547 0.10549987
000080 b0 59 88 3d aa 91 c9 3d dc a3 57 3d 46 e7 16 bd
       0.066577315 0.09842236 0.052646503 -0.036841653
000090 19 3c 8d 3d 19 7b 25 3e 24 12 05 3d 39 8b d4 3d
       0.06896228 0.1616024 0.032488003 0.10378117
0000a0 bd 52 b7 3d a1 af da 3d 11 24 20 3e 22 e1 75 bd
       0.08951328 0.1067803 0.15638758 -0.060029157
0000b0 d3 d4 a9 3d 9c d4 2d bd d6 a6 d4 3d 95 42 8c 3d
       0.08292546 -0.04243909 0.10383384 0.06848637
0000c0 49 35 8a 3b d6 47 1f 3e 6b 31 b7 3d 08 b3 b2 3d
       0.004217778 0.15554747 0.089449726 0.08725554
0000d0 90 6a a0 bd 06 d2 ac 3c fd 6b 08 3e bc bd ea 3d
       -0.07832825 0.02109624 0.13322444 0.1146197
0000e0 0c 54 a6 3d fa 6f 22 3c a8 5c 55 bd 4e 90 cb 3d
       0.081214994 0.009914393 -0.052090317 0.09939633
0000f0 1c 34 35 3c 59 af 01 3d 9c 3e 78 3c e6 d2 ef 3d
       0.011059787 0.031661365 0.015151646 0.117101476
000100 3c 55 cf 3d ac 3f 8b 3c 1c b7 b3 3c 3c 7c ad 3c
       0.10123679 0.016998135 0.0219379 0.021177404
000110 43 ef cf 3d ec f8 08 bd 04 27 0a 3e a7 fa b8 3c
       0.101530574 -0.033440515 0.13491446 0.022580458
000120 20 c1 ce 3d ca 2d b2 3d 72 2c 15 3d 11 ea a4 3d
       0.100954294 0.0870014 0.03641934 0.08052457
000130 d1 b7 ef ba 02 03 1d 3d db fd b5 3d b2 3b f0 3d
       -0.0018289034 0.038332947 0.0888631 0.11730136
000140 7f aa e5 3d 64 55 b9 3d 80 15 85 3d 36 c2 8b 3d
       0.1121416 0.0904949 0.064982414 0.06824152
000150 fa ce fd 3d 1a d2 8b 3d 40 4c 6e bd af bc 54 3a
       0.12392993 0.06827183 -0.058178186 0.0008115274
000160 01 d1 fe 3c ca 1e 6e bd 4d 13 ca bd 05 c0 e6 3d
       0.03110552 -0.05813483 -0.098669626 0.112670936
000170 20 d9 62 3d 67 bf 69 3d ca 61 a5 3d 7e 4f 03 3d
       0.055382848 0.0570673 0.080752924 0.03205823
000180 37 cc db 3d df 72 e6 3d 88 13 87 3d 71 d5 5c 3d
       0.1073231 0.11252379 0.06595522 0.05391449
000190 27 55 b0 bc f7 2c e5 3d e3 d7 05 3e 13 56 7f bb
       -0.021524979 0.11190217 0.13070635 -0.0038961216
0001a0 cb e0 92 bc 7c af a3 3d 1d bd 3e 3c 87 fa 22 3e
       -0.017929455 0.07992455 0.011641768 0.15915881
0001b0 1d 78 0b 3e 8d 2b 21 3d b4 3d 3a 3d 11 07 51 bd
       0.13620038 0.039348174 0.045469 -0.05103213
0001c0 d4 6e c5 3d b2 23 47 bd 9e 9c bd bc e8 c6 45 3d
       0.096402794 -0.048618026 -0.02314597 0.048285395
0001d0 67 7d a9 3d bb e1 ca 3c 44 f0 86 3d 6a 25 7a 3d
       0.08275872 0.02476584 0.06588796 0.061070837
0001e0 81 6c 71 3d 4f eb 9b 3d 69 93 3c 3d 9b fc 97 3d
       0.058941368 0.07613241 0.04603902 0.074212275
0001f0 be 38 a2 3d df 50 ec 3d 67 74 04 3e 2e 24 bc 3d
       0.07920979 0.115388624 0.12935029 0.09186588
000200 6a 41 2b bc 55 30 2f 3d 82 25 39 3d 70 22 a7 3d
       -0.010452608 0.042770702 0.045201786 0.08160865
000210 2f 26 7d 3d 47 ec 2f 3e 3a e6 aa 3c ac 60 a4 3d
       0.061803993 0.17179976 0.020861734 0.08026251
000220 a2 bf 38 3d cf 71 32 3d 42 69 67 3d c3 ba 83 bd
       0.04510463 0.043565568 0.056496866 -0.06432106
000230 42 7a 6a 3d d0 cb a2 3d e5 94 9d 3d 1d ca 98 bd
       0.0572455 0.079490304 0.07694415 -0.07460425
000240 b6 69 8c 3d 16 ae 30 3d 66 f7 6f 3d 80 06 1b 3d
       0.068561 0.04313477 0.058585547 0.037847996
000250 63 8b 2c bd 10 e1 07 3e b1 41 81 3d d4 93 fd 3c
       -0.042125117 0.13269448 0.06311358 0.030954279
000260 c6 60 2c bd 73 9d 23 3d 4d 3b fd 3d 07 7d 72 3d
       -0.042084478 0.039945077 0.12364826 0.059201267
000270 e5 44 01 3e 2a b2 07 bd 98 14 90 bc 23 8e f1 3b
       0.12623937 -0.033128895 -0.017587945 0.0073716803
000280 9f 09 16 3d 6e 72 59 3d 3f d1 d3 3d a2 b6 de 3c
       0.03663027 0.053087644 0.10342645 0.027186695
000290 18 81 89 3c 07 ef 37 bd 9f ad 51 3d ed c0 94 ba
       0.01678519 -0.04490569 0.05119097 -0.0011349
0002a0 d4 0f 7c 3d ef 30 a0 3d 14 9a 61 3a 10 ea 44 bd
       0.061538532 0.07821833 0.0008606028 -0.048074782
0002b0 44 0a 5b 3c 14 89 90 3d 36 d0 a2 3c 3c db 8d 3d
       0.013369147 0.070573956 0.019874673 0.06926581
0002c0 2f 19 94 3d 33 f9 6b 3d f1 da 43 3d 89 52 36 bd
       0.07231366 0.0576107 0.04781622 -0.044512305
0002d0 75 91 bd 3d 53 f3 7d 3d 42 e1 62 3d a3 c1 cc 3d
       0.09256259 0.06199963 0.055390604 0.09997871
0002e0 89 96 69 3d 04 53 0b 3d bd 73 24 3c dd b6 58 bd
       0.057028327 0.034014717 0.01003736 -0.052908767
0002f0 ee 12 b3 3c b9 fe ed 3d c3 31 d8 3d b2 b9 ba 3d
       0.021859612 0.1162085 0.10556366 0.0911745
000300 7c 8f 2f 3d bc ad 0f 3d e4 3b 7c 3d e9 63 56 bb
       0.042861447 0.035077795 0.061580554 -0.003271336
000310 62 a2 a4 3d 70 b4 00 bc d4 f7 0f 3e 31 7e 69 3d
       0.080387846 -0.00785552 0.14059383 0.05700511
000320 ee 43 88 3d 6c c4 a4 bd c6 89 63 3d bc fa a3 3b
       0.066535816 -0.08045277 0.055551313 0.005004255
000330 fb 4f b0 bd 15 5e 2d bd 30 ed fd bb b2 52 10 3e
       -0.08609005 -0.04232605 -0.007749222 0.14094046
000340 ba 1f c2 bb 23 ac 87 bd b2 19 02 bb 81 1d e6 3d
       -0.0059241923 -0.06624629 -0.0019851741 0.11236096
000350 64 da 50 3b f0 f4 ca bc da 88 8f 3d 0f ab 9f bd
       0.0031868452 -0.024774998 0.07008524 -0.07796299
000360 50 b1 9a 3c 63 d2 0c be 85 e2 be bd a6 d5 9e bd
       0.018883377 -0.13752131 -0.09320549 -0.07755594
000370 c0 66 e5 bd 03 04 e9 bd 69 39 2f 3d 68 bf 90 bd
       -0.11201239 -0.11377718 0.04277936 -0.07067758
000380 74 3b 0c 3e dd b4 9a 3b 0d a4 55 3d e0 b1 35 bd
       0.13694555 0.0047212676 0.052158404 -0.044359088
000390 e4 cf ac bd 1b fc a0 3c 9f 6f de 3d c3 43 ea 3d
       -0.084380895 0.019651463 0.10861134 0.11438706
0003a0 c7 cd c3 3d b4 ad 8f bd d3 49 b4 3c b3 65 00 3e
       0.09560733 -0.07015553 0.022007858 0.12538795
0003b0 97 d9 aa 3d d6 10 b2 bd 35 26 da 3c cd 8f 09 be
       0.08342283 -0.086946175 0.026629547 -0.13433762
0003c0 05 75 d6 bd 5b 24 62 bc 70 bc 99 bd 75 ab b7 bd
       -0.104715385 -0.013802613 -0.07506645 -0.0896825
0003d0 89 2c d9 bb 66 54 68 bc d2 ef 05 3e 71 81 95 3c
       -0.0066276235 -0.014180278 0.13079765 0.018250199
0003e0 e5 be 14 bd b0 92 d5 bd d0 65 db bd 28 3d 63 3d
       -0.036314864 -0.10428369 -0.107127786 0.055478245
0003f0 85 4a fc 3a c2 bf 38 be 9e 9b 87 3d de 5e 74 3d
       0.0019248283 -0.180419 0.066214785 0.059660785

controller.fc_out.weight f4 [1000, 100]
000000 5e e4 29 3d 15 cc cf be 16 bd cc be 9d 27 2a 3e
       0.041477554 -0.4058539 -0.3998801 0.16616674
000010 b9 76 fb bd 61 95 0b 3d f3 69 3e be 01 68 09 3f
       -0.12278504 0.034078006 -0.18595104 0.5367432
000020 9c 18 79 bd 10 a4 ff be 72 aa 4a 3e db c9 08 3f
       -0.060814485 -0.49929857 0.19791582 0.53433007
000030 23 ab 05 be 90 81 36 bf 96 79 7c 3e 7d 79 93 be
       -0.13053565 -0.71291447 0.24655756 -0.28803626
000040 39 be 61 bb 8e 23 9e be 32 e0 75 be 99 b9 1c be
       -0.0034445657 -0.308865 -0.24011305 -0.15305175
000050 8d fe 10 bf ac 3b bc be 5d 63 d6 3d 79 2d f3 be
       -0.56638414 -0.36764276 0.10468171 -0.4749563
000060 f7 1d 1e 3f fe 84 3e 3e 71 99 b2 be 65 9b 82 3e
       0.6176447 0.1860542 -0.34882692 0.25509182
000070 6c 02 d3 be 5f 94 b2 3d af 41 ff 3e 0f 81 f4 3e
       -0.41212785 0.08719706 0.498548 0.47754714
000080 fa f6 a6 3e 19 8c 00 bf a6 46 17 bd 0d f7 cd 3e
       0.32610303 -0.5021377 -0.03693261 0.40227547
000090 37 47 a9 3e 21 4d 1c bf 47 ca 78 3e c0 f8 45 bf
       0.33062145 -0.6105519 0.24295913 -0.7733269
0000a0 1d 17 eb be 74 6b eb be dd 68 08 bf b9 76 56 be
       -0.45916072 -0.45980418 -0.5328501 -0.20943727
0000b0 95 46 28 3e 12 f6 44 bd fc 4c 2d 3f c1 91 c8 be
       0.16433175 -0.048086233 0.67695594 -0.391737
0000c0 76 57 f0 3d 99 2b 35 bf a0 b7 f2 be 02 05 b1 3e
       0.11735432 -0.7076965 -0.4740572 0.34574133
0000d0 34 f3 0c bd 72 7e 13 bf 94 6b 00 3f 81 dd 02 3f
       -0.034411624 -0.57614815 0.5016415 0.5111924
0000e0 a8 1b 0a bf 9f d5 93 3e 78 ec ae bd ff bb 38 bf
       -0.5394845 0.28873917 -0.085411966 -0.7216186
0000f0 0b ec b7 bb 67 54 83 be ab 3f ae 3d ff 38 41 bf
       -0.0056128553 -0.2565033 0.085082375 -0.75477594
000100 13 20 48 3f d8 d9 df 3e f6 2c 30 3e 27 13 2a bf
       0.7817394 0.4372089 0.17204651 -0.66435474
000110 47 4d 9f be 36 8f 0d 3f 00 df 05 bf 25 57 4d 3d
       -0.31113645 0.5529665 -0.52293396 0.050131936
000120 3b 6d ca be d6 e1 a6 3e 7f 3f 6f be 1c 4b 78 3f
       -0.3953646 0.32594174 -0.23364066 0.9698961
000130 ee 30 87 be e2 c3 2e be 8d 09 ca be 5f 44 03 3f
       -0.26404518 -0.17066911 -0.39460412 0.512762
000140 dc 15 0c bf 81 30 d3 3e cf cb e3 3e b7 86 8a be
       -0.54720855 0.41247943 0.4449143 -0.27055904
000150 6b 4d 25 bf de 74 75 3e 1e 42 0e be dd c1 c4 bd
       -0.64571255 0.23970363 -0.13892409 -0.09607289
000160 de e9 b8 be d1 bd 19 3e 56 31 16 bd 04 da 50 be
       -0.36115927 0.15013815 -0.036668144 -0.20395666
000170 82 18 f3 3e 08 53 8b be cb f5 92 be 91 61 c3 be
       0.47479635 -0.27211785 -0.2870315 -0.38160375
000180 12 d0 db 3e 80 19 9f 3e 32 ee b3 be 91 37 7e be
       0.42932183 0.31074142 -0.35142666 -0.24825884
000190 c5 9f 91 3b db 4a 85 bf a6 93 d8 3d 77 30 65 bc
       0.004444095 -1.0413469 0.10575037 -0.013988606
0001a0 2d 78 94 be 98 88 83 3f 05 6d 5e bf a0 cf e8 be
       -0.28997937 1.027606 -0.868851 -0.45470905
0001b0 ad 14 a2 bd a7 28 80 3d fe 5a e4 b9 04 44 c7 3d
       -0.079141 0.06257754 -0.00043555343 0.0972977
0001c0 57 d5 6e 3f f6 0a 89 bf 78 52 0a 3d 7e 12 98 3d
       0.9329428 -1.070647 0.033770055 0.07425402
0001d0 75 8c fa bd f3 68 a7 be 4b 86 87 be a1 75 08 be
       -0.12233821 -0.32697257 -0.26469645 -0.13326122
0001e0 75 79 8a be 49 0a e1 3e 13 7c ea 3e 0b ea 58 bd
       -0.2704579 0.4395316 0.45797786 -0.052957576
0001f0 58 f6 72 bf fa 02 86 3d 1b fe d6 be 4e 62 f6 bd
       -0.9490714 0.065435365 -0.41990742 -0.12030469
000200 79 5b e8 bd 0e 47 86 bf 29 35 7e bf a1 4a e0 be
       -0.11345572 -1.0490434 -0.99299866 -0.43806937
000210 7a 6b 19 3e 05 97 52 be fd 72 e9 3d ae 79 0c bd
       0.14982405 -0.20565422 0.113988854 -0.03429573
000220 53 8c 73 be ca 63 a5 3e 32 25 bd be 92 30 17 3f
       -0.23783998 0.32302696 -0.3694244 0.5905849
000230 e0 25 bc 3e 59 32 a1 3e d1 57 28 be 20 f8 45 bc
       0.36747646 0.31483725 -0.1643975 -0.012083083
000240 33 8e 96 3f e7 81 8d bd f3 d4 e6 bd a8 55 a1 3e
       1.1762146 -0.069095425 -0.112710856 0.31510663
000250 4d 00 39 3e 48 38 47 3f b4 cc f4 bd e7 7e 16 bd
       0.18066521 0.77820253 -0.119531065 -0.036742117
000260 e0 24 48 3d 1c d5 10 bf e9 0e da 3e 22 32 8f bf
       0.04886329 -0.5657518 0.425895 -1.1187174
000270 42 8e a2 bf bf d0 f5 bd 5f 20 78 bd 70 93 98 3e
       -1.2699664 -0.12002706 -0.060577746 0.29799986
000280 3c a6 93 3e a5 b6 ef 3e b0 03 09 bf 84 41 f7 be
       0.28837764 0.46819034 -0.5352125 -0.48292172
000290 c0 24 10 bf 2e f7 cf be d7 47 8d 3f 8a ea 88 bf
       -0.56306076 -0.4061827 1.1037549 -1.0696576
0002a0 58 54 13 3f af 2f 82 bf 86 b2 87 3f ea 92 20 3c
       0.57550573 -1.0170802 1.0601356 0.009800652
0002b0 8f ad 20 bf 6b 21 85 bf 1e dc ef 3d 22 b6 01 bf
       -0.6276483 -1.0400823 0.11711906 -0.5066854
0002c0 2a 08 8b 3e df 2f a9 3e 80 34 aa bd c5 8d 83 bf
       0.27154666 0.33044335 -0.08310795 -1.027764
0002d0 36 27 b0 3d 30 c5 7a 3d 5d 8d 7c be 4f a9 78 be
       0.08601229 0.06122321 -0.24663301 -0.24283336
0002e0 60 bc a6 3e 54 0b ff bd 42 78 06 3e cb fd 1f 3e
       0.32565594 -0.124533325 0.13131812 0.15624158
0002f0 33 53 30 3d 9f a1 d5 3e 7c 66 a5 be f0 0f 8e bf
       0.043048095 0.4172487 -0.32304752 -1.1098614
000300 2f 3e c2 3e 84 06 f6 3d 82 84 13 be 68 24 30 c0
       0.37938067 0.120129615 -0.14406016 -2.752222
000310 4c 8a 50 bf c2 9c 8e bf 12 67 29 40 50 e0 0e bc
       -0.81461024 -1.1141589 2.646916 -0.008720472
000320 6f 02 ce 3d e3 af fb 3e 54 84 0b c0 99 2c 92 be
       0.10059058 0.49157628 -2.1799517 -0.2854965
000330 c2 58 d9 be b5 50 8b bd 19 f9 9d 3e 17 d7 0f 3f
       -0.4245053 -0.06802503 0.3085411 0.56187576
000340 9a b5 8f 3f c4 d8 57 be 42 0e 8b 3f 65 f0 af be
       1.1227295 -0.21078783 1.0863726 -0.34363094
000350 e1 b4 be 3f df 1e 36 3f 9d 60 54 3e 55 1b 75 be
       1.489895 0.71140856 0.2073998 -0.23936208
000360 0f 57 8b be b7 77 31 bf f3 dd 0c bf 0c 75 05 be
       -0.27214858 -0.69323295 -0.5502617 -0.13032931
000370 85 c9 c3 3d dd 16 22 bf 59 8d 33 bd 93 89 59 3e
       0.09559921 -0.63316137 -0.04383597 0.21243887
000380 92 0b 00 bf ad ac 4c bf 0c 37 27 be 5e 1d 53 bf
       -0.50017655 -0.7995098 -0.16329592 -0.82466686
000390 e7 e7 dc bd b2 54 a7 be ad 01 00 3f 00 2f 77 3f
       -0.10786419 -0.32681805 0.5000256 0.9655609
0003a0 e7 9d cd 3e 2b 39 07 bf ca 00 4a 3e 5b d0 91 3e
       0.40159532 -0.52821606 0.19726864 0.28479275
0003b0 96 6e fc 3e bc f1 0c c0 06 a5 a5 be e3 33 b2 3d
       0.4930312 -2.2022543 -0.32352465 0.08701303
0003c0 d9 a8 75 be 75 92 2b bf 14 d1 9f 3e 13 95 72 3d
       -0.23990192 -0.6702035 0.312142 0.0592242
0003d0 32 de 7a bf c7 0f 49 bf 73 7d 39 be 3b 83 69 3f
       -0.97995293 -0.785397 -0.18114261 0.91215867
0003e0 32 21 91 3e 59 b9 f4 bf 58 4d 4b be c8 fe b7 3d
       0.2834564 -1.9119064 -0.19853723 0.089841425
0003f0 07 7d 80 3e 30 e2 5d 3f cb 03 3d be 83 c0 c1 3f
       0.25095388 0.8667326 -0.18458478 1.5136875

controller.fc_out.bias f4 [1000]
000000 ca 51 90 3f 2b d0 26 3d 1b 21 60 3e 9a 70 44 3e
       1.127496 0.04072587 0.21887629 0.19183579
000010 d0 c9 59 3e b0 c7 8c bb 82 57 25 bd 0a b1 dc 3e
       0.21268392 -0.0042962655 -0.040366657 0.4310382
000020 f3 7f ab 3e 49 a1 5d 3e 04 bc 41 3e 62 21 a3 bd
       0.33496055 0.21643557 0.18919379 -0.07965352
000030 ab 03 c5 bb 2e 0b 87 bc 36 29 b4 bc 11 ae 31 3d
       -0.0060124 -0.016484823 -0.021992307 0.043378893
000040 3f 96 3c be c7 f8 bf bb a6 86 04 3e 8b 28 87 3c
       -0.1841669 -0.005858514 0.1294199 0.016498825
000050 04 d1 c4 bd c3 60 a0 bd 75 85 87 3c 44 c0 9d 3d
       -0.09610179 -0.07830956 0.01654313 0.077026874
000060 f1 da 16 b8 f4 31 63 bd 23 a5 42 3c ad 7d 4d 3d
       -3.5966692e-05 -0.05546756 0.011880192 0.050168682
000070 81 90 e8 3d 4e a2 1b 3e 83 a5 74 3e 16 88 fb 3d
       0.11355687 0.15198633 0.23891263 0.12281816
000080 ae c2 bd 3c 30 77 e7 3c 2d e0 8d bb 28 a0 8e bb
       0.02316412 0.028255075 -0.0043297024 -0.004352588
000090 a4 0f 8e bb 02 a4 8f bb dc 84 8e bb 55 46 8e bb
       -0.0043353606 -0.004383565 -0.004349334 -0.0043418803
0000a0 f5 44 8d bb 80 ca 8e bb db 47 8e bb da 95 8e bb
       -0.004311199 -0.004357636 -0.004342062 -0.00435136
0000b0 3b 5d 8e bb 47 c9 8c bb 54 89 8f bb 99 b9 8d bb
       -0.00434461 -0.004296455 -0.0043803845 -0.0043251035
0000c0 fe 50 8f bb 8d e4 8b bb 3c dc 8d bb 62 35 8f bb
       -0.0043736687 -0.0042691887 -0.0043292325 -0.0043703774
0000d0 0f 7e 8d bb f3 b4 8e bb 49 98 8e bb b8 cf 8d bb
       -0.004318006 -0.004355067 -0.00435165 -0.0043277405
0000e0 5a eb 8c bb 77 84 8e bb 9f bc 8f bb 5c ef 8d bb
       -0.004300517 -0.004349287 -0.004386499 -0.0043315124
0000f0 6f a3 8f bb 79 6c 8d bb 63 88 8d bb 74 97 8e bb
       -0.0043834965 -0.0043159095 -0.004319237 -0.0043515507
000100 a7 27 8e bb 0a 1b 8e bb 7a 48 8d bb d5 24 90 bb
       -0.004338223 -0.0043367194 -0.0043116184 -0.004398922
000110 e5 39 8e bb 80 f0 8e bb 85 60 8f bb 4e 18 8f bb
       -0.0043403977 -0.004362166 -0.0043755197 -0.004366911
000120 e9 38 8d bb e2 0f 8f bb fd b2 8e bb f9 c7 8d bb
       -0.0043097627 -0.004365907 -0.004354833 -0.004326817
000130 3a f9 8c bb b8 70 8e bb 8b aa 8f bb 9e a8 8c bb
       -0.004302171 -0.004346933 -0.004384344 -0.0042925617
000140 20 ce 8e bb c2 58 8d bb af b8 8f bb dd 12 8f bb
       -0.004358068 -0.0043135593 -0.0043860297 -0.0043662624
000150 bd 91 8d bb e2 bf 8c bb 78 7c 8f bb 35 50 8e bb
       -0.004320352 -0.004295335 -0.0043788515 -0.0043430575
000160 a5 07 8e bb 56 37 8d bb fd d0 8d bb b4 ee 8d bb
       -0.0043344074 -0.004309575 -0.004327892 -0.004331434
000170 ca d1 8e bb a9 10 8d bb 5e 5d 8e bb c6 4b 8e bb
       -0.004358505 -0.0043049646 -0.0043446263 -0.004342529
000180 58 db 8d bb 7c 64 8e bb b7 dc 8e bb f4 33 8e bb
       -0.0043291263 -0.0043454748 -0.0043598074 -0.0043396894
000190 27 2d 8d bb d3 6b 8d bb 13 a1 8f bb 5d 80 8f bb
       -0.004308361 -0.004315832 -0.004383215 -0.004379316
0001a0 0a 97 8d bb a8 37 8d bb 4c 6c 8d bb d5 30 8e bb
       -0.004320984 -0.0043096133 -0.0043158885 -0.0043393173
0001b0 3c 2f 8f bb 8c 37 8c bb ec 28 8f bb c6 83 8d bb
       -0.0043696444 -0.0042790826 -0.004368892 -0.004318687
0001c0 f0 65 8f bb 77 70 8b bb b2 14 8f bb fb 9c 8d bb
       -0.0043761656 -0.00425535 -0.0043664807 -0.004321692
0001d0 ea 46 8d bb 9c c6 8d bb 8f 2e 8e bb 70 b0 8e bb
       -0.004311432 -0.0043266546 -0.0043390463 -0.004354529
0001e0 76 0c 8d bb 0f d9 8c bb 1b 62 8e bb 26 31 8e bb
       -0.004304464 -0.0042983363 -0.004345191 -0.004339355
0001f0 4a 36 8e bb a6 eb 8d bb 10 64 8d bb 77 31 8c bb
       -0.004339968 -0.00433107 -0.004314907 -0.0042783576
000200 19 f5 8d bb 20 5b 8e bb c3 eb 8e bb 12 7a 8e bb
       -0.0043321964 -0.004344359 -0.004361601 -0.004348048
000210 cf ff 8c bb 22 86 8d bb 5f 6d 8d bb 30 5d 8e bb
       -0.0043029557 -0.0043189684 -0.0043160166 -0.004344605
000220 93 bb 8d bb c2 e1 8d bb 2e d9 8e bb b4 f6 8e bb
       -0.004325339 -0.004329891 -0.004359386 -0.0043629054
000230 b8 26 8f bb 06 4b 8d bb 30 cb 8e bb 45 0a 8d bb
       -0.0043686293 -0.004311922 -0.004357718 -0.0043042027
000240 ca d3 8e bb b6 62 8c bb 1f 43 8f bb 70 9f 8d bb
       -0.0043587433 -0.004284228 -0.004372015 -0.004321985
000250 41 b1 8e bb 85 4c 8c bb bb fa 8d bb 21 cc 8d bb
       -0.0043546264 -0.004281583 -0.004332868 -0.0043273126
000260 c4 ee 8d bb d1 1c 8c bb f6 c3 8f bb c4 42 8f bb
       -0.0043314416 -0.004275896 -0.004387374 -0.0043719728
000270 c2 04 8d bb db 77 8f bb 8f 8f 90 bb b4 a6 8d bb
       -0.0043035457 -0.0043783016 -0.004411645 -0.004322851
000280 40 07 8e bb 68 c0 8e bb 1a 4b 8f bb 75 d9 8d bb
       -0.0043343604 -0.0043564327 -0.0043729665 -0.0043289014
000290 18 61 8e bb 40 8d 8f bb d5 26 8d bb 5f 1e 8d bb
       -0.0043450706 -0.004380852 -0.0043076077 -0.004306599
0002a0 48 12 8e bb 4f b2 8f bb 3d 43 8d bb e2 0c 90 bb
       -0.0043356754 -0.0043852697 -0.004310994 -0.004396067
0002b0 58 4d 8d bb 4e 48 8d bb c4 12 8e bb ad 5d 8d bb
       -0.0043121986 -0.004311598 -0.004335733 -0.0043141455
0002c0 8c 85 8d bb c7 95 8e bb a2 fc 8d bb 9b c2 8d bb
       -0.0043188985 -0.004351351 -0.0043330947 -0.0043261773
0002d0 12 e8 8d bb c8 9b 8e bb d5 fb 8c bb 81 9c 8e bb
       -0.0043306435 -0.0043520667 -0.0043024817 -0.004352153
0002e0 c7 a1 8e bb 4d 97 8e bb 06 fe 8e bb 81 1f 8e bb
       -0.0043527815 -0.0043515326 -0.004363778 -0.0043372517
0002f0 16 0d 8e bb d6 b0 8d bb 37 45 90 bb ac 4f 8e bb
       -0.004335056 -0.004324059 -0.0044027823 -0.0043429937
000300 f7 58 8f bb 52 2d 8d bb c3 b5 8d bb 1b 1f 8f bb
       -0.004374619 -0.004308381 -0.004324646 -0.0043677217
000310 6e c4 8f bb 43 f5 8d bb fb 02 8e bb 7d 98 8d bb
       -0.00438743 -0.004332216 -0.0043338514 -0.0043211565
000320 c2 79 8e bb 96 ec 8d bb 80 15 8e bb 30 8d 8d bb
       -0.0043480108 -0.0043311818 -0.004336059 -0.0043198094
000330 d5 ca 8e bb 36 25 8e bb 1e 15 8f bb 4a 30 8e bb
       -0.0043576756 -0.004337932 -0.004366531 -0.0043392526
000340 d0 16 8e bb fc cc 8e bb c7 94 8e bb f7 ac 8e bb
       -0.0043362156 -0.004357932 -0.0043512317 -0.004354115
000350 ef 20 90 bb 17 01 8d bb 67 aa 8d bb cb bf 8f bb
       -0.0043984572 -0.0043031084 -0.004323292 -0.004386877
000360 8d 4a 8e bb 9c 2f 8e bb 3a 95 8e bb fc e4 8d bb
       -0.0043423832 -0.0043391716 -0.0043512853 -0.0043302756
000370 33 ac 8d bb ac 60 8e bb d3 ed 8c bb a3 b7 8e bb
       -0.0043235063 -0.0043450203 -0.004300812 -0.0043553873
000380 76 59 8d bb 03 56 8d bb a7 97 8f bb 6b 11 8f bb
       -0.004313643 -0.004313232 -0.004382092 -0.00436609
000390 de c8 8e bb fe 2b 8e bb a3 25 8f bb f9 c3 8e bb
       -0.0043574413 -0.0043387404 -0.0043685003 -0.004356858
0003a0 89 a3 8e bb 87 b7 8d bb a8 43 8d bb 61 10 8e bb
       -0.004352991 -0.0043248567 -0.004311044 -0.0043354486
0003b0 5c 7e 8f bb 55 aa 8f bb 0b a1 8e bb 66 36 8e bb
       -0.004379077 -0.004384319 -0.004352694 -0.004339981
0003c0 51 49 8e bb 84 4b 8d bb 4d bf 8e bb 5e fb 8c bb
       -0.004342236 -0.0043119807 -0.004356301 -0.0043024262
0003d0 11 ff 8e bb 7d bc 8e bb 4c 71 8d bb dc 83 8e bb
       -0.0043639024 -0.0043559656 -0.0043164846 -0.004349215
0003e0 df 04 8e bb 39 37 8f bb a4 b1 8e bb cd f1 8e bb
       -0.004334077 -0.0043705967 -0.0043546725 -0.004362321
0003f0 70 63 8f bb fd 3f 8f bb e8 bc 8e bb 31 a7 8e bb
       -0.0043758675 -0.0043716417 -0.0043560155 -0.004353427
