ntm_val_0.1088_epoch_127.pt (torch, 863092 bytes, 11 tensors)

read_vectors f4 [1, 32]
0.28347987 -0.68081814 1.3145403 -0.72802526 1.7722287 -0.7092367 0.42658922 0.86427224
-0.2665528 -0.054290127 1.5582031 0.17927176 -0.6180597 -0.695029 -1.389919 0.69182307
1.4776932 0.49457717 -0.25510445 -0.24399975 1.2975959 0.4570571 0.2808818 -0.8938198
0.01423942 -0.97079915 0.79440886 -1.2056552 -0.2598245 0.12196033 0.03664226 -1.0552732
00000000: 4624 913e 194a 2ebf db42 a83f dd5f 3abf
00000010: 64d8 e23f 8990 35bf e769 da3e f240 5d3f
00000020: 9c79 88be 535f 5ebd 3373 c73f 0493 373e
00000030: 2939 1ebf 6ced 31bf dee8 b1bf 511b 313f
00000040: 0d25 bd3f 3839 fd3e 0d9d 82be 12db 79be
00000050: 9f17 a63f 6303 ea3e bdcf 8f3e 60d1 64bf
00000060: 754c 693c 4b86 78bf 615e 4b3f e952 9abf
00000070: b807 85be 56c6 f93d 3216 163d 3113 87bf

memory.memory f4 [64, 32]
0.28347987 -0.68081814 1.3145403 -0.72802526 1.7722287 -0.7092367 0.42658922 0.86427224
-0.2665528 -0.054290127 1.5582031 0.17927176 -0.6180597 -0.695029 -1.389919 0.69182307
1.4776932 0.49457717 -0.25510445 -0.24399975 1.2975959 0.4570571 0.2808818 -0.8938198
0.01423942 -0.97079915 0.79440886 -1.2056552 -0.2598245 0.12196033 0.03664226 -1.0552732
0.28347987 -0.68081814 1.3145403 -0.72802526 1.7722287 -0.7092367 0.42658922 0.86427224
-0.2665528 -0.054290127 1.5582031 0.17927176 -0.6180597 -0.695029 -1.389919 0.69182307
1.4776932 0.49457717 -0.25510445 -0.24399975 1.2975959 0.4570571 0.2808818 -0.8938198
0.01423942 -0.97079915 0.79440886 -1.2056552 -0.2598245 0.12196033 0.03664226 -1.0552732
0.28347987 -0.68081814 1.3145403 -0.72802526 1.7722287 -0.7092367 0.42658922 0.86427224
-0.2665528 -0.054290127 1.5582031 0.17927176 -0.6180597 -0.695029 -1.389919 0.69182307
1.4776932 0.49457717 -0.25510445 -0.24399975 1.2975959 0.4570571 0.2808818 -0.8938198
0.01423942 -0.97079915 0.79440886 -1.2056552 -0.2598245 0.12196033 0.03664226 -1.0552732
0.28347987 -0.68081814 1.3145403 -0.72802526 1.7722287 -0.7092367 0.42658922 0.86427224
-0.2665528 -0.054290127 1.5582031 0.17927176 -0.6180597 -0.695029 -1.389919 0.69182307
1.4776932 0.49457717 -0.25510445 -0.24399975 1.2975959 0.4570571 0.2808818 -0.8938198
0.01423942 -0.97079915 0.79440886 -1.2056552 -0.2598245 0.12196033 0.03664226 -1.0552732
0.28347987 -0.68081814 1.3145403 -0.72802526 1.7722287 -0.7092367 0.42658922 0.86427224
-0.2665528 -0.054290127 1.5582031 0.17927176 -0.6180597 -0.695029 -1.389919 0.69182307
1.4776932 0.49457717 -0.25510445 -0.24399975 1.2975959 0.4570571 0.2808818 -0.8938198
0.01423942 -0.97079915 0.79440886 -1.2056552 -0.2598245 0.12196033 0.03664226 -1.0552732
0.28347987 -0.68081814 1.3145403 -0.72802526 1.7722287 -0.7092367 0.42658922 0.86427224
-0.2665528 -0.054290127 1.5582031 0.17927176 -0.6180597 -0.695029 -1.389919 0.69182307
1.4776932 0.49457717 -0.25510445 -0.24399975 1.2975959 0.4570571 0.2808818 -0.8938198
0.01423942 -0.97079915 0.79440886 -1.2056552 -0.2598245 0.12196033 0.03664226 -1.0552732
0.28347987 -0.68081814 1.3145403 -0.72802526 1.7722287 -0.7092367 0.42658922 0.86427224
-0.2665528 -0.054290127 1.5582031 0.17927176 -0.6180597 -0.695029 -1.389919 0.69182307
1.4776932 0.49457717 -0.25510445 -0.24399975 1.2975959 0.4570571 0.2808818 -0.8938198
0.01423942 -0.97079915 0.79440886 -1.2056552 -0.2598245 0.12196033 0.03664226 -1.0552732
0.28347987 -0.68081814 1.3145403 -0.72802526 1.7722287 -0.7092367 0.42658922 0.86427224
-0.2665528 -0.054290127 1.5582031 0.17927176 -0.6180597 -0.695029 -1.389919 0.69182307
1.4776932 0.49457717 -0.25510445 -0.24399975 1.2975959 0.4570571 0.2808818 -0.8938198
0.01423942 -0.97079915 0.79440886 -1.2056552 -0.2598245 0.12196033 0.03664226 -1.0552732
00000000: 4624 913e 194a 2ebf db42 a83f dd5f 3abf
00000010: 64d8 e23f 8990 35bf e769 da3e f240 5d3f
00000020: 9c79 88be 535f 5ebd 3373 c73f 0493 373e
00000030: 2939 1ebf 6ced 31bf dee8 b1bf 511b 313f
00000040: 0d25 bd3f 3839 fd3e 0d9d 82be 12db 79be
00000050: 9f17 a63f 6303 ea3e bdcf 8f3e 60d1 64bf
00000060: 754c 693c 4b86 78bf 615e 4b3f e952 9abf
00000070: b807 85be 56c6 f93d 3216 163d 3113 87bf
00000080: 4624 913e 194a 2ebf db42 a83f dd5f 3abf
00000090: 64d8 e23f 8990 35bf e769 da3e f240 5d3f
000000a0: 9c79 88be 535f 5ebd 3373 c73f 0493 373e
000000b0: 2939 1ebf 6ced 31bf dee8 b1bf 511b 313f
000000c0: 0d25 bd3f 3839 fd3e 0d9d 82be 12db 79be
000000d0: 9f17 a63f 6303 ea3e bdcf 8f3e 60d1 64bf
000000e0: 754c 693c 4b86 78bf 615e 4b3f e952 9abf
000000f0: b807 85be 56c6 f93d 3216 163d 3113 87bf
00000100: 4624 913e 194a 2ebf db42 a83f dd5f 3abf
00000110: 64d8 e23f 8990 35bf e769 da3e f240 5d3f
00000120: 9c79 88be 535f 5ebd 3373 c73f 0493 373e
00000130: 2939 1ebf 6ced 31bf dee8 b1bf 511b 313f
00000140: 0d25 bd3f 3839 fd3e 0d9d 82be 12db 79be
00000150: 9f17 a63f 6303 ea3e bdcf 8f3e 60d1 64bf
00000160: 754c 693c 4b86 78bf 615e 4b3f e952 9abf
00000170: b807 85be 56c6 f93d 3216 163d 3113 87bf
00000180: 4624 913e 194a 2ebf db42 a83f dd5f 3abf
00000190: 64d8 e23f 8990 35bf e769 da3e f240 5d3f
000001a0: 9c79 88be 535f 5ebd 3373 c73f 0493 373e
000001b0: 2939 1ebf 6ced 31bf dee8 b1bf 511b 313f
000001c0: 0d25 bd3f 3839 fd3e 0d9d 82be 12db 79be
000001d0: 9f17 a63f 6303 ea3e bdcf 8f3e 60d1 64bf
000001e0: 754c 693c 4b86 78bf 615e 4b3f e952 9abf
000001f0: b807 85be 56c6 f93d 3216 163d 3113 87bf
00000200: 4624 913e 194a 2ebf db42 a83f dd5f 3abf
00000210: 64d8 e23f 8990 35bf e769 da3e f240 5d3f
00000220: 9c79 88be 535f 5ebd 3373 c73f 0493 373e
00000230: 2939 1ebf 6ced 31bf dee8 b1bf 511b 313f
00000240: 0d25 bd3f 3839 fd3e 0d9d 82be 12db 79be
00000250: 9f17 a63f 6303 ea3e bdcf 8f3e 60d1 64bf
00000260: 754c 693c 4b86 78bf 615e 4b3f e952 9abf
00000270: b807 85be 56c6 f93d 3216 163d 3113 87bf
00000280: 4624 913e 194a 2ebf db42 a83f dd5f 3abf
00000290: 64d8 e23f 8990 35bf e769 da3e f240 5d3f
000002a0: 9c79 88be 535f 5ebd 3373 c73f 0493 373e
000002b0: 2939 1ebf 6ced 31bf dee8 b1bf 511b 313f
000002c0: 0d25 bd3f 3839 fd3e 0d9d 82be 12db 79be
000002d0: 9f17 a63f 6303 ea3e bdcf 8f3e 60d1 64bf
000002e0: 754c 693c 4b86 78bf 615e 4b3f e952 9abf
000002f0: b807 85be 56c6 f93d 3216 163d 3113 87bf
00000300: 4624 913e 194a 2ebf db42 a83f dd5f 3abf
00000310: 64d8 e23f 8990 35bf e769 da3e f240 5d3f
00000320: 9c79 88be 535f 5ebd 3373 c73f 0493 373e
00000330: 2939 1ebf 6ced 31bf dee8 b1bf 511b 313f
00000340: 0d25 bd3f 3839 fd3e 0d9d 82be 12db 79be
00000350: 9f17 a63f 6303 ea3e bdcf 8f3e 60d1 64bf
00000360: 754c 693c 4b86 78bf 615e 4b3f e952 9abf
00000370: b807 85be 56c6 f93d 3216 163d 3113 87bf
00000380: 4624 913e 194a 2ebf db42 a83f dd5f 3abf
00000390: 64d8 e23f 8990 35bf e769 da3e f240 5d3f
000003a0: 9c79 88be 535f 5ebd 3373 c73f 0493 373e
000003b0: 2939 1ebf 6ced 31bf dee8 b1bf 511b 313f
000003c0: 0d25 bd3f 3839 fd3e 0d9d 82be 12db 79be
000003d0: 9f17 a63f 6303 ea3e bdcf 8f3e 60d1 64bf
000003e0: 754c 693c 4b86 78bf 615e 4b3f e952 9abf
000003f0: b807 85be 56c6 f93d 3216 163d 3113 87bf

controller.lstm.weight_ih f4 [400, 64]
-0.039957277 -0.027983483 -0.0052548936 0.07490334 0.048281062 -0.0327475 -0.040338594 -0.018991962
-0.11249633 0.011373797 0.020850305 0.091963805 -0.0070123235 0.023117647 -0.0052727917 -0.006572643
0.11040376 -0.06987662 0.021599393 -0.014933393 -0.05120357 0.039266296 -0.039181042 -0.08215734
0.011988771 -0.07272804 -0.10425367 0.06733385 -0.032109797 -0.032693934 -0.008546837 0.016762454
0.02245672 -0.038560886 -0.10430609 0.08271463 -0.25306344 -0.078530304 0.06507585 -0.057701856
0.025930095 0.3453953 -0.1708127 0.41158104 0.014703151 -0.0391517 0.18950634 -0.062227953
-0.06083939 -0.12358426 0.23093513 0.10488242 -0.33057657 -0.10507811 0.05456919 0.07932719
-0.031212622 -0.03404518 0.078481704 0.16812968 -0.11276558 0.0039468277 -0.11603935 0.13637902
0.025752319 -0.063477606 0.085640304 0.03115172 0.18107378 -0.085705355 -0.14121357 0.08460943
-0.10054131 -0.13391301 0.02420204 0.071163975 -0.057388846 0.049896207 0.01137938 0.013618579
0.1172371 -0.1147786 0.058376122 -0.023508755 0.00063774013 0.03285175 -0.0499292 -0.22880659
0.11826643 -0.024586685 -0.07994906 -0.076633714 -0.16904786 -0.11955144 -1.5814305e-05 0.020299753
-0.043102425 -0.023391379 0.07666458 0.027703406 0.031357646 0.018340241 0.028739776 0.07422214
-0.06898067 0.060013615 0.0012935828 0.010547169 -0.034704395 -0.10289708 -0.14660172 -0.026563738
0.17646192 -0.03200214 -0.09557617 0.008130543 -0.019732174 -0.05234755 0.01675979 0.017874226
-0.045546412 -0.04518237 -0.009986242 -0.034945022 -0.0034609255 0.011377309 0.07972807 -0.06361893
0.085576035 -0.09902118 0.071340606 0.08915196 0.18491434 -0.034818936 -0.060930397 0.072418086
-0.121412694 -0.09151615 0.04667653 0.14472127 -0.03548943 0.12587282 0.04065386 0.023965927
0.0329347 -0.08082412 0.12895234 -0.0028728999 -0.00090517587 0.10531076 -0.06177827 -0.1569616
0.11792873 -0.10789662 -0.1303968 -0.10341459 -0.15142651 -0.15669699 0.017725857 0.050360784
0.026890567 0.09553162 -0.14291106 0.4672385 -0.093320295 -0.64102775 -0.22424075 -0.1702319
0.26123446 -0.10407098 0.047787778 0.7534414 0.16428384 -0.05671116 0.18891223 -0.035384573
-0.12013945 -0.1802529 -0.09984449 0.46576986 -0.4264479 -0.018066173 0.8139807 -0.4911734
-0.23340508 0.18496008 -0.15442288 -0.035047214 -0.3941606 0.0979563 -0.19520357 -0.057829075
0.15824094 -0.11243832 0.14847222 -0.054582994 0.07153754 -0.13032125 -0.035839304 0.08633343
0.013173584 -0.15630984 -0.08549478 0.049286075 0.007936311 0.09822209 0.04690413 0.08129057
-0.09976562 -0.07094009 -0.16611932 0.06749496 0.08914358 -0.12421174 -0.11244346 -0.21008308
0.021866018 0.06987205 0.013472818 -0.042764034 -0.07893146 -0.10184997 -0.023130307 -0.03675832
0.124704145 0.2444987 0.07434271 -0.090307735 0.115396135 -0.124911316 0.34776026 0.17815912
-0.22715671 -0.13798302 0.21908048 0.078092545 -0.0982189 -0.101206474 -0.106548585 0.14613473
-0.0011258218 -0.01202111 0.027896492 0.2069454 0.062872894 0.00822491 0.06786511 -0.09396681
-0.07928887 -0.039757673 -0.4773436 0.057328884 0.012975356 0.04222317 0.09219654 -0.06537227
00000000: 3eaa 23bd 9e3d e5bc 3e31 acbb ec66 993d
00000010: 5dc2 453d 3e22 06bd 153a 25bd 0895 9bbc
00000020: 7a64 e6bd 2a59 3a3c 42ce aa3c 8557 bc3d
00000030: a2c7 e5bb 3861 bd3c 62c7 acbb 535f d7bb
00000040: 5e1b e23d 791b 8fbd 36f1 b03c 31ab 74bc
00000050: d6ba 51bd b2d5 203d 4d7c 20bd 1c42 a8bd
00000060: 8d6c 443c 70f2 94bd f382 d5bd 54e6 893d
00000070: 9085 03bd 13ea 05bd 0808 0cbc 6a51 893c
00000080: 28f7 b73c 05f2 1dbd 6e9e d5bd 4a66 a93d
00000090: 8891 81be 7fd4 a0bd 7d46 853d c858 6cbd
000000a0: 5a6b d43c a7d7 b03e 86e9 2ebe c0ba d23e
000000b0: 7ce5 703c 885d 20bd f30d 423e bde2 7ebd
000000c0: b932 79bd bf19 fdbd 427a 6c3e 98cc d63d
000000d0: 5541 a9be 3133 d7bd f183 5f3d 4b76 a23d
000000e0: 9db1 ffbc f572 0bbd 04bb a03d 302a 2c3e
000000f0: a4f1 e6bd 6454 813b 0aa6 edbd f1a6 0b3e
00000100: 87f6 d23c 8c00 82bd 2f64 af3d e431 ff3c
00000110: 686b 393e 4a86 afbd 4a9a 10be b547 ad3d
00000120: 9ae8 cdbd 7e20 09be 5b43 c63c 6bbe 913d
00000130: 9110 6bbd f75f 4c3d 9470 3a3c 7620 5f3c
00000140: 011a f03d 0b11 ebbd cd1b 6f3d 6f95 c0bc
00000150: 042e 273a 8e8f 063d 9082 4cbd 464c 6abe
00000160: ac35 f23d 046a c9bc 55bc a3bd 23f2 9cbd
00000170: e21a 2dbe 63d7 f4bd f6a8 84b7 ab4b a63c
00000180: 2b8c 30bd 479f bfbc 5202 9d3d 41f2 e23c
00000190: e070 003d 463e 963c ae6f eb3c c701 983d
000001a0: bd45 8dbd d6d0 753d 708d a93a 08ce 2c3c
000001b0: 3226 0ebd b4bb d2bd c31e 16be 329c d9bc
000001c0: 6fb2 343e ad14 03bd 70bd c3bd f835 053c
000001d0: 5ea5 a1bc 626a 56bd d44b 893c f86c 923c
000001e0: e08e 3abd 2611 39bd 569d 23bc 8322 0fbd
000001f0: b2d0 62bb e567 3a3c 7848 a33d a44a 82bd
00000200: 7d42 af3d 9ecb cabd 061b 923d 4e95 b63d
00000210: 2f5a 3d3e 4d9e 0ebd 2792 79bd ef4f 943d
00000220: 38a7 f8bd d26c bbbd e42f 3f3d d031 143e
00000230: 5d5d 11bd cee4 003e a984 263d 3154 c43c
00000240: 89e6 063d 1e87 a5bd 150c 043e 4347 3cbb
00000250: 5349 6dba 2bad d73d 360b 7dbd 8bba 20be
00000260: 9e84 f13d e7f8 dcbd bd86 05be 07cb d3bd
00000270: 8d0f 1bbe 2d75 20be d135 913c 1c47 4e3d
00000280: 9b49 dc3c 15a6 c33d 4757 12be e239 ef3e
00000290: b61e bfbd 651a 24bf 5e9f 65be 4551 2ebe
000002a0: 86c0 853e 2a23 d5bd 1ebd 433d 89e1 403f
000002b0: 063a 283e f649 68bd 3572 413e 6aef 10bd
000002c0: ac0b f6bd 3794 38be 457b ccbd 6379 ee3e
000002d0: 6157 dabe 83ff 93bc 0a61 503f 147b fbbe
000002e0: be01 6fbe 2d66 3d3e 0821 1ebe ab8d 0fbd
000002f0: 6bcf c9be 509d c83d 72e3 47be 2ede 6cbd
00000300: ea09 223e 1046 e6bd 1a09 183e 6b92 5fbd
00000310: 4682 923d ef72 05be 3ccc 12bd 95cf b03d
00000320: 04d6 573c b00f 20be e317 afbd 32e0 493d
00000330: 4d07 023c aa28 c93d 8c1e 403d ac7b a63d
00000340: eb51 ccbd 0a49 91bd 2f1b 2abe cc3a 8a3d
00000350: e990 b63d ba62 febd c248 e6bd 0520 57be
00000360: 5d20 b33c 1419 8f3d 18bd 5c3c 5729 2fbd
00000370: d1a6 a1bd b896 d0bd c57b bdbc e48f 16bd
00000380: e364 ff3d de5d 7a3e fe40 983d 43f3 b8bd
00000390: cf54 ec3d 81d1 ffbd a20d b23e 586f 363e
000003a0: c59b 68be 6c4b 0dbe a256 603e fcee 9f3d
000003b0: fe26 c9bd 5745 cfbd 2536 dabd 58a4 153e
000003c0: 5090 93ba 31f4 44bc 2f87 e43c 7fe9 533e
000003d0: 81c3 803d c6c1 063c ddfc 8a3d ac71 c0bd
000003e0: 3462 a2bd f1d8 22bd 6166 f4be b1d1 6a3d
000003f0: 9696 543c 34f2 2c3d 8ad1 bc3d e6e1 85bd

controller.lstm.weight_hh f4 [400, 100]
-0.13897184 -0.38080326 -0.12671813 -0.33695632 0.025622828 0.0035416055 -0.1954643 0.36848977
0.115541436 -0.12838037 -0.0581162 -0.19681546 0.0062068193 0.2176563 -0.1257097 0.09390141
0.008063664 -0.076779105 0.023122454 0.107994534 0.09256299 -0.09840398 -0.039100695 -0.10394622
-0.09503336 0.20452534 0.025851376 -0.056876685 -0.09850976 0.00974818 0.016390428 -0.009926038
0.04181806 -0.15767823 -0.15590864 0.07223045 0.12085241 0.08378977 0.03461101 -0.23692611
0.0298182 0.21167997 -0.12965347 -0.107699096 0.02825419 -0.062457044 0.055958904 0.12470612
-0.06524837 -0.21216896 -0.013790774 0.055828787 0.0338706 0.12318945 -0.038726162 -0.095366314
0.037117593 0.074584104 -0.014503038 0.100463 0.2978834 0.013082453 0.17024723 0.02960324
0.21286146 -0.010121679 -0.026771275 0.25676578 -0.12796979 -0.06880976 0.13510983 0.022548186
-0.16617277 0.08960007 -0.09626288 0.033656415 -0.018507963 -0.20127562 -0.03429786 0.01899394
-0.04964769 -0.023026668 0.044859335 0.05842292 0.020754786 0.26867265 0.104488514 -0.09828347
0.111311674 -0.20859665 0.08798036 -0.10645646 0.21706773 -0.0958009 0.1339595 0.1288234
0.013252788 -0.069423325 -0.3271492 -0.09028668 -0.004368138 -0.08718721 -0.01182646 -0.01711969
-0.07828302 -0.06001652 0.10287014 0.003003338 0.07153078 -0.11334194 0.1710866 -0.056072798
0.021814048 0.012634975 -0.052202184 0.026643863 0.01811046 -0.18694547 0.06965861 -0.064705804
-0.0422081 -0.05650875 -0.0152278645 -0.100928 -0.042671397 0.069095716 -0.06754215 0.035365283
0.023293357 -0.02813068 0.11519976 0.15852323 0.024098385 -0.017325122 0.020890873 0.021660972
0.052770272 0.01770583 -0.041684706 -0.008427633 -0.10139217 -0.06717982 -7.527764e-05 0.0049022944
-0.0070723537 -0.037590317 0.008155997 -0.065104656 0.1311835 0.051672943 -0.0664908 -0.010700837
-0.0354423 -0.001297841 -0.0542564 0.07510494 0.072038226 0.051598653 -0.031338505 0.07576973
0.10025408 -0.055535406 0.004112005 -0.010676954 0.013614493 0.022616394 -0.049342748 -0.09785559
-0.04240687 -0.081670076 -0.027182953 -0.024766423 -0.0012155636 0.09193529 0.017277502 -0.057561137
0.009873016 0.09896837 -0.022679782 0.07054799 0.10270436 0.06991657 0.06216923 -0.10764527
0.0014000768 -0.004174301 0.10757243 -0.009722495 -0.121231854 -0.0110157905 0.019569768 0.10206082
-0.015968164 0.012474101 -0.06287762 -0.0017533663 0.09929862 0.0083684875 -0.0807331 -0.0587538
-0.41765356 0.11814156 0.73766077 -0.38623494 0.15246332 0.14802106 0.26026925 0.3927404
-0.4868772 -0.09164388 -0.9639471 -0.48574272 -2.870849 -0.19296418 -0.42006072 0.025378983
-0.0627022 0.16607402 0.055480383 0.076973535 0.62858963 0.21131377 -0.04834692 0.0916484
0.2119696 0.30547822 -0.0003157974 0.40312755 -0.79848963 0.13037619 -0.096788116 -0.13579309
-0.20411216 0.008578569 -0.054686964 -0.068561554 -0.33847967 -0.09311987 -0.05681013 0.34754536
0.12494824 -0.11173359 0.28102037 -0.004753089 0.019963404 0.50151145 -0.38079643 -0.10084122
-0.107384816 0.22538981 0.047638196 -0.064767145 0.040612265 -0.35788634 0.120489284 -0.19708312
00000000: a24e 0ebe a5f8 c2be 66c2 01be 8a85 acbe
00000010: f7e6 d13c 481a 683b cb27 48be b1aa bc3e
00000020: fda0 ec3d 2576 03be 410b 6ebd fe89 49be
00000030: 9362 cb3b 4be1 5e3e 0bba 00be 624f c03d
00000040: 751d 043c 5d3e 9dbd 4d6b bd3c 3d2c dd3d
00000050: aa91 bd3d 0788 c9bd 0d28 20bd c1e1 d4bd
00000060: daa0 c2bd 176f 513e 44c6 d33c 87f7 68bd
00000070: 7cbf c9bd d5b6 1f3c 3845 863c d2a0 22bc
00000080: 6a49 2b3d 6776 21be 84a6 1fbe 8fed 933d
00000090: 7881 f73d f999 ab3d 46c4 0d3d c29c 72be
000000a0: 4c45 f43c a2c2 583e e1c3 04be 5891 dcbd
000000b0: 5575 e73c f5d2 7fbd 2a35 653d ec65 ff3d
000000c0: f0a0 85bd d242 59be b3f2 61bc baac 643d
000000d0: e6bb 0a3d c04a fc3d 539f 1ebd 6a4f c3bd
000000e0: 9e08 183d 8dbf 983d 269e 6dbc 8cbf cd3d
000000f0: 2c84 983e c957 563c 4a55 2e3e 7e82 f23c
00000100: 5bf8 593e 66d5 25bc 6f4f dbbc ce76 833e
00000110: 830a 03be 22ec 8cbd 3b5a 0a3e f9b6 b83c
00000120: 3229 2abe 3e80 b73d 7925 c5bd 4fdb 093d
00000130: 039e 97bc 321b 4ebe ea7b 0cbd 2e99 9b3c
00000140: 605b 4bbd 6ca2 bcbc 6cbe 373d df4c 6f3d
00000150: f105 aa3c 768f 893e 13fe d53d d848 c9bd
00000160: 60f7 e33d 5c9a 55be 0c2f b43d d805 dabd
00000170: 0147 5e3e 4333 c4bd ae2c 093e 48ea 033e
00000180: 3922 593c d12d 8ebd 1a80 a7be 39e8 b8bd
00000190: 9922 8fbb 358f b2bd c5c3 41bc 983e 8cbc
000001a0: d952 a0bd e2d3 75bd 94ad d23d a6d3 443b
000001b0: bb7e 923d d21f e8bd 5331 2f3e 97ac 65bd
000001c0: 60b3 b23c ed02 4f3c f5d1 55bd 3b44 da3c
000001d0: 635c 943c a26e 3fbe 2ca9 8e3d 7a84 84bd
000001e0: 67e2 2cbd b875 67bd 4b7e 79bc 57b3 cebd
000001f0: 34c8 2ebd 0e82 8d3d 8a53 8abd 30db 103d
00000200: b6d1 be3c 5072 e6bc daed eb3d ea53 223e
00000210: fa69 c53c 6aed 8dbc 5623 ab3c 5a72 b13c
00000220: a425 583d d10b 913c 95bd 2abd 0e14 0abc
00000230: b3a6 cfbd 9395 89bd 60de 9db8 6da3 a03b
00000240: 34bf e7bb 4ef8 19bd bba0 053c 9755 85bd
00000250: f854 063e 02a7 533d 542c 88bd 9052 2fbc
00000260: f22b 11bd 511c aaba f53b 5ebd 9ed0 993d
00000270: c788 933d 1c59 533d ce5c 00bd 292d 9b3d
00000280: 0352 cd3d 1879 63bd ffbd 863b 64ee 2ebc
00000290: 530f 5f3c 0446 b93c 9f1b 4abd 8368 c8bd
000002a0: d3b2 2dbd a442 a7bd c9ae debc f4e2 cabc
000002b0: 8c53 9fba 9248 bc3d 8c89 8d3c 3ac5 6bbd
000002c0: 6ec2 213c eeaf ca3d f3ca b9bc 777b 903d
000002d0: aa56 d23d 6b30 8f3d 2aa5 7e3d 2075 dcbd
000002e0: c882 b73a 93c8 88bb ef4e dc3d 1a4b 1fbc
000002f0: 6848 f8bd 937b 34bc c750 a03c 4305 d13d
00000300: abcf 82bc 2c60 4c3c fbc5 80bd 36d1 e5ba
00000310: 135d cb3d fb1b 093c 6557 a5bd d3a7 70bd
00000320: b0d6 d5be 34f4 f13d 56d7 3c3f 96c0 c5be
00000330: 581f 1c3e d592 173e 0342 853e 4515 c93e
00000340: f847 f9be c9af bbbd 3dc5 76bf 45b3 f8be
00000350: fdbb 37c0 6798 45be 3312 d7be 96e7 cf3c
00000360: 036a 80bd 4f0f 2a3e 663f 633d 4da4 9d3d
00000370: 40eb 203f a362 583e 6c07 46bd 28b2 bb3d
00000380: 8f0e 593e a467 9c3e 9c91 a5b9 bc66 ce3e
00000390: d169 4cbf 5681 053e d938 c6bd 580d 0bbe
000003a0: c702 51be 208d 0c3c 70ff 5fbd 006a 8cbd
000003b0: 354d adbe a1b5 bebd bdb1 68bd 77f1 b13e
000003c0: dde4 ff3d 95d4 e4bd e7e1 8f3e cdbf 9bbb
000003d0: 4b8a a33c 0e63 003f c0f7 c2be d785 cebd
000003e0: 92ec dbbd 96cc 663e 4520 433d a3a4 84bd
000003f0: 0c59 263d e13c b7be 16c3 f63d 28d0 49be

controller.lstm.bias_ih f4 [400]
0.080090664 0.13175064 0.09781082 0.06934949 0.061019447 0.07385847 0.12724264 0.23436333
0.056329805 0.16478527 0.13834609 0.1454562 -0.07088877 0.24024002 0.06016557 -0.005174236
0.01597464 0.07701276 0.06779288 0.05936956 0.105293274 0.094470434 0.050527167 0.08817934
0.09284313 0.09654756 0.1978021 0.13325846 0.03697032 0.061842304 0.07357197 0.11125537
0.04452528 0.10433417 0.05222548 -0.015149344 -0.0077371364 0.11789749 0.025638774 0.17298204
0.08702739 0.14812501 0.14757694 -0.06602559 0.0934739 0.057750672 0.09764956 0.0647545
0.036287744 0.16020644 0.10213287 0.087078795 0.020513346 -0.025225524 0.1359889 0.13137577
0.13508847 0.11429672 0.027195653 0.09680514 -0.056501746 0.06314396 0.12114003 0.14990021
0.10330433 0.06041639 0.05099059 0.05430052 0.11434107 -0.0018424512 0.13525894 0.0131006725
0.043388665 0.10128146 0.010986632 0.11787136 0.01377043 0.014058852 0.08826762 0.096098885
0.12374283 0.09299614 0.078341514 0.072281875 0.14634904 0.06471508 -0.014419162 -0.038754042
0.03837834 0.000816797 -0.08849917 0.079279326 0.1585881 0.089888535 0.09243218 0.09203209
0.1062089 0.109488785 0.010391168 0.09298366 -0.024951436 0.0387226 0.10868856 -0.002137922
-0.013200743 0.068994 0.038998313 0.21604322 0.09095791 0.045684732 0.062304027 -0.06690432
0.014905618 -0.026760971 0.017465482 0.03889725 0.055339206 0.028564611 0.06820701 0.06155823
0.06434715 0.072110325 0.058011677 0.05503754 0.081507295 0.13167568 0.1680302 0.04031633
0.014746478 0.059787117 0.03272926 0.08058161 0.058407165 0.15506847 0.070888996 0.0971985
0.05052811 0.08296111 0.062100325 -0.059315033 0.06679125 0.13412409 0.029483752 -0.09420526
0.077001646 -0.025155025 0.033510976 0.078054965 -0.047196988 0.16843463 0.06633006 0.02643355
-0.04670583 -0.006366688 0.14892757 0.052683987 0.025206748 -0.03040968 -0.024608191 0.05553363
0.09981079 0.047629148 0.1559806 0.08692362 0.012078848 -0.028572556 0.0775336 -0.039379556
0.062255025 0.09083745 -0.020457521 -0.035545394 0.086952955 0.06829072 0.049360227 0.058857035
0.06025094 0.050624542 0.04619846 -0.10039282 -0.036804948 0.060178727 0.06111334 0.0410753
0.028015133 0.10330377 -0.0072935196 -0.07344975 0.011777442 0.015564681 0.06625937 0.08529533
0.027483204 -0.03300132 0.062939726 0.018330095 0.079020925 0.02413653 0.16796562 0.041325755
0.11657703 -0.0150886085 0.018995898 -0.026889024 -0.11701431 0.02862735 0.00787987 0.060893007
-0.033567023 -0.08538885 0.006801679 0.1283107 0.09471029 -0.047211416 0.08950141 -0.061242875
-0.0021526513 -0.07537086 -0.102383755 -0.09300868 -0.11893826 -0.11437847 0.083110645 -0.04867466
0.0652435 0.09176825 -0.132499 0.08014817 -0.14085387 -0.048101857 0.10965213 0.13104214
0.08403989 -0.17457683 -0.049577225 -0.021515526 0.0946552 -0.054102827 -0.01959462 -0.08414749
-0.10977363 -0.038580295 -0.040532537 0.013763338 0.022391343 -0.013186886 0.12941916 -0.05045221
0.00015585663 -0.06290669 -0.11782999 0.041459892 -0.0054872143 -0.17872 0.09693748 0.10746395
00000000: 9306 a43d a4e9 063e 0a51 c83d 1b07 8e3d
00000010: 87ef 793d 1c43 973d e54b 023e f1fc 6f3e
00000020: 15ba 663d 78bd 283e 99aa 0d3e 78f2 143e
00000030: 222e 91bd 7b01 763e 2c70 763d a38c a9bb
00000040: 40dd 823c deb8 9d3d fed6 8a3d 7f2d 733d
00000050: 00a4 d73d b779 c13d 93f5 4e3d 5f97 b43d
00000060: 8a24 be3d baba c53d a28c 4a3e e874 083e
00000070: 316e 173d 5b4e 7d3d e7ac 963d dbd9 e33d
00000080: 2460 363d 27ad d53d 63ea 553d f434 78bc
00000090: ce87 fdbb 3d74 f13d 6808 d23c 3422 313e
000000a0: 6b3b b23d 15ae 173e 691e 173e 6d38 87bd
000000b0: 3e6f bf3d f88b 6c3d 7efc c73d 029e 843d
000000c0: 75a2 143d 280d 243e 0a2b d13d 5e56 b23d
000000d0: 9b0b a83c c2a5 cebc ad40 0b3e 5f87 063e
000000e0: a254 0a3e 6614 ea3d 6bc9 de3c c641 c63d
000000f0: 606e 67bd 9f51 813d 4418 f83d 717f 193e
00000100: 3891 d33d 2d77 773d 82db 503d 396a 5e3d
00000110: a72b ea3d 677e f1ba 5281 0a3e 34a4 563c
00000120: 50b8 313d a76c cf3d 4601 343c 8a66 f13d
00000130: 5f9d 613c 1957 663c a7c5 b43d 7ecf c43d
00000140: e16c fd3d c374 be3d 8471 a03d 8508 943d
00000150: 86dc 153e 5789 843d 593e 6cbc 8fbc 1ebd
00000160: 9b32 1d3d 521e 563a 0e3f b5bd 335d a23d
00000170: eb64 223e 7b17 b83d 154d bd3d 527b bc3d
00000180: 0d84 d93d a83b e03d b83f 2a3c 386e be3d
00000190: f466 ccbc 979b 1e3d 1c98 de3d 611c 0cbb
000001a0: ee47 58bc ba4c 8d3d b2bc 1f3d 6f3a 5d3e
000001b0: 2448 ba3d ea1f 3b3d 8232 7f3d 2205 89bd
000001c0: b136 743c d339 dbbc c513 8f3c b952 1f3d
000001d0: 5dab 623d 5500 ea3c 1eb0 8b3d 7c24 7c3d
000001e0: 70c8 833d 94ae 933d a79d 6d3d 0b6f 613d
000001f0: 4ced a63d fdd5 063e 1c10 2c3e bc22 253d
00000200: 369b 713c 56e3 743d 1e0f 063d f907 a53d
00000210: 5a3c 6f3d 45ca 1e3e 402e 913d 0210 c73d
00000220: 90f6 4e3d 84e7 a93d e95c 7e3d 52f4 72bd
00000230: dac9 883d d357 093e e987 f13c b0ee c0bd
00000240: 0ab3 9d3d e911 cebc ce42 093d 48db 9f3d
00000250: a151 41bd 217a 2c3e 0ed8 873d 2c8b d83c
00000260: 9d4e 3fbd a69f d0bb 7880 183e 2acb 573d
00000270: 627e ce3c b91d f9bc 1e97 c9bc 3b77 633d
00000280: 9969 cc3d c816 433d 61b9 1f3e 0305 b23d
00000290: 5ce6 453c fe10 eabc f0c9 9e3d 754c 21bd
000002a0: 20ff 7e3d fc08 ba3d 8896 a7bc 0c98 11bd
000002b0: 6414 b23d 01dc 8b3d f32d 4a3d 1314 713d
000002c0: b1c9 763d ae5b 4f3d 993a 3d3d c09a cdbd
000002d0: c9c0 16bd f87d 763d fb51 7a3d 933e 283d
000002e0: fe7f e53c ed90 d33d 7afe eebb d36c 96bd
000002f0: 2cf6 403c 0103 7f3c feb2 873d 51af ae3d
00000300: 7524 e13c 642c 07bd 8be6 803d ff28 963c
00000310: b9d5 a13d f9b9 c53c 2eff 2b3e 3245 293d
00000320: f0bf ee3d 3636 77bc 499d 9b3c 5f46 dcbc
00000330: 33a5 efbd e883 ea3c 921a 013c f26a 793d
00000340: 937d 09bd 59e0 aebd 9ee0 de3b e163 033e
00000350: 78f7 c13d c260 41bd 844c b73d cfd9 7abd
00000360: 7f13 0dbb 0a5c 9abd 93ae d1bd 567b bebd
00000370: e795 f3bd 423f eabd ea35 aa3d 155f 47bd
00000380: 629e 853d fef0 bb3d d1ad 07be b924 a43d
00000390: ff3b 10be 7406 45bd 4c91 e03d e92f 063e
000003a0: 1b1d ac3d 45c4 32be 7d11 4bbd 5441 b0bc
000003b0: 96da c13d ed9a 5dbd e684 a0bc 8555 acbd
000003c0: ffd0 e0bd 5f06 1ebd 7205 26bd a07f 613c
000003d0: 0d6e b73c cf0d 58bc 7586 043e faa6 4ebd
000003e0: 726d 2339 39d5 80bd da50 f1bd d9d1 293d
000003f0: 17ce b3bb 6002 37be 2887 c63d 0f16 dc3d

controller.lstm.bias_hh f4 [400]
0.07107857 0.112532854 0.13302656 0.06542885 0.06087313 0.08928678 0.11401165 0.22378586
0.029665926 0.15973571 0.13156016 0.13686782 -0.012458157 0.2309064 0.047655083 0.0054542837
0.019214705 0.091960706 0.0665518 0.058960438 0.105448514 0.094471164 0.056765534 0.08818587
0.08701498 0.08964713 0.09724044 0.13279504 0.032388624 0.06412611 0.07549233 0.111147135
0.045099188 0.09183379 0.04781781 -0.021793691 0.025878016 0.1649876 0.02445993 0.12217389
0.08688375 0.09457123 0.14304338 -0.07718203 0.09393034 0.045763697 0.08227973 0.077358685
0.021373898 0.16182275 0.094714545 0.08705068 -0.0004792436 0.028204367 0.13148367 0.12986761
0.1230698 0.06451754 0.024780083 0.09099727 0.011043461 0.052078657 0.074537605 0.1442815
0.12316731 0.01114731 0.049695935 0.032119807 0.11338918 -0.039631244 0.15189369 0.022153733
0.07802587 0.10153187 0.054363005 0.093964756 -0.0024291405 0.03158328 0.08863689 0.1057388
0.0901599 0.09225984 0.07413487 0.07314389 0.13947673 0.06466741 -0.035459 -0.02964808
0.03593477 -0.013599117 -0.08584295 0.08421259 0.1368352 0.056039516 0.092583336 0.092242315
0.10619504 0.1096093 0.04815242 0.09616777 -0.024505062 0.112964 0.12548004 -0.005641558
-0.042325582 0.06588089 0.022987146 0.22208351 0.0908583 0.04559166 0.06542795 -0.059454802
0.11648066 -0.052612785 0.01391515 0.043073487 0.055250052 0.012238349 0.068208516 0.06155969
0.064347774 0.0721103 0.057245504 0.05495134 0.086308256 0.12719148 0.15064242 0.04031973
-0.0068247737 0.05938765 0.033707384 0.080580816 0.058407474 0.15877281 0.05339703 0.09489695
0.05499521 0.09496052 0.05817022 -0.046471793 0.06679123 0.10319843 0.05199999 -0.052337725
0.0780263 0.012591447 0.048359256 0.038430776 -0.05278589 0.18759754 0.06632934 0.0270769
-0.047371205 0.041254535 0.12306235 0.044329595 0.12184413 -0.032829728 -0.024569599 0.012418542
0.041089404 0.057436984 0.12924474 0.083102696 0.025508128 -0.05332986 0.0776501 -0.01416907
0.062255085 0.08547612 -0.0069545656 -0.036669593 0.03134149 0.06829153 0.038079944 0.05103147
0.06765001 0.07651713 0.04618501 -0.053457562 0.075493045 0.060178693 0.061113305 0.09868237
0.026676064 0.049337246 0.016519373 -0.047266345 0.010500749 0.11980925 0.11196517 0.08535225
0.0436401 -0.032483943 0.06293943 0.030106721 0.07902095 -0.0022350375 0.15354241 0.04035769
0.11974164 -0.09307354 0.060629003 -0.009827272 -0.112460695 -0.016252622 0.004862768 0.15888147
-0.033364877 -0.07282092 0.009052083 0.10544808 0.010064644 -0.044823024 0.068711214 -0.055386428
0.014270157 -0.12675343 -0.10342593 -0.09074455 -0.11883365 -0.11433926 0.035267875 -0.049322464
0.1420607 -6.208385e-05 0.0346849 0.024038034 -0.13378796 0.023502827 0.109756924 0.13104613
0.08387442 -0.08821482 -0.0076960074 0.103471436 0.09306647 -0.08999552 0.022799395 -0.11966795
-0.110535555 -0.011971363 -0.081347525 -0.076246865 0.005798292 -0.024574202 0.14257582 0.023748254
-0.035779525 -0.11232981 -0.11326968 0.048315257 -0.0037565865 -0.16307442 0.073244125 0.09429363
00000000: a491 913d a077 e63d 1d38 083e 90ff 853d
00000010: 1a56 793d fddb b63d f17e e93d 1f28 653e
00000020: f505 f33c c291 233e b5b7 063e 1427 0c3e
00000030: 4c1d 4cbc ba72 6c3e fa31 433d d9b9 b23b
00000040: 2868 9d3c e555 bc3d 4f4c 883d 8080 713d
00000050: 64f5 d73d 197a c13d fa82 683d cb9a b43d
00000060: e934 b23d ea98 b73d ff25 c73d 6cfb 073e
00000070: efa9 043d 8d54 833d b99b 9a3d 1ca1 e33d
00000080: edb9 383d 5b13 bc3d 9cdc 433d af88 b2bc
00000090: 22fe d33c 82f2 283e 3160 c83c 4e36 fa3d
000000a0: 1cf0 b13d 90ae c13d f779 123e 9d11 9ebd
000000b0: 8d5e c03d b772 3b3d 4682 a83d 3b6e 9e3d
000000c0: 5018 af3c ddb4 253e b3f9 c13d a047 b23d
000000d0: fd42 fbb9 d80c e73c a8a3 063e 04fc 043e
000000e0: 050c fc3d c621 843d 9aff ca3c c75c ba3d
000000f0: a2ef 343c 6e50 553d 2ca7 983d 88be 133e
00000100: 253f fc3d 35a3 363c f78d 4b3d 0f90 033d
00000110: 9638 e83d 5f54 22bd 058a 1b3e bf7b b53c
00000120: 07cc 9f3d f1ef cf3d beab 5e3d 9870 c03d
00000130: 3732 1fbb 785d 013d 4287 b53d 958d d83d
00000140: c1a5 b83d baf2 bc3d 06d4 973d 77cc 953d
00000150: fdd2 0e3e 5970 843d 753d 11bd 88e0 f2bc
00000160: 5630 133d d5ce 5ebc 6ece afbd a677 ac3d
00000170: 871e 0c3e b189 653d 559c bd3d 8ae9 bc3d
00000180: c97c d93d d77a e03d 793b 453d 9cf3 c43d
00000190: d7be c8bc ab59 e73d d77d 003e d2dc b8bb
000001a0: 975d 2dbd 8fec 863d 8a4f bc3c dc69 633e
000001b0: eb13 ba3d 52be 3a3d 17ff 853d e186 73bd
000001c0: 6a8d ee3d 8180 57bd 5ffc 633c d36d 303d
000001d0: e14d 623d 5b83 483c e8b0 8b3d 0326 7c3d
000001e0: c4c8 833d 91ae 933d 437a 6a3d a814 613d
000001f0: 62c2 b03d 7c3e 023e 0242 1a3e 4d26 253d
00000200: 5aa2 dfbb 7740 733d c110 0a3d 8e07 a53d
00000210: ad3c 6f3d 5795 223e d8b6 5a3d 5559 c23d
00000220: a842 613d a97a c23d e643 6e3d 3559 3ebd
00000230: d7c9 883d b359 d33d f1fd 543d 1560 56bd
00000240: 41cc 9f3d 5b4c 4e3c 5b14 463d 9769 1d3d
00000250: 0436 58bd 9219 403e add7 873d 60d0 dd3c
00000260: 4f08 42bd 84fa 283d 1d08 fc3d f392 353d
00000270: 6a89 f93d 7778 06bd 2f46 c9bc 2477 4b3c
00000280: 5d4d 283d 0b43 6b3d bc58 043e bf31 aa3d
00000290: 6cf6 d03c 6970 5abd 0407 9f3d 6325 68bc
000002a0: 30ff 7e3d 1b0e af3d 20e3 e3bb db32 16bd
000002b0: ef5f 003d 6edc 8b3d b7f9 1b3d 6006 513d
000002c0: 178c 8a3d 03b5 9c3d 7e2c 3d3d 51f6 5abd
000002d0: 199c 9a3d ef7d 763d f251 7a3d fb19 ca3d
000002e0: c387 da3c da15 4a3d a353 873c 5b9a 41bd
000002f0: 550b 2c3c 8d5e f53d ff4d e53d 29cd ae3d
00000300: f6bf 323d e20d 05bd 63e6 803d 5fa2 f63c
00000310: bcd5 a13d b579 12bb 393a 1d3e 1b4e 253d
00000320: 1b3b f53d 579d bebd 1e56 783d 9102 21bc
00000330: cb51 e6bd 3824 85bc db57 9f3b d3b1 223e
00000340: 9ca9 08bd 2223 95bd 304f 143c 2af5 d73d
00000350: 2de6 243c 5998 37bd 77b8 8c3d e1dc 62bd
00000360: 60cd 693c a7cb 01be f9d0 d3bd 47d8 b9bd
00000370: 0f5f f3bd b42a eabd 0c75 103d 5a06 4abd
00000380: 5c78 113e 0333 82b8 c111 0e3d 69eb c43c
00000390: b6ff 08be 0089 c03c 3dc8 e03d f530 063e
000003a0: 5ac6 ab3d f9a9 b4bd ca2e fcbb d5e8 d33d
000003b0: a299 be3d 924f b8bd ccc5 ba3c 7814 f5bd
000003c0: 7760 e2bd 8923 44bc 8899 a6bd 5127 9cbd
000003d0: 99ff bd3b d64f c9bc 65ff 113e b38b c23c
000003e0: 8d8d 12bd 2c0d e6bd eff9 e7bd 38e6 453d
000003f0: 1031 76bb fbfc 26be 0401 963d 051d c13d

controller.fc_out.weight f4 [1000, 100]
0.42739245 -0.30631918 -0.35643554 0.013447037 -0.22375269 0.278082 -0.21208885 0.5458005
-0.30266336 -0.5620758 0.17375328 0.5874732 -0.035142668 -0.7798607 0.26112768 -0.25984594
0.04289371 -0.33102068 -0.29180694 -0.18653081 -0.5069255 -0.35032007 0.11866166 -0.32488272
0.5239859 0.15644291 -0.39850888 0.41802582 -0.40150237 0.123891816 0.46979958 0.49635655
0.26054898 -0.5037684 -0.13550118 0.3582386 0.2594441 -0.51454765 0.10154305 -0.76441956
-0.4389418 -0.48227176 -0.63234603 -0.2342835 0.105936244 -0.05221535 0.5381377 -0.31952047
0.07642913 -0.6200477 -0.43599463 0.21783434 -0.016199242 -0.5548763 0.44017816 0.5669366
-0.5194463 0.31573662 -0.18230212 -0.66176015 0.068260655 -0.24931513 0.29566064 -0.7021004
0.74226886 0.32533398 -0.15054052 -0.66239023 -0.4182851 0.46096197 -0.49215937 0.0158859
-0.41337276 0.3653277 -0.30847308 0.8198985 -0.2136188 -0.0923466 -0.31219164 0.40438145
-0.4604227 0.42137733 0.4307917 -0.26249757 -0.61744577 0.2889079 -0.09250065 -0.11715209
-0.3453608 0.15942065 -0.04671656 -0.16307132 0.35955507 -0.36624995 -0.33605444 -0.29574224
0.44650555 0.29048204 -0.33361593 -0.22669591 0.22793934 -1.0117766 -0.32124525 -0.43960357
-0.41154936 1.4605926 -0.64763147 -0.29281685 -0.11738363 0.19211704 0.08500819 0.5789561
0.23751724 -1.1660438 -0.054207243 0.19784296 0.08834593 -0.22946948 -0.13230701 -0.14255644
-0.26468915 0.14286645 0.62002516 -0.04948066 -1.0983642 0.013539235 -0.23458458 -0.18509637
-0.14933893 -1.6064621 -0.6839357 -0.16733906 0.07494475 -0.09617157 0.16072078 0.24254012
-0.2400614 0.06612017 -0.2609113 0.4715028 0.8045132 -0.3365125 -0.1576026 0.0047633043
0.64173347 -0.012074337 0.10436183 0.34781975 0.016038293 0.7136226 -0.026568595 0.10916737
0.03413499 -0.44060743 0.32398438 -1.0290804 -0.7494724 -0.14996752 -0.02449622 -0.16010393
0.37363034 0.60376734 -0.41100675 -0.56866044 -0.37842995 -0.5723355 0.8526102 -0.9987512
0.6852633 -0.6129215 0.91292137 0.19108875 -0.57785255 -0.77300113 -0.06281714 -0.439179
0.13326138 0.37534013 -0.00495658 -1.0233725 0.07714777 -0.15562373 -0.5293482 -0.15292554
0.22681667 -0.07304672 -0.06712932 0.11597443 0.18058859 0.2030433 -0.3490022 -0.6628774
0.79527247 0.013893143 0.10577915 -2.8610163 -0.24140313 -0.9188264 1.9394906 0.5701571
0.26931006 0.50697845 -3.0299783 -0.26144373 -0.549055 0.052052934 0.36939806 0.63094145
1.4270478 -0.25187877 1.1295273 -1.8533875 1.0962398 0.82886744 0.013863303 -0.20987023
-0.28432968 -0.7244187 -0.6116951 -0.066643424 0.38996553 -0.7186748 -0.11962111 0.26023299
-0.5489637 -1.0898862 -0.124473974 -1.2737924 -0.085451216 -0.37235394 0.48899338 0.97774893
0.39606577 -0.5072187 0.26660994 0.724924 0.6089389 -2.7247322 -0.25707206 0.073006414
-0.13601969 -1.120141 0.23509386 -0.08924277 -1.1051886 -0.8562824 -0.18307039 0.97236484
0.11401605 -2.672176 -0.1593516 0.20401156 0.10216074 0.8520818 -0.28852683 1.4292487
00000000: 2fd3 da3e ded5 9cbe b87e b6be f650 5c3c
00000010: 6d1f 65be c460 8e3e d22d 59be 95b9 0b3f
00000020: b1f6 9abe 33e4 0fbf 61ec 313e a564 163f
00000030: c2f1 0fbd f3a4 47bf 87b2 853e 870a 85be
00000040: 51b1 2f3d 8b7b a9be b867 95be ef01 3fbe
00000050: dfc5 01bf 275d b3be e204 f33d 0757 a6be
00000060: f123 063f 9232 203e 5b09 ccbe 7b07 d63e
00000070: b891 cdbe feba fd3d 9289 f03e 7222 fe3e
00000080: ad66 853e f7f6 00bf d2c0 0abe 0d6b b73e
00000090: dbd5 843e 65b9 03bf cdf5 cf3d 00b1 43bf
000000a0: fbbc e0be 53ec f6be 6ee1 21bf 04e8 6fbe
000000b0: 1af5 d83d c3df 55bd 64c3 093f 3098 a3be
000000c0: e086 9c3d 72bb 1ebf b03a dfbe f70f 5f3e
000000d0: 46b4 84bc 600c 0ebf 085f e13e c222 113f
000000e0: 6ffa 04bf 3ba8 a13e 68ad 3abe 1d69 29bf
000000f0: 3ecc 8b3d 774c 7fbe d560 973e dabc 33bf
00000100: 5505 3e3f 2d92 a63e 4b27 1abe 6892 29bf
00000110: 7729 d6be 3503 ec3e 50fc fbbe 2623 823c
00000120: 98a5 d3be 3b0c bb3e 2ff0 9dbe dee4 513f
00000130: e3be 5abe 3720 bdbd 95d7 9fbe 160b cf3e
00000140: 86bc ebbe c5be d73e bb90 dc3e 1566 86be
00000150: ed10 1ebf bceb 933e fb70 bdbd 6fed efbd
00000160: 21d3 b0be 2b3f 233e dd59 3fbd 2bfc 26be
00000170: 9a17 b83e 1d85 bbbe 540f acbe 876b 97be
00000180: 609c e43e 10ba 943e b5cf aabe f922 68be
00000190: ee68 693e e581 81bf 427a a4be b813 e1be
000001a0: 99b6 d2be b3f4 ba3f 2dcb 25bf 17ec 95be
000001b0: d466 f0bd 54ba 443e c618 ae3d 7836 143f
000001c0: b837 733e ec40 95bf 6a08 5ebd 5897 4a3e
000001d0: b6ee b43d 0cfa 6abe 7d7b 07be 51fa 11be
000001e0: 5685 87be 954b 123e f8b9 1e3f 3cac 4abd
000001f0: 3397 8cbf abd3 5d3c f136 70be e789 3dbe
00000200: 4eec 18be 8da0 cdbf 6916 2fbf ee5a 2bbe
00000210: a27c 993d 9af5 c4bd fd93 243e 705c 783e
00000220: a8d2 75be 036a 873d 2a96 85be d168 f13e
00000230: 94f4 4d3f 5e4b acbe 9362 21be 7e15 9c3b
00000240: a548 243f 71d3 45bc a8bb d53d 6e15 b23e
00000250: bd62 833c f9af 363f 62a6 d9bc 2493 df3d
00000260: 22d1 0b3d 4c97 e1be 48e1 a53e e8b8 83bf
00000270: 6cdd 3fbf 1691 19be 4cac c8bc 49f2 23be
00000280: 7a4c bf3e 7f90 1a3f 7a6f d2be bb93 11bf
00000290: 92c1 c1be 9484 12bf a944 5a3f 29ae 7fbf
000002a0: 6a6d 2f3f 6ce8 1cbf 37b5 693f c5ac 433e
000002b0: 25ee 13bf 67e3 45bf 46a6 80bd 12dc e0be
000002c0: ac75 083e 952c c03e cf6a a2bb dffd 82bf
000002d0: a6ff 9d3d d45b 1fbe 5d83 07bf 8398 1cbe
000002e0: a142 683e 8599 95bd 197b 89bd 0184 ed3d
000002f0: 37ec 383e 95ea 4f3e 6bb0 b2be 55b2 29bf
00000300: fa96 4b3f 11a0 633c bda2 d83d e41a 37c0
00000310: 6232 77be 3538 6bbf 3a41 f83f d1f5 113f
00000320: 02e3 893e 57c9 013f 2aeb 41c0 f4db 85be
00000330: de8e 0cbf 7535 553d be21 bd3e 6185 213f
00000340: 81a9 b63f 41f6 80be 5a94 903f cd3b edbf
00000350: 9651 8c3f a830 543f e822 633c 39e8 56be
00000360: a993 91be 8173 39bf 0d98 1cbf 597c 88bd
00000370: 90a9 c73e 12fb 37bf eafb f4bd 423d 853e
00000380: e388 0cbf 6481 8bbf 36ec febd a10b a3bf
00000390: 0c01 afbd 2da5 bebe 575d fa3e c14d 7a3f
000003a0: 22c9 ca3e 16d9 01bf 1981 883e 9f94 393f
000003b0: 6be3 1b3f 0362 2ec0 f39e 83be 6384 953d
000003c0: bf48 0bbe c860 8fbf 72bc 703e eac4 b6bd
000003d0: d276 8dbf 5335 5bbf ce76 3bbe e7ec 783f
000003e0: 3f81 e93d ee04 2bc0 112d 23be 68e8 503e
000003f0: a639 d13d 0822 5a3f cab9 93be 9ff1 b63f

controller.fc_out.bias f4 [1000]
1.1307589 -0.027933974 0.22538422 0.19118491 0.1849775 -0.004204197 -0.02412978 0.5179255
0.3609761 0.2078393 0.24231218 -0.044860624 0.029457819 0.069303155 0.010415724 0.07968336
-0.16344938 -0.09298094 0.1018407 0.055684287 0.009034809 0.055741273 0.06410411 0.17179677
-0.021225404 0.034732644 0.024843587 -0.02505101 0.037185777 0.18622713 0.32707524 0.17961991
0.07998287 0.11390781 -0.004202717 -0.0042022225 -0.0042025647 -0.0042017805 -0.0042022667 -0.0042023747
-0.0042033778 -0.00420208 -0.0042024273 -0.0042022294 -0.004202354 -0.0042042756 -0.0042018318 -0.004202769
-0.004201905 -0.0042076022 -0.0042027165 -0.0042019193 -0.0042030904 -0.004202146 -0.0042022327 -0.004202754
-0.0042039566 -0.0042022676 -0.004201775 -0.004202675 -0.004201762 -0.0042031566 -0.004203071 -0.0042022113
-0.0042024753 -0.004202547 -0.0042033033 -0.0042016585 -0.0042024828 -0.0042020637 -0.0042018825 -0.0042019794
-0.0042033987 -0.0042020376 -0.0042022127 -0.004202798 -0.0042038965 -0.004202269 -0.0042017694 -0.0042045955
-0.004202119 -0.0042031975 -0.0042017433 -0.0042020204 -0.004203042 -0.004204206 -0.0042018415 -0.004202396
-0.0042026117 -0.0042035542 -0.0042027803 -0.004202635 -0.004202101 -0.004203702 -0.004202319 -0.004202436
-0.004202714 -0.0042023496 -0.0042020697 -0.004202472 -0.0042035487 -0.00420318 -0.0042017912 -0.004201846
-0.004202976 -0.0042034173 -0.0042032157 -0.0042024823 -0.004201946 -0.0042058676 -0.0042019435 -0.0042030057
-0.004201846 -0.0042108884 -0.0042019556 -0.004203004 -0.004203359 -0.0042028083 -0.0042024953 -0.004202118
-0.0042037447 -0.0042041116 -0.004202409 -0.00420248 -0.004202463 -0.004202605 -0.004203145 -0.0042060153
-0.004202626 -0.004202357 -0.0042020525 -0.0042022434 -0.004203902 -0.0042030676 -0.00420312 -0.004202318
-0.0042028544 -0.00420272 -0.0042020935 -0.0042020455 -0.0042019715 -0.004203368 -0.0042021326 -0.0042036804
-0.00420212 -0.0042054136 -0.004201914 -0.004202965 -0.0042021144 -0.0042054723 -0.004202622 -0.0042027654
-0.00420266 -0.004206265 -0.0042017675 -0.0042019184 -0.0042037163 -0.0042018336 -0.0042015356 -0.0042028767
-0.0042025894 -0.0042021703 -0.004201902 -0.00420274 -0.0042023277 -0.004201827 -0.0042036064 -0.0042037047
-0.004202576 -0.0042017773 -0.0042033247 -0.0042016674 -0.004203368 -0.004203368 -0.0042025098 -0.0042031556
-0.0042031207 -0.0042021964 -0.0042026597 -0.0042028055 -0.004202678 -0.004202234 -0.004203881 -0.004202226
-0.004202224 -0.0042022015 -0.004202029 -0.004202518 -0.0042025563 -0.00420288 -0.004201596 -0.004202371
-0.00420187 -0.004203552 -0.0042028474 -0.004201984 -0.004201739 -0.0042026467 -0.004202603 -0.004202952
-0.0042022765 -0.0042026713 -0.004202537 -0.0042029456 -0.004202154 -0.0042024786 -0.0042020055 -0.0042024534
-0.0042025414 -0.0042020762 -0.004202212 -0.004202202 -0.004201643 -0.0042037717 -0.004202903 -0.0042017438
-0.0042023933 -0.0042024422 -0.004202249 -0.004202676 -0.004202927 -0.004202384 -0.0042039044 -0.004202175
-0.0042032604 -0.0042032884 -0.0042018024 -0.0042020073 -0.004202137 -0.00420244 -0.004201959 -0.004202145
-0.004202199 -0.0042028073 -0.0042033726 -0.004202597 -0.004201807 -0.0042018006 -0.0042022024 -0.004202451
-0.0042024152 -0.0042033475 -0.0042021303 -0.0042038294 -0.0042020245 -0.0042021177 -0.004203216 -0.0042022676
-0.00420257 -0.0042019594 -0.004202171 -0.004202055 -0.004201869 -0.004201972 -0.0042021307 -0.004202238
00000000: b5bc 903f cad5 e4bc 1fcb 663e fac5 433e
00000010: be6a 3d3e 5cc3 89bb d1ab c5bc c496 043f
00000020: dcd1 b83e d3d3 543e af20 783e c6bf 37bd
00000030: 8651 f13c d0ee 8d3d b6a6 2a3c 0831 a33d
00000040: 465f 27be cb6c bebd db91 d03d 3515 643d
00000050: bc06 143c f650 643d 0449 833d 7eeb 2f3e
00000060: e6e0 adbc d143 0e3d c784 cb3c c737 cdbc
00000070: 1d50 183d 53b2 3e3e 6876 a73e 48ee 373e
00000080: 0fce a33d 7f48 e93d f2b6 89bb ccb2 89bb
00000090: abb5 89bb 17af 89bb 2bb3 89bb 13b4 89bb
000000a0: 7dbc 89bb 9ab1 89bb 84b4 89bb dbb2 89bb
000000b0: e6b3 89bb 05c4 89bb 85af 89bb 62b7 89bb
000000c0: 22b0 89bb eddf 89bb f1b6 89bb 41b0 89bb
000000d0: 14ba 89bb 28b2 89bb e2b2 89bb 41b7 89bb
000000e0: 58c1 89bb 2db3 89bb 0baf 89bb 98b6 89bb
000000f0: efae 89bb a2ba 89bb eab9 89bb b4b2 89bb
00000100: ebb4 89bb 85b5 89bb ddbb 89bb 11ae 89bb
00000110: fbb4 89bb 77b1 89bb f2af 89bb c2b0 89bb
00000120: aabc 89bb 3fb1 89bb b7b2 89bb a0b7 89bb
00000130: d7c0 89bb 30b3 89bb ffae 89bb b4c6 89bb
00000140: eeb1 89bb faba 89bb c7ae 89bb 1ab1 89bb
00000150: acb9 89bb 70c3 89bb 9aaf 89bb 41b4 89bb
00000160: 10b6 89bb f8bd 89bb 7ab7 89bb 42b6 89bb
00000170: c7b1 89bb 35bf 89bb 9bb3 89bb 97b4 89bb
00000180: ecb6 89bb ddb3 89bb 84b1 89bb e4b4 89bb
00000190: ecbd 89bb d4ba 89bb 2eaf 89bb a4af 89bb
000001a0: 1eb9 89bb d2bc 89bb 21bb 89bb fab4 89bb
000001b0: 7ab0 89bb 60d1 89bb 75b0 89bb 5eb9 89bb
000001c0: a4af 89bb 7efb 89bb 8fb0 89bb 5ab9 89bb
000001d0: 55bc 89bb b6b7 89bb 16b5 89bb ecb1 89bb
000001e0: 91bf 89bb a5c2 89bb 5db4 89bb f5b4 89bb
000001f0: d1b4 89bb 02b6 89bb 89ba 89bb 9dd2 89bb
00000200: 2fb6 89bb edb3 89bb 5fb1 89bb f9b2 89bb
00000210: e3c0 89bb e3b9 89bb 53ba 89bb 99b3 89bb
00000220: 19b8 89bb f8b6 89bb b7b1 89bb 50b1 89bb
00000230: b1b0 89bb 68bc 89bb 0bb2 89bb 07bf 89bb
00000240: f0b1 89bb 91cd 89bb 36b0 89bb 07b9 89bb
00000250: e4b1 89bb 0fce 89bb 26b6 89bb 5ab7 89bb
00000260: 78b6 89bb b5d4 89bb fbae 89bb 3fb0 89bb
00000270: 54bf 89bb 89af 89bb 09ad 89bb 49b8 89bb
00000280: e0b5 89bb 5cb2 89bb 1cb0 89bb 23b7 89bb
00000290: aeb3 89bb 7baf 89bb 68be 89bb 3bbf 89bb
000002a0: c3b5 89bb 10af 89bb 0bbc 89bb 24ae 89bb
000002b0: 68bc 89bb 68bc 89bb 35b5 89bb a0ba 89bb
000002c0: 55ba 89bb 94b2 89bb 77b6 89bb b0b7 89bb
000002d0: 9eb6 89bb e5b2 89bb b6c0 89bb d4b2 89bb
000002e0: cfb2 89bb 9fb2 89bb 2db1 89bb 47b5 89bb
000002f0: 99b5 89bb 50b8 89bb 8bad 89bb 0bb4 89bb
00000300: d7af 89bb f3bd 89bb 0ab8 89bb ccb0 89bb
00000310: beae 89bb 5bb6 89bb fdb5 89bb ebb8 89bb
00000320: 40b3 89bb 90b6 89bb 6fb5 89bb ddb8 89bb
00000330: 39b2 89bb f2b4 89bb fab0 89bb bcb4 89bb
00000340: 79b5 89bb 92b1 89bb b6b2 89bb a0b2 89bb
00000350: f0ad 89bb cbbf 89bb 81b8 89bb c8ae 89bb
00000360: 3bb4 89bb a4b4 89bb 05b3 89bb 9ab6 89bb
00000370: b5b8 89bb 27b4 89bb e8c0 89bb 66b2 89bb
00000380: 81bb 89bb bdbb 89bb 46af 89bb feb0 89bb
00000390: 14b2 89bb 9fb4 89bb 96b0 89bb 26b2 89bb
000003a0: 9ab2 89bb b4b7 89bb 72bc 89bb f0b5 89bb
000003b0: 50af 89bb 42af 89bb a1b2 89bb b7b4 89bb
000003c0: 6ab4 89bb 3cbc 89bb 06b2 89bb 47c0 89bb
000003d0: 23b1 89bb ebb1 89bb 22bb 89bb 2db3 89bb
000003e0: b6b5 89bb 97b0 89bb 5eb2 89bb 64b1 89bb
000003f0: d5af 89bb b2b0 89bb 07b2 89bb edb2 89bb
