ntm_val_0.1697_epoch_79.pt (torch, 863077 bytes, 11 tensors)

read_vectors f4 [1, 32]
0.47885975 -0.33071128 1.5504684 -0.32575405 1.7581016 0.009267904 0.40737453 1.0847187
-0.7094492 -0.6581696 1.8710438 0.2802039 -0.5446433 -0.8719472 -1.0994779 0.6564177
1.4505744 0.8499388 -0.4690693 -0.28328806 1.5058516 0.5382623 0.36612114 -0.7464298
-0.1124805 -0.87892056 0.8865138 -1.5568699 -0.10377982 0.12184514 0.14772229 -1.4579297
00000000: 1b2d f53e fd52 a9be c075 c63f 3cc9 a6be
00000010: 7909 e13f 68d8 173c 6593 d03e 10d8 8a3f
00000020: 769e 35bf ce7d 28bf 5d7e ef3f e376 8f3e
00000030: be6d 0bbf ef37 5fbf b1bb 8cbf fe0a 283f
00000040: 6cac b93f 9795 593f da29 f0be 220b 91be
00000050: bfbf c03f 8fcb 093f 3b74 bb3e 0616 3fbf
00000060: 2d5c e6bd f000 61bf 92f2 623f 8347 c7bf
00000070: 848a d4bd f289 f93d 8344 173e 719d babf

memory.memory f4 [64, 32]
0.47885975 -0.33071128 1.5504684 -0.32575405 1.7581016 0.009267904 0.40737453 1.0847187
-0.7094492 -0.6581696 1.8710438 0.2802039 -0.5446433 -0.8719472 -1.0994779 0.6564177
1.4505744 0.8499388 -0.4690693 -0.28328806 1.5058516 0.5382623 0.36612114 -0.7464298
-0.1124805 -0.87892056 0.8865138 -1.5568699 -0.10377982 0.12184514 0.14772229 -1.4579297
0.47885975 -0.33071128 1.5504684 -0.32575405 1.7581016 0.009267904 0.40737453 1.0847187
-0.7094492 -0.6581696 1.8710438 0.2802039 -0.5446433 -0.8719472 -1.0994779 0.6564177
1.4505744 0.8499388 -0.4690693 -0.28328806 1.5058516 0.5382623 0.36612114 -0.7464298
-0.1124805 -0.87892056 0.8865138 -1.5568699 -0.10377982 0.12184514 0.14772229 -1.4579297
0.47885975 -0.33071128 1.5504684 -0.32575405 1.7581016 0.009267904 0.40737453 1.0847187
-0.7094492 -0.6581696 1.8710438 0.2802039 -0.5446433 -0.8719472 -1.0994779 0.6564177
1.4505744 0.8499388 -0.4690693 -0.28328806 1.5058516 0.5382623 0.36612114 -0.7464298
-0.1124805 -0.87892056 0.8865138 -1.5568699 -0.10377982 0.12184514 0.14772229 -1.4579297
0.47885975 -0.33071128 1.5504684 -0.32575405 1.7581016 0.009267904 0.40737453 1.0847187
-0.7094492 -0.6581696 1.8710438 0.2802039 -0.5446433 -0.8719472 -1.0994779 0.6564177
1.4505744 0.8499388 -0.4690693 -0.28328806 1.5058516 0.5382623 0.36612114 -0.7464298
-0.1124805 -0.87892056 0.8865138 -1.5568699 -0.10377982 0.12184514 0.14772229 -1.4579297
0.47885975 -0.33071128 1.5504684 -0.32575405 1.7581016 0.009267904 0.40737453 1.0847187
-0.7094492 -0.6581696 1.8710438 0.2802039 -0.5446433 -0.8719472 -1.0994779 0.6564177
1.4505744 0.8499388 -0.4690693 -0.28328806 1.5058516 0.5382623 0.36612114 -0.7464298
-0.1124805 -0.87892056 0.8865138 -1.5568699 -0.10377982 0.12184514 0.14772229 -1.4579297
0.47885975 -0.33071128 1.5504684 -0.32575405 1.7581016 0.009267904 0.40737453 1.0847187
-0.7094492 -0.6581696 1.8710438 0.2802039 -0.5446433 -0.8719472 -1.0994779 0.6564177
1.4505744 0.8499388 -0.4690693 -0.28328806 1.5058516 0.5382623 0.36612114 -0.7464298
-0.1124805 -0.87892056 0.8865138 -1.5568699 -0.10377982 0.12184514 0.14772229 -1.4579297
0.47885975 -0.33071128 1.5504684 -0.32575405 1.7581016 0.009267904 0.40737453 1.0847187
-0.7094492 -0.6581696 1.8710438 0.2802039 -0.5446433 -0.8719472 -1.0994779 0.6564177
1.4505744 0.8499388 -0.4690693 -0.28328806 1.5058516 0.5382623 0.36612114 -0.7464298
-0.1124805 -0.87892056 0.8865138 -1.5568699 -0.10377982 0.12184514 0.14772229 -1.4579297
0.47885975 -0.33071128 1.5504684 -0.32575405 1.7581016 0.009267904 0.40737453 1.0847187
-0.7094492 -0.6581696 1.8710438 0.2802039 -0.5446433 -0.8719472 -1.0994779 0.6564177
1.4505744 0.8499388 -0.4690693 -0.28328806 1.5058516 0.5382623 0.36612114 -0.7464298
-0.1124805 -0.87892056 0.8865138 -1.5568699 -0.10377982 0.12184514 0.14772229 -1.4579297
00000000: 1b2d f53e fd52 a9be c075 c63f 3cc9 a6be
00000010: 7909 e13f 68d8 173c 6593 d03e 10d8 8a3f
00000020: 769e 35bf ce7d 28bf 5d7e ef3f e376 8f3e
00000030: be6d 0bbf ef37 5fbf b1bb 8cbf fe0a 283f
00000040: 6cac b93f 9795 593f da29 f0be 220b 91be
00000050: bfbf c03f 8fcb 093f 3b74 bb3e 0616 3fbf
00000060: 2d5c e6bd f000 61bf 92f2 623f 8347 c7bf
00000070: 848a d4bd f289 f93d 8344 173e 719d babf
00000080: 1b2d f53e fd52 a9be c075 c63f 3cc9 a6be
00000090: 7909 e13f 68d8 173c 6593 d03e 10d8 8a3f
000000a0: 769e 35bf ce7d 28bf 5d7e ef3f e376 8f3e
000000b0: be6d 0bbf ef37 5fbf b1bb 8cbf fe0a 283f
000000c0: 6cac b93f 9795 593f da29 f0be 220b 91be
000000d0: bfbf c03f 8fcb 093f 3b74 bb3e 0616 3fbf
000000e0: 2d5c e6bd f000 61bf 92f2 623f 8347 c7bf
000000f0: 848a d4bd f289 f93d 8344 173e 719d babf
00000100: 1b2d f53e fd52 a9be c075 c63f 3cc9 a6be
00000110: 7909 e13f 68d8 173c 6593 d03e 10d8 8a3f
00000120: 769e 35bf ce7d 28bf 5d7e ef3f e376 8f3e
00000130: be6d 0bbf ef37 5fbf b1bb 8cbf fe0a 283f
00000140: 6cac b93f 9795 593f da29 f0be 220b 91be
00000150: bfbf c03f 8fcb 093f 3b74 bb3e 0616 3fbf
00000160: 2d5c e6bd f000 61bf 92f2 623f 8347 c7bf
00000170: 848a d4bd f289 f93d 8344 173e 719d babf
00000180: 1b2d f53e fd52 a9be c075 c63f 3cc9 a6be
00000190: 7909 e13f 68d8 173c 6593 d03e 10d8 8a3f
000001a0: 769e 35bf ce7d 28bf 5d7e ef3f e376 8f3e
000001b0: be6d 0bbf ef37 5fbf b1bb 8cbf fe0a 283f
000001c0: 6cac b93f 9795 593f da29 f0be 220b 91be
000001d0: bfbf c03f 8fcb 093f 3b74 bb3e 0616 3fbf
000001e0: 2d5c e6bd f000 61bf 92f2 623f 8347 c7bf
000001f0: 848a d4bd f289 f93d 8344 173e 719d babf
00000200: 1b2d f53e fd52 a9be c075 c63f 3cc9 a6be
00000210: 7909 e13f 68d8 173c 6593 d03e 10d8 8a3f
00000220: 769e 35bf ce7d 28bf 5d7e ef3f e376 8f3e
00000230: be6d 0bbf ef37 5fbf b1bb 8cbf fe0a 283f
00000240: 6cac b93f 9795 593f da29 f0be 220b 91be
00000250: bfbf c03f 8fcb 093f 3b74 bb3e 0616 3fbf
00000260: 2d5c e6bd f000 61bf 92f2 623f 8347 c7bf
00000270: 848a d4bd f289 f93d 8344 173e 719d babf
00000280: 1b2d f53e fd52 a9be c075 c63f 3cc9 a6be
00000290: 7909 e13f 68d8 173c 6593 d03e 10d8 8a3f
000002a0: 769e 35bf ce7d 28bf 5d7e ef3f e376 8f3e
000002b0: be6d 0bbf ef37 5fbf b1bb 8cbf fe0a 283f
000002c0: 6cac b93f 9795 593f da29 f0be 220b 91be
000002d0: bfbf c03f 8fcb 093f 3b74 bb3e 0616 3fbf
000002e0: 2d5c e6bd f000 61bf 92f2 623f 8347 c7bf
000002f0: 848a d4bd f289 f93d 8344 173e 719d babf
00000300: 1b2d f53e fd52 a9be c075 c63f 3cc9 a6be
00000310: 7909 e13f 68d8 173c 6593 d03e 10d8 8a3f
00000320: 769e 35bf ce7d 28bf 5d7e ef3f e376 8f3e
00000330: be6d 0bbf ef37 5fbf b1bb 8cbf fe0a 283f
00000340: 6cac b93f 9795 593f da29 f0be 220b 91be
00000350: bfbf c03f 8fcb 093f 3b74 bb3e 0616 3fbf
00000360: 2d5c e6bd f000 61bf 92f2 623f 8347 c7bf
00000370: 848a d4bd f289 f93d 8344 173e 719d babf
00000380: 1b2d f53e fd52 a9be c075 c63f 3cc9 a6be
00000390: 7909 e13f 68d8 173c 6593 d03e 10d8 8a3f
000003a0: 769e 35bf ce7d 28bf 5d7e ef3f e376 8f3e
000003b0: be6d 0bbf ef37 5fbf b1bb 8cbf fe0a 283f
000003c0: 6cac b93f 9795 593f da29 f0be 220b 91be
000003d0: bfbf c03f 8fcb 093f 3b74 bb3e 0616 3fbf
000003e0: 2d5c e6bd f000 61bf 92f2 623f 8347 c7bf
000003f0: 848a d4bd f289 f93d 8344 173e 719d babf

controller.lstm.weight_ih f4 [400, 64]
0.047166508 -0.006694771 -0.025646921 0.03143108 0.01701195 -0.011966525 -0.016364135 -0.0033444732
-0.09041974 0.03177856 0.038153864 0.06443513 0.008691021 0.003459158 0.015022225 0.019451624
0.16856056 -0.053827263 -0.022313893 0.0724897 0.01613917 -0.004534011 -0.026444107 -0.050493013
-0.015882816 -0.04509003 -0.07570477 0.1086453 -0.0028469476 -0.013148844 -0.010416804 0.06331283
-0.026110651 -0.06519366 -0.08317922 -0.034899514 -0.14950503 -0.052396275 -0.014069934 -0.07494898
0.07916823 0.3010832 -0.14414975 0.27471605 0.030736612 -0.025268072 0.15035719 0.0061917547
-0.085527465 -0.034084268 0.183159 0.071948804 -0.18618093 -0.14420147 0.06666637 0.1233446
0.036372352 -0.003758631 0.07360059 0.13833392 -0.14908166 -0.023786781 -0.1970769 0.1443907
0.01230494 -0.11519838 0.14307076 0.07368367 0.21262644 -0.09140604 -0.14857404 0.078993514
-0.10050868 -0.14505634 0.055641 0.0877777 -0.1296895 0.10781057 -0.004617696 0.0112698665
0.15135354 -0.13123113 0.085804835 -0.04160461 -0.033375893 0.07421862 -0.05065728 -0.16325204
0.18406968 -0.044732094 -0.08831733 -0.070370495 -0.22186832 -0.09749198 0.013857954 0.02957231
-0.01861542 -0.014806358 0.09700585 0.021868782 0.04118382 -0.00945109 0.034620255 0.11254284
-0.07103388 -0.045339853 0.02856846 -0.024250664 -0.083213516 -0.07652128 -0.04184399 -0.032940432
0.15248819 -0.036318626 -0.051068947 0.012021434 0.0025844814 -0.05586161 0.0297839 0.02468617
-0.087854564 -0.048450876 0.016560506 -0.06494871 0.022054728 0.005082649 0.05861076 -0.05956591
-0.09110776 -0.10821277 0.09476291 0.085143946 0.19029912 -0.035921343 -0.061669372 0.08447061
-0.114838764 -0.10263764 0.02318049 0.14438613 -0.045940936 0.1394223 -0.044427242 -0.0016133661
-0.09172193 -0.07816664 0.151773 -0.22976428 -0.07855413 0.1391944 -0.06364248 -0.15560642
0.12853275 -0.1032626 -0.12636425 -0.12685376 -0.15669258 -0.16113387 0.06007594 -0.04413634
0.039472643 -0.030358741 -0.10184846 0.30465817 0.014356996 -0.47968954 -0.18494065 -0.14021863
0.3585083 -0.15511872 0.09848536 0.49086177 0.17846848 -0.05678831 0.21911211 0.077236995
-0.08311587 -0.09950222 -0.2236589 0.6174541 -0.35034734 -0.08570047 0.56684804 -0.5014808
-0.047988832 0.17631535 -0.14535314 -0.093692705 -0.3302948 -0.04332503 -0.2340999 -0.063897885
0.09594735 -0.030697057 0.12035353 -0.015337811 -0.017260477 -0.023767542 0.082673624 0.027253168
0.049505003 -0.10799904 -0.07524975 0.04725465 0.066735364 -0.0033187545 -0.010208437 0.048967745
-0.083190694 -0.004804598 -0.155004 0.0044100615 0.038193777 -0.08653458 -0.008812916 -0.06731915
-0.039979745 0.054391425 0.029029842 -0.020481816 0.012905772 -0.0148521885 -0.009643863 -0.031423498
0.16526134 0.0029941043 0.10606138 -0.07958947 0.22231983 -0.21767071 0.25765777 0.1697651
-0.08240489 -0.11679074 0.31115112 0.05175668 -0.048119083 -0.10411838 -0.14492857 0.32841942
-0.015789267 0.18741877 0.028672205 0.17501332 0.19413644 0.055780996 -0.06378058 -0.11852736
-0.08448858 -0.043072294 -0.5071207 0.006947258 0.009396029 -0.05249322 0.028354915 -0.063351795
00000000: ab31 413d cf5f dbbb 7e19 d2bc e0bd 003d
00000010: a55c 8b3c 3e0f 44bc 140e 86bc f32e 5bbb
00000020: fc2d b9bd 3c2a 023d 3a47 1c3d 91f6 833d
00000030: c964 0e3c 0ab3 623b c71f 763c 0359 9f3c
00000040: 249b 2c3e fa79 5cbd a0cb b6bc 7b75 943d
00000050: 4b36 843c 0a92 94bb 50a1 d8bc c3d1 4ebd
00000060: ae1c 82bc 53b0 38bd 1a0b 9bbd 6d81 de3d
00000070: db93 3abb 406e 57bc 3eab 2abc 28aa 813d
00000080: 01e6 d5bc 4184 85bd de59 aabd cbf2 0ebd
00000090: d917 19be 7a9d 56bd 9585 66bc da7e 99bd
000000a0: f422 a23d 9427 9a3e fe9b 13be 95a7 8c3e
000000b0: 59cb fb3c fdfe cebc 3cf7 193e 34e4 ca3b
000000c0: 0629 afbd f29b 0bbd 088e 3b3e e559 933d
000000d0: 37a6 3ebe 8da9 13be 6188 883d 189c fc3d
000000e0: 2dfb 143d 5d53 76bb e8bb 963d 68a7 0d3e
000000f0: dda8 18be 7fdc c2bc 87ce 49be 28db 133e
00000100: a99a 493c 21ed ebbd 2481 123e 77e7 963d
00000110: bfba 593e 1733 bbbd cb23 18be 5ac7 a13d
00000120: 7fd7 cdbd a689 14be d1e7 633d cbc4 b33d
00000130: 53cd 04be cacb dc3d 0b50 97bb 3fa5 383c
00000140: 6cfc 1a3e 7461 06be 72ba af3d 9869 2abd
00000150: 29b5 08bd efff 973d 027e 4fbd 8b2b 27be
00000160: c37c 3c3e 0039 37bd b7df b4bd 681e 90bd
00000170: 7331 63be e0a9 c7bd 790c 633c a141 f23c
00000180: 5e7f 98bc 5e96 72bc 01ab c63d 2926 b33c
00000190: 5eb0 283d bfd8 1abc f8cd 0d3d dc7c e63d
000001a0: 367a 91bd 48b6 39bd 6708 ea3c 54a9 c6bc
000001b0: d96b aabd 30b7 9cbd 9b64 2bbd 8cec 06bd
000001c0: dd25 1c3e d7c2 14bd ac2d 51bd 8cf5 443c
000001d0: 6760 293b 25cf 64bd 5efd f33c a73a ca3c
000001e0: 18ed b3bd 6d74 46bd e6a9 873c d403 85bd
000001f0: 1eac b43c 5a8c a63b d611 703d 62fb 73bd
00000200: b596 babd a89e ddbd 0e13 c23d f35f ae3d
00000210: c6dd 423e 4222 13bd 0699 7cbd edfe ac3d
00000220: 9630 ebbd af33 d2bd 03e5 bd3c f5d9 133e
00000230: 902c 3cbd b8c4 0e3e 57f9 35bd 9577 d3ba
00000240: b5d8 bbbd d515 a0bd 626a 1b3e 5447 6bbe
00000250: fde0 a0bd fa88 0e3e fd56 82bd 4a57 1fbe
00000260: 179e 033e 587b d3bd a165 01be f4e5 01be
00000270: 0574 20be 4700 25be 3012 763d 4fc8 34bd
00000280: 11ae 213d e5b2 f8bc ed95 d0bd 28fc 9b3e
00000290: 9b39 6b3c de99 f5be 1561 3dbe 7995 0fbe
000002a0: 668e b73e 71d7 1ebe b1b2 c93d 3c52 fb3e
000002b0: 71c0 363e dc9a 68bd ed5e 603e 6e2e 9e3d
000002c0: a738 aabd d2c7 cbbd d706 65be 7911 1e3f
000002d0: ba60 b3be ba83 afbd f41c 113f 0c61 00bf
000002e0: f08f 44bd 038c 343e 74d7 14be f6e1 bfbd
000002f0: 661c a9be 9675 31bd e2b7 6fbe e5dc 82bd
00000300: 0b80 c43d 6578 fbbc e97b f63d 714b 7bbc
00000310: d865 8dbc 26b4 c2bc ca50 a93d 0942 df3c
00000320: c2c5 4a3d 9a2e ddbd 8a1c 9abd 188e 413d
00000330: 8dac 883d 767f 59bb 4a41 27bc 6792 483d
00000340: e25f aabd e46f 9dbb 5eb9 1ebe 4782 903b
00000350: 1471 1c3d 0b39 b1bd 0d64 10bc 9fde 89bd
00000360: cdc1 23bd 8bc9 5e3d fecf ed3c 7bc9 a7bc
00000370: bb72 533c 9856 73bc 4b01 1ebc edb5 00bd
00000380: 453a 293e bc38 443b b536 d93d ceff a2bd
00000390: cfa7 633e 12e5 5ebe b8eb 833e e7d6 2d3e
000003a0: e5c3 a8bd fc2f efbd 334f 9f3e d0fe 533d
000003b0: 8418 45bd 043c d5bd 2868 14be 9726 a83e
000003c0: 7e58 81bc b5ea 3f3e f9e1 ea3c b136 333e
000003d0: b4cb 463e 9d7a 643d 659f 82bd 79be f2bd
000003e0: 5908 adbd 936c 30bd aad2 01bf d3a5 e33b
000003f0: cdf1 193c 2103 57bd 9148 e83c 96be 81bd

controller.lstm.weight_hh f4 [400, 100]
-0.10468332 -0.19040023 -0.07201876 -0.23336634 0.023122093 -0.028145133 -0.18990996 0.18930794
0.040874377 -0.07474329 -0.041129507 -0.005387386 -0.00044424468 0.19891542 -0.007330382 0.04060149
0.00928275 -0.03789138 0.07006763 0.032384004 -0.0030116846 -0.053566873 0.06313706 -0.1013716
-0.083669215 6.953322e-05 0.030710964 0.022383783 -0.03572138 0.074726455 -0.043407407 -0.058193196
0.06608189 -0.056217924 -0.18216375 0.10014195 0.06682313 0.04258891 0.027289484 -0.11986122
0.013807662 0.010317417 -0.17093423 -0.17480025 0.08275131 0.0155012915 0.05765063 0.10156608
-0.046417024 -0.23502114 -0.028920291 0.04297587 0.017528333 0.15990755 -0.0011801667 -0.07640286
-0.08754841 -0.0330003 -0.054237783 0.06587372 0.1995745 -0.008256124 0.11184544 -0.018832538
0.15645821 0.022329524 0.03073171 -0.0117775295 -0.06433514 -0.011048421 0.104671955 0.12873803
-0.122708075 0.09261703 -0.04568546 0.044289038 -0.038350843 -0.14675233 -0.09005878 -0.050816372
-0.03451684 -0.0045779906 0.041680392 0.044203803 0.0078847045 0.27905086 0.074660346 -0.03942543
0.06473506 -0.09922766 0.01592353 -0.14126611 0.24287853 -0.086094156 0.0902366 -0.006410326
0.0035711962 0.025992438 -0.10218124 0.026323322 -0.041084178 0.05943856 0.02746513 0.02343886
-0.074841246 -0.044684988 0.1706 -0.0081415335 0.035606086 -0.056026943 0.1048598 -0.032414414
0.024751654 0.11156857 -0.040152542 0.01945192 -0.001747026 -0.12237274 -0.017156543 0.007900261
-0.08142238 -0.099456176 -0.02176354 -0.01393932 0.023271017 -0.0063567716 -0.070850655 -0.04822849
-0.046891246 -0.030182553 0.116680555 0.14075173 0.03912891 -0.009081313 0.011992114 -0.15093672
0.029204251 0.029057402 -0.026514448 0.0019046266 -0.07363963 -0.015779933 0.046484426 -0.043377113
-0.005964124 -0.028855095 -0.027061746 -0.047970906 0.038979188 0.04826727 -0.054035284 -0.009921243
0.006627256 -0.014830409 0.05003239 0.0658642 0.098392 0.034348413 -0.00020546748 0.02279139
0.090453796 -0.0102556795 -0.032808557 -0.002466524 -0.034790166 0.06426249 -0.06772132 -0.0316605
-0.06414909 -0.086995326 -0.0066162776 -0.036837555 -0.020959811 0.13836722 0.015845656 -0.048096143
0.024246613 -0.022170933 -0.054627765 0.084332444 0.05370004 0.12966178 0.08589994 -0.059258476
-0.0050257817 -0.05930338 0.0005400424 0.06311371 -0.06437245 0.005298181 0.03605543 0.069238566
-0.009150606 0.020502515 -0.054920122 -0.024223162 0.13938257 0.002411814 -0.07643815 0.0022833087
-0.12271904 0.4486354 0.26364046 -0.23571785 0.04993361 0.19183639 0.23904063 0.36377087
-0.45409474 0.037889846 -0.9071205 -0.0040273974 -2.237893 -0.06546008 -0.15376776 0.0070156786
-0.07940498 0.2380916 0.039536126 0.06181984 0.3589961 0.16516072 -0.036357533 0.13660292
0.2797733 0.0012682482 0.034771923 0.3890749 -0.18123901 0.10122548 -0.21342032 -0.09683919
-0.13473316 0.13084474 -0.15664132 -0.0281734 -0.23911707 -0.14526357 -0.054469917 0.43950334
0.044071387 -0.000790562 -0.11965062 -0.025329748 0.04661755 0.45123193 -0.4754274 -0.10876298
0.018356612 0.23203829 -0.02470941 -0.07486647 -0.06484738 -0.36320838 0.0022786972 -0.19981883
00000000: 3564 d6bd 47f8 42be 927e 93bd 96f7 6ebe
00000010: 8b6a bd3c 9f90 e6bc c277 42be f1d9 413e
00000020: e46b 273d 0313 99bd 6a77 28bd ab88 b0bb
00000030: 83e9 e8b9 7cb0 4b3e b333 f0bb bf4d 263d
00000040: ad16 183c fe33 1bbd 9e7f 8f3d 17a5 043d
00000050: af5f 45bb f068 5bbd 014e 813d ea9b cfbd
00000060: c45a abbd 5dd2 9138 8f95 fb3c 325e b73c
00000070: 9550 12bd 2f0a 993d f7cb 31bd fd5b 6ebd
00000080: f155 873d c444 66bd 2289 3abe 3917 cd3d
00000090: 91da 883d b571 2e3d 328e df3c cd79 f5bd
000000a0: 8839 623c 620a 293c 6209 2fbe d6fe 32be
000000b0: 8579 a93d 21f9 7d3c 1123 6c3d e001 d03d
000000c0: c71f 3ebd 62a9 70be 3fea ecbc 7707 303d
000000d0: 9497 8f3c cebe 233e d3af 9aba 1a79 9cbd
000000e0: 954c b3bd 532b 07bd 7028 5ebd cde8 863d
000000f0: 425d 4c3e b244 07bc 390f e53d b246 9abc
00000100: 9536 203e 68ec b63c 11c1 fb3c 8af6 40bc
00000110: 24c2 83bd 7004 35bc 405e d63d e7d3 033e
00000120: 5f4e fbbd ffad bd3d ad20 3bbd 6c68 353d
00000130: c615 1dbd 3e46 16be bd70 b8bd d424 50bd
00000140: 8861 0dbd f802 96bb 0fb9 2a3d 0c0f 353d
00000150: d92e 013c c1df 8e3e 86e7 983d 8f7c 21bd
00000160: d193 843d df37 cbbd 1072 823c 10a8 10be
00000170: 26b5 783e 2252 b0bd f7cd b83d b60d d2bb
00000180: bb0a 6a3b 18ee d43c 6644 d1bd 02a4 d73c
00000190: e247 28bd d975 733d 8dfe e03c da02 c03c
000001a0: 5e46 99bd 9b07 37bd c4b1 2e3e 1164 05bc
000001b0: b0d7 113d 827c 65bd bcc0 d63d fac4 04bd
000001c0: fbc3 ca3c 107e e43d fe76 24bd a259 9f3c
000001d0: 77fc e4ba 8f9e fabd e18b 8cbc 1970 013c
000001e0: c7c0 a6bd aeaf cbbd 7449 b2bc bf61 64bc
000001f0: dca2 be3c 774c d0bb 261a 91bd 3d8b 45bd
00000200: 0911 40bd 6741 f7bc 37f6 ee3d 3921 103e
00000210: a345 203d cac9 14bc 927a 443c 288f 1abe
00000220: c13d ef3c ca09 ee3c d434 d9bc aaa4 f93a
00000230: 60d0 96bd eb44 81bc 7466 3e3d 33ac 31bd
00000240: b36e c3bb 8561 ecbc 98b0 ddbc 247d 44bd
00000250: a4a8 1f3d e7b3 453d 1a54 5dbd b68c 22bc
00000260: 7429 d93b 3efb 72bc c3ee 4c3d cfe3 863d
00000270: bf81 c93d ecb0 0c3d c272 57b9 02b5 ba3c
00000280: d73f b93d 7007 28bc 4462 06bd 68a5 21bb
00000290: 2280 0ebd 0d9c 833d 7ab1 8abd 71ae 01bd
000002a0: 9960 83bd 9b2a b2bd 5ccd d8bb fae2 16bd
000002b0: e9b3 abbc 23b0 0d3e c0ce 813c 7600 45bd
000002c0: d5a0 c63c d19f b5bc 5dc1 5fbd 7db6 ac3d
000002d0: 93f4 5b3d 0fc6 043e 4fec af3d 04b9 72bd
000002e0: 50af a4bb 1ae8 72bd a291 0d3a c341 813d
000002f0: b4d5 83bd 5d9c ad3b dcae 133d f3cc 8d3d
00000300: 6cec 15bc e4f4 a73c ecf3 60bd a76f c6bc
00000310: 4eba 0e3e 860f 1e3b 9b8b 9cbd 90a3 153b
00000320: 1f54 fbbd 8ab3 e53e e2fb 863e 0560 71be
00000330: 2f87 4c3d c270 443e 11c7 743e 2d40 ba3e
00000340: 1b7f e8be 6232 1b3d 0d39 68bf 42f8 83bb
00000350: a439 0fc0 ef0f 86bd 4c75 1dbe c7e3 e53b
00000360: 149f a2bd 49ce 733e a2f0 213d cd36 7d3d
00000370: 56ce b73e e41f 293e a3eb 14bd a3e1 0b3e
00000380: 723e 8f3e 593b a63a 016d 0e3d d334 c73e
00000390: b896 39be 4e4f cf3d db8a 5abe a053 c6bd
000003a0: 7df7 09be 2afc 053e 9566 20be e7cb e6bc
000003b0: 1bdb 74be f9bf 14be d91b 5fbd 9506 e13e
000003c0: 3384 343d b83d 4fba 620b f5bd 5580 cfbc
000003d0: 0bf2 3e3d df07 e73e 386b f3be 20bf debd
000003e0: 9b60 963c 729b 6d3e 636b cabc 9853 99bd
000003f0: b4ce 84bd 73f6 b9be 3256 153b 4f9d 4cbe

controller.lstm.bias_ih f4 [400]
0.04391451 0.1701806 0.09480262 0.05474074 0.06912159 0.011846714 0.12927182 0.19939163
0.1082338 0.092586 0.17044683 0.021041963 -0.052381605 0.16848151 0.043985873 0.009059812
-0.008002752 0.07425882 0.044414856 0.064985245 0.10742242 0.112660356 0.01817774 0.117163934
0.1812358 0.05038584 0.18702935 0.0060614687 0.030478118 0.0072409576 0.08391407 0.1100475
0.06779102 0.10970126 0.06543918 -0.030298188 0.03893356 0.11191423 0.03214016 0.15538009
0.092566095 0.16161405 0.17167227 -0.039864868 0.07446844 0.0071776602 0.14174826 0.046862885
0.014223347 0.16375008 0.114555314 0.09502858 -0.026677823 -0.036444455 0.1401883 0.12828158
0.099172816 0.07665018 -0.049825188 0.10390603 -0.06104808 0.05194398 0.06472205 0.12635526
0.077522956 0.06791845 0.019494152 0.043638766 0.11686805 0.0058110696 0.09394882 0.015787832
0.060509484 0.085010394 -0.01675234 0.10485728 0.024632381 0.020475974 0.08962693 0.10688546
0.15404253 0.09615099 0.07467516 0.06749712 0.14341137 0.068137415 -0.03223451 -0.016630681
0.03962862 -0.027963962 -0.10962127 0.09112982 0.07467025 0.10138516 0.07772514 0.059226662
0.10976 0.112777375 0.027024519 0.04501813 -0.025708301 0.036326684 0.11398687 -0.0027400386
0.026030136 0.12672128 0.030249426 0.14865275 0.13732891 0.03981267 0.042274486 -0.07619577
-0.008346949 -0.019735668 -0.0155216465 0.043637883 0.084650435 0.046418708 0.06937904 0.065146625
0.06549329 0.076475546 0.053578075 0.08450012 0.08089746 0.10845093 0.14556322 0.08695136
0.009730978 0.050382692 0.037961505 0.08686055 0.069390215 0.1655666 0.04122184 0.08419353
0.043738086 0.031064719 0.058569837 -0.078354426 0.062036756 0.1106448 0.050535284 -0.120331824
0.057892803 -0.02997933 0.029528765 0.084880434 -0.03481277 0.09827051 0.06608474 0.04340762
-0.037296146 -0.010854406 0.15121233 0.07135706 0.021801023 -0.032285098 -0.023215812 0.05404335
0.096726544 0.043720707 0.13023257 0.030447816 0.0029950894 -0.020284554 0.02994724 -0.027596708
0.06645861 0.08782395 -0.019429203 -0.045361314 0.072789796 0.07868949 0.032695945 0.078191586
0.05916851 0.030724853 0.050451033 -0.09321451 -0.023711419 0.059024777 0.05392921 0.025353046
0.07080433 0.08912203 -0.016669095 -0.09059548 0.025958423 0.00904682 0.041824553 0.08765511
0.024526412 0.036501534 0.06364656 -0.029284634 0.08392284 0.028724734 0.15431483 0.064122476
0.055950504 0.0010032499 0.014529861 -0.009812023 -0.089718044 0.007288645 -0.005229135 0.04117826
-0.005769482 -0.085102774 -0.005211252 0.14115806 0.0905697 -0.028859278 0.09217772 -0.08276867
-0.008419805 -0.08172392 -0.08697419 -0.0955489 -0.12125944 -0.1221641 0.1315229 -0.0748414
0.053860687 0.09151139 -0.11707235 0.029745717 -0.13100135 -0.06872537 0.112496585 0.117380336
0.10147154 -0.15695429 -0.027932996 -0.010386714 0.084309734 -0.051773377 -0.028899213 -0.08516572
-0.10221459 -0.04134565 -0.028537177 0.011813703 0.017475719 0.003175458 0.12627625 -0.0663111
0.0024511614 -0.05478659 -0.12867337 0.043113854 -0.00028139426 -0.1992498 0.09058839 0.08069804
00000000: b4df 333d d343 2e3e e027 c23d d437 603d
00000010: 9f8f 8d3d b818 423c d55f 043e 522d 4c3e
00000020: afa9 dd3d bb9d bd3d 9d89 2e3e 3260 ac3c
00000030: 188e 56bd 6b86 2c3e 882a 343d 9b6f 143c
00000040: fa1d 03bc 0215 983d 5aec 353d fc16 853d
00000050: 4900 dc3d 79ba e63d 7ce9 943c a5f3 ef3d
00000060: e195 393e 6261 4e3d 9f84 3f3e 499f c63b
00000070: 3fad f93c 8e45 ed3b 24db ab3d 9560 e13d
00000080: 05d6 8a3d 0eab e03d fa04 863d e833 f8bc
00000090: cc78 1f3d 4a33 e53d 67a5 033d f51b 1f3e
000000a0: 4b93 bd3d 277e 253e dbca 2f3e 5849 23bd
000000b0: e982 983d 9432 eb3b 7526 113e 4cf3 3f3d
000000c0: 0b09 693c 1aae 273e fa9b ea3d 589e c23d
000000d0: 738b dabc c846 15bd 868d 0f3e 3f5c 033e
000000e0: 1e1b cb3d c5fa 9c3d 7f15 4cbd afcc d43d
000000f0: 8d0d 7abd 36c3 543d ff8c 843d 4663 013e
00000100: 5bc4 9e3d d418 8b3d 33b2 9f3c 90be 323d
00000110: 8458 ef3d c96a be3b 3d68 c03d 7c55 813c
00000120: cbd8 773d ee19 ae3d 343c 89bc 6abf d63d
00000130: d9c9 c93c 3bbd a73c 538e b73d c4e6 da3d
00000140: 53bd 1d3e cfea c43d 4aef 983d ee3b 8a3d
00000150: 6eda 123e a18b 8b3d 5508 04bd 113d 88bc
00000160: 9f51 223d ae14 e5bc 1e81 e0bd 45a2 ba3d
00000170: b7ec 983d 06a3 cf3d 5c2e 9f3d a897 723d
00000180: dac9 e03d d3f7 e63d 8662 dd3c ee64 383d
00000190: 379a d2bc 4acb 143d f371 e93d 3892 33bb
000001a0: 273d d53c 39c3 013e a5cd f73c 6d38 183e
000001b0: f39f 0c3e 9c12 233d 0328 2d3d 870c 9cbd
000001c0: a4c1 08bc b2ac a1bc 814e 7ebc a3bd 323d
000001d0: 355d ad3d 8b21 3e3d 9916 8e3d 986b 853d
000001e0: 5921 863d 369f 9c3d af74 5b3d 660e ad3d
000001f0: 91ad a53d 851b de3d 860e 153e 8e13 b23d
00000200: ae6e 1f3c 155e 4e3d 867d 1b3d f2e3 b13d
00000210: 751c 8e3d 4a8a 293e 3bd8 283d a86d ac3d
00000220: b526 333d 707b fe3c ede6 6f3d 4978 a0bd
00000230: 411a 7e3d be99 e23d 16fe 4e3d 8870 f6bd
00000240: 0121 6d3d 3697 f5bc 4fe6 f13c cbd5 ad3d
00000250: d697 0ebd 0d42 c93d 7057 873d 30cc 313d
00000260: d8c3 18bd aed6 31bc 68d7 1a3e a623 923d
00000270: 0f98 b23c 613d 04bd 162f bebc 8f5c 5d3d
00000280: 9118 c63d 7c14 333d b05b 053e b36d f93c
00000290: 4349 443b cb2b a6bc ea53 f53c 7e12 e2bc
000002a0: 741b 883d 0bdd b33d fe29 9fbc c9cc 39bd
000002b0: d112 953d f527 a13d 2fec 053d e922 a03d
000002c0: ae5a 723d b0b2 fb3c bea5 4e3d 40e7 bebd
000002d0: 733e c2bc f7c3 713d e0e4 5c3d 31b1 cf3c
000002e0: dc01 913d 9c85 b63d a08d 88bc 1f8a b9bd
000002f0: c2a6 d43c 1d39 143c 3950 2b3d 8684 b33d
00000300: 9deb c83c a282 153d 2159 823d 54e6 efbc
00000310: bddf ab3d 2250 eb3c b504 1e3e a552 833d
00000320: 5b2c 653d 7b7f 833a a70e 6e3c 9bc2 20bc
00000330: 18be b7bd 96d5 ee3b 2a59 abbb 89aa 283d
00000340: ec0d bdbb 5d4a aebd 26c3 aabb bd8b 103e
00000350: 9b7c b93d 4b6a ecbc acc7 bc3d 9f82 a9bd
00000360: 39f3 09bc df5e a7bd 861f b2bd 24af c3bd
00000370: df56 f8bd 2c31 fabd f0ad 063e 7346 99bd
00000380: 069d 5c3d 536a bb3d a1c3 efbd 4aad f33c
00000390: 3825 06be e3bf 8cbd 9c64 e63d 1a65 f03d
000003a0: 50d0 cf3d a0b8 20be bdd3 e4bc 092d 2abc
000003b0: 95aa ac3d 5210 54bd 0bbe ecbc 5d6b aebd
000003c0: e255 d1bd 0e5a 29bd ccc6 e9bc 438e 413c
000003d0: 3d29 8f3c 581b 503b 904e 013e 1dce 87bd
000003e0: aaa3 203b e767 60bd f4c2 03be 2798 303d
000003f0: 1988 93b9 2408 4cbe 6886 b93d 0445 a53d

controller.lstm.bias_hh f4 [400]
0.033696793 0.13924505 0.13115092 0.05052912 0.06785982 0.041655995 0.11433699 0.18743338
0.06644543 0.08631032 0.16212009 0.003263802 0.0069566066 0.13534586 0.029733773 0.023737762
0.010365514 0.1051353 0.036996834 0.061938174 0.10948749 0.11296129 0.043744687 0.1177457
0.1656419 0.04303516 0.077512436 0.0030737314 0.025740327 0.023866735 0.08720086 0.10809431
0.07040642 0.09480397 0.057910196 -0.039600797 0.075287424 0.16395254 0.029571306 0.099314615
0.091872714 0.10635651 0.16015473 -0.06628038 0.08030056 -0.02878578 0.11502879 0.06546495
-0.005734311 0.16946094 0.089413874 0.093771234 -0.07490658 0.021203827 0.13519518 0.12490709
0.0798768 0.009592675 -0.054257944 0.09762412 0.009723154 0.036681283 0.013769697 0.107948534
0.09936717 0.017824508 0.013723896 0.020412559 0.10725955 -0.03393472 0.13421813 0.026445633
0.10268458 0.089287005 0.03455957 0.07975762 -0.0011719532 0.038072307 0.09184206 0.11704171
0.115432434 0.09059669 0.064506195 0.068720266 0.12575552 0.06808051 -0.05548815 -0.003953444
0.03698189 -0.051771026 -0.10534171 0.11563285 0.04882705 0.05518598 0.0817465 0.059491247
0.10921556 0.113651454 0.06503851 0.05382915 -0.0251312 0.11155621 0.13109808 -0.0063046473
-0.026558993 0.08922979 0.010583013 0.15861322 0.13715394 0.03970848 0.046955556 -0.061994124
0.0972304 -0.047999892 -0.019754242 0.048927065 0.08269965 0.024450619 0.06990809 0.06605595
0.06556074 0.07632402 0.050628524 0.082156844 0.08677546 0.10369905 0.12762769 0.08712306
-0.012460645 0.038652368 0.039982762 0.086710274 0.06959118 0.17281686 0.02233266 0.080839366
0.048597258 0.043993853 0.052938048 -0.06324553 0.062028196 0.078484856 0.074313834 -0.063715056
0.06257009 0.046405345 0.05193006 0.034832813 -0.045390677 0.1383606 0.06585755 0.045720156
-0.041598786 0.03973012 0.12173571 0.059196584 0.12674628 -0.03479162 -0.02305707 0.009299899
0.036087096 0.053592253 0.102065295 0.025828814 0.017459089 -0.045940816 0.05482873 -0.00078489253
0.0669631 0.08170946 0.0019970078 -0.0467108 0.013610222 0.07873003 0.019240154 0.06995501
0.07080576 0.057829037 0.048670113 -0.04255913 0.0924388 0.058987405 0.053921405 0.10347676
0.064192854 0.03310673 0.00870452 -0.05370393 0.02395859 0.115092434 0.10572169 0.09081148
0.043093946 0.03714845 0.06275709 -0.016618 0.08396493 -0.014633771 0.13928206 0.06167488
0.059490085 -0.078993626 0.056507125 0.0077814916 -0.08431638 -0.04198329 -0.008558637 0.14068668
-0.0055499375 -0.07175343 -0.0027979393 0.11531512 0.0042779758 -0.026368415 0.06812712 -0.07407281
0.019683441 -0.13921475 -0.093384326 -0.0779433 -0.11954645 -0.11667386 0.049264386 -0.0758233
0.13607201 -0.0015596279 0.05272634 -0.051496197 -0.08188918 0.021811714 0.11484302 0.117476106
0.100709274 -0.06818274 0.01877338 0.12723453 0.08269124 -0.0909587 0.024559 -0.14123695
-0.10687881 -0.014321233 -0.069999464 -0.08870702 -0.005187623 -0.010152063 0.14278796 0.017443001
-0.03935001 -0.10877126 -0.1080786 0.05315139 0.0024569244 -0.1797666 0.066584334 0.06366616
00000000: a605 0a3d 4196 0e3e 6d4c 063e 9ff7 4e3d
00000010: 17fa 8a3d 7a9f 2a3d 8329 ea3d 89ee 3f3e
00000020: 8b14 883d 77c3 b03d cf02 263e 83e5 553b
00000030: 3ff4 e33b 1b98 0a3e 3e94 f33c b275 c23c
00000040: 1ed4 293c 2d51 d73d fe89 173d e2b2 7d3d
00000050: fa3a e03d 4058 e73d a12d 333d a824 f13d
00000060: 089e 293e a345 303d d7be 9e3d a870 493b
00000070: 61dd d23c 2c84 c33c 5d96 b23d 8d60 dd3d
00000080: 3e31 903d 9528 c23d 3e33 6d3d 7234 22bd
00000090: 4b30 9a3d 2de3 273e 863f f23c 7665 cb3d
000000a0: c327 bc3d 71d1 d93d 9aff 233e 02be 87bd
000000b0: 9f74 a43d 28d0 ebbc 3794 eb3d 7d12 863d
000000c0: e3e6 bbbb 2b87 2d3e 9f1e b73d 220b c03d
000000d0: 9f68 99bd a6b3 ad3c 9b70 0a3e 4acf ff3d
000000e0: 7396 a33d 982a 1d3c 943d 5ebd 28ef c73d
000000f0: dd4d 1f3c 1d3f 163d 4c9a 613c 1f14 dd3d
00000100: 0481 cb3d b404 923c 31da 603c 3d38 a73c
00000110: e5aa db3d 22ff 0abd 7a70 093e 83a4 d83c
00000120: 4b4c d23d 1bdc b63d 568e 0d3d f757 a33d
00000130: 399c 99ba b5f1 1b3d b117 bc3d 90b3 ef3d
00000140: d767 ec3d c28a b93d d31b 843d 36bd 8c3d
00000150: 0ec6 003e cb6d 8b3d 8b47 63bd e48b 81bb
00000160: 537a 173d db0d 54bd 65bd d7bd ead0 ec3d
00000170: dffe 473d b20a 623d b66a a73d 18ad 733d
00000180: 68ac df3d 18c2 e83d e932 853d f47b 5c3d
00000190: f2df cdbc 9577 e43d 933e 063e 3797 cebb
000001a0: 3f92 d9bc 1cbe b63d 6064 2d3c 816b 223e
000001b0: 1572 0c3e 5ca5 223d 7854 403d 8ded 7dbd
000001c0: bb20 c73d 899b 44bd a6d3 a1bc bf67 483d
000001d0: 6f5e a93d aa4c c83c f92b 8f3d 5848 873d
000001e0: b644 863d c54f 9c3d db5f 4f3d d941 a83d
000001f0: 55b7 b13d 2b60 d43d d5b0 023e 936d b23d
00000200: bc27 4cbc f251 1e3d f7c4 233d 2895 b13d
00000210: d285 8e3d e7f6 303e fcf2 b63c 1c8f a53d
00000220: eb0d 473d e632 343d 91d5 583d df86 81bd
00000230: 4711 7e3d abbc a03d da31 983d 0a7d 82bd
00000240: bf24 803d 8813 3e3d 9db4 543d daac 0e3d
00000250: 93eb 39bd 67ae 0d3e 53e0 863d 0f45 3b3d
00000260: 7d63 2abd 0dbc 223d 9250 f93d 1e78 723d
00000270: c7c9 013e a881 0ebd 2ee2 bcbc 9b5e 183c
00000280: 10d0 133d 8d83 5b3d 9c07 d13d f396 d33c
00000290: 5d06 8f3c 702c 3cbd 1794 603d 3fc1 4dba
000002a0: f323 893d 4a57 a73d 3be0 023b d353 3fbd
000002b0: 69fd 5e3c 363d a13d 879d 9d3c 9344 8f3d
000002c0: 9c02 913d 24de 6c3d 505a 473d 7b52 2ebd
000002d0: 8e50 bd3d c79c 713d b1dc 5c3d a0eb d33d
000002e0: 8b77 833d ec9a 073d 679d 0e3c a7f8 5bbd
000002f0: ce44 c43c 95b5 eb3d 9d84 d83d 5ffb b93d
00000300: 4783 303d f928 183d ca86 803d 7922 88bc
00000310: cef5 ab3d 7cc2 6fbc f59f 0e3e cd9e 7c3d
00000320: e0ab 733d 69c7 a1bd 0474 673d e2fb fe3b
00000330: 11ae acbd acf6 2bbd 8739 0cbc 2b10 103e
00000340: 40dc b5bb 76f3 92bd a25d 37bb 552a ec3d
00000350: 432e 8c3b 9302 d8bc 3b86 8b3d 7cb3 97bd
00000360: 2b3f a13c 508e 0ebe 4840 bfbd bda0 9fbd
00000370: c5d4 f4bd b4f2 eebd 74c9 493d 3f49 9bbd
00000380: 7656 0b3e 6e6c ccba 93f7 573d aded 52bd
00000390: 84b5 a7bd 7bae b23c d132 eb3d 5097 f03d
000003a0: aa40 ce3d 64a3 8bbd a2ca 993c c549 023e
000003b0: 065a a93d 8e48 babd f52f c93c 6ba0 10be
000003c0: 47e3 dabd 9ba3 6abc e15b 8fbd 07ac b5bd
000003d0: f0fc a9bb d754 26bc 0237 123e a0e4 8e3c
000003e0: 7a2d 21bd 77c3 debd 5058 ddbd 46b5 593d
000003f0: 5a04 213b bc14 38be 5e5d 883d 6763 823d

controller.fc_out.weight f4 [1000, 100]
0.0057832273 -0.40504014 -0.4051737 0.18650578 -0.12979715 0.03657107 -0.16284198 0.53435534
-0.0315175 -0.50036955 0.16733883 0.48460346 -0.12244204 -0.7228897 0.19623518 -0.28700885
0.0006496418 -0.31250018 -0.23522426 -0.16107497 -0.578901 -0.3644535 0.0965464 -0.48471633
0.60158193 0.17832634 -0.33776283 0.22197142 -0.4068649 0.048614707 0.49776992 0.47930318
0.3344079 -0.4937572 -0.032808837 0.40295666 0.3274317 -0.6157586 0.22997318 -0.7250222
-0.46073073 -0.47741464 -0.5335406 -0.21705021 0.15938231 -0.043802824 0.7198559 -0.37510994
0.13995062 -0.71469223 -0.48093477 0.37150818 -0.039849993 -0.56212217 0.4904663 0.51606375
-0.49458173 0.29446507 -0.11892628 -0.7186244 -0.0075155147 -0.27285755 0.076760896 -0.75441027
0.7833484 0.4321771 0.18479589 -0.65712726 -0.3134059 0.5336903 -0.5480497 0.054505885
-0.40141407 0.32904333 -0.224566 0.96518034 -0.2665029 -0.16589236 -0.40138686 0.5038745
-0.5318356 0.400975 0.4352948 -0.26837778 -0.6406711 0.24775106 -0.10945818 -0.09988436
-0.39398476 0.1356628 -0.020738745 -0.20191503 0.4565558 -0.30027694 -0.28857028 -0.36225897
0.43405274 0.30676505 -0.3504989 -0.25893342 -0.043950118 -1.041751 0.136379 -0.0071599865
-0.27897006 0.9913344 -0.8909983 -0.4573798 -0.07392145 0.054265883 -0.0071306615 0.10788073
0.92049414 -1.0571961 0.018078567 0.06692996 -0.13808993 -0.34002176 -0.25214982 -0.109064095
-0.26660347 0.44676054 0.447998 -0.05817878 -0.93427426 0.07453236 -0.4255925 -0.1178691
-0.12220493 -0.98190284 -1.015887 -0.5362267 0.13589986 -0.22535172 0.11440624 -0.0382943
-0.21431616 0.34263393 -0.3563341 0.60388434 0.35015965 0.355603 -0.17553656 -0.012795203
1.2401102 -0.08134163 -0.120346375 0.32179672 0.20016804 0.78654295 -0.117950834 -0.042054567
0.050373856 -0.58660465 0.43278345 -1.132664 -1.2938296 -0.09488911 -0.07326847 0.28418902
0.2917505 0.4340931 -0.53726256 -0.47691885 -0.59616137 -0.39497775 1.1435663 -1.0668815
0.5685025 -1.0401934 1.0743443 0.0061705452 -0.6243649 -1.0842831 0.120522276 -0.5008998
0.26227596 0.32940447 -0.085328475 -1.0316567 0.065867856 0.06358447 -0.22230779 -0.22082177
0.33572194 -0.12270515 0.10726313 0.13694288 0.030288968 0.42796347 -0.3044457 -1.1811658
0.35912198 0.13037322 -0.14065407 -2.697229 -0.8682351 -1.1364307 2.6732576 0.016979389
0.09803768 0.47492614 -2.1049578 -0.27626365 -0.413613 -0.07502061 0.3057999 0.5512227
1.1010456 -0.21608381 1.0807221 -0.33667165 1.4220908 0.7072501 0.22242853 -0.24366334
-0.27353472 -0.7008771 -0.5481401 -0.13635011 0.091804154 -0.6323508 -0.04110774 0.21515904
-0.48923698 -0.74439424 -0.17340048 -0.8027482 -0.1031856 -0.32920676 0.5084528 0.96544313
0.39229643 -0.5268332 0.19559586 0.26600614 0.44967917 -2.1547983 -0.325741 0.10262634
-0.24189553 -0.56772846 0.32698995 0.07018441 -0.9708814 -0.77739155 -0.1815714 0.90335315
0.2955071 -1.8773907 -0.20627518 0.08411344 0.2531734 0.85386986 -0.17813632 1.5001458
00000000: 3a81 bd3b 6c61 cfbe ed72 cfbe 5ffb 3e3e
00000010: 8be9 04be 8ccb 153d 0cc0 26be 83cb 083f
00000020: 7e18 01bd 3818 00bf df5a 2b3e f21d f83e
00000030: e4c2 fabd 4d0f 39bf e0f1 483e d3f2 92be
00000040: b94c 2a3a 0600 a0be a1de 70be d6f0 24be
00000050: db32 14bf a699 babe 1eba c53d bd2c f8be
00000060: 4601 1a3f 2e9b 363e 40ef acbe 7a4c 633e
00000070: 9950 d0be 3720 473d b3db fe3e 3a67 f53e
00000080: 8337 ab3e becd fcbe 8f62 06bd 5650 ce3e
00000090: 21a5 a73e 5ba2 1dbf 177e 6b3e 0e9b 39bf
000000a0: e6e4 ebbe b16f f4be 1e96 08bf 6942 5ebe
000000b0: 1e35 233e 976a 33bd 7a48 383f 690e c0be
000000c0: 374f 0f3e 12f6 36bf 153d f6be 5236 be3e
000000d0: bf39 23bd 3de7 0fbf 661e fb3e c11c 043f
000000e0: d139 fdbe 20c4 963e 9f8f f3bd c5f7 37bf
000000f0: b544 f6bb fcb3 8bbe d134 9d3d 0821 41bf
00000100: 8589 483f 5146 dd3e 223b 3d3e 7e39 28bf
00000110: bd76 a0be ed9f 083f fc4c 0cbf 9041 5f3d
00000120: 2586 cdbe 5e78 a83e a1f4 65be 0f16 773f
00000130: 1173 88be b0df 29be 9482 cdbe ebfd 003f
00000140: 6126 08bf 984c cd3e f6de de3e d068 89be
00000150: 0503 24bf 74b2 7d3e 9c2b e0bd 2c90 ccbd
00000160: 5fb8 c9be 30eb 0a3e 4de4 a9bc d0c2 4ebe
00000170: afc1 e93e e6bd 99be 7cbf 93be 027a b9be
00000180: 293c de3e 4f10 9d3e 9874 b3be ec92 84be
00000190: 0a05 34bd 1958 85bf f0a6 0b3e 529e eabb
000001a0: 2ad5 8ebe 17c8 7d3f 7718 64bf af2d eabe
000001b0: 2164 97bd e745 5e3d 53a8 e9bb 92f0 dc3d
000001c0: 81a5 6b3f 3452 87bf 8119 943c 9312 893d
000001d0: 7267 0dbe 5517 aebe c819 81be ff5c dfbd
000001e0: 4080 88be ccbd e43e fe5f e53e df4c 6ebd
000001f0: 992c 6fbf 6ca4 983d 43e7 d9be 5b65 f1bd
00000200: 9446 fabd fc5d 7bbf 9608 82bf 2746 09bf
00000210: 5529 0b3e 9ac2 66be d24d ea3d 7cda 1cbd
00000220: b275 5bbe b76d af3e 6c71 b6be 2a98 1a3f
00000230: 2048 b33e 9911 b63e dbbf 33be f9a2 51bc
00000240: eebb 9e3f 7196 a6bd 2978 f6bd 8ac2 a43e
00000250: daf8 4c3e e15a 493f 3590 f1bd 6941 2cbd
00000260: d154 4e3d b92b 16bf cb95 dd3e 22fb 90bf
00000270: 359c a5bf 3955 c2bd c80d 96bd 3981 913e
00000280: 5260 953e 7341 de3e 0a8a 09bf b52e f4be
00000290: 089e 18bf 863a cabe 6160 923f 938f 88bf
000002a0: 6189 113f 0f25 85bf 1d84 893f 4932 ca3b
000002b0: 61d6 1fbf cac9 8abf 62d4 f63d f83a 00bf
000002c0: 0949 863e b4a7 a83e b2c0 aebd 540d 84bf
000002d0: bae5 863d 9338 823d a7a4 63be 1a1f 62be
000002e0: bfe3 ab3e d64c fbbd c6ac db3d c13a 0c3e
000002f0: 9220 f83c 071e db3e 4fe0 9bbe 7130 97bf
00000300: d6de b73e 8f80 053e 9f07 10be 669f 2cc0
00000310: a844 5ebf 9076 91bf a716 2b40 5c18 8b3c
00000320: fbc7 c83d 8529 f33e a1b7 06c0 6e72 8dbe
00000330: 15c5 d3be 68a4 99bd ce91 9c3e ee1c 0d3f
00000340: 10ef 8c3f 1345 5dbe 1a55 8a3f 3a60 acbe
00000350: 1207 b63f 580e 353f 4ec4 633e e282 79be
00000360: be0c 8cbe ae6c 33bf e952 0cbf 5d9f 0bbe
00000370: d103 bc3d bee1 21bf 9760 28bd a752 5c3e
00000380: 457d fabe 9f90 3ebf e58f 31be e880 4dbf
00000390: f952 d3bd ca8d a8be f629 023f 4827 773f
000003a0: 14db c83e 8ade 06bf 484a 483e f531 883e
000003b0: 593c e63e 37e8 09c0 86c7 a6be c22d d23d
000003c0: 76b3 77be a756 11bf 3a6b a73e d8bc 8f3d
000003d0: af8b 78bf 2203 47bf daed 39be 2742 673f
000003e0: b54c 973e 574e f0bf cd39 53be ab43 ac3d
000003f0: f29f 813e 3797 5a3f 5e69 36be c704 c03f

controller.fc_out.bias f4 [1000]
1.117371 0.050383113 0.2189348 0.19130956 0.20283616 -0.0046333084 -0.04572631 0.41926727
0.32302168 0.20124666 0.17757674 -0.076730035 -0.007649545 -0.021599159 -0.026790427 0.034533683
-0.19379137 -0.00785332 0.12585041 0.01604248 -0.10253192 -0.08200286 0.019907627 0.07836618
0.0094089545 -0.04909736 0.017712584 0.054272573 0.11455816 0.15251628 0.23835334 0.12440604
0.014953766 0.027437635 -0.004642638 -0.0046554883 -0.0046455283 -0.004677103 -0.004653548 -0.0046493206
-0.004635458 -0.004659197 -0.004649156 -0.0046547977 -0.0046507297 -0.0046332376 -0.0046744393 -0.0046406025
-0.0046697306 -0.004644191 -0.0046424516 -0.004667846 -0.0046376344 -0.004657352 -0.00465494 -0.004641733
-0.0046334467 -0.004653467 -0.0046788217 -0.004643549 -0.004677471 -0.0046368996 -0.0046380744 -0.0046550226
-0.004647115 -0.004646199 -0.00463559 -0.0046879817 -0.004648156 -0.0046616634 -0.0046710297 -0.0046650795
-0.0046350993 -0.0046640313 -0.004656696 -0.0046413406 -0.0046335906 -0.0046522897 -0.004677714 -0.004633419
-0.0046590935 -0.004636187 -0.0046792147 -0.004664344 -0.0046385005 -0.0046333713 -0.0046734638 -0.004649792
-0.0046449825 -0.0046349484 -0.004641798 -0.004643571 -0.004659494 -0.004634016 -0.0046508634 -0.0046493914
-0.0046424074 -0.004651205 -0.0046604685 -0.0046478803 -0.004634697 -0.004636888 -0.004676693 -0.004673672
-0.004638784 -0.00463504 -0.004636863 -0.004647608 -0.0046670362 -0.0046375263 -0.0046667014 -0.0046379063
-0.0046719643 -0.0046601654 -0.0046652476 -0.004639023 -0.0046355226 -0.004641188 -0.0046474384 -0.00465725
-0.004633935 -0.004633299 -0.004650803 -0.0046476154 -0.0046480605 -0.004643485 -0.0046366216 -0.0046378565
-0.004643895 -0.0046506044 -0.0046615633 -0.004653012 -0.0046336595 -0.0046379864 -0.0046370127 -0.0046509155
-0.004640615 -0.0046427213 -0.004660031 -0.004662335 -0.004666136 -0.0046356157 -0.004658848 -0.0046339286
-0.004659458 -0.0046351794 -0.004668708 -0.004639173 -0.004657447 -0.0046364297 -0.0046442933 -0.0046415497
-0.004643505 -0.0046393867 -0.00467941 -0.004668643 -0.004633863 -0.004673387 -0.0046985894 -0.0046396055
-0.0046449606 -0.0046578236 -0.0046693822 -0.00464226 -0.0046510445 -0.0046748384 -0.00463454 -0.004634282
-0.0046457183 -0.004678048 -0.0046354188 -0.004686283 -0.0046356986 -0.0046355324 -0.0046458943 -0.004636383
-0.0046379375 -0.004655063 -0.0046442472 -0.0046410356 -0.004643126 -0.004655093 -0.0046336306 -0.0046552415
-0.0046555903 -0.0046551134 -0.0046628984 -0.004646542 -0.0046453993 -0.0046400484 -0.0046919347 -0.0046498333
-0.004670757 -0.0046346937 -0.0046403166 -0.0046655233 -0.0046800105 -0.0046439166 -0.004644716 -0.0046388484
-0.0046528103 -0.0046433844 -0.004645916 -0.004638403 -0.004658661 -0.004647023 -0.0046646027 -0.004647739
-0.004645942 -0.0046594036 -0.00465487 -0.0046563866 -0.004688209 -0.0046337526 -0.00463972 -0.0046796054
-0.0046494324 -0.004647737 -0.004654755 -0.0046429373 -0.004639786 -0.0046508447 -0.0046334947 -0.0046572313
-0.0046361983 -0.0046360097 -0.004675937 -0.004664468 -0.0046586064 -0.0046475106 -0.0046662167 -0.0046582012
-0.004655894 -0.004640527 -0.0046353843 -0.004645478 -0.0046742437 -0.004677064 -0.0046556643 -0.0046481024
-0.0046493234 -0.0046356497 -0.004658115 -0.004633652 -0.0046630357 -0.0046580075 -0.0046370747 -0.004653528
-0.004644896 -0.0046673557 -0.0046569104 -0.004661925 -0.0046714414 -0.0046677515 -0.0046579577 -0.0046558315
00000000: 0306 8f3f 865e 4e3d 7230 603e a7e6 433e
00000010: 48b4 4f3e 02d3 97bb 834b 3bbd 33aa d63e
00000020: 1963 a53e 9b13 4e3e add6 353e a324 9dbd
00000030: 09a9 fabb b8f0 b0bc 9977 dbbc 3173 0d3d
00000040: 3f71 46be 36ab 00bc eede 003e 856b 833c
00000050: 41fc d1bd 1ef1 a7bd 5215 a33c 737e a03d
00000060: 0428 1a3c 501a 49bd fb19 913c eb4c 5e3d
00000070: 789d ea3d 3a2d 1c3e e612 743e 98c8 fe3d
00000080: a400 753c e4c4 e03c 4521 98bb 118d 98bb
00000090: 8439 98bb 6242 99bb ca7c 98bb 5459 98bb
000000a0: 0ae5 97bb 2dac 98bb f257 98bb 4687 98bb
000000b0: 2665 98bb 6ad2 97bb 0a2c 99bb 3210 98bb
000000c0: 8a04 99bb 4c2e 98bb b51f 98bb bbf4 98bb
000000d0: 4cf7 97bb b39c 98bb 7888 98bb ae19 98bb
000000e0: 2bd4 97bb 1c7c 98bb cd50 99bb ea28 98bb
000000f0: 7845 99bb 22f1 97bb fdfa 97bb 2989 98bb
00000100: d346 98bb 243f 98bb 26e6 97bb a49d 99bb
00000110: 8f4f 98bb dec0 98bb 700f 99bb 86dd 98bb
00000120: 08e2 97bb bbd4 98bb 3397 98bb 6316 98bb
00000130: 60d5 97bb 3c72 98bb 8247 99bb f0d3 97bb
00000140: 4fab 98bb 28eb 97bb 1954 99bb 5ad7 98bb
00000150: 90fe 97bb 89d3 97bb db23 99bb 485d 98bb
00000160: f034 98bb c4e0 97bb 391a 98bb 1929 98bb
00000170: abae 98bb f2d8 97bb 4566 98bb ec59 98bb
00000180: 561f 98bb 2369 98bb d8b6 98bb 3f4d 98bb
00000190: a8de 97bb 09f1 97bb f23e 99bb 9a25 99bb
000001a0: f100 98bb 89e1 97bb d3f0 97bb f64a 98bb
000001b0: f0ed 98bb 64f6 97bb 21eb 98bb 94f9 97bb
000001c0: 4717 99bb 4db4 98bb efde 98bb f202 98bb
000001d0: 95e5 97bb 1b15 98bb 8a49 98bb d89b 98bb
000001e0: 44d8 97bb eed2 97bb c365 98bb 064b 98bb
000001f0: c24e 98bb 6028 98bb cdee 97bb 29f9 97bb
00000200: d12b 98bb 1964 98bb 07c0 98bb 4b78 98bb
00000210: f4d5 97bb 40fa 97bb 15f2 97bb b566 98bb
00000220: 4d10 98bb f821 98bb 2cb3 98bb 80c6 98bb
00000230: 63e6 98bb 5de6 97bb 40a9 98bb 36d8 97bb
00000240: 5eae 98bb b4e2 97bb f6fb 98bb 3404 98bb
00000250: 7f9d 98bb 31ed 97bb 282f 98bb 2418 98bb
00000260: 8b28 98bb ff05 98bb bc55 99bb 6bfb 98bb
00000270: a9d7 97bb 3623 99bb a0f6 99bb d507 98bb
00000280: c134 98bb a8a0 98bb 9e01 99bb 191e 98bb
00000290: ca67 98bb 632f 99bb 57dd 97bb 2ddb 97bb
000002a0: 1c3b 98bb 504a 99bb b6e4 97bb 648f 99bb
000002b0: 0fe7 97bb aae5 97bb 963c 98bb cdec 97bb
000002c0: d7f9 97bb 8089 98bb c52e 98bb d413 98bb
000002d0: 5d25 98bb c089 98bb b6d5 97bb ff8a 98bb
000002e0: ec8d 98bb ec89 98bb 3acb 98bb 0542 98bb
000002f0: 6f38 98bb 8c0b 98bb cdbe 99bb a15d 98bb
00000300: 260d 99bb a1de 97bb cc0d 98bb 3fe1 98bb
00000310: c65a 99bb ff2b 98bb b432 98bb 7b01 98bb
00000320: 9a76 98bb 8827 98bb c53c 98bb bffd 97bb
00000330: aea7 98bb 0e46 98bb 86d9 98bb 104c 98bb
00000340: fc3c 98bb e9ad 98bb e187 98bb 9a94 98bb
00000350: 8c9f 99bb bcd6 97bb cb08 98bb 6057 99bb
00000360: 445a 98bb 0b4c 98bb ea86 98bb c823 98bb
00000370: 5909 98bb 1d66 98bb 92d4 97bb b09b 98bb
00000380: 40eb 97bb abe9 97bb 9a38 99bb 65d8 98bb
00000390: 39a7 98bb 254a 98bb 10e7 98bb d3a3 98bb
000003a0: 7890 98bb 900f 98bb 6ce4 97bb 1839 98bb
000003b0: 662a 99bb 0e42 99bb 8b8e 98bb 1c4f 98bb
000003c0: 5a59 98bb a6e6 97bb 1aa3 98bb e4d5 97bb
000003d0: 61cc 98bb 33a2 98bb 9af2 97bb 9f7c 98bb
000003e0: 3634 98bb 9ef0 98bb ff98 98bb 10c3 98bb
000003f0: e412 99bb f0f3 98bb c8a1 98bb f28f 98bb
