ntm_val_0.1702_epoch_107.pt (torch, 863092 bytes, 11 tensors)

read_vectors f4 [1, 32]
-0.57883507 -0.45800906 -0.24494405 -1.2771108 -0.06140119 -0.25898433 -0.25850686 -0.09580542
1.2382361 0.61148995 0.71162635 -1.9334881 -1.0224336 -0.7416621 -0.7269678 0.57496434
-0.32446125 1.0197117 -0.8417457 0.5543461 -0.2059112 0.70727444 -0.95023775 1.2551378
-0.26410875 -0.45092183 -1.0145028 -0.79477346 0.672769 -1.3483465 0.030036421 0.41049403
00000000: 892e 14bf 2a80 eabe 9dd2 7abe 5e78 a3bf
00000010: d07f 7bbd 9899 84be 035b 84be a235 c4bd
00000020: 857e 9e3f 9b8a 1c3f 252d 363f 8a7c f7bf
00000030: 1bdf 82bf 91dd 3dbf 901a 3abf dd30 133f
00000040: c91f a6be ea85 823f a57c 57bf a0e9 0d3f
00000050: 63da 52be f00f 353f c842 73bf 5ba8 a03f
00000060: 4339 87be 3adf e6be 3adb 81bf 4676 4bbf
00000070: 973a 2c3f 9e96 acbf f10e f63c 462c d23e

memory.memory f4 [64, 32]
-0.57883507 -0.45800906 -0.24494405 -1.2771108 -0.06140119 -0.25898433 -0.25850686 -0.09580542
1.2382361 0.61148995 0.71162635 -1.9334881 -1.0224336 -0.7416621 -0.7269678 0.57496434
-0.32446125 1.0197117 -0.8417457 0.5543461 -0.2059112 0.70727444 -0.95023775 1.2551378
-0.26410875 -0.45092183 -1.0145028 -0.79477346 0.672769 -1.3483465 0.030036421 0.41049403
-0.57883507 -0.45800906 -0.24494405 -1.2771108 -0.06140119 -0.25898433 -0.25850686 -0.09580542
1.2382361 0.61148995 0.71162635 -1.9334881 -1.0224336 -0.7416621 -0.7269678 0.57496434
-0.32446125 1.0197117 -0.8417457 0.5543461 -0.2059112 0.70727444 -0.95023775 1.2551378
-0.26410875 -0.45092183 -1.0145028 -0.79477346 0.672769 -1.3483465 0.030036421 0.41049403
-0.57883507 -0.45800906 -0.24494405 -1.2771108 -0.06140119 -0.25898433 -0.25850686 -0.09580542
1.2382361 0.61148995 0.71162635 -1.9334881 -1.0224336 -0.7416621 -0.7269678 0.57496434
-0.32446125 1.0197117 -0.8417457 0.5543461 -0.2059112 0.70727444 -0.95023775 1.2551378
-0.26410875 -0.45092183 -1.0145028 -0.79477346 0.672769 -1.3483465 0.030036421 0.41049403
-0.57883507 -0.45800906 -0.24494405 -1.2771108 -0.06140119 -0.25898433 -0.25850686 -0.09580542
1.2382361 0.61148995 0.71162635 -1.9334881 -1.0224336 -0.7416621 -0.7269678 0.57496434
-0.32446125 1.0197117 -0.8417457 0.5543461 -0.2059112 0.70727444 -0.95023775 1.2551378
-0.26410875 -0.45092183 -1.0145028 -0.79477346 0.672769 -1.3483465 0.030036421 0.41049403
-0.57883507 -0.45800906 -0.24494405 -1.2771108 -0.06140119 -0.25898433 -0.25850686 -0.09580542
1.2382361 0.61148995 0.71162635 -1.9334881 -1.0224336 -0.7416621 -0.7269678 0.57496434
-0.32446125 1.0197117 -0.8417457 0.5543461 -0.2059112 0.70727444 -0.95023775 1.2551378
-0.26410875 -0.45092183 -1.0145028 -0.79477346 0.672769 -1.3483465 0.030036421 0.41049403
-0.57883507 -0.45800906 -0.24494405 -1.2771108 -0.06140119 -0.25898433 -0.25850686 -0.09580542
1.2382361 0.61148995 0.71162635 -1.9334881 -1.0224336 -0.7416621 -0.7269678 0.57496434
-0.32446125 1.0197117 -0.8417457 0.5543461 -0.2059112 0.70727444 -0.95023775 1.2551378
-0.26410875 -0.45092183 -1.0145028 -0.79477346 0.672769 -1.3483465 0.030036421 0.41049403
-0.57883507 -0.45800906 -0.24494405 -1.2771108 -0.06140119 -0.25898433 -0.25850686 -0.09580542
1.2382361 0.61148995 0.71162635 -1.9334881 -1.0224336 -0.7416621 -0.7269678 0.57496434
-0.32446125 1.0197117 -0.8417457 0.5543461 -0.2059112 0.70727444 -0.95023775 1.2551378
-0.26410875 -0.45092183 -1.0145028 -0.79477346 0.672769 -1.3483465 0.030036421 0.41049403
-0.57883507 -0.45800906 -0.24494405 -1.2771108 -0.06140119 -0.25898433 -0.25850686 -0.09580542
1.2382361 0.61148995 0.71162635 -1.9334881 -1.0224336 -0.7416621 -0.7269678 0.57496434
-0.32446125 1.0197117 -0.8417457 0.5543461 -0.2059112 0.70727444 -0.95023775 1.2551378
-0.26410875 -0.45092183 -1.0145028 -0.79477346 0.672769 -1.3483465 0.030036421 0.41049403
00000000: 892e 14bf 2a80 eabe 9dd2 7abe 5e78 a3bf
00000010: d07f 7bbd 9899 84be 035b 84be a235 c4bd
00000020: 857e 9e3f 9b8a 1c3f 252d 363f 8a7c f7bf
00000030: 1bdf 82bf 91dd 3dbf 901a 3abf dd30 133f
00000040: c91f a6be ea85 823f a57c 57bf a0e9 0d3f
00000050: 63da 52be f00f 353f c842 73bf 5ba8 a03f
00000060: 4339 87be 3adf e6be 3adb 81bf 4676 4bbf
00000070: 973a 2c3f 9e96 acbf f10e f63c 462c d23e
00000080: 892e 14bf 2a80 eabe 9dd2 7abe 5e78 a3bf
00000090: d07f 7bbd 9899 84be 035b 84be a235 c4bd
000000a0: 857e 9e3f 9b8a 1c3f 252d 363f 8a7c f7bf
000000b0: 1bdf 82bf 91dd 3dbf 901a 3abf dd30 133f
000000c0: c91f a6be ea85 823f a57c 57bf a0e9 0d3f
000000d0: 63da 52be f00f 353f c842 73bf 5ba8 a03f
000000e0: 4339 87be 3adf e6be 3adb 81bf 4676 4bbf
000000f0: 973a 2c3f 9e96 acbf f10e f63c 462c d23e
00000100: 892e 14bf 2a80 eabe 9dd2 7abe 5e78 a3bf
00000110: d07f 7bbd 9899 84be 035b 84be a235 c4bd
00000120: 857e 9e3f 9b8a 1c3f 252d 363f 8a7c f7bf
00000130: 1bdf 82bf 91dd 3dbf 901a 3abf dd30 133f
00000140: c91f a6be ea85 823f a57c 57bf a0e9 0d3f
00000150: 63da 52be f00f 353f c842 73bf 5ba8 a03f
00000160: 4339 87be 3adf e6be 3adb 81bf 4676 4bbf
00000170: 973a 2c3f 9e96 acbf f10e f63c 462c d23e
00000180: 892e 14bf 2a80 eabe 9dd2 7abe 5e78 a3bf
00000190: d07f 7bbd 9899 84be 035b 84be a235 c4bd
000001a0: 857e 9e3f 9b8a 1c3f 252d 363f 8a7c f7bf
000001b0: 1bdf 82bf 91dd 3dbf 901a 3abf dd30 133f
000001c0: c91f a6be ea85 823f a57c 57bf a0e9 0d3f
000001d0: 63da 52be f00f 353f c842 73bf 5ba8 a03f
000001e0: 4339 87be 3adf e6be 3adb 81bf 4676 4bbf
000001f0: 973a 2c3f 9e96 acbf f10e f63c 462c d23e
00000200: 892e 14bf 2a80 eabe 9dd2 7abe 5e78 a3bf
00000210: d07f 7bbd 9899 84be 035b 84be a235 c4bd
00000220: 857e 9e3f 9b8a 1c3f 252d 363f 8a7c f7bf
00000230: 1bdf 82bf 91dd 3dbf 901a 3abf dd30 133f
00000240: c91f a6be ea85 823f a57c 57bf a0e9 0d3f
00000250: 63da 52be f00f 353f c842 73bf 5ba8 a03f
00000260: 4339 87be 3adf e6be 3adb 81bf 4676 4bbf
00000270: 973a 2c3f 9e96 acbf f10e f63c 462c d23e
00000280: 892e 14bf 2a80 eabe 9dd2 7abe 5e78 a3bf
00000290: d07f 7bbd 9899 84be 035b 84be a235 c4bd
000002a0: 857e 9e3f 9b8a 1c3f 252d 363f 8a7c f7bf
000002b0: 1bdf 82bf 91dd 3dbf 901a 3abf dd30 133f
000002c0: c91f a6be ea85 823f a57c 57bf a0e9 0d3f
000002d0: 63da 52be f00f 353f c842 73bf 5ba8 a03f
000002e0: 4339 87be 3adf e6be 3adb 81bf 4676 4bbf
000002f0: 973a 2c3f 9e96 acbf f10e f63c 462c d23e
00000300: 892e 14bf 2a80 eabe 9dd2 7abe 5e78 a3bf
00000310: d07f 7bbd 9899 84be 035b 84be a235 c4bd
00000320: 857e 9e3f 9b8a 1c3f 252d 363f 8a7c f7bf
00000330: 1bdf 82bf 91dd 3dbf 901a 3abf dd30 133f
00000340: c91f a6be ea85 823f a57c 57bf a0e9 0d3f
00000350: 63da 52be f00f 353f c842 73bf 5ba8 a03f
00000360: 4339 87be 3adf e6be 3adb 81bf 4676 4bbf
00000370: 973a 2c3f 9e96 acbf f10e f63c 462c d23e
00000380: 892e 14bf 2a80 eabe 9dd2 7abe 5e78 a3bf
00000390: d07f 7bbd 9899 84be 035b 84be a235 c4bd
000003a0: 857e 9e3f 9b8a 1c3f 252d 363f 8a7c f7bf
000003b0: 1bdf 82bf 91dd 3dbf 901a 3abf dd30 133f
000003c0: c91f a6be ea85 823f a57c 57bf a0e9 0d3f
000003d0: 63da 52be f00f 353f c842 73bf 5ba8 a03f
000003e0: 4339 87be 3adf e6be 3adb 81bf 4676 4bbf
000003f0: 973a 2c3f 9e96 acbf f10e f63c 462c d23e

controller.lstm.weight_ih f4 [400, 64]
0.03754014 0.019488648 -0.065372296 -0.018377932 -0.004548499 0.0915258 0.118805 0.023868037
0.041955013 0.024322907 -0.028323803 -0.047355328 0.0155109335 -0.07322945 0.026105259 -0.05503218
-0.0014563898 0.010048471 0.010394047 0.04681656 0.00020996816 -0.01339301 -0.03620436 0.040888216
-0.008787378 0.056437515 -0.06018413 -0.035246808 0.0006147177 -0.054845374 -0.04090068 -0.11233351
0.00554088 -0.00394459 -0.0021657718 0.010269939 -0.0036861184 0.00019501457 0.0065579494 0.0010378651
-0.0006629661 0.00045446344 -0.0031805567 -0.004723717 0.00015033907 0.0092263175 0.007233781 0.0023942352
0.013633815 0.000295003 0.0021218467 -0.013883103 -0.013806798 -0.008541837 -0.009271014 0.0005542742
-0.0059111686 -0.00869578 -0.010884004 0.00079946197 -0.0014055745 -0.011999124 0.0071651656 0.0029478117
0.072236225 0.02408541 -0.1236278 -0.041206177 0.069418676 0.1561081 0.20456716 -0.047983035
0.087162726 0.043135174 -0.022515917 -0.08261421 0.034947045 -0.06892382 0.034666926 -0.08980492
0.012912898 0.03228814 0.04156978 -0.002350858 -0.010789841 0.024480548 -0.07708976 -0.02464506
0.050742555 0.009485868 -0.17226627 -0.082297914 -0.07192319 -0.11264723 -0.11184216 0.0016407984
-0.10771157 -0.20401578 0.0068365256 0.16805063 -0.112019874 -0.07146697 0.17625228 -0.002454075
0.0057557994 0.003939333 0.102783434 -0.11461635 -0.19897819 0.02100663 0.0690055 0.093595006
0.040148165 -0.054544266 -0.07665449 0.036844447 0.09100076 0.10330049 0.0675994 -0.16084015
-0.11386633 -0.197771 0.04766854 0.011883078 0.07983789 0.0012461389 -0.09423448 0.084567666
0.104051545 0.08632963 -0.12150004 -0.049417004 0.10880104 0.11369731 0.14784768 0.032809377
0.10941168 0.08007614 -0.23182786 -0.100197874 0.05112299 -0.20298706 0.1325292 -0.148246
0.031584393 0.06597858 -0.031153776 -0.026968539 -0.01880336 -0.09391117 -0.09226457 0.06880498
-0.14271705 -0.0053968285 -0.03955047 -0.07310244 -0.056004737 -0.11932463 0.030168707 -0.08155286
0.10115155 -0.0043188175 -0.16177228 -0.07172397 0.0959897 -0.0833484 -0.1578375 0.09089836
-0.024877254 -0.04656678 -0.038061775 0.04603824 0.052670278 -0.19413568 0.109010845 0.0061927764
-0.037866686 0.18841822 -0.03252568 -0.17817263 -0.08983317 -0.04480194 0.040279258 0.1064577
-0.039216433 0.059435602 0.03756955 0.009326875 -0.15162766 0.014041736 0.01521289 -0.011382705
0.096205585 0.026766418 -0.11570339 -0.1026609 0.04434105 0.123914264 0.20875213 0.009095644
0.0069826464 0.10026627 -0.08248922 -0.14235845 0.030923517 -0.2174705 0.081575274 -0.05749162
0.010910691 0.013885674 0.012743852 0.12193352 -0.002490263 -0.16051255 -0.14154288 0.094639525
-0.011777803 0.098010585 -0.13510755 -0.07419364 0.041866876 -0.053948063 -0.056005694 -0.20240702
-0.050869875 -0.031600077 0.02393763 -0.013914578 -0.007813213 -0.023682488 0.046249915 -0.0009530094
0.04934322 0.011776465 -0.00253139 -0.043799832 -0.029922282 0.04016326 -0.003519553 -0.023346612
0.025062017 0.022151409 -0.02335 0.014726651 -0.0060682157 0.027695714 -0.02436829 -0.03601409
0.034574874 0.015265167 -0.055074092 -0.0056051295 0.045588918 -0.011282898 -0.006461059 0.031466123
00000000: b1c3 193d a8a6 9f3c e9e1 85bd 518d 96bc
00000010: 930b 95bb e171 bb3d 0950 f33d e786 c33c
00000020: 05d9 2b3d d540 c73c 5207 e8bc a9f7 41bd
00000030: 9221 7e3c 52f9 95bd b2da d53c 6c69 61bd
00000040: 55e4 beba 58a2 243c cb4b 2a3c b9c2 3f3d
00000050: e62a 5c39 5b6e 5bbc 064b 14bd 677a 273d
00000060: eff8 0fbc 062b 673d a283 76bd f55e 10bd
00000070: 0225 213a 8ba5 60bd 7987 27bd 1c0f e6bd
00000080: 4590 b53b 9f41 81bb 9fef 0dbb 3f43 283c
00000090: ce92 71bb d37c 4c39 11e4 d63b f908 883a
000000a0: e7ca 2dba 0d45 ee39 e370 50bb 69c9 9abb
000000b0: 56a4 1d39 fb29 173c 5a09 ed3b 9ae8 1c3b
000000c0: 5d60 5f3c a2aa 9a39 ae0e 0b3b f475 63bc
000000d0: e835 62bc 10f3 0bbc 73e5 17bc b64c 113a
000000e0: 7ab2 c1bb bf78 0ebc d252 32bc fc92 513a
000000f0: 413b b8ba f997 44bc c4c9 ea3b 1330 413b
00000100: 96f0 933d c44e c53c 9230 fdbd cfc7 28bd
00000110: 612b 8e3d cdda 1f3e 0e7a 513e dc89 44bd
00000120: 5f82 b23d 82ae 303d 4d73 b8bc a431 a9bd
00000130: a224 0f3d ef27 8dbd e8fe 0d3d a4eb b7bd
00000140: 9f90 533c 9240 043d 1345 2a3d da10 1abb
00000150: e0c7 30bc 6e8b c83c 3ce1 9dbd 70e4 c9bc
00000160: 6dd7 4f3d 9d6a 1b3c 9266 30be cf8b a8bd
00000170: 774c 93bd 97b3 e6bd 810d e5bd 0f10 d73a
00000180: e297 dcbd 83e9 50be ef04 e03b 7715 2c3e
00000190: ad6a e5bd 465d 92bd 7a7b 343e 8cd4 20bb
000001a0: 259b bc3b 8515 813b 1f80 d23d fabb eabd
000001b0: f0c0 4bbe 1916 ac3c c152 8d3d bdae bf3d
000001c0: 6772 243d cf69 5fbd 07fd 9cbd 34ea 163d
000001d0: 9b5e ba3d 358f d33d 8e71 8a3d 48b3 24be
000001e0: c032 e9bd 7b84 4abe 1640 433d 3eb1 423c
000001f0: 0c82 a33d 7c55 a33a 02fe c0bd d031 ad3d
00000200: fa18 d53d 97cd b03d 03d5 f8bd 7c69 4abd
00000210: 14d3 de3d 23da e83d 6265 173e 2063 063d
00000220: 3b13 e03d f6fe a33d 4864 6dbe 8b34 cdbd
00000230: 5766 513d d7db 4fbe bcb5 073e cdcd 17be
00000240: a35e 013d c71f 873d 3436 ffbc 20ed dcbc
00000250: 8109 9abc 8054 c0bd 35f5 bcbd a0e9 8c3d
00000260: 6b24 12be e1d7 b0bb acff 21bd bbb6 95bd
00000270: 3965 65bd 7960 f4bd 5d24 f73c 3005 a7bd
00000280: 8b28 cf3d de84 8dbb a2a7 25be 04e4 92bd
00000290: 3f96 c43d 91b2 aabd 27a0 21be eb28 ba3d
000002a0: 62cb cbbc cfbc 3ebd aae6 1bbd 9892 3c3d
000002b0: cabc 573d 81cb 46be 1441 df3d c6ec ca3b
000002c0: 191a 1bbd b5f0 403e a639 05bd e372 36be
000002d0: 74fa b7bd 3d82 37bd ddfb 243d 7f06 da3d
000002e0: 69a1 20bd bf72 733d 87e2 193d c0cf 183c
000002f0: 4844 1bbe 4f0f 663c 7c3f 793c 867e 3abc
00000300: 6f07 c53d 3f45 db3c e6f5 ecbd e13f d2bd
00000310: f69e 353d c3c6 fd3d 1ec3 553e e505 153c
00000320: afce e43b 6758 cd3d 1cf0 a8bd 6ac6 11be
00000330: 5153 fd3c 96b0 5ebe f010 a73d 557c 6bbd
00000340: c1c2 323c bd80 633c 97cb 503c 48b8 f93d
00000350: ae33 23bb 675d 24be 9ef0 10be 5ed2 c13d
00000360: b0f7 40bc c6b9 c83d a259 0abe d6f2 97bd
00000370: 9a7c 2b3d a5f8 5cbd 3a66 65bd c943 4fbe
00000380: ee5c 50bd 156f 01bd d918 c43c f8f9 63bc
00000390: fe02 00bc c701 c2bc 8d70 3d3d 61d3 79ba
000003a0: 1e1c 4a3d 13f2 403c ade5 25bb 7467 33bd
000003b0: 931f f5bc 3b82 243d 4da8 66bb 6541 bfbc
000003c0: dc4e cd3c df76 b53c 8048 bfbc 0d48 713c
000003d0: e2d7 c6bb 1fe2 e23c 02a0 c7bc 8383 13bd
000003e0: 629e 0d3d c01a 7a3c 5f95 61bd 3cab b7bb
000003f0: 72bb 3a3d e7db 38bc 4bb7 d3bb 9fe2 003d

controller.lstm.weight_hh f4 [400, 100]
0.018588098 0.018090816 -0.01724467 0.009255883 0.022419523 -0.002736681 0.0035935321 -0.02589844
-0.00950262 0.027479105 0.010924956 -0.002017018 -0.016359469 0.018112667 0.030745884 0.027426897
0.016727963 -0.01697074 0.023161931 0.00277928 0.00896344 -0.027148353 0.012606282 0.016446259
0.026257902 0.02932223 -0.007084339 -0.0058984524 -0.0066762296 0.04920692 0.0025717278 0.015581387
-0.0019290698 0.0024457567 -0.002675226 0.014156498 0.002112007 -0.0048394543 -0.011230258 -0.030294513
0.003109548 0.026081666 -0.018096428 -0.003166435 0.01307731 -0.029380253 -0.0043347655 0.006738413
0.0037037062 0.0034143443 0.031030882 -0.036027983 0.026374312 -0.016905997 0.009805396 -0.016901026
-0.02753593 0.0012887629 0.012746693 0.021478409 0.025227828 -0.005859488 -0.023614323 -0.030520983
0.015582857 -0.024334073 0.04303744 0.025690133 0.009920833 -0.03307131 0.017519156 0.0021152825
-0.03134718 0.02191957 0.0021479798 0.04058687 -0.0221974 -0.0021602917 0.026531061 -0.024208294
-0.02193767 0.003800229 -0.015110035 -0.005851182 0.0017426163 0.027992686 -0.014218978 0.00723357
0.0025379132 -0.0008819757 0.01625584 0.023301847 -0.0066929264 0.018040147 -0.006936545 -0.02970451
0.003591171 -0.014977596 0.01890639 -0.00944144 0.078513965 0.037362758 -0.08811478 0.07199186
-0.053359974 0.025485348 -0.14778538 -0.03327783 -0.0454131 0.09462416 -0.0029964787 -0.069280125
-0.16536531 0.008904157 0.115649894 0.18766259 0.011921437 -0.03748463 -0.13757128 -0.015977891
0.096986175 -0.06865088 -0.11289214 -0.063665666 0.07399128 -0.012104323 0.20529282 -0.15178598
-0.06572186 0.051631447 0.04594751 0.08342523 0.11741554 -0.028514974 0.16362177 0.11160619
0.01866084 0.123640336 -0.17521276 -0.08130302 -0.08444342 -0.18063772 -0.16682403 -0.06884088
-0.07208146 -0.043386668 -0.07763903 0.089988336 0.12261887 -0.0019240282 0.20433754 0.031739894
-0.19220056 0.253602 0.08148882 0.0043142433 -0.088138126 0.0657866 0.08828457 -0.029949108
0.12195709 -0.012801277 -0.09236177 -0.042206842 -0.13148601 0.03480208 0.21164778 0.26402467
-0.20537698 -0.0741722 0.023950867 -0.023615314 -0.025792584 0.051319588 -0.0624051 0.851447
0.082277864 -0.0750413 0.06652422 -0.058386113 -0.05916001 -0.011324066 -0.056444824 0.100595176
-0.09116309 -0.08253659 -0.04995869 -0.15767671 -0.08196004 0.10309911 0.05523319 0.010164835
0.12827154 0.07877341 -0.06854799 -0.0637288 -0.022765493 -0.07231681 -0.15066862 -0.2050898
0.2590617 -0.4294706 -0.25910014 -0.046451204 -0.19873571 -0.24367613 0.04109981 0.026572328
-0.15346889 0.065766566 -0.06718298 -0.022071328 0.05646761 0.049438123 0.052267686 0.09394283
0.04221759 0.13125618 -0.011299771 -0.4786449 -0.09302036 0.22614641 -0.038248826 -0.15631367
-0.058417194 0.23537287 0.03489449 -0.0024279947 0.12611406 -0.16561724 -0.25745907 0.016733706
0.11764043 0.021461803 0.10360015 -0.03335276 0.15630656 -0.02864766 -0.011828827 0.2042327
0.089942575 0.0850273 0.18653409 0.023248024 -0.17806183 -0.2043363 0.016285123 -0.06965108
0.08995587 -0.0033400273 0.062072746 -0.054504223 -0.028290275 0.04971792 -0.0057629747 0.10235447
00000000: 1146 983c 3133 943c b244 8dbc fda5 173c
00000010: 26a9 b73c e359 33bb 7781 6b3b f728 d4bc
00000020: e1b0 1bbc dc1b e13c 96fe 323c f22f 04bb
00000030: 4b04 86bc 0461 943c cbde fb3c 5fae e03c
00000040: 1509 893c 3906 8bbc 17be bd3c 9524 363b
00000050: 64db 123c 3966 debc 948a 4e3c 4eba 863c
00000060: d01a d73c 2c35 f03c be23 e8bb ce47 c1bb
00000070: 46c4 dabb 328d 493d 6f8a 283b 1349 7f3c
00000080: d7d8 fcba fd48 203b d852 2fbb a8f0 673c
00000090: 9969 0a3b 4994 9ebb 1eff 37bc 332c f8bc
000000a0: 8fc9 4b3b 38a9 d53c f63e 94bc f783 4fbb
000000b0: 3742 563c dbae f0bc a60a 8ebb e8cd dc3b
000000c0: e1b9 723b 31c3 5f3b 7a34 fe3c 1492 13bd
000000d0: f10e d83c 727e 8abc d0a6 203c 0574 8abc
000000e0: 0893 e1bc b5eb a83a 81d7 503c 7df3 af3c
000000f0: 97aa ce3c f300 c0bb d372 c1bc 2407 fabc
00000100: 3d4f 7f3c 4058 c7bc 0748 303d 1d74 d23c
00000110: fd8a 223c c875 07bd 5584 8f3c 8da0 0a3b
00000120: e765 00bd ac90 b33c 1fc5 0c3b 6b3e 263d
00000130: 52d7 b5bc ae93 0dbb ab57 d93c 7950 c6bc
00000140: a1b6 b3bc 430d 793b 1590 77bc 46bb bfbb
00000150: 8068 e43a eb50 e53c b7f6 68bc 9507 ed3b
00000160: 1e53 263b 6334 67ba f82a 853c 84e3 be3c
00000170: 5650 dbbb eec8 933c f54b e3bb df56 f3bc
00000180: da59 6b3b 9764 75bc 93e1 9a3c 45b0 1abc
00000190: eecb a03d b109 193d 8675 b4bd 7870 933d
000001a0: fd8f 5abd a6c6 d03c 0d55 17be 554e 08bd
000001b0: 1603 3abd 50ca c13d 9260 44bb bde2 8dbd
000001c0: 8655 29be bee2 113c dad9 ec3d 9f2a 403e
000001d0: 2252 433c 7c89 19bd 7cdf 0cbe 11e4 82bc
000001e0: b0a0 c63d d598 8cbd ff33 e7bd 2563 82bd
000001f0: bd88 973d 3651 46bc 4838 523e c96d 1bbe
00000200: 2f99 86bd 7f7b 533d 7533 3c3d d9da aa3d
00000210: 8f77 f03d 3c98 e9bc 778c 273e c991 e43d
00000220: 9ede 983c 2537 fd3d f96a 33be 3382 a6bd
00000230: acf0 acbd 18f9 38be ebd3 2abe 73fc 8cbd
00000240: 729f 93bd 38b6 31bd 3601 9fbd ce4b b83d
00000250: 9a1f fb3d ac2f fcba dc3d 513e b101 023d
00000260: 39d0 44be 1fd8 813e 9ce3 a63d 7f5e 8d3b
00000270: c381 b4bd 20bb 863d 8ace b43d d557 f5bc
00000280: a4c4 f93d 73bc 51bc 2b28 bdbd 15e1 2cbd
00000290: 45a4 06be a08c 0e3d 32ba 583e 3e2e 873e
000002a0: 584e 52be 98e7 97bd 9c34 c43c e774 c1bc
000002b0: f84a d3bc 7d34 523d 7d9c 7fbd 6ef8 593f
000002c0: 4c81 a83d 41af 99bd da3d 883d 4726 6fbd
000002d0: c451 72bd 9388 39bc b032 67bd d804 ce3d
000002e0: b7b3 babd f208 a9bd 7ca1 4cbd 0176 21be
000002f0: aada a7bd a025 d33d 333c 623d 688a 263c
00000300: 9d59 033e f453 a13d e362 8cbd 3f84 82bd
00000310: b37e babc d61a 94bd e048 1abe 0f03 52be
00000320: bca3 843e 92e3 dbbe c6a8 84be 9e43 3ebd
00000330: 6081 4bbe 3c86 79be 4658 283d 36ae d93c
00000340: f326 1dbe 9fb0 863d 3b97 89bd eece b4bc
00000350: 954a 673d a17f 4a3d a416 563d 1965 c03d
00000360: 5aec 2c3d 0568 063e ad22 39bc f210 f5be
00000370: 7581 bebd ed92 673e cdaa 1cbd b110 20be
00000380: de46 6fbd 9605 713e 86ed 0e3d fe1e 1fbb
00000390: 0b24 013e 9197 29be add1 83be 2015 893c
000003a0: 77ed f03d aad0 af3c 512c d43d e79c 08bd
000003b0: d40e 203e 7fae eabc b2cd 41bc 6022 513e
000003c0: d033 b83d cb22 ae3d cb02 3f3e a472 be3c
000003d0: d755 36be 893d 51be 6168 853c 3aa5 8ebd
000003e0: c83a b83d 5ce4 5abb fe3f 7e3d d23f 5fbd
000003f0: 02c1 e7bc 05a5 4b3d 56d7 bcbb 389f d13d

controller.lstm.bias_ih f4 [400]
0.053703032 0.12264571 0.07934788 0.09072945 0.10099097 0.09277599 0.027001299 0.07479511
-0.0056060785 0.09795519 -0.08268444 0.020991622 0.018875135 0.087577425 0.13963544 0.042696107
0.11198437 0.08460325 0.13524641 -0.023130197 -0.13281575 0.04530206 0.05872245 0.10474415
0.19430184 0.16437936 0.14721437 -0.035758246 0.019842891 0.15084253 0.096993834 0.028361576
0.017621377 0.022232411 -0.019281577 0.15608598 0.058978207 0.04023347 -0.01165981 0.07100023
0.08957175 0.097382836 0.04206367 0.061427776 0.07183604 0.04513038 0.079864286 0.016881727
0.053340472 -0.043243155 0.07423873 0.19565791 0.049897503 0.05406012 0.0647867 0.08268786
0.009278608 0.04321067 -0.027911631 0.05037559 0.09721265 -0.15656 -0.014003165 0.08314958
0.09779573 0.04142573 0.19139227 0.053168293 0.123502426 -0.032752786 0.05408738 0.02022246
0.077395536 0.08132583 0.025790801 0.0124075115 0.0906697 -0.07608191 0.08150517 0.10628224
0.04795447 0.011479836 0.029314214 0.15216468 0.066861935 0.12230824 -0.06900695 0.23250096
-0.018022511 0.16583169 -0.05098246 0.013430712 0.016865084 0.041619446 0.06788223 0.05833702
-0.017979635 0.041031733 0.11344013 0.14637102 0.06708131 -0.0939624 0.049033426 0.10798877
0.06175466 0.06313297 0.05555437 0.04608685 0.06802242 -0.0048682275 0.05896731 0.040340148
0.06928081 0.03118297 0.059020746 -0.016601972 0.036509562 0.10114326 -0.015251872 0.029740764
0.065517575 0.066696845 0.12581974 0.064322926 0.14261496 0.06847239 -0.053941794 0.009235401
0.084656425 0.08608456 0.07436088 0.05045414 0.031666934 0.06080274 -0.031213487 0.16026624
0.06349208 0.1283375 0.0047085905 0.080259904 0.06651518 0.11649415 0.03659582 0.08354708
0.03257157 0.0046390817 0.053888783 -0.030658387 0.021054288 0.053176377 0.055126593 0.17273848
-0.005650518 -0.0016405921 -0.039200787 0.098697975 0.0929191 0.058102794 0.03233015 0.029295376
0.047222316 0.13905682 0.07729041 0.0437559 -0.024545683 0.10226805 0.19022137 0.050736517
0.0040884754 0.09612663 0.09915489 -0.014844661 0.034077816 0.06325922 0.0687054 0.11077959
0.06230387 0.08004956 0.019307986 0.013133897 0.07428651 0.09985411 0.100476325 0.1001689
0.06833249 0.052939706 0.049307376 -0.09703641 0.10775904 0.059202176 0.007887419 0.15556785
0.092004664 0.059239097 0.043814957 0.066359386 0.08360793 0.059061848 0.050955232 0.016522733
0.095306575 0.023543334 -0.11709329 -0.08689385 0.114663266 -0.06056344 0.021666113 -0.0714995
-0.011917473 0.036653172 -0.031422194 -0.024200011 -0.051464554 -0.023132663 0.11240588 0.043562196
-0.05462144 -0.14328012 -0.02709332 -0.013354778 -0.010806645 -0.07600742 0.04299167 0.11793132
0.10597091 0.044876397 -0.0877378 0.0047905887 -0.077739276 -0.013014361 -0.09969721 0.039322108
0.015721766 0.07377043 -0.07074748 -0.09367954 -0.00076105044 -0.06573565 0.029448064 -0.00016673413
-0.07203643 0.020467756 -0.12733337 0.07527341 0.077981554 -0.09029697 -0.14161643 -0.07671966
-0.008798263 -0.07063181 0.053120088 -0.14797333 0.1295972 -0.13384171 0.09245274 -0.05259527
00000000: b6f7 5b3d ad2d fb3d 2481 a23d 5dd0 b93d
00000010: 5bd4 ce3d 5701 be3d d431 dd3c 2e2e 993d
00000020: 32b3 b7bb bb9c c83d 7656 a9bd 9ff6 ab3c
00000030: 07a0 9a3c cb5b b33d 98fc 0e3e 1de2 2e3d
00000040: 1058 e53d 7844 ad3d 097e 0a3e 8a7b bdbc
00000050: da00 08be a78e 393d f486 703d 1a84 d63d
00000060: 10f7 463e 1053 283e 5dbf 163e 3d77 12bd
00000070: 8f8d a23c 7776 1a3e b4a4 c63d 8956 e83c
00000080: b55a 903c bf20 b63c 66f4 9dbc 01d5 1f3e
00000090: 2293 713d dacb 243d ca08 3fbc 9268 913d
000000a0: 6571 b73d a770 c73d f44a 2c3d b19b 7b3d
000000b0: c61e 933d a2da 383d e38f a33d 8c4b 8a3c
000000c0: 8a7b 5a3d bc1f 31bd 7a0a 983d 8c5a 483e
000000d0: 5361 4c3d 256e 5d3d e4ae 843d 4158 a93d
000000e0: 4d05 183c acfd 303d efa6 e4bc a256 4e3d
000000f0: 6d17 c73d 4451 20be 886d 65bc 544a aa3d
00000100: 2149 c83d 07ae 293d 56fc 433e ffc6 593d
00000110: d7ee fc3d c927 06bd bb8a 5d3d 93a9 a53c
00000120: 8d81 9e3d 288e a63d 3b47 d33c e048 4b3c
00000130: 09b1 b93d d5d0 9bbd 2fec a63d 81aa d93d
00000140: e86b 443d ec15 3c3c 5d24 f03c 0fd1 1b3e
00000150: e9ee 883d be7c fa3d 8453 8dbd bb14 6e3e
00000160: f2a3 93bc c8cf 293e fcd2 50bd 7d0c 5c3c
00000170: a528 8a3c 2779 2a3d d705 8b3d cdf2 6e3d
00000180: 074a 93bc e410 283d 4d53 e83d 49e2 153e
00000190: ed61 893d 5c6f c0bd 46d7 483d 3729 dd3d
000001a0: 74f2 7c3d dc4b 813d fb8c 633d 91c5 3c3d
000001b0: 574f 8b3d a785 9fbb b587 713d b63b 253d
000001c0: 19e3 8d3d 6e73 ff3c bdbf 713d dc00 88bc
000001d0: 0d8b 153d 3324 cf3d fde2 79bc e7a2 f33c
000001e0: 142e 863d 5b98 883d e4d6 003e bdbb 833d
000001f0: a809 123e 413b 8c3d 12f2 5cbd 1450 173c
00000200: 5960 ad3d 1a4d b03d 844a 983d 00a9 4e3d
00000210: 30b5 013d 4b0c 793d 6db3 ffbc d51c 243e
00000220: 2308 823d e86a 033e 854a 9a3b 4e5f a43d
00000230: 1c39 883d 7c94 ee3d 80e5 153d bb1a ab3d
00000240: c469 053d 7003 983b 7cba 5c3d 4c27 fbbc
00000250: 0b7a ac3c 79cf 593d 6ccc 613d 5be2 303e
00000260: fb27 b9bb 2309 d7ba 0191 20bd 2a22 ca3d
00000270: 5e4c be3d 32fd 6d3d 9f6c 043d dbfc ef3c
00000280: 306c 413d e964 0e3e 6f4a 9e3d 6339 333d
00000290: 0714 c9bc e971 d13d 64c9 423e 18d1 4f3d
000002a0: 9ef8 853b 0ade c43d b811 cb3d 0537 73bc
000002b0: 2e95 0b3d 0d8e 813d 6bb5 8c3d 69e0 e23d
000002c0: 5832 7f3d 06f1 a33d c82b 9e3c 8f2f 573c
000002d0: 8723 983d 5080 cc3d 88c6 cd3d 5a25 cd3d
000002e0: e8f1 8b3d 4ed7 583d 88f6 493d 06bb c6bd
000002f0: c6b0 dc3d fb7d 723d 3c3a 013c 2e4d 1f3e
00000300: f16c bc3d b2a4 723d 5077 333d 6ee7 873d
00000310: a23a ab3d d6ea 713d 6fb6 503d af5a 873c
00000320: 1830 c33d f3dd c03c 9bce efbd 67f5 b1bd
00000330: 93d4 ea3d 5f11 78bd 227d b13c 546e 92bd
00000340: 8141 43bc a321 163d 8fb4 00bd 1a3f c6bc
00000350: 7fcc 52bd b680 bdbc 0e35 e63d 466e 323d
00000360: bbba 5fbd 06b8 12be cff2 ddbc 00ce 5abc
00000370: 5b0e 31bc c7a9 9bbd 0918 303d fa85 f13d
00000380: 4707 d93d 50d0 373d e0af b3bd 5ffa 9c3b
00000390: c535 9fbd 303a 55bc 0d2e ccbd 3810 213d
000003a0: efca 803c f414 973d 0ee4 90bd 0fdb bfbd
000003b0: 3b81 47ba 6aa0 86bd 113d f13c 5ad5 2eb9
000003c0: d687 93bd ffab a73c ae63 02be f228 9a3d
000003d0: cbb4 9f3d 9eed b8bd e603 11be 321f 9dbd
000003e0: 9726 10bc 69a7 90bd 7394 593d 5286 17be
000003f0: 21b5 043e cd0d 09be dd57 bd3d 236e 57bd

controller.lstm.bias_hh f4 [400]
0.043848142 0.123475395 0.031978786 0.06992348 0.10117103 0.09704203 0.04838493 0.07375739
-0.007405584 0.099155754 -0.10616735 0.045217942 -0.024183128 0.087893054 0.14057632 0.022796968
0.11190205 0.09207278 0.13566321 -0.004240433 -0.104985975 0.046666045 0.05807212 0.10598793
0.13428888 0.16494276 0.20228493 0.005893447 0.016246872 0.102150835 0.07450951 0.029994544
0.030456735 0.031304523 -0.023198273 0.19153765 0.06209353 0.06594716 0.00957154 0.06749629
0.118791394 0.10223443 0.030094454 0.06901633 0.071093686 0.046329364 0.047386967 0.02355545
0.058723155 -0.009583045 0.07993748 0.15474492 -0.020499237 0.0568049 0.08418983 0.084277384
0.031565774 0.020742264 0.0083511565 0.12775771 0.09766719 -0.19101746 -0.04389496 0.077881664
0.14577524 0.040584616 0.23156148 0.042340454 0.12542726 -0.0032317308 0.0054982333 0.047260787
0.07867008 0.080961265 0.03274649 0.019741531 0.08995531 -0.09210636 0.084888466 0.11256078
0.050915413 -0.022696085 0.041602787 0.1684839 0.0663253 0.121619284 -0.03275021 0.2318984
0.018639734 0.1757204 -0.07815803 0.017348984 0.0072167693 0.06321857 0.06822426 0.061664447
-0.043129455 0.038481377 0.11308133 0.11153052 0.06357847 0.014967965 0.035450086 0.12153973
0.061742928 0.06607352 0.056954306 0.046060108 0.05546944 0.038727466 0.018052643 0.034025345
0.16609246 0.09124844 0.0119602615 -0.010725632 0.037110843 0.11439779 -0.0014591006 0.015284891
0.15277275 0.066910245 0.09686708 0.064290665 0.08136051 0.15539399 0.011670188 -0.017072707
0.086198434 -0.020421848 0.036444124 0.051156223 0.031811077 0.05790194 -0.036795735 0.14807086
0.02455729 0.09900653 -0.0765801 0.10047106 0.06598893 0.11080311 0.06115762 0.08333579
0.03264964 0.004400248 0.029069666 0.025119571 0.021445401 0.002491985 0.05608992 0.16362162
0.087486245 0.031039122 -0.090277456 0.049417723 0.05439572 0.06590163 0.051653054 0.03023117
0.057708383 0.06403183 0.1183937 0.022357803 -0.035755947 0.0753971 0.1829823 0.048682578
0.05049882 0.06873684 0.10473994 0.005657356 0.034055248 0.06369499 0.07142098 0.058245413
0.06234033 0.043682914 0.018907746 0.042819366 0.069089055 0.10755856 0.11242569 0.064960875
0.08420814 0.056596883 0.04437398 -0.015723415 0.06666069 0.04804735 0.10875974 0.15824784
-0.06249428 0.056830566 0.11119962 0.06635412 0.06516918 0.08710227 0.07678767 0.026823519
0.088730305 0.011576169 -0.12762973 -0.00790496 0.11055904 -0.09077619 -0.035793975 -0.062399182
-0.009149513 0.04706996 0.0035443222 -0.022806216 0.012840191 -0.0030819515 0.1591032 0.015424105
-0.04501977 -0.14569038 -0.07899517 -0.052320544 0.088266835 -0.07474853 -0.0064607193 0.116332
0.11206913 0.0801773 -0.008713405 0.08716434 -0.08619978 0.03892545 -0.035138052 0.03905278
-0.03943639 -0.0150797935 0.056627963 0.011050985 -0.087897055 0.0072888415 0.05649658 0.006298309
-0.0023648327 0.115102895 -0.098488666 0.05750008 0.08310469 -0.084937684 -0.09842969 -0.06846395
0.005012828 -0.04600085 0.058643438 -0.006383807 0.12896125 0.0012838134 0.09721903 -0.116692744
00000000: 1c9a 333d abe0 fc3d 30fc 023d 0b34 8f3d
00000010: c232 cf3d f9bd c63d 472f 463d 1d0e 973d
00000020: 8baa f2bb 2c12 cb3d 456e d9bd 7336 393d
00000030: b21b c6bc 4601 b43d 3df3 0f3e b5c0 ba3c
00000040: e72c e53d a790 bc3d 4ceb 0a3e 55f3 8abb
00000050: e302 d7bd e524 3f3d 08dd 6d3d 3310 d93d
00000060: 0683 093e c1e6 283e c823 4f3e d11d c13b
00000070: 2918 853c 7534 d13d 7198 983d 1eb7 f53c
00000080: 6780 f93c 2c39 003d 4e0a bebc 7222 443e
00000090: c955 7e3d 4e0f 873d f3d1 1c3c 7f3b 8a3d
000000a0: e748 f33d 4960 d13d a588 f63c 6f58 8d3d
000000b0: 9199 913d dcc3 3d3d d618 423d 5cf7 c03c
000000c0: b187 703d 3402 1dbc 43b6 a33d 7475 1e3e
000000d0: 04ee a7bc 41ac 683d b86b ac3d 9f99 ac3d
000000e0: 1d4b 013d aeeb a93c 4ad3 083c ebd2 023e
000000f0: bc05 c83d 159a 43be 34cb 33bd 6c80 9f3d
00000100: 1b46 153e 0e3c 263d 741e 6d3e 2f6d 2d3d
00000110: 0170 003e 72cb 53bb 862a b43b 8794 413d
00000120: c71d a13d 05cf a53d 2f21 063d feb8 a13c
00000130: 7d3a b83d 42a2 bcbd 01da ad3d 4486 e63d
00000140: ae8c 503d 24ed b9bc af67 2a3d 0b87 2c3e
00000150: 8fd5 873d 8813 f93d 1625 06bd c676 6d3e
00000160: 5bb2 983c 0cf0 333e 5111 a0bd 751f 8e3c
00000170: a67a ec3b bd78 813d 29b9 8b3d dc93 7c3d
00000180: 83a8 30bd a69e 1d3d 2f97 e73d 1d6a e43d
00000190: 6e35 823d 323c 753c 1c34 113d d2e9 f83d
000001a0: 27e6 7c3d 8e51 873d eb48 693d 86a9 3c3d
000001b0: ec33 633d b1a0 1e3d 23e3 933c 295e 0b3d
000001c0: 2414 2a3e 76e0 ba3d f9f4 433c 90ba 2fbc
000001d0: 8a01 183d 6349 ea3d 4b3f bfba 7b6d 7a3c
000001e0: 7670 1c3e 3d08 893d 3f62 c63d d3aa 833d
000001f0: 57a0 a63d 9a1f 1f3e 5134 3f3c 10dc 8bbc
00000200: ce88 b03d b84b a7bc 6f46 153d 3089 513d
00000210: 554c 023d 962a 6d3d 20b7 16bd e39f 173e
00000220: 5f2c c93c f0c3 ca3d 07d6 9cbd c5c3 cd3d
00000230: 3425 873d beec e23d 6a80 7a3d f4ab aa3d
00000240: a1bb 053d f52f 903b 8223 ee3c 8fc7 cd3c
00000250: 44ae af3c 9250 233b 8bbe 653d 6d8c 273e
00000260: fd2b b33d c245 fe3c 63e3 b8bd 3d6a 4a3d
00000270: 0cce 5e3d 6ff7 863d 2792 533d 5ca7 f73c
00000280: a05f 6c3d 1f23 833d 6578 f23d b627 b73c
00000290: d474 12bd cb69 9a3d b65f 3b3e 6267 473d
000002a0: dad7 4e3d e6c5 8c3d e581 d63d 5861 b93b
000002b0: 847d 0b3d 8572 823d 2a45 923d be92 6e3d
000002c0: 9358 7f3d dbec 323d 6be4 9a3c 5c63 2f3d
000002d0: 907e 8d3d aa47 dc3d 713f e63d 350a 853d
000002e0: 5175 ac3d 22d2 673d 7ec1 353d 64ce 80bc
000002f0: 6685 883d 4ccd 443d 6dbd de3d b90b 223e
00000300: 01fa 7fbd 2bc7 683d a0bc e33d abe4 873d
00000310: 6b77 853d ad62 b23d db42 9d3d ffbc db3c
00000320: 3cb8 b53d f9a9 3d3c 5eb1 02be ce83 01bc
00000330: c76c e23d dee8 b9bd b49c 12bd 4996 7fbd
00000340: d7e7 15bc 6ecc 403d dc47 683b 1ad4 babc
00000350: aa5f 523c 91fa 49bb f3eb 223e 63b5 7c3c
00000360: a666 38bd dc2f 15be 38c8 a1bd 114e 56bd
00000370: 3ec5 b43d c215 99bd 71b4 d3bb 793f ee3d
00000380: 8084 e53d ff33 a43d abc2 0ebc 3883 b23d
00000390: 8389 b0bd 4b70 1f3d ebec 0fbd cff5 1f3d
000003a0: 0d88 21bd 3d11 77bc b9f2 673d 310f 353c
000003b0: 5f03 b4bd 3cd7 ee3b f568 673d 0c62 ce3b
000003c0: 4ffb 1abb 11bb eb3d 6db4 c9bd 3485 6b3d
000003d0: cb32 aa3d cff3 adbd 8195 c9bd d436 8cbd
000003e0: a642 a43b 636b 3cbd 1a34 703d 412f d1bb
000003f0: 6b0e 043e a145 a83a c51a c73d 9bfc eebd

controller.fc_out.weight f4 [1000, 100]
0.24054077 0.044217974 -0.61924887 -0.42506075 0.49885163 -0.21117996 0.006108844 -0.27870396
0.18309516 -0.16065207 -0.08603293 -0.3223692 0.04746789 -0.77139074 0.48377106 0.2617962
-0.9878732 -0.46163929 -1.1950321 -0.6583173 -0.14607182 -0.10513794 0.3367079 0.4922453
0.3907617 0.36438397 -0.8375708 0.06484605 -0.28724092 -0.3492714 -0.5314056 -0.14349733
0.67964756 0.18921776 0.14186022 -0.2574214 -0.6652635 -0.06700834 -0.14162333 0.064392984
0.29056582 0.31800473 -0.4666568 0.073159724 0.4232512 0.20532317 -0.4012447 -0.36893198
-0.3744639 -0.23271872 0.19587152 -0.51726896 0.513678 -0.38051862 0.32845894 -0.3190532
-0.40325844 -0.051163457 0.122477405 0.4211595 0.4549605 -0.22294167 0.03696153 -0.44608146
0.53591293 0.04368773 0.27528194 0.13248397 -0.026527304 0.004834541 0.14863455 0.7047875
-0.26011628 0.4888334 0.58841205 -0.11766733 -0.40315774 0.14519663 0.27753472 -0.044460934
-0.2594779 -0.44212306 0.20258878 -0.73245066 -0.7190566 0.6289531 0.348907 -0.69101274
0.040653728 0.79326093 0.66583866 0.100927934 0.4838743 0.16223261 -0.36153078 -0.14237656
0.14684568 -0.34946966 0.3373807 0.72382975 -0.4943536 -0.28389767 -0.28228283 0.2353844
-0.89361995 -0.41820768 -0.77059174 -0.005699299 0.16275999 1.2617605 0.0031579407 0.5284291
0.23644438 -0.45743513 -0.52445513 1.2858047 0.26098204 0.21672015 -0.007843273 0.059623014
-0.67700076 0.14385226 -0.80930907 -1.1562681 -0.5884501 0.28762 0.15656918 -0.1450503
0.15358707 0.25736618 -0.3949415 -0.4821633 -0.21121608 -0.093578406 0.5374517 0.17305066
0.4106322 0.08806165 -0.63913447 0.9033647 -0.34181333 -0.26050767 0.39218158 -0.47291014
-1.166277 0.35392994 0.2688661 -1.1699467 0.6654131 0.032129154 -0.30679792 -0.038280513
0.5940084 -0.3639327 -0.23928455 -0.84719557 -0.29259247 -0.06445477 0.1110083 0.50884414
-0.06271324 0.40577033 0.5255082 -0.4770595 0.40247306 0.3575223 -0.37851858 0.2065371
-0.361407 0.68867534 -0.35110316 -0.3361344 0.32652965 -0.9007683 -0.8716401 -1.1588838
1.1704531 -0.45735797 -0.6445826 0.41622582 0.34108508 0.24987815 -0.5223806 -0.4028066
0.042940322 0.12538505 0.96155524 0.7232741 0.18281196 0.6594836 -0.76383835 0.9966559
-0.3678004 0.28441468 -0.8689067 0.12336379 -0.07585127 -0.1794604 -0.2820296 -0.1559956
0.4618553 1.3870106 -0.11870207 -0.8186159 0.58706707 -0.19095533 -0.71885324 -0.43298486
-0.4726776 0.3485922 0.12603787 -0.301993 -0.45791486 0.20576826 1.6415633 0.042090774
0.096749246 0.08133839 0.87127227 0.26622868 0.3178935 -0.72305644 -0.7873347 0.5418622
-0.27702606 -0.17501548 0.1357387 0.06636027 -0.8175374 0.20236136 0.5236124 0.5697188
-0.34124535 0.42828378 1.1807545 -0.36651227 -1.2842152 -0.06919119 0.13944387 -0.5891454
-1.010354 0.70186394 -0.5530245 -0.116064124 0.33371434 -0.5876457 0.14718494 -0.35804445
0.14111182 1.0933197 0.36283207 0.90041023 0.009933078 0.90782887 -0.574773 0.17282228
00000000: 5250 763e e81d 353d 1887 1ebf 90a1 d9be
00000010: 7b69 ff3e 8f3f 58be b32c c83b 49b2 8ebe
00000020: 4c7d 3b3e fa81 24be 0832 b0bd 930d a5be
00000030: b16d 423d dd79 45bf d7b0 f73e 270a 863e
00000040: 42e5 7cbf fc5b ecbe d0f6 98bf 7c87 28bf
00000050: da93 15be 8f52 d7bd fa64 ac3e 9307 fc3e
00000060: eb11 c83e 8990 ba3e 0a6b 56bf 02ce 843d
00000070: 3e11 93be b3d3 b2be 330a 08bf f7f0 12be
00000080: 62fd 2d3f 4dc2 413e ce43 113e bdcc 83be
00000090: b54e 2abf ab3b 89bd b505 11be 78e0 833d
000000a0: 0bc5 943e 84d1 a23e a4ed eebe c4d4 953d
000000b0: 62b4 d83e 3d40 523e f26f cdbe a7e4 bcbe
000000c0: bbb9 bfbe d14d 6ebe 8b92 483e bd6b 04bf
000000d0: 6780 033f 56d3 c2be c52b a83e f15a a3be
000000e0: e477 cebe c690 51bd 6fd5 fa3d 38a2 d73e
000000f0: 95f0 e83e d24a 64be f964 173d ca64 e4be
00000100: 9731 093f e8f1 323d c1f1 8c3e e1a9 073e
00000110: ca4f d9bc 126b 9e3b a833 183e f46c 343f
00000120: f62d 85be 5f48 fa3e 2ca2 163f 92fb f0bd
00000130: b16a cebe 6dae 143e 0819 8e3e ab1c 36bd
00000140: 4ada 84be f45d e2be 6f73 4f3e e381 3bbf
00000150: 1814 38bf 1203 213f f0a3 b23e 36e6 30bf
00000160: 8684 263d 2613 4b3f 6774 2a3f 4eb3 ce3d
00000170: 5fbe f73e 4e20 263e 901a b9be 29cb 11be
00000180: b75e 163e b0ed b2be 2abd ac3e e84c 393f
00000190: ea1b fdbe 095b 91be 6087 90be 9c08 713e
000001a0: 47c4 64bf 511f d6be 8045 45bf 2fc1 babb
000001b0: 8eaa 263e 5e81 a13f 74f5 4e3b 2147 073f
000001c0: 7a1e 723e f034 eabe b142 06bf 4095 a43f
000001d0: 709f 853e e3eb 5d3e 1281 00bc 4337 743d
000001e0: ec4f 2dbf 024e 133e e12e 4fbf 9800 94bf
000001f0: aaa4 16bf ee42 933e ac53 203e 1188 14be
00000200: ee45 1d3e 80c5 833e c635 cabe 1cde f6be
00000210: 0749 58be 09a6 bfbd 6f96 093f 3134 313e
00000220: 623e d23e ab59 b43d 519e 23bf e942 673f
00000230: 2802 afbe 4361 85be 06cc c83e 4721 f2be
00000240: 9148 95bf 4e36 b53e d1a8 893e d0c0 95bf
00000250: 8358 2a3f dc99 033d 9e14 9dbe 07cc 1cbd
00000260: ef10 183f 6355 babe 0207 75be cfe1 58bf
00000270: aece 95be dd00 84bd 5258 e33d 9c43 023f
00000280: cd6f 80bd 21c1 cf3e b587 063f 2541 f4be
00000290: f310 ce3e 2a0d b73e 30cd c1be 767e 533e
000002a0: 570a b9be 074d 303f cbc3 b3be cf19 acbe
000002b0: e52e a73e c098 66bf ce23 5fbf 4e56 94bf
000002c0: 68d1 953f d32a eabe 5e03 25bf 8d1b d53e
000002d0: b4a2 ae3e 0fe0 7f3e bcba 05bf ab3c cebe
000002e0: 31e2 2f3d f064 003e 7c28 763f 7e28 393f
000002f0: 0f33 3b3e ebd3 283f e98a 43bf d724 7f3f
00000300: 5650 bcbe cd9e 913e ab70 5ebf 28a6 fc3d
00000310: e957 9bbd 78c4 37be 2f66 90be 50bd 1fbe
00000320: 4c78 ec3e 9089 b13f 121a f3bd d090 51bf
00000330: 074a 163f cb89 43be c406 38bf 31b0 ddbe
00000340: cc02 f2be ad7a b23e 1210 013e d49e 9abe
00000350: d173 eabe eab4 523e bf1e d23f 6067 2c3d
00000360: 7824 c63d be94 a63d b30b 5f3f 204f 883e
00000370: f0c2 a23e 3a1a 39bf c48e 49bf 7bb7 0a3f
00000380: 5cd6 8dbe 4237 33be 16ff 0a3e e5e7 873d
00000390: 224a 51bf d137 4f3e 760b 063f 17d9 113f
000003a0: b6b7 aebe 0348 db3e f722 973f 7fa7 bbbe
000003b0: 2a61 a4bf 1cb4 8dbd 60ca 0e3e 3cd2 16bf
000003c0: 4853 81bf 5bad 333f 0393 0dbf 07b3 edbd
000003d0: 9bdc aa3e f36f 16bf a6b7 163e 9a51 b7be
000003e0: 9e7f 103e e6f1 8b3f 20c5 b93e 4981 663f
000003f0: 59be 223c 7967 683f 5324 13bf 53f8 303e

controller.fc_out.bias f4 [1000]
1.1473734 0.18948248 0.09823585 0.046036813 -0.10412864 -0.0022410029 0.00260121 -0.0022262828
-0.0022342482 0.38660365 0.27282655 0.37767366 0.2922814 0.35058537 0.046026543 0.15825981
0.1000534 0.13361569 0.02634192 0.056956697 -0.026407892 -0.011525191 -0.05003269 0.025674546
-0.016412009 0.03720767 0.15226287 0.08457749 0.084817044 0.06016721 0.06439411 0.08179513
0.23408546 0.3213076 0.096726365 0.18094805 -0.0022350089 -0.0022368957 -0.002228338 -0.0022553373
-0.0022284933 -0.002240725 -0.0022431677 -0.002226317 -0.0022291301 -0.0022265983 -0.002235085 -0.002231073
-0.002229977 -0.002228708 -0.0022505713 -0.0022335688 -0.002252707 -0.002232584 -0.0022285574 -0.0022265946
-0.0022288056 -0.0022290081 -0.0022451414 -0.0022267683 -0.0022317325 -0.0022270146 -0.0022519424 -0.0022262188
-0.0022272172 -0.002231368 -0.0022424853 -0.0022267203 -0.002231599 -0.0022388864 -0.0022293837 -0.0022281287
-0.0022339541 -0.002233055 -0.0022269918 -0.0022423775 -0.0022293727 -0.0022281848 -0.0022496483 -0.0022262435
-0.0022271078 -0.0022265601 -0.0022357116 -0.0022263518 -0.0022343486 -0.002227065 -0.0022262775 -0.0022316393
-0.002226927 -0.0022318647 -0.002241991 -0.0022455798 -0.0022477403 -0.0022460395 -0.0022305655 -0.0022386168
-0.0022337828 -0.0022277383 -0.0022262817 -0.0022288575 -0.0022416355 -0.0022269513 -0.0022344505 -0.0022262312
-0.0022379751 -0.0022311215 -0.0022418068 -0.0022291003 -0.0022391565 -0.0022318577 -0.0022512123 -0.002251635
-0.0022262426 -0.0022269683 -0.0022273804 -0.0022376087 -0.002233198 -0.002231496 -0.0022407565 -0.0022427675
-0.0022304715 -0.002229747 -0.0022262912 -0.0022387842 -0.0022309306 -0.0022276938 -0.0022418567 -0.0022348666
-0.0022423493 -0.0022265383 -0.0022343458 -0.0022364943 -0.0022510425 -0.002232104 -0.0022407381 -0.0022368096
-0.002232666 -0.0022290945 -0.0022307322 -0.0022576675 -0.0022422797 -0.002226886 -0.0022363903 -0.002236098
-0.0022372568 -0.0022285513 -0.0022349462 -0.0022306645 -0.0022302326 -0.0022262197 -0.0022580705 -0.002237499
-0.0022262924 -0.002253263 -0.0022264412 -0.0022338866 -0.0022297758 -0.00223062 -0.0022533846 -0.0022265206
-0.002229504 -0.002236332 -0.0022288186 -0.0022267515 -0.0022268738 -0.0022422988 -0.0022555548 -0.0022274978
-0.0022327143 -0.002231989 -0.0022360971 -0.0022278691 -0.0022267373 -0.0022288524 -0.0022386687 -0.00223477
-0.0022281436 -0.0022329486 -0.002233992 -0.0022278281 -0.0022285103 -0.0022266435 -0.0022266998 -0.0022262728
-0.002228645 -0.0022401025 -0.0022263054 -0.0022769573 -0.002226877 -0.002228503 -0.002246831 -0.0022267047
-0.0022363893 -0.002235005 -0.0022263157 -0.002231916 -0.0022263161 -0.002226287 -0.0022409102 -0.0022441102
-0.0022409293 -0.0022365574 -0.0022268964 -0.0022424087 -0.00226064 -0.00222992 -0.0022298845 -0.0022276335
-0.0022347579 -0.0022290424 -0.0022261888 -0.0022432096 -0.002226456 -0.0022271525 -0.0022375803 -0.0022320645
-0.0022271473 -0.002244024 -0.0022432236 -0.0022264863 -0.0022466956 -0.0022422594 -0.0022385612 -0.0022284621
-0.0022390338 -0.00224391 -0.0022343574 -0.002237789 -0.0022296875 -0.002226602 -0.0022262838 -0.0022456783
-0.0022298764 -0.0022352869 -0.0022363956 -0.0022264684 -0.0022361507 -0.0022430227 -0.0022278428 -0.002233908
-0.0022289164 -0.0022331842 -0.0022275208 -0.0022276307 -0.0022262214 -0.002242667 -0.0022492982 -0.0022265553
-0.0022571024 -0.0022270354 -0.0022377186 -0.00222795 -0.0022362522 -0.0022405572 -0.002226179 -0.0022325255
00000000: 22dd 923f b207 423e e12f c93d 1991 3c3d
00000010: 6541 d5bd cadd 12bb 1079 2a3b d4e6 11bb
00000020: 776c 12bb eaf0 c53e ecaf 8b3e 715e c13e
00000030: e8a5 953e ed7f b33e 5486 3c3d dc0e 223e
00000040: cce8 cc3d 8dd2 083e 03cb d73c 6d4b 693d
00000050: 5d55 d8bc 28d4 3cbc 14ef 4cbd 6d53 d23c
00000060: 7a72 86bc 1267 183d ccea 1b3e f736 ad3d
00000070: 8fb4 ad3d e471 763d 0fe1 833d 3584 a73d
00000080: 19b4 6f3e 6e82 a43e 7918 c63d 724a 393e
00000090: 3a79 12bb e298 12bb 4f09 12bb 48ce 13bb
000000a0: ea0b 12bb 21d9 12bb 1c02 13bb 67e7 11bb
000000b0: 9916 12bb 1fec 11bb 817a 12bb 3237 12bb
000000c0: ce24 12bb 840f 12bb 527e 13bb 1161 12bb
000000d0: 27a2 13bb 8b50 12bb fd0c 12bb 0fec 11bb
000000e0: 2711 12bb 8d14 12bb 3923 13bb f9ee 11bb
000000f0: 4242 12bb 1bf3 11bb 5395 13bb c1e5 11bb
00000100: 81f6 11bb 253c 12bb a9f6 12bb 2bee 11bb
00000110: 0540 12bb 48ba 12bb da1a 12bb cc05 12bb
00000120: 8867 12bb 7258 12bb b9f2 11bb daf4 12bb
00000130: ab1a 12bb bd06 12bb d66e 13bb 2be6 11bb
00000140: abf4 11bb 7beb 11bb 0485 12bb fce7 11bb
00000150: 266e 12bb f3f3 11bb bde6 11bb b240 12bb
00000160: a3f1 11bb 7a44 12bb 5eee 12bb 942a 13bb
00000170: d34e 13bb 4a32 13bb ae2e 12bb c2b5 12bb
00000180: a864 12bb 3fff 11bb cfe6 11bb 0612 12bb
00000190: 67e8 12bb 0bf2 11bb dc6f 12bb f6e5 11bb
000001a0: feaa 12bb 0238 12bb 47eb 12bb 1916 12bb
000001b0: d0be 12bb 5c44 12bb 1389 13bb 2b90 13bb
000001c0: 27e6 11bb 54f2 11bb 3ef9 11bb d8a4 12bb
000001d0: d85a 12bb 4a3e 12bb a8d9 12bb 65fb 12bb
000001e0: 1a2d 12bb f220 12bb f8e6 11bb 91b8 12bb
000001f0: ce34 12bb 80fe 11bb 1dec 12bb d776 12bb
00000200: 61f4 12bb 1deb 11bb 1a6e 12bb 2692 12bb
00000210: 3a86 13bb 7e48 12bb 59d9 12bb 7097 12bb
00000220: eb51 12bb 0016 12bb 7a31 12bb 60f5 13bb
00000230: 36f3 12bb f3f0 11bb 6790 12bb 808b 12bb
00000240: f19e 12bb e30c 12bb 2d78 12bb 5730 12bb
00000250: 1829 12bb c5e5 11bb 23fc 13bb 01a3 12bb
00000260: fde6 11bb 7bab 13bb 7ce9 11bb 6666 12bb
00000270: 6e21 12bb 982f 12bb 85ad 13bb d1ea 11bb
00000280: df1c 12bb 6d8f 12bb 5f11 12bb b1ee 11bb
00000290: bef0 11bb 88f3 12bb eed1 13bb 36fb 11bb
000002a0: bb52 12bb 9046 12bb 7c8b 12bb 7101 12bb
000002b0: 74ee 11bb f011 12bb a1b6 12bb 3875 12bb
000002c0: 0c06 12bb a956 12bb 2b68 12bb c100 12bb
000002d0: 330c 12bb e1ec 11bb d3ed 11bb a9e6 11bb
000002e0: 750e 12bb afce 12bb 35e7 11bb 0139 15bb
000002f0: ccf0 11bb 140c 12bb 923f 13bb e8ed 11bb
00000300: 6390 12bb 2979 12bb 61e7 11bb 5645 12bb
00000310: 63e7 11bb e6e6 11bb 3cdc 12bb ec11 13bb
00000320: 8edc 12bb 3593 12bb 1ff1 11bb 60f5 12bb
00000330: 3f27 14bb d923 12bb 4123 12bb 7dfd 11bb
00000340: 0475 12bb 2015 12bb 40e5 11bb d002 13bb
00000350: bce9 11bb 6bf5 11bb 5ea4 12bb d447 12bb
00000360: 55f5 11bb 7a10 13bb 0c03 13bb 3eea 11bb
00000370: 4c3d 13bb dff2 12bb d3b4 12bb 640b 12bb
00000380: c1bc 12bb 900e 13bb 4c6e 12bb dfa7 12bb
00000390: f31f 12bb 2fec 11bb d8e6 11bb 3b2c 13bb
000003a0: 1e23 12bb e47d 12bb 7e90 12bb f1e9 11bb
000003b0: 628c 12bb adff 12bb 0001 12bb c266 12bb
000003c0: 0313 12bb 9d5a 12bb 99fb 11bb 71fd 11bb
000003d0: cce5 11bb b5f9 12bb f668 13bb 66eb 11bb
000003e0: e5eb 13bb 74f3 11bb b0a6 12bb cc02 12bb
000003f0: 168e 12bb 50d6 12bb 16e5 11bb 904f 12bb
