VerSimples/checkpoint/best_model_epoch_19.pth (torch, 65183 bytes, 15 tensors)

memory.mem_bias f4 [128, 20]
00000000: 6d0a 9c3d b2f4 113d d700 4cbd 25c2 c4bd
00000010: b07d 8d3b a169 8d3d 1090 743c 5427 843c
00000020: 807b cbba f090 76bc a085 2fbb d9cf b03d
00000030: 6292 a0bd fa35 c5bd 80b8 b0bd d45e b6bc
00000040: 84b4 cf3c 751c c4bd 722d 0c3d 42a4 243d
00000050: 4092 553c 2e3f 7c3d a6b1 aabd 80c6 bf3a
00000060: 02c0 5e3d ab6d b43d 8346 8dbd d58d 84bd
00000070: ccf7 f93c 4a40 6bbd b29c 6d3d fe12 1e3d
00000080: ab1b 97bd 03d4 bebd c18b c83d 4814 9e3c
00000090: eebb 053d 37d2 923d 4a12 3abd bdce c43d
000000a0: 76dd 02bd 0007 afbb ea23 7abd f98f c23d
000000b0: 80bb 36bc b273 2f3d ac39 93bc 3a45 7a3d
000000c0: c297 113d 6e6a a4bd c798 a33d ae70 163d
000000d0: 6afa 6d3d c362 883d d28e 063d b04c ffbb
000000e0: e361 7ebd 0ce4 f13c e254 433d 6071 89bc
000000f0: 8abe 5c3d a0d2 7bbd c52e 9fbd 2f9e a53d
00000100: 3247 303d 8c5c f4bc 3788 30bd 6adc c0bd
00000110: 7582 aabd b499 e43c edff 32bd 200b a7bc
00000120: 92e5 0b3d a045 c3bd 80a1 f6bc c25e 6e3d
00000130: 4739 53bd baff 2a3d a0b9 7f3b 1813 cdbc
00000140: 4065 423c 2bc4 b93d 4d49 3bbd 3b71 bd3d
00000150: 4c22 0ebd e829 0dbc 2f5a 903d 544f eebc
00000160: 558e a4bd 9663 423d 40c0 c33c b00c 2fbd
00000170: b01c 4bbc 6c25 e13c c015 c8bc 6841 473c
00000180: b2f1 2f3d ca5d 2abd 3a2a 693d e797 c43d
00000190: 0d86 3dbd a162 9b3d aa13 00bd a0ca 5bbd
000001a0: fa34 7e3d 0ca4 85bc 7853 90bc 7d2a 91bd
000001b0: 690a 8f3d 3a77 5abd 56a2 0c3d 8e30 793d
000001c0: 8f73 c13d a728 70bd a87e 23bc b3f7 be3d
000001d0: 9ef1 9dbd 6292 7e3d e2c3 443d d415 8d3c
000001e0: b476 e4bc 4a7d 57bd 34ae ea3c 73eb 1dbd
000001f0: a3d5 95bd b22f 493d 1d32 c4bd aa8b 6fbd
00000200: 3d88 75bd 3d6b 92bd 0324 c6bd 315c 823d
00000210: d7bf b33d 83a6 c13d 7a6c 5abd 9939 c63d
00000220: 88f9 b3bd 8277 1a3d 2214 623d 8280 adbd
00000230: 944c bc3c ebbc 933d 7d1d 24bd 1206 2b3d
00000240: 9493 dcbc 2263 303d 72b9 8dbd b715 41bd
00000250: 3461 c13c 1047 18bc 8698 523d fa5d 43bd
00000260: 9e3a 323d d1e1 bc3d a24a 423d 5560 c0bd
00000270: c404 e13c 6d40 61bd b61d 80bd 2f82 bf3d
00000280: f9e4 933d 5dc4 28bd 0ade 1e3d fe12 9ebd
00000290: 5ae3 2e3d 3d75 a73d 6291 673d 4345 9dbd
000002a0: 4cbd 82bc 73d5 9abd 184d 81bd a2b8 363d
000002b0: aa95 0cbd 3402 a03c 682c 9f3c 73df 1ebd
000002c0: dac7 c8bd 137e 22bd ac29 d5bc d543 9ebd
000002d0: cff2 c23d 82aa b8bd 1067 4cbd e7dc b0bd
000002e0: 6dc5 843d ce4b 6a3d 00bf 463c 11e9 a93d
000002f0: 13a9 74bd 0b29 b83d e639 103d 168d 423d
00000300: 83bb 1fbd 2362 ad3d 7a5e 17bd f0b7 b9bd
00000310: b398 21bd da84 38bd bc6d dc3c 404c 223c
00000320: 989b 22bc 089d debc 3a01 38bd 92e0 6d3d
00000330: 01cc c03d f9cb 913d 8e12 393d a628 613d
00000340: 0080 3536 f380 b53d dd46 b6bd 4a82 63bd
00000350: fd7b 74bd b0d4 41bd 9af0 243d 0050 70bc
00000360: fa93 7abd 001c 7b3c c049 26bc ebd9 b4bd
00000370: da7a 013d cd83 96bd 1614 023d 14f6 aa3c
00000380: c961 a93d bb89 893d 9de1 b0bd 2f69 c33d
00000390: c07a 06bc 1157 b43d e855 c1bd 07b4 b43d
000003a0: 65f1 bc3d 710b af3d d9b8 c53d 8a37 463d
000003b0: 60ed a9bb a858 2d3c 7797 4dbd 6f02 c13d
000003c0: da10 9bbd 6c8a c8bc ee93 94bd fa3a 34bd
000003d0: f0f3 463c 74a6 01bd 8aaa afbd 28b3 323c
000003e0: d84c a6bc 5014 d63b a9fd 973d 0c26 80bc
000003f0: c011 fabc f2aa 9bbd 801f be3b 12ad 063d
0.07619176 0.03563375 -0.04980549 -0.09607343 0.0043179616 0.06904913 0.014926925 0.016132034
-0.0015524477 -0.015049204 -0.0026782528 0.08633394 -0.0784042 -0.09629436 -0.086289406 -0.022262014
0.025354631 -0.0957574 0.034223028 0.04019571 0.013035357 0.06158369 -0.08334665 0.0014631301
0.05438233 0.0880998 -0.06898215 -0.06472365 0.030513667 -0.057434358 0.058010764 0.03859233
-0.07378324 -0.09317782 0.09792281 0.01929678 0.032649927 0.071690015 -0.045427598 0.09609745
-0.031949483 -0.0053414106 -0.061069407 0.09500117 -0.011153102 0.042834945 -0.017971836 0.061101176
0.03554512 -0.08028112 0.07988124 0.036728553 0.05810014 0.06659462 0.032851048 -0.0077911243
-0.06210507 0.029527687 0.047688372 -0.016777694 0.05389265 -0.061480165 -0.077725925 0.08086812
0.043036647 -0.029829286 -0.043098655 -0.09417041 -0.08325664 0.027905323 -0.0437011 -0.020391047
0.034154482 -0.09534764 -0.030106306 0.058195837 -0.051568296 0.041747786 0.0039020553 -0.025033519
0.01186496 0.09070619 -0.045724202 0.092501126 -0.034700677 -0.008615948 0.07048451 -0.029090561
-0.0803496 0.047458254 0.023895383 -0.04273671 -0.012396976 0.027483664 -0.024424434 0.01216159
0.042955108 -0.04159335 0.056925036 0.095992856 -0.04627042 0.07587171 -0.031268753 -0.053660035
0.06206224 -0.016313575 -0.017617926 -0.07088182 0.069844075 -0.05333636 0.034334503 0.06083732
0.09445869 -0.05863252 -0.009978928 0.093245886 -0.077121004 0.06215132 0.04803837 0.017222323
-0.027888633 -0.05260972 0.02864752 -0.03855462 -0.073161386 0.04911775 -0.09579871 -0.058482803
-0.05994438 -0.0714936 -0.096748374 0.0636524 0.08776825 0.09455588 -0.053326108 0.09678955
-0.08787829 0.037711628 0.05519498 -0.084717765 0.022985734 0.072137676 -0.040067185 0.041753836
-0.02692584 0.04306329 -0.069201365 -0.04713985 0.02360592 -0.009294286 0.05141499 -0.047697045
0.043512933 0.092227586 0.047434457 -0.09393374 0.027468093 -0.05499308 -0.06255667 0.093510024
0.072214074 -0.04120289 0.03878597 -0.07718466 0.042697288 0.08176658 0.056535132 -0.07679226
-0.015959404 -0.075602435 -0.063135326 0.044609673 -0.03432242 0.0195323 0.019430354 -0.038787317
-0.09803744 -0.039671015 -0.026020847 -0.07727782 0.09518968 -0.09016897 -0.049902976 -0.08635884
0.064829685 0.0572012 0.012130499 0.08296407 -0.059731554 0.08992203 0.035211466 0.04749783
-0.038997184 0.08465984 -0.036955334 -0.090682864 -0.039452266 -0.045048572 0.026907794 0.009905875
-0.009924792 -0.027174488 -0.044923045 0.058075495 0.09413911 0.07118983 0.04518371 0.054970406
2.7045608e-06 0.08862486 -0.08900235 -0.055544175 -0.059688557 -0.047321975 0.040268518 -0.014667511
-0.061176278 0.0153265 -0.010149419 -0.08830627 0.0316113 -0.07349358 0.031757437 0.020869292
0.08270604 0.06715723 -0.08636782 0.095415466 -0.008207977 0.08805669 -0.094402134 0.088234
0.0922573 0.08547104 0.096543975 0.04839281 -0.005185768 0.010580219 -0.050193276 0.09424292
-0.075715736 -0.024480067 -0.07254778 -0.044001557 0.01214312 -0.031652883 -0.085774496 0.010906972
-0.020300314 0.006533183 0.07421429 -0.015643142 -0.030526042 -0.076009646 0.005802095 0.032879896

controller.0.weight f4 [100, 28]
00000000: 6c72 4cbd 554e a4be ba45 eb3e fc72 da3e
00000010: 2550 2d3f 9020 0b3f 51f3 b03e 88c1 0d3f
00000020: 19c2 3bbd c9e5 283d 887b 5ebc f100 633d
00000030: 168c ca3c 84f7 bebc aa5c 3ab9 707f efbc
00000040: f0f7 c63d 4a6d f7bb 95af f03d 7f6e b2bc
00000050: 7ba1 823d b362 683b 6d2d b13c 3d1f 113d
00000060: cbe9 c03c 0f83 40bd ebbd 62bd 600e 743d
00000070: 7976 8cbe 6abd 54be 7106 55be adc6 1abe
00000080: c73b 81be acd8 9cbe aa09 7dbe b71f 5c3e
00000090: 959d e6bc c53b fabd d52d d33d 02de 90bc
000000a0: 49f7 ab3d 7af1 d43d 6f91 b6bd 71b9 70bd
000000b0: b3dc 8abd ea15 303c 1bc0 333d 15af b13d
000000c0: 1073 a6bd c37e f1bd dc10 083c 6ce8 b03d
000000d0: 4442 d53d eda6 f23d be30 c03b c0dc 0dbc
000000e0: 918a cbbe 63ee fb3e cdd3 013f 516c 43be
000000f0: a4f6 88be cad8 f83e dc54 c2be 8182 a53e
00000100: 6702 a23a cffe 723b 0cd7 b2bb 5d36 e23b
00000110: 6c01 4c3c de77 6d3c f446 63bc 39ca d7bb
00000120: 2a07 573b 3ba3 bbbb bc2d 57bc 5d8a d83a
00000130: f476 d1bb 1872 1ebb eb40 1d3c 26f2 e33b
00000140: b4fd 493b 11a4 9e3a 2469 823c 90e8 ae3a
00000150: e10e 8ebe 3439 f1be da90 abbd d3c0 123f
00000160: 415c 1cbe 7b10 37bd a0a3 ad3e e514 4bbd
00000170: b117 84bd 2390 0fbc debf 543d 13c4 4dbc
00000180: 389d fd3b 194f 693d 10cf 98bd 1626 acbd
00000190: 5380 8cbd 0904 943d e389 3bbc d267 f23c
000001a0: 612b a0bd e0ce 19bd 8b35 963c c10b 053d
000001b0: 347e da3b c498 c63d 5516 433d f3d5 ae3c
000001c0: 1a03 40be 5936 eabd 92a7 903e f333 b3be
000001d0: ea3a fb3e a0b8 8cbd 791d 69be 9468 b6bd
000001e0: df46 8bbd 72da 14bd 7669 553c 9a25 803d
000001f0: 4d95 03bd 0080 843d 615b 32bd 9c30 bcbd
00000200: 29b0 13bd 2791 6c3d e78e 18bd 6fae 9c3d
00000210: 2ae8 a2bd 2064 edbc 9231 c03d 894e 483d
00000220: 680b aa3d 9290 c03d bb46 433c 33f0 f73c
00000230: b4b0 06bf bde8 213f 65fb 2c3f eaa3 de3e
00000240: ee54 593f 546e 213f 51f4 13bf c6ad bfbe
00000250: 6c5f 51bc adfc da3b 7442 a73c 6d98 343c
00000260: 2e57 a33b 4baa c33c 200b 14bd f44b b8bc
00000270: 96fb 07bd 612f df3c a5ab d33c 9e22 083d
00000280: 4322 0bbd 0c6a 82bd 62f9 2d3d 9fd2 17bb
00000290: 474e 5a3d 31a4 483d 9928 dcbb 0c90 4c3d
000002a0: e8fe 1a3b c345 9bbe 9c0b bbbe 55f8 cc3d
000002b0: ef91 e23e ebff bbbc 7eb4 8dbd 23ca 07be
000002c0: d158 873b b612 01bd 1ccb 91bc c003 983b
000002d0: 9044 c53c 6791 4a3d 9803 10bd faae 87bd
000002e0: 58a9 28bd 480f bf3c 5601 473c 6003 783d
000002f0: efd3 9cbd 74c9 a5bd f67e 353d 78fb 823b
00000300: 0b73 3a3d b6e1 a5bc 535d 4d3d 64da afbc
00000310: f28f 9e3e 938e 873e c9f1 bcbd 3cfa b3be
00000320: 255c 173e d912 98bd 8023 0bbe b549 0d3f
00000330: 5915 35bd b33a 2d3d 1abc a0bd e233 c03c
00000340: 17cf 633c 9bb3 a8bc c594 92bd 9602 623d
00000350: 602d 7c3d 6370 92bd 85cb ee3d f7ca 3fbd
00000360: d7c4 a9bc bc16 adbc 0fa9 15bd c21a 7ebc
00000370: fa55 403d 3b29 e93c 34cd 063d 28dd 973c
00000380: 05de df3c 0b6d 38be d9c3 8f3e 79d7 fe3c
00000390: 08f2 46be dd71 edbe 6962 d6bd 6fab 863c
000003a0: 372a 3fbd 2dc8 913c ee83 82bb 813f 3b3d
000003b0: 2cf0 e33c 010d a53d 0e74 a2bd 05a5 13bd
000003c0: 6336 4e38 332e c13d 587b 463d a436 d33d
000003d0: 673a ffbd fec7 49bc 6ff9 d93c dac4 dc3c
000003e0: a3fb 943d 1e64 3a3d b182 a43a 8772 883d
000003f0: 7e6c 11bf b5d2 123e 752c 4abe b40f b13e
-0.04991381 -0.32091013 0.45951635 0.4266585 0.67700416 0.5434656 0.34560636 0.5537343
-0.045839403 0.041234765 -0.013579257 0.05542082 0.024725001 -0.023311384 -0.00017772862 -0.029235572
0.09715259 -0.00755087 0.117522396 -0.021781204 0.06378456 0.003545922 0.021628106 0.03543018
0.023548981 -0.046999987 -0.0553569 0.05958402 -0.27434137 -0.2077538 -0.20803238 -0.15114851
-0.2524092 -0.30634058 -0.24710718 0.21496473 -0.028151313 -0.122184314 0.10311476 -0.017683987
0.08396775 0.103976205 -0.08914458 -0.0587706 -0.06780376 0.010747412 0.043884378 0.08675972
-0.08127415 -0.11791756 0.008304801 0.08638081 0.1041303 0.11848245 0.0058651855 -0.008658588
-0.39754155 0.49205312 0.5071381 -0.19084288 -0.26750672 0.48602897 -0.37955368 0.3232613
0.0012360335 0.0037078147 -0.0054577645 0.0069034533 0.012451511 0.014493911 -0.013871897 -0.006585386
0.0032810667 -0.0057262457 -0.0131334625 0.0016520728 -0.006392354 -0.0024176892 0.009597997 0.0069563566
0.0030821385 0.0012103339 0.015919276 0.0013344456 -0.27745727 -0.47113955 -0.083772376 0.57325476
-0.15269567 -0.04469345 0.33913898 -0.049580473 -0.06449831 -0.008762392 0.05194079 -0.012558955
0.007739689 0.0569602 -0.07461369 -0.08405702 -0.068604134 0.07227332 -0.011446449 0.029590521
-0.07820774 -0.037550807 0.018336078 0.032481913 0.0066678766 0.096971065 0.04762872 0.021342253
-0.18751183 -0.11436147 0.28252846 -0.35000572 0.49068385 -0.06871152 -0.22765149 -0.089066654
-0.06800627 -0.03634114 0.013025632 0.06257172 -0.032124806 0.064697266 -0.043544177 -0.09188959
-0.03605667 0.057755616 -0.037245657 0.07650458 -0.07954438 -0.028978407 0.09384455 0.048903022
0.08302957 0.094025746 0.011918719 0.030265903 -0.5261338 0.63245755 0.675711 0.43484432
0.8489522 0.6305897 -0.5779467 -0.37437266 -0.012779098 0.0066829533 0.02041743 0.011022669
0.004984758 0.023884913 -0.036143422 -0.022497155 -0.033198915 0.027244272 0.025838682 0.03323614
-0.03396822 -0.06367883 0.042474158 -0.0023166311 0.053297307 0.04898471 -0.006718707 0.04994206
0.002365047 -0.3032666 -0.36532295 0.10008303 0.44251963 -0.02294918 -0.06919192 -0.13260703
0.004130461 -0.031511985 -0.017797045 0.004639119 0.024080545 0.049455073 -0.035159677 -0.06625171
-0.041177124 0.023322716 0.012146315 0.060550094 -0.076576106 -0.08095065 0.044310533 0.0039972626
0.04551987 -0.020249229 0.05013783 -0.021466441 0.30969197 0.26475963 -0.09225804 -0.3515185
0.14781244 -0.0742547 -0.13587761 0.55190593 -0.04420981 0.042292308 -0.078483775 0.02346224
0.013904355 -0.020593455 -0.07157282 0.055178247 0.06156671 -0.07150342 0.11659912 -0.04682442
-0.020723743 -0.021129005 -0.03653818 -0.015509309 0.046956994 0.028462043 0.03291054 0.018538073
0.027327547 -0.18010347 0.28079107 0.031108605 -0.19428265 -0.46375933 -0.10467989 0.016439168
-0.04667112 0.017795647 -0.0039830124 0.04571486 0.027824484 0.08059121 -0.07932292 -0.036046047
4.916488e-05 0.0943264 0.048457474 0.10313156 -0.12462311 -0.012315748 0.026608197 0.026949335
0.072745584 0.045505635 0.0012551156 0.06662469 -0.5680617 0.14338191 -0.19743522 0.34582293

controller.0.bias f4 [100]
00000000: 7415 32be 9ab6 cc3d 5ef8 243f 3e0a 163f
00000010: 26c1 0e3f f05f ce3e 4e3d 1d3f 9926 b53e
00000020: da06 0e3f 5003 163f a937 aabb fbcf 253f
00000030: 1fdc ab3e d17d 313e c975 2b3f 14dd 253f
00000040: ed6e 3c3e 42aa 4f3e f88d 113f d1c4 b93e
00000050: 3502 183f ff84 6f3e 342f 07be efde 423f
00000060: 6aa8 9a3e c964 01be 6293 a73d 54b7 d33e
00000070: e2cc b13e e5b3 1f3f 3364 703e a7c1 8dbe
00000080: d53f 65bd 1b55 27be 7836 483f cf93 df3e
00000090: 85cf f23e 9e6c 08bd e256 0c3f b2d9 3e3f
000000a0: 4a82 513f 4bb3 cf3e 149e 2cbc f7ae 1c3f
000000b0: 47e4 aebe 3ff8 d33d 018b 1c3f 7569 073f
000000c0: 6b40 6bbd fd72 123f cbca d8bc 26c5 213f
000000d0: 76b9 4c3e fc47 903e 7132 2e3f 9b44 4c3f
000000e0: 631d b33d 4a81 153f 2970 233f 4bc2 f23e
000000f0: 23fa 5c3f da6b 9dbd 5f30 34be de3c 223f
00000100: b885 bb3e 12d6 f53e 6d25 e43e 6ea6 2d3f
00000110: ecc4 be3c 9be7 e13e b142 de3d 433f ed3e
00000120: e56d 1d3f 0cd9 e03e 8635 223e 0564 2d3e
00000130: 7dbf 3a3f db39 d73d a1d8 083f 17f6 973d
00000140: 401c ad3e 52b3 f93e 1a68 063e 2841 11be
00000150: 4782 ff3e 1a68 413e b3e9 0e3f 39f7 113f
00000160: 1149 fc3e 55f3 223e f7b4 e33e 37fd 70bd
00000170: c1a9 233f 53ec c03d 4d01 943e 243e 95bd
00000180: 9d82 68be 762a 033f 2b04 c63e fd78 c23d
-0.17390996 0.09995766 0.6444148 0.5860938 0.5576347 0.4030757 0.6142167 0.3538101
0.55479205 0.58598804 -0.0051946235 0.6477048 0.33566377 0.17333151 0.669766 0.64790463
0.1840169 0.20279792 0.5685725 0.36282972 0.5937837 0.23390578 -0.132016 0.7612142
0.30206615 -0.12636103 0.08182408 0.41350806 0.34726626 0.6238387 0.23475723 -0.27686808
-0.055969078 -0.16341059 0.7820811 0.43667457 0.4742395 -0.03330671 0.5482007 0.74550927
0.8183943 0.40566477 -0.010535736 0.61204475 -0.34158537 0.103500836 0.61149603 0.5289529
-0.05743448 0.5720671 -0.026463887 0.6319145 0.19992623 0.2817992 0.6804572 0.79792184
0.087458394 0.58400404 0.6384302 0.4741386 0.8631918 -0.07686587 -0.17596577 0.63374126
0.36625457 0.48014885 0.44559804 0.67832077 0.023287259 0.44122013 0.10852564 0.46337327
0.6149581 0.43915594 0.1584073 0.16932686 0.7294844 0.10509082 0.5345555 0.07419985
0.33810616 0.48769623 0.13125649 -0.14185011 0.4990408 0.18887368 0.55825347 0.57017857
0.49274495 0.15913136 0.44474003 -0.058835234 0.639309 0.09420075 0.28907242 -0.07287243
-0.22706075 0.51236665 0.38675055 0.09495733

read_head.key_layer.weight f4 [20, 100]
00000000: 6211 f73c 971e 8bbd fab1 b0bd 7b36 27bd
00000010: e07a 9abd 75ca be3d de2a a2bd 72cc d33c
00000020: 133f 53bd 35c9 a8bc b97b 283b 09e1 d6bd
00000030: 4182 3dbe 3e17 8c3c c805 94bd 6192 4aba
00000040: b0c0 5f3d 6317 053d c72f de3c fce7 86bc
00000050: fc73 bdbc 8121 80bd 45a6 9a3d b07e 4cb8
00000060: d53a 27bd 422a 85bd 3dbc 603d 7fff ae3c
00000070: 9908 36bd 9c05 a4bc e81c df3b f69f 0a3e
00000080: 92bf 1c3e 0960 733d 4e66 a9bd cad2 203d
00000090: 96e6 d83c 90c2 973d b1fd ba3c c7eb d5bd
000000a0: 1122 493c 488e 60be 5483 6b3c f5e0 443d
000000b0: 837c ac3d ba7a 6c3d 6362 5dbc 5258 7ebd
000000c0: 5a7b 2a3d 5ef5 2bbd 36d6 633d 9856 15bd
000000d0: 9f65 5e3d 3ceb 15bc 71be b2bd 5d18 a3bd
000000e0: 4fe7 3c3c 9e3a 8fbd 3680 e2bc 1531 2abd
000000f0: bf61 50bd a627 e13d 6ffb b33d f09f 4abd
00000100: 2a0c 733d a5cd 70bd 54e0 c53a 9909 013c
00000110: 34e4 36be aba1 1cbd 0c18 9f3d af16 2dbc
00000120: 8797 8d3d ea3e 833c 927c 03be 09ea 943c
00000130: 9ca2 433c 154d 5e3d 4189 30bd 639c 183d
00000140: 1761 b5bc 1233 053d f746 993d 1735 143d
00000150: 5ffe 9b3c 3879 3d3d 4115 c73b 9939 903d
00000160: 8631 a23d d912 f5bc 9877 8ebb 0639 d63c
00000170: 4a67 7b3d f1bf aebe 3ccd 6ebd 8fc0 093d
00000180: 61b9 e93d 30eb 5e3d 8748 3ebc a208 98bb
00000190: 526e c03d 5415 1cbe 1b4a 4abd 0599 a3bc
000001a0: 46dc c7bc 3646 ac3d 7f85 80bd b903 993d
000001b0: 79e0 34bb 3685 cdbc c721 3d3b 6b1d 9bbd
000001c0: 9da3 81be 73bc af3b f65a b3bb 3f30 bebd
000001d0: c97a ab3d 18de e13d b793 433c 2373 a93c
000001e0: 769c 45bb 0c96 e1bd 5f76 f63d d3b1 21bd
000001f0: bfb4 533d fda6 e8bd ea28 c73c 83a1 563c
00000200: f61c 4a3d 7aec 3dbd cb4a 003d c77b 993d
00000210: 96f2 4d3e 7a2d db3d 62d5 9fbd 5792 413c
00000220: 10ae a1bc ce80 133e d720 2dbd a9cf 423c
00000230: ea8a 45bd b879 84be 0681 0a3b fc26 09bd
00000240: 568c f23d 645c 8b3d c031 393c 89a3 b9bb
00000250: 455c b73d 76a3 7dbb 9ff7 c03d 7b72 90bd
00000260: f5f4 873d 0524 8d3d 75a8 08be 7a3d c4bd
00000270: 8da9 b73c b53d 3fbd 6a6c acbd abbd dcbc
00000280: 340e 90bc 427c f83c b300 d63d 5f94 bfbc
00000290: 8de1 6b3d d285 82bd b753 d1ba 1e2a 56bd
000002a0: f999 7fbe dacf ffbc 6dcf cb3d ff67 653c
000002b0: 4740 a53c 8e4e 853c 2221 09be ec10 253d
000002c0: 2365 b7bd 2375 8d3d 0c45 193d dca2 dd3d
000002d0: 20f1 1c3d 72a4 d8bd 4563 1b3d 82b5 c53c
000002e0: 9696 2ebc 0991 d83c 45b8 7fbd ceb0 bdbc
000002f0: 3f98 ac3c 3622 913d 7db1 2a3d 127c 183d
00000300: fe48 d9bd e164 d3be 0bea e3bd 0660 cf3d
00000310: 7c80 ca3d e62a 243d 86a2 4e3d c7cb e13c
00000320: 7497 b4bd 63ba fa3d 154a 1dbc 2f1e ad3d
00000330: 8810 853c 99c5 f1bd 960c ff3c 2abe 9c3c
00000340: 41b6 b23d 1151 adbc a6f1 53bb ac78 02bc
00000350: 337a 6c3e 9202 1d3d f740 a53c 267c e83d
00000360: 3606 a3bd afad d2bd 33f7 033d 5e46 e339
00000370: 1cc7 1f3d c5d5 a43d d801 eebd 025e 413d
00000380: 0f63 54bd 841f c43d d35a 5abc f2a1 10bc
00000390: 27c1 0f3d 7a18 283c 51b7 5bbd 1773 07be
000003a0: f126 6dbe 20f7 10be 9d1e e13d 435b 11bd
000003b0: 561c 4ebc c9aa 1fbe 8e66 563d 90c8 8f3d
000003c0: bcd2 da3d ce41 8b3e 423c 80bd 9960 8d3d
000003d0: a4f0 07be 5163 7dbc 7baf 513d 259a 9d3c
000003e0: e6e3 e2bd f42f 973c 0143 c1bc 80df cf3c
000003f0: 09e0 063c 63ab 2a3d 6463 1f3d 210b 613a
0.030159656 -0.06792944 -0.08627696 -0.04082344 -0.07542968 0.09315959 -0.079183325 0.025854323
-0.051573824 -0.020603755 0.002570851 -0.10492141 -0.18506719 0.017100926 -0.07227665 -0.00077275006
0.05462712 0.032493006 0.027122391 -0.01646804 -0.023126595 -0.0625639 0.07551245 -4.8755377e-05
-0.04082759 -0.06502201 0.054867018 0.021362064 -0.044441793 -0.020022206 0.006808866 0.13537583
0.15307453 0.059417758 -0.08271466 0.039263524 0.02647714 0.07410157 0.022826048 -0.104453616
0.0122761885 -0.21929276 0.014374573 0.0480661 0.08422186 0.05773423 -0.013512227 -0.062095948
0.041621543 -0.041982047 0.05562421 -0.036459535 0.054296132 -0.0091503225 -0.0872773 -0.07963631
0.011529758 -0.06993602 -0.027649026 -0.041550715 -0.050874468 0.109938905 0.087881915 -0.049468935
0.059337772 -0.058789868 0.0015096762 0.007875823 -0.1786049 -0.038240116 0.077682585 -0.01056449
0.06913667 0.01602121 -0.12840489 0.018178003 0.011940625 0.05427273 -0.043099646 0.037258517
-0.022141023 0.032519408 0.074842386 0.036183443 0.019042192 0.04625818 0.0060755317 0.07042236
0.07919602 -0.029916214 -0.004347753 0.026150238 0.0613778 -0.34130815 -0.058301196 0.033630904
0.11412311 0.05442351 -0.011613972 -0.004639701 0.09396042 -0.15242511 -0.04938708 -0.019970426
-0.024397027 0.08411829 -0.06275462 0.07471413 -0.0027599616 -0.025087934 0.0028859244 -0.075739704
-0.2532014 0.005363041 -0.00547349 -0.09286546 0.08373029 0.11028689 0.011937073 0.020684784
-0.0030153072 -0.11014947 0.12034296 -0.039476227 0.051686045 -0.113599755 0.024311502 0.013100031
0.049344026 -0.0463681 0.031321328 0.07494312 0.2011207 0.10702033 -0.078043714 0.011814675
-0.01973632 0.14404604 -0.042267647 0.01189033 -0.048228182 -0.25874114 0.0021134033 -0.033484444
0.11843173 0.068047315 0.011303365 -0.005665247 0.08953146 -0.0038702167 0.0942223 -0.070530854
0.06638519 0.06891636 -0.13345511 -0.09582038 0.022419715 -0.046689708 -0.08419116 -0.02694591
-0.017584898 0.030332688 0.10449352 -0.023386179 0.05758815 -0.063731804 -0.0015970384 -0.05228626
-0.2496108 -0.031227041 0.09951673 0.014001845 0.020172251 0.01627281 -0.13391545 0.04029934
-0.08954837 0.06907108 0.037419364 0.108220786 0.038315892 -0.105782405 0.037936468 0.024134401
-0.01065602 0.026436346 -0.062431592 -0.023155596 0.02106869 0.07086603 0.041673172 0.037227698
-0.10609625 -0.41287902 -0.111286245 0.10125737 0.09887788 0.040079974 0.050447963 0.027562989
-0.0881795 0.12242582 -0.009600182 0.08453023 0.016243234 -0.11805267 0.031133931 0.019133646
0.087261684 -0.02115682 -0.0032340079 -0.007963341 0.2309349 0.03833253 0.02017258 0.113518044
-0.07960169 -0.10287034 0.03221817 0.00043349242 0.039008245 0.08048586 -0.116214454 0.047208793
-0.051852282 0.09576324 -0.013327318 -0.008827673 0.035096314 0.010259742 -0.05364162 -0.13227497
-0.23159386 -0.1415677 0.10992167 -0.035487425 -0.012579998 -0.15592493 0.052343898 0.07020676
0.10684726 0.27198642 -0.06261493 0.0690319 -0.13275391 -0.015465573 0.05119274 0.01923854
-0.110786244 0.018455483 -0.02359152 0.025375128 0.008232125 0.041667353 0.038913146 0.0008584727

read_head.key_layer.bias f4 [20]
00000000: 7862 4abe 057a 1cbe 3f43 453e 9152 8e3d
00000010: 22c5 bb3c 3327 043e e80d d8bd 596e 07be
00000020: 5df8 c43d 3d44 2a3e 5db4 383c de46 df3d
00000030: b43c 69bd 27ba efbc 6068 063e 981e 063e
00000040: da0a 983d 9e46 5c3d 1703 8f3d 5067 6eba
-0.19764125 -0.15280922 0.19263934 0.06949342 0.022921149 0.12905578 -0.105495274 -0.13225688
0.09617684 0.16627593 0.011273471 0.10902189 -0.056942657 -0.029263569 0.13125753 0.13097608
0.07423945 0.053778283 0.06983011 -0.0009094374

read_head.beta_layer.weight f4 [1, 100]
00000000: b54f b73d 0629 6d3e 1564 9d3e 259a 783e
00000010: 0237 6a3e c211 b4bb 01d8 533e 3e17 953e
00000020: 3ff8 903e e1ef 5c3e 68f8 8336 0a83 b03e
00000030: 8bc4 cfbc 0d0a 873e 72df a23e e11b 8f3e
00000040: c03e 5a3e 0a6d e33a 473c 773e 604a 983e
00000050: 275a b03e b70f 14bd cf90 05be 9ad8 a13e
00000060: 0099 273e 4ff0 11be 6cab ed3d 56b2 673e
00000070: 0059 613e f10f 753e c45b 6d3e 56b9 97bd
00000080: 0bbd a0bd 7e16 943d e5a0 c23e b536 f73d
00000090: 9675 4e3e 9151 5dbd 1da6 223e ce01 dc3e
000000a0: 1d28 ba3e c533 53bd dde4 d93d e2e2 ae3e
000000b0: 3425 b9bd 35af f63d 3776 843e f268 373e
000000c0: 89b7 113e db53 7b3e 7ab6 213e 746a 763e
000000d0: c777 253e 97ea 8a3e beb0 b73e 2ed7 c13e
000000e0: 0c78 203e ac97 a13e 5462 963e 71ad a73e
000000f0: e70d b43e ad03 cd3d 345f 87bc 438c a43e
00000100: 38a0 853c 2270 643e 2a06 7d3e 40db 923e
00000110: 537c c8bd 2772 8f3e 4b9d 703e d571 b93e
00000120: 3485 743e a028 7f3d fc4c aebd 1be5 4c3e
00000130: 6348 aa3e 2eb5 6ebd 8bd3 043e c0f8 49bd
00000140: 2f7d 913e 88c0 813e aa66 c83d c088 553d
00000150: 31e4 fc3d a87f 503e 93cc 603e e96f 023e
00000160: 1370 9a3c e0b5 3b3e bc7c a73d 8ce1 dcbd
00000170: abc7 973e 99fb 503e e1b6 863e 53ce e53d
00000180: a4f6 a23d a54d 8d3d 6263 bf3d 026b 713e
0.0895075 0.2316018 0.3074042 0.24277551 0.22872546 -0.005495281 0.20687868 0.29119295
0.28314397 0.21575882 3.9330225e-06 0.34474975 -0.025362274 0.26374856 0.318111 0.27950957
0.21313 0.0017351222 0.24144088 0.29744244 0.3444378 -0.0361478 -0.13043521 0.31610566
0.16366959 -0.14251827 0.11604962 0.22626624 0.22006607 0.23931862 0.23179537 -0.07408397
-0.07848557 0.072308525 0.38013378 0.120709814 0.20162043 -0.054032866 0.1588368 0.42970127
0.3635873 -0.051563043 0.10639355 0.34157473 -0.09040299 0.12045137 0.2587144 0.17911127
0.1423017 0.24543707 0.15792266 0.24064046 0.16158973 0.27132103 0.3587703 0.37859482
0.15670794 0.3156103 0.29371893 0.32749513 0.35166857 0.10010467 -0.016524889 0.3213826
0.01631175 0.223084 0.24709383 0.286829 -0.09789338 0.2801678 0.23497503 0.3621966
0.23878938 0.062294602 -0.08510777 0.20009272 0.33258352 -0.058278255 0.12971322 -0.049309492
0.2841582 0.25342202 0.097852066 0.052132368 0.123482116 0.20361197 0.21953039 0.12738003
0.01885227 0.18331099 0.08178088 -0.10785207 0.29644522 0.20408477 0.263114 0.11220994
0.07957199 0.06899575 0.09345128 0.23575976

write_head.key_layer.weight f4 [20, 100]
00000000: 7ce2 c3bd 7f60 67bc 0374 72bd 507e 77bd
00000010: 8cf8 39bc eeea 30bd 6417 87bb 9ba4 14bd
00000020: 99d2 43bd 7dd4 edbc 42c0 5cb9 e334 f3bb
00000030: 4fd2 b1bd 7502 babd a169 04bd b748 b43b
00000040: 3fd2 afbd c97f e0bc e791 54bc 57dc 89bd
00000050: e605 8bbd 4cec b5bd 4bfa fbbd 46f7 22bd
00000060: 3896 0dbe 211d ebbd 3d66 89bd c059 c3bc
00000070: 1cf8 b5bd f632 22bd 501f b9bd da27 64bd
00000080: dd4b d6bd 1470 90bd 4b32 24bd 4c98 4cbd
00000090: 6cf3 44bd 73dd e4bd ec20 36bd d913 b9bc
000000a0: 2621 82bd 774a c7bd 37d1 f1bd df8d 35bd
000000b0: 899b f1bd f09a 69bd 6c73 a2bd 66a6 96bc
000000c0: 205f d6bd a1e7 6dbd 8d88 80bd a3ab c73c
000000d0: 0fed c7bd a160 c7bd 94a3 bbbb be83 81bd
000000e0: 3cd1 d6bd bc95 afbd 1aba a7bd 548c 4ebc
000000f0: ba21 97bd 530d afbd bfba 67bd e77c 90bc
00000100: 8549 31bd c616 6abd 1896 fcbc ab54 243d
00000110: 86c6 c9bd 1256 cfbc 8b46 bebd af41 74bd
00000120: bdec 2abd f901 aebc 4817 3cbd 31d1 d6bd
00000130: 889a 2fbd 5497 e0bd 5b6e 6cbd 1cb2 89bd
00000140: 6736 d7bd 1abb 81bc e443 f5bd bfe3 6bbd
00000150: edd7 65bd dff6 f4bd d3bd 9abd 77e1 a7bc
00000160: 608b ccbc b5b7 d1bd 61f1 e7bd 1635 c0bd
00000170: 40cc 62bd 57ae 93bc fd0c b4bc dce1 00be
00000180: 8fb8 c1bd e9ca c3bd fd00 16bd c291 16be
00000190: 659f efbb 27cd edbc af1a 20bd 4ba8 5ebd
000001a0: 2e16 fbbc f1f7 60bc 5939 8e3b 07d4 dbbc
000001b0: e2f9 43bd e103 89bc 55ac 4cba 736d 05bd
000001c0: 667a 3cbc ea90 6c3c 5ad8 3ebd e2b7 34bd
000001d0: f401 03bd ad2a 02bd 716d 16bc 6a80 92bc
000001e0: 1793 36bd f147 cfba 4d21 99bc 5304 b1bc
000001f0: 9da0 babb 34da 2abc a9d0 c2bc 7e49 5f3c
00000200: 1d56 3ebd 3183 19bd ef1c be3c d6ee f7bc
00000210: 98b2 cdbb 179a d4bb 8c08 e2bc 81bf 34bc
00000220: 4c4c bebc c448 e43c 17b7 8bbc 9473 0abd
00000230: 6781 e0bc 82b2 74bc 612a 37bb ea4b 26bd
00000240: d2ed d1bb 3a73 06bb 2174 11bc d722 29bd
00000250: 6809 903c 2a29 64bc b7c7 acbb 5ed8 10bd
00000260: 1d37 bfba f8ef 99bc 403f e0bc f86e cabc
00000270: 9003 0d3c bd1b 8d3c a6af a73c 6860 c9bb
00000280: 5b44 5e3a 8f1e 6abb 93fd 03bc ac2a 4abd
00000290: 6c85 77bc cbfd 16bd 2f96 1bbd 7f68 25bd
000002a0: b366 9c3c ec86 16bc daab 1dbc 06ed cabc
000002b0: 365c 03bd b92f a33b 22e0 45bc 3c85 c83c
000002c0: d14e c4bb dd25 e539 c18e 4cbd 7772 18bd
000002d0: dc74 80bc 7a82 2abd 4c71 27bc 6390 acbc
000002e0: 868b 07bd 8627 f7ba 67ac 4cbd 8fd3 fc3a
000002f0: 85dd 4fbd b95a cb3c 5dff babc 9248 483a
00000300: 7f9f 803a 8b3f 183b 9124 50bc 4e17 d83c
00000310: 8d2d ac3c ad16 0dbd 0ee5 babc dbe8 89bc
00000320: 993a ff3d b244 163c cfae 0b3e aeee d83d
00000330: 1460 a63d a915 0a3e e50a b43d 606a d13d
00000340: eca8 be3d 8db6 be3d 548e d336 0b66 9f3d
00000350: bf68 063e 2693 073e 2921 d03d 2a54 a23d
00000360: 18e9 0b3e 3d6b be3d 2979 a63d a150 113e
00000370: 70f9 183e e62e d53d 13b7 cc3d e234 0b3e
00000380: 36a3 133e f31e ec3d 4d32 f13d 55b9 fe3d
00000390: 84ae 073e 4a20 ec3d fa71 1f3e 53df e63d
000003a0: 08a3 113e e17d e13d 353f d23d c3fb 0e3e
000003b0: e57c 133e d210 f53d 3657 b03d 5551 fb3d
000003c0: 51ff 183e 217b 1f3e e5b2 013e f418 da3d
000003d0: e66d c03d 6340 153e 5258 0f3e b242 993d
000003e0: 31b3 0e3e f683 dc3d 590b c83d 6f22 c73d
000003f0: d5f4 183e 9f67 033e e0b4 d93d 80b8 d43d
-0.09564683 -0.014122128 -0.05919267 -0.060423195 -0.011350762 -0.043192796 -0.0041226614 -0.036289793
-0.047808263 -0.029031986 -0.00021052457 -0.007422076 -0.08682691 -0.090825 -0.032327298 0.0055018323
-0.08585023 -0.027404683 -0.012974239 -0.067314796 -0.067882344 -0.08882961 -0.12303599 -0.0397866
-0.13826835 -0.11480165 -0.067089535 -0.023846507 -0.08885214 -0.03959938 -0.090391755 -0.055702068
-0.104636885 -0.07052627 -0.040087026 -0.04994993 -0.048083708 -0.111750506 -0.04446499 -0.022592472
-0.06353979 -0.09731 -0.11807483 -0.044324752 -0.11797244 -0.057032526 -0.07932171 -0.018389892
-0.104673624 -0.058082227 -0.06276045 0.024373835 -0.09762012 -0.097352274 -0.005726287 -0.06323956
-0.10489127 -0.085734814 -0.08189793 -0.012606699 -0.0737948 -0.08547463 -0.05657458 -0.017637683
-0.043283004 -0.057150625 -0.030833289 0.04011981 -0.098523185 -0.025309596 -0.09290799 -0.059632953
-0.041729677 -0.021241175 -0.04592064 -0.10489119 -0.04287198 -0.109663635 -0.05772243 -0.06723425
-0.10508423 -0.015836287 -0.1197584 -0.057590242 -0.056114126 -0.119611494 -0.07555737 -0.020493252
-0.024968803 -0.102401175 -0.11325336 -0.09385125 -0.05537057 -0.018027468 -0.02197885 -0.12586159
-0.0945903 -0.095601864 -0.036622036 -0.1470404 -0.0073127025 -0.029028488 -0.039087947 -0.054359715
-0.030650225 -0.013730989 0.0043403325 -0.026834501 -0.04784573 -0.016725482 -0.0007807662 -0.032575082
-0.011503791 0.014438847 -0.046593048 -0.044120677 -0.031984285 -0.03177898 -0.009181366 -0.017883498
-0.04457387 -0.0015814287 -0.018692637 -0.021608507 -0.005695416 -0.010428 -0.023781138 0.013628362
-0.046468843 -0.03747863 0.023207156 -0.030265253 -0.0062773935 -0.0064880955 -0.027591966 -0.011031986
-0.02322974 0.027866729 -0.017055077 -0.03380163 -0.027405454 -0.014935138 -0.0027948844 -0.04059974
-0.006406524 -0.0020515458 -0.008877785 -0.04129299 0.01758261 -0.01392583 -0.0052728313 -0.035362594
-0.0014588569 -0.018791184 -0.02737391 -0.024711117 0.008606806 0.01722514 0.020469498 -0.0061455257
0.00084788137 -0.003572378 -0.008056062 -0.0493571 -0.015107494 -0.03686313 -0.037985023 -0.04038286
0.01909194 -0.009187441 -0.009623492 -0.024771225 -0.03207036 0.004980054 -0.012077363 0.024477594
-0.005990841 0.00043706494 -0.04994083 -0.037218537 -0.015680723 -0.04162834 -0.010219883 -0.021064943
-0.033092044 -0.0018856383 -0.049969103 0.0019289124 -0.050748367 0.024823533 -0.022826845 0.00076402084
0.0009813159 0.0023231234 -0.012704031 0.0263783 0.021017814 -0.034445453 -0.0228143 -0.016834667
0.124623485 0.009171652 0.13640903 0.105923995 0.08123794 0.13484825 0.087911405 0.102253675
0.09309563 0.093121625 6.304859e-06 0.07783135 0.13125895 0.13239726 0.10162575 0.07926209
0.13663137 0.09297798 0.08128578 0.14190914 0.14938903 0.10409336 0.09995856 0.13594392
0.14417729 0.115293406 0.11777172 0.12437693 0.13250166 0.11529596 0.15570822 0.112730645
0.14222348 0.110103376 0.10265962 0.13963227 0.14403112 0.11966099 0.08610384 0.12271372
0.14941145 0.15574314 0.12665899 0.10649291 0.093959615 0.14575343 0.13998535 0.07483424
0.13935544 0.10767357 0.097677894 0.097233646 0.14937146 0.12832497 0.10630202 0.10386753

write_head.key_layer.bias f4 [20]
00000000: 4dec 3cba c294 96bd 2b5f 383e ac1e 6b3d
00000010: a429 23be b96b 9abd b4f4 2cbd 7f5c 813c
00000020: 453c b7bd 2845 e13d 52ba 88bc 3caf 683c
00000030: 8f8b 3abc e104 4abd 156f 0f3e 4725 d4bd
00000040: 3042 c13d 8a16 063e 0414 0d3c bc14 c53d
-0.00072068424 -0.07352592 0.18005054 0.057402298 -0.15933853 -0.07540078 -0.042225555 0.015791176
-0.089470424 0.10999519 -0.016690407 0.014201935 -0.011385812 -0.04932106 0.14007218 -0.103586726
0.094364524 0.13094535 0.008610729 0.096230954

write_head.beta_layer.weight f4 [1, 100]
00000000: 90a8 2c3e 47c6 723d 280e 993e 371f 963e
00000010: e9e7 823e a23c 993e adb3 8f3e 2b25 833e
00000020: 8918 7e3e 4261 913e b189 c333 9711 893e
00000030: 0c52 813e e3dd 7f3e 24c0 a43e 467c 863e
00000040: 4d76 993e b9d6 543e 1efd 7b3e 503d a23e
00000050: 8605 b03e bf5c 453e b46d db3d f092 b53e
00000060: 558b 973e 3189 ee3d 4f91 2f3e 0f9a 8c3e
00000070: b2b0 973e d6ab 9a3e ff0c a03e 6ea8 e93d
00000080: 07ce 2a3e 6096 1a3e 2e09 9a3e 2612 843e
00000090: 7017 a63e 7f12 4b3e 3567 893e 9ceb ac3e
000000a0: a4d0 b93e 12be a03e fc63 4b3e 75e6 833e
000000b0: 02e5 bf3d 296a 7a3e 5094 ae3e ac31 593e
000000c0: 7c0e 553e 2cc3 843e e27b 383e ed8f 873e
000000d0: db38 893e 7ea0 7d3e ae9e 8d3e ff36 aa3e
000000e0: a9e2 553e 9278 b73e 57e7 ca3e 66bd 523e
000000f0: df86 d83e 2667 5e3e e652 223e 240c 983e
00000100: 485b 573e ce76 513e de52 873e a328 8d3e
00000110: 18fd 1f3e 4d26 3a3e d3ce 883e f03c b43e
00000120: 8b76 943e b799 893e 4020 433e ed5f 9a3e
00000130: f59b a53e e40e 453e ced2 7c3e 5d6a 433e
00000140: bc8c b23e 4752 513e cf2c 7f3e 5788 4d3e
00000150: bd14 903e 5a82 9b3e 705a a63e 5469 923e
00000160: c4a5 823e 6a0b 953e b3cc 983e 0eb7 b93d
00000170: cadc 8c3e cac3 653d a7c7 043e b753 453e
00000180: 3992 023e b159 a23e 5ced 733e 8e8a 883e
0.16861176 0.059271123 0.29893613 0.2932069 0.25567558 0.29929072 0.2806677 0.25614294
0.24814047 0.28394514 9.105441e-08 0.26771232 0.2525791 0.24986987 0.32177842 0.26266688
0.2997307 0.20785035 0.24608275 0.31687403 0.34379214 0.19273661 0.107142836 0.35463667
0.2959849 0.11647261 0.17145275 0.27461287 0.29626995 0.30209225 0.31259915 0.114090785
0.16680156 0.15096426 0.3008513 0.25795096 0.32439756 0.19831274 0.26836553 0.33773506
0.36291993 0.31395012 0.1986236 0.25761762 0.09369852 0.2445456 0.34097528 0.21210355
0.20806307 0.25930154 0.18016008 0.26476994 0.2680119 0.24768254 0.27660125 0.33245084
0.20887245 0.35834175 0.39629623 0.20580062 0.42290398 0.21719036 0.15851936 0.29696763
0.21030915 0.20455477 0.2643041 0.27570066 0.15623891 0.18178673 0.26720294 0.35202742
0.2899669 0.26875088 0.19055271 0.3015131 0.32345548 0.19243962 0.2468979 0.19083543
0.34872997 0.20441543 0.24919437 0.20071541 0.28140822 0.30372888 0.32490873 0.28595984
0.25517094 0.2911027 0.29843673 0.09068118 0.275122 0.056094922 0.12966786 0.19270216
0.12751092 0.31709054 0.23821014 0.2666821

write_head.erase_layer.weight f4 [20, 100]
00000000: bcb4 9bbc 7c8d 8a3c 12e3 e739 06e1 133b
00000010: 04c2 243c 1add 74bc a7a1 f1ba 8bd5 88bb
00000020: e076 513c 1298 2c3b 6af2 8592 fbcd 103c
00000030: 290d 9abc 992d 31bb be85 ae3b 6b12 0b3c
00000040: 675a 82bc 62c0 44bc 9881 b93b 5430 223b
00000050: cdc8 083c 4b7d abbc fd83 a7bc a9c3 1bba
00000060: b5e5 99bc a786 80bc 74c6 a3bc 2df6 51bc
00000070: 9295 9f3a 4461 043c 720f 90bc 2bb4 adbc
00000080: 44d2 98bc 8608 53bc ac7e 87ba eb99 19bc
00000090: 5df5 05bc 60b0 34bd 355a 21bc 0eeb d93b
000000a0: 7fcc 403b fa46 5cbc 76ba e9bc 67e5 553b
000000b0: afe8 9ebc 1325 53bc 187b 50bc 68c0 ce3b
000000c0: dd2f c1bc 2025 19bc 3204 48bc 621f 153b
000000d0: da3e 27bb 381d 933b 91b9 a83b 823d f53b
000000e0: a45c 36bc e68e 5ebc 383b cbbb 51ba 273c
000000f0: 007c 4abc dac9 75bc 34d0 10bd ca84 493c
00000100: 30cf 30bc 38fc abbb bc8b 23bc aa8f 0d3a
00000110: ed84 d0bc 527c 113c 0d29 1abc 7c63 d73b
00000120: 3214 94bc 8969 c1bc fc6d 46bc ab7b 68bc
00000130: 7cff 7d3b 8a4a f5bc 7380 c0bb da13 cdbc
00000140: 7b39 e9bb 0984 0e3c 33eb fdbc 9ce0 02bd
00000150: 3ae0 0abc 94e4 5ebc cea3 d0bb 342e 13bc
00000160: 832d 4cba 8f73 cdbc 8b6e a6bc 9604 6ebc
00000170: 74ea 333a 799e be3c 2549 4f3c 0bce cbbc
00000180: 70ea 9cbc 4837 6eba f11c 94bc ec1e 2dbc
00000190: 508d 55bc c71e 873c 016d c2ba 732f 8b3b
000001a0: ccbe 2f3c d85a b2bc 04d4 713b 41e7 b7b7
000001b0: 5e43 513c 7742 e63a d921 0b09 7619 313c
000001c0: b517 66bc 2414 95bb 7929 4f3b 1834 3d3c
000001d0: ee3c 81bc 42e4 81bb e412 2b3c e97a 073b
000001e0: 9833 ee3b c8ee 43bc d952 93bc c91a a33b
000001f0: 0587 aebc 666e 35bc f123 94bc 3b31 d1bb
00000200: fcaa 2bbb 9785 043b 66b1 b6bc f9fc 5dbc
00000210: 7291 9fbc adbc 39bc 84be 4239 5d42 c2bb
00000220: 4041 37bc 5d18 cdbc e8d2 8f3a f3ea 063c
00000230: 35db d43b c2d2 7bbc b889 bfbc f13d c13b
00000240: fa34 5cbc d8c5 39bc cf9b 91bc 020c b33b
00000250: aa51 c0bc 899c 00bc 5ae4 5cbc 600b 043c
00000260: 5bef c7bb e528 943b d619 fd3b 969a 033c
00000270: 9472 45bc 9e3a 3abc 1125 42bb f84c 3d3c
00000280: 138d 61bc 9761 bebb 8a9e a7bc 9a3d 363c
00000290: b22a 29bc cb4a 34bb 7881 c0bb c390 823b
000002a0: f264 babc 981b 313c 17d2 76bb 7c06 3c3c
000002b0: ed75 51bc 2cd5 8cbc 6706 b6bb 4907 65bc
000002c0: a699 063c d655 95bc 174e 183b 83ba 7cbc
000002d0: 1323 1ebc b13b 4b3c 960b e3bc 2981 9abc
000002e0: cd56 86bb 0db5 66bc da41 03bc 138a f5b9
000002f0: 6f9d e43a 56aa a6bc 6f6f 95bc 9a7b e2bb
00000300: e497 033b 2d09 ba3c 2c9f 693c fc27 91bc
00000310: 5ff1 3bbc 1b38 cf3a e3d2 68bc f641 41bc
00000320: a100 02bd ff02 f4ba d133 d8bc c674 ecbc
00000330: 7432 8bbc ef5f 9dbc d138 b9bc c783 f5bc
00000340: d6f4 b8bc 541d bbbc 84ca 2cab dd00 a8bc
00000350: dd02 ed3a 8707 1ebd 63ed c4bc 0d00 9dbc
00000360: 483f 0fbd 8b30 c5bb c885 a2bc be40 12bd
00000370: bb10 01bd 09d9 01bc 50cf 08bc 6680 02bd
00000380: 76fd 0abd ccd7 1a3c ef00 d1bc dea5 bcbc
00000390: a56f e7bc f2be 9fbc daee 2fbd 6c74 71bc
000003a0: 9978 a5bc b89a dbbc dc15 00bd 0e5c 9fbc
000003b0: e485 0abd 694d f8bc d693 b5bc ccb4 15bd
000003c0: 0df5 03bd 96bc 823b 5eb9 03bd f556 dbbc
000003d0: d852 aebc 1b5b fcbc a477 1abd e6e3 44bc
000003e0: 0980 00bd ab71 f3bc 3e08 05bd 83d4 61bc
000003f0: 20b4 07bd a711 f4bc 1b94 d7bc 7fa7 dfbc
-0.01900708 0.016913168 0.00044228934 0.0022564544 0.010056023 -0.014945293 -0.0018435017 -0.004175847
0.01278469 0.0026335758 -8.45324e-28 0.008838172 -0.018805103 -0.0027035235 0.005326002 0.008488278
-0.015912248 -0.012008758 0.0056612007 0.0024748044 0.008348656 -0.020933768 -0.02044868 -0.00059419364
-0.01878629 -0.015689207 -0.01999209 -0.012815041 0.0012175313 0.008079831 -0.01758549 -0.021204075
-0.01865495 -0.01288045 -0.0010337434 -0.009375076 -0.008176175 -0.044113517 -0.009848167 0.006650335
0.0029418764 -0.0134446565 -0.028531294 0.0032637955 -0.019398062 -0.012887257 -0.01272466 0.0063095577
-0.023582393 -0.00934723 -0.0122080315 0.0022754301 -0.002551964 0.004489567 0.0051490744 0.007484139
-0.011130486 -0.013583874 -0.006202128 0.010237292 -0.0123586655 -0.015001738 -0.035354808 0.012299726
-0.010791585 -0.0052485727 -0.009982046 0.0005400131 -0.025454009 0.008879738 -0.009409201 0.0065731388
-0.018076036 -0.023609893 -0.012111183 -0.014189641 0.0038757017 -0.02994277 -0.0058746873 -0.02503388
-0.007117448 0.008698472 -0.03099594 -0.031952485 -0.008476311 -0.013604302 -0.0063671833 -0.008983184
-0.0007788764 -0.025079517 -0.020316383 -0.014527461 0.00068632443 0.023268925 0.012651716 -0.024878522
-0.019154757 -0.0009087217 -0.018080207 -0.010566454 -0.01303418 0.016494168 -0.0014833511 0.0042475997
0.010726642 -0.021771833 0.0036900053 -2.1922986e-05 0.012772409 0.0017567415 1.6747431e-33 0.010809293
-0.014043738 -0.00454952 0.0031610413 0.011548065 -0.015776124 -0.003963978 0.010441516 0.0020672625
0.007269334 -0.011958785 -0.01798384 0.0049775583 -0.021304617 -0.011073684 -0.018083544 -0.0063840426
-0.0026194444 0.0020221227 -0.022301387 -0.013549083 -0.019478533 -0.011336488 0.00018572254 -0.0059283213
-0.01118499 -0.025036031 0.0010972889 0.008234727 0.006495858 -0.015370073 -0.0233811 0.0058972766
-0.013440365 -0.0113386735 -0.01777449 0.005464078 -0.02347644 -0.007849821 -0.013482178 0.008059353
-0.0061015314 0.0045214766 0.007724027 0.008032462 -0.012051243 -0.0113665145 -0.0029624144 0.011553995
-0.013766545 -0.0058099735 -0.02046134 0.011123085 -0.010325121 -0.00275104 -0.005874809 0.003984542
-0.022753213 0.0108098015 -0.0037661844 0.011476155 -0.012784463 -0.017191492 -0.0055549624 -0.013978788
0.008215344 -0.018229406 0.0023239905 -0.015425327 -0.009651917 0.012404368 -0.027715486 -0.018860416
-0.004099703 -0.014081252 -0.008011306 -0.00046832915 0.0017441938 -0.020344894 -0.018241612 -0.006911707
0.0020079548 0.022709453 0.014259141 -0.017719261 -0.011471122 0.0015809567 -0.014210436 -0.0117955115
-0.03173888 -0.0018616616 -0.026391895 -0.028864276 -0.016991831 -0.019210784 -0.0226101 -0.029970063
-0.022577684 -0.022841133 -6.138772e-13 -0.020508224 0.0018082518 -0.038581397 -0.024038976 -0.019165063
-0.03497246 -0.0060177497 -0.019839182 -0.035706274 -0.031510096 -0.00792528 -0.008350208 -0.03186073
-0.033933125 0.009450864 -0.02551314 -0.02302831 -0.028251478 -0.01950023 -0.042952396 -0.01473723
-0.020199107 -0.026807174 -0.031270847 -0.019453075 -0.033819094 -0.03031035 -0.02216522 -0.036549374
-0.03221612 0.0039897664 -0.0321592 -0.026774863 -0.021279737 -0.030805161 -0.037711754 -0.012017226
-0.031372104 -0.029717287 -0.032478563 -0.013783577 -0.033130765 -0.029793574 -0.02631574 -0.027301548

write_head.erase_layer.bias f4 [20]
00000000: 6633 83ba c430 20bb 6cef febc 4f45 083d
00000010: 66bb 7d3c 70f3 e9bc ce37 293c f277 50bc
00000020: efe6 f23c 889d c13c c278 153d 7c1f 773c
00000030: 4ea4 54bc dd79 f93b 99ec 053c e8f0 ae3b
00000040: e523 ac3c 4c39 933c 1445 bf3c ef48 a63c
-0.0010009825 -0.002444313 -0.031120025 0.033269223 0.015486574 -0.028558463 0.010328246 -0.01272391
0.029651133 0.023634687 0.036492117 0.01508319 -0.012978626 0.007613404 0.008174085 0.005338777
0.02101321 0.017971657 0.023348369 0.02029845

write_head.add_layer.weight f4 [20, 100]
00000000: 142c 52bd 129d 5bbc 530d cdbc e257 37bd
00000010: 42ac 03bd 8ba2 b0bb 88aa 0fbd 018b 21bd
00000020: d8d7 4abd c29a a7bc 5073 0500 3ac1 09bd
00000030: 6be2 853b 779d 71bd cbe3 0ebd f49b 03bd
00000040: cbd5 0fbd 4ec0 82b9 6b24 f9bc f9e6 3fbd
00000050: e146 11bd 81cc 063b 8344 89bc 38b2 8bbd
00000060: 9a5e 44bd b84d 533c 0f41 b4ba 6212 a0bc
00000070: c831 cabc 9b58 c6bc 932f 68bd 006b 4abc
00000080: 1d6a 22bd 8e45 51bc 9838 23bd 640f dbbc
00000090: 45ef 90bd a2c8 dbbc 07c9 1fbd 7795 77bd
000000a0: 4aba 6dbd f5a4 913b cc9b a1bc 6e22 26bd
000000b0: 374d e1bc 29a3 45bd 4bf7 10bd c19c febb
000000c0: 6ce9 36bc 7752 f0bc 1eff 43bc e09d 9abc
000000d0: 7fb0 3abd 5d33 babc 340c 21bd c8e0 0bbd
000000e0: 2b8e 04bd 95cd 95bd e1db a9bd 5e7c 14bd
000000f0: f637 b2bd 2044 6cbd d2f9 52bc 83a2 29bd
00000100: 2817 f9bb bf1e a9bb 3bd5 2fbd 72d0 b3bc
00000110: 5570 253c d90c 00bd e61a 56bd 194b 99bd
00000120: bae9 bbbc 48e1 86bc 74fd 21bc c27a 04bd
00000130: d061 79bd 09b1 a0bc 2e9e ccbc 43a1 c7bb
00000140: 92c2 a1bd de81 d2bc 67c8 1dbd 149a c6bc
00000150: 0c08 d0bc 71ef 7dbd ae7b 0dbd f355 d3bc
00000160: f9fe 923a e8e5 a5bd 7341 08bd cac4 81bc
00000170: febc 08bd 0c7b 39bc 3b03 dcbc a064 43bd
00000180: 1c75 2cbd 2124 6abd 4f37 5cbc e830 72bd
00000190: 8b5b 09bd ee8b f4bb 2d18 34bd 2e4a 1ebd
000001a0: f686 c0bc f67b 42bc bdec efbc ae63 1bbd
000001b0: bdb8 febc 77d7 bdbc 665c 0580 3318 0bbd
000001c0: 9ade 97bc 166d 4dbd c7dc 15bd 8335 eebc
000001d0: 690e 03bd 1354 5cbc 2d3e e2bc 1a87 19bd
000001e0: 0409 1ebd e77c 35bc 154c e5bb 57fd 78bd
000001f0: 50f7 0dbd ec4a 403a bbf4 bbbc 136c 08bd
00000200: d4f7 cdbc 45b0 f2bc b032 3abd 0af3 79bb
00000210: 8dd2 aabc d4d8 a7bc 031e 6bbd 4a63 34bd
00000220: 0dc2 40bd 28f8 b9bc 008f 0ebd 11d9 72bd
00000230: a98c 5cbd 07f4 02bb 4e35 f6bc 8d43 35bd
00000240: 3dd5 4fbc 1e7a 12bd 1a83 3cbd 9e09 86bc
00000250: 3f00 cabc 34b4 21bd 36c0 babc ec2a 13bd
00000260: f0fa 12bd a131 1dbd e902 3abd 0816 34bd
00000270: 818f 0abd d5ef 7bbd 26ad 5cbd 0507 fabc
00000280: 866e 83bd 8c4b 10bd 6553 99bc 1ba5 19bd
00000290: da64 dbbc 29e7 9cbc 4886 54bd ced6 2dbd
000002a0: 9644 93bb a224 d4bc 0066 39bd d868 5ebd
000002b0: 7869 3cbd 1615 eebc e694 24bc b916 cabc
000002c0: dcc2 71bd 1f14 5fbc adff a2bc fcf5 52bc
000002d0: 4079 74bd 1fba b9bc b2c5 02bd a2cb d8bc
000002e0: 54c0 8fbc a2fc 0dbd 358d e5bc 5fd4 03bd
000002f0: 7ca7 3ebc 8256 63bd 2411 cfbc 1eb2 37bc
00000300: 96ed 39bd 7ba7 15bc 548a a7bc aac4 15bd
00000310: 9b8a 13bd b850 1dbd bd57 dfbc 555c 41bd
00000320: d92b fd3c 679d 0b3c 0d53 363d 3206 473d
00000330: 7f8a 253d ff35 0c3d 4b23 303d 44ec 0c3d
00000340: 7a75 3a3d 3672 193d e35f 0580 2302 223d
00000350: e9cf b13c 9d12 453d 7109 3f3d bf4f 283d
00000360: 7b71 0a3d 2f3b 8f3c fc03 173d 43a2 363d
00000370: 1ea1 4b3d d949 583c 3a3d 853c d466 883d
00000380: ddc6 373d 5bf7 6b3b 58c7 693c 689c fa3c
00000390: 2e28 163d 04b5 373d 3e8e 423d b946 003c
000003a0: cfab 073d bca2 9b3c ea14 4d3d 441b 283d
000003b0: 8b4d 773d 38fd d93c 3779 2f3d 294f 723d
000003c0: 0385 773d 9d3c fd3c aa1a a33c 1e46 313d
000003d0: d903 943c 0900 203d 9aa2 443d 6775 f13c
000003e0: b6e9 8b3c cfc3 263d 5083 903c b168 1a3d
000003f0: f171 2a3d ba86 023d dc65 363d d7a2 473d
-0.051311567 -0.013404148 -0.025030768 -0.044761546 -0.0321467 -0.0053904704 -0.03507474 -0.039439205
-0.04952225 -0.020459536 5.00544e-40 -0.03363154 0.004085829 -0.05898806 -0.03488521 -0.03213115
-0.035116 -0.0002493881 -0.030412873 -0.046851132 -0.035467986 0.0020568671 -0.016756302 -0.06821102
-0.04794178 0.012896948 -0.0013752299 -0.019540016 -0.02468194 -0.024212172 -0.056685995 -0.012354612
-0.03965198 -0.012772931 -0.039848894 -0.026740737 -0.07076887 -0.026829068 -0.039010074 -0.060445275
-0.058038987 0.0044447132 -0.01972761 -0.04056018 -0.02750264 -0.048251305 -0.035392087 -0.0077701514
-0.011164051 -0.029336197 -0.01196268 -0.018874109 -0.045578476 -0.02272957 -0.03931828 -0.034149915
-0.032362144 -0.07314602 -0.08293892 -0.03625142 -0.0870208 -0.057682157 -0.012876945 -0.04141475
-0.0076016374 -0.005161136 -0.04292796 -0.02194998 0.010097583 -0.031262252 -0.052271746 -0.07485027
-0.022938598 -0.016464844 -0.009887088 -0.032343633 -0.060884297 -0.019615667 -0.02497777 -0.006092222
-0.078984395 -0.025696691 -0.038521197 -0.024243392 -0.025394462 -0.061995927 -0.03454178 -0.02579782
0.0011214904 -0.08100492 -0.033265542 -0.015840907 -0.033383362 -0.011320841 -0.02685701 -0.047703385
-0.04210387 -0.05716336 -0.013440921 -0.059128672 -0.033534568 -0.00746297 -0.04396837 -0.038644962
-0.023501854 -0.011870375 -0.02928769 -0.03793686 -0.03109395 -0.02317403 -4.92324e-40 -0.033958625
-0.018538762 -0.05015286 -0.036587503 -0.02907825 -0.031996164 -0.013447779 -0.027617538 -0.03748236
-0.038582817 -0.011077142 -0.006997595 -0.06078848 -0.034659684 0.0007335383 -0.022943845 -0.033306193
-0.025142588 -0.029625067 -0.045458496 -0.0038139247 -0.020852352 -0.020489134 -0.05740167 -0.044040002
-0.04706006 -0.022701338 -0.034804344 -0.059289042 -0.05384508 -0.0019981877 -0.030054715 -0.044253875
-0.012685117 -0.03576099 -0.046023466 -0.016362008 -0.02465832 -0.039478496 -0.022796731 -0.035929605
-0.035883844 -0.038377408 -0.04541293 -0.043966323 -0.033828262 -0.06150802 -0.053876065 -0.030520925
-0.06417565 -0.035228297 -0.018716523 -0.037510972 -0.026781488 -0.019153195 -0.051885873 -0.04244118
-0.00449426 -0.025896374 -0.04526329 -0.054299206 -0.04599902 -0.029062789 -0.010045266 -0.024669038
-0.059023723 -0.013615637 -0.019897306 -0.01287603 -0.059685946 -0.022671757 -0.03192682 -0.026464287
-0.017547764 -0.034664758 -0.028021434 -0.032184955 -0.011636611 -0.055502422 -0.025276728 -0.0112119
-0.045392595 -0.009134169 -0.020451702 -0.036564507 -0.036020856 -0.038407058 -0.027263517 -0.047207195
0.030904697 0.008521414 0.044512797 0.048589893 0.040415283 0.034231182 0.043002408 0.034405008
0.04552219 0.037462436 -4.93575e-40 0.03955282 0.021705585 0.048113454 0.046639863 0.041091677
0.03379963 0.017484276 0.036869034 0.04458834 0.0497142 0.0132012 0.016264547 0.06660238
0.044867385 0.003600559 0.014268719 0.030592158 0.036659412 0.044850364 0.047498934 0.007829362
0.033122834 0.018998496 0.050068773 0.041041628 0.060376685 0.026610002 0.04284021 0.059157524
0.060429584 0.030912692 0.019910175 0.04327976 0.018068241 0.039062534 0.04800663 0.029474927
0.017079215 0.04071408 0.01764074 0.037697498 0.04161257 0.031866767 0.044530734 0.04873928

write_head.add_layer.bias f4 [20]
00000000: 5eb5 54bd fa69 84bd 3ff8 903d 836c 443d
00000010: ead8 783d 41c9 bf3d a3de 82bd ca23 86bd
00000020: 242c 3dbb 3737 883d 7f67 983c 129d 5c3d
00000030: 1562 6dbd 36ca 6bbd fb26 833d 2d84 9f3d
00000040: 1153 6a3d 2081 7f3d 7da5 c93c eb32 8a3d
-0.051930778 -0.06465526 0.07078599 0.047955047 0.06075374 0.09364558 -0.06390121 -0.06549795
-0.0028865421 0.066511564 0.018604038 0.05386073 -0.057954866 -0.05756589 0.06403919 0.077888824
0.057208125 0.062379003 0.024615044 0.06747993
