VerSimples/checkpoint/best_model_epoch_8.pth (torch, 65162 bytes, 15 tensors)

memory.mem_bias f4 [128, 20]
0.07619176 0.03563375 -0.04980549 -0.09607343 0.0043179616 0.06904913 0.014926925 0.016132034
-0.0015524477 -0.015049204 -0.0026782528 0.08633394 -0.0784042 -0.09629436 -0.086289406 -0.022262014
0.025354631 -0.0957574 0.034223028 0.04019571 0.013035357 0.06158369 -0.08334665 0.0014631301
0.05438233 0.0880998 -0.06898215 -0.06472365 0.030513667 -0.057434358 0.058010764 0.03859233
-0.07378324 -0.09317782 0.09792281 0.01929678 0.032649927 0.071690015 -0.045427598 0.09609745
-0.031949483 -0.0053414106 -0.061069407 0.09500117 -0.011153102 0.042834945 -0.017971836 0.061101176
0.03554512 -0.08028112 0.07988124 0.036728553 0.05810014 0.06659462 0.032851048 -0.0077911243
-0.06210507 0.029527687 0.047688372 -0.016777694 0.05389265 -0.061480165 -0.077725925 0.08086812
0.043036647 -0.029829286 -0.043098655 -0.09417041 -0.08325664 0.027905323 -0.0437011 -0.020391047
0.034154482 -0.09534764 -0.030106306 0.058195837 -0.051568296 0.041747786 0.0039020553 -0.025033519
0.01186496 0.09070619 -0.045724202 0.092501126 -0.034700677 -0.008615948 0.07048451 -0.029090561
-0.0803496 0.047458254 0.023895383 -0.04273671 -0.012396976 0.027483664 -0.024424434 0.01216159
0.042955108 -0.04159335 0.056925036 0.095992856 -0.04627042 0.07587171 -0.031268753 -0.053660035
0.06206224 -0.016313575 -0.017617926 -0.07088182 0.069844075 -0.05333636 0.034334503 0.06083732
0.09445869 -0.05863252 -0.009978928 0.093245886 -0.077121004 0.06215132 0.04803837 0.017222323
-0.027888633 -0.05260972 0.02864752 -0.03855462 -0.073161386 0.04911775 -0.09579871 -0.058482803
-0.05994438 -0.0714936 -0.096748374 0.0636524 0.08776825 0.09455588 -0.053326108 0.09678955
-0.08787829 0.037711628 0.05519498 -0.084717765 0.022985734 0.072137676 -0.040067185 0.041753836
-0.02692584 0.04306329 -0.069201365 -0.04713985 0.02360592 -0.009294286 0.05141499 -0.047697045
0.043512933 0.092227586 0.047434457 -0.09393374 0.027468093 -0.05499308 -0.06255667 0.093510024
0.072214074 -0.04120289 0.03878597 -0.07718466 0.042697288 0.08176658 0.056535132 -0.07679226
-0.015959404 -0.075602435 -0.063135326 0.044609673 -0.03432242 0.0195323 0.019430354 -0.038787317
-0.09803744 -0.039671015 -0.026020847 -0.07727782 0.09518968 -0.09016897 -0.049902976 -0.08635884
0.064829685 0.0572012 0.012130499 0.08296407 -0.059731554 0.08992203 0.035211466 0.04749783
-0.038997184 0.08465984 -0.036955334 -0.090682864 -0.039452266 -0.045048572 0.026907794 0.009905875
-0.009924792 -0.027174488 -0.044923045 0.058075495 0.09413911 0.07118983 0.04518371 0.054970406
2.7045608e-06 0.08862486 -0.08900235 -0.055544175 -0.059688557 -0.047321975 0.040268518 -0.014667511
-0.061176278 0.0153265 -0.010149419 -0.08830627 0.0316113 -0.07349358 0.031757437 0.020869292
0.08270604 0.06715723 -0.08636782 0.095415466 -0.008207977 0.08805669 -0.094402134 0.088234
0.0922573 0.08547104 0.096543975 0.04839281 -0.005185768 0.010580219 -0.050193276 0.09424292
-0.075715736 -0.024480067 -0.07254778 -0.044001557 0.01214312 -0.031652883 -0.085774496 0.010906972
-0.020300314 0.006533183 0.07421429 -0.015643142 -0.030526042 -0.076009646 0.005802095 0.032879896
00000000: 6d0a 9c3d b2f4 113d d700 4cbd 25c2 c4bd
00000010: b07d 8d3b a169 8d3d 1090 743c 5427 843c
00000020: 807b cbba f090 76bc a085 2fbb d9cf b03d
00000030: 6292 a0bd fa35 c5bd 80b8 b0bd d45e b6bc
00000040: 84b4 cf3c 751c c4bd 722d 0c3d 42a4 243d
00000050: 4092 553c 2e3f 7c3d a6b1 aabd 80c6 bf3a
00000060: 02c0 5e3d ab6d b43d 8346 8dbd d58d 84bd
00000070: ccf7 f93c 4a40 6bbd b29c 6d3d fe12 1e3d
00000080: ab1b 97bd 03d4 bebd c18b c83d 4814 9e3c
00000090: eebb 053d 37d2 923d 4a12 3abd bdce c43d
000000a0: 76dd 02bd 0007 afbb ea23 7abd f98f c23d
000000b0: 80bb 36bc b273 2f3d ac39 93bc 3a45 7a3d
000000c0: c297 113d 6e6a a4bd c798 a33d ae70 163d
000000d0: 6afa 6d3d c362 883d d28e 063d b04c ffbb
000000e0: e361 7ebd 0ce4 f13c e254 433d 6071 89bc
000000f0: 8abe 5c3d a0d2 7bbd c52e 9fbd 2f9e a53d
00000100: 3247 303d 8c5c f4bc 3788 30bd 6adc c0bd
00000110: 7582 aabd b499 e43c edff 32bd 200b a7bc
00000120: 92e5 0b3d a045 c3bd 80a1 f6bc c25e 6e3d
00000130: 4739 53bd baff 2a3d a0b9 7f3b 1813 cdbc
00000140: 4065 423c 2bc4 b93d 4d49 3bbd 3b71 bd3d
00000150: 4c22 0ebd e829 0dbc 2f5a 903d 544f eebc
00000160: 558e a4bd 9663 423d 40c0 c33c b00c 2fbd
00000170: b01c 4bbc 6c25 e13c c015 c8bc 6841 473c
00000180: b2f1 2f3d ca5d 2abd 3a2a 693d e797 c43d
00000190: 0d86 3dbd a162 9b3d aa13 00bd a0ca 5bbd
000001a0: fa34 7e3d 0ca4 85bc 7853 90bc 7d2a 91bd
000001b0: 690a 8f3d 3a77 5abd 56a2 0c3d 8e30 793d
000001c0: 8f73 c13d a728 70bd a87e 23bc b3f7 be3d
000001d0: 9ef1 9dbd 6292 7e3d e2c3 443d d415 8d3c
000001e0: b476 e4bc 4a7d 57bd 34ae ea3c 73eb 1dbd
000001f0: a3d5 95bd b22f 493d 1d32 c4bd aa8b 6fbd
00000200: 3d88 75bd 3d6b 92bd 0324 c6bd 315c 823d
00000210: d7bf b33d 83a6 c13d 7a6c 5abd 9939 c63d
00000220: 88f9 b3bd 8277 1a3d 2214 623d 8280 adbd
00000230: 944c bc3c ebbc 933d 7d1d 24bd 1206 2b3d
00000240: 9493 dcbc 2263 303d 72b9 8dbd b715 41bd
00000250: 3461 c13c 1047 18bc 8698 523d fa5d 43bd
00000260: 9e3a 323d d1e1 bc3d a24a 423d 5560 c0bd
00000270: c404 e13c 6d40 61bd b61d 80bd 2f82 bf3d
00000280: f9e4 933d 5dc4 28bd 0ade 1e3d fe12 9ebd
00000290: 5ae3 2e3d 3d75 a73d 6291 673d 4345 9dbd
000002a0: 4cbd 82bc 73d5 9abd 184d 81bd a2b8 363d
000002b0: aa95 0cbd 3402 a03c 682c 9f3c 73df 1ebd
000002c0: dac7 c8bd 137e 22bd ac29 d5bc d543 9ebd
000002d0: cff2 c23d 82aa b8bd 1067 4cbd e7dc b0bd
000002e0: 6dc5 843d ce4b 6a3d 00bf 463c 11e9 a93d
000002f0: 13a9 74bd 0b29 b83d e639 103d 168d 423d
00000300: 83bb 1fbd 2362 ad3d 7a5e 17bd f0b7 b9bd
00000310: b398 21bd da84 38bd bc6d dc3c 404c 223c
00000320: 989b 22bc 089d debc 3a01 38bd 92e0 6d3d
00000330: 01cc c03d f9cb 913d 8e12 393d a628 613d
00000340: 0080 3536 f380 b53d dd46 b6bd 4a82 63bd
00000350: fd7b 74bd b0d4 41bd 9af0 243d 0050 70bc
00000360: fa93 7abd 001c 7b3c c049 26bc ebd9 b4bd
00000370: da7a 013d cd83 96bd 1614 023d 14f6 aa3c
00000380: c961 a93d bb89 893d 9de1 b0bd 2f69 c33d
00000390: c07a 06bc 1157 b43d e855 c1bd 07b4 b43d
000003a0: 65f1 bc3d 710b af3d d9b8 c53d 8a37 463d
000003b0: 60ed a9bb a858 2d3c 7797 4dbd 6f02 c13d
000003c0: da10 9bbd 6c8a c8bc ee93 94bd fa3a 34bd
000003d0: f0f3 463c 74a6 01bd 8aaa afbd 28b3 323c
000003e0: d84c a6bc 5014 d63b a9fd 973d 0c26 80bc
000003f0: c011 fabc f2aa 9bbd 801f be3b 12ad 063d

controller.0.weight f4 [100, 28]
-0.0917064 -0.34997395 0.4379728 0.40788025 0.6697284 0.54807913 0.35167524 0.57775986
-0.1022577 0.06558548 0.019383103 0.10237829 0.031599347 -0.020615948 -0.002111295 -0.060966842
0.105752915 0.011034214 0.13636993 -0.016036546 0.08274537 -0.014755187 0.05984811 0.056851614
0.073998675 -0.05284138 -0.08557101 0.12134273 -0.35216144 -0.20305629 -0.30044973 -0.35586
-0.44211525 -0.59011805 -0.48411343 0.2597837 -0.038906097 -0.22070482 0.14922757 -0.035513666
0.15602246 0.16120386 -0.14952254 -0.08755688 -0.054422695 0.004243818 0.15970406 0.12595178
-0.10725705 -0.17346944 -0.015050811 0.16838607 0.15261452 0.17582296 -0.028421367 -0.039893392
-0.41883275 0.55537426 0.633158 -0.21075638 -0.14453591 0.5522953 -0.3575123 0.36030146
0.03964353 0.030372214 0.062630296 0.05546767 0.023048965 0.044822555 -0.07370786 0.048948657
-0.10913825 0.041694287 -0.051919267 -0.09397201 0.045757376 0.07624478 0.028475758 0.008165027
0.06621905 -0.03370841 0.020419246 -0.093971185 -0.34248948 -0.5800553 -0.01737915 0.67335063
-0.18264534 -0.028720465 0.41800812 -0.074719496 -0.21236542 -0.064351134 0.13889153 -0.00979394
0.05866039 0.14880453 -0.21101864 -0.22793943 -0.084881954 0.2260907 0.08595363 0.07198873
-0.17505322 -0.076596044 0.028476752 0.14310415 -0.0010456754 0.2289793 0.15946832 0.035904087
-0.23323323 -0.097427666 0.4127897 -0.3903028 0.54631484 -0.12152278 -0.3090052 -0.10305958
-0.19031976 -0.12308996 0.011869768 0.17690009 -0.07837855 0.12820107 -0.096359 -0.2117104
-0.010617543 0.15727514 -0.009325236 0.15993458 -0.14305016 -0.026818622 0.18830593 0.15612184
0.1724192 0.18497275 0.047508936 0.028676162 -0.4678961 0.6803546 0.8206196 0.5300157
0.83816683 0.6143765 -0.5907492 -0.4413819 -0.068495676 -0.03130002 0.07841653 0.071625866
0.065548435 0.04499151 -0.12199024 -0.07214352 -0.008095403 0.10671946 0.14653201 0.10586072
-0.076133914 -0.15685453 0.09675051 0.032799464 0.13922441 0.09903965 0.09543559 0.103265226
0.01098153 -0.4234029 -0.42527625 0.1573282 0.49828944 -0.012470474 -0.072211094 -0.16342156
0.0076792305 -0.1120887 -0.06864215 0.03305552 0.09958047 0.12029315 -0.102375455 -0.17354928
-0.00033784163 0.06672777 0.15523696 0.14398922 -0.16643938 -0.1824397 0.09583771 0.04528505
0.097851045 -0.07192344 0.15936355 -0.06703901 0.33619618 0.2675319 -0.11611026 -0.3908087
0.17215313 -0.060195155 -0.14122632 0.56851107 -0.14959717 0.06367603 -0.09884442 0.072019845
0.0148889255 -0.040822294 -0.16677348 0.114819236 0.07377748 -0.11046535 0.22368981 -0.078440525
-0.06334798 -0.06770591 -0.058246084 -0.049414452 0.1566992 0.10024703 0.16631389 0.06254525
0.04130524 -0.21177854 0.36789432 0.07228676 -0.31323537 -0.49474007 -0.15771647 0.008625416
-0.1164145 0.019222535 -0.01828825 0.1188187 0.0767877 0.15496844 -0.17069101 -0.06813256
0.08864576 0.22948158 0.19663453 0.2026507 -0.22501586 -0.00024435934 0.028583858 0.08276253
0.13600418 0.06823316 -0.0019096823 0.113660224 -0.60909814 0.20948735 -0.23921397 0.4510886
00000000: 91d0 bbbd c92f b3be f93d e03e aed5 d03e
00000010: 5273 2b3f ea4e 0c3f c70e b43e 12e8 133f
00000020: 7c6c d1bd ae51 863d 50c9 9e3c b5ab d13d
00000030: 516e 013d c7e2 a8bc a75d 0abb 5eb8 79bd
00000040: fc94 d83d d9c8 343c 8fa4 0b3e 135f 83bc
00000050: 6876 a93d bdbf 71bc 4b23 753d 3ddd 683d
00000060: 9e8c 973d 3470 58bd db3f afbd 8a82 f83d
00000070: 814e b4be fded 4fbe 8cd4 99be 4833 b6be
00000080: ee5c e2be fa11 17bf b7dd f7be 5e02 853e
00000090: 005c 1fbd 7200 62be 1dcf 183e c776 11bd
000000a0: 5ac4 1f3e a012 253e 701c 19be 0651 b3bd
000000b0: 55ea 5ebd ba0f 8b3b 7689 233e 81f9 003e
000000c0: 96a9 dbbd f9a1 31be ad97 76bc 666d 2c3e
000000d0: fb46 1c3e ef0a 343e edd3 e8bc 4167 23bd
000000e0: 3f71 d6be 022d 0e3f a516 223f 85d0 57be
000000f0: 3901 14be 3a63 0d3f da0b b7be 6f79 b83e
00000100: 4161 223d 26cf f83c 5044 803d 1132 633d
00000110: 2fd1 bc3c db97 373d 26f4 96bd 637e 483d
00000120: e083 dfbd a1c7 2a3d 4ca9 54bd 6674 c0bd
00000130: 166c 3b3d 3926 9c3d fe45 e93c 9bc6 053c
00000140: da9d 873d d411 0abd 4346 a73c f773 c0bd
00000150: c85a afbe 817e 14bf b85e 8ebc b560 2c3f
00000160: 6107 3bbe 2e47 ebbc 2905 d63e 8906 99bd
00000170: 5276 59be 87ca 83bd 9539 0e3e c376 20bc
00000180: e145 703d 3760 183e 4515 58be f468 69be
00000190: 97d6 adbd 5284 673e 7508 b03d d46e 933d
000001a0: 2741 33be 63de 9cbd 1448 e93c e589 123e
000001b0: 0b0f 89ba 8d79 6a3e aa4b 233e 2a10 133d
000001c0: b1d4 6ebe 2888 c7bd 2c59 d33e c5d5 c7be
000001d0: 4adb 0b3f efe0 f8bd ee35 9ebe e710 d3bd
000001e0: 2fe3 42be 9716 fcbd 6a79 423c 4c25 353e
000001f0: ef84 a0bd 2447 033e de57 c5bd 9cca 58be
00000200: 34f5 2dbc bc0c 213e e0c8 18bc e4c5 233e
00000210: be7b 12be bab2 dbbc 45d3 403e 67de 1f3e
00000220: a98e 303e 7f69 3d3e bb98 423d 45ea ea3c
00000230: 1490 efbe b82b 2e3f 2014 523f 1caf 073f
00000240: 1a92 563f c747 1d3f 573b 17bf cffc e1be
00000250: 7647 8cbd 7334 00bd d898 a03d 95b0 923d
00000260: 423e 863d 0549 383d 05d6 f9bd fbbf 93bd
00000270: 95a2 04bc bb8f da3d 7d0c 163e 81cd d83d
00000280: 19ec 9bbd 799e 20be 2225 c63d bb58 063d
00000290: d890 0e3e 4dd5 ca3d bc73 c33d b87c d33d
000002a0: e0eb 333c 44c8 d8be cfbd d9be a51a 213e
000002b0: cb1f ff3e f550 4cbc 69e3 93bd fb57 27be
000002c0: 0ea2 fb3b c38e e5bd 4194 8cbd 3a65 073d
000002d0: d8f0 cb3d 415c f63d 39aa d1bd e7b6 31be
000002e0: 5620 b1b9 92a8 883d 70f6 1e3e e971 133e
000002f0: 166f 2abe 79d1 3abe 9046 c43d d17c 393d
00000300: 2166 c83d 994c 93bd 3330 233e c04b 89bd
00000310: e821 ac3e f1f9 883e 37cb edbd 1418 c8be
00000320: e948 303e 328f 76bd a29d 10be f189 113f
00000330: 0030 19be 9468 823d f16e cabd 247f 933d
00000340: aef0 733c 4735 27bd abc6 2abe 5926 eb3d
00000350: a618 973d a83b e2bd f10e 653e 6da5 a0bd
00000360: 96bc 81bd 65a9 8abd 7293 6ebd cf66 4abd
00000370: c175 203e 514e cd3d 304e 2a3e b917 803d
00000380: af2f 293d 79dc 58be a55c bc3e 150b 943d
00000390: 6360 a0be 924e fdbe 6d80 21be 9e51 0d3c
000003a0: ba6a eebd 9478 9d3c 3dd1 95bc 3857 f33d
000003b0: df42 9d3d 0cb0 1e3e a0c9 2ebe 1589 8bbd
000003c0: e98b b53d 38fd 6a3e 905a 493e aa83 4f3e
000003d0: 8f6a 66be 5b1d 80b9 b228 ea3c 677f a93d
000003e0: ae44 0b3e d4bd 8b3d 4e4e faba b1c6 e83d
000003f0: dbed 1bbf da83 563e 82f4 74be 16f5 e63e

controller.0.bias f4 [100]
-0.13129194 0.11053001 0.5119472 0.4767649 0.4453033 0.38991505 0.517126 0.29955465
0.45279568 0.46242937 -8.502263e-06 0.5229415 0.39456406 0.1512403 0.5093802 0.53306955
0.18052654 0.2142489 0.4471889 0.32226247 0.44818196 0.25086713 -0.070390314 0.47388124
0.25667223 -0.18900439 0.066421404 0.2832152 0.28938097 0.48187187 0.21808665 -0.24200112
-0.0016497084 -0.11655684 0.52468693 0.31851712 0.34773704 0.037141956 0.45917922 0.5425277
0.5664362 0.38330624 0.012564331 0.46386752 -0.31021395 0.120972104 0.4025436 0.42787343
-0.015607379 0.4084319 -0.0021023876 0.48194626 0.16636264 0.2432119 0.48640195 0.5808581
0.08091943 0.4233108 0.4610373 0.3561856 0.580261 -0.02208145 -0.10944819 0.50718385
0.332346 0.38095275 0.35768077 0.4990268 0.054895446 0.3353431 0.12598698 0.38248962
0.39751953 0.38124683 0.12451967 0.14586751 0.4812679 0.10375553 0.4752317 0.13388592
0.29354373 0.3891582 0.13834918 -0.104719125 0.39418876 0.16795091 0.46056724 0.4723894
0.3679895 0.16718234 0.40909898 -0.05223319 0.376224 0.03367631 0.23538016 -0.0508967
-0.1756646 0.44006076 0.34844917 0.114171125
00000000: 6571 06be 8f5d e23d f90e 033f 871a f43e
00000010: cbfe e33e f2a2 c73e 5f62 043f 3a5f 993e
00000020: d6d4 e73e 8bc3 ec3e f1a4 0eb7 7fdf 053f
00000030: 4d04 ca3e bdde 1a3e be66 023f 3f77 083f
00000040: f3db 383e 1064 5b3e f2f5 e43e 96ff a43e
00000050: 1b78 e53e a871 803e cc28 90bd 90a0 f23e
00000060: 8b6a 833e 5e8a 41be f207 883d 9501 913e
00000070: be29 943e e9b7 f63e 1b52 5f3e 24cf 77be
00000080: 073b d8ba 5ab5 eebd e251 063f ad14 a33e
00000090: 970a b23e 2a22 183d 8a19 eb3e 18e3 0a3f
000000a0: f601 113f b740 c43e a0da 4d3c 0b80 ed3e
000000b0: 5dd4 9ebe 39c0 f73d 321a ce3e 3a12 db3e
000000c0: 18b6 7fbc fc1d d13e 36c8 09bb a9c1 f63e
000000d0: f85a 2a3e 8a0c 793e ad09 f93e 1eb3 143f
000000e0: 16b9 a53d 31bc d83e 150d ec3e f55d b63e
000000f0: fc8b 143f 28e4 b4bc 5f26 e0bd cdd6 013f
00000100: 4129 aa3e 3d0c c33e ef21 b73e 7180 ff3e
00000110: 0cda 603d 17b2 ab3e bb02 013e aed5 c33e
00000120: ae87 cb3e c932 c33e 2b04 ff3d 4b5e 153e
00000130: bf68 f63e c87d d43d 9251 f33e 6419 093e
00000140: 5d4b 963e be3f c73e 68ab 0d3e fb76 d6bd
00000150: 1cd3 c93e 53fb 2b3e 78cf eb3e 06dd f13e
00000160: 1f69 bc3e d931 2b3e 6c75 d13e 78f2 55bd
00000170: 6fa0 c03e 2cf0 093d 7f07 713e 0f79 50bd
00000180: 6ce1 33be a54f e13e ee67 b23e 8dd2 e93d

read_head.key_layer.weight f4 [20, 100]
-0.01533452 -0.018450687 -0.09190211 -0.043189134 -0.09895028 0.06099966 -0.11319016 0.057031468
-0.054196525 -0.013438594 2.4606173e-08 -0.123617776 -0.13078207 0.016810017 -0.07001451 0.015084459
0.050456647 -0.010584755 0.050835807 -0.007168595 -0.0043678423 -0.010605381 0.08166529 0.013470136
-0.041829407 0.062256355 0.054769613 0.017566746 -0.049921047 -0.02009611 -0.005714866 0.13046418
0.12787285 0.035379503 -0.081362866 0.025121309 0.039317194 -0.019125832 0.022154057 -0.08723429
0.043022435 -0.14172392 -0.0075344425 0.084797755 0.043779135 0.06757564 0.011050046 -0.08272005
0.020297026 -0.04302094 0.044996858 -0.055950522 0.07150409 -0.018864727 -0.093096256 -0.0748344
0.005454669 -0.064029306 -0.010901906 -0.03941829 -0.051657666 0.10623459 0.059751943 -0.05077742
0.04765522 -0.095288105 -0.0043813908 0.016145537 -0.12143051 -0.048966743 0.07823781 -0.000544504
0.085428216 -0.022778556 -0.022260575 0.012945153 0.024429973 0.027247764 -0.07194347 -0.029758383
-0.02719236 0.05595041 0.11189384 -0.006439774 0.016723169 0.048381444 0.014982105 0.0785651
0.059486963 -0.05829319 -0.030758394 0.05822451 0.096796595 -0.27234003 -0.062084313 0.024305236
0.101359725 0.048094116 -0.054591842 -0.013692403 0.057283446 -0.12236113 -0.039546315 -0.018118527
-0.023853492 0.027039146 -0.081389554 0.110851735 0.0055032168 -0.024528211 2.2925761e-09 -0.07383907
-0.17167696 -0.0020619074 0.01945558 -0.106409445 0.08214417 0.09053987 0.026663566 0.03299026
0.010511674 -0.0805862 0.11810755 -0.03323564 0.068153396 0.022506744 0.011080126 0.007036226
0.061659325 -0.06189792 0.020297324 -0.012164535 0.13168266 0.09143162 -0.065857254 -0.024684608
-0.03644697 0.056024853 -0.058817144 0.054116774 -0.038588483 -0.12969407 -0.033929773 -0.022792494
0.05193917 0.06263337 0.030851668 0.0017788446 0.07448454 0.008439008 0.08779637 -0.08786888
0.06830928 0.07238871 -0.13881104 -0.09082553 0.008838918 -0.035051588 -0.081304014 -0.017351951
-0.014724692 -0.00677668 0.07653541 -0.015171704 0.026737962 -0.088745706 -0.0061192713 -0.055337105
-0.15971553 -0.033116344 0.1008321 0.023292312 0.030586105 -0.035017587 0.02780836 0.030247793
-0.09453543 0.033878814 0.038595308 0.058352776 0.034415625 -0.12448764 0.034484338 -0.023438489
-0.020411367 0.018782645 -0.08663748 -0.050585292 -0.025020873 0.066622786 0.0245255 0.05830728
-0.11036929 -0.30650824 -0.12163254 0.09838169 0.07653586 0.0132491505 0.031590044 0.018713064
-0.04655718 0.0859812 -0.047457505 0.10255805 0.020292947 -0.041111723 0.04185491 -0.008822971
0.09893217 -0.032483704 -2.725387e-08 -0.036250673 0.14413056 0.04990005 -0.014390016 0.1285936
-0.06890848 -0.054569554 0.02840623 -0.019906648 0.019330084 0.04335402 -0.090541266 0.03508206
-0.06424687 -0.03789509 0.007736525 -0.008060441 0.034873154 0.009724942 -0.046115182 -0.04802316
-0.13893887 -0.11398279 0.085028 0.005086658 -0.008533193 -0.037716694 0.0918716 0.022737777
0.09617733 0.15214679 -0.04348676 0.058239877 -0.0445609 0.0053686206 0.03250279 0.02957269
-0.09599652 0.010555116 0.006486258 0.026640814 0.02893174 0.053810585 0.012181377 -0.035841066
00000000: a33d 7bbc e525 97bc 2c37 bcbd 17e7 30bd
00000010: 72a6 cabd c8da 793d 3ed0 e7bd d499 693d
00000020: 2dfd 5dbd 8c2d 5cbc 8c5d d332 512b fdbd
00000030: bceb 05be 29b5 893c c463 8fbd cf24 773c
00000040: a1ab 4e3d ae6b 2dbc 3539 503d 89e6 eabb
00000050: 1e20 8fbb 31c2 2dbc 2240 a73d d8b1 5c3c
00000060: 5055 2bbd 8500 7f3d 1a56 603d 23e8 8f3c
00000070: 037a 4cbd 99a0 a4bc c543 bbbb 6798 053e
00000080: 1af1 023e 19ea 103d 93a1 a6bd 34cb cd3c
00000090: 110b 213d c7ad 9cbc 6d7c b53c e4a7 b2bd
000000a0: 4b38 303d 1320 11be 7ce3 f6bb 72aa ad3d
000000b0: c051 333d 1965 8a3d 410b 353c 2169 a9bd
000000c0: f345 a63c ba36 30bd a04e 383d 602c 65bd
000000d0: bd70 923d 338a 9abc 40a9 bebd c742 99bd
000000e0: 14bd b23b cc21 83bd e89d 32bc 1375 21bd
000000f0: fd96 53bd 8591 d93d 74be 743d fcfb 4fbd
00000100: 1f32 433d 6926 c3bd c591 8fbb a543 843c
00000110: 8fb0 f8bd 5a91 48bd 253b a03d 0bbd 0eba
00000120: fdf4 ae3d 189a babc cf5b b6bc e817 543c
00000130: 5e21 c83c b436 df3c 1957 93bd dac7 f3bc
00000140: 83c2 debc 422c 653d 9928 e53d bd04 d3bb
00000150: 07ff 883c 9f2b 463d 8177 753c bde6 a03d
00000160: 9aa8 733d d7c4 6ebd 07f9 fbbc d37c 6e3d
00000170: 4b3d c63d 2770 8bbe 1f4c 7ebd c61b c73c
00000180: b095 cf3d 56fe 443d b29b 5fbd 1a56 60bc
00000190: 0ca2 6a3d 7998 fabd 51fb 21bd 4e6d 94bc
000001a0: 6668 c3bc 3381 dd3c 91af a6bd 3c06 e33d
000001b0: 5454 b43b 63ef c8bc 6d8b 1d31 f038 97bd
000001c0: 16cc 2fbe 1121 07bb 4f61 9f3c 32ed d9bd
000001d0: 343b a83d f86c b93d 8d6d da3c cb20 073d
000001e0: 2839 2c3c 610a a5bd 5fe2 f13d 1822 08bd
000001f0: 0294 8b3d 1060 b83c 6b89 353c 2490 e63b
00000200: 7d8e 7c3d ac88 7dbd 9346 a63c c24d 47bc
00000210: d2d7 063e 8040 bb3d 2be0 86bd 6037 cabc
00000220: 6b49 15bd 517a 653d 3fea 70bd 8da9 5d3d
00000230: f50e 1ebd 86ce 04be f2f9 0abd 53b7 babc
00000240: 2bbe 543d ed45 803d a3bc fc3c 1f28 e93a
00000250: 5a8b 983d c443 0a3c 95ce b33d 99f4 b3bd
00000260: bce5 8b3d 8840 943d 7b24 0ebe bc02 babd
00000270: 1cd1 103c 4192 0fbd b882 a6bd ae25 8ebc
00000280: d63f 71bc e90e debb 99be 9c3d bd92 78bc
00000290: 9209 db3c 4fc0 b5bd 2b84 c8bb 29a9 62bd
000002a0: 788c 23be 01a5 07bd 0f81 ce3d 85cf be3c
000002b0: b68f fa3c 9a6e 0fbd 5cce e33c 38ca f73c
000002c0: cb9b c1bd 83c4 0a3d 1d16 1e3d 5203 6f3d
000002d0: 66f7 0c3d 60f3 febd 733f 0d3d 1302 c0bc
000002e0: bd35 a7bc 10de 993c fe6e b1bd 8632 4fbd
000002f0: 93f8 ccbc 8771 883d b4e9 c83c 9dd3 6e3d
00000300: 4b09 e2bd a6ee 9cbe 7b1a f9bd 577c c93d
00000310: d5be 9c3d f712 593c 9064 013d 244c 993c
00000320: beb2 3ebd e916 b03d cd62 42bd f409 d23d
00000330: 653d a63c c464 28bd 0e70 2b3d 398e 10bc
00000340: f39c ca3d a20d 05bd e51b eab2 967b 14bd
00000350: f696 133e ff63 4c3d 1ac4 6bbc 0aae 033e
00000360: e41f 8dbd 5384 5fbd 2fb4 e83c 4413 a3bc
00000370: 205a 9e3c fc93 313d b36d b9bd 35b2 0f3d
00000380: dd93 83bd e237 1bbd ad82 fd3b f10f 04bc
00000390: 27d7 0e3d 5d55 1f3c 46e3 3cbd efb3 44bd
000003a0: fe45 0ebe cf6f e9bd 2923 ae3d fbad a63b
000003b0: cece 0bbc d27c 1abd 2d27 bc3d 9344 ba3c
000003c0: 9ff8 c43d 5ecc 1b3e 2c1f 32bd f08c 6e3d
000003d0: 7e85 36bd 41eb af3b a521 053d 6d42 f23c
000003e0: d399 c4bd 5eef 2c3c ad8a d43b d63d da3c
000003f0: 4202 ed3c 7d68 5c3d 6694 473c 15ce 12bd

read_head.key_layer.bias f4 [20]
-0.21198454 -0.14471284 0.17519195 0.07857559 0.027742112 0.16688377 -0.18372823 -0.18225408
0.08041392 0.1544077 -0.036344077 0.14363551 -0.068944514 -0.037050396 0.17643516 0.1549245
0.059302956 0.041360717 0.07119288 -0.023001913
00000000: 7a12 59be 9a2f 14be 8565 333e 3dec a03d
00000010: 6d43 e33c 94e3 2a3e 4123 3cbe d0a0 3abe
00000020: 0eb0 a43d 0d1d 1e3e 87dd 14bd 3015 133e
00000030: c832 8dbd 28c2 17bd 6bab 343e 87a4 1e3e
00000040: a8e7 723d db69 293d 93cd 913d 826e bcbc

read_head.beta_layer.weight f4 [1, 100]
0.07403596 0.25720322 0.2642438 0.2424178 0.24417548 0.0466026 0.2000094 0.24728192
0.28120843 0.18926339 -4.93058e-40 0.33906835 0.32928312 0.23695494 0.33986324 0.29010537
0.2130786 0.09554944 0.19195585 0.25030902 0.33008087 0.20062166 -0.09230425 0.27960002
0.25457993 -0.022449166 0.0921949 0.21937495 0.20894669 0.26845577 0.19875543 -0.0543084
-0.017402988 0.049808417 0.33961406 0.20693319 0.24595875 0.07602618 0.19760299 0.37286836
0.33229756 0.28854546 0.107661 0.33667046 -0.07834509 0.12090101 0.20637184 0.24114849
0.18266733 0.24733487 0.1412074 0.23749475 0.19874252 0.23346241 0.3255463 0.34562573
0.1502421 0.24907432 0.22137028 0.31727293 0.31691685 0.11289691 0.009263469 0.302734
0.0370651 0.30457956 0.22929873 0.24318248 0.050845876 0.30331838 0.22493756 0.35259104
0.24908644 0.20707096 0.09295451 0.1939271 0.26078203 -0.07776678 0.23907804 0.014752058
0.31850693 0.20604974 0.16452068 0.063505016 0.13982534 0.17692494 0.28077504 0.15358166
0.05248646 0.18941961 0.21427785 -0.09819295 0.21816316 0.17544743 0.26702082 0.06291956
0.032953326 0.07647995 0.18421456 0.24800575
00000000: 2aa0 973d 24b0 833e f74a 873e 5f3c 783e
00000010: 2309 7a3e 5ee2 3e3d 44cf 4c3e 7937 7d3e
00000020: 8dfa 8f3e 43ce 413e 725e 0580 5e9a ad3e
00000030: cc97 a83e 51a4 723e 8e02 ae3e b188 943e
00000040: 4731 5a3e 6daf c33d 1390 443e 8128 803e
00000050: 5c00 a93e c46f 4d3e 030a bdbd bc27 8f3e
00000060: 4d58 823e 50e7 b7bc aed0 bc3d d4a3 603e
00000070: 1ff6 553e 0973 893e 8b86 4b3e 7c72 5ebd
00000080: b690 8ebc e903 4c3d e5e1 ad3e 4be6 533e
00000090: 9cdc 7b3e 9db3 9b3d 7058 4a3e 9ae8 be3e
000000a0: e822 aa3e 3bbc 933e 5f7d dc3d 1260 ac3e
000000b0: 6473 a0bd f39a f73d 2453 533e a1ef 763e
000000c0: 250d 3b3e 5a45 7d3e ac98 103e d331 733e
000000d0: 2983 4b3e c510 6f3e 01ae a63e dbf5 b03e
000000e0: 11d9 193e 570d 7f3e e4ae 623e 9971 a23e
000000f0: ed42 a23e 7f36 e73d cec5 173c f3ff 9a3e
00000100: 93d1 173d daf1 9b3e 49cd 6a3e d404 793e
00000110: c443 503d 8c4c 9b3e 0856 663e d086 b43e
00000120: 8410 7f3e 690a 543e ef5e be3d d394 463e
00000130: 3985 853e 3144 9fbd e0d0 743e 9eb2 713c
00000140: 5713 a33e b4fe 523e 1c78 283e eb0e 823d
00000150: 602e 0f3e d02b 353e bfc1 8f3e 8344 1d3e
00000160: 0bfc 563d 37f7 413e a76b 5b3e 6319 c9bd
00000170: 2a66 5f3e 7ea8 333e f4b6 883e f8db 803d
00000180: 11fa 063d 85a1 9c3d bea2 3c3e 38f5 7d3e

write_head.key_layer.weight f4 [20, 100]
-0.12817854 -0.06404187 -0.0974445 -0.025480226 -0.004524675 -0.034368996 0.054865524 -0.034132566
-0.034361884 0.01669953 -4.91012e-40 -0.013269299 -0.060657736 -0.11208179 -0.042552806 0.053528722
-0.07334008 -0.039874252 0.008191237 -0.07584715 -0.029488144 -0.027679909 -0.1431292 -0.053067736
-0.105202064 -0.111297265 -0.07113038 -0.030090194 -0.057905458 -0.026673503 -0.091885306 -0.031164972
-0.0752676 -0.09293313 -0.08281719 -0.048850033 -0.03162916 -0.08897176 -0.026506756 -0.022617036
-0.04086945 -0.012624167 -0.1182529 -0.059562206 -0.10649355 -0.050164826 -0.045930114 0.0042832643
-0.11990343 -0.029965198 -0.058307927 0.0034712574 -0.05690131 -0.10327018 -0.01682789 -0.064553626
-0.07507917 -0.083734326 -0.07624537 -0.018652719 -0.057236757 -0.08360589 -0.06302448 -0.04544068
-0.031821344 -0.051117647 -0.036034264 0.033961367 -0.111493334 -0.020371698 -0.14093615 -0.03969633
-0.04664456 0.012780071 -0.02239399 -0.06403955 -0.08311301 -0.08176756 -0.023354389 -0.07303696
-0.08237173 0.0058755665 -0.064506374 -0.06520764 -0.026047943 -0.09265844 -0.036593936 0.0044360454
-0.02062416 -0.12651141 -0.065477096 -0.07816173 -0.03968294 -0.07012347 -0.045942627 -0.10473567
-0.09967242 -0.038286936 -0.03328563 -0.13063073 -0.0026521632 0.0072480366 -0.0031934578 -0.06857211
0.0014721033 0.0053916126 0.009879629 -0.0067203334 -0.029445631 0.0053193993 -4.92066e-40 0.0073280684
-0.018746493 0.04870259 -0.009624272 -0.042716354 -0.023283072 -0.0244023 0.019754939 0.0036979392
-0.015399459 -0.025228474 -0.022996563 0.028057735 0.008010081 -0.020004015 -0.015306624 0.03426175
-0.030120863 -0.0017219818 0.033931736 -0.044704773 0.017112443 0.018767646 0.0018899523 0.007401359
-0.017686278 0.004182049 0.003493242 -0.0030422255 -0.008989848 -0.029198032 -0.0039033631 -0.028629955
-0.017205382 0.0045192726 -0.0047620265 -0.006954421 0.031303626 0.0054685306 0.013037505 -0.006664431
0.003257062 0.01942933 0.016495828 0.019616174 0.03803174 0.026336301 0.042247623 0.05594965
0.01232732 0.0072923093 -0.003734653 -0.0146766305 -0.0011130777 -0.013866396 -0.0062234276 -0.0067493594
0.03473613 0.028850097 0.02933654 1.6252872e-05 -0.0056789303 0.0046999226 -0.038201343 0.03786219
0.05998783 0.008304264 -0.049164068 -0.031855937 -0.0019946655 -0.01580993 -0.018806314 -0.021967476
-0.014050315 0.00060951203 -0.0652075 0.0068023754 -0.040759314 0.035621688 -0.027960906 -0.011770055
0.03846931 0.042687412 0.063749604 0.04244367 0.048830718 -0.042410254 0.0132452855 0.0030022087
0.043947674 0.08537545 0.10961944 0.086019814 0.07834875 0.084578 0.08207811 0.06749735
0.14380687 0.085872345 -4.9453e-40 0.11827079 0.08145771 0.064076714 0.12759863 0.11089564
0.088471174 0.043122414 0.13226663 0.07361622 0.07622676 0.06436106 0.057522904 0.0995597
0.08366277 0.045442015 0.055659693 0.071807325 0.054893486 0.09951751 0.08547317 0.04970649
0.062763005 0.045169 0.0858402 0.116327636 0.099079534 0.038102634 0.06493202 0.088258296
0.15371777 0.06704742 0.03683862 0.15402003 -0.0020514266 0.086748846 0.09175757 0.11056194
0.083927296 0.12712021 0.023193184 0.11563881 0.092227064 0.06503422 0.17571208 0.05536466
00000000: 3c41 03be 6228 83bd fb90 c7bd e8bb d0bc
00000010: ba43 94bb 81c6 0cbd acba 603d 97ce 0bbd
00000020: 0cbf 0cbd 74cd 883c be58 0580 7967 59bc
00000030: 3f74 78bd 238b e5bd da4b 2ebd ef40 5b3d
00000040: 5333 96bd 2f53 23bd 8a34 063c c055 9bbd
00000050: 1f91 f1bc fac0 e2bc 7690 12be 8e5d 59bd
00000060: 2e74 d7bd d2ef e3bd ceac 91bd b67f f6bc
00000070: 462e 6dbd 6482 dabc 5d2e bcbd af4d ffbc
00000080: e625 9abd ba53 bebd 0f9c a9bd f916 48bd
00000090: 948d 01bd d336 b6bd b224 d9bc 5d47 b9bc
000000a0: b966 27bd 98d5 4ebc 942e f2bd 80f7 73bd
000000b0: 4a19 dabd a279 4dbd 3721 3cbd a05a 8c3b
000000c0: ee8f f5bd 9379 f5bc 4bd4 6ebd 097e 633b
000000d0: 5911 69bd 517f d3bd a5da 89bc b134 84bd
000000e0: 1cc3 99bd e77c abbd 8826 9cbd 96cd 98bc
000000f0: 1771 6abd 9139 abbd fb12 81bd 0220 3abd
00000100: 1957 02bd bd60 51bd aa98 13bd 131b 0b3d
00000110: 9e56 e4bd 8ce2 a6bc 9151 10be 9e98 22bd
00000120: 5e0e 3fbd 8163 513c 9a73 b7bc 2b27 83bd
00000130: 2737 aabd c075 a7bd b451 bfbc 6794 95bd
00000140: 82b2 a8bd d387 c03b eb1b 84bd 958b 85bd
00000150: 7f62 d5bc b5c3 bdbd 86e3 15bd 3f5c 913b
00000160: 00f4 a8bc 358c 01be db18 86bd 4213 a0bd
00000170: 948a 22bd e59c 8fbd 562e 3cbd a87f d6bd
00000180: 0e21 ccbd c3d2 1cbd 8356 08bd 10c4 05be
00000190: eacf 2dbb f080 ed3b 5549 51bb 896f 8cbd
000001a0: 97f3 c03a 20ac b03b 2bde 213c 3e36 dcbb
000001b0: f737 f1bc 5b4e ae3b ae5b 0580 4b20 f03b
000001c0: 3f92 99bc 5e7c 473d 1faf 1dbc 58f7 2ebd
000001d0: 24bc bebc 55e7 c7bc 1cd5 a13c 2059 723b
000001e0: 034e 7cbc f2ab cebc 4a63 bcbc 56d9 e53c
000001f0: b73c 033c 76df a3bc a2c8 7abc 0c56 0c3d
00000200: 07c0 f6bc 1fb4 e1ba 01fc 0a3d 5a1c 37bd
00000210: 652f 8c3c 9bbe 993c 47b8 f73a 1987 f23b
00000220: d0e2 90bc 9209 893b e0ee 643b 1360 47bb
00000230: 284a 13bc b630 efbc 91cf 7fbb 5e89 eabc
00000240: 4df2 8cbc 6816 943b c60a 9cbb e9e1 e3bb
00000250: 3b38 003d 5c31 b33b 429b 553c 4d61 dabb
00000260: 6f74 553b 422a 9f3c 4222 873c 19b2 a03c
00000270: 2bc7 1b3d 3abf d73c d80b 2d3d 762b 653d
00000280: 87f8 493c 53f4 ee3b 14c1 74bb 4076 70bc
00000290: b1e4 91ba e12f 63bc e5ed cbbb bb29 ddbb
000002a0: 7947 0e3d 0a57 ec3c 2f53 f03c c756 8837
000002b0: 5216 babb cf01 9a3b 0379 1cbd 6215 1b3d
000002c0: cdb5 753d 9c0e 083c 4360 49bd 5f7b 02bd
000002d0: efb8 02bb d483 81bc b30f 9abc 23f5 b3bc
000002e0: 4b33 66bc a9c7 1f3a 828b 85bd 76e6 de3b
000002f0: 3df3 26bd 0ce8 113d 450e e5bc 30d7 40bc
00000300: ff91 1d3d ffd8 2e3d 278f 823d 6ad9 2d3d
00000310: b802 483d 60b6 2dbd c102 593c b4c0 443b
00000320: 7a02 343d 53d9 ae3d 2880 e03d 282b b03d
00000330: 4f75 a03d 3b37 ad3d 9118 a83d 0d3c 8a3d
00000340: 1c42 133e d7dd af3d 8c62 0580 f537 f23d
00000350: 4dd3 a63d a73a 833d 37a9 023e 411d e33d
00000360: 6030 b53d 21a1 303d e770 073e 1ac4 963d
00000370: c71c 9c3d bbcf 833d 239d 6b3d f5e5 cb3d
00000380: 6357 ab3d 6821 3a3d 6bfb 633d b80f 933d
00000390: fed7 603d d6cf cb3d 8f0c af3d 0899 4b3d
000003a0: e489 803d 2103 393d fdcc af3d 2f3d ee3d
000003b0: 36ea ca3d 8211 1c3d 14fb 843d c4c0 b43d
000003c0: 3168 1d3e 2850 893d 18e4 163d 6db7 1d3e
000003d0: 3a71 06bb 61a9 b13d 65eb bb3d 4c6e e23d
000003e0: 13e2 ab3d cd2b 023e a2ff bd3c 0ad4 ec3d
000003f0: 8be1 bc3d a930 853d deed 333e 0ec6 623d

write_head.key_layer.bias f4 [20]
0.050586518 -0.07274133 0.1805732 0.103667445 -0.109295435 -0.113350056 -0.05485639 0.044728544
-0.1541109 0.095978394 0.029910108 0.037591357 -0.06243278 -0.037973154 0.18129484 -0.08662212
0.025967127 0.12593295 0.104143314 0.06664779
00000000: cf33 4f3d 68f9 94bd 2ee8 383e 994f d43d
00000010: 49d6 dfbd 1324 e8bd 18b1 60bd 4735 373d
00000020: 3fcf 1dbe 5290 c43d 0b06 f53c 65f9 193d
00000030: 84b9 7fbd bd89 1bbd 5ba5 393e f066 b1bd
00000040: 03b9 d43c 91f4 003e 1749 d53d a37e 883d

write_head.beta_layer.weight f4 [1, 100]
0.17800555 0.1993181 0.28948706 0.37907177 0.3155797 0.3077132 0.346871 0.27799404
0.3325376 0.35611397 -4.96765e-40 0.32722837 0.3252935 0.27936414 0.39376894 0.3608052
0.32626253 0.32260996 0.35064358 0.28044498 0.31401354 0.33663675 0.1693983 0.3590752
0.2822649 0.20214185 0.17362987 0.29911664 0.28102973 0.33967105 0.30908448 0.20266853
0.15511122 0.1778861 0.30973554 0.3610342 0.3379597 0.25246003 0.39796466 0.31772712
0.3874605 0.33642375 0.2596226 0.3075781 0.17727372 0.27067152 0.34665513 0.33944348
0.21058561 0.31603092 0.20411944 0.36665937 0.27319768 0.27768183 0.3146934 0.3401775
0.2186907 0.3698033 0.3839931 0.25238693 0.4169341 0.266417 0.24337235 0.35481873
0.24935023 0.24959844 0.28041726 0.33694515 0.21254897 0.26561558 0.3297948 0.2929391
0.2895879 0.36463907 0.291647 0.2760395 0.33732286 0.213537 0.29534364 0.2876635
0.33882037 0.27364773 0.2739361 0.2783959 0.3223667 0.28474683 0.36900136 0.34716958
0.31983745 0.3013029 0.3173348 0.1874346 0.26428485 0.17061223 0.20747118 0.22030075
0.17645782 0.35595307 0.30385417 0.294541
00000000: 1647 363e 0b1a 4c3e a637 943e b215 c23e
00000010: aa93 a13e 968c 9d3e 1399 b13e 3c55 8e3e
00000020: 5e42 aa3e 9254 b63e c768 0580 7a8a a73e
00000030: df8c a63e d108 8f3e 159c c93e 76bb b83e
00000040: e20b a73e 222d a53e 8e87 b33e 7c96 8f3e
00000050: 62c6 a03e a75b ac3e bf76 2d3e b4d8 b73e
00000060: 0685 903e 46fe 4e3e 07cc 313e d125 993e
00000070: 21e3 8f3e 5de9 ad3e 5240 9e3e 5788 4f3e
00000080: 7ad5 1e3e c627 363e a895 9e3e 7ad9 b83e
00000090: 0e09 ad3e 7142 813e 06c2 cb3e 21ad a23e
000000a0: 3961 c63e bc3f ac3e 41ed 843e e07a 9d3e
000000b0: 3e87 353e 7595 8a3e c87c b13e 89cb ad3e
000000c0: c1a3 573e cece a13e b004 513e c7ba bb3e
000000d0: 91e0 8b3e 502c 8e3e 7e1f a13e bf2b ae3e
000000e0: 74f0 5f3e dc56 bd3e be9a c43e dc38 813e
000000f0: 6378 d53e cf67 883e 9a36 793e cdaa b53e
00000100: ab55 7f3e bc96 7f3e da92 8f3e 1384 ac3e
00000110: 70a6 593e c4fe 873e ddda a83e 1dfc 953e
00000120: dd44 943e f9b1 ba3e c152 953e 0d55 8d3e
00000130: 95b5 ac3e 71a9 5a3e 4837 973e a148 933e
00000140: dd79 ad3e 8e1b 8c3e 5a41 8c3e e889 8e3e
00000150: 400d a53e 56ca 913e bfed bc3e 36c0 b13e
00000160: bcc1 a33e 6044 9a3e b579 a23e dbee 3f3e
00000170: 5850 873e f9b4 2e3e 5373 543e 8596 613e
00000180: 5cb1 343e 7b3f b63e c692 9b3e 14ce 963e

write_head.erase_layer.weight f4 [20, 100]
-0.012902831 0.04474719 0.0018740869 0.03920467 0.047600135 0.0077111293 0.045419745 0.029533777
0.05906296 0.046386465 -4.93788e-40 0.0449895 -0.005984059 0.013320903 0.03694901 0.046123587
0.03198229 0.005504968 0.05090339 0.030828878 0.031241274 0.0040617366 0.023706915 0.022339199
0.040267143 0.0014785277 0.001703301 0.00027935323 0.03709623 0.038890813 0.021008717 -0.0012541753
-0.0045064534 -0.0016484691 0.01828423 -0.00622861 0.024780428 0.004330076 0.031801563 0.02345448
0.04480577 0.030942943 -0.008901216 0.039211795 -0.003177085 0.0027367296 0.026121615 0.045137707
-0.0053288 0.031986255 0.009706261 0.012740528 0.044050455 0.01411348 0.034810394 0.032097008
0.026529778 0.02331161 0.0442276 0.04619737 0.034666333 0.01672387 -0.0036979744 0.045033105
0.0038712514 0.020009033 0.00045397083 0.020022996 -0.028116813 0.0443609 0.00638616 0.040410936
0.01653086 0.009568793 0.007783935 0.033814102 0.031244181 0.024232734 0.03851894 0.0031416863
0.04201767 0.04437985 0.030676693 -0.011831096 0.052618045 0.048514772 0.049043868 0.021628812
0.012288696 -0.0035198994 0.050158396 0.009904205 0.030113837 0.046966493 0.03846313 0.013341182
0.0024068411 0.051136356 0.016361907 0.030982092 -0.015139667 0.013992548 -0.0050921836 0.004805239
0.014136014 -0.009433743 0.016894232 0.0025294425 0.020228643 0.009673578 -5.17067e-40 0.015812863
-0.018066388 -0.016246112 0.018667681 0.02000146 -0.020594787 -0.017581446 0.014479061 0.0040056766
0.004948715 -0.013291647 -0.0135391345 0.00453437 -0.00092962885 -0.016109487 -0.026996832 -0.017180145
-0.0035137995 0.014658004 -0.016881814 -0.017500538 -0.0029592898 -0.022614699 -0.002348087 -0.013778115
0.0069815153 -0.023444382 0.001434032 0.008423284 0.010458363 0.0018551877 -0.026144778 0.001361682
-0.022057531 -0.009825461 -0.0069447733 0.012480319 -0.024740664 -0.00088858843 -0.027147312 0.007898358
-0.0048681977 -0.02503965 0.0039597503 0.0046543344 -0.016319938 -0.0018170043 0.010180996 0.0032655937
0.004373197 -0.011768045 -0.028054452 0.01756014 -0.018515266 0.004776373 -0.009795718 0.0036451179
-0.015197185 0.014726501 -0.016772173 0.0061788578 -0.02143993 -0.007466748 0.002784378 -0.015092625
0.0036784383 -0.013398147 0.004216184 -0.018121965 0.009291091 0.018327575 -0.010434391 -0.026418243
0.0027391592 -0.013838754 0.0073820166 -0.009973909 -0.007212006 -0.012186189 -0.0018314001 -0.01648376
-0.011680603 0.028024305 0.019187976 -0.02364521 -0.030772654 0.0027018029 -0.016143883 -0.026573543
-0.02555026 0.002058733 -0.02485375 -0.0111813415 -0.018103898 -0.03444423 -0.012055314 -0.019228386
-0.009817612 -0.010574718 -6.1221e-40 -0.011155339 -0.015014157 -0.032078546 -0.01731181 -0.0067626047
-0.034131516 -0.02947455 -0.008371634 -0.029161941 -0.02346996 -0.00972969 -0.023832632 -0.024250682
-0.02671057 -0.010530145 -0.021488953 -0.020057695 -0.027875582 -0.018749842 -0.034475453 -0.022336975
-0.02164252 -0.030730193 -0.013230796 -0.018185323 -0.031977605 -0.022161147 -0.014025303 -0.017530132
-0.017695569 -0.019304596 -0.01780494 -0.0095850155 -0.017437486 -0.027637988 -0.018023757 -0.009963181
-0.026652105 -0.008660584 -0.0269217 -0.011594569 -0.027759647 -0.030221535 -0.012154094 -0.014882386
00000000: 6566 53bc d448 373d eca3 f53a 1395 203d
00000010: 5cf8 423d a4ad fc3b 0e0a 3a3d d2f0 f13c
00000020: 01ec 713d bcff 3d3d 7b60 0580 e946 383d
00000030: ed15 c4bb eb3f 5a3c d857 173d 16ec 3c3d
00000040: ddff 023d 0563 b43b 1380 503d d88c fc3c
00000050: b3ed ff3c 5118 853b 0135 c23c b200 b73c
00000060: 29ef 243d 28cb c13a 4c41 df3a 2876 9239
00000070: 37f2 173d f94b 1f3d 791a ac3c 2463 a4ba
00000080: dfaa 93bb 7211 d8ba cfc8 953c 5e19 ccbb
00000090: 5300 cb3c 4fe3 8d3b 5b42 023d 9c23 c03c
000000a0: 4186 373d 0e7c fd3c 68d6 11bc 8c9c 203d
000000b0: a436 50bb b45a 333b fffc d53c 51e2 383d
000000c0: 379d aebb 0504 033d 0207 1f3c a6bd 503c
000000d0: 406e 343d 3a3c 673c 5895 0e3d 2778 033d
000000e0: fa54 d93c fdf7 be3c 0028 353d 7439 3d3d
000000f0: 49fe 0d3d 7f00 893c b759 72bb a274 383d
00000100: d2b4 7d3b fce9 a33c ef02 ee39 4407 a43c
00000110: 3b55 e6bc c6b3 353d fe42 d13b f085 253d
00000120: ba6b 873c 6dc6 1c3c 6110 ff3b a880 0a3d
00000130: ccf3 ff3c ba83 c63c 09c6 1d3d c0e4 4d3b
00000140: b81a 2c3d a5c7 353d b04d fb3c 37d7 41bc
00000150: 0586 573d 6db7 463d 39e2 483d e82e b13c
00000160: 8756 493c 1dae 66bb e472 4d3d 3f45 223c
00000170: 4bb1 f63c f05f 403d 848b 1d3d f994 5a3c
00000180: 18bc 1d3b 5b74 513d 6809 863c 28ce fd3c
00000190: 5e0c 78bc 0041 653c 55dc a6bb 4475 9d3b
000001a0: bd9a 673c fc8f 1abc c665 8a3c 01c5 253b
000001b0: 8ab6 a53c ed7d 1e3c 5fa1 0580 fa89 813c
000001c0: f6ff 93bc 9116 85bc f7ec 983c 1ada a33c
000001d0: 66b6 a8bc f706 90bc 9539 6d3c 0d42 833b
000001e0: d528 a23b 35c5 59bc 3fd3 5dbc 0d95 943b
000001f0: 56b2 73ba 0bf8 83bc 7628 ddbc 60bd 8cbc
00000200: c647 66bb 2028 703c bb4b 8abc 4a5d 8fbc
00000210: a5f0 41bb 7642 b9bc 5de2 19bb 9abd 61bc
00000220: 32c5 e43b 6f0e c0bc 21f6 bb3a d001 0a3c
00000230: 8e59 2b3c c529 f33a 932d d6bc 777a b23a
00000240: ffb1 b4bc f8fa 20bc fb90 e3bb 407a 4c3c
00000250: efac cabc 29f0 68ba 0a64 debc 1d68 013c
00000260: 6785 9fbb f41f cdbc cbc0 813b 6383 983b
00000270: 64b1 85bc 8c28 eeba 31ce 263c 9203 563b
00000280: 094d 8f3b c2ce 40bc 73d2 e5bc 48da 8f3c
00000290: 54ad 97bc 1f83 9c3b 387e 20bc eee2 6e3b
000002a0: 9dfd 78bc 6c47 713c cc65 89bc 0478 ca3b
000002b0: cba2 afbc 9fab f4bb 1c7a 363b 0f47 77bc
000002c0: f411 713b e783 5bbc ea27 8a3b 8474 94bc
000002d0: a939 183c b623 963c 02f5 2abc 126b d8bc
000002e0: 7783 333b f1bb 62bc d8e4 f13b 9b69 23bc
000002f0: b152 ecbb 95a8 47bc 970b f0ba f308 87bc
00000300: 0060 3fbc 3a93 e53c 1a30 9d3c 99b3 c1bc
00000310: ef16 fcbc bb10 313b 2d40 84bc c2b0 d9bc
00000320: c74e d1bc cfeb 063b 179a cbbc f231 37bc
00000330: a04e 94bc 6515 0dbd a783 45bc d984 9dbc
00000340: 0dda 20bc 9541 2dbc 98aa 0680 e2c4 36bc
00000350: f0fd 75bc cb64 03bd 7fd1 8dbc d798 ddbb
00000360: 7dcd 0bbd 9d74 f1bc 2e29 09bc 06e5 eebc
00000370: 1344 c0bc 4769 1fbc a73c c3bc 5ea9 c6bc
00000380: 20d0 dabc a186 2cbc 9a09 b0bc 0950 a4bc
00000390: 555b e4bc 4599 99bc 2236 0dbd 08fc b6bc
000003a0: a74b b1bc e3bd fbbc fbc5 58bc 63f9 94bc
000003b0: f3fa 02bd 4b8b b5bc 62ca 65bc 5a9b 8fbc
000003c0: 4cf6 90bc ac24 9ebc aadb 91bc 780a 1dbc
000003d0: 0fd9 8ebc 1069 e2bc 8fa6 93bc 9c3c 23bc
000003e0: 8455 dabc 1fe5 0dbc e68a dcbc 26f7 3dbc
000003f0: 3368 e3bc 2793 f7bc f721 47bc 40d5 73bc

write_head.erase_layer.bias f4 [20]
0.03218481 0.011985443 -0.02438942 0.048460048 -0.012697361 -0.038422477 0.045823395 -0.04701568
-0.022321403 0.019366458 0.02260815 -0.0040091164 -0.046057817 0.014195749 0.023825902 -0.049549546
-0.06443081 0.020076528 0.012883876 0.03899544
00000000: 38d4 033d 975e 443c 52cc c7bc 0b7e 463d
00000010: 9808 50bc e360 1dbd 50b1 3b3d 8393 40bd
00000020: 60db b6bc 68a6 9e3c ba34 b93c e85e 83bb
00000030: 1fa7 3cbd 4995 683c 8a2e c33c 77f4 4abd
00000040: 4df4 83bd 8877 a43c e516 533c afb9 1f3d

write_head.add_layer.weight f4 [20, 100]
-0.028098518 0.0015390002 -0.020668553 -0.07298029 -0.074093565 0.03435755 -0.07650988 -0.0062843217
-0.05310765 -0.05907643 -5.07176e-40 -0.013972523 -0.055932805 -0.004336577 -0.04703011 -0.056450963
-0.032343846 -0.023074543 -0.037448257 -0.023419969 0.026629858 0.07654517 -0.08135131 -0.007984161
-0.017907953 -0.06966602 -0.02396462 -0.01965534 -0.041102886 -0.022339486 0.0047775926 -0.047912974
0.032705683 -0.06664808 -0.012537186 0.07535775 -0.016382465 -0.053115685 -0.06842693 0.01690933
-0.029720677 0.10635255 -0.06287508 -0.013928566 -0.079138085 -0.010437555 -0.06741475 -0.04436811
-0.06796766 -0.029114228 -0.053511955 -0.023642598 -0.09664429 -0.04645837 -0.007008019 -0.046836566
-0.029998407 -0.011540636 -0.026921073 0.0006620452 0.046131685 -0.01338646 -0.061376683 -0.06140674
0.013213461 -0.017279401 -0.033230606 -0.0112114055 0.033115145 -0.014387903 -0.043999344 -0.024544785
-0.04056727 -0.07081724 -0.022104515 0.06279849 -0.0027270068 0.068329446 -0.096471354 -0.028088054
-0.039101727 -0.00074570626 -0.044072602 -0.044253733 -0.04744782 -0.035895657 -0.09262167 -0.057795875
-0.08964955 -0.03555887 -0.10697189 -0.016681423 -0.06495248 0.008634015 0.009296093 -0.010975099
-0.047284175 -0.010997325 -0.023346728 -0.042812962 -0.066165164 -0.027533313 0.001185696 -0.102028824
-0.072752155 0.07294087 -0.06511173 -0.00047142006 -0.023445698 -0.016519364 -4.92764e-40 -0.018988753
-0.1742206 0.036675766 0.0010792074 -0.058034282 -0.021716096 -0.103953145 -0.034632985 -0.0041512046
0.041957323 0.0067254365 -0.075951956 -0.014974467 -0.014603788 -0.16603336 -0.0059346557 -0.0052631344
0.0075992355 -0.022622349 0.024977934 -0.01809954 0.013062741 -0.0328071 -0.028364517 0.07076015
-0.00746784 -0.047165494 -0.07443166 0.0363901 -0.03718878 0.072633445 -0.037588842 -0.048490033
-0.116896115 -0.055406127 -0.043663215 -0.05912266 -0.044596065 -0.005534535 -0.009894472 -0.08888701
-0.06454641 -0.04176959 -0.0020740079 -0.03819912 -0.00794179 0.002691129 0.008670475 -0.033566933
0.07473461 0.000107244006 -0.054498147 -0.05896712 -0.014902019 -0.059317026 0.012178756 -0.0894393
-0.020340111 -0.046837475 0.017300345 -0.0129767675 -0.0877867 -0.086082466 -0.05598036 0.08861315
0.050105687 0.040353376 -0.07252271 -0.03640317 -0.04048563 -0.031281155 -0.03601067 -0.013441797
-0.037873372 0.0034016878 -0.07459049 -0.097561024 -0.05222723 -0.035880033 -0.0895383 -0.11230028
-0.07706713 -0.010454271 -0.023793872 -0.005851226 -0.027695185 -0.032656766 -0.012371447 -0.02530474
0.095733814 -0.017193168 0.09188069 0.07255391 0.043983728 -0.08473305 0.04739484 -0.016999364
0.037644256 0.023636518 -5.22644e-40 0.016352747 0.15373078 0.033158366 0.034358103 0.04960813
0.052353714 0.027815644 0.018581493 0.011101144 0.032747667 0.0015815445 0.008163327 0.02816538
0.016429158 0.091512166 0.015828371 -0.021448374 0.060208354 0.039438896 -0.08103001 0.0251557
0.027811293 0.05750806 0.04647916 0.0465808 0.01574329 0.09251402 0.02302225 0.07292332
0.07072689 -0.04072672 0.050726417 0.04811665 0.10089654 0.07073993 0.04626402 0.016086636
0.03413847 0.0036887524 -0.0058352654 0.03380813 0.10601772 0.06952047 0.026024217 0.06918167
00000000: dd2e e6bc 47b8 c93a 1951 a9bc b176 95bd
00000010: 5ebe 97bd 81ba 0c3d 36b1 9cbd b6ec cdbb
00000020: 6887 59bd 20fa 71bd cd85 0580 02ed 64bc
00000030: cc19 65bd d819 8ebb a5a2 40bd 2039 67bd
00000040: fb7a 04bd d306 bdbc 5863 19bd 3cdb bfbc
00000050: dc26 da3c b7c3 9c3d 849b a6bd 00d0 02bc
00000060: b3b3 92bc 0fad 8ebd 7351 c4bc 3c04 a1bc
00000070: 805b 28bd 4c01 b7bc 5a8d 9c3b 6540 44bd
00000080: 65f6 053d ca7e 88bd c568 4dbc 2a55 9a3d
00000090: 8534 86bc d58f 59bd 6b23 8cbd 6f85 8a3c
000000a0: c778 f3bc 5ecf d93d a6c4 80bd a434 64bc
000000b0: 2613 a2bd 4702 2bbc bf10 8abd 56bb 35bd
000000c0: a132 8bbd f680 eebc 5a2f 5bbd 1fae c1bc
000000d0: 71ed c5bd 224b 3ebd 86a3 e5bb b3d7 3fbd
000000e0: 38bf f5bc f014 3dbc 9589 dcbc 1a8d 2d3a
000000f0: 94f4 3c3d e252 5bbc 1e66 7bbd a285 7bbd
00000100: 467d 583c 888d 8dbc d11c 08bd 0bb0 37bc
00000110: bfa3 073d 3dbb 6bbc a838 34bd 2512 c9bc
00000120: de29 26bd a108 91bd 8714 b5bc 7f9c 803d
00000130: 95b7 32bb 4ff0 8b3d c692 c5bd eb18 e6bc
00000140: 2229 20bd 807b 43ba 7985 34bd 6743 35bd
00000150: a558 42bd 5307 13bd 6eb0 bdbd 5ebb 6cbd
00000160: 2f9a b7bd 2da6 11bd 1414 dbbd 7ba7 88bc
00000170: ce05 85bd af75 0d3c a44e 183c e7d0 33bc
00000180: 0dad 41bd 202e 34bc a341 bfbc a55c 2fbd
00000190: 9a81 87bd 8b8d e1bc 5b69 9b3a 7df4 d0bd
000001a0: 15ff 94bd 0662 953d 4c59 85bd ee28 f7b9
000001b0: 3111 c0bc 9e53 87bc a05d 0580 4d8e 9bbc
000001c0: e366 32be 5439 163d 3174 8d3a 5bb5 6dbd
000001d0: f4e5 b1bc 63e5 d4bd 51db 0dbd d406 88bb
000001e0: 71db 2b3d 0d61 dc3b b38c 9bbd 7857 75bc
000001f0: ba44 6fbc a604 2abe 8077 c2bb 5f76 acbb
00000200: 0203 f93b 8152 b9bc 869e cc3c 7d45 94bc
00000210: 1b05 563c bd60 06bd b45c e8bc b3ea 903d
00000220: c8b4 f4bb 9b30 41bd a06f 98bd c90d 153d
00000230: 4353 18bd d8c0 943d c2f6 19bd 7c9d 46bd
00000240: 3b67 efbd 89f1 62bd 33d8 32bd 9a2a 72bd
00000250: 5daa 36bd 0b5b b5bb 6c1c 22bc 650a b6bd
00000260: e930 84bd 9716 2bbd 14ec 07bb ae76 1cbd
00000270: 481e 02bc a75d 303b 9c0e 0e3c 7b7d 09bd
00000280: 760e 993d 30e8 e038 7339 5fbd 8287 71bd
00000290: 9927 74bc 69f6 72bd 6889 473c f42b b7bd
000002a0: 4ea0 a6bc a7d8 3fbd 74b9 8d3c 829c 54bc
000002b0: 83c9 b3bd 014c b0bd a94b 65bd d07a b53d
000002c0: 9f3b 4d3d 9549 253d c986 94bd 7e1b 15bd
000002d0: 43d4 25bd ab20 00bd ed7f 13bd fc3a 5cbc
000002e0: 1c21 1bbd daee 5e3b e6c2 98bd 13ce c7bd
000002f0: 38ec 55bd f1f6 12bd db5f b7bd b0fd e5bd
00000300: 5fd5 9dbd 6448 2bbc 5eeb c2bc a4bb bfbb
00000310: 03e1 e2bc 1ac3 05bd 9cb1 4abc e34b cfbc
00000320: 1710 c43d b0d8 8cbc f12b bc3d 2597 943d
00000330: 4828 343d 8588 adbd 1721 423d 4042 8bbc
00000340: dd30 1a3d 5fa1 c13c ebb0 0580 32f6 853c
00000350: 9a6b 1d3e 11d1 073d 15bb 0c3d e531 4b3d
00000360: d970 563d a2dd e33c 3738 983c 93e1 353c
00000370: 6b22 063d d44b cf3a 7abf 053c 15bb e63c
00000380: 7196 863c bb6a bb3d 80aa 813c 80b4 afbc
00000390: 099d 763d ae8a 213d 10f3 a5bd 5413 ce3c
000003a0: 82d4 e33c 928d 6b3d ef60 3e3d 82cb 3e3d
000003b0: 12f8 803c fe77 bd3d 2899 bc3c d258 953d
000003c0: 42d9 903d 10d1 26bd 81c6 4f3d f715 453d
000003d0: d8a2 ce3d 19e0 903d 577f 3d3d 1fc8 833c
000003e0: c8d4 0b3d ffbe 713b c135 bfbb 657a 0a3d
000003f0: d21f d93d c060 8e3d bd30 d53c 1faf 8d3d

write_head.add_layer.bias f4 [20]
-0.07995257 -0.11322942 0.15517686 0.09458072 0.1377615 0.12637784 -0.089860074 -0.096892655
-0.0061135315 0.11780835 0.021951633 0.08966382 -0.07839393 -0.09900826 0.10416709 0.11476865
0.07924943 0.09180079 0.06636447 0.08256604
00000000: 2cbe a3bd d3e4 e7bd afe6 1e3e 89b3 c13d
00000010: 5a11 0d3e 3169 013e 8f08 b8bd a86f c6bd
00000020: 0554 c8bb 8145 f13d e9d3 b33c aaa1 b73d
00000030: ff8c a0bd d8c4 cabd 8e55 d53d d30b eb3d
00000040: 864d a23d 0d02 bc3d 18ea 873d 6218 a93d
