VerSimples/checkpoint/best_model_epoch_4.pth (torch, 65162 bytes, 15 tensors)

memory.mem_bias f4 [128, 20]
0	0x3d9c0a6d	0.07619176
1	0x3d11f4b2	0.03563375
2	0xbd4c00d7	-0.04980549
3	0xbdc4c225	-0.09607343
4	0x3b8d7db0	0.0043179616
5	0x3d8d69a1	0.06904913
6	0x3c749010	0.014926925
7	0x3c842754	0.016132034
8	0xbacb7b80	-0.0015524477
9	0xbc7690f0	-0.015049204
10	0xbb2f85a0	-0.0026782528
11	0x3db0cfd9	0.08633394
12	0xbda09262	-0.0784042
13	0xbdc535fa	-0.09629436
14	0xbdb0b880	-0.086289406
15	0xbcb65ed4	-0.022262014
16	0x3ccfb484	0.025354631
17	0xbdc41c75	-0.0957574
18	0x3d0c2d72	0.034223028
19	0x3d24a442	0.04019571
20	0x3c559240	0.013035357
21	0x3d7c3f2e	0.06158369
22	0xbdaab1a6	-0.08334665
23	0x3abfc680	0.0014631301
24	0x3d5ec002	0.05438233
25	0x3db46dab	0.0880998
26	0xbd8d4683	-0.06898215
27	0xbd848dd5	-0.06472365
28	0x3cf9f7cc	0.030513667
29	0xbd6b404a	-0.057434358
30	0x3d6d9cb2	0.058010764
31	0x3d1e12fe	0.03859233
32	0xbd971bab	-0.07378324
33	0xbdbed403	-0.09317782
34	0x3dc88bc1	0.09792281
35	0x3c9e1448	0.01929678
36	0x3d05bbee	0.032649927
37	0x3d92d237	0.071690015
38	0xbd3a124a	-0.045427598
39	0x3dc4cebd	0.09609745
40	0xbd02dd76	-0.031949483
41	0xbbaf0700	-0.0053414106
42	0xbd7a23ea	-0.061069407
43	0x3dc28ff9	0.09500117
44	0xbc36bb80	-0.011153102
45	0x3d2f73b2	0.042834945
46	0xbc9339ac	-0.017971836
47	0x3d7a453a	0.061101176
48	0x3d1197c2	0.03554512
49	0xbda46a6e	-0.08028112
50	0x3da398c7	0.07988124
51	0x3d1670ae	0.036728553
52	0x3d6dfa6a	0.05810014
53	0x3d8862c3	0.06659462
54	0x3d068ed2	0.032851048
55	0xbbff4cb0	-0.0077911243
56	0xbd7e61e3	-0.06210507
57	0x3cf1e40c	0.029527687
58	0x3d4354e2	0.047688372
59	0xbc897160	-0.016777694
60	0x3d5cbe8a	0.05389265
61	0xbd7bd2a0	-0.061480165
62	0xbd9f2ec5	-0.077725925
63	0x3da59e2f	0.08086812
64	0x3d304732	0.043036647
65	0xbcf45c8c	-0.029829286
66	0xbd308837	-0.043098655
67	0xbdc0dc6a	-0.09417041
68	0xbdaa8275	-0.08325664
69	0x3ce499b4	0.027905323
70	0xbd32ffed	-0.0437011
71	0xbca70b20	-0.020391047
72	0x3d0be592	0.034154482
73	0xbdc345a0	-0.09534764
74	0xbcf6a180	-0.030106306
75	0x3d6e5ec2	0.058195837
76	0xbd533947	-0.051568296
77	0x3d2affba	0.041747786
78	0x3b7fb9a0	0.0039020553
79	0xbccd1318	-0.025033519
80	0x3c426540	0.01186496
81	0x3db9c42b	0.09070619
82	0xbd3b494d	-0.045724202
83	0x3dbd713b	0.092501126
84	0xbd0e224c	-0.034700677
85	0xbc0d29e8	-0.008615948
86	0x3d905a2f	0.07048451
87	0xbcee4f54	-0.029090561
88	0xbda48e55	-0.0803496
89	0x3d426396	0.047458254
90	0x3cc3c040	0.023895383
91	0xbd2f0cb0	-0.04273671
92	0xbc4b1cb0	-0.012396976
93	0x3ce1256c	0.027483664
94	0xbcc815c0	-0.024424434
95	0x3c474168	0.01216159
96	0x3d2ff1b2	0.042955108
97	0xbd2a5dca	-0.04159335
98	0x3d692a3a	0.056925036
99	0x3dc497e7	0.095992856
100	0xbd3d860d	-0.04627042
101	0x3d9b62a1	0.07587171
102	0xbd0013aa	-0.031268753
103	0xbd5bcaa0	-0.053660035
104	0x3d7e34fa	0.06206224
105	0xbc85a40c	-0.016313575
106	0xbc905378	-0.017617926
107	0xbd912a7d	-0.07088182
108	0x3d8f0a69	0.069844075
109	0xbd5a773a	-0.05333636
110	0x3d0ca256	0.034334503
111	0x3d79308e	0.06083732
112	0x3dc1738f	0.09445869
113	0xbd7028a7	-0.05863252
114	0xbc237ea8	-0.009978928
115	0x3dbef7b3	0.093245886
116	0xbd9df19e	-0.077121004
117	0x3d7e9262	0.06215132
118	0x3d44c3e2	0.04803837
119	0x3c8d15d4	0.017222323
120	0xbce476b4	-0.027888633
121	0xbd577d4a	-0.05260972
122	0x3ceaae34	0.02864752
123	0xbd1deb73	-0.03855462
124	0xbd95d5a3	-0.073161386
125	0x3d492fb2	0.04911775
126	0xbdc4321d	-0.09579871
127	0xbd6f8baa	-0.058482803
128	0xbd75883d	-0.05994438
129	0xbd926b3d	-0.0714936
130	0xbdc62403	-0.096748374
131	0x3d825c31	0.0636524
132	0x3db3bfd7	0.08776825
133	0x3dc1a683	0.09455588
134	0xbd5a6c7a	-0.053326108
135	0x3dc63999	0.09678955
136	0xbdb3f988	-0.08787829
137	0x3d1a7782	0.037711628
138	0x3d621422	0.05519498
139	0xbdad8082	-0.084717765
140	0x3cbc4c94	0.022985734
141	0x3d93bceb	0.072137676
142	0xbd241d7d	-0.040067185
143	0x3d2b0612	0.041753836
144	0xbcdc9394	-0.02692584
145	0x3d306322	0.04306329
146	0xbd8db972	-0.069201365
147	0xbd4115b7	-0.04713985
148	0x3cc16134	0.02360592
149	0xbc184710	-0.009294286
150	0x3d529886	0.05141499
151	0xbd435dfa	-0.047697045
152	0x3d323a9e	0.043512933
153	0x3dbce1d1	0.092227586
154	0x3d424aa2	0.047434457
155	0xbdc06055	-0.09393374
156	0x3ce104c4	0.027468093
157	0xbd61406d	-0.05499308
158	0xbd801db6	-0.06255667
159	0x3dbf822f	0.093510024
160	0x3d93e4f9	0.072214074
161	0xbd28c45d	-0.04120289
162	0x3d1ede0a	0.03878597
163	0xbd9e12fe	-0.07718466
164	0x3d2ee35a	0.042697288
165	0x3da7753d	0.08176658
166	0x3d679162	0.056535132
167	0xbd9d4543	-0.07679226
168	0xbc82bd4c	-0.015959404
169	0xbd9ad573	-0.075602435
170	0xbd814d18	-0.063135326
171	0x3d36b8a2	0.044609673
172	0xbd0c95aa	-0.03432242
173	0x3ca00234	0.0195323
174	0x3c9f2c68	0.019430354
175	0xbd1edf73	-0.038787317
176	0xbdc8c7da	-0.09803744
177	0xbd227e13	-0.039671015
178	0xbcd529ac	-0.026020847
179	0xbd9e43d5	-0.07727782
180	0x3dc2f2cf	0.09518968
181	0xbdb8aa82	-0.09016897
182	0xbd4c6710	-0.049902976
183	0xbdb0dce7	-0.08635884
184	0x3d84c56d	0.064829685
185	0x3d6a4bce	0.0572012
186	0x3c46bf00	0.012130499
187	0x3da9e911	0.08296407
188	0xbd74a913	-0.059731554
189	0x3db8290b	0.08992203
190	0x3d1039e6	0.035211466
191	0x3d428d16	0.04749783
192	0xbd1fbb83	-0.038997184
193	0x3dad6223	0.08465984
194	0xbd175e7a	-0.036955334
195	0xbdb9b7f0	-0.090682864
196	0xbd2198b3	-0.039452266
197	0xbd3884da	-0.045048572
198	0x3cdc6dbc	0.026907794
199	0x3c224c40	0.009905875
200	0xbc229b98	-0.009924792
201	0xbcde9d08	-0.027174488
202	0xbd38013a	-0.044923045
203	0x3d6de092	0.058075495
204	0x3dc0cc01	0.09413911
205	0x3d91cbf9	0.07118983
206	0x3d39128e	0.04518371
207	0x3d6128a6	0.054970406
208	0x36358000	2.7045608e-06
209	0x3db580f3	0.08862486
210	0xbdb646dd	-0.08900235
211	0xbd63824a	-0.055544175
212	0xbd747bfd	-0.059688557
213	0xbd41d4b0	-0.047321975
214	0x3d24f09a	0.040268518
215	0xbc705000	-0.014667511
216	0xbd7a93fa	-0.061176278
217	0x3c7b1c00	0.0153265
218	0xbc2649c0	-0.010149419
219	0xbdb4d9eb	-0.08830627
220	0x3d017ada	0.0316113
221	0xbd9683cd	-0.07349358
222	0x3d021416	0.031757437
223	0x3caaf614	0.020869292
224	0x3da961c9	0.08270604
225	0x3d8989bb	0.06715723
226	0xbdb0e19d	-0.08636782
227	0x3dc3692f	0.095415466
228	0xbc067ac0	-0.008207977
229	0x3db45711	0.08805669
230	0xbdc155e8	-0.094402134
231	0x3db4b407	0.088234
232	0x3dbcf165	0.0922573
233	0x3daf0b71	0.08547104
234	0x3dc5b8d9	0.096543975
235	0x3d46378a	0.04839281
236	0xbba9ed60	-0.005185768
237	0x3c2d58a8	0.010580219
238	0xbd4d9777	-0.050193276
239	0x3dc1026f	0.09424292
240	0xbd9b10da	-0.075715736
241	0xbcc88a6c	-0.024480067
242	0xbd9493ee	-0.07254778
243	0xbd343afa	-0.044001557
244	0x3c46f3f0	0.01214312
245	0xbd01a674	-0.031652883
246	0xbdafaa8a	-0.085774496
247	0x3c32b328	0.010906972
248	0xbca64cd8	-0.020300314
249	0x3bd61450	0.006533183
250	0x3d97fda9	0.07421429
251	0xbc80260c	-0.015643142
252	0xbcfa11c0	-0.030526042
253	0xbd9baaf2	-0.076009646
254	0x3bbe1f80	0.005802095
255	0x3d06ad12	0.032879896

controller.0.weight f4 [100, 28]
0	0xbe061d33	-0.13097076
1	0xbeb8cd4f	-0.36094138
2	0x3ed491a9	0.4151738
3	0x3ebd571e	0.36980528
4	0x3f1a019b	0.601587
5	0x3f012083	0.50440234
6	0x3e9b048b	0.30276904
7	0x3f12aa12	0.57290757
8	0xbe038ae0	-0.12845945
9	0x3d712bd0	0.058879673
10	0x3d1c5fa8	0.038177162
11	0x3dfb2331	0.122625716
12	0x3d24485f	0.04010808
13	0x3b4f348c	0.0031617014
14	0xbbe60565	-0.007019686
15	0xbdb01119	-0.08597011
16	0x3de32d3f	0.110926144
17	0x3ccb5f63	0.024825757
18	0x3e0995e7	0.1343609
19	0xbb36d3cf	-0.0027897244
20	0x3da1547b	0.078774415
21	0xbcba0064	-0.022705264
22	0x3d9da997	0.07698362
23	0x3d984f71	0.07437027
24	0x3dc06aba	0.093953565
25	0xbd724caf	-0.059155162
26	0xbda77a09	-0.08177573
27	0x3e0da8ab	0.13833873
28	0xbe941347	-0.28920957
29	0xbe3c8616	-0.18410525
30	0xbe7ff97f	-0.24997519
31	0xbec4d389	-0.3844264
32	0xbec3d00d	-0.38244668
33	0xbf0dea11	-0.5543528
34	0xbed323e2	-0.41238314
35	0x3e8e33f6	0.27774018
36	0xbd61789c	-0.055046663
37	0xbe81c62a	-0.253465
38	0x3e2f7b7e	0.17136952
39	0xbcd13cb3	-0.025541639
40	0x3e4329ce	0.19058916
41	0x3e3a2d3a	0.18181315
42	0xbe3b48fd	-0.18289562
43	0xbdd07642	-0.10178806
44	0xbcdd0b7c	-0.026983015
45	0x3c4cf414	0.012509365
46	0x3e5e3553	0.21700029
47	0x3e163bb6	0.14671215
48	0xbe0131ee	-0.12616703
49	0xbe512202	-0.20423129
50	0xbbc02a6b	-0.0058644316
51	0x3e5266eb	0.20547073
52	0x3e35a86c	0.17740029
53	0x3e5ccbe0	0.21562147
54	0xbcd91275	-0.026498059
55	0xbce00b6b	-0.027349195
56	0xbee3e0df	-0.445075
57	0x3f0bb139	0.54567295
58	0x3f23572f	0.63804907
59	0xbe58aa8a	-0.21158805
60	0xbdf91cfb	-0.12163731
61	0x3f0a4a00	0.54019165
62	0xbeb100f9	-0.34571055
63	0x3eb603c8	0.3554976
64	0x3cbca253	0.023026621
65	0x3b43b31d	0.0029861399
66	0x3e0ec8c5	0.13943775
67	0x3e063c56	0.13108954
68	0x3db39b31	0.08769835
69	0x3dffea29	0.124958344
70	0xbe212850	-0.15738034
71	0x3d02c3ad	0.031924892
72	0xbe045bc3	-0.1292563
73	0x3dd8b2c5	0.105809726
74	0xbcc03229	-0.023461418
75	0xbdc68e6b	-0.09695133
76	0x3c9a0936	0.01880322
77	0x3d872bb0	0.066001296
78	0x3db4d11b	0.08828946
79	0x3d887927	0.06663733
80	0x3e0f2db8	0.13982284
81	0xbbc7d7f3	-0.006098741
82	0x3d9d2358	0.07672757
83	0xbdc494ef	-0.09598719
84	0xbeb21f4a	-0.34789497
85	0xbf14a62b	-0.5806605
86	0xbc1b1d9d	-0.00946751
87	0x3f2955a1	0.66146284
88	0xbe1dc056	-0.15405402
89	0x3c83c383	0.016084438
90	0x3ed9e654	0.4255854
91	0xbd715b1f	-0.05892479
92	0xbe898253	-0.26857242
93	0xbdaceaa8	-0.08443195
94	0x3e2e7956	0.17038473
95	0x3aa4dab3	0.0012577384
96	0x3db69b1e	0.08916305
97	0x3e3a7e0f	0.1821215
98	0xbe88e2f7	-0.2673566
99	0xbe8dca94	-0.27693617
100	0xbd8657fa	-0.06559749
101	0x3e8d56a1	0.27605155
102	0x3e161569	0.14656605
103	0x3db93c41	0.09044696
104	0xbe5a3336	-0.21308598
105	0xbdd1c133	-0.10241928
106	0x3d30d36e	0.043170385
107	0x3e44ebcd	0.19230576
108	0x3b8a887e	0.004227697
109	0x3e9567a7	0.29180643
110	0x3e4b7635	0.19869311
111	0x3d6e1b6f	0.05813163
112	0xbe778ca2	-0.24174741
113	0xbd93956f	-0.072062366
114	0x3ed0003f	0.40625188
115	0xbebe2ab9	-0.3714197
116	0x3f095299	0.5364166
117	0xbdc2be0f	-0.09508907
118	0xbe985ec0	-0.2975979
119	0xbda39b94	-0.079886585
120	0xbe824a36	-0.25447243
121	0xbe291b48	-0.16514313
122	0x3cc08d2e	0.02350482
123	0x3e6d9c8e	0.23204252
124	0xbda63ba3	-0.081168436
125	0x3e29650f	0.16542457
126	0xbe064908	-0.13113797
127	0xbe886361	-0.2663832
128	0x3ccf3a2d	0.025296295
129	0x3e4de746	0.20107755
130	0x3c95815b	0.018250158
131	0x3e4dd159	0.20099391
132	0xbe34089f	-0.17581414
133	0xbd1ebce5	-0.038754363
134	0x3e75b735	0.23995669
135	0x3e5fc20d	0.21851368
136	0x3e5c8a8a	0.21537223
137	0x3e7449bd	0.23856254
138	0x3d873314	0.06601539
139	0x3d350269	0.04419175
140	0xbee348a8	-0.4439137
141	0x3f274710	0.6534281
142	0x3f4416dc	0.7659738
143	0x3f04cf7e	0.5187911
144	0x3f444c18	0.7667861
145	0x3f08d597	0.5345091
146	0xbf1035aa	-0.56331885
147	0xbf0293f5	-0.51007015
148	0xbdfefdb4	-0.12450734
149	0xbd9aa0da	-0.07550211
150	0x3e13a73e	0.14419267
151	0x3dd9f7ad	0.106429435
152	0x3dd0feeb	0.10204872
153	0x3d5913c3	0.052997362
154	0xbe2e5736	-0.17025456
155	0xbdc252ad	-0.094884254
156	0x3c9c5a5e	0.01908606
157	0x3e2ab1b9	0.16669358
158	0x3e4ad1fe	0.19806668
159	0x3e167a96	0.146952
160	0xbda0f607	-0.07859426
161	0xbe459803	-0.19296269
162	0x3df7785c	0.120835036
163	0x3d9276ea	0.07151587
164	0x3e413ef2	0.18871668
165	0x3df84a3b	0.12123533
166	0x3e1eafb1	0.15496708
167	0x3dfa5949	0.12224061
168	0x3c9e6eab	0.01933988
169	0xbec881b0	-0.39161444
170	0xbed8c0ae	-0.42334503
171	0x3e2c1f2e	0.16808769
172	0x3f017dbb	0.50582474
173	0x3cc01c41	0.023450973
174	0xbcfd9895	-0.030956546
175	0xbe15ec7f	-0.14640997
176	0x3c184f8d	0.00929631
177	0xbe042ed3	-0.12908487
178	0xbdaba8d1	-0.083818085
179	0x3d3ab745	0.045584936
180	0x3e036386	0.12830934
181	0x3e07a9fc	0.13248438
182	0xbe0287d7	-0.12747131
183	0xbe48c208	-0.19605267
184	0x3cec1eb1	0.028823229
185	0x3d9cd5e0	0.07657981
186	0x3e5c1ac2	0.21494582
187	0x3e27cda0	0.16387033
188	0xbe44ea2d	-0.19229956
189	0xbe5d5f91	-0.21618487
190	0x3de9fdcc	0.11425361
191	0x3d7431fa	0.059617974
192	0x3de5f2f6	0.11227982
193	0xbd8950cd	-0.06704865
194	0x3e3c9b11	0.18418528
195	0xbd83dd88	-0.06438738
196	0x3e9b7990	0.30366182
197	0x3e83432f	0.25637195
198	0xbddb66e8	-0.10712987
199	0xbec590be	-0.38586992
200	0x3e1a6261	0.15076591
201	0xbd9bb98a	-0.07603748
202	0xbe16b77f	-0.14718436
203	0x3f0f6989	0.5602041
204	0xbe4812e1	-0.19538452
205	0x3d444902	0.04792119
206	0xbdac6d7e	-0.084193215
207	0x3dc9224f	0.09820997
208	0x3d02662e	0.031835727
209	0xbc27c28a	-0.010239253
210	0xbe503185	-0.2033139
211	0x3dd42768	0.10359079
212	0x3db0b901	0.08629037
213	0xbdd16c4b	-0.10225733
214	0x3e77e1ee	0.24207279
215	0xbd805b1d	-0.062673785
216	0xbdbb1711	-0.09135259
217	0xbdbaffb1	-0.091308005
218	0xbd383162	-0.04496897
219	0xbd19d2ed	-0.03755467
220	0x3e4a885b	0.19778578
221	0x3dfa9fa6	0.12237482
222	0x3e583acd	0.2111618
223	0x3dab6181	0.08368207
224	0x3d0ea221	0.034822587
225	0xbe516ca5	-0.20451601
226	0x3ebd5abf	0.36983296
227	0x3d8621f1	0.065494426
228	0xbe971fcb	-0.29516444
229	0xbee31ac1	-0.4435635
230	0xbe0c79da	-0.13718358
231	0x3cc39e84	0.023879297
232	0xbe0c67c7	-0.13711463
233	0x3cc577a5	0.024104903
234	0xbcc8f647	-0.024531497
235	0x3e122858	0.14273202
236	0x3dc9dbe7	0.09856396
237	0x3e31e44e	0.17372248
238	0xbe5061f2	-0.20349863
239	0xbd97b966	-0.07408409
240	0x3e0773f4	0.13227826
241	0x3e8610d7	0.26184723
242	0x3e833a60	0.25630474
243	0x3e6aff96	0.22949061
244	0xbe82719d	-0.25477305
245	0xbbca8631	-0.0061805476
246	0x3d12d361	0.035846118
247	0x3dd2e362	0.10297276
248	0x3e1dfc1b	0.15428202
249	0x3db62a77	0.08894818
250	0xbb899fd5	-0.0041999617
251	0x3e0d6712	0.1380885
252	0xbf1a5f86	-0.6030201
253	0x3e69114a	0.22760502
254	0xbe6be2d8	-0.23035753
255	0x3ee1f745	0.44133964

controller.0.bias f4 [100]
0	0xbdcc54a3	-0.09977081
1	0x3de3c07e	0.11120699
2	0x3ee53406	0.44766253
3	0x3ed851ce	0.42249912
4	0x3ec41a84	0.3830148
5	0x3e9a759c	0.30167854
6	0x3ef06621	0.46952918
7	0x3e8f6bd7	0.28011963
8	0x3ecdb42e	0.4017653
9	0x3ecc6279	0.3991888
10	0xbb7385bb	-0.0037158567
11	0x3eed6dd2	0.4637285
12	0x3ead7237	0.33876202
13	0x3e0fdf9a	0.14050141
14	0x3ee196e3	0.4406043
15	0x3eefab59	0.46810415
16	0x3e3e1b2f	0.18565057
17	0x3e5670e8	0.20941508
18	0x3ec83c45	0.39108482
19	0x3e94f298	0.29091334
20	0x3eb26050	0.34839106
21	0x3e5c657f	0.21523093
22	0xbd275f5a	-0.04086242
23	0x3ec24477	0.3794286
24	0x3e6df730	0.23238826
25	0xbe0b4bde	-0.1360316
26	0x3d9c37bd	0.07627819
27	0x3e72963f	0.23690127
28	0x3e7ec490	0.2487967
29	0x3ecace4e	0.39610523
30	0x3e5d0915	0.21585496
31	0xbe4fe184	-0.20300871
32	0x3c8329cd	0.016011143
33	0xbdbb0b7d	-0.091330506
34	0x3eea84b4	0.4580437
35	0x3e8b8a95	0.27254167
36	0x3e93427f	0.2876167
37	0x3d8fa92d	0.070146896
38	0x3ecf9316	0.40541905
39	0x3ee58525	0.44828144
40	0x3ef7d91c	0.4840783
41	0x3ea695e1	0.32536224
42	0x3d0953a6	0.03352704
43	0x3ed2fe81	0.41209796
44	0xbe89d571	-0.26920655
45	0x3e0dc0fa	0.13843146
46	0x3eb3ab7b	0.35091767
47	0x3eb9ede3	0.36314306
48	0x3c8c9f74	0.017165877
49	0x3ea9df9d	0.33178416
50	0x3c2c586c	0.010519128
51	0x3ed0b19c	0.40760505
52	0x3e2074d9	0.15669574
53	0x3e629de6	0.22130546
54	0x3ed8c210	0.42335558
55	0x3f04993b	0.5179631
56	0x3daa3083	0.08310034
57	0x3eb09d3c	0.3449496
58	0x3ec28e0a	0.37998992
59	0x3e9ee678	0.3103521
60	0x3ee3795d	0.4442853
61	0x3c4fa97c	0.012674686
62	0xbd8d536e	-0.069006786
63	0x3eea00a9	0.4570363
64	0x3e861071	0.2618442
65	0x3eabf8ae	0.33588165
66	0x3ea1943a	0.315584
67	0x3ee2e9dd	0.4431905
68	0x3d47b135	0.048752982
69	0x3e93dd48	0.28879762
70	0x3e0c5e0c	0.13707751
71	0x3ea6a69f	0.32548997
72	0x3eb0ef4d	0.34557572
73	0x3eaf33b0	0.34219122
74	0x3dfd48a9	0.123673744
75	0x3e19af00	0.15008163
76	0x3eb2a580	0.3489189
77	0x3db2078e	0.08692847
78	0x3ed9591d	0.424508
79	0x3dfdf673	0.12400522
80	0x3e8ba436	0.2727372
81	0x3eac4885	0.33649078
82	0x3e1379bf	0.14401911
83	0xbd8f0c20	-0.069847345
84	0x3ea8a7a9	0.32940415
85	0x3e25d4c4	0.16194445
86	0x3ed22254	0.41041815
87	0x3ed1f4d7	0.4100711
88	0x3e9fd303	0.31215677
89	0x3e3943dc	0.18092293
90	0x3ebe9da2	0.3722964
91	0x3c1ee090	0.009697095
92	0x3ea0770c	0.31340826
93	0x3ccc85c0	0.02496612
94	0x3e52a548	0.20570862
95	0xbd053147	-0.032517698
96	0xbe12c3e8	-0.14332545
97	0x3eb72abd	0.35774794
98	0x3e9f51d0	0.31117105
99	0x3dfcd4b2	0.12345256

read_head.key_layer.weight f4 [20, 100]
0	0xbcf9e24f	-0.03050342
1	0x3c63580b	0.013875972
2	0xbd932f2c	-0.07186732
3	0xbd2dfdaf	-0.04247826
4	0xbdcaf853	-0.09910645
5	0x3d1e1760	0.03859651
6	0xbded878e	-0.11598121
7	0x3d952ea3	0.07284286
8	0xbd3f1113	-0.046647143
9	0xbc3ea1aa	-0.011635223
10	0x3ac1653a	0.0014754899
11	0xbde80ebc	-0.11330935
12	0xbd8c704c	-0.068573564
13	0x3cafb024	0.021446295
14	0xbd42c28c	-0.047548816
15	0x3cb397a3	0.021922892
16	0x3d4a908d	0.04945426
17	0xbcdf28fe	-0.027241226
18	0x3d63c573	0.055608224
19	0x3b0e58b8	0.002172036
20	0x3c131e3c	0.008979376
21	0x3c832578	0.016009077
22	0x3d74659c	0.059667215
23	0x3cdd9b80	0.027051687
24	0xbd0e60b9	-0.03476021
25	0x3daad69c	0.08341715
26	0x3d4efdf1	0.050535146
27	0x3c873b55	0.016507784
28	0xbd454f52	-0.04817135
29	0xbc77a64a	-0.01511533
30	0xbba32224	-0.004978435
31	0x3dd8283f	0.10554551
32	0x3db0289c	0.086014956
33	0x3cda60be	0.026657458
34	0xbd8482ce	-0.064702615
35	0x3ca26106	0.019821655
36	0x3d221b87	0.039577033
37	0xbd2925d3	-0.041295838
38	0x3cbbedad	0.022940481
39	0xbd7afecc	-0.06127815
40	0x3d63620a	0.05551342
41	0xbdb97a3b	-0.09056517
42	0xbc52fa56	-0.012877068
43	0x3dc7c751	0.097548135
44	0x3c127e3e	0.008941231
45	0x3d800e35	0.0625271
46	0x3cd6f7ae	0.02624115
47	0xbda3f202	-0.08005144
48	0x3c777371	0.015103207
49	0xbcf68fd3	-0.030097878
50	0x3d1cbb97	0.038264837
51	0xbd5b1720	-0.05348885
52	0x3d872b1d	0.0660002
53	0xbc94d969	-0.018170075
54	0xbd9f4a9b	-0.07777902
55	0xbd724eda	-0.05915723
56	0x3bdc026e	0.006714157
57	0xbd3d51a6	-0.046220444
58	0x3b01236d	0.0019704953
59	0xbcece17f	-0.028916119
60	0xbd0d40f4	-0.034485772
61	0x3dc46ca7	0.09591036
62	0x3d3fae02	0.046796806
63	0xbd323f29	-0.043517265
64	0x3d076865	0.033058543
65	0xbda8591b	-0.082201205
66	0x3c0e0185	0.0086673545
67	0x3ce2984a	0.027660508
68	0xbd817a39	-0.0632214
69	0xbd1bbc5b	-0.038021427
70	0x3dac58d3	0.084153794
71	0x3bb130b0	0.0054074153
72	0x3db775f7	0.08958047
73	0xbd192f6f	-0.03739875
74	0x3c60ae3a	0.013713414
75	0x3c188363	0.009308669
76	0x3d1b015c	0.037843093
77	0x3c16eb38	0.009211354
78	0xbda20121	-0.079103716
79	0xbd4610a2	-0.048355706
80	0xbcbdf46c	-0.023187838
81	0x3d8aeaec	0.06783089
82	0x3df33906	0.11876111
83	0xbc92d601	-0.01792431
84	0x3c6d8854	0.014497835
85	0x3d486a56	0.048929535
86	0x3ca43a02	0.020047192
87	0x3d8a42af	0.06751
88	0x3d205df4	0.0391521
89	0xbd60c55a	-0.05487571
90	0xbd1da139	-0.038483832
91	0x3d3ca077	0.04605147
92	0x3dd8c51c	0.10584471
93	0xbe50bfa8	-0.20385611
94	0xbd4a4cd1	-0.049389664
95	0x3c9352e3	0.01798386
96	0x3dbcba8f	0.09215271
97	0x3d0076ca	0.031363286
98	0xbd7a6626	-0.061132573
99	0xbc4cde0e	-0.012504114
100	0x3d27c9dd	0.040963996
101	0xbdb769ed	-0.089557506
102	0xbd17d2a8	-0.03706613
103	0xbbceffe6	-0.0063171266
104	0xbc4b535e	-0.012410013
105	0x3c407680	0.011747003
106	0xbd97afdb	-0.07406589
107	0x3df3da52	0.11906876
108	0x3ca115c2	0.019663695
109	0xbc62c6ff	-0.01384139
110	0x3aa96161	0.0012922698
111	0xbd80cb0d	-0.06288729
112	0xbe04cfef	-0.12969945
113	0x3a140312	0.00056462095
114	0x3d049f1b	0.032378297
115	0xbdc38327	-0.095465
116	0x3daa088c	0.083024114
117	0x3db3e642	0.087841526
118	0x3d1dade9	0.03849593
119	0x3d1c77c0	0.03820014
120	0x3c72284d	0.014780116
121	0xbd9d1ee4	-0.076719075
122	0x3dea5681	0.114422806
123	0xbcf86825	-0.030323097
124	0x3d945d31	0.07244337
125	0x3cfb208c	0.030655168
126	0x3c26f0e9	0.010189273
127	0x3b7cbcb8	0.0038564634
128	0x3d899dba	0.06719537
129	0xbd6ba139	-0.0575268
130	0x3c9bdd7c	0.01902651
131	0xbd091a72	-0.033472486
132	0x3d12a804	0.035804763
133	0x3db41760	0.08793521
134	0xbd6d7f99	-0.057983015
135	0xbd056691	-0.032568518
136	0xbd1c86c1	-0.03821445
137	0x3d389031	0.045059387
138	0xbd524f65	-0.051345248
139	0x3d871920	0.06596589
140	0xbcfe3ffb	-0.031036368
141	0xbd8eb0cb	-0.06967314
142	0xbd43b992	-0.047784396
143	0xbc395800	-0.011312485
144	0x3d0223d5	0.031772453
145	0x3d720bd7	0.059093323
146	0x3d176512	0.036961623
147	0x3c87663c	0.016528241
148	0x3d8d2c77	0.068932466
149	0x3caeeb61	0.021352472
150	0x3db492e3	0.08817079
151	0xbdae9503	-0.085245155
152	0x3d98e8ad	0.074662544
153	0x3d9a3a99	0.07530708
154	0xbe041dab	-0.12901942
155	0xbda803d7	-0.082038574
156	0x3c2fff56	0.010742029
157	0xbceec9d1	-0.029148968
158	0xbd9bcc89	-0.07607371
159	0xbb25cdd0	-0.0025299676
160	0xbc12f4bf	-0.008969485
161	0xbc730505	-0.01483274
162	0x3d915457	0.07096165
163	0xbbb62fcf	-0.0055598984
164	0x3cc4b1aa	0.024010498
165	0xbdb16153	-0.08661141
166	0xbc18a86d	-0.0093175
167	0xbd465a6c	-0.048426077
168	0xbddcae9e	-0.10775493
169	0xbc5a92ae	-0.013340635
170	0x3dcd6eb3	0.1003088
171	0x3ceabca2	0.0286544
172	0x3d105966	0.035241507
173	0xbd3a583d	-0.045494307
174	0x3d5ac2a2	0.053408273
175	0x3cef4588	0.02920796
176	0xbdb5c5ef	-0.088756435
177	0x3ce1b521	0.02755219
178	0x3d2699eb	0.04067413
179	0x3d3ad419	0.04561243
180	0x3d0eb1cc	0.03483753
181	0xbdea917c	-0.1145353
182	0x3d0bee4a	0.034162797
183	0xbd1e4eeb	-0.03864948
184	0xbc5692af	-0.0130964955
185	0x3cb452cb	0.022012135
186	0xbda6a686	-0.081372306
187	0xbd4d7736	-0.050162517
188	0xbd09672d	-0.03354566
189	0x3d6597b2	0.05605287
190	0x3cec7d23	0.028868264
191	0x3d73f1a7	0.05955663
192	0xbdd61e1f	-0.10454964
193	0xbe7756c8	-0.24154198
194	0xbddb479b	-0.10707017
195	0x3dc6249e	0.09674953
196	0x3d94f3da	0.072730735
197	0x3c71ea23	0.014765295
198	0x3cf3319e	0.029686745
199	0x3cab83c8	0.020936862
200	0xbce7367d	-0.028224224
201	0x3d4f380a	0.050590552
202	0xbd762487	-0.06009343
203	0x3dbeb918	0.093126476
204	0x3c388692	0.011262553
205	0xbc9b2125	-0.018936703
206	0x3d14f3c7	0.036365297
207	0xbc905eaa	-0.017623264
208	0x3db0c523	0.08631351
209	0xbd2b4415	-0.041812975
210	0xbb0571e4	-0.0020362074
211	0xbd550691	-0.052008215
212	0x3dcdf639	0.10056729
213	0x3d3be764	0.04587497
214	0xbcfc971c	-0.030833773
215	0x3df19347	0.11795669
216	0xbd8a3ca3	-0.06749847
217	0xbd3f538d	-0.04671054
218	0x3c99dd04	0.018782146
219	0xbccf7c59	-0.025327848
220	0x3c4b15c9	0.012395331
221	0x3d28dcc9	0.041226182
222	0xbd9ead8e	-0.07747947
223	0x3ce5cfce	0.02805319
224	0xbd8806b5	-0.06641904
225	0xbd575b7f	-0.05257749
226	0x3c1b9ab7	0.009497336
227	0xbbbc78db	-0.005751712
228	0x3d043855	0.032280285
229	0x3b9404ff	0.004517197
230	0xbd331042	-0.043716677
231	0xbcb47af8	-0.022031292
232	0xbd536d2e	-0.051617794
233	0xbddf7648	-0.10911232
234	0x3d920976	0.07130711
235	0x3c095f38	0.008384518
236	0xbb94957f	-0.004534423
237	0xbc99d15b	-0.018776586
238	0x3daea409	0.08527381
239	0x3b895182	0.0041906247
240	0x3db3eaee	0.08785044
241	0x3dc596a3	0.09647872
242	0xbd0a3fb1	-0.033752147
243	0x3d36222a	0.044466175
244	0xbc877c86	-0.01653887
245	0x3c4fb151	0.012676553
246	0x3cd9568a	0.026530523
247	0x3c850e73	0.016242241
248	0xbdb6d609	-0.08927543
249	0xbb7a8d2a	-0.0038231113
250	0x3c14fb02	0.009093048
251	0x3c98a940	0.018635392
252	0x3ceaccf7	0.028662188
253	0x3d4f135c	0.050555572
254	0xbb9eed52	-0.004850068
255	0xbd56db2e	-0.05245512

read_head.key_layer.bias f4 [20]
0	0xbe3a47d4	-0.18191463
1	0xbe077fe2	-0.13232377
2	0x3e1fadd4	0.15593654
3	0x3d79f978	0.061028928
4	0x3cbedfdb	0.023300102
5	0x3e101104	0.14068991
6	0xbe26b85e	-0.16281268
7	0xbe369b70	-0.17832732
8	0x3d8bda30	0.06828725
9	0x3e121917	0.14267384
10	0xbcf071a5	-0.029351065
11	0x3df75cb3	0.12078228
12	0xbda4d05a	-0.080475524
13	0xbd1b5e96	-0.037932
14	0x3e2a1697	0.1661018
15	0x3e0e57cf	0.13900684
16	0x3d161de1	0.03664959
17	0x3d4de656	0.050268494
18	0x3d8fd0c0	0.07022238
19	0xbd03023c	-0.031984553

read_head.beta_layer.weight f4 [1, 100]
0	0x3db95f45	0.09051374
1	0x3e94fc57	0.2909877
2	0x3e6cd4ac	0.23128003
3	0x3e854b4e	0.26034015
4	0x3e90f2bf	0.283102
5	0x3dd95a12	0.10612883
6	0x3e56d609	0.20980085
7	0x3e7a3c41	0.24437048
8	0x3e96992b	0.29413733
9	0x3e47d78d	0.1951582
10	0x80055e72	-4.93058e-40
11	0x3eb107b4	0.3457619
12	0x3ec6bbdf	0.3881521
13	0x3e76e09e	0.24109122
14	0x3eace16f	0.33765742
15	0x3e9cdb79	0.30636194
16	0x3e88e7fa	0.26739484
17	0x3e330ba6	0.17484912
18	0x3e46d2f1	0.19416405
19	0x3e785a91	0.24253298
20	0x3e9b888d	0.30377617
21	0x3e9d441b	0.30716023
22	0x3d9a3a7f	0.075306885
23	0x3e88de1b	0.26731953
24	0x3e955b09	0.29171017
25	0x3d40d5a3	0.04707874
26	0x3dfb278b	0.122634016
27	0x3e78f7b2	0.24313238
28	0x3e52dc56	0.20591864
29	0x3e8b498d	0.27204552
30	0x3e60d6d8	0.21956956
31	0x3cc643a9	0.024202185
32	0xbdc34812	-0.09535231
33	0x3de4808a	0.111573294
34	0x3ea8fff0	0.33007765
35	0x3e7511b1	0.2393253
36	0x3e8a2483	0.2698098
37	0x3e33d871	0.17563035
38	0x3e84db9e	0.25948805
39	0x3eb02757	0.34405014
40	0x3ea46d29	0.32114533
41	0x3ec1d755	0.37859598
42	0x3dfd75be	0.12375973
43	0x3eb228ed	0.3479685
44	0x3d107658	0.03526911
45	0x3dee5d1f	0.11638855
46	0x3e3bb58d	0.18330975
47	0x3e9968eb	0.2996286
48	0x3e748fc3	0.23882966
49	0x3e844281	0.25831988
50	0x3e544215	0.20728333
51	0x3e758c32	0.23979262
52	0x3e8489bd	0.25886336
53	0x3e720cdb	0.23637716
54	0x3ea435cd	0.32072297
55	0x3ea53163	0.32264242
56	0x3e22f556	0.159139
57	0x3e681f4b	0.22668187
58	0x3e52376a	0.20528951
59	0x3eab4fd9	0.33459356
60	0x3e9a853b	0.30179772
61	0x3e335331	0.17512204
62	0x3dd0f363	0.10202672
63	0x3e9c8a45	0.3057424
64	0x3d6cdd2c	0.057828113
65	0x3ea378ec	0.31928194
66	0x3e4faca3	0.202807
67	0x3e71817f	0.23584555
68	0x3d8b9c47	0.06816917
69	0x3eb02a98	0.34407496
70	0x3e7cd7eb	0.24691741
71	0x3eb8e24c	0.3611015
72	0x3e9912f0	0.2989726
73	0x3e9bcb49	0.30428532
74	0x3e0c7823	0.13717704
75	0x3e67fe23	0.22655539
76	0x3e7d2740	0.24722004
77	0xbc952560	-0.018206298
78	0x3e950ff7	0.29113743
79	0x3d9d1579	0.07670111
80	0x3ea76fe8	0.32702565
81	0x3e47f991	0.19528796
82	0x3e4e5e92	0.20153263
83	0x3df41713	0.119184636
84	0x3e5c68f2	0.21524408
85	0x3e5a2ee9	0.21306957
86	0x3e9d904b	0.3077415
87	0x3e513631	0.20430829
88	0x3e1144c0	0.14186382
89	0x3e40af2a	0.1881682
90	0x3ea1697d	0.31525794
91	0xbc952591	-0.01820639
92	0x3e4e6c84	0.20158583
93	0x3e52c55d	0.205831
94	0x3e932281	0.28737262
95	0x3dbba9c7	0.09163242
96	0x3db99e71	0.090634234
97	0x3e173e5e	0.14769885
98	0x3e81a14e	0.25318378
99	0x3e93e38c	0.28884542

write_head.key_layer.weight f4 [20, 100]
0	0xbdd7c665	-0.10535888
1	0xbde2baeb	-0.11070808
2	0xbda2ccd9	-0.07949228
3	0xbcde524d	-0.027138853
4	0xbc951951	-0.018200548
5	0xbcead30b	-0.028665086
6	0x3d5fcba9	0.054637585
7	0xbc7953b2	-0.015217708
8	0xbd3df3bc	-0.04637502
9	0x3bbed726	0.0058239875
10	0x800558be	-4.91012e-40
11	0xbcbc7f43	-0.023009902
12	0xbd1bda53	-0.038050007
13	0xbdbc1305	-0.09183315
14	0xbd12291e	-0.035683744
15	0x3d332b83	0.043742668
16	0xbd8003f6	-0.062507555
17	0xbd1d79b3	-0.03844614
18	0xbc2ecec9	-0.010669419
19	0xbd86f5b4	-0.06589833
20	0xbbf993aa	-0.00761648
21	0x3b605d8b	0.0034235443
22	0xbe12e6ae	-0.1434581
23	0xbce6f769	-0.028194146
24	0xbda2a38a	-0.07941349
25	0xbdb3b800	-0.087753296
26	0xbd8980e5	-0.06714038
27	0xbcd2ae20	-0.025717795
28	0xbd44ddfe	-0.04806327
29	0xbcd67415	-0.0261784
30	0xbd999904	-0.074998885
31	0xbc551848	-0.013006277
32	0xbcb282ef	-0.02179095
33	0xbda3d468	-0.07999498
34	0xbda45183	-0.080233596
35	0xbcd3402b	-0.025787434
36	0xbc890eab	-0.016730627
37	0xbd952feb	-0.0728453
38	0xbcf50200	-0.02990818
39	0x3be61130	0.007021092
40	0xbce9030a	-0.028443832
41	0x3cb1312d	0.021629894
42	0xbdcb7175	-0.099337496
43	0xbd824161	-0.06360126
44	0xbdb2261a	-0.086986735
45	0xbd016719	-0.031592462
46	0xbd0d07bd	-0.034431208
47	0xbc499d4e	-0.012305571
48	0xbdde20d7	-0.108461075
49	0xbcfebaab	-0.03109487
50	0xbd59a125	-0.053132195
51	0xb90c9999	-0.0001340866
52	0xbd5370e3	-0.05162133
53	0xbdb7df65	-0.08978156
54	0xbc3da8fe	-0.011575935
55	0xbd70557d	-0.058675278
56	0xbd60bba0	-0.054866433
57	0xbd66a377	-0.056308236
58	0xbd732e14	-0.059370115
59	0xbd18ae4c	-0.037275597
60	0xbd0fa365	-0.035067935
61	0xbd71fc54	-0.05907853
62	0xbd63d42d	-0.05562227
63	0xbd65e383	-0.056125175
64	0xbce89eaf	-0.028395979
65	0xbd442f02	-0.047896393
66	0xbbbb41ef	-0.005714647
67	0x3d15254a	0.036412515
68	0xbdb36280	-0.08759022
69	0xbd44dda2	-0.048062928
70	0xbdef8a33	-0.11696281
71	0xbc9c11f0	-0.019051522
72	0xbd3a8cfe	-0.045544617
73	0x3c94b651	0.018153341
74	0x3ad7b0e8	0.001645592
75	0xbd4d9473	-0.0501904
76	0xbd9b3cbd	-0.07579944
77	0xbda58ff8	-0.080841005
78	0xbca7654c	-0.020434044
79	0xbd824d9f	-0.06362461
80	0xbd720254	-0.05908425
81	0xbb97c0d2	-0.0046311403
82	0xbd182db3	-0.037152957
83	0xbd31bd21	-0.043393258
84	0xbd1edbec	-0.038783953
85	0xbda63c98	-0.08117026
86	0xbd17fd3c	-0.037106737
87	0xba1da2f3	-0.0006013356
88	0xbcdf565d	-0.02726286
89	0xbdb70559	-0.08936567
90	0xbd882380	-0.06647396
91	0xbd848174	-0.06470004
92	0xbd0362c7	-0.032076623
93	0xbde9ece4	-0.114221364
94	0xbd96404a	-0.07336481
95	0xbdaf1abc	-0.08550021
96	0xbdac55bd	-0.08414791
97	0xbd10e917	-0.03537854
98	0xbce777f7	-0.028255446
99	0xbde6dd11	-0.11272634
100	0xbc8fec74	-0.017568804
101	0xbccf6c91	-0.025320323
102	0xbc50ccfc	-0.012744185
103	0xbd89bd07	-0.06725507
104	0x3ca550c4	0.020180114
105	0x3d11fc3f	0.03564095
106	0x3cf2a3e7	0.02961917
107	0xbce6ced9	-0.028174805
108	0xbce8ac91	-0.028402599
109	0x3ce412d7	0.027841015
110	0x9e4d5443	-1.08700346e-20
111	0x3b4ed50e	0.0031560096
112	0xbbb3849c	-0.0054784548
113	0x3cfe2086	0.031021368
114	0xbbaca183	-0.005268277
115	0xbd0eb874	-0.034843877
116	0xbcaabb13	-0.020841157
117	0xbc2f221b	-0.010689284
118	0x3cdf035c	0.027223282
119	0xbb486212	-0.0030576033
120	0xbcaa58df	-0.02079433
121	0xbc370b44	-0.0111721195
122	0xba84b970	-0.0010126065
123	0x3c285aca	0.010275552
124	0x3c6ef7b5	0.014585425
125	0xbc6d0df4	-0.014468659
126	0xbc3a8e8c	-0.011386525
127	0x3d18eb97	0.03733405
128	0xbcd49324	-0.025949068
129	0x3c8152eb	0.015786609
130	0x3cffcf8c	0.031226896
131	0xbd1d8c29	-0.038463745
132	0x3cdce126	0.026962828
133	0x3ca04470	0.019563884
134	0xbc7adecf	-0.015311911
135	0x3be6024c	0.007019317
136	0xbbc77539	-0.006086972
137	0x3c231153	0.009952861
138	0x3c9d9c04	0.019239433
139	0xbd315afa	-0.043299653
140	0xbcbb2556	-0.022844952
141	0xbbf10a09	-0.0073559326
142	0xbc1e3e0c	-0.009658348
143	0xbd356647	-0.044286992
144	0xbc6065d9	-0.013696157
145	0x3b6ea75b	0.003641567
146	0xb9fdce32	-0.00048409548
147	0x3ca4c82a	0.020114977
148	0x3d088506	0.033329986
149	0x3c587568	0.013211586
150	0x3c86e604	0.016467102
151	0xbb031d68	-0.002000654
152	0x3c33aef4	0.010967005
153	0x3c5278ab	0.012846152
154	0xbbc568cc	-0.0060244557
155	0x3c5951d7	0.013264141
156	0x3d159c4e	0.036526017
157	0xba14634a	-0.0005660547
158	0x3d0eefb0	0.034896553
159	0x3d48ea2b	0.049051445
160	0x3b152db7	0.0022762844
161	0xbb2e2dd8	-0.0026577618
162	0x3b0d1343	0.0021526373
163	0xbc5844b6	-0.013199976
164	0x3c84f750	0.016231209
165	0xbbb25d42	-0.005443246
166	0xbcd84e75	-0.026404599
167	0xbc37e040	-0.011222899
168	0x3d48e56f	0.04904693
169	0x3cc2f940	0.023800492
170	0x3ba19454	0.004931012
171	0xbc433104	-0.011913542
172	0x3b4f50d5	0.0031633873
173	0x3cee941c	0.029123358
174	0xbcc328c2	-0.023823146
175	0x3d28e5b6	0.041234694
176	0x3d12b7cd	0.035819817
177	0x3cf8dae0	0.030377805
178	0xbce6257a	-0.028094042
179	0xbc83622a	-0.01603802
180	0xbc171ded	-0.009223443
181	0xbd076c9a	-0.033062555
182	0xbc85bc79	-0.016325222
183	0xbce5ed24	-0.028067179
184	0x3c9bcc7f	0.01901841
185	0x3b1a77c7	0.0023569928
186	0xbd34247d	-0.04398011
187	0x3cd2dab7	0.025739057
188	0xbc31008d	-0.010803354
189	0x3c93158b	0.017954608
190	0x3b2ae685	0.0026077342
191	0xbb54f66c	-0.0032495512
192	0x3d000d28	0.031262547
193	0xbbdb18d3	-0.006686309
194	0x3d22c1d4	0.03973563
195	0x3d14b320	0.03630364
196	0x3d2bdd8d	0.041959334
197	0xbca18f4b	-0.019721648
198	0x3d0024c9	0.03128508
199	0xbb5ead0d	-0.0033977658
200	0x3c9fdaa5	0.019513438
201	0x3dceae48	0.10091835
202	0x3db6bedc	0.08923122
203	0x3d9fb5e1	0.077983625
204	0x3d52f937	0.0515072
205	0x3d996154	0.07489267
206	0x3d86c61b	0.06580754
207	0x3d07dab7	0.033167567
208	0x3df8e6c3	0.12153389
209	0x3db16b60	0.08663058
210	0xa88ba488	-1.5503454e-14
211	0x3dc3bc41	0.09557391
212	0x3db21a08	0.08696371
213	0x3d1219ee	0.03566926
214	0x3dbeebdd	0.09322331
215	0x3dd2d67b	0.10294815
216	0x3d8b6f54	0.068083435
217	0x3cdad83b	0.026714435
218	0x3dfef802	0.124496475
219	0x3d2aeb33	0.04172821
220	0x3d5ebb8f	0.05437809
221	0x3d8aa845	0.06770376
222	0x3d45a1fc	0.048250183
223	0x3d58179d	0.052756894
224	0x3d59da19	0.05318651
225	0x3d4f196e	0.05056136
226	0x3d5d55f7	0.05403706
227	0x3d82bca4	0.063836366
228	0x3d1e2999	0.03861389
229	0x3dac3d5d	0.084101416
230	0x3d86172b	0.06547388
231	0x3d162774	0.03665872
232	0x3c488236	0.012238076
233	0x3cd1716a	0.025566775
234	0x3d8f741d	0.07004569
235	0x3dd6d2ce	0.104894266
236	0x3d88121d	0.0664408
237	0x3cd60926	0.02612741
238	0x3d43fd85	0.047849197
239	0x3d56fd0a	0.05248741
240	0x3e03fd8b	0.12889688
241	0x3d792a1e	0.06083118
242	0x3cf80019	0.030273484
243	0x3e1771b1	0.14789464
244	0xbc45c197	-0.012070081
245	0x3d8fdc89	0.070244856
246	0x3dac711e	0.08420013
247	0x3ddc543c	0.10758254
248	0x3d9fe7ae	0.07807861
249	0x3e069d7b	0.13146012
250	0x3c71a996	0.014749905
251	0x3dd4d338	0.10391849
252	0x3d9af458	0.07566136
253	0x3d45b29e	0.048266046
254	0x3e26d029	0.16290344
255	0x3d0f567a	0.03499458

write_head.key_layer.bias f4 [20]
0	0x3d953158	0.07284802
1	0xbd987fe7	-0.074462704
2	0x3e259397	0.16169582
3	0x3de66b14	0.11250892
4	0xbddbce81	-0.10732747
5	0xbddaf748	-0.106916964
6	0xbd67f969	-0.05663434
7	0x3d35b374	0.044360593
8	0xbe061d09	-0.13097014
9	0x3ddd43c4	0.10803941
10	0x3ba2c078	0.0049667917
11	0x3d0089a9	0.031381283
12	0xbd38826e	-0.045046262
13	0xbbf58263	-0.00749235
14	0x3e2d6810	0.16934228
15	0xbd5e9aee	-0.05434697
16	0x3d3605ae	0.04443901
17	0x3ddb807d	0.107178666
18	0x3dd1bb42	0.10240795
19	0x3d5a71b0	0.053331077

write_head.beta_layer.weight f4 [1, 100]
0	0x3e4d4ea8	0.20049536
1	0x3e817faf	0.25292727
2	0x3e93716c	0.28797472
3	0x3ec1bee4	0.3784095
4	0x3ea2dbc1	0.31808284
5	0x3ea18da3	0.31553373
6	0x3ea2ae96	0.31773823
7	0x3e90c2b9	0.28273562
8	0x3ea72178	0.32642722
9	0x3ebeec17	0.37289497
10	0x881a209d	-4.6381026e-34
11	0x3ea1b2d1	0.3158174
12	0x3ea196b8	0.31560302
13	0x3e986185	0.29761901
14	0x3ecd10b1	0.40051797
15	0x3eb3b531	0.35099176
16	0x3ead39e1	0.3383322
17	0x3eae3966	0.34028167
18	0x3eb649b2	0.356031
19	0x3e928b46	0.28621882
20	0x3ea5f9d5	0.3241717
21	0x3eb5beb2	0.3549705
22	0x3e3f5125	0.18683298
23	0x3eae895e	0.34089178
24	0x3e8b152b	0.27164587
25	0x3e68aaed	0.22721453
26	0x3e478eac	0.19488019
27	0x3ea005d5	0.3125445
28	0x3e9aa2ba	0.30202276
29	0x3eb65077	0.35608265
30	0x3e9df8a5	0.30853763
31	0x3e800027	0.25000116
32	0x3e232931	0.15933682
33	0x3e5c854c	0.21535224
34	0x3e98bc2a	0.29831058
35	0x3ec005c3	0.37504396
36	0x3ea5240b	0.3225406
37	0x3e7e98d8	0.24862993
38	0x3ec43ed7	0.38329193
39	0x3e9a9739	0.301935
40	0x3ebd41bc	0.36964214
41	0x3ea420a8	0.32056165
42	0x3e94ad24	0.29038346
43	0x3e9a0849	0.30084446
44	0x3e5b3c10	0.21409631
45	0x3e92051d	0.28519526
46	0x3eb4eda5	0.35337558
47	0x3ebdb413	0.37051448
48	0x3e753a33	0.23947982
49	0x3ea57f13	0.32323512
50	0x3e738dda	0.23784581
51	0x3ebe6752	0.37188202
52	0x3e90c0fe	0.2827224
53	0x3e9a317f	0.30115888
54	0x3e9d3bc3	0.30709657
55	0x3ead3fb3	0.3383766
56	0x3e765b83	0.24058346
57	0x3eb295e4	0.34879982
58	0x3eb6ab29	0.3567746
59	0x3e877467	0.26455995
60	0x3ec12065	0.37720028
61	0x3e8eec7e	0.27914804
62	0x3e886acf	0.26643988
63	0x3eb48bd7	0.3526294
64	0x3e81e96b	0.25373396
65	0x3e828ea1	0.25499442
66	0x3e88f310	0.26747942
67	0x3eac3f84	0.3364221
68	0x3e79461a	0.24343148
69	0x3e95ce4d	0.29258958
70	0x3eb0a25e	0.34498876
71	0x3e8a4af0	0.27010298
72	0x3e8ec3a7	0.27883646
73	0x3eb981bf	0.362318
74	0x3e956a62	0.29182726
75	0x3e989168	0.29798436
76	0x3ea4c1c8	0.32179093
77	0x3e5a1c94	0.21299964
78	0x3e869354	0.26284277
79	0x3e96bd6b	0.2944139
80	0x3ea6787f	0.32513806
81	0x3e9177a9	0.28411606
82	0x3e8f51b9	0.27992037
83	0x3e9be411	0.30447438
84	0x3ea02b61	0.31283095
85	0x3e91ee5f	0.28502175
86	0x3eba32b0	0.36366796
87	0x3ea98d59	0.33115652
88	0x3eaae3d2	0.33376938
89	0x3e93c9b9	0.2886484
90	0x3e988115	0.29785982
91	0x3e4f8f67	0.20269547
92	0x3e8c48ac	0.27399194
93	0x3e778df8	0.2417525
94	0x3e6b9d83	0.23009305
95	0x3e7478c8	0.238742
96	0x3e490f4c	0.19634742
97	0x3ea6ef64	0.32604516
98	0x3e9aa360	0.3020277
99	0x3e9e19ab	0.30878958

write_head.erase_layer.weight f4 [20, 100]
0	0x3c2f922a	0.010716001
1	0x3d908616	0.07056825
2	0x3ccffd85	0.025389442
3	0x3cd240ab	0.025665602
4	0x3d6162d0	0.055025876
5	0x3d3e6d07	0.046490695
6	0x3d3190d9	0.043351028
7	0x3cccb2af	0.024987547
8	0x3d4b5035	0.04963704
9	0x3d6c3f77	0.057677712
10	0x8005607b	-4.93788e-40
11	0x3d5cc518	0.0538989
12	0x3ce5f214	0.028069533
13	0x3cdff784	0.027339704
14	0x3d4366bd	0.0477054
15	0x3d5f4f9c	0.05451928
16	0x3ccebb86	0.025235903
17	0x3ca158e5	0.019695709
18	0x3d688bbe	0.056773894
19	0x3d1e0d0d	0.038586665
20	0x3d0034ab	0.031300228
21	0x3c26ec47	0.010188169
22	0x3d0c6839	0.034279082
23	0x3cd00a95	0.02539567
24	0x3d0601c0	0.032716513
25	0x3cedc760	0.029025733
26	0x3caeef32	0.021354292
27	0x3caf05f5	0.021365145
28	0x3d08275c	0.03324066
29	0x3d3e7f55	0.046508152
30	0x3d060d3d	0.03272747
31	0x3c4188bc	0.011812385
32	0x3c04167c	0.008062001
33	0x3cb4caa3	0.022069281
34	0x3ca52c95	0.02016286
35	0x3c8a3c5a	0.016874481
36	0x3d22292c	0.039590046
37	0x3b3c9dcc	0.0028780578
38	0x3cd0bce2	0.025480691
39	0x3cc79db1	0.024367185
40	0x3ca71f67	0.020400716
41	0x3d2ed0fe	0.04267978
42	0x3b9add25	0.0047260695
43	0x3d280816	0.041023336
44	0xb989b8e7	-0.0002626844
45	0x3cf909c8	0.030400172
46	0x3d25f472	0.040516324
47	0x3d4d42a6	0.05011239
48	0x3c945319	0.01810603
49	0x3d3e1e8b	0.046415847
50	0x3c9e31d1	0.019310864
51	0x3d1df6be	0.03856539
52	0x3ce4a4de	0.027910646
53	0x3be844c6	0.0070882766
54	0x3d20b7c8	0.039237767
55	0x3ca82eaf	0.020530073
56	0x3cd64fa5	0.026161024
57	0x3ce55005	0.027992258
58	0x3d25bca1	0.040463094
59	0x3d4f6292	0.050631113
60	0x3d2aafe3	0.041671645
61	0x3c6b2840	0.014352858
62	0x3c2e92d3	0.010655123
63	0x3d641e30	0.05569285
64	0x3cdf9b46	0.02729572
65	0x3cb973bd	0.022638196
66	0x3c954531	0.01822147
67	0x3d0e475f	0.034736034
68	0x3c54c64f	0.012986734
69	0x3d7c2154	0.06155522
70	0x3c6a0ec6	0.014285749
71	0x3ccda4a5	0.025102923
72	0x3c967965	0.018368432
73	0x3d09dba0	0.033656716
74	0x3cdbfd71	0.026854249
75	0x3d0695b2	0.032857604
76	0x3d48ae9e	0.048994653
77	0x3cd4fe56	0.026000183
78	0x3c6c85e3	0.014436218
79	0x3c52b9b4	0.012861658
80	0x3d009627	0.031393196
81	0x3d4aaeb8	0.04948303
82	0x3cb501e9	0.022095637
83	0x3b3e5f17	0.0029048377
84	0x3d36e0d6	0.044648014
85	0x3d049555	0.032368977
86	0x3d2d1a59	0.042261455
87	0x3cd0d688	0.025492921
88	0x3cf76d47	0.030203475
89	0x3c3713c1	0.011174143
90	0x3d085081	0.0332799
91	0x3cb07a7c	0.02154278
92	0x3cc70a8c	0.024297021
93	0x3db74ed0	0.08950579
94	0x3d4c1a5f	0.049829837
95	0x3c5b181f	0.01337245
96	0x3c045493	0.008076805
97	0x3d011956	0.031518303
98	0x3cd23a0c	0.025662445
99	0x3cc5c94f	0.024143843
100	0xbd08c2e7	-0.033389
101	0xbd46a210	-0.0484944
102	0xbd4337ac	-0.047660515
103	0xbd1472ca	-0.036242284
104	0xbcf32de3	-0.029684966
105	0xbbe85116	-0.0070897443
106	0xbc9cedd6	-0.019156378
107	0xbd48db93	-0.049037527
108	0xbd24bb5b	-0.04021774
109	0xbcb20df8	-0.021735176
110	0x8005a15f	-5.17067e-40
111	0xbd0f296a	-0.034951605
112	0x3d05529c	0.032549486
113	0xbd815140	-0.06314325
114	0xbd0b81d1	-0.03405935
115	0xbcacccbc	-0.021093719
116	0xbd68ddaa	-0.05685202
117	0xbd007864	-0.031364813
118	0xbcfe899c	-0.031071477
119	0xbd402aad	-0.0469157
120	0xbd2764ce	-0.04086762
121	0x3cb1c3d6	0.021699827
122	0xbccc1c75	-0.024915913
123	0xbd430b9f	-0.047618505
124	0xbd337aa4	-0.04381813
125	0x3bcf11a6	0.0063192425
126	0xbd076e00	-0.03306389
127	0xbccf66ad	-0.025317514
128	0xbd428132	-0.04748649
129	0xbcef9acd	-0.02924862
130	0xbd4a5723	-0.049399506
131	0xbcd2dcef	-0.025740115
132	0xbc2f1e02	-0.010688307
133	0xbd4b0f2e	-0.049575023
134	0xbd39dd38	-0.045376986
135	0xbc922b6f	-0.017842976
136	0xbd1588c2	-0.036507376
137	0xbca096cb	-0.019603154
138	0xbc8c1466	-0.01709957
139	0xbd5eaaac	-0.054361984
140	0xbd2b2051	-0.041778866
141	0x3d20b38f	0.03923374
142	0xbd0478df	-0.032341834
143	0xbd45b00c	-0.048263595
144	0xbcf425f3	-0.029803252
145	0xbcd75709	-0.026286619
146	0xbd23410f	-0.039856967
147	0xbcb42d9a	-0.0219944
148	0xbd1795c9	-0.03700808
149	0xbce8a35f	-0.028398214
150	0xbd4117b2	-0.04714174
151	0xbc8f8db0	-0.017523617
152	0xbd4e7108	-0.050400764
153	0xbd8480e7	-0.06469899
154	0xbd4f966d	-0.050680567
155	0xbd3ea282	-0.0465417
156	0xbd5701af	-0.05249184
157	0xbd2cf87a	-0.042229153
158	0xbd202e47	-0.039106634
159	0xbd55ba53	-0.052179646
160	0xbd0c4d78	-0.034253567
161	0xbd35370b	-0.044241946
162	0xbd038b09	-0.032115016
163	0xbd219212	-0.039445944
164	0xbcc29d29	-0.02375658
165	0xbcb407ae	-0.021976318
166	0xbd253e0e	-0.040342383
167	0xbd02d544	-0.031941667
168	0x3c593007	0.0132560795
169	0xbd18fa66	-0.037348174
170	0xbd82958f	-0.06376182
171	0xbd521051	-0.05128509
172	0xbd1e0d7e	-0.038587086
173	0xbbd5252a	-0.0065046744
174	0x3cd246c9	0.025668519
175	0xbd12e5a1	-0.035863522
176	0xbd3d9585	-0.04628517
177	0xbc8f5793	-0.017497813
178	0xbce3c6d6	-0.027804773
179	0xbcd24719	-0.025668668
180	0xbd41750a	-0.047230758
181	0xbd182f8c	-0.03715472
182	0xbd23bbf1	-0.039974157
183	0xbd034b00	-0.032053947
184	0xbcc8daaa	-0.02451833
185	0xbd6f4b44	-0.05842139
186	0xbd05778a	-0.032584704
187	0xbc9ce770	-0.019153327
188	0xbbd35e49	-0.0064504487
189	0xbd036853	-0.032081913
190	0xbcd48ae5	-0.025945136
191	0xbc82ecda	-0.01598208
192	0xbd5bf434	-0.053699687
193	0xbd150663	-0.036383044
194	0xbd323ae9	-0.043513212
195	0xbd3a078d	-0.045417357
196	0xbd5ff1ec	-0.054674074
197	0xbcd0824b	-0.025452754
198	0xbd184520	-0.037175298
199	0xbd92b1b1	-0.07162798
200	0xbd515f01	-0.051115993
201	0xbcb78273	-0.02240107
202	0xbd80936a	-0.06278117
203	0xbd377f9c	-0.044799432
204	0xbd38001b	-0.044921976
205	0xbd76cf2a	-0.06025616
206	0xbd104b3e	-0.035228007
207	0xbd3b321a	-0.045702077
208	0xbd191da1	-0.037381772
209	0xbd09001c	-0.03344737
210	0x8006aa98	-6.1221e-40
211	0xbd1f5108	-0.038895637
212	0xbd35dc47	-0.044399526
213	0xbd8c64b0	-0.06855142
214	0xbd37b3db	-0.044849258
215	0xbd0504f2	-0.03247542
216	0xbd6d10d0	-0.05787736
217	0xbd84ce4e	-0.06484662
218	0xbd05fc81	-0.03271151
219	0xbd693f82	-0.05694533
220	0xbd5c532f	-0.053790268
221	0xbcb02851	-0.0215036
222	0xbd449958	-0.047997802
223	0xbd7949d0	-0.06086141
224	0xbd39f114	-0.045395926
225	0xbd1b395d	-0.037896503
226	0xbd53fa2d	-0.051752258
227	0xbd4d386c	-0.050102636
228	0xbd64ade1	-0.055829886
229	0xbd3e0975	-0.046395738
230	0xbd7b63fc	-0.06137465
231	0xbd0eb502	-0.03484059
232	0xbd27f392	-0.04100377
233	0xbd72854b	-0.05920915
234	0xbd4dd54f	-0.050252255
235	0xbd6aac3a	-0.057293154
236	0xbd7e387e	-0.062065594
237	0xbd286f63	-0.04112185
238	0xbd2f9c1d	-0.04287349
239	0xbd62e5ba	-0.055394866
240	0xbd4b734b	-0.0496705
241	0xbd1ea962	-0.038735755
242	0xbd2c7b19	-0.042109583
243	0xbd37d9a1	-0.04488528
244	0xbd192b6b	-0.037394922
245	0xbd73dcf8	-0.059536904
246	0xbd3fb3d6	-0.046802364
247	0xbd1455ef	-0.036214765
248	0xbd51ca68	-0.05121842
249	0xbd0954d5	-0.033528168
250	0xbd5b3daf	-0.053525623
251	0xbd395d94	-0.04525526
252	0xbd6261cf	-0.05526906
253	0xbd8dcef6	-0.0692424
254	0xbd3cb6ef	-0.046072897
255	0xbd556127	-0.052094605

write_head.erase_layer.bias f4 [20]
0	0xbc20154f	-0.009770705
1	0xbd22972f	-0.03969496
2	0xbd9716e9	-0.07377417
3	0x3cc2eab2	0.023793552
4	0xbd0d2ab0	-0.034464538
5	0xbd4cd470	-0.050007284
6	0x3b92121c	0.004457725
7	0xbd97dc5c	-0.07415077
8	0xbd78dbb4	-0.0607564
9	0xbd56409b	-0.052307706
10	0x38ff5613	0.0001217538
11	0xbd4ef084	-0.050522342
12	0xbd9f3155	-0.07773081
13	0xbd8af87a	-0.067856744
14	0xbca014d5	-0.019541183
15	0xbda52add	-0.08064816
16	0xbdea5c12	-0.11443342
17	0x3c66ab7d	0.014078972
18	0xbd08d74a	-0.03340844
19	0x3d914909	0.070940085

write_head.add_layer.weight f4 [20, 100]
0	0xbda8d965	-0.0824459
1	0xbd24bb00	-0.0402174
2	0xbd38cbc3	-0.045116197
3	0xbd9937d6	-0.07481353
4	0xbd8d7cc9	-0.069085665
5	0x3da35b52	0.07976402
6	0xbd423deb	-0.04742233
7	0xbcb7d390	-0.022439748
8	0xbd4e6356	-0.050387703
9	0xbcc5b878	-0.024135813
10	0x800585cd	-5.07176e-40
11	0x3afa4b10	0.0019095857
12	0xbda05368	-0.078284085
13	0x3b816da3	0.0039498373
14	0xbdba9a42	-0.091114536
15	0xbd11b1c0	-0.035569906
16	0xbc350eb1	-0.011050866
17	0xbcbe70d7	-0.023247166
18	0xbc693160	-0.014232963
19	0xbcf1f9d0	-0.029538065
20	0x3d27ca66	0.040964507
21	0x3df86610	0.12128842
22	0xbdc33d1d	-0.09533141
23	0xbd0559cc	-0.03255634
24	0xbcda0840	-0.026615262
25	0xbde18bf3	-0.11013021
26	0xba671cb4	-0.0008816228
27	0xbc8de278	-0.017319903
28	0xbd5b116c	-0.05348341
29	0xbbe18c0f	-0.0068831514
30	0x3d6490e9	0.05580226
31	0xbddb5419	-0.107094
32	0x3b05c72f	0.0020412912
33	0xbdb97a3b	-0.09056517
34	0xbca1ec60	-0.019766033
35	0x3df4a1e6	0.11944942
36	0xbbfc1e17	-0.0076940167
37	0xbd73b208	-0.059495956
38	0xbd9d6e5c	-0.07687065
39	0xbb8ba0a5	-0.0042610937
40	0xbd79b2d9	-0.060961578
41	0x3e1784a1	0.14796688
42	0xbdbab36d	-0.09116254
43	0xbc663fcd	-0.014053297
44	0xbe0d3362	-0.13789132
45	0xbc8bfb7b	-0.017087689
46	0xbdab064d	-0.08350811
47	0xbd20f2cd	-0.039294053
48	0xbdac5901	-0.08415414
49	0xbcb21d29	-0.02174242
50	0xbd208254	-0.03918679
51	0xbcac7ab9	-0.021054612
52	0xbdd6a25a	-0.10480185
53	0xbd7ac38a	-0.061221637
54	0xbd367dcc	-0.044553563
55	0xbda7632d	-0.08173213
56	0xbcd484fc	-0.025942318
57	0xbcd3b791	-0.025844367
58	0xbd4e8764	-0.050422087
59	0xbd0c1c95	-0.034206945
60	0x3de5199f	0.111865275
61	0xbd27af82	-0.04093886
62	0xbdafd434	-0.085853964
63	0xbd806b42	-0.06270458
64	0x3d580e2a	0.052747883
65	0xbd04b626	-0.032400273
66	0xbd96351d	-0.07334349
67	0xbb27e22c	-0.0025616987
68	0x3d26a147	0.04068115
69	0xbcb6a18e	-0.022293832
70	0xbda7fa10	-0.082019925
71	0xbd6db0e4	-0.058030024
72	0xbd00f01f	-0.031478997
73	0xbd52b5c6	-0.051442884
74	0xbd72f262	-0.059313186
75	0x3e027650	0.12740445
76	0xbc1dc9b7	-0.009630612
77	0x3de9801c	0.11401388
78	0xbe22098a	-0.15823951
79	0xbd569eb8	-0.05239746
80	0xbd96206b	-0.07330402
81	0xbc8e273a	-0.017352689
82	0xbd7dcdac	-0.061963722
83	0xbdac7b9e	-0.084220156
84	0xbd002bdc	-0.031291828
85	0xbc9499b8	-0.018139705
86	0xbddb1525	-0.106973924
87	0xbccb75ed	-0.024836505
88	0xbdd9f1e2	-0.106418386
89	0xbdb0416e	-0.0860623
90	0xbdf4c6d0	-0.11951983
91	0xbd12a7a9	-0.035804424
92	0xbdbd6b19	-0.09248943
93	0xbca76040	-0.020431638
94	0xbc74a2ca	-0.01493139
95	0x3c01a241	0.0079122195
96	0xbd81cd7f	-0.063380234
97	0x3d16b55b	0.036794048
98	0xbc1b9644	-0.009496275
99	0xbd360a55	-0.044443447
100	0xbe11cc23	-0.14238028
101	0xbd3c062e	-0.04590433
102	0x3b53024f	0.003219742
103	0xbdf8cc64	-0.121483594
104	0xbdd9a9ef	-0.106281154
105	0x3de14aa1	0.110005625
106	0xbdbdea4f	-0.092732064
107	0xbd113a4d	-0.03545599
108	0xbc2b9220	-0.010471851
109	0x3cc1664c	0.02360835
110	0x800420c9	-3.79103e-40
111	0xbbcb09e9	-0.0061962497
112	0xbe48c54c	-0.19606513
113	0x3d03f0e9	0.03221217
114	0x3c0070eb	0.007839422
115	0xbd1942a5	-0.037417073
116	0xbcf7ce2c	-0.030249678
117	0xbe0a50c3	-0.1350737
118	0xbd0a5f62	-0.03378237
119	0xbd0c6b82	-0.034282215
120	0x3d5e74d5	0.05431064
121	0x3d4d373c	0.050101504
122	0xbdb5e17f	-0.088809006
123	0xbd32abfd	-0.043621052
124	0xbcd0dbad	-0.025495375
125	0xbe4e8ad4	-0.20170146
126	0x3c6fa790	0.014627352
127	0x3c80561b	0.015666058
128	0x3c41d59a	0.011830712
129	0xbc5f55e5	-0.013631319
130	0x3d0154db	0.031575065
131	0xbd67c5d6	-0.056585155
132	0xbcbba42f	-0.022905437
133	0xbd3c4110	-0.045960486
134	0xbcc0b3cf	-0.02352324
135	0x3dce2231	0.10065115
136	0xbcb5ce7e	-0.02219319
137	0xbdc47ead	-0.09594474
138	0xbdb45f6d	-0.088072635
139	0x3cd12ce0	0.025534093
140	0xbd9b69d1	-0.07588542
141	0x3dfd9898	0.123826206
142	0xbd337718	-0.04381475
143	0xbd49eb0f	-0.049296435
144	0xbe31e5a6	-0.1737276
145	0xbdc05dd8	-0.09392899
146	0xbd511b0d	-0.05105119
147	0xbd4d7152	-0.0501569
148	0xbd8470be	-0.06466816
149	0x3ced8590	0.028994352
150	0x3988b91b	0.00026077856
151	0xbde777e5	-0.11302165
152	0xbdaf6a97	-0.08565252
153	0xbd578973	-0.052621316
154	0x3c181304	0.009281877
155	0xbd295bbf	-0.04134726
156	0xbc4f0ec8	-0.0126378015
157	0xbd0aabab	-0.03385512
158	0xbd305121	-0.04304612
159	0xbc9b69dc	-0.018971376
160	0x3ddbbb8e	0.107291326
161	0xbcd8f142	-0.026482228
162	0xbde54fae	-0.11196838
163	0xbdaea86f	-0.0852822
164	0x3bdcaa28	0.0067341514
165	0xbd880f5a	-0.06643553
166	0xbb23f893	-0.0025019988
167	0xbdf1995c	-0.11796829
168	0xbc7009b8	-0.014650755
169	0xbbe45a9d	-0.0069688098
170	0xbc183ade	-0.009291379
171	0xbd2c2f25	-0.042037148
172	0xbdcc3a5a	-0.09972067
173	0xbdab74b4	-0.08371869
174	0xbdc70dfe	-0.09719466
175	0x3e0834c4	0.13301378
176	0x3d8172a4	0.06320694
177	0x3d8cb24e	0.068699464
178	0xbdf23745	-0.11826948
179	0xbd84f2c6	-0.06491618
180	0xbdc5f53f	-0.096659176
181	0xbcf6e89e	-0.030140217
182	0xbd3a7434	-0.045520976
183	0xbd7f9ba3	-0.062404286
184	0xbcc011f5	-0.023446063
185	0xbbb07502	-0.005385042
186	0xbdab45d4	-0.08362928
187	0xbdd945be	-0.106090054
188	0xbd4d389f	-0.050102826
189	0xbdbe2efa	-0.09286304
190	0xbdb556f2	-0.08854474
191	0xbe1d4139	-0.15356912
192	0xbdc33872	-0.095322505
193	0x3c87c319	0.016572522
194	0xbd1362a9	-0.03598276
195	0xbb03a3fc	-0.0020086756
196	0xbd30aceb	-0.043133657
197	0xbc8df299	-0.017327594
198	0xbb67e45b	-0.0035383913
199	0xbd248ea6	-0.040175103
200	0x3e038c8c	0.12846583
201	0x3d0102e9	0.031496916
202	0x3e1a3f1b	0.15063135
203	0x3d757d14	0.059933737
204	0x3d027ea9	0.031859074
205	0xbe066fa5	-0.13128527
206	0x3c60b2b0	0.013714477
207	0xbcdcc6bc	-0.026950233
208	0x3d84a335	0.06476442
209	0xbc70f459	-0.0147066945
210	0x8005b0eb	-5.22644e-40
211	0xbc3d1c82	-0.011542441
212	0x3e44ad14	0.19206649
213	0x3d178ec1	0.037001375
214	0x3d74c17e	0.05975484
215	0x3c7d3c60	0.015456289
216	0x3d8d0efd	0.068876244
217	0x3c7ec9af	0.015551015
218	0xbd2f376d	-0.042777468
219	0xbbff561b	-0.007792247
220	0x3d37bf48	0.044860154
221	0xbcefa603	-0.029253965
222	0x3b83baeb	0.004020085
223	0x3d081c9b	0.033230405
224	0x3ce0daa4	0.027448006
225	0x3df7684b	0.12080439
226	0x3b46a78a	0.0030312263
227	0xbd87c72d	-0.06629787
228	0x3d9e227c	0.07721421
229	0x3d39847a	0.045292355
230	0xbe06fb01	-0.13181688
231	0x3d259136	0.040421687
232	0x3dba6f2d	0.09103236
233	0x3db536fa	0.088483766
234	0x3da4b424	0.080421716
235	0x3d4ecb4e	0.050486855
236	0xbc76a5dd	-0.015054193
237	0x3dbfbe8a	0.09362514
238	0xbba12fbf	-0.004919022
239	0x3e056670	0.13027358
240	0x3da400e1	0.0800798
241	0xbd97b335	-0.07407228
242	0x3d96611a	0.073427394
243	0x3d9a5dea	0.07537444
244	0x3e1b13e0	0.151443
245	0x3d826654	0.06367174
246	0x3d432f2b	0.047652405
247	0x3d22a065	0.039703745
248	0x3d05347b	0.032520752
249	0xbc56c63b	-0.013108785
250	0xbcd2deb6	-0.025740962
251	0x3ae713e7	0.0017629833
252	0x3df25705	0.11833004
253	0x3e03f03b	0.1288461
254	0x3d17cc99	0.037060354
255	0x3dfa0022	0.122070566
