VerSimples/checkpoint/best_model_epoch_1.pth (torch, 65162 bytes, 15 tensors)

memory.mem_bias f4 [128, 20]
0	0x3d9c0a6d	0.07619176
1	0x3d11f4b2	0.03563375
2	0xbd4c00d7	-0.04980549
3	0xbdc4c225	-0.09607343
4	0x3b8d7db0	0.0043179616
5	0x3d8d69a1	0.06904913
6	0x3c749010	0.014926925
7	0x3c842754	0.016132034
8	0xbacb7b80	-0.0015524477
9	0xbc7690f0	-0.015049204
10	0xbb2f85a0	-0.0026782528
11	0x3db0cfd9	0.08633394
12	0xbda09262	-0.0784042
13	0xbdc535fa	-0.09629436
14	0xbdb0b880	-0.086289406
15	0xbcb65ed4	-0.022262014
16	0x3ccfb484	0.025354631
17	0xbdc41c75	-0.0957574
18	0x3d0c2d72	0.034223028
19	0x3d24a442	0.04019571
20	0x3c559240	0.013035357
21	0x3d7c3f2e	0.06158369
22	0xbdaab1a6	-0.08334665
23	0x3abfc680	0.0014631301
24	0x3d5ec002	0.05438233
25	0x3db46dab	0.0880998
26	0xbd8d4683	-0.06898215
27	0xbd848dd5	-0.06472365
28	0x3cf9f7cc	0.030513667
29	0xbd6b404a	-0.057434358
30	0x3d6d9cb2	0.058010764
31	0x3d1e12fe	0.03859233
32	0xbd971bab	-0.07378324
33	0xbdbed403	-0.09317782
34	0x3dc88bc1	0.09792281
35	0x3c9e1448	0.01929678
36	0x3d05bbee	0.032649927
37	0x3d92d237	0.071690015
38	0xbd3a124a	-0.045427598
39	0x3dc4cebd	0.09609745
40	0xbd02dd76	-0.031949483
41	0xbbaf0700	-0.0053414106
42	0xbd7a23ea	-0.061069407
43	0x3dc28ff9	0.09500117
44	0xbc36bb80	-0.011153102
45	0x3d2f73b2	0.042834945
46	0xbc9339ac	-0.017971836
47	0x3d7a453a	0.061101176
48	0x3d1197c2	0.03554512
49	0xbda46a6e	-0.08028112
50	0x3da398c7	0.07988124
51	0x3d1670ae	0.036728553
52	0x3d6dfa6a	0.05810014
53	0x3d8862c3	0.06659462
54	0x3d068ed2	0.032851048
55	0xbbff4cb0	-0.0077911243
56	0xbd7e61e3	-0.06210507
57	0x3cf1e40c	0.029527687
58	0x3d4354e2	0.047688372
59	0xbc897160	-0.016777694
60	0x3d5cbe8a	0.05389265
61	0xbd7bd2a0	-0.061480165
62	0xbd9f2ec5	-0.077725925
63	0x3da59e2f	0.08086812
64	0x3d304732	0.043036647
65	0xbcf45c8c	-0.029829286
66	0xbd308837	-0.043098655
67	0xbdc0dc6a	-0.09417041
68	0xbdaa8275	-0.08325664
69	0x3ce499b4	0.027905323
70	0xbd32ffed	-0.0437011
71	0xbca70b20	-0.020391047
72	0x3d0be592	0.034154482
73	0xbdc345a0	-0.09534764
74	0xbcf6a180	-0.030106306
75	0x3d6e5ec2	0.058195837
76	0xbd533947	-0.051568296
77	0x3d2affba	0.041747786
78	0x3b7fb9a0	0.0039020553
79	0xbccd1318	-0.025033519
80	0x3c426540	0.01186496
81	0x3db9c42b	0.09070619
82	0xbd3b494d	-0.045724202
83	0x3dbd713b	0.092501126
84	0xbd0e224c	-0.034700677
85	0xbc0d29e8	-0.008615948
86	0x3d905a2f	0.07048451
87	0xbcee4f54	-0.029090561
88	0xbda48e55	-0.0803496
89	0x3d426396	0.047458254
90	0x3cc3c040	0.023895383
91	0xbd2f0cb0	-0.04273671
92	0xbc4b1cb0	-0.012396976
93	0x3ce1256c	0.027483664
94	0xbcc815c0	-0.024424434
95	0x3c474168	0.01216159
96	0x3d2ff1b2	0.042955108
97	0xbd2a5dca	-0.04159335
98	0x3d692a3a	0.056925036
99	0x3dc497e7	0.095992856
100	0xbd3d860d	-0.04627042
101	0x3d9b62a1	0.07587171
102	0xbd0013aa	-0.031268753
103	0xbd5bcaa0	-0.053660035
104	0x3d7e34fa	0.06206224
105	0xbc85a40c	-0.016313575
106	0xbc905378	-0.017617926
107	0xbd912a7d	-0.07088182
108	0x3d8f0a69	0.069844075
109	0xbd5a773a	-0.05333636
110	0x3d0ca256	0.034334503
111	0x3d79308e	0.06083732
112	0x3dc1738f	0.09445869
113	0xbd7028a7	-0.05863252
114	0xbc237ea8	-0.009978928
115	0x3dbef7b3	0.093245886
116	0xbd9df19e	-0.077121004
117	0x3d7e9262	0.06215132
118	0x3d44c3e2	0.04803837
119	0x3c8d15d4	0.017222323
120	0xbce476b4	-0.027888633
121	0xbd577d4a	-0.05260972
122	0x3ceaae34	0.02864752
123	0xbd1deb73	-0.03855462
124	0xbd95d5a3	-0.073161386
125	0x3d492fb2	0.04911775
126	0xbdc4321d	-0.09579871
127	0xbd6f8baa	-0.058482803
128	0xbd75883d	-0.05994438
129	0xbd926b3d	-0.0714936
130	0xbdc62403	-0.096748374
131	0x3d825c31	0.0636524
132	0x3db3bfd7	0.08776825
133	0x3dc1a683	0.09455588
134	0xbd5a6c7a	-0.053326108
135	0x3dc63999	0.09678955
136	0xbdb3f988	-0.08787829
137	0x3d1a7782	0.037711628
138	0x3d621422	0.05519498
139	0xbdad8082	-0.084717765
140	0x3cbc4c94	0.022985734
141	0x3d93bceb	0.072137676
142	0xbd241d7d	-0.040067185
143	0x3d2b0612	0.041753836
144	0xbcdc9394	-0.02692584
145	0x3d306322	0.04306329
146	0xbd8db972	-0.069201365
147	0xbd4115b7	-0.04713985
148	0x3cc16134	0.02360592
149	0xbc184710	-0.009294286
150	0x3d529886	0.05141499
151	0xbd435dfa	-0.047697045
152	0x3d323a9e	0.043512933
153	0x3dbce1d1	0.092227586
154	0x3d424aa2	0.047434457
155	0xbdc06055	-0.09393374
156	0x3ce104c4	0.027468093
157	0xbd61406d	-0.05499308
158	0xbd801db6	-0.06255667
159	0x3dbf822f	0.093510024
160	0x3d93e4f9	0.072214074
161	0xbd28c45d	-0.04120289
162	0x3d1ede0a	0.03878597
163	0xbd9e12fe	-0.07718466
164	0x3d2ee35a	0.042697288
165	0x3da7753d	0.08176658
166	0x3d679162	0.056535132
167	0xbd9d4543	-0.07679226
168	0xbc82bd4c	-0.015959404
169	0xbd9ad573	-0.075602435
170	0xbd814d18	-0.063135326
171	0x3d36b8a2	0.044609673
172	0xbd0c95aa	-0.03432242
173	0x3ca00234	0.0195323
174	0x3c9f2c68	0.019430354
175	0xbd1edf73	-0.038787317
176	0xbdc8c7da	-0.09803744
177	0xbd227e13	-0.039671015
178	0xbcd529ac	-0.026020847
179	0xbd9e43d5	-0.07727782
180	0x3dc2f2cf	0.09518968
181	0xbdb8aa82	-0.09016897
182	0xbd4c6710	-0.049902976
183	0xbdb0dce7	-0.08635884
184	0x3d84c56d	0.064829685
185	0x3d6a4bce	0.0572012
186	0x3c46bf00	0.012130499
187	0x3da9e911	0.08296407
188	0xbd74a913	-0.059731554
189	0x3db8290b	0.08992203
190	0x3d1039e6	0.035211466
191	0x3d428d16	0.04749783
192	0xbd1fbb83	-0.038997184
193	0x3dad6223	0.08465984
194	0xbd175e7a	-0.036955334
195	0xbdb9b7f0	-0.090682864
196	0xbd2198b3	-0.039452266
197	0xbd3884da	-0.045048572
198	0x3cdc6dbc	0.026907794
199	0x3c224c40	0.009905875
200	0xbc229b98	-0.009924792
201	0xbcde9d08	-0.027174488
202	0xbd38013a	-0.044923045
203	0x3d6de092	0.058075495
204	0x3dc0cc01	0.09413911
205	0x3d91cbf9	0.07118983
206	0x3d39128e	0.04518371
207	0x3d6128a6	0.054970406
208	0x36358000	2.7045608e-06
209	0x3db580f3	0.08862486
210	0xbdb646dd	-0.08900235
211	0xbd63824a	-0.055544175
212	0xbd747bfd	-0.059688557
213	0xbd41d4b0	-0.047321975
214	0x3d24f09a	0.040268518
215	0xbc705000	-0.014667511
216	0xbd7a93fa	-0.061176278
217	0x3c7b1c00	0.0153265
218	0xbc2649c0	-0.010149419
219	0xbdb4d9eb	-0.08830627
220	0x3d017ada	0.0316113
221	0xbd9683cd	-0.07349358
222	0x3d021416	0.031757437
223	0x3caaf614	0.020869292
224	0x3da961c9	0.08270604
225	0x3d8989bb	0.06715723
226	0xbdb0e19d	-0.08636782
227	0x3dc3692f	0.095415466
228	0xbc067ac0	-0.008207977
229	0x3db45711	0.08805669
230	0xbdc155e8	-0.094402134
231	0x3db4b407	0.088234
232	0x3dbcf165	0.0922573
233	0x3daf0b71	0.08547104
234	0x3dc5b8d9	0.096543975
235	0x3d46378a	0.04839281
236	0xbba9ed60	-0.005185768
237	0x3c2d58a8	0.010580219
238	0xbd4d9777	-0.050193276
239	0x3dc1026f	0.09424292
240	0xbd9b10da	-0.075715736
241	0xbcc88a6c	-0.024480067
242	0xbd9493ee	-0.07254778
243	0xbd343afa	-0.044001557
244	0x3c46f3f0	0.01214312
245	0xbd01a674	-0.031652883
246	0xbdafaa8a	-0.085774496
247	0x3c32b328	0.010906972
248	0xbca64cd8	-0.020300314
249	0x3bd61450	0.006533183
250	0x3d97fda9	0.07421429
251	0xbc80260c	-0.015643142
252	0xbcfa11c0	-0.030526042
253	0xbd9baaf2	-0.076009646
254	0x3bbe1f80	0.005802095
255	0x3d06ad12	0.032879896

controller.0.weight f4 [100, 28]
0	0xbe0f29b0	-0.13980746
1	0xbea36bcf	-0.3191819
2	0x3e97dbd1	0.29659894
3	0x3e80c672	0.25151402
4	0x3eefbf9d	0.46825877
5	0x3ec3698d	0.38166466
6	0x3e667c36	0.2250832
7	0x3efffc27	0.49997064
8	0xbe2ed7d7	-0.17074524
9	0x3cf3e206	0.029770862
10	0x3d8ce094	0.068787724
11	0x3e19051a	0.14943352
12	0x3d87ced5	0.06631247
13	0x3ce280ee	0.02764937
14	0xbcf24525	-0.029573986
15	0xbdffc4b7	-0.12488692
16	0x3e0ad858	0.13559091
17	0x3d4e4e8c	0.050367877
18	0x3e1682ef	0.14698385
19	0x3cd2c313	0.025727784
20	0x3d755223	0.059892785
21	0xbd2dec63	-0.042461764
22	0x3dd7eb7d	0.10542963
23	0x3ddc2cdf	0.10750746
24	0x3dfd66ad	0.123730995
25	0xbd575531	-0.05257148
26	0xbd6b8bfa	-0.05750654
27	0x3e22be27	0.1589285
28	0xbe6a5c9f	-0.22886895
29	0xbdd384a3	-0.10328033
30	0xbe32ec3b	-0.17472927
31	0xbeb33532	-0.35001522
32	0xbe9d897c	-0.30768955
33	0xbee7d2d2	-0.4527803
34	0xbea7ed73	-0.32798347
35	0x3e94b12f	0.2904143
36	0xbd968d7d	-0.073512055
37	0xbe8fb86f	-0.280704
38	0x3e4e8665	0.20168455
39	0xbb20d814	-0.0024542855
40	0x3e63205f	0.22180317
41	0x3e5b1cb3	0.21397667
42	0xbe599150	-0.21246839
43	0xbdefb26f	-0.117039554
44	0xbb187fde	-0.0023269574
45	0x3d094752	0.033515282
46	0x3e87c2a9	0.265157
47	0x3e2fdca4	0.17174011
48	0xbe18648d	-0.14882107
49	0xbe70d152	-0.2351735
50	0x3c81c311	0.015840085
51	0x3e72cd7b	0.23711197
52	0x3e529526	0.20564708
53	0x3e83cab4	0.25740588
54	0xbc5e5d97	-0.013572118
55	0xb983749b	-0.00025073145
56	0xbec20c11	-0.3789983
57	0x3ed6a36b	0.41921553
58	0x3f049588	0.51790667
59	0xbe227d93	-0.15868215
60	0xbd8c5052	-0.068512574
61	0x3eda798b	0.42670855
62	0xbe931baa	-0.28732044
63	0x3e90fd58	0.28318286
64	0xbb4c0592	-0.003113125
65	0xbd0429d9	-0.03226647
66	0x3e51fab6	0.20505795
67	0x3e4630a4	0.19354492
68	0x3e1a4207	0.1506425
69	0x3e49d23c	0.19709104
70	0xbe62361e	-0.22090957
71	0x3c34c283	0.011032703
72	0xbdfbfa10	-0.12303555
73	0x3e226642	0.15859321
74	0x3c439c24	0.011939082
75	0xbd9f3d1e	-0.07775329
76	0xbc54e214	-0.012993354
77	0x3d2e67eb	0.042579573
78	0x3e07eb7b	0.13273422
79	0x3dec5f86	0.11541657
80	0x3e43f374	0.19135839
81	0x3ce61cd4	0.028089918
82	0x3e04d05f	0.12970112
83	0xbd9e0f63	-0.077177785
84	0xbe9d16f0	-0.30681562
85	0xbefbed11	-0.49204305
86	0xbbf22abf	-0.0073903496
87	0x3f0889b3	0.5333511
88	0xbde174c1	-0.11008597
89	0x3d156852	0.03647644
90	0x3ea80947	0.32819578
91	0xbcfea449	-0.031084197
92	0xbe983990	-0.29731417
93	0xbdbd206b	-0.09234699
94	0x3e45a3d2	0.19300774
95	0x3b8204ac	0.003967842
96	0x3dd2d88e	0.10295211
97	0x3e5a8888	0.21341145
98	0xbe961b3d	-0.29317656
99	0xbe99a9cb	-0.30012354
100	0xbd68f02d	-0.056869674
101	0x3e9aa5a8	0.3020451
102	0x3e2ca686	0.16860399
103	0x3dcaf311	0.099096425
104	0xbe6abd12	-0.22923687
105	0xbde33866	-0.110947415
106	0x3d3feb38	0.04685518
107	0x3e64d8f9	0.22348393
108	0x3b6a5574	0.00357565
109	0x3ea530be	0.3226375
110	0x3e5bdc79	0.21470822
111	0x3d87f113	0.06637778
112	0xbe671397	-0.22566067
113	0xbd4059c7	-0.04696062
114	0x3e94d2f6	0.290672
115	0xbe99060b	-0.29887423
116	0x3eccc62e	0.3999495
117	0xbdc102b5	-0.094243445
118	0xbe812719	-0.25225142
119	0xbd3ec59f	-0.046575185
120	0xbe96e3c6	-0.29470652
121	0xbe3e4706	-0.18581781
122	0x3d04d728	0.03243175
123	0x3e840e9b	0.25792393
124	0xbdb82d3b	-0.08993002
125	0x3e563000	0.20916748
126	0xbe112f4e	-0.14178202
127	0xbe97e871	-0.29669526
128	0x3d62eb44	0.055400148
129	0x3e603a90	0.2189734
130	0x3c9312e4	0.017953344
131	0x3e64feed	0.22362871
132	0xbe3cc306	-0.1843377
133	0xbd0695c0	-0.032857656
134	0x3e88b9ce	0.26704258
135	0x3e8850d8	0.2662418
136	0x3e6ead7e	0.2330837
137	0x3e833f02	0.2563401
138	0x3d8a4040	0.06750536
139	0x3d2673f6	0.040637933
140	0xbea24bdd	-0.31698504
141	0x3eed7389	0.4637721
142	0x3f0a879e	0.54113185
143	0x3ebb6601	0.3660126
144	0x3f0ccabf	0.54996866
145	0x3ec05211	0.37562612
146	0xbed02f79	-0.4066122
147	0xbec5929f	-0.38588426
148	0xbe157181	-0.1459408
149	0xbda1e246	-0.07904486
150	0x3e2ec326	0.1706663
151	0x3dd28cc4	0.10280755
152	0x3dd1b902	0.102403656
153	0x3d99fc08	0.07518774
154	0xbe372dc1	-0.17888547
155	0xbdd8b9f7	-0.10582345
156	0x3d4e3db2	0.050351806
157	0x3e353d35	0.1769913
158	0x3e535526	0.2063795
159	0x3e2374e0	0.15962553
160	0xbd81d2f8	-0.06339067
161	0xbe484801	-0.19558717
162	0x3e037914	0.12839156
163	0x3dcd12bc	0.10013339
164	0x3e4eb09e	0.20184562
165	0x3ddf3cbc	0.10900256
166	0x3e1e1907	0.15439235
167	0x3de6d92b	0.1127189
168	0x3c8f6fe3	0.017509406
169	0xbe9d0b48	-0.3067267
170	0xbebc0317	-0.36721107
171	0x3e10ab39	0.14127816
172	0x3ed1a94c	0.40949476
173	0x3d4045a2	0.046941407
174	0xbcaa52dd	-0.020791465
175	0xbddfcd24	-0.10927799
176	0x3bcbc892	0.006218978
177	0xbe12fe9e	-0.14354941
178	0xbda52946	-0.08064513
179	0x3d7e6cf7	0.062115636
180	0x3e1c3c0e	0.15257284
181	0x3e235374	0.15949804
182	0xbe170730	-0.14748836
183	0xbe59085d	-0.21194597
184	0x3d4afe90	0.049559176
185	0x3dba0b2f	0.09084164
186	0x3e7cc287	0.24683581
187	0x3e3bb90c	0.18332309
188	0xbe597f5c	-0.2123999
189	0xbe747388	-0.23872197
190	0x3e034b61	0.12821724
191	0x3d9baf65	0.07601813
192	0x3e0132c7	0.12617026
193	0xbd684885	-0.056709785
194	0x3e4f5c48	0.20250046
195	0xbd608bf9	-0.05482099
196	0x3e62535d	0.22102113
197	0x3e16b8ef	0.14718984
198	0xbdcb4fb6	-0.09927313
199	0xbe9ddef8	-0.30834174
200	0x3de42f49	0.111418314
201	0xbdb3963f	-0.087688915
202	0xbdd19a40	-0.10234499
203	0x3ef2ff1b	0.47460255
204	0xbe7e25c2	-0.24819091
205	0x3c7493d7	0.014927826
206	0xbd651adb	-0.055933814
207	0x3e02efe1	0.12786819
208	0x3d73ca75	0.05951925
209	0x3c8638e5	0.016384551
210	0xbe761cfd	-0.24034496
211	0x3d948ea6	0.072537705
212	0x3deb17d6	0.11479156
213	0xbda2c0d5	-0.07946936
214	0x3e893178	0.26795554
215	0xbd0b18a2	-0.03395904
216	0xbdfa83f7	-0.122322015
217	0xbdf36b81	-0.11885739
218	0xbc8d1bea	-0.017225225
219	0xbc09ffe0	-0.008422822
220	0x3e740151	0.23828627
221	0x3e150902	0.14554217
222	0x3e83599d	0.25654307
223	0x3dda3316	0.10654275
224	0x3cdd9d09	0.02705242
225	0xbe315585	-0.1731778
226	0x3e982b96	0.29720753
227	0x3d36ee99	0.04466114
228	0xbe829ec5	-0.25511757
229	0xbec39022	-0.38195902
230	0xbe057f0b	-0.13036744
231	0x3d324620	0.043523908
232	0xbe192941	-0.14957143
233	0x3cc796c7	0.024363888
234	0xbc9dd62a	-0.01926716
235	0x3e23bc38	0.15989769
236	0x3de8fff6	0.11376946
237	0x3e4d578e	0.2005293
238	0xbe632e03	-0.22185521
239	0xbda06a8d	-0.07832823
240	0x3e24658c	0.16054362
241	0x3e9108a1	0.28326896
242	0x3e91c460	0.28470135
243	0x3e7e68ce	0.24844667
244	0xbe8b016b	-0.2714952
245	0xbc21904c	-0.009861063
246	0x3d293bda	0.041316845
247	0x3df5c1c4	0.119998485
248	0x3e2a45e5	0.16628225
249	0x3dd186c6	0.10230784
250	0xbb86d9f8	-0.0041153394
251	0x3e1da4d0	0.15394902
252	0xbef672be	-0.48134416
253	0x3e3db5cd	0.18526383
254	0xbe45e1ed	-0.19324465
255	0x3ea7a435	0.32742468

controller.0.bias f4 [100]
0	0xbdc289d9	-0.094989486
1	0x3de31bf2	0.110893145
2	0x3eb48677	0.3525884
3	0x3eb73503	0.35782632
4	0x3e9cb786	0.30608767
5	0x3e4dcb0a	0.20096985
6	0x3ed22b02	0.41048437
7	0x3e667929	0.22507156
8	0x3eadcfb8	0.3394754
9	0x3ea21e91	0.31663945
10	0xadbee2c1	-2.1701198e-11
11	0x3ec2fe3b	0.38084587
12	0x3e8e904c	0.27844465
13	0x3d9b4a43	0.07582524
14	0x3eb645c9	0.35600117
15	0x3ec7ace3	0.3899909
16	0x3e174329	0.14771713
17	0x3de34b46	0.11098342
18	0x3ea5f914	0.32416594
19	0x3e4a9c41	0.19786169
20	0x3e5df6a8	0.21676123
21	0x3e127bc1	0.14305021
22	0xbc33c28b	-0.010971676
23	0x3e8c5389	0.27407482
24	0x3e2f20a5	0.17102297
25	0xbd632ec7	-0.055464532
26	0x3cfcc0e3	0.030853694
27	0x3e0cc216	0.13745913
28	0x3e2dad2d	0.16960593
29	0x3e924ab4	0.2857262
30	0x3e19e79b	0.15029757
31	0xbe0ffa23	-0.14060263
32	0xb4e230b5	-4.213122e-07
33	0xbda1f14b	-0.07907351
34	0x3ebfc6ad	0.37456265
35	0x3e2964d7	0.16542374
36	0x3e47aa97	0.19498669
37	0x3d88dd54	0.0668284
38	0x3ea7f54d	0.32804337
39	0x3eb059d6	0.3444354
40	0x3ec97f36	0.39354867
41	0x3e8f84ae	0.28030914
42	0x3a741921	0.0009311606
43	0x3eb57f8e	0.3544888
44	0xbe423792	-0.18966511
45	0x3da6463e	0.081188664
46	0x3e9090cc	0.2823547
47	0x3e8c6745	0.27422538
48	0x3a858a38	0.0010188287
49	0x3e8069f8	0.25080848
50	0xb9e7b2d4	-0.0004419299
51	0x3ea2ad08	0.31772637
52	0x3dec805c	0.1154792
53	0x3e189efd	0.14904399
54	0x3eb2f386	0.3495142
55	0x3ee0cb5e	0.43905157
56	0x3d6a372e	0.05718153
57	0x3e81a3e8	0.25320363
58	0x3e8fdf57	0.28100082
59	0x3e84024d	0.25783005
60	0x3e91a1dd	0.28443804
61	0x3c38680a	0.011255274
62	0xbd54b3e8	-0.051929384
63	0x3ec879d3	0.39155445
64	0x3e10005a	0.14062634
65	0x3e8c4775	0.27398267
66	0x3e6cda03	0.2313004
67	0x3ebe8fcd	0.37219086
68	0x3c827223	0.015923565
69	0x3e6c00f1	0.23047234
70	0x3dc6b2ed	0.09702096
71	0x3e644d7a	0.2229518
72	0x3e804709	0.25054196
73	0x3e8aa181	0.27076343
74	0x3db03b79	0.086050935
75	0x3dbf7348	0.0934816
76	0x3e59b67f	0.21261023
77	0x3b8000df	0.003906354
78	0x3eae2028	0.34008908
79	0x3d7c42ae	0.06158703
80	0x3e494101	0.19653703
81	0x3e8c28eb	0.27374968
82	0x3df25c15	0.118339695
83	0xbd8cb8df	-0.06871199
84	0x3e71f1ca	0.23627391
85	0x3df128a3	0.11775329
86	0x3eb0cc6f	0.3453097
87	0x3e913115	0.2835776
88	0x3e5b38e0	0.21408415
89	0x3e0167cb	0.1263725
90	0x3e9ebc59	0.31003073
91	0x3c523b2a	0.012831489
92	0x3e6ad7e6	0.22933921
93	0x3cc7ee2a	0.024405558
94	0x3e3219bc	0.1739263
95	0xbd189d8d	-0.037259627
96	0xbe002095	-0.12512429
97	0x3e635cef	0.2220342
98	0x3e750196	0.23926386
99	0x3dcbdf6c	0.09954724

read_head.key_layer.weight f4 [20, 100]
0	0xbd3696c8	-0.04457739
1	0x3ccea150	0.025223404
2	0xbd98d7da	-0.074630454
3	0xbcbe719b	-0.02324753
4	0xbdbac79f	-0.09120106
5	0xbaa0846e	-0.0012246498
6	0xbdca666a	-0.09882815
7	0x3da5dc5b	0.0809867
8	0xbcf825cb	-0.030291459
9	0xbaa4f1a6	-0.0012584224
10	0x24e3a24c	9.87205e-17
11	0xbdd20c1c	-0.10256216
12	0x3b121dca	0.0022295588
13	0x3cb98776	0.0226476
14	0xbd276da2	-0.04087604
15	0x3d34a943	0.044106733
16	0x3d361259	0.04445109
17	0xbd242520	-0.040074468
18	0x3d8e085d	0.06935189
19	0x3b2e300b	0.0026578929
20	0x3c2aa51b	0.010415341
21	0x3ca5a152	0.020218525
22	0x3d003c81	0.0313077
23	0x3d0b7915	0.03405102
24	0xbd2ef037	-0.042709555
25	0x3d837daa	0.06420453
26	0x3d373bb6	0.04473468
27	0x3c7694b0	0.015050098
28	0xbd59463e	-0.053045504
29	0xbc814983	-0.015782123
30	0xbc1764f6	-0.00924038
31	0x3da1bdab	0.078975044
32	0xb3f7e94d	-1.1544271e-07
33	0x3c07ffae	0.008300705
34	0xbd5c7a7e	-0.053827755
35	0x3c59b1fb	0.013287063
36	0x3d2b3e9a	0.04180775
37	0xbd48dbf3	-0.049037885
38	0x3d11c9d8	0.035592884
39	0xbd3deca7	-0.046368267
40	0x3d92321c	0.07138464
41	0xbcbc9a58	-0.023022816
42	0xbcc218eb	-0.023693522
43	0x3de26e6a	0.11056216
44	0xbcdc604e	-0.02690139
45	0x3d7cd055	0.06172212
46	0x3ce8de25	0.02842624
47	0xbd96b5fa	-0.07358928
48	0xb82ca031	-4.1157185e-05
49	0xbca9c84b	-0.02072539
50	0x3cee7e4f	0.029112963
51	0xbd2d1db2	-0.042264648
52	0x3d8b3f71	0.0679921
53	0xbca8011d	-0.020508343
54	0xbd8d2ad1	-0.06892932
55	0xbd46198a	-0.0483642
56	0x3bcbc9cf	0.006219126
57	0xbd104351	-0.035220448
58	0x3c7e9584	0.015538577
59	0xbcf8043b	-0.030275455
60	0xbccbfe68	-0.024901584
61	0x3dbfbbb0	0.093619704
62	0x3d0b8514	0.03406246
63	0xbd0b2a6f	-0.033976015
64	0x3cd6df69	0.026229577
65	0xbda171a6	-0.07883005
66	0x3c1491e1	0.009067983
67	0x3d1844d0	0.037175
68	0xbd2664e3	-0.040623557
69	0xbd038ae7	-0.03211489
70	0x3da74412	0.0816728
71	0x3c3b5a14	0.0114350505
72	0x3dba4fec	0.09097275
73	0xbd594696	-0.05304583
74	0xbb4fee12	-0.0031727594
75	0x3b7faf3a	0.0039014355
76	0x3d3fa781	0.046790604
77	0xbc33b0f3	-0.010967481
78	0xbd9e99ab	-0.077441536
79	0xbd8eac8c	-0.069665045
80	0xbc8748f9	-0.016514288
81	0x3d923530	0.07139051
82	0x3de850a6	0.113435075
83	0xbd0acc52	-0.03388626
84	0x3c67bf7d	0.014144775
85	0x3d3f077c	0.046637997
86	0x3ce1c35d	0.027558977
87	0x3d9fb53d	0.0779824
88	0x3c423bbb	0.011855061
89	0xbd810d8b	-0.06301411
90	0xbd3ea0c5	-0.04654004
91	0x3cd58412	0.026063953
92	0x3de8eb88	0.11373049
93	0xbdfec0bc	-0.12439105
94	0xbd3df747	-0.0463784
95	0x3c601976	0.013677945
96	0x3da96d49	0.082727976
97	0x3cd41053	0.02588669
98	0xbd92997d	-0.07158182
99	0xbc82a996	-0.015950006
100	0x3d08413b	0.033265334
101	0xbda61117	-0.081087284
102	0xbd13f612	-0.036123343
103	0x3ba9511a	0.0051671388
104	0xbc24bc07	-0.010054595
105	0xbbfab45e	-0.007650896
106	0xbd87846e	-0.06617056
107	0x3dfe11cb	0.124057375
108	0x3cecbaca	0.028897662
109	0xbc0acea2	-0.008472117
110	0x24666cf9	4.9965603e-17
111	0xbd62ec09	-0.055400882
112	0xbdcd93e1	-0.10037971
113	0x3b10b227	0.0022078843
114	0x3d14bfd3	0.03631575
115	0xbdb01197	-0.08597105
116	0x3da6bc76	0.08141415
117	0x3da660c6	0.08123927
118	0x3d417c58	0.047237724
119	0x3d15944d	0.036518384
120	0x3c656a34	0.014002372
121	0xbda00283	-0.07812979
122	0x3dd78e50	0.10525191
123	0xbcdc125e	-0.026864227
124	0x3d8f9b78	0.07012075
125	0x3c3c2198	0.011482619
126	0x3c210869	0.009828665
127	0x3b4b412a	0.0031014183
128	0x3d83cba9	0.064353295
129	0xbd72f4ad	-0.059315372
130	0x3c9111b9	0.017708646
131	0xbd4efd98	-0.050534815
132	0xb3978677	-7.0559445e-08
133	0x3da4064d	0.08009014
134	0xbd49a043	-0.049225103
135	0xbd0cafe1	-0.03434742
136	0xbd236460	-0.039890647
137	0x3d2e9fa5	0.042632718
138	0xbd3186a9	-0.043341313
139	0x3d98bb69	0.07457621
140	0xbccb7fcc	-0.024841212
141	0xbcc7ee5f	-0.024405656
142	0xbd50b06f	-0.05094951
143	0xba9099a9	-0.0011032122
144	0x3c7bc24c	0.015366148
145	0x3d6b6865	0.057472605
146	0x3d2596a8	0.04042688
147	0x3cb41225	0.021981308
148	0x3d81dd03	0.06340983
149	0x3d00bd0a	0.03143028
150	0x3db0fec1	0.086423405
151	0xbda63db8	-0.08117241
152	0x3d9871c2	0.074435726
153	0x3d9e5237	0.07730525
154	0xbdf99998	-0.12187499
155	0xbd9a350e	-0.07529651
156	0x3c51165a	0.012761677
157	0xbca9b46a	-0.020715911
158	0xbd948fc0	-0.07253981
159	0x3b0f567b	0.0021871615
160	0xbb1550f9	-0.002278386
161	0xbc963840	-0.018337369
162	0x3d887b6e	0.06664167
163	0xbace6397	-0.0015746233
164	0x3cc81856	0.024425667
165	0xbda8eb07	-0.08247953
166	0xbbbef09e	-0.0058270236
167	0xbd2b2aab	-0.04178874
168	0xbd77db75	-0.060512025
169	0xbb56d7bb	-0.0032782394
170	0x3dccb899	0.09996147
171	0x3cee597a	0.0290954
172	0x3d1d78ce	0.038445286
173	0xbd5852eb	-0.05281345
174	0x3d15df45	0.03658988
175	0x3cd53abc	0.026028983
176	0xbda8e5b3	-0.08246937
177	0x3c86efb0	0.016471714
178	0x3d225c8f	0.039639052
179	0x3d0dc9bc	0.034616217
180	0x3d0f482d	0.03498094
181	0xbde1f7c4	-0.11033586
182	0x3d01ffda	0.03173814
183	0xbd3f1cee	-0.04665845
184	0xbc807118	-0.015678927
185	0x3ca21c31	0.019788833
186	0xbda545dd	-0.08069966
187	0xbd3aded9	-0.04562268
188	0xbd47c060	-0.048767447
189	0x3d5c1307	0.053729083
190	0x3ccbcd13	0.02487806
191	0x3d5eb4b1	0.05437154
192	0xbdcb9a9b	-0.09941598
193	0xbe4f7a70	-0.2026155
194	0xbdcb0269	-0.09912569
195	0x3dc8ffd1	0.09814418
196	0x3d90dea3	0.070737146
197	0x3c3b4510	0.01143004
198	0x3ce1d3cb	0.027566811
199	0x3cb4d314	0.022073306
200	0xbc792eea	-0.015208939
201	0x3d23da22	0.04000295
202	0xbd65eb0b	-0.056132358
203	0x3d961b05	0.07329372
204	0x3b3978af	0.0028300693
205	0xb931ccf7	-0.00016956391
206	0x3ca47ee7	0.020080043
207	0xbc94dd81	-0.018172028
208	0x3d95c25c	0.07312462
209	0xbd5287cf	-0.05139905
210	0xa5753bf3	-2.1270674e-16
211	0xbd7e6e89	-0.062117133
212	0x3d83dec0	0.064389706
213	0x3d38343b	0.044971686
214	0xbd0186a4	-0.031622544
215	0x3dcc029c	0.09961435
216	0xbd7fbe66	-0.062437437
217	0xbd344bde	-0.044017665
218	0x3baa1ffd	0.0051918016
219	0xbc9b69cf	-0.018971352
220	0x3caa9052	0.02082077
221	0x3d49476b	0.049140375
222	0xbd927c13	-0.071525715
223	0x3cbeaac8	0.023274794
224	0xbd6a0a41	-0.057138685
225	0xbd301d68	-0.042996794
226	0x3c35e676	0.011102309
227	0xbbcb2234	-0.0061991457
228	0x3d267ab0	0.040644348
229	0x3c018a6a	0.007906536
230	0xbd21f228	-0.03953758
231	0xba336c86	-0.00068444794
232	0x3499980b	2.8609097e-07
233	0xbdc80b17	-0.0976774
234	0x3d7e6555	0.062108357
235	0x3c1f7396	0.009732148
236	0xbba99e45	-0.005176338
237	0xbc902605	-0.017596254
238	0x3d8bb6e8	0.06821996
239	0xbb41de91	-0.0029582123
240	0x3da681d3	0.08130231
241	0x3d2795e0	0.040914416
242	0xbcbf45d0	-0.023348719
243	0x3cfed95d	0.031109506
244	0x3b1c5317	0.0023853236
245	0x3c64a78f	0.013955965
246	0x3cd89292	0.026437078
247	0x3be60711	0.0070198854
248	0xbd9d8ab1	-0.07692469
249	0xbc6f3005	-0.014598851
250	0x3c634ad0	0.013872817
251	0x3bf43aa0	0.0074532777
252	0x3cdb96c6	0.026805293
253	0x3d5abfff	0.053405758
254	0xbc5f89b8	-0.013643675
255	0xbd6a446a	-0.05719415

read_head.key_layer.bias f4 [20]
0	0xbe1c97e7	-0.15292321
1	0xbdf18a73	-0.11793985
2	0x3e12f0eb	0.14349715
3	0x3d441c24	0.0478784
4	0x3c586798	0.013208292
5	0x3e0231e5	0.12714346
6	0xbe1c9e11	-0.15294673
7	0xbe216ab2	-0.15763357
8	0x3d497c65	0.049190897
9	0x3dfd13f2	0.1235732
10	0xbd91b4a8	-0.071145356
11	0x3debb8a4	0.11509827
12	0xbd643050	-0.055710137
13	0xbd34a5dd	-0.044103492
14	0x3e131d07	0.14366542
15	0x3df76193	0.12079158
16	0x3ce37892	0.027767453
17	0x3d2123bf	0.03934073
18	0x3d54ae43	0.051924
19	0xbd0bc2c7	-0.0341213

read_head.beta_layer.weight f4 [1, 100]
0	0x3e2186a3	0.15774016
1	0x3e8db59a	0.27677613
2	0x3e675b53	0.22593431
3	0x3e83815b	0.25684628
4	0x3e96fd80	0.2949028
5	0x3e88105b	0.26574978
6	0x3e438f72	0.19097689
7	0x3e75b604	0.23995215
8	0x3e8f3771	0.27971986
9	0x3e36499e	0.1780152
10	0x2562673f	1.9637356e-16
11	0x3ea82e39	0.32847765
12	0x3ec9a0d7	0.39380524
13	0x3e959b47	0.2922003
14	0x3ea476ed	0.32121983
15	0x3e916e8d	0.28404656
16	0x3e9d8b81	0.30770496
17	0x3e9860c9	0.2976134
18	0x3e329ed2	0.17443398
19	0x3e7b61ae	0.2454898
20	0x3e94302c	0.28943002
21	0x3eab8550	0.33500147
22	0x3e81b6ca	0.2533477
23	0x3e8d8c9b	0.27646336
24	0x3ea45eeb	0.32103667
25	0x3e4ecb93	0.20194845
26	0x3e4e7f06	0.20165643
27	0x3e969ba3	0.29415616
28	0x3e5fac16	0.2184299
29	0x3e8830fb	0.2659987
30	0x3e82950d	0.25504342
31	0x3e0803e6	0.13282737
32	0x33540be0	4.9370897e-08
33	0x3e5d797b	0.21628372
34	0x3ea358fd	0.3190383
35	0x3ea741bb	0.32667336
36	0x3e9d9aa3	0.3078204
37	0x3e77d737	0.24203192
38	0x3e8d94ed	0.27652684
39	0x3ea78540	0.3271885
40	0x3e993a62	0.29927355
41	0x3ec6c591	0.38822606
42	0x3e306786	0.17226991
43	0x3eaf10cf	0.3419251
44	0x3e1f9bfe	0.1558685
45	0x3e339f65	0.17541273
46	0x3e322024	0.17395073
47	0x3ea07c1a	0.31344682
48	0x3ea1ef07	0.31627676
49	0x3e80518d	0.25062218
50	0x3e946812	0.2898565
51	0x3e6fe6e6	0.23427925
52	0x3ea1c454	0.315951
53	0x3e87cdeb	0.2652429
54	0x3e9e495e	0.3091535
55	0x3e98ff28	0.2988217
56	0x3e4c0f81	0.1992779
57	0x3e5abb61	0.21360542
58	0x3e43e269	0.19129337
59	0x3ea7a3c0	0.3274212
60	0x3e8f0578	0.2793386
61	0x3e89601c	0.26831138
62	0x3e65aad4	0.22428447
63	0x3e9725ba	0.2952097
64	0x3e2fd79a	0.17172089
65	0x3e9c439d	0.30520335
66	0x3e59adf5	0.21257766
67	0x3e67301b	0.22576945
68	0x3e466ef3	0.19378261
69	0x3eab7691	0.33488896
70	0x3e97259a	0.29520875
71	0x3ec1c18a	0.3784297
72	0x3eb382cf	0.35060737
73	0x3eaf7a8a	0.34273177
74	0x3e7d2efb	0.24724953
75	0x3e8fd690	0.28093386
76	0x3e7f9364	0.24958569
77	0x3e28d1b0	0.1648624
78	0x3e9e2f33	0.30895385
79	0x3e41460c	0.18874377
80	0x3eaa1ee8	0.33226705
81	0x3e25caa5	0.16190584
82	0x3e6d9604	0.23201758
83	0x3e58d798	0.21175992
84	0x3e81733b	0.25283226
85	0x3e7e4271	0.24830033
86	0x3e9be878	0.30450797
87	0x3e7a1bfb	0.24424736
88	0x3e837d3a	0.25681478
89	0x3e5f2251	0.21790434
90	0x3eb21480	0.34781265
91	0x3e167a9e	0.14695212
92	0x3e4663e9	0.1937405
93	0x3e48c07a	0.19604674
94	0x3e89fe83	0.2695199
95	0x3e246db5	0.16057475
96	0x3e4214f3	0.18953304
97	0x3e6d1213	0.23151426
98	0x3ea58ea9	0.32335404
99	0x3eafb293	0.3431593

write_head.key_layer.weight f4 [20, 100]
0	0xbd9f0711	-0.0776502
1	0xbd9b953a	-0.07596822
2	0xbd8d1841	-0.06889392
3	0xbca4120d	-0.020028139
4	0xbc482510	-0.012215868
5	0xbbd9b22b	-0.0066435537
6	0x3d6a12c2	0.057146795
7	0x3c31e8b9	0.010858708
8	0xbd283b9d	-0.041072477
9	0x3c6a7884	0.01431096
10	0xa306712b	-7.288119e-18
11	0xbcf2a8c8	-0.029621497
12	0xbd027524	-0.031849995
13	0xbd4b5cb3	-0.04964895
14	0xbce24120	-0.027618945
15	0x3cf232de	0.029565271
16	0xbcc3b609	-0.023890512
17	0xbcce8aa9	-0.025212603
18	0xbc48197a	-0.012213105
19	0xbd3c0cc4	-0.04591061
20	0x3b8b2d55	0.0042473474
21	0x3c5f6439	0.013634735
22	0xbdccf695	-0.10007969
23	0xbb29c5bc	-0.0025905212
24	0xbd31a25b	-0.043367725
25	0xbd526229	-0.051363144
26	0xbd226464	-0.03964652
27	0xbc8447b8	-0.01614748
28	0xbcea0ef3	-0.028571581
29	0xbc9431a2	-0.018090073
30	0xbcf43067	-0.029808236
31	0x3be558e6	0.006999123
32	0xb2d34f66	-2.459974e-08
33	0xbd22ffff	-0.03979492
34	0xbd92271e	-0.07136367
35	0xbc3ddd78	-0.011588447
36	0x3c2cb826	0.010541951
37	0xbd46369e	-0.04839193
38	0xbcbbeb3b	-0.022939315
39	0x3cb64760	0.022250831
40	0xbcc03d9c	-0.023466878
41	0x3cff4963	0.031162923
42	0xbd8769c5	-0.06611971
43	0xbd2fb4c9	-0.04289702
44	0xbd4baaa9	-0.0497233
45	0xbc55a47b	-0.0130397035
46	0x3b1835db	0.002322546
47	0xbc3efe9c	-0.011657383
48	0xbd9fb302	-0.07797815
49	0xbb9ac1cd	-0.00472281
50	0xbc8833ea	-0.016626317
51	0xbbabe549	-0.005245839
52	0xbcc9f717	-0.024653954
53	0xbd8c7114	-0.068575054
54	0x3b50f1e0	0.003188245
55	0xbd81bc5b	-0.06334754
56	0xbc8e17f9	-0.017345415
57	0xbcc19795	-0.02363185
58	0xbd1e24fc	-0.03860949
59	0xbc090ad7	-0.008364401
60	0xbaf648fa	-0.0018790059
61	0xbcdaf310	-0.02672723
62	0xbd049869	-0.032371912
63	0xbd535521	-0.051594857
64	0xbc2f5fa7	-0.010703958
65	0xbd585724	-0.05281748
66	0x3c9d77ed	0.019222224
67	0x3d1d2639	0.03836653
68	0xbd889863	-0.066696905
69	0xbca41115	-0.020027677
70	0xbd9d330d	-0.07675753
71	0x3b3e50fe	0.0029039974
72	0xbce8f5b5	-0.028437475
73	0x3d2abde3	0.041684996
74	0x3c6db0ea	0.014507512
75	0xbccb3daf	-0.024809686
76	0xbd4d1828	-0.050071865
77	0xbd84e1ed	-0.064884044
78	0xbcae4a47	-0.021275653
79	0xbd515529	-0.051106606
80	0xbcf23bea	-0.029569585
81	0x3a97b4aa	0.0011574228
82	0x3b34fe75	0.0027617489
83	0xbca5ca12	-0.020237956
84	0xbcaae2e3	-0.020860141
85	0xbd29936d	-0.04140036
86	0xbc99cfdd	-0.018775875
87	0x3ba09875	0.004900987
88	0xbcc5911d	-0.024117047
89	0xbd6be3d4	-0.05759032
90	0xbd306abb	-0.043070536
91	0xbcf96f7b	-0.030448666
92	0xbc3c6bde	-0.011500327
93	0xbd7765cb	-0.06039981
94	0xbd211e27	-0.039335396
95	0xbd2e3ab6	-0.04253646
96	0xbd1abb98	-0.03777656
97	0xbcb13abf	-0.021634458
98	0xb7ae4514	-2.0774583e-05
99	0xbd87916d	-0.06619535
100	0xbce1dd0b	-0.027571222
101	0xbd7ad46c	-0.061237738
102	0xbc72c4f6	-0.014817467
103	0xbda5c303	-0.08093836
104	0xbb4bd006	-0.0031099333
105	0x3cf468f7	0.029835207
106	0x3c9aa366	0.018876743
107	0xbd4d71e7	-0.050157454
108	0xbd5c97b7	-0.053855624
109	0x3c8e33c3	0.017358666
110	0xa64526ac	-6.8400515e-16
111	0xbc28f54c	-0.01031239
112	0x3b37d354	0.0028049545
113	0x3c75f25d	0.015011397
114	0xbc9a370b	-0.018825075
115	0xbd402cc6	-0.0469177
116	0xbd2e4577	-0.042546716
117	0xbcb9e5d1	-0.022692593
118	0x3c0f8c6d	0.008761507
119	0xbc7f59ad	-0.015585345
120	0xbcc2efe8	-0.023796037
121	0xb94780ea	-0.00019026143
122	0xbca9e56c	-0.02073928
123	0xbc6130f4	-0.0137445815
124	0xba767324	-0.00094013126
125	0xbce749ee	-0.028233495
126	0xbcb02558	-0.021502182
127	0x3d0574dd	0.032582153
128	0xbd11c42d	-0.03558748
129	0x3c0c0a52	0.008547382
130	0x3c75df69	0.015006878
131	0xbd3d5696	-0.046225153
132	0x30a409fc	1.1935408e-09
133	0x3b691a84	0.0035568783
134	0xbca96ef9	-0.020682799
135	0x3c331277	0.010929695
136	0xbca6d2ed	-0.02036425
137	0x39bc053d	0.00035862057
138	0x3c37e907	0.011224992
139	0xbd69aedd	-0.05705153
140	0xbd164a89	-0.036692176
141	0x3bc85d0f	0.006114609
142	0xbc977ca9	-0.01849206
143	0xbd7b9bea	-0.061427988
144	0xbcc8421e	-0.02444559
145	0xbad3e2f1	-0.0016165656
146	0xbc7624b8	-0.015023403
147	0x3c39c953	0.011339503
148	0x3cc28c8c	0.023748659
149	0x3ab05ed2	0.0013455993
150	0x3b2bc379	0.002620904
151	0xbb82c87b	-0.0039911843
152	0xbb14517d	-0.0022631579
153	0x3b6e6587	0.0036376433
154	0xbca3dfe8	-0.020004228
155	0x3c26c367	0.0101784235
156	0x3cc53152	0.02407137
157	0xbc5e7dae	-0.013579769
158	0x3c3ed364	0.011647079
159	0x3cce0c26	0.025152277
160	0xbba809cd	-0.0051281215
161	0xbcb64e54	-0.022254147
162	0xbc3c052a	-0.011475841
163	0xbd04a2cb	-0.032381814
164	0x3c42615d	0.0118640335
165	0xbb6d8ee4	-0.00362485
166	0xbcf662bd	-0.030076379
167	0xbc4aa7d3	-0.012369114
168	0x3d92172a	0.071333244
169	0xba92d999	-0.0011203765
170	0xbc6f37f0	-0.014600739
171	0xbce28ff9	-0.027656542
172	0xbbd5a1a8	-0.006519515
173	0x3cc096ba	0.023509372
174	0xbcffcb2d	-0.031224811
175	0x3cfe61bc	0.031052463
176	0x3c2e979d	0.010656265
177	0x3cb1afa9	0.021690207
178	0xbd0d087f	-0.03443193
179	0xbcd775be	-0.026301261
180	0xbcd9ecfa	-0.026602257
181	0xbd539d60	-0.051663756
182	0xbcfdae4e	-0.030966904
183	0xbd263d67	-0.0405859
184	0x3a619175	0.00086047436
185	0xbcb0e3f4	-0.021593072
186	0xbd72cd3f	-0.05927777
187	0x3c9ae085	0.018905887
188	0xbc825c1d	-0.015913064
189	0x3c238ba7	0.009982026
190	0xbc316295	-0.010826726
191	0xbc88ea22	-0.016713206
192	0x3c974670	0.018466204
193	0xbd16b92b	-0.036797684
194	0x3b95204a	0.0045509683
195	0x3cb4d684	0.022074945
196	0x3cd96151	0.026535662
197	0xbcde30cc	-0.027122878
198	0x3ca1cf42	0.019752149
199	0xbcb9ad05	-0.02266551
200	0x3a43e44a	0.00074726774
201	0x3da68839	0.08131451
202	0x3d5418dd	0.051781524
203	0x3d5a3724	0.053275242
204	0x3cca527a	0.024697531
205	0x3d5f1365	0.054461855
206	0x3d19e06d	0.037567545
207	0x3c323e87	0.0108791655
208	0x3dcd15d4	0.10013929
209	0x3d386128	0.04501453
210	0xa6a5a9ff	-1.1495252e-15
211	0x3d61eaa4	0.05515541
212	0x3d5c2633	0.053747367
213	0x3cb5e0a8	0.022201851
214	0x3d6d9b84	0.05800964
215	0x3d78e2b6	0.060763083
216	0x3d72f9ce	0.059320264
217	0x3c009e99	0.007850313
218	0x3dd9e5d7	0.106395416
219	0x3c19d2d3	0.009388643
220	0x3c9d82b9	0.019227372
221	0x3d1a61bd	0.037690867
222	0x3d697627	0.056997444
223	0x3d31607f	0.043304916
224	0x3d2eda8b	0.042688888
225	0x3d3e53f9	0.0464668
226	0x3ce2f1c6	0.027703177
227	0x3d07a9e7	0.033121016
228	0x3c0895ae	0.008336468
229	0x3d4bdaa7	0.04976907
230	0x3d5ecd96	0.05439528
231	0x3cc49727	0.023997856
232	0xb39cde40	-7.304743e-08
233	0x3c58aadd	0.013224331
234	0x3d1c6fd1	0.038192574
235	0x3db8c1a0	0.09021306
236	0x3d5b09cb	0.053476136
237	0x3c5964a3	0.013268623
238	0x3d27efbf	0.041000124
239	0x3c831874	0.016002871
240	0x3dd20477	0.10254758
241	0x3d0556ae	0.032553367
242	0x3c099077	0.0083962595
243	0x3e0bb667	0.136438
244	0xbc4a3229	-0.012341061
245	0x3d37aa2e	0.04484003
246	0x3d74dbd6	0.059779964
247	0x3da3de2e	0.08001362
248	0x3d527992	0.05138547
249	0x3de99e2b	0.11407121
250	0xbbef6780	-0.0073060393
251	0x3d8b2ad7	0.067952804
252	0x3d7f8784	0.062385097
253	0x3cc5c84d	0.024143362
254	0x3e1210b2	0.14264181
255	0xbc1f5c1f	-0.009726553

write_head.key_layer.bias f4 [20]
0	0x3d85464e	0.0650755
1	0xbd9489ea	-0.072528675
2	0x3ded01d9	0.11572618
3	0x3d8b98cc	0.06816253
4	0xbd4ef5d3	-0.050527405
5	0xbd6625de	-0.056188457
6	0xbd74702f	-0.0596773
7	0x3d6a4c67	0.05720177
8	0xbd9d2405	-0.07672886
9	0x3d875da3	0.06609657
10	0x3c177bae	0.009245796
11	0x3d1bbf28	0.038024098
12	0xbd66bc2a	-0.05633179
13	0x3c09e2cf	0.008415892
14	0x3de5b1cd	0.112155534
15	0xbcde4b4b	-0.027135512
16	0x3b43f456	0.0029900274
17	0x3d68ca16	0.05683335
18	0x3dceee1f	0.10104012
19	0x3d6db272	0.058031507

write_head.beta_layer.weight f4 [1, 100]
0	0x3e3584fd	0.17726512
1	0x3e73d01c	0.23809856
2	0x3e6ea67e	0.23305699
3	0x3ea47a2b	0.32124457
4	0x3e746db7	0.23869978
5	0x3e718fdc	0.23590034
6	0x3e7a1970	0.24423766
7	0x3e73041b	0.23732035
8	0x3e851a4f	0.25996634
9	0x3e98cbc0	0.2984295
10	0xa911d837	-3.2384004e-14
11	0x3e782e14	0.24236327
12	0x3e870176	0.26368302
13	0x3e7f79cb	0.24948804
14	0x3ea66cd6	0.3250491
15	0x3e80774d	0.2509102
16	0x3e9c74d4	0.30557883
17	0x3e944c94	0.28964674
18	0x3e9617f3	0.29315147
19	0x3e6822f1	0.22669579
20	0x3e837839	0.2567766
21	0x3e973120	0.29529667
22	0x3e2e227a	0.1700534
23	0x3e8abf92	0.27099282
24	0x3e667918	0.22507131
25	0x3e5f6677	0.21816431
26	0x3e23a77f	0.15981863
27	0x3e856f28	0.26061368
28	0x3e807a51	0.2509332
29	0x3e8fe075	0.28100935
30	0x3e841be0	0.25802517
31	0x3e725396	0.23664698
32	0x3315b58c	3.4856882e-08
33	0x3e43b6ae	0.19112656
34	0x3e75c241	0.23999883
35	0x3e9744c2	0.29544646
36	0x3e8272ab	0.2547811
37	0x3e62d009	0.22149672
38	0x3ea1e054	0.3161646
39	0x3e76d47e	0.24104497
40	0x3e9d7051	0.30749753
41	0x3e6c3782	0.2306805
42	0x3e8c5112	0.27405602
43	0x3e7cf865	0.2470413
44	0x3e5add6b	0.21373527
45	0x3e6d9c42	0.23204139
46	0x3e9e27d2	0.30889755
47	0x3e94ab03	0.29036722
48	0x3e5b9fe0	0.21447706
49	0x3e86e95a	0.26349908
50	0x3e5d2fcd	0.21600266
51	0x3e932d98	0.28745723
52	0x3e784a5b	0.24247114
53	0x3e82f264	0.25575554
54	0x3e7ca13a	0.24670878
55	0x3e8dad1e	0.2767114
56	0x3e520d72	0.20512941
57	0x3e90febd	0.2831935
58	0x3e903b87	0.28170416
59	0x3e6516b8	0.22371948
60	0x3e92a44b	0.2864097
61	0x3e7c3466	0.24629363
62	0x3e77aada	0.24186268
63	0x3e9065ce	0.2820267
64	0x3e485f93	0.19567709
65	0x3e4a8bbd	0.19779868
66	0x3e4f638a	0.20252815
67	0x3e8930ea	0.2679513
68	0x3e39a8a9	0.18130745
69	0x3e798f49	0.24371065
70	0x3e9e57bd	0.30926314
71	0x3e4e4365	0.20142896
72	0x3e683397	0.2267593
73	0x3e9ed6ed	0.3102335
74	0x3e7e868f	0.24856018
75	0x3e7f0f21	0.24908115
76	0x3e710bf9	0.23539723
77	0x3e23412d	0.15942831
78	0x3e4882a2	0.19581082
79	0x3e7e642d	0.24842902
80	0x3e8b310b	0.27185854
81	0x3e6d63fa	0.2318267
82	0x3e7f194d	0.24911995
83	0x3e90cc28	0.2828076
84	0x3e80be36	0.2514512
85	0x3e7c0d57	0.24614464
86	0x3e9cac38	0.30600142
87	0x3e8639f3	0.26216087
88	0x3e8b57f6	0.27215546
89	0x3e7b08f0	0.24515128
90	0x3e7ea64d	0.24868126
91	0x3e3d7ed7	0.18505417
92	0x3e5f7ee7	0.21825753
93	0x3e707db9	0.2348546
94	0x3e4dafa7	0.20086537
95	0x3e6135a5	0.2199312
96	0x3e371174	0.17877752
97	0x3e82becd	0.25536194
98	0x3e7ce7f5	0.2469786
99	0x3e8cc4bb	0.27493843

write_head.erase_layer.weight f4 [20, 100]
0	0xbb95b90f	-0.00456918
1	0x3d964e09	0.07339103
2	0xbbd0a0fd	-0.0063668475
3	0xbc0c8091	-0.0085755745
4	0x3cd64eab	0.026160559
5	0x3ca7bb52	0.020475063
6	0x3c756352	0.014977293
7	0xbbd54864	-0.006508874
8	0x3cb56b85	0.022145996
9	0x3d241c10	0.040065825
10	0x22648518	3.0970221e-18
11	0x3d077a5e	0.033075683
12	0xba9f08c7	-0.0012133353
13	0x390cf825	0.00013443881
14	0x3ccb8fbe	0.024848815
15	0x3d120d8b	0.035657447
16	0xbc0f62c2	-0.008751573
17	0xbc816455	-0.015794912
18	0x3d16d5c4	0.036824957
19	0x3c7e53c1	0.015522898
20	0x3c3df6bf	0.011594473
21	0xbad3c252	-0.0016155934
22	0xbb3ca106	-0.00287825
23	0xbc5c6b5f	-0.013453334
24	0x3b5eb773	0.0033983856
25	0xbbb4da90	-0.0055192187
26	0xbb14701e	-0.0022649835
27	0xbaf5f2b3	-0.0018764347
28	0x3bdd2b80	0.0067495704
29	0x3cd11edc	0.02552741
30	0x3bbf4981	0.00583762
31	0xbbe69727	-0.0070370617
32	0x30cb1442	1.4775952e-09
33	0xbb965896	-0.004588197
34	0xbc5e13a3	-0.013554486
35	0xbbdac6c7	-0.006676528
36	0x3c185dd0	0.00929971
37	0xbcc7d77b	-0.024394741
38	0xbc4489ad	-0.011995715
39	0xbb9cf218	-0.004789602
40	0xbc5e5387	-0.013569719
41	0x3cabfbf0	0.020994157
42	0xbc630f9b	-0.013858701
43	0x3c6020ff	0.013679742
44	0xbcca5d6d	-0.024702752
45	0x3c2509a2	0.010073097
46	0x3c66e8e6	0.014093613
47	0x3cdefd1d	0.027220303
48	0xbb099049	-0.0020990542
49	0x3cdc98d9	0.026928352
50	0xbbe748fe	-0.007058262
51	0x3c5bfbc3	0.013426724
52	0xbb7aef63	-0.0038289658
53	0xbccdb28d	-0.025109554
54	0x3c36b4c6	0.011151498
55	0xbc3a82b8	-0.011383705
56	0x3b33a693	0.0027412518
57	0x38276c20	3.9916602e-05
58	0x3c2e2541	0.010628999
59	0x3cf75158	0.030190155
60	0x3c6e4946	0.014543837
61	0xbc5c9c4f	-0.013465001
62	0xbca10acd	-0.01965847
63	0x3cf1fa8f	0.029538421
64	0xbb19313f	-0.00233753
65	0x3bbc071a	0.0057381513
66	0xbc58dfd7	-0.013236961
67	0x3b627f40	0.003456071
68	0x3c71c0c9	0.014755436
69	0x3d6bc359	0.057559345
70	0xbca4c69c	-0.020114236
71	0xbbedd9c4	-0.0072586257
72	0xbcac24c4	-0.021013625
73	0x3c6d1ae1	0.01447174
74	0xbb846bff	-0.0040411945
75	0x3c5b6d5e	0.013392774
76	0x3cd6687c	0.026172869
77	0xba620cc5	-0.00086231186
78	0xbce61dfb	-0.028090468
79	0xbcb99032	-0.022651765
80	0x3b565ace	0.0032707932
81	0x3d3aaaf4	0.04557319
82	0xbb300585	-0.0026858759
83	0xbccc6f26	-0.024955343
84	0x3c25715a	0.010097826
85	0x3981980a	0.00024718075
86	0x3c20db74	0.009817947
87	0xbbf75e07	-0.0075490507
88	0xbbd03a3a	-0.0063545974
89	0xbc8e8f39	-0.017402278
90	0xbb6da243	-0.0036260046
91	0xbc46c6e9	-0.012132385
92	0xbba13a56	-0.0049202843
93	0x3decb6f5	0.11558334
94	0x3d421107	0.04737952
95	0xbbf2f60b	-0.0074145845
96	0xbca20b8d	-0.019780898
97	0xbb28803c	-0.00257112
98	0xbc824974	-0.015904166
99	0xbbe64291	-0.0070269783
100	0xbd284b39	-0.041087363
101	0xbc57d9d6	-0.013174495
102	0xbd766e4e	-0.06016379
103	0xbd2dd120	-0.042435765
104	0xbc95458b	-0.018221637
105	0xbc19c11a	-0.009384418
106	0xbc5b2762	-0.013376089
107	0xbd37a0e0	-0.044831157
108	0xbcf0e084	-0.029403932
109	0xbb3bd12e	-0.0028658616
110	0xa403d44b	-2.8585916e-17
111	0xbc9d9960	-0.019238174
112	0xba046881	-0.00050509727
113	0xbd768684	-0.060186878
114	0xbc9cdd07	-0.019148363
115	0x3b07b749	0.0020708612
116	0xbd86b2a8	-0.06577045
117	0xbd6154e6	-0.055012606
118	0xbc497941	-0.012296976
119	0xbd144551	-0.036198918
120	0xbcf9110d	-0.030403638
121	0x3c186e12	0.009303587
122	0xbd677980	-0.056512356
123	0xbd47a8a0	-0.048744798
124	0xbd32ca8c	-0.043650195
125	0xbd0d5237	-0.034502234
126	0xbd29f6c0	-0.041495085
127	0xbced30ad	-0.028953874
128	0xbd3658ad	-0.04451816
129	0xbc9453e7	-0.018106414
130	0xbd3d78be	-0.046257727
131	0xbd1a6c6b	-0.03770105
132	0xb08af17b	-1.0109454e-09
133	0xbd73378c	-0.059379146
134	0xbd401cb6	-0.04690238
135	0xbcb780c6	-0.022400271
136	0xbd1568d7	-0.036476936
137	0xbd2bb546	-0.041920923
138	0xbcb7f9d4	-0.022457995
139	0xbd6f7379	-0.058459733
140	0xbd3bbbc9	-0.045833383
141	0x3ca70839	0.020389663
142	0xbd31b01f	-0.043380853
143	0xbd41188c	-0.04714255
144	0xbd7ff8a9	-0.062493
145	0xbce00ab9	-0.027348863
146	0xbd00b85d	-0.031425823
147	0xbc3b0f1d	-0.0114171775
148	0xbd31feec	-0.043456003
149	0xbc68bd13	-0.014205235
150	0xbd6b1286	-0.057390712
151	0xbc261b50	-0.010138348
152	0xbd54479c	-0.051826105
153	0xbd9c006d	-0.07617269
154	0xbd3b1a1e	-0.045679204
155	0xbd4a0029	-0.04931656
156	0xbd51656f	-0.051122125
157	0xbd0a2428	-0.033725888
158	0xbccfaebc	-0.025351875
159	0xbd265c97	-0.040615644
160	0xbc969b37	-0.01838456
161	0xbd660482	-0.056156643
162	0xbd581c15	-0.052761156
163	0xbcf31cc1	-0.029676797
164	0xbd20c367	-0.03924885
165	0xbc7d7b02	-0.015471222
166	0xbd2c6477	-0.042088
167	0xbcce2b00	-0.025166988
168	0x3b87d863	0.0041456684
169	0xbc2649a1	-0.01014939
170	0xbd92da62	-0.071705595
171	0xbd55d871	-0.052208368
172	0xbd56dce1	-0.05245674
173	0xbbccd6ca	-0.006251191
174	0xbcd33978	-0.02578424
175	0xbcded076	-0.027199011
176	0xbd049cfb	-0.03237627
177	0xbcda5724	-0.02665288
178	0xbd536fdd	-0.051620353
179	0xbd4e0799	-0.050300214
180	0xbd4fd65f	-0.05074155
181	0xbc52b3df	-0.012860267
182	0xbd2b84cc	-0.04187469
183	0xbd577872	-0.0526051
184	0xbcd22884	-0.025654085
185	0xbd5e81ad	-0.054322887
186	0xbd0aba87	-0.033869293
187	0xbd0b1906	-0.03395941
188	0xbcf0e484	-0.02940584
189	0xbd529225	-0.051408906
190	0xbd14914e	-0.036271386
191	0xbd3e1c4e	-0.046413712
192	0xbd5e16a8	-0.054220825
193	0x3d1c00ee	0.038086824
194	0xbc742f35	-0.014903833
195	0xbd4c3365	-0.0498537
196	0xbd92530a	-0.07144745
197	0xbd1194b8	-0.03554222
198	0xbd44c302	-0.048037536
199	0xbd9d596c	-0.076830715
200	0xbd4ba447	-0.049717214
201	0xbce3901d	-0.02777868
202	0xbd808ca9	-0.06276829
203	0xbd807672	-0.06272592
204	0xbcbcd67d	-0.023051495
205	0xbcf1b9b8	-0.029507503
206	0xbd1259ca	-0.03573016
207	0xbd650597	-0.055913534
208	0xbd12d123	-0.03584398
209	0xbcd2e1fc	-0.025742523
210	0x2401b864	2.81286e-17
211	0xbd144d76	-0.036206685
212	0xbd31cc85	-0.043407936
213	0xbd911dc5	-0.07085756
214	0xbd219625	-0.03944983
215	0xbc9ec4d1	-0.019380959
216	0xbd92b321	-0.071630724
217	0xbd4e941f	-0.050434228
218	0xbd00dd4d	-0.03146105
219	0xbd6d35ea	-0.057912745
220	0xbd7c6d69	-0.06162778
221	0xbd1a18ac	-0.037621185
222	0xbd4cddac	-0.05001609
223	0xbd73ea5d	-0.059549678
224	0xbd84bcde	-0.06481336
225	0xbd4ea032	-0.050445743
226	0xbd5125cf	-0.051061448
227	0xbd2d54a8	-0.042317063
228	0xbd8b866f	-0.068127505
229	0xbd2718f8	-0.040795296
230	0xbd7acd9b	-0.061231237
231	0xbd3304ad	-0.04370563
232	0xb032edea	-6.509412e-10
233	0xbd675893	-0.056480955
234	0xbd8886f6	-0.06666367
235	0xbd4b2bac	-0.049602196
236	0xbd5c159b	-0.053731542
237	0xbd505fff	-0.0508728
238	0xbd3de1c6	-0.046357892
239	0xbd9cabd8	-0.07649964
240	0xbd9a098b	-0.075213514
241	0xbd3dfc61	-0.046383265
242	0xbd846d78	-0.06466192
243	0xbd8d1010	-0.06887829
244	0xbd66d1c6	-0.0563524
245	0xbd37b982	-0.04485465
246	0xbd8f2409	-0.06989295
247	0xbcd2eded	-0.025748217
248	0xbd606738	-0.054785937
249	0xbd22bff2	-0.039733835
250	0xbd812eaa	-0.063077286
251	0xbcccdd34	-0.025007822
252	0xbd80e812	-0.06294264
253	0xbdba65e7	-0.091014676
254	0xbd6cfd1b	-0.057858568
255	0xbda6dc96	-0.08147542

write_head.erase_layer.bias f4 [20]
0	0xbd96ce66	-0.07363586
1	0xbd8bc086	-0.0682383
2	0xbe1a81c9	-0.15088572
3	0xbdcc0d98	-0.0996353
4	0xbe06caa7	-0.13163243
5	0xbe28db4e	-0.16489908
6	0xbe08b91a	-0.1335186
7	0xbe198a81	-0.14994241
8	0xbe12da4d	-0.14341088
9	0xbe24b79c	-0.16085666
10	0x3b25b4fa	0.0025284872
11	0xbe009319	-0.12556113
12	0xbe135346	-0.14387235
13	0xbe0e010b	-0.13867585
14	0xbd8970d1	-0.06710971
15	0xbe285650	-0.16439176
16	0xbde5cb3c	-0.112204045
17	0x3b3b46bd	0.00285761
18	0xbdc642b2	-0.0968069
19	0x3d6a9fb8	0.057281226
