VerSimples/checkpoint/best_model_epoch_44.pth (torch, 65183 bytes, 15 tensors)

memory.mem_bias f4 [128, 20]
0.07619176 0.03563375 -0.04980549 -0.09607343 0.0043179616 0.06904913 0.014926925 0.016132034
-0.0015524477 -0.015049204 -0.0026782528 0.08633394 -0.0784042 -0.09629436 -0.086289406 -0.022262014
0.025354631 -0.0957574 0.034223028 0.04019571 0.013035357 0.06158369 -0.08334665 0.0014631301
0.05438233 0.0880998 -0.06898215 -0.06472365 0.030513667 -0.057434358 0.058010764 0.03859233
-0.07378324 -0.09317782 0.09792281 0.01929678 0.032649927 0.071690015 -0.045427598 0.09609745
-0.031949483 -0.0053414106 -0.061069407 0.09500117 -0.011153102 0.042834945 -0.017971836 0.061101176
0.03554512 -0.08028112 0.07988124 0.036728553 0.05810014 0.06659462 0.032851048 -0.0077911243
-0.06210507 0.029527687 0.047688372 -0.016777694 0.05389265 -0.061480165 -0.077725925 0.08086812
0.043036647 -0.029829286 -0.043098655 -0.09417041 -0.08325664 0.027905323 -0.0437011 -0.020391047
0.034154482 -0.09534764 -0.030106306 0.058195837 -0.051568296 0.041747786 0.0039020553 -0.025033519
0.01186496 0.09070619 -0.045724202 0.092501126 -0.034700677 -0.008615948 0.07048451 -0.029090561
-0.0803496 0.047458254 0.023895383 -0.04273671 -0.012396976 0.027483664 -0.024424434 0.01216159
0.042955108 -0.04159335 0.056925036 0.095992856 -0.04627042 0.07587171 -0.031268753 -0.053660035
0.06206224 -0.016313575 -0.017617926 -0.07088182 0.069844075 -0.05333636 0.034334503 0.06083732
0.09445869 -0.05863252 -0.009978928 0.093245886 -0.077121004 0.06215132 0.04803837 0.017222323
-0.027888633 -0.05260972 0.02864752 -0.03855462 -0.073161386 0.04911775 -0.09579871 -0.058482803
-0.05994438 -0.0714936 -0.096748374 0.0636524 0.08776825 0.09455588 -0.053326108 0.09678955
-0.08787829 0.037711628 0.05519498 -0.084717765 0.022985734 0.072137676 -0.040067185 0.041753836
-0.02692584 0.04306329 -0.069201365 -0.04713985 0.02360592 -0.009294286 0.05141499 -0.047697045
0.043512933 0.092227586 0.047434457 -0.09393374 0.027468093 -0.05499308 -0.06255667 0.093510024
0.072214074 -0.04120289 0.03878597 -0.07718466 0.042697288 0.08176658 0.056535132 -0.07679226
-0.015959404 -0.075602435 -0.063135326 0.044609673 -0.03432242 0.0195323 0.019430354 -0.038787317
-0.09803744 -0.039671015 -0.026020847 -0.07727782 0.09518968 -0.09016897 -0.049902976 -0.08635884
0.064829685 0.0572012 0.012130499 0.08296407 -0.059731554 0.08992203 0.035211466 0.04749783
-0.038997184 0.08465984 -0.036955334 -0.090682864 -0.039452266 -0.045048572 0.026907794 0.009905875
-0.009924792 -0.027174488 -0.044923045 0.058075495 0.09413911 0.07118983 0.04518371 0.054970406
2.7045608e-06 0.08862486 -0.08900235 -0.055544175 -0.059688557 -0.047321975 0.040268518 -0.014667511
-0.061176278 0.0153265 -0.010149419 -0.08830627 0.0316113 -0.07349358 0.031757437 0.020869292
0.08270604 0.06715723 -0.08636782 0.095415466 -0.008207977 0.08805669 -0.094402134 0.088234
0.0922573 0.08547104 0.096543975 0.04839281 -0.005185768 0.010580219 -0.050193276 0.09424292
-0.075715736 -0.024480067 -0.07254778 -0.044001557 0.01214312 -0.031652883 -0.085774496 0.010906972
-0.020300314 0.006533183 0.07421429 -0.015643142 -0.030526042 -0.076009646 0.005802095 0.032879896
00000000: 6d0a 9c3d b2f4 113d d700 4cbd 25c2 c4bd
00000010: b07d 8d3b a169 8d3d 1090 743c 5427 843c
00000020: 807b cbba f090 76bc a085 2fbb d9cf b03d
00000030: 6292 a0bd fa35 c5bd 80b8 b0bd d45e b6bc
00000040: 84b4 cf3c 751c c4bd 722d 0c3d 42a4 243d
00000050: 4092 553c 2e3f 7c3d a6b1 aabd 80c6 bf3a
00000060: 02c0 5e3d ab6d b43d 8346 8dbd d58d 84bd
00000070: ccf7 f93c 4a40 6bbd b29c 6d3d fe12 1e3d
00000080: ab1b 97bd 03d4 bebd c18b c83d 4814 9e3c
00000090: eebb 053d 37d2 923d 4a12 3abd bdce c43d
000000a0: 76dd 02bd 0007 afbb ea23 7abd f98f c23d
000000b0: 80bb 36bc b273 2f3d ac39 93bc 3a45 7a3d
000000c0: c297 113d 6e6a a4bd c798 a33d ae70 163d
000000d0: 6afa 6d3d c362 883d d28e 063d b04c ffbb
000000e0: e361 7ebd 0ce4 f13c e254 433d 6071 89bc
000000f0: 8abe 5c3d a0d2 7bbd c52e 9fbd 2f9e a53d
00000100: 3247 303d 8c5c f4bc 3788 30bd 6adc c0bd
00000110: 7582 aabd b499 e43c edff 32bd 200b a7bc
00000120: 92e5 0b3d a045 c3bd 80a1 f6bc c25e 6e3d
00000130: 4739 53bd baff 2a3d a0b9 7f3b 1813 cdbc
00000140: 4065 423c 2bc4 b93d 4d49 3bbd 3b71 bd3d
00000150: 4c22 0ebd e829 0dbc 2f5a 903d 544f eebc
00000160: 558e a4bd 9663 423d 40c0 c33c b00c 2fbd
00000170: b01c 4bbc 6c25 e13c c015 c8bc 6841 473c
00000180: b2f1 2f3d ca5d 2abd 3a2a 693d e797 c43d
00000190: 0d86 3dbd a162 9b3d aa13 00bd a0ca 5bbd
000001a0: fa34 7e3d 0ca4 85bc 7853 90bc 7d2a 91bd
000001b0: 690a 8f3d 3a77 5abd 56a2 0c3d 8e30 793d
000001c0: 8f73 c13d a728 70bd a87e 23bc b3f7 be3d
000001d0: 9ef1 9dbd 6292 7e3d e2c3 443d d415 8d3c
000001e0: b476 e4bc 4a7d 57bd 34ae ea3c 73eb 1dbd
000001f0: a3d5 95bd b22f 493d 1d32 c4bd aa8b 6fbd
00000200: 3d88 75bd 3d6b 92bd 0324 c6bd 315c 823d
00000210: d7bf b33d 83a6 c13d 7a6c 5abd 9939 c63d
00000220: 88f9 b3bd 8277 1a3d 2214 623d 8280 adbd
00000230: 944c bc3c ebbc 933d 7d1d 24bd 1206 2b3d
00000240: 9493 dcbc 2263 303d 72b9 8dbd b715 41bd
00000250: 3461 c13c 1047 18bc 8698 523d fa5d 43bd
00000260: 9e3a 323d d1e1 bc3d a24a 423d 5560 c0bd
00000270: c404 e13c 6d40 61bd b61d 80bd 2f82 bf3d
00000280: f9e4 933d 5dc4 28bd 0ade 1e3d fe12 9ebd
00000290: 5ae3 2e3d 3d75 a73d 6291 673d 4345 9dbd
000002a0: 4cbd 82bc 73d5 9abd 184d 81bd a2b8 363d
000002b0: aa95 0cbd 3402 a03c 682c 9f3c 73df 1ebd
000002c0: dac7 c8bd 137e 22bd ac29 d5bc d543 9ebd
000002d0: cff2 c23d 82aa b8bd 1067 4cbd e7dc b0bd
000002e0: 6dc5 843d ce4b 6a3d 00bf 463c 11e9 a93d
000002f0: 13a9 74bd 0b29 b83d e639 103d 168d 423d
00000300: 83bb 1fbd 2362 ad3d 7a5e 17bd f0b7 b9bd
00000310: b398 21bd da84 38bd bc6d dc3c 404c 223c
00000320: 989b 22bc 089d debc 3a01 38bd 92e0 6d3d
00000330: 01cc c03d f9cb 913d 8e12 393d a628 613d
00000340: 0080 3536 f380 b53d dd46 b6bd 4a82 63bd
00000350: fd7b 74bd b0d4 41bd 9af0 243d 0050 70bc
00000360: fa93 7abd 001c 7b3c c049 26bc ebd9 b4bd
00000370: da7a 013d cd83 96bd 1614 023d 14f6 aa3c
00000380: c961 a93d bb89 893d 9de1 b0bd 2f69 c33d
00000390: c07a 06bc 1157 b43d e855 c1bd 07b4 b43d
000003a0: 65f1 bc3d 710b af3d d9b8 c53d 8a37 463d
000003b0: 60ed a9bb a858 2d3c 7797 4dbd 6f02 c13d
000003c0: da10 9bbd 6c8a c8bc ee93 94bd fa3a 34bd
000003d0: f0f3 463c 74a6 01bd 8aaa afbd 28b3 323c
000003e0: d84c a6bc 5014 d63b a9fd 973d 0c26 80bc
000003f0: c011 fabc f2aa 9bbd 801f be3b 12ad 063d

controller.0.weight f4 [100, 28]
-0.08356443 -0.27008873 0.39557758 0.30897227 0.61814535 0.5635995 0.20706345 0.45843485
-0.028745169 -0.00044363094 0.0065506995 0.019585902 0.008396428 0.027087474 6.914248e-05 -0.016096864
0.118611954 0.0037624997 0.10754588 -0.02584365 0.02116679 0.0069165784 0.0073023518 0.023688043
0.0077137756 -0.021241825 -0.035333805 0.014827421 -0.15181287 -0.15582465 -0.14101864 -0.13647081
-0.16609116 -0.15171312 -0.1434119 0.10226555 -0.042346336 -0.058167078 0.056727216 0.0445295
0.06915861 0.047099657 -0.07338321 -0.06205005 -0.051228512 0.042621974 -0.015309063 0.0822722
-0.075034045 -0.086687386 0.060283646 0.05598622 0.07115143 0.08546271 0.02748577 0.061478138
-0.46409526 0.43868566 0.42086577 -0.24458805 -0.30511504 0.42484125 -0.49936855 0.3265204
-0.014294439 -0.0037414792 -0.0013905161 0.016965315 0.03004107 0.03254229 -0.038019117 -0.03705173
-0.017062401 0.0013549909 -0.021490168 0.017913314 -0.044033784 -0.04765695 0.04747991 0.021108696
0.026085932 0.043825537 0.0030058282 0.047292184 -0.10485163 -0.48118898 -0.042549685 0.80548835
-0.05201447 -0.06412701 0.07323591 0.0021791663 0.0027013146 0.009810473 -0.010262898 0.0023105927
0.014046052 0.026886286 -0.020301677 -0.015738523 -0.067453794 -0.004281959 -0.05645535 0.019339597
-0.023062691 -0.02516691 0.020438455 0.0027263076 0.009088022 0.025245417 0.02774469 0.024522886
-0.07922866 -0.1555567 0.0914972 -0.2775754 0.45256954 -0.011373346 -0.20716894 -0.07196885
-0.0057896497 0.0018563649 -0.005306403 0.014405891 0.018800316 0.031401217 -0.02752453 -0.026665607
-0.06688512 0.0030198093 -0.05590871 0.03300441 -0.032830413 -0.03345992 0.03581733 0.011878153
0.02301239 0.035406165 0.027991785 0.033888098 -0.44772378 0.5161644 0.56005317 0.4535517
0.9042357 0.5057519 -0.48736218 -0.25967014 0.00084501173 0.0043296246 -0.0021450892 -0.0003544899
-3.627649e-05 0.046395767 -0.00050928793 -0.0004984472 -0.0012309146 0.0011996299 0.008251356 -0.011045913
0.0024784831 -0.0017274504 0.0010194039 0.0013401505 0.0041550915 -0.0013337684 -0.0015652309 0.0013623338
0.01169907 -0.102741994 -0.43208644 0.012768142 0.37311822 -0.024962122 -0.03180776 -0.044022463
0.009782361 0.0110341925 -0.014552107 -0.0021076044 0.006908205 0.010149139 -0.009740347 -0.007105893
-0.07454798 -0.009107745 -0.065784924 0.013973211 -0.014178547 -0.018185176 0.012740433 -0.0041344473
0.0045542726 0.009551605 0.032947816 0.012132652 0.15097852 0.14123017 0.025611294 -0.27052903
-0.025466308 -0.114772 -0.09029727 0.5223192 0.0005561074 0.017385496 -0.02523038 -0.012368831
-0.011143603 -0.008277631 -0.00057344546 0.012567866 0.0363272 -0.028332394 0.026690222 -0.030439928
0.0030150395 0.006009478 -0.009868511 -0.009424132 -0.0069180173 -0.005558173 0.0046505365 -0.006752962
0.036671918 -0.0171813 0.016064372 0.039056905 -0.0061258026 -0.67058986 0.0008035316 0.034665495
0.0062068296 0.018359713 -0.02043344 0.0031856755 0.016715372 0.023508746 -0.025504496 -0.016650109
-0.083709925 -0.0075942813 -0.06920636 0.030617142 -0.033851754 -0.029036975 0.026995216 0.0014406944
0.014221917 0.027709788 0.040743887 0.034214966 -0.8289913 0.03789818 0.05138564 0.067877345
00000000: d423 abbd 1249 8abe 2589 ca3e 9d31 9e3e
00000010: c63e 1e3f 0f48 103f 7108 543e f9b7 ea3e
00000020: fd7a ebbc 2397 e8b9 40a7 d63b 9d72 a03c
00000030: 2c91 093c 8de6 dd3c 9600 9138 92dd 83bc
00000040: d3ea f23d 4594 763b 0441 dc3d 10b6 d3bc
00000050: fa65 ad3c 77a4 e23b 9148 ef3b 6d0d c23c
00000060: d7c3 fc3b 5603 aebc 2eba 10bd b6ee 723c
00000070: d574 1bbe 7f90 1fbe 3167 10be 01bf 0bbe
00000080: cd13 2abe af5a 1bbe 92da 12be 9a70 d13d
00000090: 5a73 2dbd 9a40 6ebd cc5a 683d 9164 363d
000000a0: 08a3 8d3d 92eb 403d f049 96bd 3128 7ebd
000000b0: fdd4 51bd 6194 2e3d ddd2 7abc 547e a83d
000000c0: 73ab 99bd 2889 b1bd fceb 763d ce51 653d
000000d0: d7b7 913d 1307 af3d d629 e13c 80d0 7b3d
000000e0: e59d edbe 689b e03e b87b d73e 4a75 7abe
000000f0: 0a38 9cbe cb84 d93e 3cad ffbe af2d a73e
00000100: 3933 6abc 9b33 75bb fa41 b6ba d8fa 8a3c
00000110: b118 f63c 104b 053d efb9 1bbd 8ec3 17bd
00000120: 73c6 8bbc f399 b13a 260c b0bc f1be 923c
00000130: c55c 34bd ef33 43bd 4b7a 423d 25ec ac3c
00000140: 2ab2 d53c 6882 333d 6efd 443b 73b5 413d
00000150: 74bc d6bd 675e f6be 9448 2ebd 7c34 4e3f
00000160: 200d 55bd 0655 83bd b5fc 953d 58d0 0e3b
00000170: 8a08 313b 1bbc 203c b725 28bc 506d 173b
00000180: 6921 663c a140 dc3c b44f a6bc 13ee 80bc
00000190: 3725 8abd ad4f 8cbb ba3d 67bd 136e 9e3c
000001a0: f8ed bcbc d62a cebc 8c6e a73c daab 323b
000001b0: ede5 143c 7acf ce3c d548 e33c 38e4 c83c
000001c0: a342 a2bd 414a 1fbe e262 bb3d 5d1e 8ebe
000001d0: 32b7 e73e 4557 3abc 1824 54be 6864 93bd
000001e0: 1ab7 bdbb 4551 f33a 56e1 adbb b006 6c3c
000001f0: 1f03 9a3c 909e 003d 207b e1bc d571 dabc
00000200: 11fb 88bd fee7 453b 8800 65bd a22f 073d
00000210: 2f79 06bd 450d 09bd 31b5 123d 969c 423c
00000220: 7b84 bc3c 0e06 113d 074f e53c 3fce 0a3d
00000230: 0d3c e5be 5a23 043f a55f 0f3f ee37 e83e
00000240: fe7b 673f f578 013f 8987 f9be 7cf3 84be
00000250: c783 5d3a 86df 8d3b a094 0cbb d4da b9b9
00000260: 9627 18b8 7d09 3e3d bc81 05ba 3aaa 02ba
00000270: a456 a1ba e63c 9d3a b230 073c ebf9 34bc
00000280: 0c6e 223b 9e6b e2ba 859d 853a fda7 af3a
00000290: 6f27 883b d7d1 aeba 6f28 cdba 5690 b23a
000002a0: 75ad 3f3c 656a d2bd 6f3a ddbe 7831 513c
000002b0: 5a09 bf3e 5d7d ccbc db48 02bd e650 34bd
000002c0: 3246 203c c2c8 343c f66b 6ebc bc1f 0abb
000002d0: 395e e23b 9348 263c fa95 1fbc 8dd8 e8bb
000002e0: 9dac 98bd a738 15bc 3fba 86bd e5ef 643c
000002f0: 234d 68bc 14f9 94bc 40bd 503c 427a 87bb
00000300: 023c 953b 567e 1c3c 4af4 063d 08c8 463c
00000310: 1d9a 1a3e a49e 103e c7ce d13c c882 8abe
00000320: b89e d0bc 950d ebbd c6ed b8bd b6b6 053f
00000330: bcc7 113a 076c 8e3c f1af cebc a3a6 4abc
00000340: a993 36bc e79e 07bc 4653 16ba 73e9 4d3c
00000350: d4cb 143d 5619 e8bc 74a5 da3c 285d f9bc
00000360: f897 453b 28eb c43b 89af 21bc ad67 1abc
00000370: 89b0 e2bb 5621 b6bb 8763 983b f347 ddbb
00000380: 4b35 163d ccbf 8cbc 6e99 833c 22fa 1f3d
00000390: f5ba c8bb c7ab 2bbf 18a4 523a 68fd 0d3d
000003a0: a962 cb3b 1c67 963c 0864 a7bc c4c6 503b
000003b0: adee 883c 6a95 c03c ceee d0bc cf65 88bc
000003c0: 1c70 abbd 73d9 f8bb 10bc 8dbd cdd0 fa3c
000003d0: 23a8 0abd f3de edbc 1225 dd3c afd5 bc3a
000003e0: 0b03 693c a3ff e23c 10e3 263d fe24 0c3d
000003f0: c638 54bf 1f3b 1b3d c079 523d 4703 8b3d

controller.0.bias f4 [100]
-0.18337587 0.045506086 0.7685845 0.5855951 0.5172617 0.25830024 0.56530434 0.3761333
0.6040469 0.6499662 -3.3027225e-06 0.710798 0.24318229 0.18937476 0.77669907 0.64773875
0.19192983 0.081957266 0.58782506 0.3662383 0.71357566 0.12867145 0.016674574 0.8951681
0.30121326 0.006471083 0.07130027 0.45010787 0.37387934 0.5532436 0.23668358 -0.21927106
-0.093235195 -0.21750426 0.9892929 0.33912385 0.47262746 -0.074070826 0.5011714 0.8882379
0.9971912 0.3917778 -0.017081536 0.6784697 -0.27376914 0.048728816 0.69770306 0.48210698
-0.066204436 0.58482057 -0.036718514 0.5839412 0.17473932 0.3117493 0.80535483 1.0388376
0.07718738 0.6871875 0.7509836 0.4696724 1.0347295 -0.11051529 -0.14121328 0.724551
0.16455923 0.2819047 0.46152568 0.6605733 0.047157437 0.39922476 0.099697016 0.541242
0.65470093 0.26416436 0.19142379 0.21665065 0.8952051 0.033282127 0.42819875 0.05034776
0.37371585 0.4548926 0.051543858 -0.16327973 0.45175847 0.20005232 0.4836106 0.5243678
0.42443162 0.18367402 0.33915773 -0.0027088055 0.7491527 0.10211013 0.2614138 -0.06780863
-0.26491186 0.49377924 0.23395184 0.093774505
00000000: e2c6 3bbe 9764 3a3d f4c1 443f 8fe9 153f
00000010: 436b 043f ee3f 843e c9b7 103f 8b94 c03e
00000020: d1a2 1a3f 2f64 263f 57a4 5db6 dcf6 353f
00000030: c704 793e 75eb 413e c0d5 463f 35d2 253f
00000040: 4189 443e 36d9 a73d b47b 163f 9683 bb3e
00000050: e5ac 363f 73c2 033e 1e99 883c bd29 653f
00000060: a038 9a3e 610b d43b e005 923d 8a74 e63e
00000070: 1d6d bf3e 5fa1 0d3f 2e5d 723e 9888 60be
00000080: 18f2 bebd 70b9 5ebe 4d42 7d3f a4a1 ad3e
00000090: 3afc f13e 72b2 97bd c54c 003f 8f63 633f
000000a0: ec47 7f3f 1a97 c83e 94ee 8bbc 31b0 2d3f
000000b0: 782b 8cbe de97 473d ab9c 323f bad6 f63e
000000c0: 3196 87bd cdb6 153f 2766 16bd 2c7d 153f
000000d0: ddee 323e 9b9d 9f3e bc2b 4e3f a1f8 843f
000000e0: 6b14 9e3d 85eb 2f3f 7640 403f e778 f03e
000000f0: 0472 843f d755 e2bd 379a 10be 2d7c 393f
00000100: 3782 283e d055 903e 184d ec3e 551b 293f
00000110: 2828 413d 3067 cc3e f32d cc3d d68e 0a3f
00000120: 7b9a 273f 8d40 873e 9904 443e abd9 5d3e
00000130: 292c 653f d752 083d de3c db3e 7439 4e3d
00000140: af57 bf3e afe7 e83e a71f 533d cd32 27be
00000150: e34c e73e 84da 4c3e cf9b f73e f83c 063f
00000160: 1a4f d93e 0b15 3c3e 15a6 ad3e 3786 31bb
00000170: 79c8 3f3f 1e1f d13d 08d8 853e 40df 8abd
00000180: 87a2 87be a2d0 fc3e 1291 6f3e d90c c03d

read_head.key_layer.weight f4 [20, 100]
0.0597683 -0.024680778 -0.042288795 -0.011310517 -0.02975395 0.052210342 -0.019895405 0.016313894
-0.020782884 -0.0133054145 1.1362468e-12 -0.039901227 -0.25426316 0.03844715 -0.021522395 -0.013568734
0.04608192 0.032057807 0.002077371 0.026356127 -0.014460936 -0.13324502 0.00011225998 -0.012382554
-0.01647638 -0.24451591 0.02641857 -0.0007896243 -0.013545391 -0.010069338 0.044633273 0.07159117
0.074653834 0.057133798 -0.0428061 -0.014729045 0.0018459359 0.095169 -0.022140358 -0.059116293
0.00073249335 -0.34675604 0.04769799 0.014285491 0.04683958 0.03675681 0.00027666954 -0.036532864
0.06367491 -0.0122375 0.05269901 -0.014979774 0.004066457 0.01524734 -0.03592199 -0.044366013
0.035147328 -0.02742565 -0.01454102 -0.0072144354 -0.014661405 0.07074757 0.07247879 -0.013384904
0.0048330375 0.0009617899 -0.006848666 0.0073230793 -0.25219584 -0.008659539 0.06105522 -0.00028775513
0.013251843 -0.00072442315 -0.26301512 0.041537814 -0.00611003 0.014939033 -0.028113436 0.038319312
0.013300222 0.008332092 0.01895767 0.06082166 -0.015689183 0.04129306 0.002517903 -0.017032567
-0.017174821 0.02996318 -0.009390655 -0.10539451 0.020236578 -0.18951398 0.0007732306 0.05633105
0.07314838 -0.021744717 -0.011102996 0.035608076 0.09758248 -0.08219881 -0.060331926 0.0039528483
-0.006933416 0.18490675 -0.017572269 -0.01913543 -0.009947122 -0.013650026 6.872111e-07 -0.06885938
-0.2923637 0.018315505 -0.022121178 -0.053393934 0.056936618 0.1318751 -0.0109515125 0.018369272
-0.030107142 -0.1497025 0.015148561 -0.054500278 0.017206213 -0.29088247 0.032588977 -0.020983402
0.017950868 -0.003357014 0.040212076 0.16457416 0.2244321 0.12139679 -0.094949596 0.015710395
-0.0077480082 0.21966022 0.009751404 -0.05625428 -0.059716634 -0.3756435 0.05281377 -0.042827677
0.12496305 0.06626897 -0.0023808577 0.006129344 0.08753464 -0.003084203 0.0712879 -0.020357495
0.042103887 0.032025263 -0.105844244 -0.09662886 0.03705964 -0.064219154 -0.07262143 -0.034458604
-0.017639887 0.11132439 0.1696258 -0.033022467 0.09834586 0.0034835164 -0.030533856 -0.032126874
-0.31236482 -0.018421022 0.061472654 -0.013542251 -0.005588661 0.06776885 -0.2910347 0.053245254
-0.09842043 0.10940932 0.014900827 0.13426639 0.023089128 -0.049438246 0.058263205 0.099269636
0.018606521 0.029538697 -0.008881281 0.010720627 0.06397049 0.041637436 0.07072879 -0.12506913
-0.08231801 -0.34990144 -0.041182686 0.09590033 0.13375154 0.06620254 0.053374246 0.042200115
-0.119013675 0.076389045 0.016274108 0.023123141 0.005351175 -0.18400751 0.0077766525 0.034906533
0.043802574 -0.0071339174 -1.5538438e-06 0.020780493 0.34349927 -0.015938818 0.019228825 0.06341201
-0.07940373 -0.13398796 0.02079327 -0.025483219 0.03776548 0.18427701 -0.01721919 0.048346646
-0.022241991 0.32418537 -0.04653963 0.008579396 0.009799815 -0.01113557 -0.07366929 -0.18470708
-0.2462811 -0.15096371 0.10003805 -0.025952311 -0.009440643 -0.23568931 0.0012649999 0.088128544
0.08376561 0.44435972 -0.092704915 0.04893151 -0.13878134 -0.064777136 0.025612248 0.005749871
-0.12094034 0.0020344197 -0.068453684 0.00013959648 -0.019093907 0.004785368 0.045439094 0.028871391
00000000: 9bcf 743d 582f cabc 0437 2dbd bf4f 39bc
00000010: 8ebe f3bc 83da 553d b0fb a2bc b7a4 853c
00000020: de40 aabc f4fe 59bc 9be9 9f2b 786f 23bd
00000030: c82e 82be c27a 1d3d bc4f b0bc 654f 5ebc
00000040: 65c0 3c3d 0c4f 033d 8124 083b cee8 d73c
00000050: 90ed 6cbc 6271 08be 1e6d eb38 32e0 4abc
00000060: 79f9 86bc 6162 7abe c26b d83c cafe 4eba
00000070: 7ded 5dbc ddf9 24bc 61d1 363d 649e 923d
00000080: 1ce4 983d 2105 6a3d 7355 2fbd 1852 71bc
00000090: 55f3 f13a f7e7 c23d b25f b5bc ed23 72bd
000000a0: cc04 403a 028a b1be f85e 433d b10d 6a3c
000000b0: dcda 3f3d 4f8e 163d f50d 9139 7ca3 15bd
000000c0: fe67 823d cc7f 48bc ebda 573d ba6d 75bc
000000d0: ea3f 853b fbcf 793c f022 13bd 23b9 35bd
000000e0: a5f6 0f3d c2ab e0bc 753d 6ebc 1267 ecbb
000000f0: 6436 70bc 1ae4 903d c36f 943d 5b4c 5bbc
00000100: 755e 9e3b a120 7c3a c66a e0bb 71f6 ef3b
00000110: d01f 81be bde0 0dbc 0a15 7a3d d7dd 96b9
00000120: 421e 593c 37e7 3dba eba9 86be 8e23 2a3d
00000130: a636 c8bb d9c2 743c 264e e6bc b6f4 1c3d
00000140: 2de9 593c 5483 083c 1e4d 9b3c 2220 793d
00000150: 9a86 80bc e922 293d 6703 253b e287 8bbc
00000160: 36b2 8cbc 5875 f53c 43db 19bc 14d9 d7bd
00000170: 2ec7 a53c f40f 42be a1b2 4a3a 63bb 663d
00000180: d1ce 953d fa21 b2bc 57e9 35bc c6d9 113d
00000190: 53d9 c73d da57 a8bd 9c1e 77bd e586 813b
000001a0: b531 e3bb 3258 3d3e b8f3 8fbc e8c1 9cbc
000001b0: 41f9 22bc 5ca4 5fbc ca78 3835 2606 8dbd
000001c0: b2b0 95be 660a 963c 7937 b5bc 99b3 5abd
000001d0: 5f36 693d 440a 073e f96d 33bc 287b 963c
000001e0: 41a3 f6bc 9d4b 19be ac31 783c af3b 5fbd
000001f0: 0bf4 8c3c 8cee 94be 057c 053d 62e5 abbc
00000200: b30d 933c 5901 5cbb 6bb5 243d 2186 283e
00000210: 87d1 653e e19e f83d ef74 c2bd 16b3 803c
00000220: 01e3 fdbb 9cee 603e 5ac4 1f3c e36a 66bd
00000230: 6e99 74bd 5854 c0be 4053 583d 136c 2fbd
00000240: a1ec ff3d 07b8 873d 2a08 1cbb aad8 c83b
00000250: 5d45 b33d 5720 4abb 64ff 913d c3c4 a6bc
00000260: 2075 2c3d ec2c 033d dec4 d8bd 5ae5 c5bd
00000270: d9cb 173d 5585 83bd 8bba 94bd 7724 0dbd
00000280: 8681 90bc 0bfe e33d 63b2 2d3e 9142 07bd
00000290: 8e69 c93d b54b 643b 2322 fabc 7897 03bd
000002a0: 48ee 9fbe afe7 96bc c0ca 7b3d 51e0 5dbc
000002b0: 1621 b7bb 65ca 8a3d 8002 95be b217 5a3d
000002c0: a790 c9bd fe11 e03d 9922 743c 217d 093e
000002d0: 6925 bd3c c27f 4abd 66a5 6e3d e14d cb3d
000002e0: b46c 983c 23fb f13c cb82 11bc 92a5 2f3c
000002f0: f602 833d 048c 2a3d 41da 903d 1f12 00be
00000300: 5896 a8bd 4826 b3be 2daf 28bd 6467 c43d
00000310: 2af6 083e 3395 873d f49e 5a3d 07da 2c3d
00000320: 71bd f3bd dc71 9c3d 4751 853c be6c bd3c
00000330: e958 af3b 776c 3cbe 4ad3 fe3b 27fa 0e3d
00000340: 546a 333d a3c3 e9bb ab8d d0b5 da3b aa3c
00000350: 23df af3e 2092 82bc c585 9d3c 28de 813d
00000360: 6c9e a2bd 2434 09be a656 aa3c 2fc2 d0bc
00000370: faaf 1a3d 1db3 3c3e 420f 8dbc 2207 463d
00000380: d634 b6bc a0fb a53e 57a0 3ebd 9890 0c3c
00000390: 678f 203c f771 36bc eddf 96bd da23 3dbe
000003a0: 1d31 7cbe 3b96 1abe c0e0 cc3d f199 d4bc
000003b0: edac 1abc 8a58 71be 5ace a53a bd7c b43d
000003c0: 4e8d ab3d 1e83 e33e 13dc bdbd 686c 483d
000003d0: b21c 0ebe e0a9 84bd c7d0 d13c 6a69 bc3b
000003e0: 92af f7bd e653 053b 7231 8cbd a560 1239
000003f0: d36a 9cbc 94ce 9c3b 581e 3a3d b283 ec3c

read_head.key_layer.bias f4 [20]
-0.11409784 -0.12862457 0.15380451 0.06463947 0.043689076 0.049852613 -0.03140816 -0.04200754
0.06390932 0.12712355 0.036760468 0.05106024 -0.0450363 -0.028111394 0.03246609 0.08334146
0.05869431 0.051228967 0.0711394 0.022350747
00000000: 21ac e9bd 29b6 03be ee7e 1d3e b361 843d
00000010: 51f3 323d 4132 4c3d d8a5 00bd 1910 2cbd
00000020: e4e2 823d ad2c 023e 2592 163d 8b24 513d
00000030: fc77 38bd de49 e6bc 2afb 043d edae aa3d
00000040: 7269 703d 77d5 513d 89b1 913d ea18 b73c

read_head.beta_layer.weight f4 [1, 100]
0.09079051 0.14212728 0.42214167 0.22324878 0.20404884 0.035632577 0.19882062 0.29693693
0.25753197 0.26502216 1.0590581e-26 0.32852393 -0.043306217 0.23640932 0.36894315 0.24974847
0.20401533 0.00058035774 0.23288263 0.311934 0.4100639 -0.018036786 -0.006549097 0.42396367
0.13954182 -0.073872395 0.09620363 0.24399869 0.23567842 0.22752608 0.25169355 -0.0057584057
-0.022285275 0.05927967 0.48970163 0.11895969 0.22414103 -0.027211726 0.12566395 0.51268905
0.46487144 -0.06370301 0.100327544 0.3310057 0.02151337 0.06826634 0.36142275 0.17641366
0.13081703 0.26636672 0.13762566 0.22466938 0.10251392 0.2833089 0.4036573 0.4891418
0.12508169 0.4023037 0.39042282 0.24570222 0.50121075 0.033396028 -0.005952714 0.34576485
0.024042008 0.16531868 0.26299757 0.31541535 -0.06363833 0.1863022 0.1983221 0.37035143
0.31086588 0.042396206 -0.0667971 0.21724439 0.44855633 -0.02822666 0.110566445 -0.00090191397
0.26141018 0.23472063 0.03762959 0.045412112 0.15082169 0.19906832 0.19234058 0.130776
0.100929424 0.16599411 0.074992836 -0.029923571 0.37154883 0.20456441 0.1431834 0.09921989
0.034362633 0.114911154 0.06890948 0.19165634
00000000: 60f0 b93d d089 113e f422 d83e 549b 643e
00000010: 2ef2 503e 77f3 113d a297 4b3e 1e08 983e
00000020: 3bdb 833e fcb0 873e a0c4 5114 4a34 a83e
00000030: dc61 31bd 4915 723e 1ee6 bc3e 10be 7f3e
00000040: 65e9 503e 2623 183a c978 6e3e d0b5 9f3e
00000050: e5f3 d13e e2c1 93bc cf99 d6bb c411 d93e
00000060: 0de4 0e3e 694a 97bd 6906 c53d cbda 793e
00000070: af55 713e 99fc 683e fadd 803e 02b1 bcbb
00000080: 9c8f b6bc 3dcf 723d 2cba fa3e 23a1 f33d
00000090: 3a85 653e 20eb debc 0dae 003e 973f 033f
000000a0: a103 ee3e b976 82bd 8778 cd3d 9479 a93e
000000b0: cf3c b03c 39cf 8b3d 670c b93e c8a5 343e
000000c0: e6f4 053e 3861 883e beed 0c3e bb0f 663e
000000d0: d1f2 d13d dd0d 913e 2bac ce3e cb70 fa3e
000000e0: 6a15 003e c0fa cd3e 80e5 c73e 5d99 7b3e
000000f0: 594f 003f 46ca 083d fc0e c3bb 1708 b13e
00000100: bff3 c43c 4d49 293e 9ea7 863e 1f7e a13e
00000110: d054 82bd 01c6 3e3e f314 4b3e b49e bd3e
00000120: d029 9f3e a5a7 2d3d ebcc 88bd 5075 5e3e
00000130: 2da9 e53e 993b e7bc a970 e23d 6c6e 6cba
00000140: 8ed7 853e 9b5a 703e 7c21 1a3d 0d02 3a3d
00000150: 0071 1a3e 91d8 4b3e eef4 443e 25ea 053e
00000160: 16b4 ce3d 5cfa 293e d895 993d 4722 f5bc
00000170: a63b be3e 5579 513e ab9e 123e cc33 cb3d
00000180: d5bf 0c3d 8a56 eb3d 6a20 8d3d 8f41 443e

write_head.key_layer.weight f4 [20, 100]
-0.040639397 0.03426361 -0.0059100436 -0.07092785 -0.020669729 -0.047986507 -0.053083476 -0.021091798
-0.038035113 -0.0061988165 -3.5136867e-22 -0.012927547 -0.095163666 -0.03343414 -0.024582036 -0.030320853
-0.05935099 -0.03683045 -0.0443767 -0.053099215 -0.049623128 -0.07161247 -0.052763544 -0.057314143
-0.0795749 -0.081337236 -0.04200101 -0.04268894 -0.05049001 -0.023881963 -0.057419218 -0.05285621
-0.08672859 -0.020818915 -0.027659316 -0.05733669 -0.06216098 -0.14029227 -0.10321545 -0.023251208
-0.06597864 -0.12792456 -0.08166772 -0.032524105 -0.049856044 -0.046738442 -0.072153546 -0.013949227
-0.034382958 -0.04805739 -0.028276244 -0.025477238 -0.06802523 -0.052918807 -0.025205284 -0.030429855
-0.07668951 -0.07163654 -0.08541789 -0.02672468 -0.07033617 -0.09168557 -0.09280019 -0.0034088623
-0.05296015 -0.032864816 -0.03276349 -0.0130170835 -0.08334871 -0.014837419 -0.031587835 -0.04888621
-0.04472373 -0.084035195 -0.098102584 -0.08288029 -0.041502457 -0.14133415 -0.05314687 -0.06547355
-0.086787425 -0.00923669 -0.11016374 -0.065533794 -0.05163609 -0.07903619 -0.045063548 -0.068615496
-0.029468073 -0.08709373 -0.09290751 -0.050494358 -0.06308626 0.037115533 -0.006525592 -0.0951624
-0.071063854 -0.109426856 -0.049707863 -0.08185257 -0.05456771 -0.060047656 -0.07174964 -0.017945064
-0.04196217 -0.04886607 -0.0036262802 -0.013091776 -0.0195283 -0.037258927 -1.5434846e-22 -0.018467106
-0.051372673 -0.07627269 -0.028509993 -0.0077772257 -0.06345987 -0.041758657 -0.00017544207 -0.056683496
-0.07961595 -0.022307934 -0.008378304 -0.0478398 -0.034132607 -0.09252971 -0.036373623 -0.038830973
-0.07937438 -0.06682537 -0.04542833 -0.04802259 -0.05528466 -0.081997395 -0.027321544 -0.03530501
-0.021965144 -0.020247635 -0.029386878 -0.03351749 -0.039088372 -0.07318915 -0.041305516 -0.014672139
-0.06850482 -0.02868441 -0.04218463 -0.062302195 -0.06106714 -0.022106403 -0.062072475 -0.04461934
-0.033967733 -0.064497136 -0.020066818 -0.050778937 -0.03400183 -0.026661614 -0.024224402 0.0039082384
-0.04959051 -0.028581465 -0.023915783 -0.023208605 -0.04098429 -0.049459822 -0.041483324 -0.045599863
-0.07772652 -0.007493269 -0.06643952 -0.076555654 -0.06499525 -0.0017397027 -0.048166677 -0.0436818
-0.028072689 -0.03293927 -0.022135608 -0.05695119 -0.02991146 -0.034319706 -0.035919663 -0.04928621
-0.045738775 -0.039665587 -0.028687699 -0.029233998 -0.091898024 0.0034767261 -0.034755662 -0.028579647
-0.049702726 -0.059616096 -0.0012244413 -0.047932845 -0.04587606 -0.04730214 -0.03997056 -0.060004655
0.053393707 -0.018751819 0.08531189 0.042514913 0.05608724 0.104815796 0.05010239 0.044762716
0.035064116 0.04914778 2.5411872e-24 0.045886226 0.06630955 0.06611776 0.064272866 0.0247336
0.098574996 0.07193591 0.036800332 0.09630464 0.09121415 0.032352142 0.027274122 0.08204014
0.08591705 0.05287439 0.05939407 0.06643011 0.10390778 0.073055066 0.07957254 0.073002465
0.08825736 0.07938838 0.05869131 0.07394233 0.07784404 0.081231296 0.06914532 0.05125096
0.07270209 0.10279859 0.067343414 0.03455149 0.046935078 0.052273754 0.09248961 0.048256926
0.09049404 0.0621941 0.08242034 0.06632016 0.06027054 0.09100898 0.040732518 0.06834592
00000000: 7f75 26bd 0058 0c3d 0aa9 c1bb 9f42 91bd
00000010: 9053 a9bc 808d 44bd 0f6e 59bd b5c8 acbc
00000020: b5ca 1bbd 711f cbbb ab63 d49b 10ce 53bc
00000030: 2be5 c2bd 3df2 08bd 4460 c9bc 7063 f8bc
00000040: 061a 73bd 87db 16bd 58c4 35bd 907e 59bd
00000050: 9f41 4bbd 8fa9 92bd 961e 58bd 3cc2 6abd
00000060: 2af8 a2bd 2394 a6bd 4009 2cbd 99da 2ebd
00000070: 9dce 4ebd 1ba4 c3bc 6a30 6bbd c17f 58bd
00000080: c29e b1bd 6e8c aabc ca95 e2bc e1d9 6abd
00000090: 839c 7ebd c7a8 0fbe 9f62 d3bd 5179 bebc
000000a0: cf1f 87bd a8fe 02be 6841 a7bd ff37 05bd
000000b0: da35 4cbd cf70 3fbd 3dc5 93bd 4c8b 64bc
000000c0: 25d5 0cbd d3d7 44bd 95a3 e7bc a4b5 d0bc
000000d0: d050 8bbd 64c1 58bd 507b cebc 0848 f9bc
000000e0: 640f 9dbd 2eb6 92bd 93ef aebd b7ed dabc
000000f0: 690c 90bd a5c5 bbbd 070e bebd 3867 5fbb
00000100: beec 58bd 429d 06bd 0233 06bd 9b45 55bc
00000110: bab2 aabd a518 73bc 3f62 01bd e83c 48bd
00000120: 3b30 37bd a51a acbd 02ea c8bd 24bd a9bd
00000130: 7bfe 29bd e6b9 10be 88b0 59bd ff16 86bd
00000140: 9bbd b1bd 7c55 17bc 879d e1bd 9536 86bd
00000150: 5d80 53bd badd a1bd 8e94 38bd 4886 8cbd
00000160: 0767 f1bc 335e b2bd 4b46 bebd 2cd3 4ebd
00000170: 5e33 81bd 7506 183d a2d4 d5bb 81e4 c2bd
00000180: ed89 91bd 301b e0bd 799a 4bbd 52a2 a7bd
00000190: 6482 5fbd 88f4 75bd 7af1 92bd 8701 93bc
000001a0: 86e0 2bbd ca27 48bd e3a6 6dbb e37e 56bc
000001b0: d0f9 9fbc d19c 18bd 8998 3a9b 5448 97bc
000001c0: 276c 52bd db34 9cbd ca8d e9bc 19d8 febb
000001d0: 40f7 81bd 200b 2bbd dff6 37b9 f42c 68bd
000001e0: b00d a3bd 21bf b6bc 2745 09bc abf3 43bd
000001f0: a2ce 0bbd 3780 bdbd 82fc 14bd 3a0d 1fbd
00000200: 098f a2bd bddb 88bd 0e13 3abd 56b3 44bd
00000210: 2b72 62bd 40ee a7bd 6ed1 dfbc fc9b 10bd
00000220: 3ff0 b3bc 5ede a5bc c0bc f0bc a349 09bd
00000230: 211b 20bd 31e4 95bd f92f 29bd 6963 70bc
00000240: 414c 8cbd 91fb eabc cac9 2cbd 9630 7fbd
00000250: 8a21 7abd 7d18 b5bc b53f 7ebd c5c2 36bd
00000260: c021 0bbd 1317 84bd 2b63 a4bc 93fd 4fbd
00000270: 8145 0bbd 7569 dabc 4172 c6bc ae10 803b
00000280: 6b1f 4bbd ad23 eabc 08eb c3bc f91f bebc
00000290: 25df 27bd 6296 4abd 6bea 29bd ecc6 3abd
000002a0: 152f 9fbd 198a f5bb 7111 88bd 36c9 9cbd
000002b0: 3b1c 85bd bc06 e4ba 6c4a 45bd b0eb 32bd
000002c0: b2f8 e5bc 54eb 06bd bc55 b5bc a745 69bd
000002d0: e108 f5bc d292 0cbd 7f20 13bd 56e0 49bd
000002e0: 9558 3bbd 6278 22bd 7702 ebbc 237c efbc
000002f0: 0835 bcbd c9d9 633b f45b 0ebd dd1f eabc
00000300: 1695 4bbd 0230 74bd 6f7d a0ba 3b55 44bd
00000310: 89e8 3bbd e4bf 41bd 2cb8 23bd 71c7 75bd
00000320: 5cb3 5a3d 6a9d 99bc 00b8 ae3d 1e24 2e3d
00000330: bcbb 653d aaa9 d63d 2a38 4d3d 1c59 373d
00000340: 649f 0f3d 2f4f 493d 669d 4418 32f3 3b3d
00000350: 4dcd 873d c068 873d 7ea1 833d 1e9e ca3c
00000360: b0e1 c93d 2253 933d f2bb 163d 5e3b c53d
00000370: 7cce ba3d ae83 043d fb6d df3c a904 a83d
00000380: 47f5 af3d d192 583d 3247 733d 820c 883d
00000390: 9acd d43d e59d 953d eef6 a23d 5182 953d
000003a0: 46c0 b43d 6096 a23d 4d66 703d 146f 973d
000003b0: b26c 9f3d 985c a63d 109c 8d3d 87ec 513d
000003c0: d5e4 943d 1188 d23d 58eb 893d dd85 0d3d
000003d0: ff3e 403d 011d 563d 316b bd3d 0ea9 453d
000003e0: f054 b93d 3ebf 7e3d ffcb a83d ddd2 873d
000003f0: 3ede 763d eb62 ba3d 24d7 263d f2f8 8b3d

write_head.key_layer.bias f4 [20]
-0.06430503 -0.024429085 0.09350283 0.069727615 -0.113217965 -0.04335338 -0.046156492 -0.03390573
-0.08442257 0.056734193 -0.0012093972 0.06417796 -0.07564085 -0.079347074 0.07502738 -0.10862806
0.079672925 0.12478996 -0.008745573 0.041857947
00000000: 5bb2 83bd 811f c8bc 697e bf3d 5acd 8e3d
00000010: d2de e7bd 5093 31bd 970e 3dbd bce0 0abd
00000020: bee5 acbd 1d62 683d a384 9eba bc6f 833d
00000030: 97e9 9abd b880 a2bd f4a7 993d 6378 debd
00000040: 8f2b a33d e191 ff3d 9849 0fbc 3d73 2b3d

write_head.beta_layer.weight f4 [1, 100]
0.17171793 0.02255817 0.35797086 0.29679278 0.23571937 0.2315533 0.2637374 0.25688866
0.2335266 0.2439498 4.4493392e-27 0.29541448 0.13167292 0.26835322 0.35133967 0.275184
0.21677114 0.1379039 0.24788876 0.37074384 0.3389895 0.06522381 0.04319125 0.4534971
0.23811099 0.054823138 0.13703759 0.29346263 0.20954764 0.2737445 0.30717903 0.09421871
0.17057686 0.14839296 0.4373316 0.2716643 0.34578294 0.19789897 0.2604632 0.45439568
0.4363898 0.19977595 0.16644798 0.29910183 0.06445093 0.18357284 0.37192968 0.14473692
0.16105998 0.2593285 0.1324547 0.32168913 0.19025597 0.22789395 0.35022154 0.4043464
0.15172511 0.4259553 0.46286982 0.21951291 0.53014934 0.18271436 0.16743927 0.31281763
0.14980683 0.14246254 0.29573572 0.35016996 0.10506343 0.17512746 0.28580362 0.38528705
0.32748815 0.19928293 0.16094185 0.2486736 0.41845098 0.18255313 0.1834452 0.14313616
0.3452936 0.18047635 0.17717844 0.17192322 0.19475837 0.2667333 0.25388926 0.25357336
0.18188214 0.33804923 0.1964985 0.036598846 0.34093943 0.07035123 0.1223533 0.18159185
0.16358215 0.26839447 0.19670373 0.23679776
00000000: d3d6 2f3e e9cb b83c f547 b73e 39f5 973e
00000010: 6b60 713e 4f1c 6d3e 9708 873e e986 833e
00000020: 9921 6f3e facd 793e a941 b013 9140 973e
00000030: 44d5 063e 9865 893e cbe2 b33e ebe4 8c3e
00000040: 41f9 5d3e ae36 0d3e 8dd6 7d3e 23d2 bd3e
00000050: 0890 ad3e 1094 853d 4fe9 303d c630 e83e
00000060: 5ed3 733e 3a8e 603d 9553 0c3e bc40 963e
00000070: a893 563e 3d28 8c3e 9246 9d3e bdf5 c03d
00000080: b3ab 2e3e 53f4 173e ede9 df3e 9517 8b3e
00000090: 760a b13e 07a6 4a3e 6f5b 853e 8da6 e83e
000000a0: 7c6e df3e 1192 4c3e 5771 2a3e e023 993e
000000b0: d9fe 833d 85fa 3b3e 916d be3e ea35 143e
000000c0: e8ec 243e b5c6 843e 34a2 073e 70b4 a43e
000000d0: 76d2 423e 085d 693e 3d50 b33e 7e06 cf3e
000000e0: d45d 1b3e d016 da3e 46fd ec3e fec7 603e
000000f0: deb7 073f 7919 3b3e 3375 2b3e a229 a03e
00000100: f666 193e b3e1 113e ac6a 973e 7a49 b33e
00000110: 7f2b d73d 9d54 333e da54 923e 5844 c53e
00000120: 87ac a73e d310 4c3e f1cd 243e 4ba4 7e3e
00000130: 353f d63e 35ef 3a3e 0fd9 3b3e 4992 123e
00000140: 53ca b03e cbce 383e 446e 353e a40c 303e
00000150: bd6e 473e 4491 883e c6fd 813e 5ed4 813e
00000160: 503f 3a3e ca14 ad3e e736 493e ace8 153d
00000170: 9d8f ae3e 4e14 903d 5e94 fa3d 37f3 393e
00000180: 1482 273e 006b 893e b46c 493e 1d7b 723e

write_head.erase_layer.weight f4 [20, 100]
0.030618686 0.015003082 0.048804432 0.024351452 0.030701887 0.028709821 0.026378527 0.024124265
0.016487654 0.03371013 -4.90617e-40 0.032422844 0.027120568 0.03473199 0.0320434 0.025457025
0.026158068 0.031069718 0.024407415 0.04281988 0.037593767 0.015979014 0.0023155154 0.04511071
0.0112784365 0.028526768 0.023811458 0.03912428 0.023500549 0.03356484 0.03332257 0.015300158
0.017280934 0.032622755 0.044684805 0.039571166 0.03437573 0.019357428 0.022015857 0.045265052
0.04214789 0.025424516 0.01625673 0.027301548 0.012339614 0.024284841 0.030796418 0.022075286
0.027974648 0.023746273 0.025766525 0.054099374 0.014104294 0.03914459 0.03253438 0.042860564
0.0121559985 0.035777047 0.041840505 0.015038187 0.04734754 0.02192596 0.026626509 0.032859936
0.01853705 0.018689886 0.03273184 0.051827267 0.026892984 0.015118131 0.04198888 0.04401387
0.04173986 0.017670231 0.0335223 0.026414286 0.039440963 0.01396315 0.024418795 0.023656888
0.025409956 0.018914405 0.0063723736 0.028447848 0.024364915 0.021374572 0.02437351 0.03365629
0.038916953 0.030210873 0.014054648 0.014294314 0.037022445 0.016804853 0.0092084175 0.018583156
0.020466428 0.02669148 0.022528837 0.019062186 -0.019110626 -0.011330966 -0.021866783 -0.02799258
-0.0067439177 -0.01798463 -0.01792446 -0.034320395 -0.027204372 -0.016026558 -4.96742e-40 -0.015351361
-0.0029503219 -0.027329478 -0.03298214 -0.0172761 -0.039315596 0.006166441 -0.021366213 -0.03583038
-0.029909274 -0.009056601 -0.0050051482 -0.02111969 -0.037115525 0.0050129313 -0.021899492 -0.013374978
-0.036639363 -0.013265677 -0.04329286 -0.014842733 -0.01715102 -0.015883692 -0.02949669 0.004454674
-0.018346602 -0.03135307 -0.010719781 -0.02848933 -0.024345541 -0.00843616 -0.04158793 -0.024093233
-0.024852827 -0.02126068 -0.051519826 -0.014110034 -0.03295976 -0.02779356 -0.030742848 0.0070889653
-0.03363875 -0.016659413 -0.028179985 -0.027177872 -0.040971693 -0.037587173 -0.032729715 -0.028010169
-0.04161526 -0.01839386 -0.0082943775 -0.02348595 -0.017381132 -0.030784383 -0.019561093 -0.0051698554
-0.0035355596 -0.01753464 -0.016308125 -0.01886625 -0.0181041 -0.024292998 0.011746354 -0.034570657
-0.025294775 -0.012492559 -0.0042941584 -0.0031697531 -0.037576307 -0.019557536 -0.043207865 -0.008112451
-0.012752197 -0.03962892 -0.024292784 -0.0011492799 0.012823658 -0.03166485 -0.023880647 -0.0035207837
-0.024368452 -0.018710043 -0.016825734 -0.035606343 -0.018948123 -0.005084783 -0.011226895 -0.04092754
0.015469084 -0.017083248 0.0015931741 -0.0065369727 0.010256699 0.024688225 -0.00102733 -0.015573091
-0.02600653 -0.002718312 4.91891e-40 -0.0035726211 0.03972143 0.015428704 -0.013828461 -0.0023050264
-0.017392958 0.03925357 -0.012158851 -0.003362663 -0.02300914 0.025499154 0.015474386 0.0020198787
-0.009615479 0.044376165 0.0038700749 0.012596638 -0.023159284 0.020937152 -0.009666806 0.009143675
0.02915924 0.024597347 -0.014579702 0.046582695 0.01849358 0.00654236 0.010510054 -0.011578415
-0.021237478 0.037520535 -0.017027019 -0.014878273 -0.0082383435 0.01555762 -0.030757451 -0.009626281
-0.006379316 -0.016995601 -0.008959414 0.046158474 -0.011031194 -0.0014714068 -0.019787852 -0.020050678
00000000: 0ad4 fa3c 7dcf 753c 28e7 473d b27c c73c
00000010: 8682 fb3c dc30 eb3c c817 d83c 40a0 c53c
00000020: 1e11 873c a213 0a3d a457 0580 d1cd 043d
00000030: f42b de3c 2243 0e3d f13f 033d 408b d03c
00000040: 7249 d63c ec85 fe3c 0ff2 c73c e663 2f3d
00000050: ecfb 193d 6ce6 823c e7bf 173b 02c6 383d
00000060: 31c9 383c f8b0 e93c 3f10 c33c c840 203d
00000070: 3984 c03c 497b 093d 3f7d 083d 84ad 7a3c
00000080: bf90 8d3c 709f 053d 6a07 373d 6015 223d
00000090: 91cd 0c3d 7893 9e3c 995a b43c d967 393d
000000a0: 44a3 2c3d 1347 d03c d52c 853c 7fa7 df3c
000000b0: 182c 4a3c 01f1 c63c c548 fc3c 3bd7 b43c
000000c0: 172b e53c 8b87 c23c 5214 d33c 4e97 5d3d
000000d0: b215 673c 1456 203d c542 053d 8f8e 2f3d
000000e0: f429 473c f48a 123d f360 2b3d ba62 763c
000000f0: 7eef 413d 129e b33c d61f da3c 2498 063d
00000100: 03db 973c 881b 993c d211 063d d448 543d
00000110: ad4e dc3c 0ab2 773c 88fc 2b3d e347 343d
00000120: 6af7 2a3d 29c1 903c ae4e 093d c662 d83c
00000130: d98c 213d b2c5 643c ed09 c83c 17cc c13c
00000140: 8a28 d03c 62f2 9a3c 58cf d03b 760b e93c
00000150: ee98 c73c ba19 af3c f5aa c73c 2edb 093d
00000160: 6267 1f3d cb7c f73c 7745 663c b332 6a3c
00000170: d9a4 173d 55aa 893c e7de 163c b43b 983c
00000180: 36a9 a73c 17a8 da3c 658e b83c 4d28 9c3c
00000190: e38d 9cbc 84a5 39bc f821 b3bc b250 e5bc
000001a0: 15fc dcbb 8154 93bc 51d6 92bc 8b93 0cbd
000001b0: b4db debc 214a 83bc b768 0580 4684 7bbc
000001c0: 305a 41bb 12e2 dfbc 4818 07bd 9c86 8dbc
000001d0: 6409 21bd db0f ca3b 3208 afbc e0c2 12bd
000001e0: 4b04 f5bc 2362 14bc 3a02 a4bb 3303 adbc
000001f0: 7306 18bd 8443 a43b 9066 b3bc b922 5bbc
00000200: 2813 16bd 4858 59bc db53 31bd ef2e 73bc
00000210: 4c80 8cbc 841e 82bc 0ba3 f1bc 84f8 913b
00000220: 9d4b 96bc 146c 00bd 05a2 2fbc 7562 e9bc
00000230: 4d70 c7bc d237 0abc 1b58 2abd 2c5f c5bc
00000240: 2898 cbbc e12a aebc 7406 53bd c62d 67bc
00000250: d000 07bd 52af e3bc 6dd8 fbbc 8d4a e83b
00000260: c9c8 09bd 5279 88bc b6d9 e6bc 21a4 debc
00000270: efd1 27bd 02f5 19bd 980f 06bd 9575 e5bc
00000280: c374 2abd b8ae 96bc 24e5 07bc 9b65 c0bc
00000290: e062 8ebc 882f fcbc 963e a0bc e467 a9bb
000002a0: d9b4 67bb cea4 8fbc 9e98 85bc 658d 9abc
000002b0: 0d4f 94bc 1c02 c7bc c873 403c f699 0dbd
000002c0: fd36 cfbc 97ad 4cbc 03b6 8cbb a2bb 4fbb
000002d0: 9de9 19bd 2037 a0bc bbfa 30bd 16ea 04bc
000002e0: 97ee 50bc ef51 22bd a901 c7bc 6fa3 96ba
000002f0: 521a 523c 00b3 01bd 59a1 c3bc f3bc 66bb
00000300: 59a0 c7bc ce45 99bc 1fd6 89bc f5d7 11bd
00000310: 1839 9bbc 409e a6bb 03f1 37bc a3a3 27bd
00000320: 0a72 7d3c 2bf2 8bbc 0dd2 d03a 1a34 d6bb
00000330: b70b 283c f63e ca3c 7aa7 86ba 4726 7fbc
00000340: a50b d5bc b525 32bb 315b 0500 a322 6abb
00000350: f0b2 223d adc8 7c3c c590 62bc ed0f 17bb
00000360: ad7b 8ebc 5ac8 203d eb35 47bc 2060 5cbb
00000370: aa7d bcbc 9ae3 d03c 4788 7d3c f15f 043b
00000380: 3e8a 1dbc c8c3 353d 15a1 7d3b 2162 4e3c
00000390: 8ab8 bdbc 6484 ab3c 8661 1ebc 5acf 153c
000003a0: 5cdf ee3c 6080 c93c b4df 6ebc 7fcd 3e3d
000003b0: d97f 973c 4b61 d63b 5d32 2c3c 64b3 3dbc
000003c0: 38fa adbc 22af 193d 3f7c 8bbc 00c4 73bc
000003d0: 1efa 06bc 63e5 7e3c 0df7 fbbc 8db7 1dbc
000003e0: 9509 d1bb 5c3a 8bbc 82ca 12bc ab10 3d3d
000003f0: 2ebc 34bc 38dc c0ba 221a a2bc 5241 a4bc

write_head.erase_layer.bias f4 [20]
0.03964946 -0.024956461 0.00013755298 0.034312174 0.0168148 0.004591453 0.027499614 0.037056264
0.029023629 0.015677545 0.01195808 0.047373187 1.7318396e-05 0.0084439535 0.038523845 0.027615191
0.03204239 0.0011532026 0.030240064 0.017063767
00000000: 7967 223d 7e71 ccbc 193c 1039 ec8a 0c3d
00000010: 31bf 893c e673 963b df46 e13c 4fc8 173d
00000020: f6c2 ed3c 326e 803c d3eb 433c 630a 423d
00000030: f946 9137 8258 0a3c 2ecb 1d3d 4139 e23c
00000040: e23e 033d 0f27 973a 03ba f73c 50c9 8b3c

write_head.add_layer.weight f4 [20, 100]
-0.032066267 -0.014090193 -0.059166357 -0.037150007 -0.03350935 -0.033304807 -0.034404617 -0.035538696
-0.02754435 -0.039309625 -4.96843e-40 -0.0407398 -0.021526333 -0.04003387 -0.04946695 -0.033935882
-0.03557696 -0.02049174 -0.034561917 -0.06248714 -0.053093806 -0.009813639 -0.0015476781 -0.061418634
-0.021737184 -0.019589733 -0.023013268 -0.04421212 -0.03296413 -0.035983205 -0.051334433 -0.009745484
-0.017885929 -0.028386176 -0.06487064 -0.035032056 -0.044583887 -0.025544263 -0.028772485 -0.06480229
-0.06252248 -0.031415254 -0.026758721 -0.03961684 -0.015890874 -0.025061142 -0.058516715 -0.024909204
-0.031234574 -0.03435032 -0.027479637 -0.05015964 -0.021782493 -0.039106388 -0.049245812 -0.059771996
-0.019829456 -0.059092533 -0.06698533 -0.025688648 -0.077970006 -0.02346774 -0.023785627 -0.044880673
-0.016817186 -0.021061083 -0.038855642 -0.05448911 -0.02148054 -0.020387799 -0.042155817 -0.054909293
-0.049052667 -0.022741321 -0.02568427 -0.03881583 -0.056639962 -0.016171232 -0.020838216 -0.015774451
-0.042566475 -0.025679173 -0.017651806 -0.023255672 -0.026715057 -0.0356815 -0.032058038 -0.03298975
-0.03282117 -0.044096783 -0.021290474 -0.0056679915 -0.05122776 -0.017505229 -0.013662295 -0.027392926
-0.019251615 -0.033703648 -0.020627577 -0.03164972 -0.025406925 -0.0049287206 -0.054991785 -0.045182593
-0.03406607 -0.036500648 -0.04044676 -0.034974143 -0.03720394 -0.04175864 4.93337e-40 -0.041793607
-0.030869318 -0.037836097 -0.050806325 -0.03818563 -0.03881581 -0.01961822 -0.040092032 -0.060762398
-0.05781247 -0.017066156 -0.0033819203 -0.06377426 -0.031711742 -0.02287551 -0.025632817 -0.04426393
-0.04024021 -0.039873227 -0.049347315 -0.014935401 -0.023159454 -0.022059554 -0.06432777 -0.034821287
-0.045256156 -0.02977278 -0.03677661 -0.06268415 -0.06873128 -0.047673214 -0.03243073 -0.04309898
-0.016280334 -0.02430992 -0.06542882 -0.028561559 -0.030141585 -0.04039598 -0.026634816 -0.046090364
-0.029345142 -0.040472228 -0.0507321 -0.063981995 -0.025587047 -0.05923032 -0.067879364 -0.029945524
-0.07906817 -0.02235769 -0.023849683 -0.04571905 -0.02312953 -0.02959279 -0.038417634 -0.050057754
-0.024451248 -0.023923157 -0.034675222 -0.05577214 -0.051386055 -0.032902367 -0.031020002 -0.047120545
-0.058369413 -0.02676782 -0.0287125 -0.017606309 -0.044716716 -0.028444799 -0.027575366 -0.0220763
-0.032923795 -0.03912606 -0.039894663 -0.040162105 -0.03212487 -0.040762637 -0.031468086 -0.007942518
-0.059308507 -0.008244786 -0.015746132 -0.033267554 -0.018824134 -0.038653623 -0.024149816 -0.03373557
0.030786602 0.0094462605 0.054643936 0.04072245 0.037640806 0.038182344 0.040680703 0.034548905
0.032638468 0.04156998 -4.92021e-40 0.044085626 0.032530036 0.037007965 0.048076857 0.038222287
0.036553603 0.02604527 0.03919506 0.06887313 0.05622594 0.016281463 0.002741197 0.06670116
0.02430141 0.028283475 0.025603216 0.0488276 0.035188474 0.039103795 0.048900705 0.01781786
0.022761049 0.026579684 0.06345848 0.037959132 0.045233797 0.032020945 0.036642533 0.06525992
0.06972423 0.048691686 0.028746301 0.040759917 0.016132046 0.0262978 0.05766391 0.02783658
0.029425945 0.03492334 0.024224743 0.050989497 0.024378419 0.038511146 0.04978217 0.06278224
00000000: eb57 03bd 8eda 66bc 6c58 72bd 9b2a 18bd
00000010: 1a41 09bd 9f6a 08bd dbeb 0cbd 0691 11bd
00000020: b0a4 e1bc 2103 21bd ff68 0580 c7de 26bd
00000030: fe57 b0bc 8efa 23bd db9d 4abd 5a00 0bbd
00000040: 25b9 11bd 4bde a7bc cc90 0dbd 84f2 7fbd
00000050: e478 59bd 63c9 20bc 76db caba 1b92 7bbd
00000060: 2e12 b2bc a67a a0bc 5286 bcbc c517 35bd
00000070: 6505 07bd 2063 13bd 0e44 52bd 86ab 1fbc
00000080: 8385 92bc 208a e8bc e6da 84bd c67d 0fbd
00000090: 989d 36bd 3442 d1bc 46b4 ebbc 10b7 84bd
000000a0: c90b 80bd 48ad 00bd 1b35 dbbc 4545 22bd
000000b0: 942d 82bc 064d cdbc 39af 6fbd 630e ccbc
000000c0: a6df ffbc ecb2 0cbd fa1c e1bc 3274 4dbd
000000d0: 3371 b2bc 052e 20bd fab5 49bd 7bd3 74bd
000000e0: 6271 a2bc 030b 72bd 9b2f 89bd 0071 d2bc
000000f0: bdae 9fbd 6b3f c0bc 13da c2bc ccd4 37bd
00000100: 32c4 89bc 4b88 acbc 1827 1fbd f92f 5fbd
00000110: f5f7 afbc 5004 a7bc 94ab 2cbd 91e8 60bd
00000120: 73eb 48bd 024c babc d167 d2bc 59fd 1ebd
00000130: 4eff 67bd 8879 84bc e8b4 aabc 6c39 81bc
00000140: 2f5a 2ebd 215d d2bc 859a 90bc ae82 bebc
00000150: 89d9 dabc c426 12bd 4a4f 03bd 4320 07bd
00000160: 7e6f 06bd d49e 34bd 5c69 aebc 8fba b9bb
00000170: 33d4 51bd 2067 8fbc d2d7 5fbc 2167 e0bc
00000180: 90b5 9dbc d60c 0abd 2afb a8bc 23a3 01bd
00000190: 2f22 d0bc 1b81 a1bb 113f 61bd 6211 39bd
000001a0: dd88 0bbd b481 15bd 80ab 25bd 0c41 0fbd
000001b0: 2963 18bd 1c0b 2bbd 395f 0500 c62f 2bbd
000001c0: a7e1 fcbc 06fa 1abd 4b1a 50bd 8968 1cbd
000001d0: 54fd 1ebd 64b6 a0bc 8b37 24bd fee1 78bd
000001e0: c5cc 6cbd 53ce 8bbc 35a3 5dbb 149c 82bd
000001f0: 2ce4 01bd 6c65 bbbc eafb d1bc 184e 35bd
00000200: ebd2 24bd 1c52 23bd 6920 4abd 9db3 74bc
00000210: e5b8 bdbc 3db6 b4bc 47be 83bd c4a0 0ebd
00000220: 855e 39bd 0ce6 f3bc 12a3 16bd 8c60 80bd
00000230: fcc2 8cbd fd44 43bd 16d6 04bd 8e88 30bd
00000240: 565e 85bc 9925 c7bc 8cff 85bd eef9 e9bc
00000250: 7ceb f6bc 4176 25bd 4231 dabc 40c9 3cbd
00000260: 3965 f0bc 35c6 25bd 76cc 4fbd fe08 83bd
00000270: ed9b d1bc 7e9b 72bd 5604 8bbd 5150 f5bc
00000280: 7eee a1bd 7927 b7bc 6960 c3bc e643 3bbd
00000290: 247a bdbc 946c f2bc cf5b 1dbd 5c09 4dbd
000002a0: fc4d c8bc 7ffa c3bc 9b07 0ebd 5471 64bd
000002b0: 2f7a 52bd a2c4 06bd a91d febc 7901 41bd
000002c0: c414 6fbd 3048 dbbc 7a36 ebbc 1b3b 90bc
000002d0: e028 37bd 1105 e9bc bce5 e1bc 5bd9 b4bc
000002e0: 1adb 06bd a642 20bd 9668 23bd 0581 24bd
000002f0: 5e95 03bd b9f6 26bd aee4 00bd 5621 02bc
00000300: 7aed 72bd 2415 07bc 08fe 80bc 8f43 08bd
00000310: 1235 9abc 4353 1ebd d6d5 c5bc 4f2e 0abd
00000320: 2f34 fc3c 7dc4 1a3c 52d2 5f3d 95cc 263d
00000330: 3f2d 1a3d 1765 1c3d cfa0 263d 2783 0d3d
00000340: eaaf 053d 4945 2a3d 8e5b 0580 2193 343d
00000350: 373e 053d aa95 173d 3dec 443d f98e 1c3d
00000360: 3bb9 153d e45c d53c 008b 203d 5b0d 8d3d
00000370: 2c4d 663d b460 853c a7a5 333b 9e9a 883d
00000380: c013 c73c bfb2 e73c d6bd d13c 73ff 473d
00000390: ca21 103d 4d2b 203d 1b4c 483d c3f6 913c
000003a0: 6175 ba3c a3bd d93c 85f6 813d 097b 1b3d
000003b0: 1347 393d 6528 033d 7b16 163d fea6 853d
000003c0: 94cb 8e3d ef70 473d 5d7d eb3c dff3 263d
000003d0: 5a27 843c 7c6e d73c fe30 6c3d 8a09 e43c
000003e0: ae0e f13c c70b 0f3d f872 c63c 5dda 503d
000003f0: 40b5 c73c ddbd 1d3d 64e8 4b3d fa93 803d

write_head.add_layer.bias f4 [20]
-0.059134945 -0.066953115 0.06603551 0.0637034 0.05978076 0.08558904 -0.063114665 -0.052090425
0.027870452 0.06488419 0.0724432 0.036408085 -0.06753009 -0.06736127 0.055203192 0.054629307
0.06196854 0.07231306 0.039898902 0.06656441
00000000: 7c37 72bd b71e 89bd a03d 873d ee76 823d
00000010: acdc 743d 4e49 af3d 4342 81bd c55c 55bd
00000020: 9350 e43c 01e2 843d 1a5d 943d a520 153d
00000030: 374d 8abd b5f4 89bd be1c 623d fbc2 5f3d
00000040: b9d2 7d3d df18 943d 086d 233d ec52 883d
