Inversaobit-Emanuel/checkpoint/best_model_epoch_3.pth (torch, 65162 bytes, 15 tensors)

memory.mem_bias f4 [128, 20]
00000000: c672 783d 4030 a8bc 02ab 8bbd 5289 82bd
00000010: 666b 263d 0a0c 323d d47d 96bc 522b 373d
00000020: fce0 f63c 10ef 2f3c 85c4 a73d ede2 38bd
00000030: 5567 91bd 70aa 29bc 009a bbb9 b90b cb3d
00000040: c0c2 9dbd 5096 90bb da90 783d 0cec 8c3c
00000050: a391 35bd c8db f9bc 5e41 8abd c092 b3bc
00000060: 7a08 4b3d 7738 c93d b7e4 b9bd 479b b5bd
00000070: 304f 4bbc 74cd b53c b052 2dbd 8018 453c
00000080: b9c0 aa3d 995b 843d 3007 21bc d302 54bd
00000090: 00ff b2bc 27df af3d 3314 2ebd 8d7e 41bd
000000a0: d45d dd3c 00ab efb9 bb88 a5bd bc06 f73c
000000b0: e0e1 e63b 75f1 c4bd 2c60 a33c 7a39 4bbd
000000c0: 80d2 39ba 00ec 2cb9 3dc9 a4bd 64e2 da3c
000000d0: 622f 89bd b5f3 ab3d 5519 843d c01c 42bb
000000e0: 683a b03c cce1 ebbc d287 603d fd7e 26bd
000000f0: c761 933d 0d9a 843d d4cb e8bc a9ac 8b3d
00000100: e2f0 6d3d 05d3 943d c078 7abd 0851 d6bc
00000110: d243 033d efec a83d 00b8 483a 2ed9 0a3d
00000120: dd6a 67bd 4cbb e4bc 6083 96bc 7849 80bd
00000130: 7c68 0bbd 9f72 bd3d 58ac 5e3c 784a fdbc
00000140: be41 163d f15a 843d f429 fdbc 5017 bb3b
00000150: 98fb a4bd 9e9e a5bd d1b6 883d d44a cb3c
00000160: db07 bbbd b1ec 873d 606d a6bc c419 80bd
00000170: e407 e23c 8e6b 6c3d 2a22 02bd ac01 bdbc
00000180: 338f af3d c3d8 a73d fa81 7d3d 6c08 c83c
00000190: af7e 8b3d 9807 f0bc 8c37 f03c 57a4 b0bd
000001a0: 9833 853c e085 e1bc d3fb 893d 3369 c53d
000001b0: 40bf debc b246 153d 9302 91bd c5ec b4bd
000001c0: 58f9 363c 23f8 2bbd a010 333b 60dd 95bd
000001d0: 488d a5bc 7055 273c 17a8 c13d 42a4 523d
000001e0: ce6f 2d3d 1f9c af3d 374e c43d a866 8dbc
000001f0: 46f6 5f3d 9d4b 68bd f47b b6bc 19cd 933d
00000200: 5472 89bd 095c cb3d 6083 a5bb d2d6 97bd
00000210: 90d8 5e3c 66e0 553d fd40 4bbd 00d4 20bc
00000220: b836 88bc aabc 7fbd d411 04bd 8a71 77bd
00000230: bd27 9bbd a0cb 8bbd 92b8 243d 7d98 a33d
00000240: 6ff1 a23d a874 eabc 6299 303d 0c6d 863c
00000250: 07b1 843d 00dd 0a3a 1035 5dbc ed5a 64bd
00000260: 63ea 7dbd 18fe b6bd 853b b93d 1819 44bc
00000270: bd35 8bbd 605c 06bb f11e a73d 6100 883d
00000280: 60ba 3ebb 2dd3 943d 90aa 423c c6dc 4c3d
00000290: 007c 4a39 7a16 5b3d ada9 85bd c078 b23a
000002a0: 20aa f8bb d082 64bd 546f d93c 1df0 73bd
000002b0: fa1c 06bd 61a4 af3d 0030 59bb b37c a53d
000002c0: a5c6 8a3d 02e1 103d dd4a 68bd 8da0 6bbd
000002d0: a86d 8cbc 6e48 693d 0038 0abc 30de 44bd
000002e0: e01b 8e3b 1748 6ebd f2ab 413d c86f c33c
000002f0: 80d4 d83a aa7f 9bbd fd8a 903d 0813 a93c
00000300: f639 06bd 57da 47bd 0728 a53d 37ac 9e3d
00000310: ad31 5bbd 478b b43d c0a8 3b3c a6a3 05bd
00000320: 980d eebc 4089 69bb 18d4 cabc 9327 8dbd
00000330: 5ec6 183d 6c22 edbc d2fe 363d 153c 823d
00000340: 839e b4bd 4227 203d 007f b8bc e591 933d
00000350: 5ff3 8f3d 804e 2bbc 707a 2a3c 80db b93a
00000360: 126e 5e3d 9f08 c93d 60ff 73bb 5a3b afbd
00000370: cc90 c73c 80bc 103c c085 093c 0a08 0e3d
00000380: 709a 0fbc f0d3 6f3c 3b35 a23d b3a7 b73d
00000390: b422 9a3c e5bc 8f3d 8974 993d 00b5 cbbd
000003a0: 6769 be3d a20b 753d 7381 7bbd af13 923d
000003b0: e16c bc3d c7e0 883d c0a6 043b da2f 1abd
000003c0: 43b9 803d aadb 0abd 11aa ae3d 4333 68bd
000003d0: afa0 b03d b0f4 d4bb 98d7 cb3c bf03 b5bd
000003e0: 8001 f8bb 4368 a4bd 512a a23d 8a02 6a3d
000003f0: b32e 2dbd 5d2e 52bd 40a9 bc3c 5d9d 853d
0.06065633 -0.02053082 -0.068197265 -0.06373848 0.040629767 0.043468513 -0.018370546 0.044719048
0.030136578 0.010738149 0.0819178 -0.04513829 -0.07099787 -0.010355577 -0.00035782158 0.09914345
-0.07703161 -0.00441245 0.060685016 0.0172024 -0.044328343 -0.030500308 -0.06750749 -0.021920562
0.04956863 0.09825223 -0.09076827 -0.088675074 -0.0124090165 0.022192694 -0.042315185 0.012029767
0.0833754 0.06462783 -0.009828374 -0.051760506 -0.02185011 0.08587485 -0.042499732 -0.04723983
0.02702228 -0.00045713037 -0.0808272 0.030154578 0.0070459694 -0.09616367 0.01994332 -0.04961536
-0.0007088557 -0.00016491115 -0.08046196 0.02671928 -0.06698491 0.08396093 0.06450144 -0.0029619187
0.021512225 -0.028794192 0.05481703 -0.04064845 0.07196384 0.06474695 -0.028417505 0.06820042
0.058091052 0.07266811 -0.061150312 -0.026161686 0.0320471 0.082483165 0.00076568127 0.033898525
-0.056498397 -0.027921341 -0.018373191 -0.06264013 -0.03403519 0.09250378 0.013590895 -0.030919299
0.03668379 0.06462658 -0.030903794 0.005709566 -0.080558 -0.080868945 0.066754945 0.024815954
-0.09132358 0.06636942 -0.020315826 -0.062549144 0.027591653 0.05771976 -0.031770863 -0.023072086
0.08572235 0.08195641 0.061891533 0.024418078 0.06811272 -0.029300496 0.029323362 -0.08625095
0.016259953 -0.027529657 0.06737485 0.09639206 -0.027190804 0.036444373 -0.07080569 -0.08834223
0.011167847 -0.04198469 0.0027323142 -0.073176146 -0.02020897 0.010213241 0.09455889 0.05142618
0.042342953 0.085746996 0.09585231 -0.017260864 0.054678224 -0.056712735 -0.022275902 0.07216854
-0.067112595 0.09929664 -0.0050510615 -0.074140206 0.013601437 0.052215956 -0.049622525 -0.00981617
-0.016627654 -0.062435783 -0.032243565 -0.060411014 -0.07575939 -0.06825948 0.040215082 0.07988069
0.07956206 -0.02862008 0.043115027 0.01640942 0.06479078 0.0005297214 -0.013501421 -0.055750776
-0.061991107 -0.08935183 0.090445556 -0.011968873 -0.06797359 -0.0020501837 0.081601985 0.06640697
-0.0029102787 0.07266841 0.011881486 0.050015233 0.00019310415 0.053488232 -0.06526504 0.0013616309
-0.00758864 -0.055788815 0.026542343 -0.05955516 -0.032742478 0.08576275 -0.0033140182 0.08080425
0.0677617 0.035370834 -0.05671202 -0.05752616 -0.017142132 0.05695384 -0.008436203 -0.048063457
0.004336819 -0.05817422 0.04728312 0.023857012 0.0016542822 -0.07592709 0.0705776 0.020638958
-0.03277012 -0.04879221 0.08064275 0.07747691 -0.05351417 0.088156275 0.011453807 -0.03262677
-0.029059216 -0.0035634786 -0.024759337 -0.06892314 0.037298553 -0.028947078 0.04467661 0.06359116
-0.08819296 0.03909994 -0.022521496 0.072055615 0.07028841 -0.010455728 0.010405168 0.0014179796
0.05430419 0.098160975 -0.0037231073 -0.08556242 0.024361037 0.008834004 0.008393705 0.034675635
-0.008764848 0.014637932 0.07920309 0.08967533 0.018815376 0.07018451 0.074929304 -0.099466324
0.09297448 0.059825547 -0.06140275 0.071326606 0.092004545 0.06683498 0.0020240992 -0.03764329
0.06285336 -0.033900894 0.08528531 -0.056689512 0.08624398 -0.0064988956 0.024883077 -0.08838605
-0.007568538 -0.08027699 0.079182275 0.057131328 -0.042280864 -0.051313747 0.023029923 0.06524155

controller.0.weight f4 [100, 28]
00000000: dfe6 a03b cd15 cebe e214 8a3e d20d cd3c
00000010: 602d 84be f449 d73e 0279 f93c 9a5a f13e
00000020: 9616 2d3d 6504 b8bc 8a67 223d 4c6d 6c3d
00000030: 1b25 513d 449f 02be 0774 6f3e d3c3 703e
00000040: d5b7 15be ebdc 463e c2b8 8abe f660 e33c
00000050: 70e0 053e 9944 8abb 96a8 f8bd 7694 1dbe
00000060: ca68 2e3d e3a0 5dbe 7772 53bb 1ca8 27be
00000070: ae87 6ebe 4810 37be a8fa 43be d728 88be
00000080: 02b3 4fbe ae60 9bbe d3aa 64be 6750 a6be
00000090: f9d4 d93d f75b ebbc f9ad b23c affa 0c3d
000000a0: 410a 813d f2be d2bd 996c 923d 3789 b73d
000000b0: c902 46bd de3a c0bb 0da8 32bd ef52 743c
000000c0: 304b 7b3d 8836 96bd 6d9c 2abd 0da0 093d
000000d0: d3f8 38bc 2869 6abd 34fb 603d 0a9a 35bd
000000e0: ad21 a0be ed47 6fbe c2b7 93be 879b b2be
000000f0: fa2c 73be b2a0 b5be e2db cfbd 9a84 543d
00000100: 4fed b13c ebc4 66be c760 93bd b846 32bd
00000110: c302 8a3e 910a 2cbe f302 eabc f7d7 793e
00000120: c2c5 6dbe 74cd 773e 533c 093c dfe7 693e
00000130: 626a 353d 701c ddbd b746 bebd f301 bcbd
00000140: cc1d 7fbe e0f1 a1bd 2ae9 80bc 037a 233d
00000150: 85e2 ab3e 58a8 89be 085a ce3e a4fd 143f
00000160: 2dfd 06bf 0705 85be d736 113f a82e 86be
00000170: a725 3abd b8d9 a1bd 55c1 47be 4d20 36be
00000180: 0f3d f53d a307 743e cfc5 753c 6fcb 82be
00000190: 0c43 8abc 1398 ecbd 1bc0 923d 14b5 333e
000001a0: 97be 44be 7c37 5e3e 4deb 00be cdb8 93b9
000001b0: 3218 393e 5e66 803d 33f1 36be dc13 5a3e
000001c0: 6067 c6be 0652 67bd 214c 6d3d f299 313f
000001d0: 4e68 1b3f 84df 2b3f 823e 263f dd40 73bd
000001e0: c392 5d3d 619c fcbc 7538 7dbe 7fc7 523e
000001f0: f150 4e3e 00f5 47bd e91f 313e dfb6 8abd
00000200: 30f2 ed3d 19db 263e d58e c4bd 399e a43e
00000210: fabb 363d ffe8 2abe b14b 99bd 597c 12bc
00000220: 67fd 81bd 5069 11be 856f 623e 529a 943c
00000230: 917b e13e 4f35 043f 0a40 e93e c245 203f
00000240: 78a6 1f3f 4193 debe f40f 92be 354f f83d
00000250: 1117 90bd daba 2abe 9fe0 8cbe dcc4 9a3d
00000260: cad7 303e e8f9 77be 36c7 623d fba1 e43d
00000270: 4576 8bbe f091 103e 83b2 93be e2a5 133e
00000280: ebc6 433e c2e2 0cbe 59a3 a5bd 33f7 85be
00000290: 5edc 6cbe d5cd 27be bf82 b83c 6cb9 d2bd
000002a0: b9b4 823e 5acc 093d 520d fd3e c7f5 33be
000002b0: 596d 0b3f 0c1f 253f 134f febe 4a1e 93be
000002c0: f887 803e 87da 19be 93f4 66be a2b8 34bd
000002d0: cf85 a33e cc36 71be c479 703e 2d40 853e
000002e0: d6e3 b43b 52f3 723e 213f a4bd eca1 f33d
000002f0: 3fb3 a1bc 6b1f aebd fd10 94be 1dca 7f3c
00000300: 62e0 82be 4342 0bbe 9eda c33d 23b7 153d
00000310: 4cf4 803c dfab df3c 12eb 59be 4b14 3c3f
00000320: 9b4e 213e 36f6 66be 8d02 2f3f 69db 173f
00000330: 381f edbc ee0b 3cbe 9f78 9fbd 1a48 80bd
00000340: c1a5 c93c 18ff eabd 1b86 253e 2475 8f3d
00000350: bac4 2abe 5553 403e 68b4 1e3c 305b 3a3e
00000360: be24 123e a4c8 033e 9eaa e6bc 6db8 3ebd
00000370: 8af9 0e3d 0fc4 d83d 82b3 7abd 709a a4bc
00000380: 60f4 213f 6a1d e7be 7ae1 3f3f 9e32 a6be
00000390: 6abc 0f3f 587b 13bd 16ab 293f d589 393f
000003a0: d268 97bd 0b45 a33c 3a07 27be 919c 883d
000003b0: 7dd6 383e 19a0 8dbd 6716 013e b8f4 ba3b
000003c0: 9be5 0bbc c2a5 ad3a 45f5 d7bd 2442 283e
000003d0: c7d3 9cbd 80c3 893d f6ea 4abe d34d efbd
000003e0: be7f b6bd da54 013e 8fd3 333d 5938 32bd
000003f0: fec0 9dbe 0468 a5be a3a1 a8be 0dee b7be
0.0049103345 -0.40251008 0.26969057 0.025031004 -0.25815868 0.4204861 0.030453209 0.47139436
0.042257868 -0.022463033 0.039649524 0.05772142 0.051060777 -0.12756068 0.23384105 0.23512201
-0.14620908 0.19420211 -0.27094084 0.027756196 0.13073897 -0.0042196033 -0.1214153 -0.15388665
0.042580403 -0.21643405 -0.0032264271 -0.16372722 -0.23293945 -0.17877305 -0.19138587 -0.26593658
-0.2028313 -0.30347198 -0.2233079 -0.32483217 0.106363244 -0.028730376 0.021811472 0.034418758
0.06300784 -0.10290326 0.071496196 0.089617185 -0.0483425 -0.0058663925 -0.043617297 0.014912351
0.061351 -0.0733462 -0.041653086 0.033599902 -0.011289793 -0.05722919 0.054927066 -0.044336356
-0.31275693 -0.23367281 -0.28851134 -0.34884283 -0.23747626 -0.35474163 -0.10149361 0.05188427
0.021719603 -0.22536056 -0.07196193 -0.043524474 0.26955232 -0.16800906 -0.02856586 0.2439879
-0.2321997 0.24199468 0.008376199 0.22842358 0.044290908 -0.1079644 -0.092908315 -0.09180059
-0.2491371 -0.07907462 -0.015736181 0.03991128 0.33571258 -0.2688625 0.40303063 0.58199525
-0.52730066 -0.25980398 0.56724304 -0.2620747 -0.045446064 -0.07902855 -0.19507344 -0.1778576
0.11974537 0.23831038 0.0150007745 -0.25545833 -0.016877674 -0.11552443 0.071655475 0.17549545
-0.1921333 0.21700853 -0.1258976 -0.00028175712 0.18075636 0.06269525 -0.17865448 0.21296638
-0.38750744 -0.056474708 0.05793393 0.69375527 0.6070603 0.6713793 0.6493913 -0.05938803
0.05409504 -0.030836286 -0.24728568 0.20583914 0.20148064 -0.048817635 0.17297329 -0.06773161
0.11618459 0.16294517 -0.095975555 0.32151964 0.044612862 -0.16690443 -0.0748514 -0.00894078
-0.06347161 -0.1420033 0.22112854 0.018139992 0.44039586 0.5164384 0.4555667 0.6260644
0.62363386 -0.4347172 -0.28527796 0.121244825 -0.070356496 -0.1667284 -0.27515122 0.07557079
0.17269817 -0.24216425 0.055365764 0.11163708 -0.2723867 0.1411817 -0.2884713 0.14418748
0.1911885 -0.13758376 -0.08087797 -0.2616516 -0.23130938 -0.16387112 0.022523282 -0.10289273
0.25528505 0.03364215 0.49424225 -0.17574225 0.54463726 0.645005 -0.49669704 -0.28734046
0.25103736 -0.15024768 -0.22554235 -0.044121392 0.31938025 -0.2355606 0.2348395 0.26025525
0.005520324 0.23725632 -0.080198534 0.118961185 -0.019738792 -0.08502086 -0.2891921 0.015612152
-0.25561816 -0.13599496 0.09563182 0.036551606 0.01574149 0.027303634 -0.21281078 0.73468465
0.15752642 -0.2255486 0.6836327 0.5931917 -0.02894555 -0.18363926 -0.077866785 -0.06263752
0.02461517 -0.114744365 0.16164438 0.07004765 -0.16676608 0.18781789 0.009686567 0.18198848
0.14271829 0.12869507 -0.028157528 -0.0465626 0.034905948 0.1058427 -0.06120635 -0.020093173
0.6326351 -0.4513963 0.74953425 -0.32460493 0.5614687 -0.0360063 0.6627668 0.7247594
-0.0739304 0.019930383 -0.1631135 0.06670488 0.18050571 -0.06915302 0.12606202 0.0057054423
-0.008538629 0.0013248252 -0.10544828 0.1643148 -0.07657581 0.06726742 -0.19816193 -0.11684766
-0.08911084 0.12630025 0.04390293 -0.04351077 -0.30811304 -0.3230592 -0.3293582 -0.35923806

controller.0.bias f4 [100]
00000000: c93d b83e 5d46 4a3c ec52 893e 1a1c 723e
00000010: c6c0 003d 8620 2b3e 64bb cf3e 762a c93d
00000020: 1985 523d 012b 6f3e c7bf cc3e 2fa6 6d3e
00000030: 6d21 9a3e 87c9 833e 43a4 363e 4af9 d83d
00000040: ffe6 ab3c 8869 3f3d 89a8 0a3e f3b9 9b3e
00000050: e36b ba3e 8ed5 7c3e 14ba 733e 31ba 723e
00000060: 792b 4cbe 73e0 a63e 3646 9f3e c72d c53e
00000070: dad3 773e 3baf a83e be13 833e ad88 533e
00000080: 5f0e 873d c635 033f a758 323e b6be 6e3e
00000090: 2991 ba3e c339 6b3e bdb9 643e b448 dc3d
000000a0: 6570 ff3d b34a 153e cbed e23e 5c8f 9f3e
000000b0: 1d19 bf3e fa68 16bf 0a48 1b3f cbdc b23c
000000c0: 4c2d f039 57e9 733e e9b2 303e 2323 613e
000000d0: f67d 613e 7e30 fd3e 5d6b 293d 7190 37bc
000000e0: c6b8 9f3e 4efe 7e3e 481a 5a3d 4494 c93d
000000f0: c518 cbbc ba12 953e c031 6d3e 7293 353e
00000100: f208 53bc e240 803e 9860 843e a53f 9c3e
00000110: f3e8 7d3d 4d92 8f3e 18d7 0ebe 0838 2e3e
00000120: e9df 633e 084f 7e3e 7130 a13e 8cd3 eb3e
00000130: f45c 243e 033c 1f3e 4f61 9b3e d583 803e
00000140: 511f 423e 73de 993e 5b35 d93e acf0 853e
00000150: c62c 5c3e 7a40 5e3e 28c1 233e d8cf 3e3e
00000160: 9d00 773e a11e 603e 4e00 213f 9e5f 8e3e
00000170: de94 473e 49af 2c3e 895a e43e 688a a93e
00000180: db56 a03e 633b 083d 790b ebbc 74dd 633e
0.35984638 0.0123458775 0.26821077 0.23643532 0.031433843 0.16711625 0.40572655 0.09822552
0.051396463 0.23356248 0.39990065 0.23207925 0.30103627 0.2573969 0.17836098 0.10594423
0.020984171 0.0467315 0.13540854 0.30415305 0.36410436 0.2469084 0.23801452 0.23703839
-0.19938459 0.32593116 0.31108254 0.38511488 0.24201909 0.3294619 0.25601 0.20657606
0.06594538 0.51253927 0.1741663 0.23314938 0.36438873 0.22971253 0.22336479 0.107560545
0.124726094 0.14579277 0.44322047 0.31164062 0.37323847 -0.5875393 0.606568 0.021833798
0.00045810116 0.23819481 0.17255749 0.2198606 0.22020707 0.4945106 0.041362155 -0.011203871
0.31195658 0.24901697 0.05324772 0.098427325 -0.024792084 0.2911585 0.2316351 0.17732027
-0.012880551 0.25049502 0.25854945 0.30517307 0.061989736 0.28041306 -0.13949239 0.17013562
0.22253384 0.24834836 0.3148227 0.46059835 0.16051084 0.15550236 0.30347678 0.2510058
0.18957259 0.30052528 0.4242352 0.2616018 0.21501455 0.21704283 0.15991652 0.18633974
0.24121328 0.21886684 0.6289109 0.27807325 0.19490382 0.16863741 0.44600323 0.33113408
0.31316265 0.03325976 -0.028691994 0.22252446

read_head.key_layer.weight f4 [20, 100]
00000000: 9816 cabb da62 ea3d 6997 51bc 7c17 2abe
00000010: db26 6dbd ec6f 97bd d728 843b 32c8 a4bc
00000020: 7c5f dc3c 5961 9f3d 6756 813d e295 333c
00000030: 59d9 503d 14c1 023d b44f 933c 9c38 063d
00000040: d2b8 333e 6bc8 953c ffaf dc3d 2c9f 193d
00000050: 12ed a8bd 9a4a 653d 416a a63d 6c17 4abe
00000060: d73a d9bc ec27 3fbc ec73 50bd d358 1bbd
00000070: 2654 e3bb 68f7 82bd 294c a93d c2ed 02bd
00000080: 3f11 d3bb e324 6fbd a7eb 64bd cb4b 073d
00000090: fd02 643b 82cd 323c 15bc 30bd 4297 573d
000000a0: 4736 9bbc ec6c 1bba 075d 0c3b 3097 e7bd
000000b0: 55a9 8f3d 0b7d ccbc d7a3 913d 3f3e fa3c
000000c0: 24d4 8bbd 9a62 e7bd b2e4 a93d 9b47 b33d
000000d0: df26 293d fa48 a0bd edfb 5cbd 206e 063d
000000e0: a72b 4c3d 30d9 233d dbf0 d9bc d1e2 51bd
000000f0: 6756 62bd 6966 2ebd 0a38 c5bc 0ed1 f3bc
00000100: f8b7 203b 8af5 81bd b5d0 3bbd 17a4 953d
00000110: 938a 80bd 7298 3bbd 3b0a 1f3c 80bc 02be
00000120: c57a ecbc f57a a7bd 4683 493d 44a1 8fbb
00000130: 9edd e83d 4143 4b3d f4ac 97bc c13d 6bbb
00000140: 407c df3d e201 44bd b374 c5bd 96e1 09bd
00000150: 8eae 58bd b48b 2b3d 25a3 edbd 50cd c4bd
00000160: 03a8 81bb f939 b5bd 35b9 9e3d 3a5a f83c
00000170: 2070 4d3d 6d2a 4d3c 4898 07bd 68ce 8c3c
00000180: 0fcb 583d 39f0 3fbd 3080 8abd d33c 3b3c
00000190: 71c8 0b3d 22f4 95bc 323c f03c e710 93bd
000001a0: f326 8bbc 3a99 353d b201 553c 4904 3a3d
000001b0: dcf6 b33c e4ee 4a3b 064c d7bc 9725 f0bd
000001c0: bf4c 293d f0a9 0f3d 6af9 c5bd 8df4 573d
000001d0: ba1d 06be a433 433d f728 923c 85b7 ae3d
000001e0: fb77 10bd bac2 cd3c 257b 953d 3fd5 7e3d
000001f0: 0e19 f43c 0b49 d3bc 14f5 d83b afe1 2e3d
00000200: 037a 50bd 9e04 acbc a08f a23c a983 8ebd
00000210: d634 84bc 1162 7cbe 9364 963d d6b5 3e3d
00000220: f2c6 10bd c736 073d 8f59 24bc 4e7d 863c
00000230: 83ce e53c 7959 ff3c 363c 28bd 8d4b a03c
00000240: 2ff5 963c 77e4 b2bc 7d1f 41bd 7d3b 84bd
00000250: e5c5 813d f037 213d ce87 68bd e74f 23bd
00000260: bb19 78bd db0d 963b 1ca1 72bd adf6 983d
00000270: aaea 70bd be13 75bc e57e b83c 5f85 d23c
00000280: 6c97 e83b af06 d03d ff9e 803b 43f1 1fbd
00000290: d449 8fbc dba0 6f3c 6cf0 bebc c489 cebc
000002a0: 451e cfbd 5439 093d 597d 933c 2e26 d23b
000002b0: 78b9 00bd b162 af3d c52c 41bd 32b6 923d
000002c0: b83f aabd 423b c5bd 6275 f3bc 2964 bc3c
000002d0: 79ee bbbd 2107 00bd d45d 6cbc 6efa 853d
000002e0: 6fb8 de3d 36c5 d1bc 087b 13bd dd55 5fbc
000002f0: b00e a73c 3289 a8bb 5af7 24bd 8b60 aabd
00000300: a9d9 a23d edc0 75bb ad4a 9b3c 3aa2 17bd
00000310: af42 5fbd 8af8 813c 255c 0c3d 561b 873d
00000320: 1075 b0bd c1e1 c3bd 1c4f 90bd 653f 953d
00000330: c037 56ba 4eea b3bd a891 a2bd 0df1 eabc
00000340: 712e 113d 7b9c efbc 41c5 993d 1ea6 143c
00000350: 4c5d a6bd e11e bfbd be5e 10bc f1a9 28bd
00000360: cdb8 9abd 0a02 363d e41d 0e3d 903e 1c3d
00000370: 9a67 f2bc 54ec b2bd 4e1a 943c c2fc 083d
00000380: e848 b13c b16d 74bd c1c5 b43d b6de c33d
00000390: 6090 01be 72da 303d 5ec1 fc3b b3c2 c33c
000003a0: a400 04be 286c 0fbd 3785 80bd 26bc 10bd
000003b0: f3f2 1f3b 618f 1bbd 6490 59bc fddf 273c
000003c0: 7fb7 333d 9465 b33c 4ca8 aa3b a8ce 29bd
000003d0: e1fc f1bb 79f9 02bd e654 fa3c c4d4 2cbd
000003e0: fd3e 0b3d 1735 983d ad0a 31bc fd51 e9bd
000003f0: 033e 1b3d 7b41 65bd 3e45 ca3b a29b e0bd
-0.006167244 0.11444636 -0.012792447 -0.16610521 -0.057898384 -0.07394394 0.004033189 -0.020114992
0.026901 0.077822395 0.06315308 0.010961028 0.05098853 0.031922415 0.017982341 0.03276883
0.17550972 0.018284043 0.10775756 0.037505314 -0.082483426 0.05597935 0.08125735 -0.19735497
-0.026517315 -0.011667233 -0.0508918 -0.037926506 -0.0069375215 -0.06394845 0.082664795 -0.031965025
-0.006441265 -0.058384787 -0.055888798 0.033031266 0.003479182 0.010913255 -0.04314812 0.052634485
-0.01894678 -0.00059290114 0.0021417753 -0.113081336 0.070147194 -0.024961969 0.07111328 0.03054726
-0.06827572 -0.11298104 0.08295573 0.08753892 0.041296836 -0.07826419 -0.053951193 0.032819867
0.049846318 0.040002048 -0.026604107 -0.0512417 -0.05525818 -0.042578135 -0.024074573 -0.029762771
0.0024523716 -0.06345661 -0.045853335 0.07306688 -0.06276431 -0.04579968 0.009707029 -0.1276722
-0.028867135 -0.08177749 0.049197458 -0.004383238 0.11370395 0.049624685 -0.018515088 -0.0035894962
0.10912371 -0.047853358 -0.09641399 -0.0336624 -0.052900843 0.04188128 -0.11603383 -0.09609473
-0.003956796 -0.08848948 0.07750169 0.03031646 0.05015576 0.012522322 -0.03310421 0.017188266
0.052928027 -0.046859954 -0.06762731 0.011428076 0.034126703 -0.018304888 0.029325578 -0.07180958
-0.016986346 0.04433558 0.0130008925 0.045414243 0.021968298 0.0030965144 -0.026281368 -0.1172592
0.041332956 0.035074174 -0.096667126 0.052723456 -0.13097277 0.04765667 0.0178418 0.08531097
-0.035270672 0.025117267 0.072988786 0.062215086 0.029797103 -0.025791666 0.0066210125 0.042695697
-0.05089761 -0.020998295 0.019843876 -0.06958706 -0.016138475 -0.24646784 0.07343402 0.04656013
-0.03534598 0.033011224 -0.010031118 0.016417172 0.028052574 0.031170594 -0.041073047 0.019567275
0.01842746 -0.021837456 -0.04714917 -0.06456659 0.063365735 0.039359987 -0.05677014 -0.039871123
-0.060571413 0.0045792884 -0.059235677 0.07468925 -0.058817543 -0.01495832 0.022521446 0.025698362
0.007098129 0.10157525 0.003925204 -0.039048444 -0.017491259 0.014625753 -0.023308001 -0.025212176
-0.10113195 0.033501938 0.018004106 0.006413243 -0.031426877 0.08563746 -0.047161836 0.07163657
-0.08312935 -0.09630443 -0.029719058 0.022996979 -0.091763444 -0.0312568 -0.014426667 0.06541906
0.10875022 -0.025606733 -0.036006004 -0.013631311 0.020392746 -0.005143308 -0.040274955 -0.08319195
0.07951672 -0.0037499026 0.018956507 -0.037019946 -0.054506954 0.015865583 0.034267563 0.06597011
-0.08616078 -0.095645435 -0.07046339 0.07287482 -0.00081717595 -0.087849244 -0.07937938 -0.028679395
0.03544468 -0.02924942 0.07508326 0.009072809 -0.08123264 -0.093320616 -0.008811651 -0.041177694
-0.07554779 0.04443554 0.034696475 0.0381456 -0.029590417 -0.08736482 0.01807895 0.033444174
0.02164121 -0.059674922 0.08826781 0.09563963 -0.12652731 0.043177076 0.007713481 0.02389655
-0.1289087 -0.035015255 -0.06275409 -0.035335682 0.0024406284 -0.037978534 -0.013279054 0.010246274
0.043876167 0.021899022 0.005208051 -0.04145685 -0.007384882 -0.031976197 0.03055806 -0.042195097
0.033995617 0.07432001 -0.010805768 -0.11392591 0.037900936 -0.05597065 0.006172805 -0.109671846

read_head.key_layer.bias f4 [20]
00000000: 18b6 ab3d 108a ccbd 643f 6d3d 1e17 413d
00000010: 1671 47bd ee38 ffbb bafe 42bd cb4e 903d
00000020: d246 c1bd 1b52 113c be99 cebc 465e 7fbd
00000030: cd1d 203d 162f 25bd 55b0 b4bd a989 cb3c
00000040: 42fa e6bc d1c0 00bd 46c6 5cbd 7a86 b1bc
0.08384341 -0.09987271 0.057921782 0.047141187 -0.04869183 -0.007788769 -0.047606207 0.070462786
-0.09437336 0.008869673 -0.025219794 -0.062345766 0.03909092 -0.040328108 -0.08822695 0.024845915
-0.028195504 -0.031433884 -0.053900026 -0.021670569

read_head.beta_layer.weight f4 [1, 100]
00000000: fb3e b53e daf5 e73d 311d 833e e9e2 523e
00000010: 3480 013e fe4e a03e 4890 923e 2616 c23e
00000020: 38e9 983e 9e47 373e 82d5 a03e 2c0f 1f3e
00000030: 2424 9d3e c20a 7b3e 4523 913e a90e a23e
00000040: 8251 c33d db77 ce3e 4b87 6f3e e806 623e
00000050: f73c a53e 6c8d ab3e aa6f 513e e2f6 263e
00000060: 8348 a73e 9385 163e 7f25 953e 5ba7 bc3e
00000070: 31e9 a73e 7a94 5c3e e038 9f3e 9090 333e
00000080: 82f5 873e 6241 f43e ff90 553e 8639 313e
00000090: 3ae6 9c3e 70da 423e 7a73 173e 9143 643e
000000a0: 342c b43e 1a22 803e 4e05 b13e ede7 993e
000000b0: b6f3 653e 2098 8b3d ed66 e63e 3806 893e
000000c0: c8f5 543e 2f3b 593e 2062 193e db5a e03d
000000d0: 9ef4 1f3e 2dc5 8d3e 4903 af3e a111 043e
000000e0: dc60 ab3e 023f e23d 3bb2 783e 60f8 4a3e
000000f0: 74da 893e a6af 7d3e e1d8 9a3e e9b8 443e
00000100: 146c 213a 558f a03e 7670 8b3e 9be6 2e3e
00000110: 74d3 423e d90b 953e 2511 203e 887b 333e
00000120: 31c5 1c3e 67eb a13e 6c26 9b3e dd8a 9f3e
00000130: 105f 8f3e bb39 0b3e 2634 983e a05e 893e
00000140: da37 573e a265 403e 79ba a03e 9b63 1c3e
00000150: 6880 9b3e 18a2 1a3e 1661 623e c1ac 0c3e
00000160: 7723 3c3e a2fd 403e 6063 cc3e 8eea 913e
00000170: 6243 b83e 6423 5f3e 5faa 873e 0164 cb3e
00000180: fcbe cb3e cc2c 243e 8b15 363e 7121 4a3e
0.35399613 0.11326189 0.2560821 0.20594372 0.12646562 0.31310266 0.28625703 0.37907523
0.29865432 0.17898414 0.31412894 0.15533131 0.30691636 0.24515823 0.2834722 0.3165181
0.09537031 0.40325817 0.23391454 0.22072947 0.32273075 0.33506334 0.20452753 0.16305116
0.3267251 0.14699392 0.2913017 0.36846432 0.32795098 0.21541014 0.3109808 0.17535615
0.26554495 0.47706133 0.20856093 0.173071 0.306444 0.1902864 0.14790145 0.222914
0.35189974 0.25026017 0.3457436 0.30059758 0.2245625 0.06816125 0.450004 0.26762557
0.20796883 0.21213983 0.14978838 0.10954829 0.15620658 0.27689496 0.34182194 0.1289735
0.33472335 0.11047174 0.2428674 0.1982131 0.2692448 0.24774036 0.3024359 0.19211163
0.00061577675 0.31359354 0.27234238 0.17080157 0.19025975 0.29110602 0.1563154 0.17527592
0.15309598 0.3162491 0.3030275 0.31160632 0.28002214 0.13596241 0.29727286 0.26830006
0.210174 0.1878877 0.31392267 0.15272371 0.30371404 0.15100896 0.22107348 0.13737775
0.18372904 0.18846753 0.39919567 0.28499264 0.3598891 0.21790844 0.2649717 0.39724734
0.39794147 0.16032714 0.17781655 0.1973932

write_head.key_layer.weight f4 [20, 100]
00000000: 07c5 df3d cac4 833d 9f40 ae3d 8c70 ae3d
00000010: 0b40 b63d e781 f03d 61db e13d c419 ed3d
00000020: 19d9 833d e577 a13d ae93 913d 8311 a83d
00000030: 2c37 a63b e170 2d3d 29c0 1b3d 6a60 253d
00000040: 4d60 a13d 8dab 393d 6425 b93d 3039 1c3e
00000050: 2681 993d ab05 743c cb42 503b 6e6a e33d
00000060: ef17 943c 2f82 1abc 853e 273d 1041 f33d
00000070: e56b bf3d fec7 013e 3a36 cf3d ee77 723d
00000080: 23ea b43d 4304 533d 1db4 443d 15a8 bb3c
00000090: 50d7 7a3d 40a8 a83c 72d2 7a3d eaa3 673d
000000a0: da1b 4a3d 6a18 043e 7f97 583d 332e 563d
000000b0: 7899 cd3d c6d9 de3d f487 823d fb38 783d
000000c0: 67c6 b3bc 5af7 d93b e919 ef3d cf87 ce3d
000000d0: 7126 1d3d d1de e23d 4311 a73c c037 063d
000000e0: 5fb2 ca3c 2196 813d fd7d a43d 7ef3 ab3c
000000f0: 3359 ab3d 9e3f 3dbc 4288 e53c cdb6 9c3d
00000100: 6352 18bc 0a93 3d3d 49bc 0d3e 86bd 7f3d
00000110: f23f 0fbc 85e9 6d3d 1e85 9e3d 2be1 923d
00000120: 16c6 633c 6e65 fe3d 6ace 903d c6ee 0d3c
00000130: 9a99 923d fcf4 ab3d 7ecc a83b c360 073c
00000140: cc1d dd3d 88c2 453c f143 053d e416 85bb
00000150: de63 7e3d 38a7 b13d 8abc c03b 6fbe a43d
00000160: db4a 9a3c 6efa e53b 8059 9c3d d64e 0d3e
00000170: 6110 dd3d 303d 943d 9872 593d d195 8e3d
00000180: df9f 6a3d b220 833d a09d 343d 5693 b03d
00000190: 546f 6abd 8a09 0ebb 6eb1 01be 72a8 013d
000001a0: 9d00 823c 6d14 f93c 01eb 06bd 6b09 4cbc
000001b0: f97d 783b 0eab f2bd 4c0f f3bc fe05 e9bc
000001c0: 6da3 2d3c d8ba 38bb 7d8f 45bd 9e21 98bc
000001d0: c915 a1bc 12b6 42bd 7baf 69bc 6c9a 93bd
000001e0: ab63 cdbc 09b1 a7bd 4945 6a3d 6291 6f3d
000001f0: 34a9 633d 62b0 633c 6a23 6fbb d4ee 9cbd
00000200: 5c49 2bbd 47b8 b83d fb96 02bd 69bc 113d
00000210: 22ba 16bd 1c6a 223d 621c 563d dceb edbd
00000220: 1ef0 9d3d 379d 4ebd c864 31bd b8df 5e3d
00000230: 45ef 363d 65ee 0bbd 3617 a2bc edd5 913d
00000240: be7d d2bc ebf9 4fbd e12b 273d a1f8 61bc
00000250: 2f88 3d3d 4080 6c3c 1c39 c0bd cfd7 d6bd
00000260: ebf6 bb3c 2f77 3abd b8ed 233d 98b4 2abd
00000270: 4a49 fe3c f385 943c 5d7f 0cbd c02b 0f3d
00000280: fa4f 23bc 5573 d4bd 176b 393b 46fd 823d
00000290: fa12 08bc f8fe bdbc 5591 32bc d7ca 2fbd
000002a0: 10f3 1a3d 7cd9 36bd 9cfa f6bc 38b6 71bc
000002b0: 1c6a 093d 27fb 1d3d cbee 87bc 86e0 d83c
000002c0: fd77 843b 2126 97bd f54d aabd b99a 3b3c
000002d0: 4fef 4b3d c8d6 8dbd b952 30bd 5fdc ab3d
000002e0: 51d3 603c 9799 38bd 61a9 3f3d b96d af3c
000002f0: 8115 0fbd 7048 943a f45c 52bc b8ba 373d
00000300: 5baa 503d 66d4 30bd f9ce be3d a4b6 ecbb
00000310: 6ba4 f1bc 21d5 4ebc 0b73 4dbd 26d5 febd
00000320: e661 583c c401 bcbd a061 15be 6bdf ff3d
00000330: f7b8 973d 6b0a 85ba 2980 193c 7bda 9c3b
00000340: c853 163c 61ab 42be c444 343d 026b 11be
00000350: 03e6 0b3d e00f b83d 032b 3ebe cd86 5c3d
00000360: 22c9 edbd c210 9d3d 53df 623d 8f43 45bd
00000370: bc87 8dbb 9bc7 b53c 02dd e43c 55c2 9c3d
00000380: d436 a93d e90f 983d 45ca 4a3d 2aab a6bd
00000390: a0c1 9cba b149 db3d 3208 cc3c b8d4 91ba
000003a0: 421a 5f3d 7626 133d 40c9 f73d 081a a43c
000003b0: 0edf 2d3a a2e2 993d 0f7c 233d be9b e73c
000003c0: 522f 293d 55a1 933c 81ed 413d dd25 8e3d
000003d0: 9952 e9bb f259 4c3b 1f48 5abc 5bda 0f3d
000003e0: 7f50 8a3d 4698 eb3d 488f 4bbe 8b0a 01be
000003f0: 2cc3 5dbd d9ef c33b bfec b03d ac79 083e
0.10926252 0.06434019 0.08508419 0.0851756 0.08898934 0.11743527 0.11028171 0.1157718
0.064378925 0.07884196 0.07108246 0.08206465 0.005072495 0.042343978 0.038025055 0.04037515
0.07879696 0.04532962 0.09040335 0.1525619 0.07495336 0.0148939295 0.0031778093 0.11104284
0.018077819 -0.009430452 0.040831108 0.11877644 0.09346751 0.12673947 0.10117765 0.059196405
0.088337205 0.051517736 0.048023332 0.022907296 0.061240494 0.02058804 0.061235853 0.056552805
0.049342968 0.12899938 0.052878853 0.052290153 0.100390375 0.10881381 0.06373587 0.060601216
-0.021945192 0.006651801 0.11674864 0.10084497 0.03836674 0.11077655 0.020393973 0.03276801
0.024743257 0.06327463 0.08031843 0.02099013 0.08366623 -0.011550812 0.028019074 0.07652054
-0.009296986 0.046282806 0.13841356 0.062436603 -0.008743273 0.05808403 0.07740234 0.07171854
0.013902208 0.1242169 0.0707062 0.008662885 0.071582034 0.083963364 0.0051513305 0.008262816
0.10796699 0.012070306 0.032535497 -0.0040615667 0.06210696 0.086744726 0.0058818506 0.08044135
0.018834522 0.007018379 0.07634258 0.13799605 0.1079414 0.07238233 0.0530878 0.06962169
0.05728137 0.064027205 0.044095635 0.08621852 -0.057235077 -0.0021673166 -0.1266534 0.031654783
0.015869433 0.030405248 -0.03293896 -0.012453417 0.0037916882 -0.11849032 -0.02967038 -0.02844524
0.010598046 -0.002818754 -0.048232544 -0.018570717 -0.019663708 -0.047536917 -0.014263029 -0.07207188
-0.02507194 -0.08188064 0.05719498 0.058488257 0.055581287 0.013897033 -0.0036489614 -0.0766274
-0.041818008 0.09019523 -0.031882267 0.035580073 -0.036798604 0.039651975 0.05227316 -0.11617252
0.07711814 -0.0504429 -0.043309003 0.054412574 0.04466178 -0.034162898 -0.019786458 0.07120881
-0.025694724 -0.05077545 0.04081333 -0.013792188 0.046272453 0.014434874 -0.09385893 -0.10490381
0.022944888 -0.04552382 0.04002163 -0.041676134 0.031040806 0.018130278 -0.03430115 0.034953833
-0.009967798 -0.1037356 0.002829259 0.06395964 -0.008305306 -0.023192868 -0.010898908 -0.042918053
0.03782946 -0.044641003 -0.030148797 -0.014752917 0.03354846 0.038569596 -0.016593358 0.026474249
0.004042624 -0.073803194 -0.083156504 0.011450463 0.04978877 -0.06925732 -0.04304764 0.08391642
0.013722257 -0.04506835 0.04679239 0.021414625 -0.034932617 0.0011313092 -0.012839545 0.044855803
0.050943714 -0.04317131 0.09316821 -0.007223921 -0.029497346 -0.012624056 -0.05015854 -0.124429986
0.013206935 -0.09180024 -0.14588022 0.124937855 0.07408326 -0.00101502 0.009368935 0.004786787
0.009175248 -0.19010688 0.044010893 -0.14200976 0.034154903 0.08987403 -0.18571095 0.053839494
-0.11610629 0.07669212 0.05538876 -0.048160132 -0.0043191593 0.022189906 0.027937416 0.076542534
0.08262411 0.074249096 0.049509306 -0.08138116 -0.001195956 0.10707415 0.024906252 -0.0011126017
0.0544684 0.03592535 0.12098932 0.020031944 0.0006632664 0.0751393 0.039913233 0.028272506
0.041304894 0.018021265 0.047345642 0.069408156 -0.007120442 0.0031181541 -0.013322859 0.03512035
0.06753635 0.11503653 -0.19878876 -0.12601678 -0.05414121 0.00597952 0.08638906 0.13327664

write_head.key_layer.bias f4 [20]
00000000: 244f bf3d 66e4 9fbd 989b 73bc b80a 0ebd
00000010: ac4f 3fbd 5273 813d f779 e93c 0aab cb3d
00000020: ed3b 17be e002 023e 58bb 17be dc0d 18bc
00000030: 3bfc c43d 96b0 fe3c 56df efbd fede 7a3d
00000040: 3a2e 0abd f984 35be 2077 9ebc 3c50 06be
0.09341267 -0.078072354 -0.014868639 -0.03467819 -0.04670684 0.06320824 0.02850054 0.099447325
-0.14768954 0.12696409 -0.1481756 -0.009280648 0.09618422 0.031090062 -0.1171252 0.06124782
-0.03373549 -0.17726506 -0.019343913 -0.13116544

write_head.beta_layer.weight f4 [1, 100]
00000000: 3b0f 5f3e 249c b53d 29a0 663e d8b3 713e
00000010: 5d5f 563e 48ac 853e 4b2f 773e 255a 8f3e
00000020: 0b95 773e a218 db3d 3864 2b3e fd53 4c3e
00000030: 1f54 8d3e 7b57 653e 24f6 2f3e 2aa1 7e3e
00000040: 2766 903d 0427 7e3e 08e6 853e b721 973e
00000050: 287f 8a3e 11e8 463e d862 523e 5429 7b3e
00000060: 311a 5a3e 1c7b 6d3e 6588 6f3e bdd7 593e
00000070: bbd2 453e 9847 823e e3e7 103e 56f8 7a3e
00000080: 1eca 003e f508 a43e b083 953e b357 923e
00000090: 50e6 213e 4a7c 373e 36d0 3a3e 4ddb 193e
000000a0: 76a9 8c3e 82e9 833e 0bdf 593e b276 973e
000000b0: 7a57 8d3e ab8c 613d 3404 a53e 42a9 843e
000000c0: bd8b 143e 57c5 503e 2545 373e 5866 7f3e
000000d0: 2493 643e c542 a73e 2e97 8e3e e35d 6c3e
000000e0: a6ef 263e ce81 3a3e 7534 5e3e da59 723e
000000f0: 7619 8d3e 7585 fa3d a49d 8c3e 0c75 7b3e
00000100: e591 4dbb e00b 023e b551 1d3e 8567 4f3e
00000110: 2952 2d3e d5ad 8a3e 19ae 5e3e eb6e 983e
00000120: f51b 963e b5c5 303e 5096 0e3e feb8 7e3e
00000130: 9757 503e f363 2a3e 07f1 0f3e b239 843e
00000140: 43e9 543e 7511 fe3d 03ef 2f3e 2143 973e
00000150: 77bb 7e3e b955 303e 9ce3 8f3e c594 463e
00000160: 14d4 3a3e eadb 7e3e 3281 633e 8347 863e
00000170: 0a52 613e 4ce2 e13d 01d2 843e aaa6 8e3e
00000180: 3623 823e 4754 5e3e 5d56 7f3e 4a37 e03d
0.21783154 0.08867672 0.22522034 0.23603761 0.20934816 0.26108003 0.24139135 0.27998462
0.24177949 0.10698058 0.16737449 0.19953914 0.27603242 0.22396652 0.17183739 0.24866167
0.07050734 0.24819571 0.26152062 0.2951791 0.27050138 0.19424464 0.20545518 0.24527484
0.21299054 0.23191494 0.23391874 0.21273704 0.19318669 0.25445247 0.14150958 0.24508795
0.12577102 0.32038084 0.29202032 0.28582534 0.15810513 0.17918506 0.18243489 0.15025063
0.27473038 0.2576409 0.2127649 0.29582745 0.27605802 0.055065792 0.3222977 0.25910383
0.14506431 0.20387779 0.1789747 0.24941385 0.22321755 0.3266813 0.27849716 0.2308269
0.16302356 0.18213579 0.21699698 0.23667088 0.27558488 0.12232486 0.2746402 0.24556369
-0.0031367477 0.12699842 0.153632 0.20254333 0.16925873 0.27085748 0.217461 0.29772124
0.29318205 0.17262919 0.13924527 0.24875256 0.20345913 0.1663969 0.14056788 0.25825268
0.20792107 0.124056734 0.1718102 0.29543403 0.248762 0.172202 0.2810334 0.19392689
0.18244964 0.24888578 0.22217253 0.26226434 0.22003952 0.11029491 0.2594147 0.2786153
0.2541749 0.21711837 0.24935289 0.109480456

write_head.erase_layer.weight f4 [20, 100]
00000000: 0cb6 b7bd fe4e 32bb 02ed 65bc c6eb 9dbc
00000010: 803f 03bd 796d 6cbd 7ce1 6ebd 8291 e5bc
00000020: c580 81bd 63eb 4cbc 3294 5fbd 8f71 35bc
00000030: cc59 6cbd 9176 7dbd ebb3 a8bc d7c2 53bd
00000040: b79a 00bb b744 49bd bddb 45bd a17c f9bc
00000050: 2705 bdbc 867e 3fbd 9fc7 18bd 45a1 14bd
00000060: 1bd9 22bd 93ae 33bd 8a3b afbc bdd0 0fbd
00000070: 20cd 80bd 7406 5ebd a071 02bd 8553 6cbd
00000080: 2b6a 85bd cb17 1ebd 3459 1dbd 4951 5cbd
00000090: 605f 4bbd 5fa8 9cbd 02f6 1ebd d656 84bd
000000a0: 2cfe 37bd cbba 6cbd fc10 3cbd 1e22 26bd
000000b0: 029b 5dbd b677 8cba 61a0 9ebd e3dd efbc
000000c0: 8580 7cbc 84d8 acbc 8db5 7cbc 0ff9 3dbc
000000d0: 76e8 47bd 9465 8cbd 0ae1 7c3c 555d 18bd
000000e0: d7e8 93bd 31a7 47bd 1f43 d6bc 9c38 acbc
000000f0: f22b d0bc d63f 25bd 97d2 90bd 7cd1 24bd
00000100: bc26 9bb8 d973 01bd c327 9dbd f094 35bd
00000110: f2fd 11bd 4d06 8bbd 01f5 f7bc 0c4a 0dbd
00000120: 7444 56bd 61d1 30bd ec8e 6bbd 3f83 06bd
00000130: b590 2ebd b89a 49bb add9 71bd 4127 5fbd
00000140: ea93 2fbd 09e9 34bd f44f 47bd dc2b febc
00000150: 068b fabc 7f0f 8abb 279b 003b e4cf 143b
00000160: ba97 80bd d2f1 b6bc e63b 6bbd eae8 6dbd
00000170: 153f 5abd f014 47bb d95f 2abd dcbf 53bd
00000180: 558b 4fbd 07fd 5dbd 8488 9abc 5645 02bc
00000190: 504a b7bc 904c 053d ae45 4a3d 0346 a3bb
000001a0: c9ce cebc ab88 56bd 25de 2ebd 40da 08bd
000001b0: c53a 29bd aca2 4e3d 13c2 4cbd fd67 583d
000001c0: 3919 20bd b76f 43bd ca47 3a3d 510b 67bd
000001d0: 9be5 153d ada8 74bd 5817 eebc a950 e83c
000001e0: fe45 afbc 6088 25bd 690f 77bd 5e5e 24bc
000001f0: 3301 90bd 4c1c 92bd 0f6d 23bd 61d6 00bc
00000200: 0223 a0bc 6af8 35bd efe0 05bd fc9a efbc
00000210: 0ac4 21bd 6d86 5cba ac51 81bd 7752 49bc
00000220: 436e b8bc 7613 7bbd e56f 0fbd b597 b6bc
00000230: 8b3a 29bd f998 76bd 1d16 b0bc c50d c9bc
00000240: 4569 7ebd e3c0 bfbc 6862 3ebd 7c83 5cbd
00000250: 9749 3fbd 3dae d2bb 3d75 383d 6785 573d
00000260: 66e9 31bc c2d2 87bc 9286 48bd 9b07 d6bc
00000270: 870b 69bc ce67 4ebc 15a6 6bbd b02f 16bd
00000280: 8bcd 6fbd 2396 0abd ca5c e7bc faa4 c8bc
00000290: cbea 9937 91dc aabc 991a eabc 3b96 17bd
000002a0: 9b45 e8bc 2e61 63bc 1b9d b8bc 42a0 eabc
000002b0: 4f04 b8bb 0212 e0ba c14c 61bd f602 1dbd
000002c0: 5180 41bd 78f1 443d 94b6 a3bc 1109 5cbd
000002d0: 1d2e 36bd ff43 57bd b420 c6bc f389 d2bb
000002e0: 5c54 38bc bc05 363d 27eb 0abd d6b1 69bc
000002f0: ccf7 38bd c37b dbbc c813 f2bc c065 7dbd
00000300: c20f 67bd 0dcf 1b3d e67d 2fbc 97f1 1bbd
00000310: c824 5fbd c63d 56bd b5fb 61bc 9cf6 523d
00000320: 2419 ddbd f406 9dbb 154d 8fbd b197 4a3d
00000330: 4440 3f3d e732 77bd ed48 65bd fe4d eebc
00000340: 0dca 53bc f84f c1bd 87b4 43bd 4414 8cbd
00000350: a382 acbd e910 58bd dd3a c5bd d03f e93c
00000360: b59b aabb ed57 f73c 9e44 d3bb 8bab a9bd
00000370: a555 0538 aef3 85bd 44d2 8cbc f3af 0c3d
00000380: 836e 3f3d 3dfa 8bbb fdaf 803c b558 dd39
00000390: af9b 9fbd be36 05bd 1950 c1bc 17d9 9fbd
000003a0: d8b2 1fbc 7c3f 763d 62fd d4bc da33 7dbd
000003b0: fcd8 82bc 0d77 eebc cb6b f0bc 5ea0 1ebd
000003c0: 72ad 2c3d d4d4 8dbd be89 163d bf96 803d
000003d0: 8b22 8ebd 0447 47bd 4be5 e73b 83e0 d1bb
000003e0: aafb 2a3d 050c 183d 7e48 d1bd 7f73 acbd
000003f0: 5d2f b1bd 9595 d6bc 637f 7b3d c957 6f3c
-0.089702696 -0.0027207728 -0.014033558 -0.019277465 -0.03204298 -0.05772159 -0.058320507 -0.028023485
-0.06323389 -0.012507292 -0.05458469 -0.011074438 -0.057702824 -0.06188065 -0.020593604 -0.051699486
-0.0019623467 -0.049137797 -0.048305262 -0.030454936 -0.023073746 -0.04675152 -0.03729975 -0.03628661
-0.03975783 -0.04386766 -0.021390695 -0.035111178 -0.062891245 -0.054205373 -0.031846642 -0.057696838
-0.065143906 -0.03859691 -0.03841515 -0.053788457 -0.049651504 -0.07649302 -0.03880883 -0.06461875
-0.04492013 -0.057795327 -0.045914635 -0.04055988 -0.054102905 -0.0010716829 -0.077454336 -0.029280609
-0.015411501 -0.021099336 -0.015424144 -0.011595025 -0.048805676 -0.06855312 0.015434513 -0.037198383
-0.07222145 -0.04874343 -0.026155053 -0.021023087 -0.02541158 -0.04034408 -0.07071417 -0.040238842
-7.398191e-05 -0.03160462 -0.076735996 -0.04433149 -0.03564257 -0.06788311 -0.030268194 -0.034494445
-0.052311376 -0.04316843 -0.057509348 -0.03284001 -0.042618472 -0.0030762386 -0.059045482 -0.054480795
-0.04286567 -0.044167552 -0.048660234 -0.031026773 -0.03058387 -0.004213273 0.0019623728 0.002270692
-0.062789395 -0.022332106 -0.05743017 -0.058083452 -0.053282816 -0.003037747 -0.041595314 -0.051696643
-0.050669987 -0.054196384 -0.018863924 -0.007951101 -0.022374302 0.03254372 0.049382858 -0.0049827113
-0.025245087 -0.05237643 -0.042692322 -0.033411264 -0.041315813 0.050448105 -0.04998977 0.052833546
-0.039086554 -0.04771396 0.04547862 -0.056407277 0.036595922 -0.059731174 -0.029063866 0.028358774
-0.02139568 -0.04041326 -0.06031743 -0.0100322645 -0.07031479 -0.071343035 -0.03989893 -0.007863612
-0.019547943 -0.04442636 -0.032685217 -0.029248707 -0.039493598 -0.0008412365 -0.06314406 -0.012287728
-0.022513514 -0.061297856 -0.03501882 -0.022289136 -0.041315597 -0.06020448 -0.02149492 -0.024542699
-0.06211211 -0.023407405 -0.046480566 -0.05383633 -0.04670104 -0.006429462 0.045033682 0.052617457
-0.010858869 -0.01657999 -0.04895646 -0.026126673 -0.01422394 -0.012597991 -0.057531435 -0.036666572
-0.05854563 -0.033834588 -0.028242487 -0.02449273 1.8348355e-05 -0.020857127 -0.028577136 -0.037008505
-0.028353503 -0.01387815 -0.022535851 -0.02864087 -0.005615748 -0.001709521 -0.05500484 -0.038332902
-0.047241513 0.048081845 -0.019984521 -0.053719584 -0.04447757 -0.05255508 -0.024185516 -0.0064251362
-0.011250582 0.044439062 -0.033915665 -0.014263591 -0.045158193 -0.026792413 -0.029550448 -0.061864614
-0.056411512 0.038039256 -0.010711169 -0.038072195 -0.054478437 -0.052305005 -0.013792922 0.051504716
-0.10795811 -0.0047920886 -0.06997124 0.04946107 0.046692148 -0.06035128 -0.05597775 -0.029089924
-0.012926591 -0.09439081 -0.047779586 -0.06839803 -0.084233545 -0.0527505 -0.09630368 0.028472811
-0.00520655 0.030193293 -0.006447389 -0.08284672 3.1789434e-05 -0.06540619 -0.017190106 0.034347486
0.04673625 -0.004271774 0.015708918 0.00042218497 -0.07793366 -0.03252291 -0.023597764 -0.078050785
-0.0097472295 0.060119137 -0.025999729 -0.061817028 -0.015972607 -0.029109502 -0.029348275 -0.038727157
0.042157598 -0.06925359 0.036752455 0.062787525 -0.06940182 -0.04865171 0.0070768944 -0.0064049377
0.04174391 0.037120838 -0.10218905 -0.08420467 -0.08651612 -0.026194373 0.061400782 0.014608332

write_head.erase_layer.bias f4 [20]
00000000: b380 90bd 9d48 9ebc c991 72bc 5af2 63bd
00000010: 1a93 e2bd 6ea2 04bc dba6 19be 0c66 90bd
00000020: c99c 0fbb 3322 01be f9b3 2fbc 6f3f d6bc
00000030: eef5 5cbd 99bb c0bd 6077 f6bd 0df3 a7bd
00000040: e5d9 f7bd d9c0 d6bd a122 f7bd 277b 17be
-0.070557974 -0.019321734 -0.014805266 -0.055651046 -0.11063214 -0.008095367 -0.15005057 -0.07050714
-0.002191352 -0.12610702 -0.010724061 -0.026153294 -0.053945474 -0.094107814 -0.12034488 -0.08200655
-0.12102107 -0.104860015 -0.12067152 -0.14793073

write_head.add_layer.weight f4 [20, 100]
00000000: 8fbb 3d3d b897 7737 1b33 fd3b 5bc8 7e3d
00000010: 8a97 423d 66e5 5a3d ca4f ab3d 3a9f 613c
00000020: d4f0 3c3d d2b4 c83c 145e db3d f553 c53c
00000030: b305 5b3d 8f18 bf3c 6aae 25bb fdd6 673d
00000040: ebc1 1cb8 dcb9 1f3d f32a 713c 3c30 2e3d
00000050: 49a5 bd3c 343a 053d 9377 633d 2e48 713d
00000060: 1405 883d 53db fd3c 3f82 903d 410f fd3c
00000070: 160a a43c e319 b93d 88ae b23d ea4c a43d
00000080: 536e af3d 79c7 183d b26b b43b 76fc bb3c
00000090: 620a d73d d8a3 933d c678 6f3d 80cc ce3d
000000a0: c07e 8c3d 50b5 db3c d70a 343d 4083 833d
000000b0: 9d73 553d 4d62 223d 332f 013d 9fff fd3c
000000c0: 2b32 643d 5847 8e3d 3c97 a53b 7a6e a63c
000000d0: 8f0c 03bc 5541 b73c cdab 953d 5ff8 c53d
000000e0: ff90 df3c 32fc 9b3d ec00 833d 5518 c93d
000000f0: 40c4 163d 967a 9f3c 7075 d73d a208 a83d
00000100: ee4c ac36 22d5 be3d f112 193d 5727 4a3d
00000110: d606 9a3d ce8b 753d 3a16 7f3d 46c1 9e3d
00000120: afa0 993d 0fae 7a3d b5b7 123d 1b91 1a3d
00000130: 90e3 ad3d 93ec 903b ca09 a63d b5b5 833d
00000140: 7ae7 243d d0a5 fd3c 7fee 5a3d 2934 763d
00000150: 9485 923d 298d 6bbc ee33 b43d 11ef 863d
00000160: c35d f43c a43a b13d 4091 2b3d 5761 933d
00000170: 2368 553d a2f5 e1bb e9f9 773d 2bac 083d
00000180: 2b7e 093d 1f4c f23c 42ba ff3c 252b 98bb
00000190: 2fba bdbb 8627 1039 166b b4bd b53d 803c
000001a0: 9b0e 493c a556 adbd a7d8 98bd 986a 9dbd
000001b0: 5459 f2bc e798 7fbd b305 9fbd a12c 23bd
000001c0: 3ff8 07be e7af 25bd 29d6 c0bd 06c4 79bd
000001d0: dc4d 0439 1d8b 52bc 3a4d 3ebc 7521 023d
000001e0: 3ba5 82bd 2a07 25bc eb3d 0ebe ede9 b83c
000001f0: 1321 50bd 9aa8 9fbd 793c e13c f50f fb3d
00000200: e3d9 a3bd 8727 cf39 7234 5ebb e143 e8bd
00000210: 7566 19bd 871e 1b3e 8275 ee3b 6be6 b6bc
00000220: 8295 3fba 88ad 0bbe b813 60bd 00d6 a63c
00000230: cd0c 09bc 033c c63b 6150 943d c8d3 f63d
00000240: b0f5 ebbd 1f68 ffbb b99d 443d 0d37 9bbd
00000250: 99b7 ebbc 0296 61bc d012 ecbc f1ba 44bd
00000260: 712e 98bd d9dd f8bc a593 d03c 63ec 56bd
00000270: 253f 7ebd de3b 073d bc75 61bd be8e 03bd
00000280: f2a0 fdbc 1303 fcbd 232a 253d 2bf5 4f3b
00000290: 54c4 0f39 2041 67bd 4d2f 03bc 4660 ae39
000002a0: 0456 cd3b 37ec 073c dd1c b4bc 879f b63c
000002b0: 37cc c1bd 5f41 bebc d811 c5bd 74ed aa3d
000002c0: 9ab4 9ebd 2c22 87bd d667 c7bd f28d d8bd
000002d0: 3000 b8bd 153a cdbd 9732 253d dc13 e03c
000002e0: 2253 8f3c dc5f 3dbc cb24 ab3c 4062 1f3d
000002f0: 69c4 9f3c c9b6 403d 2e6e febc 04f2 b4bd
00000300: f809 e7bc 4563 b3bd 91a9 713d 035b 7cbd
00000310: 8cdb 1abd c83d d3bc cbd5 42bc 06ac 82bd
00000320: 3432 113d 9c6e 09bb 694e c6ba e277 d0bd
00000330: e9fb fbbd d9a4 87bd 5a3b 36be 1b49 163d
00000340: ce08 943c 6765 14bd 9710 8cbd c56a 533d
00000350: 43ac c6bc 23ea 45bd 5636 b2bd 9208 413d
00000360: 9310 12bb 2846 673d 9996 8dbd 7790 90bd
00000370: 9910 95bc 89dd af3c db6e e2bd 9c8f 8a3c
00000380: 3467 4a3d 9f09 92bd 5a8b 8f3c 91f0 1d3e
00000390: 44c2 3e3d c4bf 19be e5c1 abbd 6250 93bc
000003a0: 1c31 5cbd 76d8 e93d 15ec 95bc eed9 e5bb
000003b0: 42e2 20be 27d7 c0bd e00b 0abe da08 b0bd
000003c0: ae0b 88bc ae85 b83b 1789 d53d ffb3 e83c
000003d0: 035d 523d a4d1 99bd 50c8 0c3e 7213 4abc
000003e0: 9ba3 57bd 41e2 0cbd c48f 193d 33fa 723d
000003f0: c0e4 fdbc f86c 983c 2200 bebc 6e9a b5bd
0.046321448 1.4757672e-05 0.0077270395 0.062202793 0.0475078 0.053441428 0.08364828 0.013770873
0.04612811 0.024500284 0.10711303 0.024087885 0.053472232 0.02332714 -0.002528096 0.056601513
-3.73739e-05 0.03899561 0.014719713 0.04252647 0.023150103 0.03252621 0.055533957 0.058906727
0.066415936 0.030988371 0.070560925 0.030891063 0.02002434 0.090381406 0.087246954 0.08022483
0.085659645 0.037299607 0.0055060023 0.022947531 0.10500027 0.07208985 0.058464788 0.10097599
0.06860113 0.026819855 0.04395565 0.06421518 0.05211221 0.03964453 0.031539153 0.031005679
0.055711906 0.069472015 0.005053429 0.020316351 -0.0079986 0.02237002 0.07308159 0.09666514
0.02729082 0.07616462 0.0639666 0.09819094 0.036808252 0.019467633 0.10520446 0.082047716
5.1349552e-06 0.093179956 0.03737158 0.049353924 0.07520835 0.05994778 0.062277056 0.07751708
0.07501351 0.06120115 0.035819728 0.03773604 0.0849067 0.004422733 0.08107336 0.06431142
0.040259816 0.030962855 0.053450104 0.060108338 0.07154384 -0.014376917 0.08798967 0.06588567
0.029829865 0.08653763 0.041886568 0.071963005 0.052101266 -0.006895737 0.060541067 0.033367317
0.03356759 0.029577313 0.031216744 -0.004643815 -0.005790017 0.00013747634 -0.088094875 0.015654424
0.012271549 -0.08463792 -0.07463198 -0.07686347 -0.02958361 -0.06240168 -0.07764759 -0.039837483
-0.13278292 -0.040450957 -0.09415848 -0.06097796 0.00012617506 -0.01285055 -0.011615092 0.03177019
-0.063791715 -0.010072509 -0.13890807 0.022572482 -0.050812792 -0.0779583 0.027494656 0.12258903
-0.08000543 0.00039511567 -0.0033905772 -0.11341072 -0.037451226 0.15148364 0.0072771916 -0.022326669
-0.000730835 -0.13640416 -0.054706305 0.020365715 -0.008364868 0.0060496344 0.072418936 0.12052113
-0.115214705 -0.0077943946 0.04800198 -0.075788595 -0.02877407 -0.013768675 -0.028817564 -0.048029844
-0.07430733 -0.030379223 0.025461027 -0.05247153 -0.062071938 0.03301608 -0.05504392 -0.03211855
-0.030960534 -0.12305274 0.040323388 0.0031731825 0.0001371068 -0.056458592 -0.008006883 0.00033259596
0.0062663574 0.008296064 -0.02198642 0.022292865 -0.09462779 -0.02322453 -0.09622544 0.08346072
-0.07749291 -0.06598315 -0.09736602 -0.10573949 -0.08984411 -0.10020844 0.04033145 0.02735322
0.017495696 -0.011558499 0.020891568 0.038912058 0.019502835 0.047049318 -0.031058397 -0.08835223
-0.028202996 -0.087591685 0.0589996 -0.061610233 -0.037807032 -0.025786296 -0.0118917925 -0.06380467
0.035448268 -0.002097047 -0.0015129569 -0.10179116 -0.123039074 -0.06623239 -0.17796078 0.036690813
0.018070605 -0.036229517 -0.06839102 0.051615495 -0.024252063 -0.048318993 -0.0870177 0.047127314
-0.002228771 0.05646339 -0.0691349 -0.070588045 -0.018196391 0.02146794 -0.110563 0.016914181
0.04941483 -0.07130741 0.017522503 0.154238 0.046571985 -0.15014559 -0.08386592 -0.017982665
-0.05375777 0.1141824 -0.01830105 -0.0070145046 -0.1571131 -0.09416037 -0.13481092 -0.08595438
-0.016607132 0.0056311702 0.104265384 0.028406141 0.051358234 -0.07510689 0.13748288 -0.012333738
-0.05264626 -0.03439546 0.03749062 0.05932064 -0.030992866 0.018606648 -0.023193423 -0.08867346

write_head.add_layer.bias f4 [20]
00000000: 644f 613d 5ebb 34bd b5e8 d6bd 34e7 193e
00000010: 41b5 a83d 8717 a9bd d7d5 283e 3343 703d
00000020: d226 b9bc 0e83 803d 2aec 32bd ed4a 56bc
00000030: 6be6 073e 0213 31be 4c9d 07be 9689 29bd
00000040: 5b5c 35be bfd0 34be 3d15 183e c8ee b5bd
0.055007353 -0.044124 -0.10493604 0.15029603 0.082376964 -0.082564406 0.16487823 0.058657836
-0.022601519 0.06274997 -0.043682255 -0.013079387 0.13271491 -0.17292407 -0.13243598 -0.041390978
-0.17711012 -0.17657755 0.14851852 -0.088834345
