Inversaobit-Emanuel/checkpoint/best_model_epoch_6.pth (torch, 65162 bytes, 15 tensors)

memory.mem_bias f4 [128, 20]
0.06065633 -0.02053082 -0.068197265 -0.06373848 0.040629767 0.043468513 -0.018370546 0.044719048
0.030136578 0.010738149 0.0819178 -0.04513829 -0.07099787 -0.010355577 -0.00035782158 0.09914345
-0.07703161 -0.00441245 0.060685016 0.0172024 -0.044328343 -0.030500308 -0.06750749 -0.021920562
0.04956863 0.09825223 -0.09076827 -0.088675074 -0.0124090165 0.022192694 -0.042315185 0.012029767
0.0833754 0.06462783 -0.009828374 -0.051760506 -0.02185011 0.08587485 -0.042499732 -0.04723983
0.02702228 -0.00045713037 -0.0808272 0.030154578 0.0070459694 -0.09616367 0.01994332 -0.04961536
-0.0007088557 -0.00016491115 -0.08046196 0.02671928 -0.06698491 0.08396093 0.06450144 -0.0029619187
0.021512225 -0.028794192 0.05481703 -0.04064845 0.07196384 0.06474695 -0.028417505 0.06820042
0.058091052 0.07266811 -0.061150312 -0.026161686 0.0320471 0.082483165 0.00076568127 0.033898525
-0.056498397 -0.027921341 -0.018373191 -0.06264013 -0.03403519 0.09250378 0.013590895 -0.030919299
0.03668379 0.06462658 -0.030903794 0.005709566 -0.080558 -0.080868945 0.066754945 0.024815954
-0.09132358 0.06636942 -0.020315826 -0.062549144 0.027591653 0.05771976 -0.031770863 -0.023072086
0.08572235 0.08195641 0.061891533 0.024418078 0.06811272 -0.029300496 0.029323362 -0.08625095
0.016259953 -0.027529657 0.06737485 0.09639206 -0.027190804 0.036444373 -0.07080569 -0.08834223
0.011167847 -0.04198469 0.0027323142 -0.073176146 -0.02020897 0.010213241 0.09455889 0.05142618
0.042342953 0.085746996 0.09585231 -0.017260864 0.054678224 -0.056712735 -0.022275902 0.07216854
-0.067112595 0.09929664 -0.0050510615 -0.074140206 0.013601437 0.052215956 -0.049622525 -0.00981617
-0.016627654 -0.062435783 -0.032243565 -0.060411014 -0.07575939 -0.06825948 0.040215082 0.07988069
0.07956206 -0.02862008 0.043115027 0.01640942 0.06479078 0.0005297214 -0.013501421 -0.055750776
-0.061991107 -0.08935183 0.090445556 -0.011968873 -0.06797359 -0.0020501837 0.081601985 0.06640697
-0.0029102787 0.07266841 0.011881486 0.050015233 0.00019310415 0.053488232 -0.06526504 0.0013616309
-0.00758864 -0.055788815 0.026542343 -0.05955516 -0.032742478 0.08576275 -0.0033140182 0.08080425
0.0677617 0.035370834 -0.05671202 -0.05752616 -0.017142132 0.05695384 -0.008436203 -0.048063457
0.004336819 -0.05817422 0.04728312 0.023857012 0.0016542822 -0.07592709 0.0705776 0.020638958
-0.03277012 -0.04879221 0.08064275 0.07747691 -0.05351417 0.088156275 0.011453807 -0.03262677
-0.029059216 -0.0035634786 -0.024759337 -0.06892314 0.037298553 -0.028947078 0.04467661 0.06359116
-0.08819296 0.03909994 -0.022521496 0.072055615 0.07028841 -0.010455728 0.010405168 0.0014179796
0.05430419 0.098160975 -0.0037231073 -0.08556242 0.024361037 0.008834004 0.008393705 0.034675635
-0.008764848 0.014637932 0.07920309 0.08967533 0.018815376 0.07018451 0.074929304 -0.099466324
0.09297448 0.059825547 -0.06140275 0.071326606 0.092004545 0.06683498 0.0020240992 -0.03764329
0.06285336 -0.033900894 0.08528531 -0.056689512 0.08624398 -0.0064988956 0.024883077 -0.08838605
-0.007568538 -0.08027699 0.079182275 0.057131328 -0.042280864 -0.051313747 0.023029923 0.06524155
00000000: c672 783d 4030 a8bc 02ab 8bbd 5289 82bd
00000010: 666b 263d 0a0c 323d d47d 96bc 522b 373d
00000020: fce0 f63c 10ef 2f3c 85c4 a73d ede2 38bd
00000030: 5567 91bd 70aa 29bc 009a bbb9 b90b cb3d
00000040: c0c2 9dbd 5096 90bb da90 783d 0cec 8c3c
00000050: a391 35bd c8db f9bc 5e41 8abd c092 b3bc
00000060: 7a08 4b3d 7738 c93d b7e4 b9bd 479b b5bd
00000070: 304f 4bbc 74cd b53c b052 2dbd 8018 453c
00000080: b9c0 aa3d 995b 843d 3007 21bc d302 54bd
00000090: 00ff b2bc 27df af3d 3314 2ebd 8d7e 41bd
000000a0: d45d dd3c 00ab efb9 bb88 a5bd bc06 f73c
000000b0: e0e1 e63b 75f1 c4bd 2c60 a33c 7a39 4bbd
000000c0: 80d2 39ba 00ec 2cb9 3dc9 a4bd 64e2 da3c
000000d0: 622f 89bd b5f3 ab3d 5519 843d c01c 42bb
000000e0: 683a b03c cce1 ebbc d287 603d fd7e 26bd
000000f0: c761 933d 0d9a 843d d4cb e8bc a9ac 8b3d
00000100: e2f0 6d3d 05d3 943d c078 7abd 0851 d6bc
00000110: d243 033d efec a83d 00b8 483a 2ed9 0a3d
00000120: dd6a 67bd 4cbb e4bc 6083 96bc 7849 80bd
00000130: 7c68 0bbd 9f72 bd3d 58ac 5e3c 784a fdbc
00000140: be41 163d f15a 843d f429 fdbc 5017 bb3b
00000150: 98fb a4bd 9e9e a5bd d1b6 883d d44a cb3c
00000160: db07 bbbd b1ec 873d 606d a6bc c419 80bd
00000170: e407 e23c 8e6b 6c3d 2a22 02bd ac01 bdbc
00000180: 338f af3d c3d8 a73d fa81 7d3d 6c08 c83c
00000190: af7e 8b3d 9807 f0bc 8c37 f03c 57a4 b0bd
000001a0: 9833 853c e085 e1bc d3fb 893d 3369 c53d
000001b0: 40bf debc b246 153d 9302 91bd c5ec b4bd
000001c0: 58f9 363c 23f8 2bbd a010 333b 60dd 95bd
000001d0: 488d a5bc 7055 273c 17a8 c13d 42a4 523d
000001e0: ce6f 2d3d 1f9c af3d 374e c43d a866 8dbc
000001f0: 46f6 5f3d 9d4b 68bd f47b b6bc 19cd 933d
00000200: 5472 89bd 095c cb3d 6083 a5bb d2d6 97bd
00000210: 90d8 5e3c 66e0 553d fd40 4bbd 00d4 20bc
00000220: b836 88bc aabc 7fbd d411 04bd 8a71 77bd
00000230: bd27 9bbd a0cb 8bbd 92b8 243d 7d98 a33d
00000240: 6ff1 a23d a874 eabc 6299 303d 0c6d 863c
00000250: 07b1 843d 00dd 0a3a 1035 5dbc ed5a 64bd
00000260: 63ea 7dbd 18fe b6bd 853b b93d 1819 44bc
00000270: bd35 8bbd 605c 06bb f11e a73d 6100 883d
00000280: 60ba 3ebb 2dd3 943d 90aa 423c c6dc 4c3d
00000290: 007c 4a39 7a16 5b3d ada9 85bd c078 b23a
000002a0: 20aa f8bb d082 64bd 546f d93c 1df0 73bd
000002b0: fa1c 06bd 61a4 af3d 0030 59bb b37c a53d
000002c0: a5c6 8a3d 02e1 103d dd4a 68bd 8da0 6bbd
000002d0: a86d 8cbc 6e48 693d 0038 0abc 30de 44bd
000002e0: e01b 8e3b 1748 6ebd f2ab 413d c86f c33c
000002f0: 80d4 d83a aa7f 9bbd fd8a 903d 0813 a93c
00000300: f639 06bd 57da 47bd 0728 a53d 37ac 9e3d
00000310: ad31 5bbd 478b b43d c0a8 3b3c a6a3 05bd
00000320: 980d eebc 4089 69bb 18d4 cabc 9327 8dbd
00000330: 5ec6 183d 6c22 edbc d2fe 363d 153c 823d
00000340: 839e b4bd 4227 203d 007f b8bc e591 933d
00000350: 5ff3 8f3d 804e 2bbc 707a 2a3c 80db b93a
00000360: 126e 5e3d 9f08 c93d 60ff 73bb 5a3b afbd
00000370: cc90 c73c 80bc 103c c085 093c 0a08 0e3d
00000380: 709a 0fbc f0d3 6f3c 3b35 a23d b3a7 b73d
00000390: b422 9a3c e5bc 8f3d 8974 993d 00b5 cbbd
000003a0: 6769 be3d a20b 753d 7381 7bbd af13 923d
000003b0: e16c bc3d c7e0 883d c0a6 043b da2f 1abd
000003c0: 43b9 803d aadb 0abd 11aa ae3d 4333 68bd
000003d0: afa0 b03d b0f4 d4bb 98d7 cb3c bf03 b5bd
000003e0: 8001 f8bb 4368 a4bd 512a a23d 8a02 6a3d
000003f0: b32e 2dbd 5d2e 52bd 40a9 bc3c 5d9d 853d

controller.0.weight f4 [100, 28]
0.0035886245 -0.42841166 0.28539997 0.016573803 -0.2715417 0.42973533 0.02216135 0.4639283
0.027496539 -0.009760625 0.046601877 0.043388452 0.038372084 -0.11065335 0.21025075 0.20620069
-0.12686843 0.1676522 -0.24323834 0.020796908 0.11056378 0.00767973 -0.10768029 -0.13342302
0.047900245 -0.19055772 0.0069681723 -0.14398253 -0.16268912 -0.19755977 -0.14885026 -0.19866185
-0.20147388 -0.26147333 -0.20156865 -0.39561 0.11642664 -0.05219052 -0.005142377 0.059444495
0.07487319 -0.11516485 0.08691872 0.11182965 -0.06892201 0.024744883 -0.07172891 0.045879886
0.079098575 -0.09010795 -0.06680907 0.003985913 -0.039265957 -0.08565261 0.07928272 -0.069666535
-0.31642938 -0.23093268 -0.29612032 -0.34502453 -0.25781378 -0.339923 -0.104276404 0.054646958
0.011162226 -0.21607077 -0.06734602 -0.050747994 0.25787207 -0.15386605 -0.030042144 0.22046387
-0.21107794 0.22073907 0.016509516 0.22841479 0.029915294 -0.09403249 -0.09431607 -0.081015795
-0.23471594 -0.063771755 0.0019066164 0.043826234 0.38430867 -0.26841047 0.48493683 0.6544697
-0.51057523 -0.27204838 0.6227466 -0.30015215 -0.003684961 -0.08523373 -0.18664233 -0.1133559
0.12597446 0.16123451 0.03544155 -0.13431771 -0.05389999 -0.048304062 0.018086158 0.16288324
-0.10238538 0.13293333 -0.123013124 -0.033278987 0.13703692 0.0051525007 -0.18207121 0.1600639
-0.41913342 -0.07734413 0.06111671 0.7445511 0.64628893 0.6971053 0.66572094 -0.06529644
0.060229048 -0.0354063 -0.24355644 0.20111111 0.20170997 -0.05050422 0.17067 -0.060123593
0.10686238 0.16289887 -0.09543286 0.30922973 0.048450474 -0.16634083 -0.07335361 -0.012435689
-0.063587196 -0.14071305 0.20244986 0.014980658 0.46314302 0.5385255 0.48694262 0.66502166
0.6495166 -0.4718967 -0.31015506 0.12680915 -0.059414104 -0.16827431 -0.26901722 0.07056485
0.1750386 -0.23133102 0.057120625 0.10744306 -0.2609176 0.13626437 -0.27393487 0.14091949
0.18310325 -0.13385513 -0.08107928 -0.25128537 -0.21992067 -0.15441224 0.011090806 -0.099361256
0.28289682 0.026564091 0.5497402 -0.19622652 0.60379326 0.6778756 -0.5310577 -0.30274448
0.2244547 -0.13295828 -0.19794036 -0.04968161 0.2936117 -0.21038218 0.2116666 0.23322088
0.007551046 0.20974271 -0.06673396 0.10125303 -0.022713114 -0.07146819 -0.25839275 0.022097865
-0.22788332 -0.115799464 0.08178279 0.04250222 0.019265397 0.016961908 -0.21102892 0.7951146
0.17871024 -0.221512 0.72539985 0.63774675 -0.018259648 -0.17944652 -0.08137728 -0.060117677
0.031924944 -0.10784043 0.15334103 0.06827442 -0.15893473 0.17968987 0.009673234 0.17084502
0.13670048 0.117368564 -0.026758777 -0.04495703 0.035039604 0.098969385 -0.06951957 -0.018570373
0.66812104 -0.49160808 0.81226856 -0.35554403 0.6008823 -0.09015189 0.704258 0.7926961
-0.057805795 -0.0023976683 -0.15712161 0.053239506 0.17655018 -0.055458978 0.1155299 -0.0018371542
-0.0014043816 -0.00079448975 -0.08601764 0.16039397 -0.07155425 0.05826307 -0.19087423 -0.10228417
-0.074909665 0.12090764 0.036808368 -0.039354254 -0.3142024 -0.32574248 -0.3432262 -0.3606176
00000000: 212f 6b3b c658 dbbe f21f 923e c9c5 873c
00000010: 8407 8bbe 4506 dc3e b88b b53c 0388 ed3e
00000020: 6c40 e13c 07eb 1fbc 9ce1 3e3d 17b8 313d
00000030: 0c2c 1d3d 399e e2bd f94b 573e 4626 533e
00000040: cce9 01be 05ad 2b3e 7913 79be 475e aa3c
00000050: 436f e23d 3fa6 fb3b 7c87 dcbd 0ba0 08be
00000060: 0c33 443d 9021 43be 4455 e43b 2870 13be
00000070: fa97 26be 1c4d 4abe 346c 18be 036e 4bbe
00000080: 2b4f 4ebe d5df 85be 0368 4ebe 658d cabe
00000090: 1771 ee3d bac5 55bd 6381 a8bb 127c 733d
000000a0: 1d57 993d 8ddb ebbd 7102 b23d f206 e53d
000000b0: fc26 8dbd c8b5 ca3c 9be6 92bd 8cec 3b3d
000000c0: 6ffe a13d 848a b8bd 32d3 88bd 439c 823b
000000d0: 57d5 20bd a36a afbd fb5e a23d 54ad 8ebd
000000e0: 0803 a2be 9e79 6cbe 159d 97be 0ea7 b0be
000000f0: 2b00 84be 630a aebe de8e d5bd 7dd5 5f3d
00000100: c5e1 363c a841 5dbe b6ec 89bd 21dd 4fbd
00000110: cf07 843e 108f 1dbe f11a f6bc 48c1 613e
00000120: d124 58be 6c09 623e f73e 873c 91e5 693e
00000130: eb10 f53c 1b94 c0bd c928 c1bd 9ceb a5bd
00000140: 6059 70be c49a 82bd 6ee7 f93a 2383 333d
00000150: 1bc4 c43e 196d 89be a449 f83e 548b 273f
00000160: 0fb5 02bf ed49 8bbe 526c 1f3f 8bad 99be
00000170: 637f 71bb 068f aebd 2b1f 3fbe 2327 e8bd
00000180: 73ff 003e a91a 253e 292b 113d 958a 09be
00000190: 3cc6 5cbd 7bda 45bd 6c29 943c ddca 263e
000001a0: 6daf d1bd ad1f 083e 4eee fbbd 8c4f 08bd
000001b0: 6853 0c3e 4fd6 a83b e070 3abe cae7 233e
000001c0: a898 d6be 9966 9ebd 8455 7a3d e79a 3e3f
000001d0: 3173 253f 7e75 323f b06c 2a3f 24ba 85bd
000001e0: bcb2 763d 3206 11bd dc66 79be 12f0 4d3e
000001f0: 0f8d 4e3e 83dd 4ebd 1ec4 2e3e 2844 76bd
00000200: aada da3d f6ce 263e 4e72 c3bd 5c53 9e3e
00000210: 0174 463d 4055 2abe 6b3a 96bd 0fbf 4bbc
00000220: 013a 82bd 1517 10be 044f 4f3e 6f71 753c
00000230: 1521 ed3e cfdc 093f 8b50 f93e dc3e 2a3f
00000240: b846 263f 729c f1be a5cc 9ebe 42da 013e
00000250: 345c 73bd 1a50 2cbe a0bc 89be 4e84 903d
00000260: 523d 333e 0ae2 6cbe 51f7 693d 1b0b dc3d
00000270: fe96 85be e388 0b3e 3141 8cbe 334d 103e
00000280: 6b7f 3b3e 5211 09be e50c a6bd 7aa8 80be
00000290: e232 61be 3e1e 1ebe 36b6 353c ea7d cbbd
000002a0: dad7 903e f09c d93c c6bb 0c3f 9bef 48be
000002b0: 3292 1a3f 4189 2d3f 66f3 07bf 5301 9bbe
000002c0: 74d7 653e 3726 08be e1b0 4abe f27e 4bbd
000002d0: 4654 963e 6d6e 57be 21bf 583e 74d1 6e3e
000002e0: c46e f73b cbc6 563e d0ab 88bd c05d cf3d
000002f0: da10 babc ea5d 92bd 0e4c 84be 9506 b53c
00000300: 3f5a 69be 4528 edbd bc7d a73d cf16 2e3d
00000310: 77d2 9d3c b3f3 8a3c f717 58be a18c 4b3f
00000320: d1ff 363e 0bd4 62be ceb3 393f 5f43 233f
00000330: 4295 95bc d4c0 37be 22a9 a6bd f43d 76bd
00000340: bbc3 023d 72db dcbd 6e05 1d3e 76d3 8b3d
00000350: c9bf 22be 9f00 383e 7c7c 1e3c fff1 2e3e
00000360: 36fb 0b3e ee5e f03d 3935 dbbc dd24 38bd
00000370: b085 0f3d 76b0 ca3d 4760 8ebd e520 98bc
00000380: fb09 2b3f 0eb4 fbbe d5f0 4f3f de09 b6be
00000390: 6cd3 193f 8ea1 b8bd 414a 343f 22ee 4a3f
000003a0: c5c5 6cbd 3322 1dbb 7de4 20be ab11 5a3d
000003b0: 92c9 343e f428 63bd f19a ec3d aacc f0ba
000003c0: 3a13 b8ba 4e45 50ba 042a b0bd 513e 243e
000003d0: 098b 92bd 42a5 6e3d 8974 43be 5d7a d1bd
000003e0: 3d6a 99bd 6d9e f73d 5fc4 163d ed31 21bd
000003f0: 23df a0be b8c7 a6be 58bb afbe dfa2 b8be

controller.0.bias f4 [100]
0.3868264 0.025404226 0.28196755 0.24364038 0.026654629 0.17323117 0.47833708 0.09603721
0.068805955 0.23910196 0.46638024 0.23833223 0.3508762 0.31070352 0.1818772 0.12545882
0.051473387 0.05138166 0.14786579 0.3945274 0.41422665 0.28636473 0.2501802 0.24103408
-0.2254674 0.34434846 0.33796299 0.4546845 0.257869 0.3821505 0.27808416 0.2286119
0.055596016 0.6503803 0.18268953 0.26197156 0.39908558 0.23598985 0.24111877 0.12050093
0.13196467 0.1748243 0.50229526 0.33454624 0.41421136 -1.2911942 0.7014033 0.026120616
-0.008409788 0.2358537 0.18379156 0.22857931 0.23998849 0.5690235 0.060285833 -0.012346375
0.3309283 0.26763892 0.050937522 0.101174906 -0.028684393 0.32635948 0.26561207 0.18784882
-0.004404722 0.2599152 0.27785403 0.3149201 0.06495024 0.31853765 -0.17509505 0.18968093
0.23590176 0.27795777 0.35007367 0.5233577 0.18701297 0.16597465 0.32280585 0.28710717
0.19869328 0.3090804 0.4727237 0.278986 0.22625796 0.23430702 0.16100289 0.18734464
0.25700593 0.23186992 0.7075324 0.29716155 0.2106917 0.17098536 0.53660005 0.37075868
0.34842625 0.036666047 -0.044842403 0.22980896
00000000: 1c0e c63e 861c d03c 0d5e 903e dd7c 793e
00000010: cf5a da3c 8363 313e 99e8 f43e 28af c43d
00000020: 23ea 8c3d 25d7 743e 64c9 ee3e 5d0d 743e
00000030: 0ca6 b33e 8814 9f3e 043e 3a3e 4778 003e
00000040: c2d5 523d 9375 523d 216a 173e 7fff c93e
00000050: 8415 d43e 669e 923e 9f17 803e a3d1 763e
00000060: ede0 66be 714e b03e 7c09 ad3e 68cc e83e
00000070: 6807 843e 3ba9 c33e 0c61 8e3e 3d19 6a3e
00000080: a6b8 633d 537f 263f f712 3b3e 2321 863e
00000090: f254 cc3e 53a7 713e d7e7 763e 31c9 f63d
000000a0: bf21 073e 2405 333e 6c96 003f a549 ab3e
000000b0: 8313 d43e da45 a5bf 2b8f 333f e7fa d53c
000000c0: 35c9 09bc a283 713e db33 3c3e b210 6a3e
000000d0: 8bbf 753e 86ab 113f 47ee 763d 7348 4abc
000000e0: 6f6f a93e f807 893e dda3 503d ca34 cf3d
000000f0: 88fb eabc 9718 a73e 4efe 873e 715b 403e
00000100: 7c55 90bb 9b13 853e e242 8e3e 353d a13e
00000110: a204 853d 5e17 a33e 1e4c 33be b83b 423e
00000120: 3b90 713e 7b50 8e3e db3c b33e c5fa 053f
00000130: 5480 3f3e 42f5 293e cf46 a53e b6ff 923e
00000140: 4076 4b3e c93f 9e3e d708 f23e 41d7 8e3e
00000150: 2bb0 673e 2eee 6f3e f1dd 243e 46d7 3f3e
00000160: 4896 833e 4f6f 6d3e d820 353f 8f25 983e
00000170: 91bf 573e c916 2f3e 9f5e 093f 15d4 bd3e
00000180: ed64 b23e 232f 163d abac 37bd 0a53 6b3e

read_head.key_layer.weight f4 [20, 100]
-0.007623383 0.13887575 -0.0032068256 -0.19027808 -0.07782214 -0.08998897 -0.008725022 -0.024726504
0.019917816 0.08294273 0.056405738 0.013501992 0.04000037 0.03054828 0.020639073 0.035319682
0.20530444 0.03230318 0.09633876 0.025042176 -0.07776158 0.056313135 0.07672237 -0.21514876
-0.015368363 -0.027115293 -0.06985852 -0.011019099 -0.0063644536 -0.072924025 0.07287043 -0.036608744
-0.011237357 -0.088477954 -0.058478 0.026460083 -0.013086929 0.0064481418 -0.060113095 0.048446804
-0.015395899 -0.0035212575 0.040900484 -0.1593209 0.068925135 0.042928718 0.100353576 0.029946856
-0.078790955 -0.12961523 0.091908015 0.088727996 0.03863829 -0.08091721 -0.05875529 0.021931652
0.043886136 0.02721861 -0.039770987 -0.06706589 -0.06094585 -0.045621153 -0.02664697 -0.04260204
5.0125354e-06 -0.10843555 -0.04945662 0.07170273 -0.08492677 -0.052246276 0.004944257 -0.17068717
-0.03461417 -0.08581004 0.0648275 -0.0068965144 0.10612683 0.053705934 -0.02474464 -0.00036496558
0.102773696 -0.050150212 -0.055821154 -0.065495536 -0.061353814 0.052298516 -0.16334032 -0.12151585
-0.008102837 -0.116285965 0.08460372 0.023932062 0.042737875 0.02062621 -0.0419215 0.019081432
0.052712347 -0.055009186 -0.06907085 0.017760802 0.039720375 -0.04770401 0.026490105 -0.058681365
-0.009658826 0.052444313 0.013733571 0.05810338 0.030428533 -0.0001499526 -0.021244772 -0.11908457
0.044995375 0.042259444 -0.09751459 0.07047166 -0.1937053 0.051725898 0.027089434 0.080401435
-0.03976334 0.031537447 0.08006651 0.05033706 0.02441635 -0.017332004 -0.005658116 0.009010685
-0.048104025 -0.023428647 0.020771377 -0.06511988 -0.013613227 -0.2596014 0.07877064 0.05198092
-0.034351006 0.041142646 -0.008709535 0.016692221 0.05145548 0.03693804 -0.07160658 -0.017937902
0.020321012 0.00814839 -0.071969196 -0.041989274 0.081550255 0.034715064 -0.05638398 -0.04161112
-0.05790458 -0.0046702144 -0.066236705 0.081568636 -0.05456056 -0.018512372 0.03274195 0.03240409
0.015886962 0.10625915 0.00350386 -0.03160092 -0.0015176527 0.027355473 -0.022558589 -0.020037575
-0.09435972 0.034585904 0.023976114 0.0013826264 -0.02744201 0.08958289 -0.055376228 0.04798266
-0.069079936 -0.09938414 -0.025248498 0.027897744 -0.08755973 -0.027767014 -0.047079932 0.06224278
0.09181903 -0.034378223 -0.025906825 -0.01745597 0.0263273 -0.0044953297 -0.04423738 -0.07538225
0.08538792 -0.0060164067 -0.012554917 -0.03894672 -0.037159715 0.021847032 0.039087284 0.0638884
-0.089304276 -0.06282872 -0.06542285 0.08227684 0.05865763 -0.051489253 -0.039017674 -0.042492475
0.020053722 -0.022144638 0.074196115 0.020206025 -0.06975931 -0.10774715 -5.003912e-05 -0.06100089
-0.0292496 0.015051084 0.045591787 0.073692344 -0.035488915 -0.09534979 0.003966404 0.054422155
-0.005535402 -0.03779365 0.08369429 0.061462313 -0.13161138 0.051536202 0.012106332 0.022462571
-0.09822294 -0.030733416 -0.07225686 -0.020995505 0.03361075 -0.04838433 0.031865124 0.04237607
0.018741263 0.0045557567 -0.029209832 -0.01948441 -0.025112426 -0.026748836 -0.0011280982 -0.06330493
0.017233761 0.08655361 -0.013014086 -0.09669905 0.03344131 -0.04462779 -0.018990314 -0.050988123
00000000: 92cd f9bb 7235 0e3e 9b29 52bb 42d8 42be
00000010: 3761 9fbd 234c b8bd 65f3 0ebc 3d8f cabc
00000020: b02a a33c e1dd a93d b409 673d 7637 5d3c
00000030: 6ed7 233d 6340 fa3c 4613 a93c 5fab 103d
00000040: 543b 523e 5750 043d 414d c53d 4025 cd3c
00000050: 7741 9fbd 9aa8 663d 9e20 9d3d f54f 5cbe
00000060: 96cb 7bbc e420 debc fc11 8fbd 7389 34bc
00000070: e88c d0bb 3159 95bd 183d 953d 0df3 15bd
00000080: e41c 38bc ee33 b5bd a186 6fbd d1c2 d83c
00000090: 8f6a 56bc ef4a d33b 2639 76bd 2870 463d
000000a0: 153f 7cbc e6c4 66bb 4487 273d 0525 23be
000000b0: 9f28 8d3d 06d6 2f3d 2d86 cd3d 1c53 f53c
000000c0: 275d a1bd dbb9 04be 453a bc3d 06b7 b53d
000000d0: 2f43 1e3d ecb7 a5bd 63a9 70bd 02aa b33c
000000e0: f3c1 333d 90f9 de3c e7e6 22bd d759 89bd
000000f0: 5ba2 79bd 3fdd 3abd bf4a dabc 7a7f 2ebd
00000100: 5a31 a836 7513 debd 0693 4abd e2d8 923d
00000110: 16ee adbd 3100 56bd 6f03 a23b 9ec8 2ebe
00000120: 97c7 0dbd 2dbd afbd 48c4 843d 28fc e1bb
00000130: 0659 d93d c1fa 5b3d 45b5 cabc da58 bfb9
00000140: 047b d23d 4f6a 4dbd b9a4 64bd 8622 86bd
00000150: 234e 7bbd f836 563d af42 27be 4ddd f8bd
00000160: c3c1 04bc 5627 eebd b744 ad3d 2c0d c43c
00000170: e90d 2f3d 4cf8 a83c e1b5 2bbd aa50 9c3c
00000180: e7e8 573d 5051 61bd 0575 8dbd 1a7f 913c
00000190: d5b1 223d 4865 43bd c701 d93c df5b 70bd
000001a0: 0d40 1ebc d9cf 563d c602 613c cffd 6d3d
000001b0: 4245 f93c 983c 1db9 8409 aebc 9ce2 f3bd
000001c0: 124d 383d 3d18 2d3d bbb5 c7bd 7253 903d
000001d0: af5a 46be 89de 533d a9ea dd3c 82a9 a43d
000001e0: e2de 22bd 692d 013d e9f9 a33d 3c2e 4e3d
000001f0: cc04 c83c d9fb 8dbc b867 b9bb 8da1 133c
00000200: ba08 45bd 6fed bfbc bc28 aa3c 925d 85bd
00000210: 030a 5fbc 7aea 84be 8052 a13d f2e9 543d
00000220: a4b3 0cbd 3185 283d 70b2 0ebc 20be 883c
00000230: fbc2 523d 584c 173d 78a6 92bd 82f2 92bc
00000240: 4078 a63c d380 053c 9664 93bd f2fc 2bbd
00000250: d203 a73d 6231 0e3d e3f2 66bd 6c70 2abd
00000260: 5a2d 6dbd 9908 99bb 1ca7 87bd 750d a73d
00000270: e57a 5fbd 42a7 97bc 6c1c 063d 27ba 043d
00000280: 6025 823c 669e d93d 04a1 653b f76f 01bd
00000290: f9eb c6ba 9618 e03c cacc b8bc d725 a4bc
000002a0: ab3f c1bd f3a9 0d3d 8e69 c43c 3e39 b53a
000002b0: 11ce e0bc 3c77 b73d 2fd2 62bd 7789 443d
000002c0: c879 8dbd e989 cbbd f0d5 cebc cf89 e43c
000002d0: 8452 b3bd a677 e3bc e3d6 40bd 49f2 7e3d
000002e0: 9e0b bc3d 2ed0 0cbd 8d3a d4bc d3ff 8ebc
000002f0: 5aac d73c 8f4d 93bb 4132 35bd 0262 9abd
00000300: dddf ae3d 4725 c5bb 23b3 4dbc 9986 1fbd
00000310: c934 18bd 8cf8 b23c fd19 203d ecd7 823d
00000320: 29e5 b6bd 58ac 80bd 6afc 85bd c380 a83d
00000330: fc42 703d 65e6 52bd ffd0 1fbd 970c 2ebd
00000340: b447 a43c ac68 b5bc 22f4 973d 1b87 a53c
00000350: f8dd 8ebd 8aaa dcbd 19e1 51b8 12dc 79bd
00000360: db9c efbc d298 763c 74be 3a3d 03ec 963d
00000370: d35c 11bd c046 c3bd 9cf8 813b c4e9 5e3d
00000380: 5162 b5bb 84cd 1abd e967 ab3d e8bf 7b3d
00000390: 22c5 06be a017 533d a359 463c 6d03 b83c
000003a0: 1c29 c9bd a5c4 fbbc 68fb 93bd c4fe abbc
000003b0: 6dab 093d a62e 46bd 0185 023d 8892 2d3d
000003c0: 4787 993c 7548 953b 7549 efbc c59d 9fbc
000003d0: 93b8 cdbc 6020 dbbc b2dc 93ba 04a6 81bd
000003e0: d12d 8d3c 0543 b13d 0839 55bc 270a c6bd
000003f0: c1f9 083d a1cb 36bd 9391 9bbc ecd8 50bd

read_head.key_layer.bias f4 [20]
0.08387035 -0.10713884 0.047890905 0.052108753 -0.05536202 -0.011374378 -0.062501244 0.0829056
-0.104469 0.03518575 -0.023555968 -0.055460013 0.045739137 -0.05571749 -0.080911405 0.012592038
-0.015768815 -0.04207782 -0.068041734 -0.026549555
00000000: 38c4 ab3d 9c6b dbbd 4129 443d fd6f 553d
00000010: 49c3 62bd 995b 3abc a700 80bd 69ca a93d
00000020: d8f3 d5bd ef1e 103d 72f8 c0bc 0a2a 63bd
00000030: f658 3b3d 0638 64bd e1b4 a5bd d64e 4e3c
00000040: 9a2d 81bc cb59 2cbd 7759 8bbd 747e d9bc

read_head.beta_layer.weight f4 [1, 100]
0.36335438 0.1044837 0.260303 0.17783366 0.13920805 0.32077557 0.29156178 0.387546
0.31557548 0.19153665 0.32478023 0.16558743 0.31246287 0.26367182 0.29015812 0.3351108
0.08982476 0.41014332 0.25314224 0.2190818 0.3188108 0.35590747 0.22318818 0.13197663
0.32978496 0.16199715 0.27491546 0.37949106 0.33446988 0.20386136 0.3097696 0.19270703
0.25878718 0.41920638 0.21716297 0.18611625 0.30637875 0.20302792 0.15501752 0.23096085
0.35510874 0.26351342 0.34474456 0.244521 0.24312544 0.0035432978 0.46663356 0.2876461
0.21909769 0.19208057 0.16876964 0.12757276 0.17516568 0.28178903 0.30405357 0.14104767
0.3413959 0.113263376 0.2395679 0.20883805 0.28118962 0.25570792 0.3003381 0.20773718
-6.460489e-16 0.2577707 0.28391558 0.18894863 0.16767873 0.2952873 0.17101386 0.1464161
0.17079592 0.318377 0.31177622 0.31338432 0.29852858 0.14419827 0.31381807 0.2828587
0.22770967 0.20548385 0.31745568 0.13086133 0.2742783 0.15388636 0.17751957 0.1159096
0.20334658 0.15959823 0.42889047 0.29764977 0.37334138 0.2138089 0.2505103 0.4063024
0.41071245 0.18255416 0.18974292 0.20447642
00000000: 9609 ba3e 8dfb d53d 6f46 853e 071a 363e
00000010: 8e8c 0e3e b23c a43e 9647 953e 6e6c c63e
00000020: 1c93 a13e 2f22 443e 9849 a63e c08f 293e
00000030: 22fb 9f3e feff 863e 9b8f 943e a593 ab3e
00000040: 0bf6 b73d 4efe d13e dc9b 813e fb56 603e
00000050: 2b3b a33e 8139 b63e 718b 643e e224 073e
00000060: 93d9 a83e 95e2 253e b8c1 8c3e a74c c23e
00000070: a33f ab3e 08c1 503e 1f9a 9e3e fe54 453e
00000080: c17f 843e 38a2 d63e f85f 5e3e 4295 3e3e
00000090: addd 9c3e 8de6 4f3e eabc 1e3e 0081 6c3e
000000a0: d0d0 b53e 3beb 863e 5c82 b03e b763 7a3e
000000b0: e0f5 783e ac36 683b 98ea ee3e 5a46 933e
000000c0: 255b 603e c5b0 443e f3d1 2c3e 6fa2 023e
000000d0: a25e 333e a746 903e e9ac 9b3e cd6e 103e
000000e0: 72cb ae3e a1f6 e73d 4a51 753e a4d9 553e
000000f0: 16f8 8f3e 26ec 823e eac5 993e 0eb9 543e
00000100: ff35 3aa6 85fa 833e 625d 913e c07b 413e
00000110: f9b3 2b3e e62f 973e 421e 2f3e 1aee 153e
00000120: 20e5 2e3e 4f02 a33e 22a1 9f3e e973 a03e
00000130: bdd8 983e b6a8 133e c3ac a03e dbd2 903e
00000140: b92c 693e 5c6a 523e 8d89 a23e 8300 063e
00000150: 356e 8c3e 6394 1d3e b1c7 353e 0362 ed3d
00000160: 163a 503e b86d 233e 8897 db3e 8d65 983e
00000170: 9a26 bf3e b8f0 5a3e e342 803e de06 d03e
00000180: e748 d23e 7aef 3a3e f84b 423e 4462 513e

write_head.key_layer.weight f4 [20, 100]
0.12172537 0.06628392 0.080360755 0.09208779 0.051394783 0.10826593 0.109577216 0.0884806
0.044249576 0.06365571 0.0643594 0.07160859 0.015133465 0.04438367 0.04737068 0.015564253
0.07155314 0.03061793 0.0723177 0.18217821 0.075034834 0.00839106 -0.011686562 0.14507967
-0.01790628 -0.0077431663 0.045079213 0.114600815 0.092348576 0.09797239 0.079619735 0.045191042
0.06029553 0.05946677 0.016385503 0.019477343 0.058570996 0.013139382 0.04628766 0.035166707
0.024970984 0.10198755 0.06675724 0.053878773 0.105204195 -0.019121546 0.06887845 0.022479288
-0.047028996 0.015871411 0.094675764 0.08987337 0.03348442 0.13363683 -0.021024639 0.002755099
0.040871564 0.06283139 0.059266925 -0.008157575 0.04804117 -0.008329597 0.012045009 0.062621884
-4.7564868e-06 0.045098394 0.13016108 0.065252066 -0.018370865 0.061047763 0.024618506 0.05690352
-0.0017747557 0.12198937 0.08452463 0.0176993 0.04689889 0.067439094 0.01398314 0.005895762
0.090259515 0.0115827555 0.0456813 0.016144434 0.06278748 0.08955846 -0.025124867 0.050611712
0.022030301 0.003128905 0.071591504 0.14154759 0.10226743 0.06793936 0.08294338 0.06970798
0.053323686 0.03916847 0.008669482 0.0758951 -0.060838692 0.0034511308 -0.11897538 0.032739088
0.06590839 0.05577451 -0.022527123 0.028104978 0.018372726 -0.1057491 -0.018580643 -0.05163495
0.018628089 -0.0065643806 -0.06760471 -3.1251944e-05 0.0085412115 -0.027791172 0.012425652 -0.06663696
-0.0002568258 -0.05608302 0.08835376 0.029992051 0.08748465 0.03385215 0.019638604 -0.07985789
-0.030076526 0.124061435 0.0055603455 0.05329037 0.006520958 0.03258642 0.098313846 -0.089941524
0.095247425 -0.025088174 -0.003230204 0.090360075 0.07420343 -0.001520558 -0.03888999 0.07616913
-0.027225744 0.05196537 0.0336753 0.026552314 0.0924826 0.010130119 -0.092225395 -0.10556857
0.03303913 -0.05045049 0.09149528 -0.0060173436 0.030126842 0.02674549 -0.0014479934 0.07481701
0.02830562 -0.08075115 0.033358634 0.07260108 -4.4218204e-06 -0.0005553567 0.009031759 -0.031622507
0.060337536 -0.038922254 0.028850282 0.011249609 0.06983553 0.050976835 -0.0037352946 0.02985546
0.027005004 -0.07055059 -0.06372881 0.03266344 0.06704846 -0.048741985 -0.05518916 0.06887164
0.027968265 -0.069383435 0.0880781 0.04884525 -0.025491124 0.0067633553 0.0020666386 0.05734595
0.07462333 -0.058499064 0.05698534 0.011923787 -0.0052670026 0.021521205 -0.006801935 -0.11748893
0.021609953 -0.0829866 -0.11064848 0.12229876 0.07192625 -0.0014660138 -0.005054265 0.019036205
0.014229186 -0.14630115 0.031940736 -0.10925861 0.025427213 0.092782214 -0.13931492 0.054865308
-0.091371216 0.07726425 0.06642789 -0.07412394 0.004970754 0.024536328 0.028829537 0.048278466
0.06790423 0.076234795 0.040428605 -0.088588215 -0.0041442434 0.08294612 0.0052140527 0.0010460758
0.048886057 0.030320114 0.118000515 0.031600192 0.010519067 0.09314768 0.026357044 0.013625882
0.04774233 0.02230652 0.034918472 0.039243184 0.0077948016 -0.011779119 -0.006376929 0.039357726
0.073843166 0.09914219 -0.15662119 -0.09722279 -0.05536075 -0.0031147152 0.07325841 0.12217981
00000000: 274b f93d ddbf 873d 2e94 a43d 8698 bc3d
00000010: 5683 523d 87ba dd3d 056a e03d 5135 b53d
00000020: 0b3f 353d ed5d 823d dcce 833d 86a7 923d
00000030: 5af2 773c a7cb 353d c207 423d 3501 7f3c
00000040: 748a 923d 74d2 fa3c 4d1b 943d ed8c 3a3e
00000050: ddab 993d a87a 093c fe78 3fbc c48f 143e
00000060: 31b0 92bc 63ba fdbb fba4 383d d5b3 ea3d
00000070: 4021 bd3d c0a5 c83d ac0f a33d 3e1a 393d
00000080: 72f8 763d 6e93 733d e43a 863c f38e 9f3c
00000090: 24e8 6f3d 9046 573c 2198 3d3d f70a 103d
000000a0: f38f cc3c d9de d03d 05b8 883d fdaf 5c3d
000000b0: 4c75 d73d caa4 9cbc 2510 8d3d 7c26 b83c
000000c0: 7aa1 40bd c304 823c 5ee5 c13d 880f b83d
000000d0: f626 093d 18d8 083e dd3b acbc e48e 343b
000000e0: f168 273d bead 803d e0c1 723d 59a7 05bc
000000f0: d1c6 443d dd78 08bc 6e58 453c e73f 803d
00000100: e999 9fb6 18b9 383d f248 053e e0a2 853d
00000110: 7f7e 96bc 380d 7a3d c0ac c93c aa13 693d
00000120: eb9e e8ba 90d5 f93d 401b ad3d 1ffe 903c
00000130: 0d19 403d 821d 8a3d 8a19 653c 3c31 c13b
00000140: fbd9 b83d 99c5 3d3c 511c 3b3d 5541 843c
00000150: b996 803d 6d6a b73d aad2 cdbc 3a4e 4f3d
00000160: e478 b43c 510e 4d3b 919e 923d daf1 103e
00000170: 9671 d13d cb23 8b3d 38de a93d 0fc3 8e3d
00000180: f069 5a3d 1e6f 203d 710a 0e3c e46e 9b3d
00000190: fe31 79bd 5e2c 623b 5da9 f3bd 6c19 063d
000001a0: fafa 863d d073 643d cd8a b8bc 693c e63c
000001b0: 6682 963c fc92 d8bd 6f36 98bc 2b7f 53bd
000001c0: ef99 983c 041a d7bb 5774 8abd 8514 03b8
000001d0: 70f0 0b3c 50aa e3bc f694 4b3c f578 88bd
000001e0: 93a6 86b9 4fb7 65bd d1f2 b43d e4b1 f53c
000001f0: 272b b33d 8da8 0a3d 23e1 a03c 898c a3bd
00000200: 0c63 f6bc ec13 fe3d 8f33 b63b 0147 5a3d
00000210: c3ad d53b 5779 053d c558 c93d 4333 b8bd
00000220: 1511 c33d b785 cdbc d5b1 53bb b40e b93d
00000230: f8f7 973d 764d c7ba 1c4b 1fbd 90fe 9b3d
00000240: 8608 dfbc a4d9 543d 1def 093d 3d84 d93c
00000250: 8467 bd3d ccf8 253c abe0 bcbd 5634 d8bd
00000260: 0a54 073d 2ca5 4ebd e161 bb3d 232d c5bb
00000270: 91cc f63c 5c19 db3c 99ca bdba a939 993d
00000280: 30e1 e73c dc60 a5bd 10a3 083d e0af 943d
00000290: 265f 94b6 5b95 11ba f1f9 133c 9a86 01bd
000002a0: 7e24 773d f16c 1fbd 6d57 ec3c 4850 383c
000002b0: ee05 8f3d 16cd 503d d8cb 74bb 7093 f43c
000002c0: 9939 dd3c d47c 90bd 4084 82bd 19ca 053d
000002d0: b450 893d ada5 47bd 070e 62bd 930c 8d3d
000002e0: b41d e53c e718 8ebd 4a62 b43d f511 483d
000002f0: c3d2 d0bc 239f dd3b 7170 073b 96e3 6a3d
00000300: 1ed4 983d b79c 6fbd 7669 693d fd5b 433c
00000310: d296 acbb 3d4d b03c c4e2 debb 099e f0bd
00000320: 5b07 b13c e1f4 a9bd ac9b e2bd c677 fa3d
00000330: 124e 933d 4327 c0ba 3f9e a5bb d1f1 9b3c
00000340: 8821 693c f8cf 15be 4ad4 023d fac2 dfbd
00000350: bb4c d03c 9a04 be3d 92a8 0ebe 72ba 603d
00000360: d520 bbbd b83c 9e3d 580b 883d 4bce 97bd
00000370: b5e1 a23b 6900 c93c ec2b ec3c a4bf 453d
00000380: 5f11 8b3d fd20 9c3d 7798 253d bd6d b5bd
00000390: 6fcc 87bb a8df a93d a5da aa3b 7b1c 893a
000003a0: bf3c 483d e361 f83c 41aa f13d 346f 013d
000003b0: 2a58 2c3c 36c4 be3d baea d73c 173f 5f3c
000003c0: 768d 433d 2abc b63c ac06 0f3d 76bd 203d
000003d0: 896b ff3b 35fd 40bc 8ff5 d0bb 9135 213d
000003e0: 163b 973d 0f0b cb3d 4e61 20be be1c c7bd
000003f0: f4c1 62bd 4020 4cbb 8108 963d 6939 fa3d

write_head.key_layer.bias f4 [20]
0.122482546 -0.08488452 -0.01248829 -0.019670827 -0.085639514 0.083248995 0.042581286 0.07021888
-0.1952522 0.13365601 -0.16068311 -0.070805624 0.12156623 0.046640657 -0.13695236 0.044267762
-0.038305063 -0.1823133 -0.0062123965 -0.12764321
00000000: 21d8 fa3d efd7 adbd af9b 4cbc b724 a1bc
00000010: c563 afbd 737e aa3d b769 2e3d ebce 8f3d
00000020: 31f0 47be 1fdd 083e 1d8a 24be 8a02 91bd
00000030: b7f7 f83d 460a 3f3d 3d3d 0cbe 1d52 353d
00000040: c5e5 1cbd 56b0 3abe 5c91 cbbb e7b4 02be

write_head.beta_layer.weight f4 [1, 100]
0.26771447 0.03904011 0.23106632 0.2781374 0.22630237 0.2886101 0.29129568 0.2999755
0.27351892 0.11216319 0.21709609 0.20201077 0.31727445 0.27245286 0.17643116 0.2733957
0.035973746 0.27284792 0.28823408 0.39963195 0.3122006 0.23149768 0.23135422 0.3083439
0.22659962 0.26300874 0.27556863 0.27639323 0.23865129 0.2934102 0.18248951 0.2764214
0.15145646 0.39173248 0.31299964 0.31453335 0.20063856 0.20504439 0.21483417 0.1852102
0.30268148 0.2888104 0.2688782 0.34879968 0.3141381 0.005880581 0.3788286 0.27069288
0.15917899 0.24628207 0.17477892 0.24733166 0.2627811 0.39753148 0.29565507 0.2505006
0.21628846 0.23270212 0.24136268 0.25790778 0.29496196 0.1559659 0.31016535 0.28463444
2.2430648e-07 0.1645059 0.2003124 0.23351079 0.19712335 0.32057434 0.21889108 0.32642087
0.32433772 0.21118988 0.17642306 0.30326432 0.23303983 0.16059428 0.18467934 0.28700808
0.24476229 0.1644962 0.21997645 0.34597167 0.2938755 0.18439671 0.3090434 0.22808431
0.2173418 0.29019302 0.2831694 0.29526705 0.25420633 0.119529195 0.3371397 0.32284883
0.29001275 0.24105851 0.26177496 0.12008487
00000000: df11 893e 86e8 1f3d a69c 6c3e 0668 8e3e
00000010: cfbb 673e b4c4 933e b524 953e 6496 993e
00000020: ac0a 8c3e d1b5 e53d 704e 5e3e e9db 4e3e
00000030: cc71 a23e f17e 8b3e 5faa 343e 85fa 8b3e
00000040: 3559 133d b9b2 8b3e 6b93 933e 8f9c cc3e
00000050: c2d8 9f3e ba0d 6d3e 1fe8 6c3e 40df 9d3e
00000060: bb09 683e 15a9 863e 5517 8d3e 6a83 8d3e
00000070: 0161 743e dd39 963e 88de 3a3e 1b87 8d3e
00000080: 6717 1b3e 2991 c83e 7d41 a03e 840a a13e
00000090: 3274 4d3e 28f7 513e 7dfd 5b3e bea7 3d3e
000000a0: 11f9 9a3e f5de 933e 67aa 893e df95 b23e
000000b0: b6d6 a03e e4b1 c03b d2f5 c13e 4298 8a3e
000000c0: d1ff 223e 5e31 7c3e 3ff9 323e 8344 7d3e
000000d0: 3f8b 863e 3f89 cb3e 1a60 973e 9d41 803e
000000e0: b97a 5d3e 7749 6e3e c727 773e 7d0c 843e
000000f0: 4105 973e 86b5 1f3e fecd 9e3e 9bbb 913e
00000100: e5d8 7034 3c74 283e b21e 4d3e 741d 6f3e
00000110: b4da 493e 5222 a43e fc24 603e a320 a73e
00000120: 980f a63e 2942 583e 3fa8 343e 7645 9b3e
00000130: fea1 6e3e d472 243e 951c 3d3e b9f2 923e
00000140: f7a2 7a3e b171 283e 8241 613e 3323 b13e
00000150: d976 963e 7ed2 3c3e f03a 9e3e ef8e 693e
00000160: d98e 5e3e 2e94 943e 94fb 903e 3e2d 973e
00000170: 5527 823e b9cb f43d 939d ac3e 714c a53e
00000180: 8d7c 943e 0bd8 763e 5e07 863e 0eef f53d

write_head.erase_layer.weight f4 [20, 100]
-0.06350531 -0.005519418 -0.002600191 -0.037414327 -0.03243487 -0.057167467 -0.054547418 -0.034535762
-0.06341043 0.00029569992 -0.05713716 -8.316702e-06 -0.059472796 -0.06818396 -0.0013246058 -0.049489263
-0.0058802343 -0.055461485 -0.050652985 -0.024869824 -0.03274985 -0.045065697 -0.035615765 -0.036216833
-0.042711068 -0.051636778 -0.035160925 -0.04601222 -0.042585094 -0.04766676 -0.034157895 -0.04844682
-0.06034601 -0.05396232 -0.037909612 -0.043383967 -0.054360963 -0.060319554 -0.037718695 -0.05774572
-0.047787655 -0.05612852 -0.045554295 -0.041188315 -0.06040798 -0.006105212 -0.075523384 -0.029466039
-0.020413999 -0.034676123 -0.0017420172 -0.0012523691 -0.029784119 -0.06518462 -0.0006618384 -0.04022447
-0.060735162 -0.045863967 -0.029226953 -0.023935298 -0.0313987 -0.041657962 -0.059185416 -0.04323915
-9.661927e-30 -0.039051462 -0.060054176 -0.046341263 -0.039042883 -0.04522064 -0.027451364 -0.03235865
-0.036967635 -0.03360455 -0.05034234 -0.048280325 -0.04407855 0.0018138472 -0.05277487 -0.04760435
-0.041953467 -0.038148995 -0.053894024 -0.038528334 -0.03861031 -0.0030896703 -0.016317293 -0.0114201
-0.047425084 -0.026463432 -0.059293833 -0.055309463 -0.056398466 -0.00028684968 -0.055519145 -0.049113054
-0.04867982 -0.046641104 -0.025360076 -0.0009933681 0.017823821 -0.010138586 0.0062652677 0.031062214
0.021950016 -0.023223205 -0.0016824065 0.010199967 3.5049023e-05 0.00859603 -0.013849229 0.008777817
-0.017623734 -0.00241312 0.008130802 -0.008857393 -0.0108959135 -0.028311865 0.016488643 0.024359278
0.0024704607 -0.014330908 -0.015319307 0.0036404973 -0.039862227 -0.037079122 -0.009796505 0.034662522
0.009909951 -0.00016294928 0.008518675 0.017414296 0.008098287 0.03819894 -0.00964349 0.0187632
0.024354523 -0.0059923586 -6.457829e-05 0.022541998 0.012472019 -0.001078197 0.0072884196 0.0116365235
-0.015079964 0.011227952 0.0070944605 -0.0050110403 -0.021008471 0.025436448 0.006595232 0.0073441
0.016185451 0.035290066 -0.0062787714 0.0137639055 0.01849047 0.027099235 -0.024784673 -0.0034488463
-0.008499484 -0.011048609 0.014348605 -0.0020292657 -6.142891e-29 0.0054218997 0.016669115 0.005110046
-0.00534513 0.015943624 0.010952983 -0.00076723535 0.027990112 0.0075602666 -0.029093424 0.00758299
-0.012566085 0.0038872687 0.016023923 -0.028263472 -0.013258198 -0.0024899805 0.013498806 0.030663274
0.02333859 -3.0240588e-05 0.007888265 0.019563314 -0.0027261968 -0.0073961946 0.0006125294 -0.027385458
-0.027487462 0.0031785402 0.030108793 -0.011261554 -0.019099824 -0.017642796 0.0064846165 0.0083373925
-0.08444404 -0.005622327 0.00633712 0.0108375875 0.021724617 -0.06529089 -0.05740761 -0.03913729
-0.029326435 0.0022879043 -0.06657505 0.008832162 -0.08645192 -0.068524644 -0.004533905 -0.0027184354
-0.007805347 -0.0034496908 -0.02016065 -0.050344206 -0.029942043 -0.082981996 -0.030060684 -0.015186852
0.005305142 -0.018869376 -0.0056578238 -0.025392257 -0.06862149 -0.052622624 -0.040587816 -0.07280298
-0.022902556 0.019661592 -0.04106824 -0.060677614 -0.017753066 -0.028567879 -0.037042115 -0.044412073
0.013424262 -0.07659716 0.0018061483 0.016287018 -0.062158313 -0.06996518 -0.0026430413 -0.02664034
0.0064522005 0.006905454 -0.0024479078 0.004479676 -0.061755534 -0.028896213 0.025350856 -0.00065989065
00000000: 120f 82bd 3cdc b4bb f767 2abb c43f 19bd
00000010: 6dda 04bd 6f28 6abd 1d6d 5fbd 5f75 0dbd
00000020: 54dd 81bd 2c08 9b39 a808 6abd f787 0bb7
00000030: bf99 73bd 08a4 8bbd 659e adba 41b5 4abd
00000040: fbae c0bb 952b 63bd 8179 4fbd cdbb cbbc
00000050: b524 06bd cf96 38bd d6e1 11bd 1a58 14bd
00000060: cdf1 2ebd 1681 53bd e704 10bd 4f77 3cbd
00000070: b56d 2ebd 383e 43bd 26e9 0bbd 2c70 46bd
00000080: 612d 77bd 9807 5dbd 1c47 1bbd 63b3 31bd
00000090: 9aa9 5ebd a311 77bd eb7e 1abd c786 6cbd
000000a0: fdbc 43bd 05e7 65bd 2497 3abd 14b5 28bd
000000b0: 5c6e 77bd 3b0e c8bb 01ac 9abd c362 f1bc
000000c0: 423b a7bc 8d08 0ebd 6654 e4ba 8926 a4ba
000000d0: d3fd f3bc 847f 85bd 397f 2dba 6ac2 24bd
000000e0: 6fc5 78bd dbdb 3bbd 5d6d efbc f513 c4bc
000000f0: ec9b 00bd 8aa1 2abd 686c 72bd 891b 31bd
00000100: 98f7 438f 6df4 1fbd 5efb 75bd 56d0 3dbd
00000110: 6eeb 1fbd 4739 39bd afe1 e0bc 818a 04bd
00000120: 606b 17bd eda4 09bd c533 4ebd 97c1 45bd
00000130: b68b 34bd 9dbe ed3a 762a 58bd c7fc 42bd
00000140: 66d7 2bbd 1f42 1cbd fbbf 5cbd e3cf 1dbd
00000150: d825 1ebd 117c 4abb d8ab 85bc 5f1b 3bbc
00000160: ce40 42bd d7c9 d8bc 17de 72bd 2d8c 62bd
00000170: 1402 67bd 5064 96b9 0b68 63bd c52a 49bd
00000180: 7e64 47bd be0a 3fbd efbf cfbc e733 82ba
00000190: 4303 923c 501c 26bc e04c cd3b 2f76 fe3c
000001a0: 85d0 b33c 973e bebc 3284 dcba c31d 273c
000001b0: 9a01 1338 5dd6 0c3c e0e7 62bc d5d0 0f3c
000001c0: a65f 90bc 6f25 1ebb 0e37 053c 991e 11bc
000001d0: c684 32bc 49ee e7bc 3113 873c 1c8d c73c
000001e0: 74e7 213b 2fcc 6abc d5fd 7abc 6995 6e3b
000001f0: 9346 23bd 47e0 17bd 8581 20bc 4afa 0d3d
00000200: 595d 223c 5ddd 2ab9 ea91 0b3c 6da8 8e3c
00000210: adae 043c 7e76 1c3d bbff 1dbc 48b5 993c
00000220: 2383 c73c 8c5b c4bb 356e 87b8 ffa9 b83c
00000230: 7057 4c3c 4a52 8dba b2d3 ee3b 1ea7 3e3c
00000240: f411 77bc 72f5 373c a678 e83b a733 a4bb
00000250: f519 acbc 1960 d03c d11c d83b c7a6 f03b
00000260: 5a97 843c 518c 103d 27be cdbb 0182 613c
00000270: 5379 973c 37ff dd3c 3a09 cbbc 0a06 62bb
00000280: 6b41 0bbc 3a05 35bc 6916 6b3c 6efd 04bb
00000290: a4bd 9b90 31aa b13b ab8d 883c 2c72 a73b
000002a0: 3326 afbb 349c 823c 2474 333c 4b20 49ba
000002b0: 854b e53c 1dbc f73b 5555 eebc bb7a f83b
000002c0: fbe1 4dbc 8cc1 7e3b 9a44 833c cc88 e7bc
000002d0: ea38 59bc f12e 23bb 192a 5d3c 8c31 fb3c
000002e0: 9230 bf3c 2bad fdb7 c83d 013c 3e43 a03c
000002f0: fea9 32bb c75b f2bb 2792 203a 7857 e0bc
00000300: 632d e1bc 0e4f 503b b7a6 f63c 6282 38bc
00000310: 3c77 9cbc a087 90bc e87c d43b 8f99 083c
00000320: fff0 acbd 7f3b b8bb 9ea7 cf3b 2390 313c
00000330: d3f7 b13c 3bb7 85bd 3e24 6bbd 6c4e 20bd
00000340: fe3d f0bc aaf0 153b 8058 88bd c6b4 103c
00000350: b40d b1bd a656 8cbd 2791 94bb c727 32bb
00000360: ffc3 ffbb 3514 62bb f327 a5bc ba35 4ebd
00000370: 0449 f5bc 77f2 a9bd d341 f6bc 46d2 78bc
00000380: c2d6 ad3b f393 9abc 4465 b9bb 6c03 d0bc
00000390: 6c89 8cbd d28a 57bd 693f 26bd bb19 95bd
000003a0: 249e bbbc 5911 a13c 2c37 28bd 1789 78bd
000003b0: e16e 91bc 2f07 eabc 79b9 17bd 6fe9 35bd
000003c0: 70f1 5b3c f9de 9cbd 48bc ec3a 5a6c 853c
000003d0: b799 7ebd e749 8fbd e036 2dbb d83c dabc
000003e0: fb6c d33b 2647 e23b 146d 20bb 3fca 923b
000003f0: 5ff3 7cbd c0b7 ecbc 99ac cf3c 83fc 2cba

write_head.erase_layer.bias f4 [20]
-0.077273116 0.0133600375 -0.028077334 -0.054918498 -0.06741666 0.03324688 -0.043482885 -0.05577704
0.017224738 -0.12163531 0.002052957 -0.04223639 -0.0054424433 -0.03906166 -0.08976407 -0.039492816
-0.08745505 -0.07133121 -0.062032677 -0.12652197
00000000: 5e41 9ebd 0fe4 5a3c 7002 e6bc 38f2 60bd
00000010: bf11 8abd e12d 083d 1c1b 32bd 7776 64bd
00000020: e51a 8d3c ef1b f9bd e78a 063b 1100 2dbd
00000030: 8656 b2bb 1fff 1fbd 3ad6 b7bd 38c3 21bd
00000040: a21b b3bd 1916 92bd fa15 7ebd fa8e 01be

write_head.add_layer.weight f4 [20, 100]
-0.0078099165 0.017741978 -0.064893186 0.12277826 0.13645357 0.1102376 0.1645887 -0.008807094
0.027258849 -0.0666049 0.105147496 -0.050803002 0.08015025 -0.010206991 -0.06837282 -0.0015882936
0.02084694 0.01872229 0.028105078 0.093822524 0.030439483 -0.018197574 0.020787142 0.11643975
0.061302703 0.07883515 0.13630404 0.039065834 -0.022792052 0.1515803 0.08754004 0.03910859
0.111431345 0.13082741 0.01708032 0.038013812 0.16626786 0.03901835 0.15427876 0.15414464
0.03392497 0.003427447 0.06777856 0.11763316 0.021917632 0.008312243 0.00015732786 -0.013899448
0.050656907 0.13869321 -0.078367464 -0.04962402 -0.030181438 0.07162061 0.1299966 0.11910393
0.01635115 0.17561717 0.08971744 0.1668145 0.020863853 0.027607787 0.1449862 0.102491744
2.2995312e-30 0.11838168 0.017644344 0.010700539 0.112977006 0.061426375 0.07846876 0.098755546
0.037042487 0.04856552 0.00014819058 0.05999823 0.046246506 -0.070812404 0.03836807 0.017927978
0.026206601 0.0066881566 0.086685754 0.11959123 0.11236306 -0.046995778 0.1156454 0.08551067
-0.00040470474 0.11818771 -0.002162202 0.029828252 0.014223063 -0.06879525 0.14755331 -0.0046501686
0.001342185 0.01990274 0.06452803 -0.07381428 -0.01633324 -0.0101530515 -0.0073768785 0.01773662
0.0064180484 -0.07320102 -0.07978236 -0.0589413 -0.07697811 -0.01703678 -0.064534634 0.002275831
-0.124493316 -0.0760533 -0.03541399 -0.08408578 -0.010234587 -0.045087088 -0.022880001 0.05874407
-0.011105653 -0.014564638 -0.08872759 -0.008842435 -0.10654007 -0.053743597 0.045793153 0.08919505
-0.05905164 0.008085928 0.004790183 -0.11862969 -0.05416036 0.1590732 0.01797267 0.0047411798
0.03198909 -0.11020068 -0.0084756985 -0.00598056 -0.030895842 -0.0040729973 0.042275947 0.13488427
-0.11357295 -0.07546602 0.038807977 -0.078487165 -0.048475306 -0.033801585 -0.010230297 -0.006084152
-0.06023949 -0.028874433 0.021536354 -0.08204034 -0.023337439 0.012569373 -0.080013044 -0.028031358
-0.069391645 -0.0605606 0.024836717 -0.018855546 -8.7260785e-28 -0.015176819 -0.012947813 -0.008393308
-0.016161297 -0.0024541256 -0.048899584 0.0103056 -0.04780574 -0.0023623456 -0.07085533 0.072437674
-0.08315062 -0.0065208124 -0.048441492 -0.08651562 -0.105865814 -0.085124746 0.033040266 0.016280424
0.035928026 0.009833771 0.025290083 0.044851996 -0.004365648 0.025966592 0.002808635 -0.06797053
-0.054469794 -0.018299159 0.024784913 -0.04466133 -0.011934795 -0.053253695 -0.024051586 -0.010482625
0.047568552 -0.019714415 0.0517108 -0.11738377 -0.14305976 -0.12145349 -0.22194049 0.04788939
0.01000372 0.020532753 -0.08346669 0.09351266 -0.062686 -0.044992663 -0.035278495 0.053883307
-0.02375345 0.046687357 -0.070503 -0.11572268 -0.01785277 0.029581146 -0.094375655 -0.06739652
0.02812249 -0.105496794 -0.036217187 0.16099018 0.056652628 -0.16983424 -0.090351515 -0.010761134
-0.07840852 0.08898055 -0.010010418 -0.009883495 -0.176794 -0.08259562 -0.19176096 -0.11197972
-0.004105819 0.017593635 0.094453365 -0.021824481 0.04983545 -0.07514355 0.14897951 0.005660888
-0.059561376 -0.090673216 0.08324657 0.08952788 -0.018341843 0.0016689136 -0.037511967 -0.11298769
00000000: 54ea ffbb a057 913c b8e6 84bd 2b73 fb3d
00000010: 7cba 0b3e 40c4 e13d f189 283e a14b 10bc
00000020: f34d df3c 2668 88bd 9257 d73d cf16 50bd
00000030: d025 a43d 393b 27bc 0d07 8cbd 4a2e d0ba
00000040: 34c7 aa3c 7d5f 993c 9f3c e63c 0626 c03d
00000050: 395c f93c 1413 95bc cc49 aa3c f777 ee3d
00000060: 8b18 7b3d 5374 a13d 4993 0b3e 7f03 203d
00000070: 66b6 babc de37 1b3e 3148 b33d 5430 203d
00000080: 1e36 e43d 9ff7 053e 07ec 8b3c 5fb4 1b3d
00000090: 1f42 2a3e b5d1 1f3d 40fb 1d3e 18d8 1d3e
000000a0: e9f4 0a3d 059f 603b 7ccf 8a3d a7e9 f03d
000000b0: 9b8c b33c 1330 083c 60f8 2439 83ba 63bc
000000c0: 9e7d 4f3d 9805 0e3e 1f7f a0bd 8e42 4bbd
000000d0: 103f f7bc d4ad 923d d41d 053e c3ec f33d
000000e0: d9f2 853c fdd4 333e c7bd b73d 6cd1 2a3e
000000f0: acea aa3c ba29 e23c 4377 143e 31e7 d13d
00000100: 658f 3a0e 1872 f23d df8a 903c 5051 2f3c
00000110: 7d60 e73d 399a 7b3d 3bb4 a03d 5940 ca3d
00000120: ddb9 173d a4ec 463d 9b63 1b39 b4c0 753d
00000130: fa6c 3d3d 1806 91bd d627 1d3d b2dd 923c
00000140: 3aaf d63c 5328 db3b 4d88 b13d 3fec f43d
00000150: 9b1e e63d a57e 40bd 7fd7 ec3d 3820 af3d
00000160: 8d2e d4b9 660c f23d bbb3 0dbb 615a f43c
00000170: da07 693c 86e4 8cbd 3718 173e 7160 98bb
00000180: 41ec af3a 120b a33c 4627 843d f12b 97bd
00000190: 49cd 85bc fc58 26bc beb9 f1bb 634c 913c
000001a0: 7e4e d23b 6bea 95bd ef64 a3bd 6f6c 71bd
000001b0: b3a6 9dbd b890 8bbc bc2a 84bd 1c26 153b
000001c0: 5af6 febd d5c1 9bbd 430e 11bd 2a35 acbd
000001d0: f8ae 27bc 3dad 38bd d76e bbbc 9f9d 703d
000001e0: 7cf4 35bc 85a0 6ebc d0b6 b5bd dcdf 10bc
000001f0: ae31 dabd 3f22 5cbd 9a91 3b3d e5ab b63d
00000200: 22e0 71bd d77a 043c f8f6 9c3b 1ff4 f2bd
00000210: 41d7 5dbd 16e4 223e 6c3b 933c e65b 9b3b
00000220: fe06 033d e5b0 e1bd a8dd 0abc 93f8 c3bb
00000230: 4719 fdbc c776 85bb 8b29 2d3d 1a1f 0a3e
00000240: ef98 e8bd ee8d 9abd 1df5 1e3d e1bd a0bd
00000250: 0b8e 46bd 8873 0abd fa9c 27bc 915d c7bb
00000260: afbd 76bd 138a ecbc 026d b03c c404 a8bd
00000270: 282e bfbc c5ef 4d3c e1dd a3bd 05a2 e5bc
00000280: 351d 8ebd 640e 78bd 5f76 cb3c f276 9abc
00000290: 2e45 8a92 31a8 78bc 1023 54bc 1684 09bc
000002a0: b264 84bc 65d5 20bb ee4a 48bd d2d8 283c
000002b0: f4cf 43bd 95d1 1abb 991c 91bd 345a 943d
000002c0: df4a aabd 8aac d5bb 966a 46bd 1a2f b1bd
000002d0: 2dd0 d8bd e255 aebd 3b55 073d 865e 853c
000002e0: 4429 133d d31d 213c 262d cf3c bab6 373d
000002f0: b60d 8fbb e4b7 d43c 1311 383b 2234 8bbd
00000300: b81b 5fbd 1ee8 95bc bb09 cb3c ccee 36bd
00000310: 298a 43bc 8c20 5abd d507 c5bc 51bf 2bbc
00000320: 3ed7 423d 2080 a1bc b4ce 533d e766 f0bd
00000330: 427e 12be 9bbc f8bd 5e44 63be aa27 443d
00000340: a5e6 233c 4e34 a83c 95f0 aabd 9183 bf3d
00000350: 8461 80bd 3a4a 38bd 2f80 10bd beb4 5c3d
00000360: 9896 c2bc 3e3b 3f3d e063 90bd 0300 edbd
00000370: f93f 92bc 2954 f23c 0648 c1bd 3007 8abd
00000380: 2361 e63c b40e d8bd 7958 14bd 9cda 243e
00000390: 960c 683d 07e9 2dbe 370a b9bd 784f 30bc
000003a0: a594 a0bd 6f3b b63d bc02 24bc 62ee 21bc
000003b0: 7d09 35be e427 a9bd fc5c 44be a055 e5bd
000003c0: 1b8a 86bb 8720 903c c470 c13d 41c9 b2bc
000003d0: 4220 4c3d dde4 99bd 168e 183e f87e b93b
000003e0: a1f6 73bd e1b2 b9bd 2d7d aa3d 655a b73d
000003f0: a241 96bc 73bf da3a 26a6 19bd 1766 e7bd

write_head.add_layer.bias f4 [20]
0.05408334 -0.011266283 -0.10074513 0.15116361 0.046543233 -0.05274703 0.1349995 0.06748502
-0.03686578 0.085418716 -0.056799572 -0.049598467 0.09434131 -0.15376733 -0.13068585 -0.0075592077
-0.15988125 -0.1562127 0.14654604 -0.10269897
00000000: 7e86 5d3d 3796 38bc 7653 cebd a2ca 1a3e
00000010: 1ea4 3e3d 450d 58bd 4f3d 0a3e 9635 8a3d
00000020: 9200 17bd 02f0 ae3d aba6 68bd c327 4bbd
00000030: 0436 c13d 2f75 1dbe 83d2 05be 3bb3 f7bb
00000040: e9b7 23be 39f6 1fbe 2a10 163e d653 d2bd
