Inversaobit-Emanuel/checkpoint/best_model_epoch_2.pth (torch, 65162 bytes, 15 tensors)

memory.mem_bias f4 [128, 20]
000000 c6 72 78 3d 40 30 a8 bc 02 ab 8b bd 52 89 82 bd
       0.06065633 -0.02053082 -0.068197265 -0.06373848
000010 66 6b 26 3d 0a 0c 32 3d d4 7d 96 bc 52 2b 37 3d
       0.040629767 0.043468513 -0.018370546 0.044719048
000020 fc e0 f6 3c 10 ef 2f 3c 85 c4 a7 3d ed e2 38 bd
       0.030136578 0.010738149 0.0819178 -0.04513829
000030 55 67 91 bd 70 aa 29 bc 00 9a bb b9 b9 0b cb 3d
       -0.07099787 -0.010355577 -0.00035782158 0.09914345
000040 c0 c2 9d bd 50 96 90 bb da 90 78 3d 0c ec 8c 3c
       -0.07703161 -0.00441245 0.060685016 0.0172024
000050 a3 91 35 bd c8 db f9 bc 5e 41 8a bd c0 92 b3 bc
       -0.044328343 -0.030500308 -0.06750749 -0.021920562
000060 7a 08 4b 3d 77 38 c9 3d b7 e4 b9 bd 47 9b b5 bd
       0.04956863 0.09825223 -0.09076827 -0.088675074
000070 30 4f 4b bc 74 cd b5 3c b0 52 2d bd 80 18 45 3c
       -0.0124090165 0.022192694 -0.042315185 0.012029767
000080 b9 c0 aa 3d 99 5b 84 3d 30 07 21 bc d3 02 54 bd
       0.0833754 0.06462783 -0.009828374 -0.051760506
000090 00 ff b2 bc 27 df af 3d 33 14 2e bd 8d 7e 41 bd
       -0.02185011 0.08587485 -0.042499732 -0.04723983
0000a0 d4 5d dd 3c 00 ab ef b9 bb 88 a5 bd bc 06 f7 3c
       0.02702228 -0.00045713037 -0.0808272 0.030154578
0000b0 e0 e1 e6 3b 75 f1 c4 bd 2c 60 a3 3c 7a 39 4b bd
       0.0070459694 -0.09616367 0.01994332 -0.04961536
0000c0 80 d2 39 ba 00 ec 2c b9 3d c9 a4 bd 64 e2 da 3c
       -0.0007088557 -0.00016491115 -0.08046196 0.02671928
0000d0 62 2f 89 bd b5 f3 ab 3d 55 19 84 3d c0 1c 42 bb
       -0.06698491 0.08396093 0.06450144 -0.0029619187
0000e0 68 3a b0 3c cc e1 eb bc d2 87 60 3d fd 7e 26 bd
       0.021512225 -0.028794192 0.05481703 -0.04064845
0000f0 c7 61 93 3d 0d 9a 84 3d d4 cb e8 bc a9 ac 8b 3d
       0.07196384 0.06474695 -0.028417505 0.06820042
000100 e2 f0 6d 3d 05 d3 94 3d c0 78 7a bd 08 51 d6 bc
       0.058091052 0.07266811 -0.061150312 -0.026161686
000110 d2 43 03 3d ef ec a8 3d 00 b8 48 3a 2e d9 0a 3d
       0.0320471 0.082483165 0.00076568127 0.033898525
000120 dd 6a 67 bd 4c bb e4 bc 60 83 96 bc 78 49 80 bd
       -0.056498397 -0.027921341 -0.018373191 -0.06264013
000130 7c 68 0b bd 9f 72 bd 3d 58 ac 5e 3c 78 4a fd bc
       -0.03403519 0.09250378 0.013590895 -0.030919299
000140 be 41 16 3d f1 5a 84 3d f4 29 fd bc 50 17 bb 3b
       0.03668379 0.06462658 -0.030903794 0.005709566
000150 98 fb a4 bd 9e 9e a5 bd d1 b6 88 3d d4 4a cb 3c
       -0.080558 -0.080868945 0.066754945 0.024815954
000160 db 07 bb bd b1 ec 87 3d 60 6d a6 bc c4 19 80 bd
       -0.09132358 0.06636942 -0.020315826 -0.062549144
000170 e4 07 e2 3c 8e 6b 6c 3d 2a 22 02 bd ac 01 bd bc
       0.027591653 0.05771976 -0.031770863 -0.023072086
000180 33 8f af 3d c3 d8 a7 3d fa 81 7d 3d 6c 08 c8 3c
       0.08572235 0.08195641 0.061891533 0.024418078
000190 af 7e 8b 3d 98 07 f0 bc 8c 37 f0 3c 57 a4 b0 bd
       0.06811272 -0.029300496 0.029323362 -0.08625095
0001a0 98 33 85 3c e0 85 e1 bc d3 fb 89 3d 33 69 c5 3d
       0.016259953 -0.027529657 0.06737485 0.09639206
0001b0 40 bf de bc b2 46 15 3d 93 02 91 bd c5 ec b4 bd
       -0.027190804 0.036444373 -0.07080569 -0.08834223
0001c0 58 f9 36 3c 23 f8 2b bd a0 10 33 3b 60 dd 95 bd
       0.011167847 -0.04198469 0.0027323142 -0.073176146
0001d0 48 8d a5 bc 70 55 27 3c 17 a8 c1 3d 42 a4 52 3d
       -0.02020897 0.010213241 0.09455889 0.05142618
0001e0 ce 6f 2d 3d 1f 9c af 3d 37 4e c4 3d a8 66 8d bc
       0.042342953 0.085746996 0.09585231 -0.017260864
0001f0 46 f6 5f 3d 9d 4b 68 bd f4 7b b6 bc 19 cd 93 3d
       0.054678224 -0.056712735 -0.022275902 0.07216854
000200 54 72 89 bd 09 5c cb 3d 60 83 a5 bb d2 d6 97 bd
       -0.067112595 0.09929664 -0.0050510615 -0.074140206
000210 90 d8 5e 3c 66 e0 55 3d fd 40 4b bd 00 d4 20 bc
       0.013601437 0.052215956 -0.049622525 -0.00981617
000220 b8 36 88 bc aa bc 7f bd d4 11 04 bd 8a 71 77 bd
       -0.016627654 -0.062435783 -0.032243565 -0.060411014
000230 bd 27 9b bd a0 cb 8b bd 92 b8 24 3d 7d 98 a3 3d
       -0.07575939 -0.06825948 0.040215082 0.07988069
000240 6f f1 a2 3d a8 74 ea bc 62 99 30 3d 0c 6d 86 3c
       0.07956206 -0.02862008 0.043115027 0.01640942
000250 07 b1 84 3d 00 dd 0a 3a 10 35 5d bc ed 5a 64 bd
       0.06479078 0.0005297214 -0.013501421 -0.055750776
000260 63 ea 7d bd 18 fe b6 bd 85 3b b9 3d 18 19 44 bc
       -0.061991107 -0.08935183 0.090445556 -0.011968873
000270 bd 35 8b bd 60 5c 06 bb f1 1e a7 3d 61 00 88 3d
       -0.06797359 -0.0020501837 0.081601985 0.06640697
000280 60 ba 3e bb 2d d3 94 3d 90 aa 42 3c c6 dc 4c 3d
       -0.0029102787 0.07266841 0.011881486 0.050015233
000290 00 7c 4a 39 7a 16 5b 3d ad a9 85 bd c0 78 b2 3a
       0.00019310415 0.053488232 -0.06526504 0.0013616309
0002a0 20 aa f8 bb d0 82 64 bd 54 6f d9 3c 1d f0 73 bd
       -0.00758864 -0.055788815 0.026542343 -0.05955516
0002b0 fa 1c 06 bd 61 a4 af 3d 00 30 59 bb b3 7c a5 3d
       -0.032742478 0.08576275 -0.0033140182 0.08080425
0002c0 a5 c6 8a 3d 02 e1 10 3d dd 4a 68 bd 8d a0 6b bd
       0.0677617 0.035370834 -0.05671202 -0.05752616
0002d0 a8 6d 8c bc 6e 48 69 3d 00 38 0a bc 30 de 44 bd
       -0.017142132 0.05695384 -0.008436203 -0.048063457
0002e0 e0 1b 8e 3b 17 48 6e bd f2 ab 41 3d c8 6f c3 3c
       0.004336819 -0.05817422 0.04728312 0.023857012
0002f0 80 d4 d8 3a aa 7f 9b bd fd 8a 90 3d 08 13 a9 3c
       0.0016542822 -0.07592709 0.0705776 0.020638958
000300 f6 39 06 bd 57 da 47 bd 07 28 a5 3d 37 ac 9e 3d
       -0.03277012 -0.04879221 0.08064275 0.07747691
000310 ad 31 5b bd 47 8b b4 3d c0 a8 3b 3c a6 a3 05 bd
       -0.05351417 0.088156275 0.011453807 -0.03262677
000320 98 0d ee bc 40 89 69 bb 18 d4 ca bc 93 27 8d bd
       -0.029059216 -0.0035634786 -0.024759337 -0.06892314
000330 5e c6 18 3d 6c 22 ed bc d2 fe 36 3d 15 3c 82 3d
       0.037298553 -0.028947078 0.04467661 0.06359116
000340 83 9e b4 bd 42 27 20 3d 00 7f b8 bc e5 91 93 3d
       -0.08819296 0.03909994 -0.022521496 0.072055615
000350 5f f3 8f 3d 80 4e 2b bc 70 7a 2a 3c 80 db b9 3a
       0.07028841 -0.010455728 0.010405168 0.0014179796
000360 12 6e 5e 3d 9f 08 c9 3d 60 ff 73 bb 5a 3b af bd
       0.05430419 0.098160975 -0.0037231073 -0.08556242
000370 cc 90 c7 3c 80 bc 10 3c c0 85 09 3c 0a 08 0e 3d
       0.024361037 0.008834004 0.008393705 0.034675635
000380 70 9a 0f bc f0 d3 6f 3c 3b 35 a2 3d b3 a7 b7 3d
       -0.008764848 0.014637932 0.07920309 0.08967533
000390 b4 22 9a 3c e5 bc 8f 3d 89 74 99 3d 00 b5 cb bd
       0.018815376 0.07018451 0.074929304 -0.099466324
0003a0 67 69 be 3d a2 0b 75 3d 73 81 7b bd af 13 92 3d
       0.09297448 0.059825547 -0.06140275 0.071326606
0003b0 e1 6c bc 3d c7 e0 88 3d c0 a6 04 3b da 2f 1a bd
       0.092004545 0.06683498 0.0020240992 -0.03764329
0003c0 43 b9 80 3d aa db 0a bd 11 aa ae 3d 43 33 68 bd
       0.06285336 -0.033900894 0.08528531 -0.056689512
0003d0 af a0 b0 3d b0 f4 d4 bb 98 d7 cb 3c bf 03 b5 bd
       0.08624398 -0.0064988956 0.024883077 -0.08838605
0003e0 80 01 f8 bb 43 68 a4 bd 51 2a a2 3d 8a 02 6a 3d
       -0.007568538 -0.08027699 0.079182275 0.057131328
0003f0 b3 2e 2d bd 5d 2e 52 bd 40 a9 bc 3c 5d 9d 85 3d
       -0.042280864 -0.051313747 0.023029923 0.06524155

controller.0.weight f4 [100, 28]
000000 ae 7a 6d 3b a7 30 c6 be c4 f6 80 3e 14 cd dc 3c
       0.0036236453 -0.38708994 0.25188267 0.026953258
000010 c0 42 80 be 88 2c cb 3e dd 54 fc 3c 70 f5 ef 3e
       -0.25050926 0.39682412 0.030802185 0.4686694
000020 3b 01 2b 3d 66 0a aa bc 19 10 2a 3d c6 1e 74 3d
       0.04174922 -0.020756911 0.04151926 0.05959966
000030 3e 7c 4a 3d 31 6a 03 be 91 f4 70 3e 11 5d 74 3e
       0.049434893 -0.12833478 0.23530795 0.23863627
000040 0f ca 17 be 33 94 4a 3e 84 16 8c be 82 22 ca 3c
       -0.14823173 0.19783096 -0.27360928 0.024674658
000050 ee dd 08 3e cf 14 90 bb 98 a5 f4 bd 1e 3a 1f be
       0.1336591 -0.004397012 -0.11945647 -0.15549514
000060 cd 8c 2e 3d 7d bf 60 be 2e 43 da bb e9 fc 28 be
       0.042614747 -0.21948047 -0.0066608405 -0.16502728
000070 c8 fa 62 be 36 99 37 be 34 cd 2a be 43 0c 7a be
       -0.22165978 -0.17929539 -0.16679841 -0.2441874
000080 94 82 55 be 6f 5c 8c be 5a 04 4e be 28 bf 89 be
       -0.20850593 -0.2741427 -0.20118847 -0.26903653
000090 8e 4d ca 3d 7b be 7b bc 8a 8c 0a 3d 40 f3 c3 3c
       0.09878074 -0.015365238 0.033825435 0.023919702
0000a0 23 0d 67 3d aa 54 b5 bd 2d 7e 89 3d 10 19 97 3d
       0.056409013 -0.08854039 0.06713519 0.07377827
0000b0 32 f4 08 bd 14 59 ba bc 62 d8 d9 bc 76 63 80 3b
       -0.033436008 -0.022747554 -0.026592437 0.0039181067
0000c0 e9 91 41 3d 07 64 7b bd c7 02 01 bd 3b e4 4a 3d
       0.04725829 -0.06137469 -0.03149679 0.049534064
0000d0 5d 6c 13 ba e2 f5 16 bd 01 0a 1d 3d 48 4f 0a bd
       -0.00056237524 -0.036855586 0.03833962 -0.033767015
0000e0 05 4a 9f be 03 a2 68 be 60 81 92 be 0c 71 a9 be
       -0.3111116 -0.22718053 -0.2861433 -0.3309406
0000f0 84 fa 6f be 07 88 b2 be 21 dd c8 bd 29 f5 70 3d
       -0.23435408 -0.34869406 -0.09807802 0.058827553
000100 9b 2f c4 3c 60 c6 69 be 7e 56 97 bd 7f 8a 27 bd
       0.023948481 -0.2282958 -0.07389544 -0.040903565
000110 df b1 8b 3e 7a c0 2d be 2b 62 d9 bc c2 fc 7c 3e
       0.27284142 -0.16967955 -0.026536068 0.24705794
000120 73 3f 71 be 24 7f 7c 3e d7 3b f4 3b ce cd 6b 3e
       -0.2355936 0.24657875 0.0074534225 0.23027727
000130 2a 8b 41 3d e2 14 e3 bd 23 45 c1 bd f5 d7 c1 bd
       0.047251858 -0.110879675 -0.09437015 -0.09465019
000140 70 c1 81 be 8c 1b a5 bd 4d 0c b2 bc 0c 4f 1a 3d
       -0.25342894 -0.08061895 -0.021734381 0.03767304
000150 d2 6f a4 3e d8 4f 7b be d2 0a be 3e d0 50 0e 3f
       0.32116562 -0.24542177 0.3711763 0.5559206
000160 23 e5 01 bf 69 e0 67 be 02 54 09 3f d7 78 7a be
       -0.5074026 -0.226442 0.5364381 -0.24460159
000170 bc 14 7c bd ca 5d 8b bd 13 3b 43 be 65 32 4e be
       -0.06154321 -0.06804998 -0.19065504 -0.20136411
000180 31 cd e3 3d 8b 88 85 3e 98 84 9b 3b d2 75 97 be
       0.111231215 0.26080737 0.004746031 -0.29582077
000190 14 33 64 39 e3 82 12 be 90 73 bb 3d 10 9c 2e 3e
       0.00021762802 -0.14307742 0.09152901 0.1705172
0001a0 75 72 65 be 59 3a 7c 3e 99 05 f2 bd 05 89 6f 3c
       -0.22406943 0.24631633 -0.11817474 0.01462007
0001b0 5c 36 49 3e 18 e3 ac 3d 21 b1 34 be 50 d0 6c 3e
       0.19649643 0.08441752 -0.17645694 0.2312634
0001c0 47 79 c2 be 25 1e 4d bd ca bb 45 3d 27 53 23 3f
       -0.37983152 -0.050077576 0.048274793 0.63798755
0001d0 bd a9 13 3f 2f 7b 22 3f 9f d7 1f 3f cb 54 95 bd
       0.57680875 0.63469213 0.62438387 -0.072915636
0001e0 5e 13 5d 3d b6 2c fb bc 56 f3 7d be 7c fc 52 3e
       0.053973548 -0.030660968 -0.24799857 0.20604128
0001f0 52 14 4f 3e e2 b0 4b bd f7 6c 31 3e 93 20 8b bd
       0.20222595 -0.049729235 0.17326723 -0.067933224
000200 81 03 f0 3d d5 94 26 3e b7 e9 c6 bd df db a5 3e
       0.11719418 0.16267712 -0.09712546 0.3239431
000210 f1 22 33 3d 73 4f 2b be cf eb 9a bd 07 ad 07 bc
       0.043734495 -0.16729526 -0.07564508 -0.008280999
000220 78 43 80 bd 40 c2 12 be fd 3a 69 3e 1b 80 9b 3c
       -0.06262869 -0.14331913 0.22776408 0.018981984
000230 4a d1 d8 3e 91 af fc 3e f6 d8 da 3e 65 d4 17 3f
       0.42347175 0.49352697 0.42743653 0.59308463
000240 43 2d 19 3f 25 00 d8 be dd 21 90 be 47 45 f5 3d
       0.5983469 -0.4218761 -0.28150836 0.11976104
000250 8e 4a 8c bd a4 84 2c be 82 f3 8d be 28 8c a2 3d
       -0.06850158 -0.16847473 -0.27724844 0.07936889
000260 7a 82 32 3e 2c 00 7e be 84 47 69 3d 36 93 f0 3d
       0.17432585 -0.24804753 0.05695297 0.11746828
000270 b0 ab 8e be 11 7b 15 3e f5 13 97 be 73 af 14 3e
       -0.27865362 0.14597727 -0.29507414 0.14520054
000280 73 49 49 3e 8b 64 11 be 72 10 a8 bd 9d 74 88 be
       0.19656925 -0.1419851 -0.08206262 -0.2665147
000290 21 86 71 be 1a 94 2e be 1a ce d4 3c 2f 50 d9 bd
       -0.23586322 -0.17048684 0.025977183 -0.10610997
0002a0 01 38 71 3e 18 33 06 3d 9b d0 e3 3e 82 c4 28 be
       0.2355652 0.03276357 0.4449509 -0.16481212
0002b0 2d 7d 00 3f 21 99 1a 3f 5a 9b f4 be e2 57 7e be
       0.50191003 0.60389906 -0.47774774 -0.24838212
0002c0 56 0e 82 3e 32 5a 17 be e9 ed 66 be 2b 57 2e bd
       0.25401562 -0.147805 -0.22551693 -0.0425636
0002d0 da 58 a3 3e 0f 8e 77 be 45 8f 71 3e ad 28 89 3e
       0.31903726 -0.24175285 0.23589809 0.26788846
0002e0 2b e5 62 3b ef b4 78 3e 31 ae ac bd 19 41 ea 3d
       0.0034621458 0.2428777 -0.08431662 0.11438198
0002f0 9f b7 8e bc 41 d8 b2 bd f8 70 93 be 82 4e 7d 3c
       -0.017421542 -0.087326534 -0.28797126 0.015460612
000300 a8 28 85 be cc 83 12 be 5e e0 d0 3d fd 7c 19 3d
       -0.2600758 -0.14308089 0.10199045 0.037472714
000310 3d 3f 47 3c 29 7a 02 3d 1d e7 57 be 12 88 2f 3f
       0.012161073 0.031854782 -0.21084256 0.68567
000320 53 3d 16 3e 74 0e 66 be 77 e2 23 3f 16 52 0f 3f
       0.14671831 -0.22466451 0.6401743 0.5598463
000330 e2 68 e0 bc f3 67 3f be 88 59 a1 bd 4d 44 7d bd
       -0.027393762 -0.18691997 -0.07878405 -0.061832715
000340 ea 30 d4 3c 91 d2 f2 bd ea 6c 28 3e 60 c3 96 3d
       0.02590223 -0.118565686 0.16447797 0.073614836
000350 c7 e1 2e be 2b 11 44 3e af 4d e5 3b 27 b8 3d 3e
       -0.17078315 0.19147174 0.006997786 0.1852728
000360 f2 94 15 3e f8 5c 03 3e 34 23 f7 bc f2 f4 47 bd
       0.146076 0.12828434 -0.030168153 -0.048817582
000370 4c ba 0a 3d 30 18 d5 3d d8 4b 6d bd 86 69 b3 bc
       0.033869073 0.10405004 -0.05793366 -0.021900903
000380 ed dc 14 3f fe 12 dc be dd d1 31 3f b9 9d 9f be
       0.58149606 -0.4298324 0.6946085 -0.3117502
000390 76 42 03 3f 6a 63 d0 bc 73 9c 1a 3f 2e 39 2e 3f
       0.51273286 -0.02543803 0.6039497 0.68056
0003a0 50 69 99 bd 43 fa ca 3c 21 b1 26 be 55 a2 90 3d
       -0.0749079 0.024777537 -0.16278507 0.070622124
0003b0 48 d8 39 3e f5 d1 97 bd 91 0a 03 3e 6e 9e 2d 3c
       0.18148911 -0.07413093 0.12797 0.010596855
0003c0 79 b7 49 bc 26 a6 79 3b c0 bd e5 bd b5 2b 27 3e
       -0.01231181 0.0038093417 -0.112178326 0.16325267
0003d0 85 43 9c bd 14 b4 8a 3d d0 5e 4c be 90 eb f6 bd
       -0.07630066 0.067726284 -0.19958043 -0.12056649
0003e0 05 05 be bd 35 a5 fc 3d 9f 35 48 3d 65 8b 39 bd
       -0.09278301 0.12336198 0.048879262 -0.045298953
0003f0 b1 c7 9c be da 32 a5 be 33 9d a6 be 88 f3 ab be
       -0.30621102 -0.3226536 -0.32541808 -0.33584237

controller.0.bias f4 [100]
000000 de 7a af 3e 7d 78 68 3c 83 5a 8a 3e fa 87 69 3e
       0.34273428 0.014188883 0.2702218 0.22805777
000010 71 69 02 3d 1e 13 29 3e ed 66 b5 3e 19 23 cd 3d
       0.031838838 0.16511199 0.3543009 0.1001646
000020 a9 60 78 3d f2 26 70 3e db cd b5 3e 16 6e 6e 3e
       0.060639057 0.23452356 0.35508618 0.23284182
000030 7e 95 8f 3e 8e 01 70 3e 72 1a 38 3e b9 36 d9 3d
       0.2804374 0.23438093 0.17978838 0.10606141
000040 41 33 9a 3c 1c 38 88 3d 7e 4e 06 3e 0d 48 7e 3e
       0.018823268 0.06651327 0.1311588 0.24832173
000050 88 f2 a2 3e c2 41 56 3e 1f 62 6d 3e 8d 74 64 3e
       0.31825662 0.20923522 0.23181961 0.22310086
000060 72 fd 15 be ed 53 a0 3e 0d 8f 91 3e 6a a9 a3 3e
       -0.14647463 0.3131403 0.28429452 0.3196519
000070 ee 93 6d 3e 6f 06 9d 3e c9 3e 79 3e ca 29 4f 3e
       0.23200962 0.3066897 0.24340357 0.20230785
000080 d8 e0 b2 3d 1b 41 cc 3e 75 cd 38 3e e7 c6 60 3e
       0.08734292 0.39893422 0.18047126 0.21950875
000090 a3 e3 ad 3e 5f a2 69 3e 7b ab 51 3e bc e7 e2 3d
       0.33962736 0.22815846 0.20475571 0.11079356
0000a0 e3 88 06 3e 88 4b 0d 3e 44 1c c6 3e dd a4 92 3e
       0.13138156 0.13798344 0.3869344 0.28641406
0000b0 8b 9b ad 3e ae 8c 26 bd 16 ca 03 3f ea 94 f1 3c
       0.33907732 -0.040661506 0.51480234 0.029489953
0000c0 d4 36 49 3c 77 cb 6f 3e c8 ba 2f 3e 17 92 61 3e
       0.012281138 0.2341746 0.17161095 0.22028385
0000d0 ab f5 53 3e 44 7a e0 3e da 2d 7c 3d 5d 67 db ba
       0.20699184 0.4384328 0.061567165 -0.0016739179
0000e0 9c 6c 98 3e bb c7 6c 3e 58 21 6d 3d 9c 1d cc 3d
       0.29770362 0.23123066 0.057893127 0.09966585
0000f0 35 c9 0e bc 20 42 8c 3e e0 27 5d 3e 77 d3 2c 3e
       -0.008714964 0.273942 0.21597242 0.16877542
000100 35 4f 7c ac 42 79 77 3e ca 32 7b 3e 22 c7 96 3e
       -3.5855323e-12 0.2416735 0.24531093 0.294488
000110 7d 0c 7e 3d 08 bd 86 3e b1 86 c8 bd a9 b6 20 3e
       0.06202363 0.26316094 -0.09791315 0.1569468
000120 33 1a 5d 3e a7 65 6e 3e 74 eb 97 3e d9 a1 d2 3e
       0.21592025 0.23280965 0.29671824 0.41139105
000130 1f 66 15 3e 2c 3d 1f 3e c5 71 95 3e 80 c0 68 3e
       0.14589737 0.15550679 0.29188362 0.22729683
000140 38 ff 37 3e 04 79 93 3e a7 c5 c2 3e 36 33 79 3e
       0.17968452 0.28803265 0.38041422 0.24335942
000150 6d 05 51 3e 77 00 5d 3e ad ec 22 3e 95 e1 38 3e
       0.20412226 0.21582209 0.15910597 0.18054803
000160 36 73 6f 3e fc b5 53 3e 96 71 07 3f 30 b5 88 3e
       0.23383793 0.2067489 0.52907693 0.26700735
000170 d6 21 3b 3e c3 69 2c 3e 66 c8 c1 3e 39 f8 95 3e
       0.18274626 0.1683722 0.37848204 0.2929094
000180 9c ff 8c 3e eb f9 1c 3d d5 15 83 bc da 54 66 3e
       0.27538764 0.038324278 -0.016001621 0.22493306

read_head.key_layer.weight f4 [20, 100]
000000 e7 64 f6 bb 02 fa d0 3d fd 6b 8e bc 9b b5 2c be
       -0.0075193527 0.10203935 -0.017385477 -0.16866152
000010 c7 3f 5d bd 1e 52 94 bd c6 da 7a 3b a8 a5 9e bc
       -0.0540159 -0.07242225 0.0038277372 -0.0193661
000020 77 76 e4 3c 5e 0b 97 3d ce 9e 7c 3d d8 52 00 3c
       0.02788852 0.07375215 0.061674885 0.0078322515
000030 0c 64 4f 3d 06 02 00 3d 7e 38 77 3c 20 4c 02 3d
       0.05063252 0.03125193 0.015089152 0.03181088
000040 8f 35 16 3e 66 73 e6 3b 8a f2 e1 3d 44 78 13 3d
       0.14668868 0.0070327995 0.11032589 0.036003366
000050 1c 79 b7 bd 4c a7 5c 3d 31 eb a2 3d 83 7b 4b be
       -0.08958647 0.053870484 0.079550155 -0.19871335
000060 21 8d 04 bd 12 7b 32 bc 1a 04 55 bd 0c 5b 76 bd
       -0.032361154 -0.0108936 -0.052005865 -0.060145423
000070 97 db 15 bc 32 d1 84 bd e7 c5 a9 3d d2 db 02 bd
       -0.009146593 -0.06485213 0.082897 -0.03194792
000080 bb e3 9a bb 8e 84 96 bd 75 62 65 bd 06 ee 0b 3d
       -0.0047268546 -0.073495016 -0.0560021 0.034162544
000090 37 c9 a7 3b 88 8e 2d 3c ea 23 2f bd 2a 24 5c 3d
       0.005120422 0.010593064 -0.04275886 0.053745426
0000a0 ed 86 88 bc 08 fd a5 b9 ae 2b 6c bc 14 63 ed bd
       -0.0166659 -0.00031659775 -0.014414711 -0.11591163
0000b0 c0 bd 89 3d 71 7b 8e 39 1c cd 47 3d fc 71 fe 3c
       0.06725645 0.00027176322 0.048779592 0.031060211
0000c0 b4 4b 86 bd ef 1d e3 bd 54 10 a2 3d aa 84 ad 3d
       -0.06557408 -0.11089694 0.079132706 0.08472569
0000d0 f0 7a 22 3d 88 08 a5 bd 3b f4 80 bd 70 3d 14 3d
       0.039668024 -0.08058268 -0.06296583 0.036191404
0000e0 14 c6 4c 3d 19 b4 28 3d 55 b0 d8 bc d2 fb 4a bd
       0.04999359 0.04118738 -0.02645127 -0.04955656
0000f0 0e 68 5f bd 3f 66 36 bd 22 10 c9 bc da c5 e7 bc
       -0.054542594 -0.044531103 -0.024543826 -0.028292585
000100 8c 24 64 a9 a2 ad 5c bd 4a d2 3f bd 50 15 93 3d
       -5.065787e-14 -0.053876527 -0.046831407 0.071817994
000110 72 ad 6a bd a3 6e 3d bd 05 9e 40 3c 52 e6 f3 bd
       -0.057294317 -0.04624809 0.011756425 -0.119091645
000120 5c a6 ec bc 34 e9 a8 bd 0b 19 25 3d c1 64 19 bc
       -0.02888792 -0.08247605 0.040307086 -0.0093624005
000130 f9 76 ea 3d f1 03 3b 3d 04 7d 97 bc 6e ab db bb
       0.114484735 0.045658056 -0.01849223 -0.0067037856
000140 9e b0 de 3d ed f3 4b bd 37 0f e6 bd 6f 71 01 bd
       0.10873531 -0.049793173 -0.11233371 -0.03160232
000150 b8 38 55 bd b1 b7 15 3d 17 67 d4 bd 42 f7 c5 bd
       -0.052056044 0.036552135 -0.10371225 -0.09666301
000160 74 c3 a0 bb ea 7c ad bd 9d 34 87 3d 57 48 f3 3c
       -0.0049061123 -0.08471091 0.06601832 0.02969758
000170 b5 91 4c 3d 58 ff 0a 3c 5e 8f 22 bd e2 79 4c 3c
       0.049943645 0.00848373 -0.039687507 0.012480231
000180 6c b5 2f 3d 6d 0e 42 bd 82 59 87 bd ff 4c 01 3c
       0.042897627 -0.04737704 -0.06608869 0.007891892
000190 07 44 fb 3c 7f 34 66 bb 97 77 00 3d 39 9e 85 bd
       0.030672086 -0.0035126505 0.03136405 -0.06524319
0001a0 b1 ac 9e bc b2 69 30 3d 85 73 6b 3c be aa 18 3d
       -0.019369455 0.04306955 0.014370804 0.037272207
0001b0 aa 46 89 3c 15 be a9 3b 84 dd de bc 2b be ec bd
       0.016757328 0.0051801302 -0.027205236 -0.11559709
0001c0 cc 38 28 3d 25 47 de 3c b0 ad c4 bd 02 87 28 3d
       0.04106979 0.027133534 -0.09603441 0.04114438
0001d0 56 7f a8 bd 37 57 4e 3d de d6 6c 3c f1 f1 b3 3d
       -0.082274124 0.050376143 0.014455525 0.08786381
0001e0 f6 3a 06 bd a1 1d bf 3c 13 49 90 3d 90 85 80 3d
       -0.032771073 0.023329558 0.07045188 0.06275475
0001f0 1c 75 00 3d 36 d3 d7 bc 0d 76 b9 3b e9 71 6f 3d
       0.031361684 -0.02634583 0.0056598247 0.058458243
000200 1f 31 56 bd a6 8d 9c bc a5 f1 97 3c 19 19 94 bd
       -0.05229294 -0.019110512 0.018547842 -0.072313495
000210 55 f4 87 bc 5d 31 68 be f2 f7 8f 3d 4b c7 37 3d
       -0.016595999 -0.2267508 0.07029714 0.044867795
000220 f3 be 12 bd e1 09 f6 3c 16 1e 11 bc dd ee 86 3c
       -0.035826635 0.030034008 -0.008857271 0.01647132
000230 3d f6 93 bb 24 84 c1 3c 4b f8 d6 bc d8 1f f6 3c
       -0.004515438 0.02362258 -0.026241442 0.030044481
000240 67 4e 7d 3c b6 a3 8e bc e4 ef 0d bd 81 4a a1 bd
       0.015460587 -0.017412048 -0.034652606 -0.078755386
000250 43 8b 6e 3d 98 47 22 3d 2a 00 66 bd f5 0c 1e bd
       0.05823828 0.03961906 -0.0561525 -0.038586576
000260 cd 18 7d bd ae 92 ae 3b 90 46 41 bd 57 3e 96 3d
       -0.06179123 0.005327544 -0.047186434 0.07336109
000270 8f 5e 7a bd 9f 3e 5e bc e0 2d 9c 3c 0b 38 cd 3c
       -0.061125334 -0.013564735 0.019064844 0.025051137
000280 17 4b ac b9 24 70 cf 3d cb ff af 3b c1 67 2b bd
       -0.00032862343 0.10128811 0.005371069 -0.041846994
000290 96 5f 17 29 99 ac e7 3b e6 43 d3 bc ba 0f de bc
       3.3611643e-14 0.007070136 -0.025789212 -0.027107108
0002a0 23 e7 d6 bd 03 3a 06 3d 6e 43 85 3c 8a 25 08 3c
       -0.104933046 0.032770168 0.016267505 0.008309731
0002b0 ab 68 08 bd 9b 4b af 3d a8 6e 3e bd 62 6b 93 3d
       -0.033302944 0.085593425 -0.04649225 0.07198216
0002c0 7a 57 b4 bd a1 33 c0 bd c6 7a 03 bd da f2 b6 3c
       -0.08805747 -0.093848474 -0.032099508 0.022332598
0002d0 21 62 bf bd 91 61 0a bd 52 c0 a6 3b 71 34 80 3d
       -0.093448885 -0.033784453 0.0050888443 0.062600024
0002e0 22 97 cf 3d 43 61 b0 bc d5 ab 5b bd eb 96 25 bc
       0.10136248 -0.021530753 -0.05363067 -0.010106782
0002f0 9c da 92 3c 1c c4 dd bb 6d 49 38 bd 7c df af bd
       0.017926507 -0.006767763 -0.0449919 -0.08587548
000300 9a e5 9c 3d 7e 4a 1a bb 05 a3 cf 3c 06 bb 23 bd
       0.076609805 -0.0023542936 0.025346288 -0.03997328
000310 f0 da 82 bd d4 ec 5d 3c 60 e1 08 3d 93 a3 8a 3d
       -0.06389415 0.013545234 0.03341806 0.067694806
000320 01 66 bb bd 7a 86 d9 bd 73 83 a0 bd 1b 5a 99 3d
       -0.09150315 -0.106213525 -0.07837572 0.074878894
000330 dc 8b 49 bc 23 2e c9 bd 3c bc b7 bd a8 8a fe bc
       -0.0123014115 -0.09823253 -0.0897145 -0.031071976
000340 d2 50 11 3d 66 6e 18 bd 3c ce 8b 3d 30 22 a6 3a
       0.035477467 -0.03721466 0.068264455 0.0012674984
000350 8c 2d b3 bd c0 78 bf bd 70 00 90 bc c3 25 2b bd
       -0.08748922 -0.09349203 -0.017578334 -0.04178406
000360 c3 9e c7 bd 1c 79 4b 3d 19 a4 c9 3c 35 55 e7 3c
       -0.09747078 0.049676046 0.02461438 0.028238872
000370 a8 b8 09 bd d2 5a c2 bd 14 ef 81 3c 92 fa 0a 3d
       -0.033623368 -0.09489979 0.015861072 0.03393037
000380 b6 9a e0 3c 8f f5 8a bd d6 a2 b9 3d c7 34 ce 3d
       0.027417522 -0.06785118 0.090642616 0.1006866
000390 90 85 06 be fa fa 2a 3d b7 a4 5b 3b c8 62 97 3c
       -0.13136888 0.041743256 0.0033514926 0.01847972
0003a0 56 0e 08 be 7b 04 0c bd b3 72 81 bd 6e 73 3a bd
       -0.13286719 -0.03418396 -0.06320705 -0.04552024
0003b0 76 89 a7 bb 5d ad 26 bd d2 15 b8 bc 21 85 a2 39
       -0.005112822 -0.040692676 -0.022471342 0.00030998237
0003c0 e0 54 42 3d 67 a8 b3 3c 6e 77 03 3c 32 5d 28 bd
       0.047444224 0.021930886 0.00802408 -0.041104503
0003d0 50 ea d9 bb af 35 91 3c 49 da 12 3d 6d f7 2b bd
       -0.0066502467 0.017725794 0.035852704 -0.04198401
0003e0 26 c7 0a 3d c1 4b 99 3d c3 68 a0 bc 21 4a fe bd
       0.03388133 0.07485152 -0.019581204 -0.12416483
0003f0 e5 ce 04 3d 7f 7b 81 bd a0 b2 8a 3c f3 b7 f8 bd
       0.032423873 -0.06322383 0.016930878 -0.121444605

read_head.key_layer.bias f4 [20]
000000 41 ef a3 3d 18 d5 c8 bd c7 93 6d 3d d2 bf 44 3d
       0.080046184 -0.098062694 0.05800226 0.048034497
000010 4b 98 57 bd 75 d7 eb bb 1e f5 2c bd d0 7b 8b 3d
       -0.052635472 -0.0071973153 -0.04222595 0.06810725
000020 f6 15 bf bd 94 9d 4f 3b 90 8a d4 bc 1a f1 7e bd
       -0.093303606 0.0031679617 -0.025944978 -0.06224165
000030 bf 9d 14 3d 08 76 15 bd 18 ea b2 bd 02 e8 d2 3c
       0.03628325 -0.036489516 -0.08736056 0.025745396
000040 5a 9a fd bc 08 8a 00 bd 6f bb 34 bd d4 44 98 bc
       -0.03095739 -0.031381637 -0.044124063 -0.018587507

read_head.beta_layer.weight f4 [1, 100]
000000 d8 42 b1 3e 3e 9c ea 3d 79 88 7f 3e 23 96 4f 3e
       0.3462131 0.11455582 0.24954404 0.20272116
000010 39 a2 ef 3d c1 b1 9c 3e 4d 97 8e 3e 9d a1 bd 3e
       0.117008634 0.30604365 0.27849808 0.37037364
000020 d7 98 94 3e 52 2c 2f 3e 0c 8e 9a 3e 86 b8 17 3e
       0.29022858 0.1710675 0.30186498 0.14816484
000030 6a d5 99 3e c3 e2 70 3e fc 6d 8d 3e f0 6d 9c 3e
       0.30045635 0.23524003 0.27622974 0.30552626
000040 5d 18 bd 3d 08 52 cc 3e 38 31 65 3e c5 06 5a 3e
       0.092331626 0.39906335 0.22382057 0.21291645
000050 43 da a1 3e 98 71 a6 3e ff 88 48 3e 35 5d 25 3e
       0.31611833 0.3250854 0.1958351 0.16148837
000060 08 d1 a5 3e 99 c1 0e 3e dc e5 92 3e 08 10 b5 3e
       0.3238604 0.13941039 0.28690994 0.35363793
000070 90 b1 a4 3e 5c ca 58 3e cc 59 9c 3e d3 b3 2a 3e
       0.3216672 0.21170944 0.3053726 0.1667016
000080 4e d9 86 3e 08 40 f1 3e 97 0c 50 3e a0 f5 27 3e
       0.26337665 0.47119164 0.20317303 0.16402292
000090 c4 7c 99 3e 1e 43 3c 3e 6e dd 0e 3e 78 28 5c 3e
       0.29978 0.18384978 0.13951656 0.21499813
0000a0 db db b0 3e e3 bf 76 3e 65 4a ad 3e 78 89 98 3e
       0.34542736 0.24096636 0.3384582 0.2979238
0000b0 5b 6f 5d 3e 03 36 a1 3d f6 1b e0 3e dd 5f 83 3e
       0.2162451 0.0787163 0.43771333 0.25659075
0000c0 31 26 4f 3e a4 35 57 3e a6 5b 0f 3e dd 97 cc 3d
       0.20229413 0.21016556 0.13999805 0.09989903
0000d0 b0 83 16 3e c6 9a 88 3e 3e a0 ae 3e f8 77 f9 3d
       0.14698672 0.26680583 0.3410663 0.12181085
0000e0 b7 31 a7 3e d9 3a d4 3d 96 a6 74 3e 48 8e 41 3e
       0.32655117 0.10362787 0.23891672 0.18901932
0000f0 2e 51 86 3e 8c e0 76 3e 50 20 98 3e dd 1f 39 3e
       0.2623381 0.24109095 0.29712152 0.18078561
000100 3f 45 eb 28 2d a0 a1 3e d7 bc 86 3e 86 0c 27 3e
       2.6120272e-14 0.31567517 0.26315948 0.16313371
000110 f7 b5 41 3e 92 2e 91 3e 09 de 16 3e 12 c0 32 3e
       0.1891707 0.28355843 0.14733137 0.17456082
000120 5f 63 12 3e 62 ac 9e 3e 35 da 98 3e e1 6f 9b 3e
       0.1429572 0.30990893 0.2985398 0.30358794
000130 11 cd 89 3e 8b d6 04 3e de 2b 93 3e 68 31 86 3e
       0.26914266 0.12972467 0.28744406 0.2620957
000140 6e b5 4d 3e b5 02 37 3e 6d 98 9c 3e f7 f3 17 3e
       0.20088741 0.17872126 0.30585042 0.14839159
000150 d1 d1 99 3e b3 32 14 3e ef d9 60 3e 12 52 09 3e
       0.3004289 0.14472465 0.21958135 0.13410214
000160 89 64 32 3e d1 f1 3f 3e c0 7c bf 3e cc 52 8e 3e
       0.17421164 0.1874459 0.37399864 0.27797544
000170 2d 23 b4 3e 0e 1e 5c 3e f9 3a 84 3e d5 af c6 3e
       0.35183087 0.2149584 0.25826243 0.38806024
000180 33 61 c7 3e fb 96 1a 3e d7 ed 2c 3e 58 d5 43 3e
       0.38941345 0.15096657 0.16887604 0.19124353

write_head.key_layer.weight f4 [20, 100]
000000 a7 a4 bc 3d 47 05 7b 3d 4f ef bc 3d b7 88 50 3d
       0.092110924 0.06128433 0.09225332 0.05091163
000010 9b ef 87 3d 29 9c c4 3d db 92 93 3d 1c 3b dc 3d
       0.06637498 0.09600098 0.07205745 0.10753462
000020 c5 ff 14 3d 3a c4 b8 3d 49 ec 45 3d 9c 11 b4 3d
       0.036376733 0.09021802 0.048321042 0.08792421
000030 97 dc c1 bc 3d ec 8e 3c c7 6e 29 3d 0a 9b 00 3d
       -0.023664756 0.017446632 0.04136541 0.031397857
000040 34 1b 34 3d c4 b3 f6 3c e1 61 8e 3d 03 3c 74 3d
       0.043971255 0.030115016 0.06952263 0.059627544
000050 c4 00 3b 3d 25 0f e3 bb 9b 39 d8 bb d7 1b 48 3d
       0.045655027 -0.0069292956 -0.006598664 0.048854675
000060 57 8e 14 bc d7 8c 00 bd 2d 89 8f 3c a4 84 9f 3d
       -0.00906714 -0.031384315 0.017521465 0.07788971
000070 02 a9 8b 3d a7 91 b0 3d b2 a3 9d 3d 51 97 1d 3d
       0.06819345 0.08621531 0.07697238 0.038474385
000080 43 b5 50 3d f9 7e cc 3b 8f 7f 00 3d 91 3e 2c 3a
       0.050954115 0.0062407223 0.03137165 0.00065706024
000090 08 ce 0f 3d e1 84 da 3b cf 1c 2d 3d 3b 8a 69 3c
       0.035108596 0.0066686724 0.042263802 0.014254148
0000a0 9e fd ee 3c ac 10 f1 3d cf e9 90 3c 53 20 b9 3c
       0.029173668 0.11770758 0.017689614 0.022598421
0000b0 98 d9 b2 3d 70 95 72 3d 6a ca 43 3d ed 37 6c 3d
       0.08732909 0.059224546 0.04780046 0.057670522
0000c0 21 64 3c bd ce ec 3a bd 0d 06 09 3e 24 15 da 3d
       -0.045993928 -0.04563599 0.13381214 0.106485635
0000d0 ac ad a3 3c 41 91 7b 3d 6c 4a 26 bc 69 9a bc 3b
       0.019980274 0.06141782 -0.0101495795 0.005755712
0000e0 73 0d f8 3a a9 23 1e 3c d5 7e 55 3d 08 e3 be ba
       0.0018924907 0.009652057 0.05212291 -0.001456351
0000f0 c8 81 85 3d cc bf e1 bc 35 66 22 bc c7 10 40 3d
       0.065188944 -0.027557276 -0.009912063 0.046891
000100 5b 5e 82 2a 06 ac 4b 3c bb 46 eb 3d 8e 0a 34 3d
       2.315811e-13 0.01243115 0.114881 0.04395538
000110 9d 03 40 bd 8d 20 e8 3c 88 1d 41 3d 83 43 fc 3c
       -0.046878446 0.028335834 0.047147304 0.03079391
000120 f8 14 6f bb 18 cb c8 3d 6e da 41 3d 51 54 83 bc
       -0.0036481004 0.09804362 0.04732745 -0.016031416
000130 5d fb 64 3d d1 d6 c1 3d 86 3e 51 bc 84 db 0e bc
       0.05590378 0.09464801 -0.012771254 -0.008719329
000140 99 7d a1 3d 78 c9 84 bb 6b af 61 3a 85 12 19 bd
       0.07885284 -0.0040523373 0.0008609208 -0.037371177
000150 8d 07 f7 3c 61 23 b1 3d 11 42 d2 bc 45 fe 3c 3d
       0.030154968 0.08649326 -0.025666269 0.046140928
000160 45 a8 d0 3b 92 84 19 bd c5 f6 61 3d b0 38 01 3e
       0.0063677155 -0.037479945 0.05516698 0.12619281
000170 62 06 ab 3d 96 1c b4 3d 38 e6 ef bb bd 1a 42 3d
       0.08350827 0.08794515 -0.0073211454 0.04738878
000180 94 2b 3f 3d 20 f6 32 3d d4 05 6f 3c fa 5b c3 3d
       0.04667242 0.043691754 0.014588792 0.095390275
000190 d8 79 2a bd 83 3f b7 3b 82 5f 16 be de 58 93 3d
       -0.041620106 0.005592288 -0.14684871 0.071946844
0001a0 83 f2 14 3d c1 e3 3c 3d 50 25 4f bc 88 c9 5b 3b
       0.03636409 0.04611564 -0.012643173 0.003353687
0001b0 ae 64 e9 3c 3b 72 0e be 10 aa db bb 46 09 15 bd
       0.02849039 -0.13910763 -0.0067036226 -0.036385797
0001c0 c2 de 00 3d ce ed d9 3c a9 00 81 bd a2 63 d9 3b
       0.03146244 0.026602652 -0.06298954 0.0066341916
0001d0 c2 53 6e bc a0 41 aa bc 74 12 59 3c 4b 2b 2d bd
       -0.014546337 -0.020783246 0.0132490285 -0.042277616
0001e0 90 5a 63 bb 1b 7e 82 bd b5 a7 82 3d ad cd ca 3d
       -0.003469143 -0.06371709 0.06379644 0.09902511
0001f0 ea 91 aa 3d 58 8e ed 3c b5 af bd 3b 5f bd 4f bd
       0.08328612 0.028998539 0.005788768 -0.050717708
000200 a7 63 e3 bc d6 72 e8 3d 0a f9 b0 bc 3d b3 55 3d
       -0.027757479 0.11350028 -0.021603126 0.052172888
000210 4a 14 2a bc 92 07 b2 3d 81 ac 86 3d b8 ba bb bd
       -0.010380814 0.0869285 0.06575871 -0.09166473
000220 ce 64 c5 3d a5 fd 11 bd 27 1d 1b bd 26 0c a4 3d
       0.096383676 -0.035642285 -0.0378696 0.0801013
000230 e0 4d 93 3d 34 59 a8 bc 5e a0 37 3c 59 b0 c1 3d
       0.07192588 -0.020550348 0.011207668 0.09457464
000240 c2 bb 40 bc c8 d8 74 bb 35 dc 6a 3d a5 fd 06 ba
       -0.011763515 -0.0037360657 0.057338912 -0.00051494903
000250 6c a7 89 3d 78 b6 54 3d 85 14 ef bd b8 30 f8 bd
       0.06721386 0.05193183 -0.11673836 -0.12118667
000260 67 91 f1 3c 1d ee d9 bc 45 48 73 3d 0e 3e b3 bc
       0.029488279 -0.0266028 0.059395093 -0.021880176
000270 00 5e 65 3d db 8e 58 3d b8 e6 8e bc ce 53 3e 3d
       0.05599785 0.052870613 -0.017444 0.04646664
000280 9f dd c3 3a cc 98 b7 bd 0f 98 bf 3c 39 1f c2 3d
       0.0014943368 -0.089646906 0.023387937 0.094786115
000290 32 ae 1a 2c c3 4b eb 3b 22 09 9b bb b6 7b b0 bc
       2.1981414e-12 0.0071806624 -0.0047313133 -0.021543365
0002a0 a1 a9 93 3d d0 13 d9 bc 14 d9 fe bb cf 1e 84 3c
       0.072100885 -0.026498705 -0.0077773426 0.016127972
0002b0 70 ad 3f 3d a7 60 7a 3d e1 65 5b bb c0 84 16 3d
       0.046796262 0.06112733 -0.0033477473 0.036747694
0002c0 09 e5 dd 3c 0e 5d be bd d9 2d 8b bd 63 f3 d9 3c
       0.027086752 -0.092950925 -0.06795854 0.026605314
0002d0 c1 8c 98 3d 30 25 8c bd f8 a5 2c bc c2 77 e8 3d
       0.07448722 -0.068430305 -0.010537617 0.11350967
0002e0 43 87 13 3d c4 98 32 bd 29 ae 91 3d 6b e3 2d 3d
       0.036017668 -0.04360272 0.071132965 0.04245321
0002f0 3d a3 dc bc 2c 68 01 3d ed 60 98 3b b6 dd 70 3d
       -0.026933307 0.031593487 0.0046502263 0.05880519
000300 ec cd 92 3d dc 3f 81 bd ad 07 0d 3e ec b7 a2 3b
       0.07168183 -0.06311008 0.1377246 0.004965773
000310 5f b1 b8 bc c6 6a f9 ba d1 0b d1 bc 3f 63 11 be
       -0.022545515 -0.0019029013 -0.02551833 -0.14198016
000320 24 ef 09 3a db fa 98 bd d3 ba 0d be 91 53 0a 3e
       0.000526177 -0.07469722 -0.13840799 0.1350844
000330 e4 e4 93 3d c2 a9 bc bb e2 76 69 3b 2e 3b 5b bb
       0.07221392 -0.0057575414 0.0035623838 -0.0033452022
000340 a9 d9 08 3b 53 2a 41 be d9 a9 20 3d b2 a3 09 be
       0.0020881689 -0.18863802 0.03922448 -0.13441351
000350 43 c2 f6 3c 95 a1 ac 3d 93 57 3e be f6 41 2f 3d
       0.030121928 0.08429257 -0.18588094 0.042787515
000360 f3 69 b8 bd 95 b7 91 3d dc 99 57 3d 44 44 1e bd
       -0.09004583 0.071150936 0.052636966 -0.038639322
000370 65 d6 8f bb 33 8d 72 3c a9 83 30 3c 98 e9 af 3d
       -0.0043895715 0.014804172 0.010773578 0.08589476
000380 14 80 9f 3d b9 f8 8a 3d d0 02 21 3d 4d b4 ab bd
       0.07788101 0.06785721 0.039309323 -0.08383999
000390 0a 86 38 bc ef 1c de 3d b1 03 91 3c 86 10 eb bb
       -0.011262426 0.108453624 0.017701956 -0.0071736006
0003a0 57 40 7b 3d fe d2 38 3d 82 79 e7 3d 8b 20 c4 3c
       0.061340656 0.045123093 0.11302473 0.023941299
0003b0 81 0d 15 bb 0d 48 7a 3d fe a6 08 3d 32 f6 13 3d
       -0.0022743645 0.06110387 0.03336238 0.036123462
0003c0 c8 cd 07 3d a5 a6 26 3c 5d 0a 1d 3d 87 e5 95 3d
       0.033155233 0.010171567 0.03833996 0.073191695
0003d0 e7 d7 da bc a7 28 8a 3c fd 02 11 bd 74 44 a5 3c
       -0.026714278 0.016865088 -0.03540324 0.020174243
0003e0 bc a3 80 3d a7 a8 fd 3d 1a 33 4a be ad 1f f1 bd
       0.0628123 0.123856835 -0.19746056 -0.1177362
0003f0 af 35 95 bd 8f a7 a9 3b 4e 59 a9 3d 27 ed 07 3e
       -0.0728563 0.0051774452 0.08268987 0.1327406

write_head.key_layer.bias f4 [20]
000000 b6 0c 82 3d 69 ee 6c bd 77 74 b7 bc 19 8c 28 bd
       0.06350081 -0.057844553 -0.022394402 -0.041149233
000010 af b0 eb ba 86 1e 02 3d 56 ae b8 3c 59 82 ca 3d
       -0.0017981733 0.03176739 0.022544067 0.09888143
000020 71 ad 1f be 9d ff 03 3e 25 9e 12 be 20 14 9f 3c
       -0.15593506 0.12890477 -0.1431814 0.019418776
000030 62 b5 be 3d e6 fc 13 3d 99 2f cd bd 2b 26 8c 3d
       0.0931194 0.036129855 -0.10018844 0.068432175
000040 20 13 e6 bc 6d eb 22 be 5b f8 a4 bc 6a 25 06 be
       -0.028085291 -0.1591012 -0.020137956 -0.1310021

write_head.beta_layer.weight f4 [1, 100]
000000 23 fb 54 3e 5b 1a 0b 3e 1d df 6d 3e dc f3 5c 3e
       0.20798926 0.13584273 0.23229642 0.215774
000010 63 15 4e 3e 8c 56 81 3e e8 fa 63 3e 9f ec 8e 3e
       0.20125346 0.25261343 0.22263682 0.27914903
000020 9d f4 6b 3e bd c3 ef 3d b6 19 1b 3e 7e 35 54 3e
       0.23042531 0.11707256 0.15146527 0.2072353
000030 cc 22 87 3e 80 c1 54 3e b0 d5 36 3e 78 15 7a 3e
       0.26393735 0.2077694 0.17854953 0.24422252
000040 40 a7 1e 3e c0 46 77 3e e4 0f 81 3e 36 e7 72 3e
       0.15493488 0.24148083 0.25207436 0.23721012
000050 bb 40 84 3e 01 87 3d 3e d7 6f 52 3e a8 b1 5b 3e
       0.25830635 0.18508531 0.20550476 0.21454489
000060 3e 87 51 3e 7e cd 64 3e e2 ba 65 3e 7e d2 3e 3e
       0.20461747 0.22344014 0.22434571 0.18634984
000070 91 a5 3b 3e c9 4e 70 3e 61 f6 05 3e 86 c5 73 3e
       0.18324877 0.23467554 0.13082267 0.23805818
000080 8d fa dc 3d 66 c7 93 3e 08 4b 93 3e 11 3b 8d 3e
       0.10789976 0.28863066 0.28768182 0.27584127
000090 be f2 14 3e 6b 93 33 3e 9c b9 33 3e ef b2 04 3e
       0.14545724 0.17536704 0.17551273 0.12958883
0000a0 f9 fd 87 3e 1d d9 80 3e 93 3e 45 3e 4d f8 8c 3e
       0.26560953 0.25165644 0.19262151 0.27533188
0000b0 f8 fb 8a 3e 0e 49 1b 3d 17 fb a1 3e 16 77 86 3e
       0.27145362 0.037911467 0.3163688 0.2626273
0000c0 fc 35 0e 3e b7 38 3a 3e e2 d9 42 3e 96 f8 83 3e
       0.13887781 0.18185697 0.19028428 0.25775594
0000d0 32 0e 60 3e 70 31 9b 3e 1f 89 89 3e 92 d6 60 3e
       0.21880415 0.30311155 0.26862428 0.21956852
0000e0 c3 7e 18 3e fa f2 1f 3e be 0e 55 3e 73 f4 69 3e
       0.14892106 0.15620032 0.20806405 0.22847156
0000f0 f9 f9 8b 3e c8 1c ed 3d bb 81 83 3e ca e0 67 3e
       0.27339152 0.11577755 0.25684914 0.22644344
000100 ce 76 17 2b dd 04 e2 3d 88 24 14 3e cc 05 49 3e
       5.381085e-13 0.11036084 0.1446706 0.19631118
000110 8e ae 1a 3e 29 43 82 3e c3 2f 53 3e 2e bb 8f 3e
       0.1510565 0.25441864 0.20623688 0.28072494
000120 57 82 92 3e 12 9c 23 3e 26 0c 07 3e aa cf 72 3e
       0.28615066 0.15977505 0.13188228 0.2371203
000130 e9 c3 47 3e f1 cb 36 3e 4c 85 07 3e 05 0a 82 3e
       0.19508328 0.17851235 0.13234442 0.2539827
000140 be 44 47 3e 76 d7 f6 3d b2 3e 21 3e c7 09 8d 3e
       0.19459817 0.12052815 0.15746573 0.27546522
000150 4b 9b 6e 3e a3 d6 33 3e 13 51 87 3e 5a 4d 34 3e
       0.23301427 0.17562346 0.26429042 0.17607632
000160 7d bc 36 3e 16 b2 66 3e 6f 59 55 3e 9f 10 84 3e
       0.1784534 0.22528872 0.20834897 0.2579393
000170 60 a4 57 3e ec 8c f1 3d 36 bf 65 3e 47 8a 8a 3e
       0.21058798 0.11794457 0.22436222 0.27058622
000180 c8 84 82 3e 75 ed 5a 3e be 3b 71 3e 6d 53 f1 3d
       0.2549193 0.21379645 0.23557946 0.1178349

write_head.erase_layer.weight f4 [20, 100]
000000 7f 35 c3 bd 5a 86 e3 ba b9 c4 48 bd 0e ca c7 3b
       -0.09531688 -0.0017358765 -0.049015734 0.006097085
000010 5c 64 d9 bc e3 8c 4f bd b4 d1 3f bd 4e 14 dc bc
       -0.026537113 -0.05067147 -0.046830848 -0.02686515
000020 13 12 6c bd f5 d9 4e bd d4 10 49 bd d8 13 2e bd
       -0.057634424 -0.05050083 -0.049088314 -0.042499393
000030 ea 71 47 bd 32 fe 57 bd e6 32 4a bd 8a f3 52 bd
       -0.04869262 -0.052732654 -0.049364947 -0.05150179
000040 d7 9e e7 ba 7c 7e 35 bd 3c 2d 1e bd e5 38 9a ba
       -0.0017671239 -0.044310078 -0.038617358 -0.0011766223
000050 a9 c5 7d bc 20 e6 3c bd 85 92 32 bd f1 99 f3 bb
       -0.01548902 -0.0461179 -0.043596763 -0.0074341227
000060 4a 1d 16 bd 81 08 09 bd d1 39 3f bc 60 07 ba bc
       -0.036649026 -0.033455376 -0.011671499 -0.022708595
000070 17 c7 8b bd c0 c9 50 bd dc d7 fb bc 6d 0c 68 bd
       -0.06825083 -0.050973654 -0.030742578 -0.056652475
000080 7e 55 5a bd de 56 77 bc b5 dd 27 bd 2f 24 45 bd
       -0.053304188 -0.015096394 -0.04098292 -0.04813021
000090 98 24 21 bd d8 53 a4 bd 97 9e 18 bd 87 05 55 bd
       -0.03934154 -0.080238044 -0.037260618 -0.052007224
0000a0 5d 7f 20 bd d6 2c 73 bd 3a 9a 16 bd 64 6b 01 bd
       -0.039183963 -0.05936893 -0.036768176 -0.031596556
0000b0 c0 95 4f bd 04 b9 ea 3b 24 23 a6 bd a9 f6 0c bd
       -0.050679922 0.007163169 -0.08112171 -0.03441492
0000c0 9e 75 2d bc e5 5f f1 3b cb 86 53 bd 58 49 1d bd
       -0.010587124 0.007366168 -0.05164222 -0.038400024
0000d0 e8 bd 71 bd f1 b1 69 bd 4d 7f b5 3c 6a 9a c8 bc
       -0.059019 -0.057054464 0.022155428 -0.024487693
0000e0 12 61 8e bd 45 43 ef bc e6 3e ad bc 8c c5 7b bc
       -0.069521084 -0.029206881 -0.021148156 -0.015366923
0000f0 d2 8f be bc 0e 06 18 bd 89 b6 77 bd 62 0e f1 bc
       -0.023261938 -0.03711515 -0.060476813 -0.029425804
000100 c5 13 96 aa 40 aa 7b bc a9 1f a8 bd 66 7a 21 bd
       -2.665907e-13 -0.015360415 -0.08209164 -0.03942337
000110 a7 3c a6 bc ec 71 8a bd ab 60 be bc 47 38 a6 bc
       -0.020292593 -0.0676001 -0.023239454 -0.020290507
000120 7b 64 6a bd 57 0f 13 bd 62 06 70 bd c4 74 c0 bc
       -0.057224732 -0.0359033 -0.058599837 -0.023493178
000130 92 0e 27 bd d4 1c 01 bd 4e 00 6e bd e1 22 6a bd
       -0.04078538 -0.031521633 -0.05810576 -0.05716217
000140 5b ac 20 bd 57 fb 47 bd df 46 0d bd c9 f6 c9 bb
       -0.03922687 -0.04882368 -0.034491416 -0.0061634523
000150 1e d3 96 bc 1d 43 dd bc 6a 8f 7b 3c 6f a9 9c 3c
       -0.018411215 -0.027009541 0.015354017 0.019123761
000160 42 91 89 bd 52 69 85 bb 70 d1 74 bd e5 ec 6b bd
       -0.06717159 -0.004071393 -0.059770048 -0.057598967
000170 99 00 4b bd 16 ab 09 bd 0c 01 50 bc 23 b3 62 bd
       -0.049561117 -0.033610426 -0.012695562 -0.05534662
000180 be ab 6b bd 2b 14 6e bd 23 ff d8 bb b7 85 22 bd
       -0.057536833 -0.058124702 -0.0066222115 -0.0396783
000190 58 3a 58 bd 54 00 89 3b a7 76 76 39 fa 89 72 bc
       -0.052790016 0.0041809473 0.0002350459 -0.014803404
0001a0 4e 9e 80 bc cf 2b 67 bd 2b 71 68 bd 2b 4e 19 bd
       -0.015700486 -0.056438264 -0.05674855 -0.037428062
0001b0 b7 6b 48 bd c8 a7 cd 3a 7b 4b 72 bd 78 69 aa 3b
       -0.04893085 0.0015690261 -0.059154015 0.005200561
0001c0 8a b3 36 bd b9 a8 8a bd 5e 22 28 3a 11 56 8a bd
       -0.044604816 -0.067704625 0.00064138125 -0.06754697
0001d0 3c 41 94 3b 41 a6 80 bd 3b 8b 3a bd dd b8 e0 3c
       0.004524378 -0.062817104 -0.045542937 0.0274319
0001e0 85 aa 04 bd 5b fb 63 bd 92 99 80 bd 4d 60 57 bc
       -0.032389183 -0.055659633 -0.06279291 -0.0131455185
0001f0 8f 16 79 bd e1 1c a5 bd ea 35 0b bd 24 39 ca bc
       -0.06081253 -0.08062149 -0.033986963 -0.02468545
000200 1e 07 2d bd 81 73 1d bd c9 b7 d2 bc 8e 1d 4c bd
       -0.042243116 -0.03844023 -0.025722401 -0.049832873
000210 cb 69 11 bd f6 3a 24 bc b2 66 6a bd 87 5f 06 bd
       -0.035501283 -0.010023823 -0.057226844 -0.032805946
000220 0c 68 0d bd 19 98 a5 bd 5d 29 ea bc c8 b9 d9 bc
       -0.034523055 -0.08085651 -0.028584177 -0.026577845
000230 f7 c5 34 bd c0 52 93 bd 37 c3 01 bd ec 21 88 bc
       -0.044134106 -0.07193518 -0.031680312 -0.016617738
000240 be 10 a0 bd 5d 66 85 3c 28 c4 66 bd d5 73 54 bd
       -0.07815693 0.016284162 -0.056339413 -0.05186828
000250 fb 8b 15 bd 54 f7 2a bc 35 c6 00 bc 8d a9 15 3c
       -0.03651045 -0.010434944 -0.007859756 0.009134662
000260 6a 0c 0d bd 69 bb 2d bd 11 3d f6 bc 23 29 7c bc
       -0.034435667 -0.042415056 -0.030058416 -0.015390667
000270 ab 44 34 bd 11 24 ac bc 42 ce 42 bd 99 d7 db bc
       -0.0440108 -0.021013292 -0.047559984 -0.026836203
000280 3e 64 5f bd a0 90 23 bd 4b fc f7 bc 41 8b e5 bc
       -0.054538958 -0.039932847 -0.03027167 -0.028020503
000290 6b 23 a1 a9 7c 69 98 bc 69 9f 1d bd e4 d4 75 bd
       -7.15598e-14 -0.018604986 -0.038482103 -0.06001748
0002a0 fa 9f bd bc 45 5a 08 bd f4 3a ac bc 6f 2c b1 bc
       -0.023147572 -0.033289213 -0.021024205 -0.021627633
0002b0 38 dd 9c bc 56 94 6c bc 88 65 88 bd 24 3f 4b bd
       -0.019148454 -0.014439663 -0.066599905 -0.049620762
0002c0 c4 d9 43 bd 0d 57 3f 3c 27 c2 4d bd f5 c0 82 bd
       -0.0478151 0.011678469 -0.050233986 -0.0638446
0002d0 a0 df 6e bd 5e 11 8f bd 82 9b 0b bd b0 3f 2f bc
       -0.058318734 -0.069857344 -0.03408385 -0.010696337
0002e0 bb a6 6f bc be 85 d9 3b 84 6a a2 bc e6 4b 8b b8
       -0.014627154 0.0066382578 -0.019826181 -6.642174e-05
0002f0 39 ba 8a bd 88 33 94 bc 56 90 49 bd db 8b a3 bd
       -0.067738004 -0.018090978 -0.049209915 -0.0798566
000300 b7 7a 8b bd 67 87 ca 3b 4f f3 f0 bc 0c 98 4a bd
       -0.068105154 0.006180692 -0.029412894 -0.04946141
000310 50 4a 54 bd e8 db 46 bd cc 25 9b bb 36 85 6a 3c
       -0.051828682 -0.048549563 -0.0047347303 0.0143139865
000320 06 2b d4 bd 82 e1 8b bc 24 ff c5 bd 42 f2 76 3d
       -0.103597686 -0.017075304 -0.09667805 0.06028963
000330 83 a1 81 3d 75 10 46 bd ff 7c 3f bd 1b 3f 45 bc
       0.06329634 -0.04835554 -0.046750065 -0.012038971
000340 63 70 c8 3a 20 7d 07 be 36 4f 13 bd 0a 53 c5 bd
       0.0015292283 -0.13231325 -0.035964213 -0.09634979
000350 c3 9b 94 bd e9 d8 25 bd 80 61 fb bd 0e 6a 31 3d
       -0.07256272 -0.040490065 -0.12274456 0.043314032
000360 6c be 7d bc b9 12 49 3d 09 c6 9a 3a a5 99 90 bd
       -0.015487295 0.04909012 0.0011808287 -0.07060555
000370 0e fc 70 3c 0f b8 66 bd db a2 15 3b 22 d8 61 3d
       0.014708532 -0.056327876 0.0022832665 0.05513776
000380 07 d7 89 3d 2d cd e2 3b 87 16 32 3d d2 6d e4 3c
       0.06730466 0.0069214315 0.043478515 0.027884398
000390 2d ac 87 bd 50 cb 2f bc fb b7 44 3b 6f e7 85 bd
       -0.06624637 -0.010729626 0.0030016887 -0.06538283
0003a0 d0 17 39 b9 e6 f0 92 3d 9e d8 dd bb 98 54 70 bd
       -0.00017651846 0.07174854 -0.0067702075 -0.058674425
0003b0 04 77 8e bb 68 96 a2 bc a9 cc d1 bb 93 c7 d6 bc
       -0.004347684 -0.01984711 -0.006402571 -0.026218211
0003c0 29 9f 65 3d ae 02 51 bd 99 a9 3b 3d 2d f4 c0 3d
       0.05605999 -0.051027946 0.045816038 0.09421573
0003d0 1c ae 6d bd 51 c0 d5 bb aa 8c e9 3c 88 77 35 3c
       -0.05802737 -0.00652317 0.028509457 0.011075862
0003e0 e1 53 6a 3d a8 6f 4c 3d 10 eb 0f be 34 f7 f3 bd
       0.0572089 0.04991117 -0.14054513 -0.11912385
0003f0 bc 2f 99 bd 5f 46 0e bc 55 66 b0 3d d4 31 d7 3c
       -0.07479808 -0.00868377 0.08613268 0.026268877

write_head.erase_layer.bias f4 [20]
000000 ac a5 79 bd 5d c0 c6 bc 0b e7 b2 ba eb d6 43 bd
       -0.060949013 -0.024261648 -0.0013649178 -0.047812384
000010 04 3e 03 be 15 6d 97 bc ee 53 34 be b6 eb d2 bd
       -0.12816626 -0.018484632 -0.17610142 -0.102988645
000020 8b 25 8f bd 17 77 00 be 10 10 d9 bc f6 e8 c9 bc
       -0.06989583 -0.12545429 -0.026496917 -0.024647217
000030 7b fb 99 bd 17 0f 08 be 2f 84 01 be 1e 45 c6 bd
       -0.07518669 -0.13287006 -0.1264808 -0.09681152
000040 36 9c 04 be 7f f1 f9 bd 74 93 29 be 47 75 18 be
       -0.12950215 -0.12204265 -0.16560155 -0.14888488
