Inversaobit-Emanuel/checkpoint/best_model.pth (torch, 64994 bytes, 15 tensors)

memory.mem_bias f4 [128, 20]
00000000: c672 783d 4030 a8bc 02ab 8bbd 5289 82bd
00000010: 666b 263d 0a0c 323d d47d 96bc 522b 373d
00000020: fce0 f63c 10ef 2f3c 85c4 a73d ede2 38bd
00000030: 5567 91bd 70aa 29bc 009a bbb9 b90b cb3d
00000040: c0c2 9dbd 5096 90bb da90 783d 0cec 8c3c
00000050: a391 35bd c8db f9bc 5e41 8abd c092 b3bc
00000060: 7a08 4b3d 7738 c93d b7e4 b9bd 479b b5bd
00000070: 304f 4bbc 74cd b53c b052 2dbd 8018 453c
00000080: b9c0 aa3d 995b 843d 3007 21bc d302 54bd
00000090: 00ff b2bc 27df af3d 3314 2ebd 8d7e 41bd
000000a0: d45d dd3c 00ab efb9 bb88 a5bd bc06 f73c
000000b0: e0e1 e63b 75f1 c4bd 2c60 a33c 7a39 4bbd
000000c0: 80d2 39ba 00ec 2cb9 3dc9 a4bd 64e2 da3c
000000d0: 622f 89bd b5f3 ab3d 5519 843d c01c 42bb
000000e0: 683a b03c cce1 ebbc d287 603d fd7e 26bd
000000f0: c761 933d 0d9a 843d d4cb e8bc a9ac 8b3d
00000100: e2f0 6d3d 05d3 943d c078 7abd 0851 d6bc
00000110: d243 033d efec a83d 00b8 483a 2ed9 0a3d
00000120: dd6a 67bd 4cbb e4bc 6083 96bc 7849 80bd
00000130: 7c68 0bbd 9f72 bd3d 58ac 5e3c 784a fdbc
00000140: be41 163d f15a 843d f429 fdbc 5017 bb3b
00000150: 98fb a4bd 9e9e a5bd d1b6 883d d44a cb3c
00000160: db07 bbbd b1ec 873d 606d a6bc c419 80bd
00000170: e407 e23c 8e6b 6c3d 2a22 02bd ac01 bdbc
00000180: 338f af3d c3d8 a73d fa81 7d3d 6c08 c83c
00000190: af7e 8b3d 9807 f0bc 8c37 f03c 57a4 b0bd
000001a0: 9833 853c e085 e1bc d3fb 893d 3369 c53d
000001b0: 40bf debc b246 153d 9302 91bd c5ec b4bd
000001c0: 58f9 363c 23f8 2bbd a010 333b 60dd 95bd
000001d0: 488d a5bc 7055 273c 17a8 c13d 42a4 523d
000001e0: ce6f 2d3d 1f9c af3d 374e c43d a866 8dbc
000001f0: 46f6 5f3d 9d4b 68bd f47b b6bc 19cd 933d
00000200: 5472 89bd 095c cb3d 6083 a5bb d2d6 97bd
00000210: 90d8 5e3c 66e0 553d fd40 4bbd 00d4 20bc
00000220: b836 88bc aabc 7fbd d411 04bd 8a71 77bd
00000230: bd27 9bbd a0cb 8bbd 92b8 243d 7d98 a33d
00000240: 6ff1 a23d a874 eabc 6299 303d 0c6d 863c
00000250: 07b1 843d 00dd 0a3a 1035 5dbc ed5a 64bd
00000260: 63ea 7dbd 18fe b6bd 853b b93d 1819 44bc
00000270: bd35 8bbd 605c 06bb f11e a73d 6100 883d
00000280: 60ba 3ebb 2dd3 943d 90aa 423c c6dc 4c3d
00000290: 007c 4a39 7a16 5b3d ada9 85bd c078 b23a
000002a0: 20aa f8bb d082 64bd 546f d93c 1df0 73bd
000002b0: fa1c 06bd 61a4 af3d 0030 59bb b37c a53d
000002c0: a5c6 8a3d 02e1 103d dd4a 68bd 8da0 6bbd
000002d0: a86d 8cbc 6e48 693d 0038 0abc 30de 44bd
000002e0: e01b 8e3b 1748 6ebd f2ab 413d c86f c33c
000002f0: 80d4 d83a aa7f 9bbd fd8a 903d 0813 a93c
00000300: f639 06bd 57da 47bd 0728 a53d 37ac 9e3d
00000310: ad31 5bbd 478b b43d c0a8 3b3c a6a3 05bd
00000320: 980d eebc 4089 69bb 18d4 cabc 9327 8dbd
00000330: 5ec6 183d 6c22 edbc d2fe 363d 153c 823d
00000340: 839e b4bd 4227 203d 007f b8bc e591 933d
00000350: 5ff3 8f3d 804e 2bbc 707a 2a3c 80db b93a
00000360: 126e 5e3d 9f08 c93d 60ff 73bb 5a3b afbd
00000370: cc90 c73c 80bc 103c c085 093c 0a08 0e3d
00000380: 709a 0fbc f0d3 6f3c 3b35 a23d b3a7 b73d
00000390: b422 9a3c e5bc 8f3d 8974 993d 00b5 cbbd
000003a0: 6769 be3d a20b 753d 7381 7bbd af13 923d
000003b0: e16c bc3d c7e0 883d c0a6 043b da2f 1abd
000003c0: 43b9 803d aadb 0abd 11aa ae3d 4333 68bd
000003d0: afa0 b03d b0f4 d4bb 98d7 cb3c bf03 b5bd
000003e0: 8001 f8bb 4368 a4bd 512a a23d 8a02 6a3d
000003f0: b32e 2dbd 5d2e 52bd 40a9 bc3c 5d9d 853d
0.06065633 -0.02053082 -0.068197265 -0.06373848 0.040629767 0.043468513 -0.018370546 0.044719048
0.030136578 0.010738149 0.0819178 -0.04513829 -0.07099787 -0.010355577 -0.00035782158 0.09914345
-0.07703161 -0.00441245 0.060685016 0.0172024 -0.044328343 -0.030500308 -0.06750749 -0.021920562
0.04956863 0.09825223 -0.09076827 -0.088675074 -0.0124090165 0.022192694 -0.042315185 0.012029767
0.0833754 0.06462783 -0.009828374 -0.051760506 -0.02185011 0.08587485 -0.042499732 -0.04723983
0.02702228 -0.00045713037 -0.0808272 0.030154578 0.0070459694 -0.09616367 0.01994332 -0.04961536
-0.0007088557 -0.00016491115 -0.08046196 0.02671928 -0.06698491 0.08396093 0.06450144 -0.0029619187
0.021512225 -0.028794192 0.05481703 -0.04064845 0.07196384 0.06474695 -0.028417505 0.06820042
0.058091052 0.07266811 -0.061150312 -0.026161686 0.0320471 0.082483165 0.00076568127 0.033898525
-0.056498397 -0.027921341 -0.018373191 -0.06264013 -0.03403519 0.09250378 0.013590895 -0.030919299
0.03668379 0.06462658 -0.030903794 0.005709566 -0.080558 -0.080868945 0.066754945 0.024815954
-0.09132358 0.06636942 -0.020315826 -0.062549144 0.027591653 0.05771976 -0.031770863 -0.023072086
0.08572235 0.08195641 0.061891533 0.024418078 0.06811272 -0.029300496 0.029323362 -0.08625095
0.016259953 -0.027529657 0.06737485 0.09639206 -0.027190804 0.036444373 -0.07080569 -0.08834223
0.011167847 -0.04198469 0.0027323142 -0.073176146 -0.02020897 0.010213241 0.09455889 0.05142618
0.042342953 0.085746996 0.09585231 -0.017260864 0.054678224 -0.056712735 -0.022275902 0.07216854
-0.067112595 0.09929664 -0.0050510615 -0.074140206 0.013601437 0.052215956 -0.049622525 -0.00981617
-0.016627654 -0.062435783 -0.032243565 -0.060411014 -0.07575939 -0.06825948 0.040215082 0.07988069
0.07956206 -0.02862008 0.043115027 0.01640942 0.06479078 0.0005297214 -0.013501421 -0.055750776
-0.061991107 -0.08935183 0.090445556 -0.011968873 -0.06797359 -0.0020501837 0.081601985 0.06640697
-0.0029102787 0.07266841 0.011881486 0.050015233 0.00019310415 0.053488232 -0.06526504 0.0013616309
-0.00758864 -0.055788815 0.026542343 -0.05955516 -0.032742478 0.08576275 -0.0033140182 0.08080425
0.0677617 0.035370834 -0.05671202 -0.05752616 -0.017142132 0.05695384 -0.008436203 -0.048063457
0.004336819 -0.05817422 0.04728312 0.023857012 0.0016542822 -0.07592709 0.0705776 0.020638958
-0.03277012 -0.04879221 0.08064275 0.07747691 -0.05351417 0.088156275 0.011453807 -0.03262677
-0.029059216 -0.0035634786 -0.024759337 -0.06892314 0.037298553 -0.028947078 0.04467661 0.06359116
-0.08819296 0.03909994 -0.022521496 0.072055615 0.07028841 -0.010455728 0.010405168 0.0014179796
0.05430419 0.098160975 -0.0037231073 -0.08556242 0.024361037 0.008834004 0.008393705 0.034675635
-0.008764848 0.014637932 0.07920309 0.08967533 0.018815376 0.07018451 0.074929304 -0.099466324
0.09297448 0.059825547 -0.06140275 0.071326606 0.092004545 0.06683498 0.0020240992 -0.03764329
0.06285336 -0.033900894 0.08528531 -0.056689512 0.08624398 -0.0064988956 0.024883077 -0.08838605
-0.007568538 -0.08027699 0.079182275 0.057131328 -0.042280864 -0.051313747 0.023029923 0.06524155

controller.0.weight f4 [100, 28]
00000000: 7bc0 94bc 146c dabe 0446 953e 8200 d33b
00000010: 524f 92be 0a4e bf3e dd10 e93c 372b ec3e
00000020: f49b 8f3c b45f b9bc c445 a53c cab3 be3c
00000030: ec69 f23c 5307 5bbd b97f b53d bbad be3d
00000040: 907e 86bd 49fe b23d 32d2 e8bd daba ee3c
00000050: faef 513d 67f3 123a 6275 9cbd 6a94 99bd
00000060: e525 b03c 313d babd 388f 193c 8e2f a4bd
00000070: 144e 0bbe bf00 1fbe d568 0ebe 904e 1ebe
00000080: c2cc 2ebe c6b8 31be 0b55 d6bd 68f0 06bf
00000090: a809 ba3d 0c0f 55bd 29b1 72bb bb44 613d
000000a0: 7819 6d3d 3bb6 c3bd f215 093d 078e d13d
000000b0: fce1 80bd acf9 2e3d 2207 8abd ca4b 1d3d
000000c0: 53c6 8a3d 768d a0bd e983 59bd f353 19bc
000000d0: 9821 1fbd 5211 b0bd 634a d23d 79c3 9bbd
000000e0: 3cf4 90be 5fa7 83be a235 71be f404 88be
000000f0: a389 8dbe c221 8bbe a6e4 09be 0620 4e3d
00000100: 571b 983c 5cb5 36be 7e3e 63bd 4850 00bd
00000110: 3f58 6a3e eacb 04be b462 d2bc 7708 3c3e
00000120: 52df 2fbe 2b2d 513e 9781 fab9 8142 543e
00000130: 79a7 a83c 0803 a8bd 2e9e cabd ec0e a1bd
00000140: 9739 55be fb05 83bd ea1f 233d 1ca7 803c
00000150: 2e7c 093f 694c aabe eb12 143f f315 423f
00000160: 749f c7be 3df3 5fbe aba7 353f 1f30 b3be
00000170: c08c 49bb f433 a4bd d348 04be 7c74 c6bd
00000180: 2021 ad3d e73d d43d a51a 873c 1ea6 babd
00000190: e3f4 87bc 8baa 15bd 7b73 103d 6dfe da3d
000001a0: 8198 2bbd 2dfa 933d 92d0 c3bd 2f04 223b
000001b0: 998b c73d 0e91 dd3c bb1b 0ebe 0ab2 ed3d
000001c0: a03d d5be adea 1cbe 1017 993d 199f 493f
000001d0: 8b97 3f3f 1445 383f 036e 3e3f 9aba 59bd
000001e0: 937b fb3c c8be 8ebc 712e 45be bd9c 073e
000001f0: 302a 193e d0ed 44bc 7097 e63d 53cb a6bd
00000200: cb39 ef3d b32e e03d cbc6 3bbd 91c0 6f3e
00000210: b110 df3b cccd d0bd 66b5 34bd d9b4 903c
00000220: b7aa d3bc 17e9 93bd 6fb2 103e dfae 193d
00000230: 7b22 023f 349f eb3e 4dbc ef3e b205 203f
00000240: 40bb 183f 6d5f e6be 61b9 adbe bc65 de3d
00000250: 5683 73bd 1725 bebd c8a6 38be 328d d33c
00000260: 7b06 ef3d 5405 0cbe 750a 9b3c e303 3a3d
00000270: d06b 1dbe 1cfc 8a3d e33e 2dbe a048 b93d
00000280: e191 ca3d b8a3 8cbd 27a1 22bd a314 1ebe
00000290: 883d 10be d85b 9bbd d22e 8c3c 085f 36bd
000002a0: b884 5a3e d022 47bd f032 dd3e c027 5ebe
000002b0: bafb 073f 7914 153f 2a32 04bf f38c 98be
000002c0: 9dca c33d 8931 f3bc 804b 9ebd e894 6fbd
000002d0: a4f9 0e3e 8b0b a3bd 73bd da3d ae74 b63d
000002e0: 20ff fb3c d8a0 cc3d 508c 27ba c076 003d
000002f0: ef58 1ebd 94d1 03bc 4523 08be 694b 253d
00000300: 7f1d ddbd 853c bcbc 843a 233d fb8e 963d
00000310: 9de7 df3c e8cd 94bc 4a5f 40be 0708 553f
00000320: d39d 3d3e 8d54 22be 60a3 4a3f a92b 2a3f
00000330: 9faf 01bd 9b23 b6bd e0a8 49bd fe72 86bd
00000340: b60c 0e3b 67c6 3abd 00b4 7f3d a614 923c
00000350: 6dc5 98bd adb1 d23d 59df f43c 5526 c33d
00000360: bcd3 7d3d 967d c93d b8c2 353c ce24 a5ba
00000370: e7cb 613d d1c2 c33d c639 38bd 43ba a93c
00000380: e044 323f a849 dbbe ea54 4f3f ee92 a9be
00000390: 0688 183f 85a8 9abd 51af 343f 27ce 573f
000003a0: 7f7f 69bd 3443 bb3b 1bab 40bd 66f8 0ebc
000003b0: 9d1e 793d bd97 243c ffc3 163c c1f2 19bd
000003c0: 2efc 1e3d c15a a6bc 22c0 54bb 107a 743d
000003d0: 8cc4 87bd dc57 633d b80a a0bd 932c ccbb
000003e0: 9966 ea39 70bb bc3d d1ad 053d e3aa 38bb
000003f0: 66f8 90be a94a 8fbe 594f 86be 2336 91be
-0.018158188 -0.42660582 0.2915498 0.0064392695 -0.28576142 0.37364227 0.028450424 0.4612672
0.017530419 -0.022628643 0.020174868 0.02327909 0.029591523 -0.05347378 0.08862252 0.0931048
-0.06567109 0.08739907 -0.113682166 0.029141832 0.05125425 0.0005605728 -0.076395765 -0.07499011
0.021502445 -0.090937026 0.009372525 -0.08016883 -0.13604003 -0.15527628 -0.13907178 -0.15459657
-0.17070296 -0.17355642 -0.104654394 -0.5271058 0.09083873 -0.052016303 -0.0037031865 0.054997187
0.057885617 -0.09556242 0.033468194 0.10232168 -0.06293103 0.042718574 -0.06739642 0.038402356
0.067761086 -0.078394815 -0.053104315 -0.009358394 -0.038850397 -0.085970536 0.102680944 -0.07605643
-0.28311336 -0.25713632 -0.23555616 -0.2656628 -0.2764407 -0.27174193 -0.13466129 0.05032351
0.018567724 -0.1784262 -0.05547952 -0.031326562 0.22885226 -0.12968412 -0.025681831 0.18362604
-0.17175034 0.20427386 -0.00047780268 0.20728494 0.02058767 -0.08203703 -0.09893452 -0.07864174
-0.2082275 -0.06397625 0.039825357 0.015704684 0.5370511 -0.3326142 0.57841367 0.7581474
-0.3898884 -0.21870132 0.70958966 -0.3499765 -0.003075406 -0.08017722 -0.12918405 -0.096901864
0.08453584 0.103633694 0.016492197 -0.091137156 -0.016596263 -0.036539596 0.03526638 0.10693059
-0.041893486 0.072254516 -0.09561266 0.0024721732 0.09743423 0.027046707 -0.13877766 0.11606224
-0.4164858 -0.15323897 0.07475102 0.7875839 0.7484061 0.71980405 0.74386615 -0.053156473
0.030698573 -0.017424956 -0.19255997 0.13243385 0.149575 -0.01201959 0.11259353 -0.0814425
0.11680945 0.10946407 -0.04584388 0.23413302 0.0068074097 -0.10195503 -0.044118308 0.01766436
-0.02583824 -0.07222193 0.14130567 0.037520286 0.50833863 0.460199 0.4682335 0.6250869
0.5966072 -0.4499468 -0.33930495 0.10859248 -0.059451424 -0.09284418 -0.18032372 0.025824163
0.11671158 -0.13673908 0.018925885 0.045413863 -0.15373158 0.06786367 -0.1691852 0.09047055
0.098911054 -0.068671644 -0.039704468 -0.1543756 -0.14085972 -0.07585877 0.01711217 -0.044524223
0.2133969 -0.048617184 0.43202925 -0.21694851 0.5311848 0.58234364 -0.51639044 -0.29795036
0.0956013 -0.029686706 -0.07729244 -0.058491617 0.13962418 -0.07961186 0.10680666 0.08908974
0.030761302 0.09991616 -0.00063914526 0.03136325 -0.038659032 -0.008045573 -0.13294704 0.04035512
-0.107966416 -0.022978077 0.039850727 0.0735149 0.027332122 -0.01816459 -0.1878635 0.83215374
0.18517236 -0.15852566 0.7915554 0.6647287 -0.031661626 -0.0889351 -0.049233317 -0.06564902
0.0021675057 -0.045599367 0.06242752 0.017832112 -0.07459531 0.10287795 0.029891657 0.09528796
0.061969504 0.09838407 0.011093788 -0.001259947 0.055126097 0.09558643 -0.044976972 0.0207187
0.69636345 -0.42829633 0.80988944 -0.3311991 0.59582555 -0.07551674 0.7058001 0.8429894
-0.057006355 0.0057147983 -0.04703818 -0.008726215 0.06082021 0.010045943 0.009202003 -0.037585024
0.038814716 -0.020306947 -0.0032463153 0.05968672 -0.06629285 0.05550371 -0.078145444 -0.0062308996
0.000447084 0.09215438 0.032636467 -0.0028178028 -0.28314513 -0.2798665 -0.26232412 -0.28361616

controller.0.bias f4 [100]
00000000: 6328 003f 3691 e63c 6893 943e d420 943e
00000010: 9c7e c63c fd90 2f3e 7d6d 253f 66fd 983d
00000020: 2505 543d 7e24 7c3e 1093 253f 7171 7b3e
00000030: 7ac8 e43e a498 b03e 825a 443e 8e7a 183e
00000040: dc87 423d 74af be39 dd21 1f3e fc1b 133f
00000050: f899 0f3f 411b bf3e d85e a83e 3c88 a03e
00000060: bd99 6fbe 4c48 be3e 1c44 d33e effc 1b3f
00000070: 0ab9 a83e 6617 013f 0cb0 a03e bd6a 8e3e
00000080: 4288 883c e5f7 4b3f f8f9 4c3e cce2 b83e
00000090: 69be 023f 5c33 953e 9110 8a3e 20de e63d
000000a0: e5c0 0c3e 85c7 743e 138e 273f 40d1 e93e
000000b0: 4a32 0c3f c001 b3bf 5562 613f d46f 013b
000000c0: 011c 54bd 8443 8a3e 252c 423e aedf 6d3e
000000d0: 4687 a03e aeec 443f dac9 c03d b67d 05bd
000000e0: 1469 d03e d448 943e b906 fe3c 7d94 a83d
000000f0: 7aff 3bbd 6b17 db3e e824 9f3e 9cad 463e
00000100: b9ce 849d 3e90 9b3e 3be7 c23e 180e bd3e
00000110: aa49 ac3d cdb9 d63e fbcc 6abe 0bca 6a3e
00000120: ea79 a13e 4fbd bf3e ea03 e93e 29d8 253f
00000130: 4cc4 6d3e da26 343e 3c0f c53e 1ee3 c73e
00000140: ccd1 4c3e e721 bd3e dd5f 193f 86f7 ab3e
00000150: 8f72 883e b71f 7c3e d214 623e 5000 603e
00000160: 8bc0 9d3e 3dc6 963e 3b57 563f 1169 c73e
00000170: 310b 783e b4e9 1c3e 42ce 373f 4a79 043f
00000180: f095 e23e 8cfa 7f3b ae06 87bd 0633 5c3e
0.50061625 0.028145414 0.29018712 0.28931296 0.024230294 0.17145152 0.6462019 0.07470207
0.05176272 0.24623296 0.64677525 0.24554993 0.446842 0.34491456 0.19175151 0.14890501
0.047492847 0.00036370347 0.15540262 0.57464576 0.5609431 0.3732548 0.3288486 0.3135394
-0.2339849 0.37164533 0.412629 0.6093282 0.32953674 0.5042633 0.31384313 0.2781581
0.016666535 0.7967513 0.2001723 0.36110532 0.5107179 0.29140747 0.26965764 0.11272836
0.13745458 0.23904236 0.65451163 0.45667458 0.54764235 -1.3984909 0.8804067 0.0019750493
-0.05178452 0.27004635 0.18962152 0.23229858 0.31353205 0.76923645 0.094135 -0.03259059
0.40705168 0.28961813 0.031009065 0.08231447 -0.04589794 0.42791304 0.31082845 0.19402164
-3.5153855e-21 0.30383486 0.3806704 0.36924815 0.08412488 0.4193863 -0.22929756 0.22928636
0.31538326 0.37449118 0.455108 0.6478296 0.23219413 0.17592946 0.38488185 0.39040464
0.20001906 0.36939928 0.599119 0.33587283 0.266499 0.24621473 0.22078255 0.21875119
0.3081096 0.2944812 0.83726853 0.38947347 0.24223019 0.15323526 0.717991 0.5174757
0.44255018 0.003905925 -0.06593071 0.21503839

read_head.key_layer.weight f4 [20, 100]
00000000: 93d8 acbb 5bea 773d 5303 1f3d bcfb 23be
00000010: f3df 50bd 479c 67bd 511d 60bc cfab 96bc
00000020: 3c68 0a3c 0b1a e93d b98f 723c 73ed 4f3d
00000030: a8da 153c 16f3 583c 419e 853d 8e45 053d
00000040: 9fc9 e53d 69c1 ab3b 635d ad3d 697b 4e3c
00000050: 9f2f c5bd ad8e 533d 0b8c 803d 437f 1ebe
00000060: 1e16 f9bc e893 87bc c6a1 a1bd df2d 5bbd
00000070: 96dc 9fbb 62f0 bdbd bcb6 0e3d 5161 d4bc
00000080: 3ff5 49bc 0ef8 1abe ba20 68bd 0722 b537
00000090: 0cfe 0dbd 3ab6 2abc 7147 36bd 81fc 153d
000000a0: afe8 1ebd f8a4 a4bc 4f59 94bc 4f25 39be
000000b0: 9bf2 3f3d 392c 093d 6d4c 7a3d 0c79 203c
000000c0: 80fe 7ebd 6220 ffbd 807c ef3d 4f89 d63d
000000d0: 8037 243d f84a b1bd 3aed 87bd 9c74 c93c
000000e0: cded c43c 5366 cdbb 2e80 d0bc d891 fbbc
000000f0: 7027 4fbd 8a5c 4dbd 5e87 e8bc dcc0 e1bc
00000100: 4f5e 109c f896 f4bd aa6f 47bd 377b 583d
00000110: 464d 88bd 9bc5 16bd dbb1 3d3c e8fc 11be
00000120: 9724 b1bc 2257 89bd d7d7 fa3c dea0 1dbd
00000130: f73f a03d 0bf1 9c3d fca5 13bc b74e d2bb
00000140: 3644 c43d f318 21bd 2b23 c1bd 49bf b2bd
00000150: e7ac a9bd f343 713d 1e70 09be 9dcd bcbd
00000160: a713 b23b 3dd4 efbd 1de6 873d 5e77 8d3c
00000170: b9c6 213d 7bf4 de3c cb7f b3bd 9be9 70bb
00000180: c93b 0f3d e2bd 94bc a8b3 f5bc 4a86 393d
00000190: 253b 0c3d f921 79bd eefc 74bb fda9 91bd
000001a0: ccf4 18bc d422 1f3d 14a1 543a 3036 5e3d
000001b0: 7159 493d 0ee7 f3bc 026d 72bb 1b3c 0fbe
000001c0: 62f5 393d 9ff1 843d 25bc f5bd b24c 9a3d
000001d0: c7bf 4cbe 035b 203e 5f4e 853c c152 473d
000001e0: 7d32 0fbd 7077 a33c e2fa 9b3d 3349 e9bb
000001f0: ffa5 073e 425b 04bd 5013 c3bc 7b6d 5a3d
00000200: aab1 19bd fc43 1bbd d5b1 e93c f282 79bd
00000210: 16e6 a9bc 8422 82be 536e 993d d470 033d
00000220: 90f1 39bd 683e 8e3d 8452 c2bc 4777 2f3c
00000230: 5d7a c83d 9698 ad3d c5b8 32bd 2512 bebd
00000240: e3b4 403d c86a 583d 4cf6 6f39 d94d f03c
00000250: 1ade 8c3d 48c7 91bc 160e a4bd e1e8 88bd
00000260: 1ada 73bd c7c1 4fbc d4d0 aabc 5610 a53d
00000270: 3f88 5cbd 9014 0ebd 7c68 213d d760 d93c
00000280: 47aa a73d 3d63 cc3d 55ed 54bc 69c7 25bd
00000290: 4e8b a81c 1670 29bd 5aec 01bc 10f4 75bc
000002a0: c964 bebd d898 ba3c 9818 aa3c 52a6 febc
000002b0: 7bee 14bd b56e 8b3d f5c2 0abd 514b 823d
000002c0: 7fa5 89bd 28dd ecbd 9cdf 1bbd 04d2 d93c
000002d0: 1084 c5bd c502 90bc 34b7 f8bc 03d9 fa3c
000002e0: 622e 863d c8d4 7ebd 2ef4 03bc 504a d7bc
000002f0: 9ee3 cb3c 6ad6 0bbd c19b 5bbd f86a 85bd
00000300: f601 9c3d fa7e bcba 38cc 17bc 245b bebc
00000310: 980f b9bc b768 b53c a64d f83c 9cad 0b3d
00000320: d24c a1bd 287e ce3b b0d9 7ebd b63d 773d
00000330: ea0c 18bd bbac c6bd f5c3 f1bc 990a 42bd
00000340: 3f06 1db9 645d 37bd 0fe1 b13d 702c 3abc
00000350: 2197 17bd 423c b2bd 565a 19bd 713a 8ebd
00000360: 79aa 423b 1a17 453d 54e6 7abb 163e 5f3d
00000370: 2f3a d43b 570d d7bd 2f93 90bc 343b 6c3d
00000380: 8c46 923c f1e6 8cbd b031 373d 71f5 a23d
00000390: a6af e7bd c5ea 053d 33ec a23c 7c62 813a
000003a0: e016 81bd ce7c 743d 2c06 78bd 767d 76b8
000003b0: b14d 493d 7f56 6fbc 2447 adbc e6ec 21bc
000003c0: 229d 15bb 3b68 0a3d 0e13 f63b 6f8c 773d
000003d0: d144 afbc ac93 95bc 566e d93c 6b59 59bd
000003e0: f70e 29bd 326d 243d cd2c 02bd dba8 bfbd
000003f0: ccdf 863b 14e7 e839 baba 7cbd 467c d4bd
-0.005274841 0.060526233 0.03882153 -0.16013998 -0.050994825 -0.056545522 -0.013678865 -0.018392472
0.008447703 0.113819204 0.014804774 0.05076356 0.00914637 0.01324155 0.06524325 0.032537036
0.11220097 0.005241562 0.08465078 0.012602665 -0.09628224 0.051649738 0.06276711 -0.15478234
-0.030406054 -0.01655002 -0.07892184 -0.053510543 -0.004878591 -0.09274365 0.034842238 -0.02592531
-0.012326538 -0.15133688 -0.056671835 2.1592727e-05 -0.034666106 -0.010419423 -0.044501726 0.03661776
-0.038796123 -0.020098194 -0.018108992 -0.18080638 0.046862226 0.03348944 0.06110804 0.009794485
-0.06225443 -0.124573484 0.11693668 0.10475408 0.04009199 -0.08656877 -0.06637044 0.024591736
0.024039173 -0.0062683015 -0.025451746 -0.030709192 -0.05057472 -0.05013708 -0.02838486 -0.027557783
-4.7767494e-22 -0.119428575 -0.048690476 0.05285188 -0.06655364 -0.036809545 0.011578049 -0.14256632
-0.021623893 -0.067060724 0.030620499 -0.038483493 0.078247 0.07663163 -0.009011742 -0.006418075
0.09583323 -0.039330434 -0.09430536 -0.08727891 -0.08284932 0.058902692 -0.13421676 -0.09218905
0.0054344716 -0.11710403 0.066356875 0.017268833 0.039496157 0.027216187 -0.08764609 -0.0036760333
0.034969125 -0.01815695 -0.029992893 0.045294084 0.034236092 -0.060823414 -0.0037382203 -0.07112501
-0.009335708 0.038851574 0.0008111161 0.054250896 0.049157564 -0.029773261 -0.0036991243 -0.13987772
0.04540003 0.06491398 -0.11998776 0.0753416 -0.19995032 0.15659718 0.016272722 0.048662905
-0.03496026 0.019954413 0.076162115 -0.0071193217 0.13246916 -0.032313593 -0.02381292 0.053327065
-0.03752295 -0.03790663 0.02852718 -0.060915895 -0.020739596 -0.25416958 0.07491746 0.032090023
-0.045396388 0.06945497 -0.023720987 0.01070959 0.09788964 0.08476369 -0.04363324 -0.092808045
0.047047507 0.05283621 0.00022884569 0.029333996 0.068783 -0.01779522 -0.08010499 -0.06685043
-0.05953417 -0.012680477 -0.02085153 0.080597565 -0.053840872 -0.03468758 0.039406285 0.026535435
0.08186775 0.09979866 -0.0129960375 -0.040473375 1.1153317e-21 -0.04136666 -0.007929886 -0.015011802
-0.09296567 0.02277796 0.02076368 -0.031085167 -0.036360245 0.06808225 -0.03387733 0.06362022
-0.06721019 -0.1156562 -0.038055047 0.026589401 -0.096443295 -0.017579446 -0.030360796 0.030621057
0.065518156 -0.062214643 -0.008053822 -0.026280552 0.02488881 -0.034140028 -0.053615335 -0.06514543
0.076175615 -0.0014381104 -0.009264998 -0.023236819 -0.022590443 0.022144658 0.030310463 0.034101114
-0.078759804 0.00630166 -0.06221932 0.060361587 -0.03712169 -0.097009145 -0.029512385 -0.047373388
-0.00014975014 -0.0447668 0.08685505 -0.011363134 -0.037009362 -0.087028995 -0.037439667 -0.069447406
0.002970366 0.048117734 -0.003828426 0.05450257 0.0064766626 -0.10500591 -0.017648308 0.057673648
0.017855905 -0.06879986 0.04472512 0.079569705 -0.11312799 0.032694597 0.01988802 0.000987127
-0.06303191 0.059689336 -0.06055276 -5.8767815e-05 0.049146358 -0.014608025 -0.021152087 -0.009883141
-0.0022829254 0.03379081 0.0075095957 0.060436662 -0.021395119 -0.018258892 0.02654187 -0.05306379
-0.041274037 0.0401432 -0.031781007 -0.093583785 0.004116034 0.00044422655 -0.061701514 -0.10375266

read_head.key_layer.bias f4 [20]
00000000: d255 603d a3fe d5bd 0622 9e3d ce20 c33d
00000010: 10d4 3ebd 9751 4bbd 4320 8cbd 2a33 d43d
00000020: dec2 08be faad 773d 3a28 69bd cfdb 163c
00000030: 516a 8a3d ac63 aebd da81 65bd e7f5 38bd
00000040: efee 393c b100 61bd 368b a6bd 5a6c 4ebd
0.054769345 -0.10448959 0.07721333 0.095277414 -0.046588957 -0.049638357 -0.06842091 0.10361321
-0.13355586 0.06046865 -0.05692313 0.00920768 0.067585595 -0.08515105 -0.05603204 -0.045156386
0.01134847 -0.0549323 -0.08132021 -0.0503963

read_head.beta_layer.weight f4 [1, 100]
00000000: e122 c33e b952 b53d 381d 853e a4aa 6c3d
00000010: 774e 013e 43f9 953e a60b 9b3e 2533 af3e
00000020: bc5d a53e 35ac 733e 89d6 a03e d40e 5b3e
00000030: 4c81 983e cdc3 a13e 3e75 933e 90a1 ac3e
00000040: 81b3 cf3d 7d8e ca3e da43 8e3e 4c4b 613e
00000050: ff6d 903e 5209 c73e 1267 8d3e 490b 1b3d
00000060: b8a9 a03e 4a0b 603e 8f74 403e cf46 b83e
00000070: 0e12 b83e 37a6 2c3e 2984 813e 9f0d 833e
00000080: c8c0 1f3e 23b8 253e 2d99 613e 3efd 3d3e
00000090: 9b97 7e3e 89ad 723e 2706 0a3e 7998 393e
000000a0: 3af5 b63e 0cbc 8f3e 1209 973e 7191 8c3d
000000b0: c896 a83e 2be0 433d 86cc 033f 3a25 9d3e
000000c0: c963 413e da08 543d 420d 5d3e 2ae0 353e
000000d0: a2f1 7c3e 3fdd 9e3e 9fbe 3e3e 5d47 fa3d
000000e0: f695 aa3e 9e07 d53d 0370 3a3e d764 3b3e
000000f0: 5071 9f3e e594 7e3e eedf 3c3e eda2 583e
00000100: 2805 1a1d 6b76 893d 4ae2 9b3e f731 823e
00000110: a58a 3d3d 690c 983e fff4 0e3e fe1c 723d
00000120: cabe 653e cd13 823e 1082 af3e 0db5 a73e
00000130: debf 943e d42a 3f3e 38f5 b13e 3746 a83e
00000140: df19 863e 584d 803e 20df 873e ab64 353d
00000150: bfbd 273e 0ebe 263e 9f22 1a3e a155 443d
00000160: a37b 8a3e da55 5a3d 2465 f43e d1d9 a93e
00000170: cf28 c23e 4cef 4d3e a664 5f3e a57f d83e
00000180: f548 db3e 53b0 633e 374c 263e c09a 513e
0.38112548 0.08853669 0.25998855 0.057779923 0.12627588 0.29291734 0.30282325 0.34218708
0.32298076 0.2379616 0.31413677 0.21392375 0.29786146 0.31594697 0.28800386 0.33717012
0.101416595 0.39561835 0.27786142 0.2200138 0.2820892 0.38874298 0.276177 0.03785256
0.31379485 0.21879306 0.18794464 0.35991523 0.35951275 0.16860281 0.25296143 0.2559633
0.15600884 0.16183524 0.22031088 0.18553635 0.2486252 0.23699011 0.1347891 0.1812457
0.35733968 0.28073156 0.29499108 0.06863678 0.32927537 0.047821205 0.51483953 0.30692464
0.18885721 0.051766254 0.21587089 0.17761293 0.2470155 0.31028172 0.18627404 0.12220643
0.33317536 0.104018435 0.18206792 0.18300186 0.31141138 0.24861486 0.18444797 0.21155901
2.0384396e-21 0.067120396 0.30446082 0.25428745 0.0462748 0.29696968 0.13960646 0.05910968
0.22436062 0.25405732 0.34278917 0.32755318 0.29052633 0.18668681 0.347574 0.3286607
0.26191613 0.2505901 0.26537418 0.044285458 0.16380976 0.16283438 0.1505227 0.047933225
0.27047452 0.05330453 0.47733414 0.33173993 0.3792176 0.20110816 0.21815738 0.42284885
0.428291 0.22235231 0.16240011 0.20469189

write_head.key_layer.weight f4 [20, 100]
00000000: 9282 1f3e 852d 19bc ea83 10bc 8ecc f93d
00000010: c965 d33d 8f08 e43d b630 f33d 6ab2 073e
00000020: f6bb 903d 6c0e e0bc 9f5d 973d 1363 73bc
00000030: 3821 a63c 5eb9 8e3d 3abc fdbc bfb7 263d
00000040: 0494 07bc 87cc da3c c098 f33d fe19 2b3e
00000050: 2e36 bc3d 0646 003d d113 683c 3f45 173e
00000060: 0aba c5bc 25b8 bb3c f382 4a3d bc6c 1e3e
00000070: 21cc d83d 75cd e13d 6284 b23d db84 af3d
00000080: a46d ab3d 45c1 cb3d 09f6 8a3d c684 853d
00000090: 13e7 d93d 3a56 7d3d b727 803d 5c4c 983d
000000a0: c102 a13d 8e26 1b3e f85e 9b3d 9d31 763d
000000b0: 093a f03d 0a8d 31bd 6193 e23d afa6 6c3d
000000c0: 735f 25bc c257 503d bad4 d1bc 6b7d d9bc
000000d0: 816d 593d 5dab 343e 0e85 323c f21e 053d
000000e0: da0f a83d 1aad d13d 65bf 4f3d 7189 aa3b
000000f0: fcbd 903d 63b8 5f3c 1969 1e3d 0185 803d
00000100: 9d77 fc1a 320f 6d3d 5d68 213e 3fe9 eb3d
00000110: a7a1 32bc 2d9c 8d3d 9f29 f33c 9b6c 863d
00000120: 9dba 8a3d a203 e63d f03d ba3d b1e4 673d
00000130: d76b 7f3d 8e2e d4bc 5bf6 993d 6f20 da3c
00000140: 285d bd3d 910e 053d 41f6 9b3d eea0 803d
00000150: 830d db3d 33ca e1bc 2de2 2f3c 2411 5f3d
00000160: 2072 3c3d 6e7b 253c 1c75 cd3d db05 0b3e
00000170: 1216 e63d c572 fbbc b698 eb3d 0d65 b53d
00000180: 3b9e 833d 0fd5 163d b857 763c e573 edbc
00000190: 997b cabc 3cf1 6c3c 3e9b dc3c 7233 a43c
000001a0: 5841 a73d 52a9 c53d ad05 133d d40e 543d
000001b0: 7d05 823d 2914 193d ebb2 ce3c 6f51 043d
000001c0: 86d4 903d 1a38 aa3c 051c 173d 63f5 453d
000001d0: ce7b 9b3c be4a dd3c 6730 053d 2702 a7bc
000001e0: 7c9f 7b3d 8eec 193d 67c6 133e cd0b c93c
000001f0: 6225 1b3e 5cff bb3d 48d3 8b3d 9ac2 70bd
00000200: edc6 0e3d c9a7 233e 505d 2f3d 3cef 823d
00000210: f833 d03c 4325 343d eb0f 023e 17c6 0cbd
00000220: aa82 c53d 51bc 003d 0c24 4d3d 2217 c03d
00000230: 18fa c63d b292 36bb ce27 2e3d ac15 a53d
00000240: 2bc9 dc3c 665e 0a3e f9e9 b73d 2de8 8b3d
00000250: 8bbb 223e 9dcd 473d a4f1 293d 1fcd 313d
00000260: 5a41 a53d 620b e5bc 51d6 1a3e a74a d03c
00000270: 34f4 923c 6a88 733d 2578 9a3d df58 f23d
00000280: cef4 9e3d 6e0c 96bb f5fc 5b3d cafc be3d
00000290: be60 d31a 48a1 2b3d f9aa 113d 1da5 b83c
000002a0: 87d2 ca3d 0226 66bc 78ee 0e3d bf20 cc3d
000002b0: 21fc 543d 9c99 d93d e594 bd3d 3639 543d
000002c0: cf00 973d b6c1 243d b13e 78bd 0faa 013e
000002d0: 0eaf cc3d d8cc 8e3c 43c0 e43c 6628 283d
000002e0: 25ae a63c bbdd 6e3d 3438 d33d 1b15 b33d
000002f0: c802 b73c 6b70 4b3d e5b3 463d 4baf d03d
00000300: 93ac e53d c789 133d b713 2a3d c0e1 613d
00000310: a55e bf3d aaa8 af3d 034b b43c 8721 173d
00000320: 349c 603c 5794 8fbc e241 98bd 4908 c33d
00000330: f26b 3c3d ff5c 853b 3b45 343d f07c d03a
00000340: 37af ae3c 94c5 d6bd 32be 5d3d e586 cabd
00000350: d1ee 743d a0c2 aa3d 9991 d4bd 45fd ea3c
00000360: db23 02bd b245 9a3d 2d0e 993c 07dd aebc
00000370: c357 b33c 9850 be3a 7b1b 353d 61bc 623d
00000380: 30da 783d 3b73 8b3d dacf ad3d 779f a1bd
00000390: 0973 6e3b ae8c d83d 8165 243d bd7f 663b
000003a0: f9e8 3c3d d9b4 c03c 04b7 e43d c473 873c
000003b0: c2f4 213d 8ae0 b23d e994 3e3d 2d0f 023d
000003c0: ddf7 983c 3455 723c 2e9c 6e3d 3a68 933d
000003d0: 28c1 253d c1da b9bc 1876 273d 2f87 f93c
000003e0: 0c7c 853d 96bc dc3d 8a2b b3bd 2e89 9cbd
000003f0: 5f6a 5dbc 5ae5 d33c 0d84 953d 3100 dd3d
0.15577152 -0.009349232 -0.008820513 0.12197219 0.10322148 0.11134445 0.11874525 0.13251653
0.07067101 -0.027350627 0.07390904 -0.014855164 0.020279512 0.0696895 -0.030973542 0.040702578
-0.008275036 0.026708854 0.11894369 0.16709134 0.091900215 0.03131678 0.014164881 0.14772509
-0.024136562 0.022914955 0.04944129 0.15471166 0.105858095 0.11025516 0.08716656 0.08570262
0.08370522 0.099489726 0.06785209 0.06519465 0.10639777 0.06184981 0.06257575 0.074364394
0.078618534 0.15151426 0.07586473 0.06010591 0.11729819 -0.043347396 0.110632665 0.05777615
-0.010093558 0.050864942 -0.025614131 -0.026549062 0.053082947 0.17643495 0.0108959805 0.032500215
0.082061484 0.10238095 0.050719637 0.0052043726 0.07067487 0.013654801 0.038674448 0.062753685
1.04418e-22 0.05787582 0.15762468 0.115190975 -0.010902799 0.06914554 0.029682932 0.065636836
0.06773875 0.11231162 0.09093845 0.05661458 0.062358703 -0.025901105 0.07517692 0.026626794
0.09246284 0.032484595 0.076153286 0.06280695 0.106959365 -0.027562236 0.010735077 0.054459706
0.046007276 0.010100229 0.100321025 0.13576452 0.11234678 -0.030694375 0.11503737 0.088571645
0.064266644 0.036824282 0.015035562 -0.028985927 -0.02471714 0.014461812 0.026929494 0.020044062
0.0816676 0.09651436 0.035894085 0.051771954 0.06348703 0.03737274 0.0252318 0.032304224
0.07071786 0.020778704 0.036891956 0.048329722 0.018979933 0.027013179 0.032516863 -0.020386769
0.061431393 0.03757911 0.14431153 0.02454176 0.15150979 0.09179565 0.06827408 -0.058779337
0.03485768 0.15981974 0.0428136 0.063932866 0.025415406 0.043980848 0.12701385 -0.0343686
0.09644063 0.031429593 0.050083205 0.09379412 0.0971567 -0.0027858433 0.04251843 0.08060774
0.026951393 0.13512573 0.089801736 0.068313934 0.15891854 0.048780072 0.041490212 0.04340851
0.080691054 -0.02795953 0.15120818 0.025426222 0.01793871 0.059456266 0.07542447 0.11833357
0.077615365 -0.0045791185 0.053708035 0.093255594 8.742385e-23 0.041901857 0.035563443 0.02253967
0.09903436 -0.014047148 0.03489539 0.09967183 0.05199826 0.10625002 0.09256915 0.051812373
0.07373201 0.0402238 -0.060606662 0.12662528 0.099943265 0.017431661 0.027923709 0.041054152
0.02034671 0.058316927 0.10313454 0.0874426 0.022340193 0.049667757 0.048511405 0.101896845
0.112145565 0.036020067 0.041522708 0.055146933 0.09344224 0.08577092 0.022008425 0.03689721
0.013709117 -0.017526789 -0.07434441 0.09523065 0.046001382 0.004069924 0.044011336 0.0015906375
0.021323783 -0.10486904 0.054136463 -0.0988901 0.059798066 0.08337903 -0.10379333 0.028685221
-0.031772476 0.075328246 0.018683517 -0.021345628 0.021892434 0.0014519868 0.04421566 0.055355433
0.060754955 0.06809088 0.0848691 -0.07891744 0.0036384484 0.105737075 0.040135864 0.0035171353
0.046120618 0.023523735 0.1116772 0.016534694 0.03954006 0.08734234 0.04652873 0.031752754
0.018672878 0.014790822 0.058254413 0.07197614 0.04046741 -0.022687318 0.040884107 0.030459968
0.06517801 0.107781574 -0.08748539 -0.076433524 -0.01351413 0.0258662 0.07300577 0.10791052

write_head.key_layer.bias f4 [20]
00000000: d15c 303e cf5f 58bd b53c bc3c d131 b03b
00000010: dceb 12be 57f2 063e ffe1 a03d de82 863d
00000020: 5ced 43be 4aec d53d ea06 efbd a77c bdbd
00000030: 3e1d 4e3e 5c73 babc 21b9 e4bd dbd7 d2bd
00000040: 763b ccbd 8a98 71be b5bd df3c 83a3 39be
0.17222907 -0.052825745 0.022978166 0.0053770323 -0.14347786 0.13178383 0.07855605 0.0656793
-0.19133514 0.10445459 -0.11671241 -0.09252291 0.20128343 -0.022760086 -0.11168123 -0.102950774
-0.09972279 -0.23593345 0.027312139 -0.18128781

write_head.beta_layer.weight f4 [1, 100]
00000000: e6a3 d93e a3ae 213d a6b9 5c3e db87 ba3e
00000010: 735e a53e ee56 ba3e 1baa d23e 7768 c63e
00000020: 1116 b93e 0439 323e 67cf b73e 858f 493e
00000030: c6ad c73e 5ade c83e abad 393e 8f62 c33e
00000040: 692b 6a3d 9663 a93e be2b d03e 9975 f13e
00000050: 3230 d53e f415 bd3e 0a8f ae3e ba77 b33e
00000060: 62e0 953e 59db bb3e ba85 ae3e baac d13e
00000070: 6795 bb3e 40af cb3e 06de 953e d6d8 c13e
00000080: aa87 6b3e cd34 083f 1279 ce3e 07f3 c83e
00000090: 18c9 a43e 9126 a33e 9fcd 9b3e cb67 8d3e
000000a0: 3a79 d73e e4f8 d03e 0114 c63e a09c d13e
000000b0: 495c dd3e 38fd 4f3d 21b7 0a3f ca0b b73e
000000c0: f78d 6a3e d205 a03e c697 303e 9323 423e
000000d0: 86b4 b43e 72f2 073f b2e3 be3e 68c7 a33e
000000e0: 0fb1 ac3e f00d b23e 708a 9c3e aacd a73e
000000f0: 4279 c13e fe47 8b3e d44a b63e a4b9 bd3e
00000100: 0b78 961b ac25 883e 60c5 ac3e 0d7b bd3e
00000110: d2d9 803e a629 d13e 38d6 6d3e b541 bd3e
00000120: 22e5 d63e ab98 9a3e 3c97 9a3e a1f3 d43e
00000130: 9d9a af3e cc5e 103e 20db a83e f248 c23e
00000140: 6117 b33e d173 953e 1c1f af3e a114 d53e
00000150: 2924 bb3e 28f2 1b3e fc2a d03e abea 953e
00000160: 6249 ad3e a661 ae3e 7f11 e63e 39bf c83e
00000170: 33e3 b33e 5c46 e73d 2ecd ee3e 89ff db3e
00000180: d5bf d13e 7b45 a53e 474c 9a3e eba8 103e
0.42507857 0.039473187 0.21555194 0.36431774 0.32298622 0.36394447 0.41145405 0.38751575
0.36149648 0.17404562 0.35900423 0.19683655 0.38999766 0.3923214 0.18132655 0.38161132
0.057170305 0.3308379 0.40658373 0.47160032 0.41638333 0.3693081 0.34093505 0.35052282
0.29272753 0.36690786 0.340864 0.40952092 0.36637422 0.39782143 0.29270953 0.37860745
0.2300097 0.5320557 0.40326744 0.39247915 0.32184672 0.3186536 0.30430314 0.2761825
0.42084676 0.40814888 0.38687137 0.40939808 0.4323447 0.050778598 0.5418568 0.35751182
0.22905718 0.3125444 0.17245397 0.18958883 0.35293978 0.5310432 0.37283093 0.31988072
0.33728835 0.34776258 0.3057437 0.32774097 0.37787825 0.27203363 0.35603964 0.37055695
2.4892994e-22 0.2659124 0.33744335 0.37007943 0.25166184 0.40852088 0.23226249 0.36964193
0.4197169 0.301946 0.30193508 0.41592124 0.34297648 0.14098662 0.3297968 0.37946278
0.34978774 0.29189923 0.34203422 0.416173 0.36551026 0.15229094 0.40657794 0.292806
0.3384505 0.34058875 0.44935223 0.3920839 0.35134277 0.11292717 0.46640915 0.42968395
0.4096667 0.32279572 0.3013632 0.14126937

write_head.erase_layer.weight f4 [20, 100]
00000000: 935b e739 3ad1 a1bd 8d58 babd b71b 493d
00000010: 1501 363d 845a 753b 9ebd 463b 0910 bd3d
00000020: b6c7 cf3d c6b6 d3bd 9257 8a3d f9ab d1bd
00000030: fb80 363d 86cf 813d 92a2 c2bd 6579 dc3d
00000040: 727b d9bd 0d2b 8a3d c672 bf3c 454b 45bd
00000050: d576 643d 6f4b 1a3d 1dd1 4a3d 5b77 bb3c
00000060: 9af3 993d c6d1 213c 95d2 4f3d 0a8f 723d
00000070: 7af3 c33b 8752 843d 0b38 5e3d e0a2 303c
00000080: 57e3 293b 52fd 863d bf58 c73d 175e ff3c
00000090: 8c2f 233c beac 5c3d 3976 dd3c 3ad3 c03b
000000a0: 085b bd3d f240 a13d a9e8 753d 4c43 7b3d
000000b0: e78a 3c3d 182b c93d 0e90 9c3d 86b9 de3d
000000c0: 9c71 cf3d 4d33 083d 2298 a8bd b598 aabd
000000d0: 8f10 00bb 6c93 8cbb 36eb c73d e178 533d
000000e0: d8c3 6d3c d8d4 113d ae53 9f3d 2348 453c
000000f0: 93c3 cc3d 24df 273d b943 7abb 8acd 213d
00000100: 3563 699d c7ba 4f3d 558b 203d df47 3a3d
00000110: 8bbf 5b3d d5ef ffbc 377c 20bc d5d7 563d
00000120: 102b 08bb 88c3 ca3c 9638 813d f461 813d
00000130: e745 b63d e4df 91bd f4fc 21bd ed9b 513d
00000140: af04 c63c 6880 0c3d 9a98 5f3d 2fde 2a3d
00000150: ebf5 1c3d a309 82bd 2ee8 703d cf39 513d
00000160: 1431 483b 7868 513d ce02 b53c b9ab 443d
00000170: c563 743d fabe dfbc c900 343d 91af 423d
00000180: b336 813d 2421 9c3d 1294 c0ba 9e14 57bd
00000190: c050 203d e32e ba3b 2105 153c a65b 073b
000001a0: c149 c63b 1ffa b53c b076 813c 60e6 0a3d
000001b0: b04a 4e3d 5210 353c 90e3 113c 855e e73b
000001c0: bb8c 9d3c 6a21 633d 2aee 303c 35dd 163d
000001d0: 650a e23b c03d 0c3d c26c 0b3d 025f 14bb
000001e0: c100 433b 65df 0c3d 7337 9b3c e937 6e39
000001f0: 7f92 033d c1f4 893c d503 e13b 78d0 ec3c
00000200: 50e6 b33c 87f3 1cbb c427 f23b c843 033d
00000210: 6104 0a3c ea9a 93bc 19cf 7e3c 09d2 433b
00000220: b5ee ae3b 7432 bd3c 7373 8ebb 1f26 563c
00000230: c0ab 303d 3d23 2b3d 67df 563b 0240 80bc
00000240: 6798 533d 7523 393d 4f52 613d 6953 023d
00000250: a872 563c 84d7 0dba 36fc 283c 0898 153c
00000260: cdf6 983c a575 e43c 8110 e23b a8cf 823c
00000270: ad39 ac3c 627b 933b dadc 8d3c b4e0 313c
00000280: 0885 4c3d c8a1 883b 9513 80bb a4a7 cb3c
00000290: e930 f41b eb55 adbb 4ded f13c 4cea 003d
000002a0: 2576 013c c817 883c 40fe 613c 9e7b edbb
000002b0: 01ca f83b c504 c83a 154c bf3c f9f9 0a3d
000002c0: f3eb 803c 50c6 a23b 3ede 063d 1a88 c53c
000002d0: f178 c63c 48f1 ae3c 5681 853b 9bd3 2f3b
000002e0: 5234 103c 12c6 a63b 1d09 0f3c f2c4 34bc
000002f0: f496 ec3c 0f86 a5bb 2101 133d d04c e33c
00000300: c500 113d cb65 f53a 244b 4a3c 4f62 f43c
00000310: c9b6 fa3c 8f09 f13c 0082 153c 01ce a83b
00000320: 05db ae3c aaa8 95bd 8d31 b6bd 819c 333d
00000330: 545d fa3c f1c5 623c 6506 923c 77fd 943d
00000340: 85c5 c33d 618a e1bd 94d8 813d 9418 e7bd
00000350: 449b 593d ed53 853d 5116 e4bd 66fc cd3d
00000360: 2b22 cebd 9012 8d3d b5cc 153d ad5f d3bc
00000370: fc8b 783d 32b5 203d b989 613d 590c 1b3d
00000380: 3a70 8b3d b8ee 023d b901 6f3d 9ab7 573d
00000390: 60f4 9f3c c51d 683d fb6d 313d bc3a 9e3c
000003a0: b3ce 803a 3c33 873d 903b 933d 57f0 0b3d
000003b0: 8943 9c3c e60d 703d d53e eb3c 8371 5c3b
000003c0: 8263 a23d 67e6 593d ab89 913d 4764 563d
000003d0: ce6f 843d 0a9a 683d e995 c93d 6a64 a63d
000003e0: 0feb b33d 1394 273d 712e a1bd fe50 b9bd
000003f0: e30e e63b d65c 813c 9f6a 9c3d b138 433d
0.00044127982 -0.07901235 -0.09098921 0.049098697 0.044434626 0.0037437985 0.0030325423 0.09231574
0.10145514 -0.10337596 0.06754984 -0.10237879 0.0445566 0.0633841 -0.09503664 0.10765342
-0.106192484 0.067464925 0.023370158 -0.048167486 0.05577739 0.037669595 0.049515832 0.022884062
0.075171664 0.009876674 0.050737936 0.059218444 0.0059799524 0.06461053 0.054252665 0.01078102
0.0025922859 0.06591286 0.09733724 0.031172795 0.0099600665 0.053875677 0.027033912 0.005884555
0.092458785 0.078737155 0.060036335 0.061343476 0.046030905 0.098226726 0.07644664 0.108752295
0.10129091 0.03325205 -0.08232142 -0.08329908 -0.001954112 -0.004290035 0.0976166 0.05162895
0.014512025 0.035603374 0.077796325 0.0120411245 0.0999824 0.040984288 -0.0038187339 0.039502658
-3.0888582e-21 0.050715234 0.039195377 0.045478698 0.053649466 -0.03124229 -0.00979524 0.052451927
-0.002077762 0.02475144 0.06309621 0.06317511 0.089000516 -0.07122782 -0.039547876 0.051174093
0.024172155 0.034302145 0.05458889 0.041715797 0.038320463 -0.06349494 0.058815174 0.05108052
0.003054683 0.05112502 0.022096064 0.04801533 0.05966546 -0.027312744 0.04394606 0.047530714
0.06309261 0.076235086 -0.0014692566 -0.052509896 0.03913951 0.005681859 0.009095461 0.0020653992
0.0060512726 0.022213994 0.015803665 0.03391111 0.050364196 0.011051254 0.008904353 0.007060828
0.019232145 0.055451788 0.01079897 0.036832053 0.006898212 0.034238577 0.034039266 -0.0022639637
0.0029755088 0.034392733 0.018947339 0.00022718277 0.03212213 0.01684034 0.006866912 0.028908
0.021960407 -0.0023948865 0.0073899943 0.032047063 0.008423896 -0.018018205 0.015552306 0.002987983
0.0053385147 0.023095347 -0.0043472587 0.013070612 0.043132544 0.041781653 0.0032786967 -0.015655521
0.051659014 0.04519983 0.055010136 0.031817827 0.01308886 -0.00054108375 0.010314038 0.009130485
0.018672371 0.027888129 0.00689894 0.015968159 0.021023596 0.0045007924 0.017317224 0.010856796
0.049931556 0.0041696765 -0.0039085844 0.02486021 4.0398021e-22 -0.0052897832 0.0295321 0.031473443
0.007901703 0.016612902 0.013793528 -0.0072474023 0.00759244 0.001526021 0.023351708 0.0339298
0.01573751 0.0049674883 0.03292679 0.02411275 0.024227591 0.021355286 0.004074256 0.0026829008
0.008801537 0.00508953 0.0087302 -0.011033284 0.028880574 -0.0050513814 0.03588975 0.027746588
0.035401125 0.0018722353 0.0123470165 0.029832033 0.030604737 0.029423503 0.009125233 0.0051515107
0.021344671 -0.07307561 -0.0889617 0.043850426 0.03056208 0.013841138 0.017825315 0.07274907
0.09559158 -0.11012722 0.06340137 -0.11283985 0.05312659 0.06510148 -0.11137069 0.10057907
-0.10065111 0.06888306 0.036572177 -0.025802458 0.060680375 0.0392353 0.055062983 0.037853573
0.06808515 0.03196594 0.058351252 0.05266533 0.019525707 0.056669015 0.043317776 0.019315116
0.0009827226 0.06601569 0.07189095 0.034164753 0.019075172 0.058607005 0.028716484 0.0033636994
0.07929136 0.053198244 0.07106336 0.052341726 0.064666376 0.056787528 0.09843046 0.08124621
0.08785068 0.0409127 -0.07870186 -0.09048651 0.0070208176 0.015791338 0.07637524 0.047661487

write_head.erase_layer.bias f4 [20]
00000000: d18f 693c 8c36 fd3c 8a54 4f3d 397f 9a3d
00000010: 84e3 473d 59d1 853d ce47 e93c 775d 0d3b
00000020: 99b1 673d 5572 3cbd 519b f23c e67d 903d
00000030: 8229 743d e939 123d 85a0 8c3c 7992 923d
00000040: c169 3a3d 0425 05bb cb7c 48bd b3ab 83bd
0.01425548 0.030909799 0.050617732 0.07543797 0.04880096 0.065340705 0.028476622 0.0021570602
0.056565855 -0.046007473 0.029615076 0.07055263 0.059609897 0.03569976 0.017166385 0.07156844
0.04551101 -0.0020316252 -0.048947137 -0.064292334

write_head.add_layer.weight f4 [20, 100]
00000000: 15b6 f23c ff07 0f3c 8b71 333b 473f 1b3d
00000010: 58c2 7e3c 76e2 c33d 5d9e fa3d e1f7 943c
00000020: 0379 3f3d 42bd f33a e8fa cd3d d50f 5f3c
00000030: c049 ab3d dc4e c23c c5d1 7c3a cfe7 c13c
00000040: affb 3f3c 19fb 143d 81a1 603d ce3d 9b3d
00000050: 933e 4d3d 168c 9c3c 2691 2e3d 2335 c73c
00000060: 2e14 6e3d 265c b33d f2e0 6e3d a16f 6b3d
00000070: d7c8 8e3c 01e9 253d af87 953d 2b76 773d
00000080: 5117 963c d0a7 4a3d 911b 073d 05df 4a3d
00000090: b75c bd3d 6ee0 583d b857 ca3c 1bf1 9a3c
000000a0: d168 533d 4e0b f33c 0129 823d fa1a a73c
000000b0: 8360 513d e5c5 513c 646b f63c 9c71 313c
000000c0: 98c2 393d 0136 bc3c a217 09bc 2ec4 453c
000000d0: 9139 5f3c 2d99 b83d 5ec3 d93c dab0 703c
000000e0: 7708 3f3d 983a e53c d203 6a3d a83d e23c
000000f0: 75a1 263d 5312 3e3d 835e b33c 9d73 b13d
00000100: 3a46 791b a697 ec3c 700e 313d e88c 1c3d
00000110: 2306 b23c 38f7 9c3d a215 853c 2e58 563c
00000120: 0c0d 663d 31b6 5e3d b6b2 e63c cb46 9a3d
00000130: d97f 6b3d faab 0db9 ba77 8a3d 7a1a 313d
00000140: 01ce 513d 2450 0c3d 7c46 853d fc11 fa3c
00000150: 8d4e 543d fae1 7d3c 876c cb3c 960e 7d3a
00000160: 5bcd 0c3d e5b6 873c dd5a 0c3d 2ae4 583d
00000170: c95e 283d fb36 e3bb 2345 b33d 14d8 ec3c
00000180: 09c1 fa3c 1405 213d 24fc 903c 6298 debb
00000190: 3d16 44bd a57c 15bd 240e eebd af73 db3d
000001a0: 5071 e23d 5a8b d5bc 60ec 14bd 4aae b2ba
000001b0: f471 2abc c98d edbd bd17 31bd 5c1b bcbd
000001c0: db42 ebbd cb33 61bd 4a4e d9bd c4a3 23bd
000001d0: 19a9 68bd 818b debc 0356 3c3d bac9 223d
000001e0: 23e6 443c b57a 13bc c53b b4bd 23bf d13c
000001f0: 83ac 2bbd d808 f8bc 8e54 8d3d ac78 ed3d
00000200: 9ccd 88bd 2c5b a73d 16e7 cf3c 6f80 86bd
00000210: 2917 3f3d 370c 523e 2923 943d d3ed fd3c
00000220: 3e6a 963d f789 bfbd e4ec 693d 0e7c be3d
00000230: 7257 103d e5c8 fd3c 91bd ec3c f0c7 223e
00000240: b483 0ebe 966c 463d f2f0 abbc 6960 abbc
00000250: cab9 d53c d04c 463d 45a1 01be be58 c6bd
00000260: 5b9f abbd 427a e63b 4178 e43d 43bd d23c
00000270: 0077 c9bc 4e4b e03d 4646 5dbc 975e 733d
00000280: 32a8 f9b9 ff25 88bd bc25 b23d 9786 543d
00000290: d033 0c9b 6889 813d 09b2 c1ba f6e2 9bbc
000002a0: bece 9b3d bc47 7e3b d1b5 843d 5b47 a33d
000002b0: fe60 3bbc 956d 41bc 032b b2bd 3ddd 713d
000002c0: 2502 02bd 29c5 e4bd 00e5 2fbd ad1d b0bd
000002d0: e2b7 25bd a015 c8bd ffef 973c 4f06 a83d
000002e0: 9394 bd3d 963d eabd 91e7 fc3d e9be f33d
000002f0: 34aa 81bd 17fb ba3d 8165 a7bc b596 c9bd
00000300: e85b 10bd 6004 0dbe ece1 8e3d f053 62bd
00000310: 4c01 3abd 8825 7abc d705 a93d bf11 02be
00000320: c073 e13b 1a8c 23bc 7a93 8d3b 391f 11bd
00000330: bd31 d1bc d8d4 febd 120b 4fbe c579 8a3c
00000340: d821 98bc dceb 68bc 0504 e3bd d1e7 d33c
00000350: 9537 c3bd 25cf 8dbd 811b 4cbd fac2 983c
00000360: 87bb 5ebc bdb9 133c 1470 a3bd 466f eebd
00000370: 0074 5bbd 7aca 01bc 9545 d7bd c970 66bd
00000380: 1dbe 5fbc 0a10 fdbd 9388 b7bd 6c22 a13d
00000390: 950d 5e3c 1ecc d5bd f946 cabd 0bc9 18bd
000003a0: e0e5 913c 08f7 c8bc 192a 05bd 6c25 1dbd
000003b0: b0b3 0bbe e20a babd 9fc9 b0bd d15f 8fbc
000003c0: 1904 dbbc 65af 32bc 85b9 09bb d917 8abd
000003d0: ec30 c03b 3bc9 a13c 3528 c13d a682 82bc
000003e0: b74b 7dbd c383 0dbd 2f68 f33c 1019 b63c
000003f0: 7176 3fbd 0d7d 57bd ae1c 26bd e8b6 b3bc
0.02962784 0.008729934 0.002738091 0.037902143 0.015549265 0.09564678 0.12237237 0.018184604
0.046746265 0.0018595832 0.10057622 0.0136146145 0.08363676 0.023719244 0.0009644295 0.023670105
0.011717721 0.036372278 0.054841522 0.07580148 0.050108504 0.019109767 0.042618893 0.02431733
0.058124714 0.0875781 0.058319993 0.057479504 0.017429752 0.040505413 0.0730127 0.060415428
0.018321665 0.049476445 0.032985274 0.049529094 0.092461996 0.052948408 0.02470003 0.018913796
0.051613633 0.029668476 0.06355477 0.020398606 0.05111743 0.012803529 0.030080505 0.010830309
0.045351595 0.02297497 -0.008367451 0.012070699 0.013624565 0.09013591 0.026582416 0.014690602
0.046638932 0.027982041 0.05713255 0.02761729 0.04068132 0.046404194 0.021895653 0.086646296
2.0619489e-22 0.028880905 0.04322666 0.038220316 0.021731442 0.07664341 0.016245667 0.013082547
0.056164786 0.05437297 0.028161388 0.07533034 0.057494972 -0.00013510874 0.06761117 0.04323814
0.05122185 0.034256116 0.065075845 0.030526154 0.051832724 0.015495772 0.024832023 0.00096533576
0.03437553 0.016566703 0.03426634 0.05295197 0.04110602 -0.0069340444 0.08753421 0.028911628
0.030609624 0.039311484 0.017698355 -0.006793068 -0.04787277 -0.036495823 -0.11623791 0.10715424
0.11056769 -0.026067425 -0.036358237 -0.0013632264 -0.010403145 -0.11599309 -0.04323553 -0.09184906
-0.11487361 -0.054981034 -0.106106356 -0.0399511 -0.05680189 -0.02716613 0.045980465 0.039743163
0.0120177595 -0.009001424 -0.08800463 0.025603836 -0.041912567 -0.030277655 0.06900893 0.11595282
-0.06679842 0.081716865 0.025378745 -0.065674655 0.046652947 0.20512472 0.07233269 0.030997192
0.07344483 -0.093524866 0.057110682 0.09301005 0.035239644 0.030979583 0.028898986 0.15896583
-0.13917428 0.0484434 -0.020988915 -0.020919995 0.026089568 0.048413098 -0.12659176 -0.09684895
-0.08380004 0.0070336172 0.11155749 0.025725013 -0.024592876 0.10951863 -0.013505524 0.05941638
-0.00047618296 -0.06647872 0.086986035 0.051886167 -1.159727e-22 0.06325036 -0.001477779 -0.019029122
0.07607792 0.0038800081 0.06479991 0.07972594 -0.011436699 -0.011805912 -0.0869961 0.05904888
-0.031740326 -0.11170418 -0.042943 -0.0859941 -0.040458567 -0.0976975 0.018547056 0.08204328
0.09256854 -0.11437528 0.12348855 0.119016476 -0.06331292 0.09129923 -0.020434143 -0.09843198
-0.0352439 -0.137712 0.06976685 -0.05525583 -0.045411393 -0.015267737 0.08253067 -0.12702082
0.0068802536 -0.009982133 0.004320559 -0.035430167 -0.025536412 -0.124429405 -0.20219067 0.016903767
-0.018570825 -0.0142163895 -0.11084751 0.025867375 -0.09532086 -0.06924275 -0.049830917 0.01864766
-0.013594515 0.009016451 -0.079803616 -0.116423175 -0.053577423 -0.007921809 -0.105113186 -0.056259904
-0.013656166 -0.12356575 -0.08961596 0.078678936 0.013553043 -0.10439323 -0.09876818 -0.037301105
0.017809808 -0.024531856 -0.03251085 -0.038365766 -0.13642764 -0.09084107 -0.08632206 -0.017501744
-0.026735352 -0.010906075 -0.002101512 -0.0674283 0.005865207 0.019749274 0.09431497 -0.015931439
-0.061839785 -0.034549486 0.029712765 0.022228748 -0.046743814 -0.052609492 -0.040554695 -0.021937802

write_head.add_layer.bias f4 [20]
00000000: e3f1 a23d 4abd 2ebd a55f 02be ab15 953d
00000010: c528 b43d e4e1 b9bd ec52 783d 72a4 b13d
00000020: 69ac 65bd 91a8 9f3d d2b4 9fbd 6be3 0abd
00000030: d1ee 9e3d 222e b2bd 862c a4bd fc0c 1bbd
00000040: a0c8 e7bc 678f d1bd 3765 cf3d 02e8 9bbd
0.079562925 -0.04266099 -0.12731798 0.072795235 0.08796839 -0.09076288 0.060625955 0.086739436
-0.056072626 0.07795823 -0.077981606 -0.03390829 0.07760394 -0.087002054 -0.08016305 -0.03785418
-0.028293908 -0.1023243 0.10126727 -0.07612611
