Inversaobit-Emanuel/checkpoint/best_model_epoch_10.pth (torch, 65183 bytes, 15 tensors)

memory.mem_bias f4 [128, 20]
000000 c6 72 78 3d 40 30 a8 bc 02 ab 8b bd 52 89 82 bd
       0.06065633 -0.02053082 -0.068197265 -0.06373848
000010 66 6b 26 3d 0a 0c 32 3d d4 7d 96 bc 52 2b 37 3d
       0.040629767 0.043468513 -0.018370546 0.044719048
000020 fc e0 f6 3c 10 ef 2f 3c 85 c4 a7 3d ed e2 38 bd
       0.030136578 0.010738149 0.0819178 -0.04513829
000030 55 67 91 bd 70 aa 29 bc 00 9a bb b9 b9 0b cb 3d
       -0.07099787 -0.010355577 -0.00035782158 0.09914345
000040 c0 c2 9d bd 50 96 90 bb da 90 78 3d 0c ec 8c 3c
       -0.07703161 -0.00441245 0.060685016 0.0172024
000050 a3 91 35 bd c8 db f9 bc 5e 41 8a bd c0 92 b3 bc
       -0.044328343 -0.030500308 -0.06750749 -0.021920562
000060 7a 08 4b 3d 77 38 c9 3d b7 e4 b9 bd 47 9b b5 bd
       0.04956863 0.09825223 -0.09076827 -0.088675074
000070 30 4f 4b bc 74 cd b5 3c b0 52 2d bd 80 18 45 3c
       -0.0124090165 0.022192694 -0.042315185 0.012029767
000080 b9 c0 aa 3d 99 5b 84 3d 30 07 21 bc d3 02 54 bd
       0.0833754 0.06462783 -0.009828374 -0.051760506
000090 00 ff b2 bc 27 df af 3d 33 14 2e bd 8d 7e 41 bd
       -0.02185011 0.08587485 -0.042499732 -0.04723983
0000a0 d4 5d dd 3c 00 ab ef b9 bb 88 a5 bd bc 06 f7 3c
       0.02702228 -0.00045713037 -0.0808272 0.030154578
0000b0 e0 e1 e6 3b 75 f1 c4 bd 2c 60 a3 3c 7a 39 4b bd
       0.0070459694 -0.09616367 0.01994332 -0.04961536
0000c0 80 d2 39 ba 00 ec 2c b9 3d c9 a4 bd 64 e2 da 3c
       -0.0007088557 -0.00016491115 -0.08046196 0.02671928
0000d0 62 2f 89 bd b5 f3 ab 3d 55 19 84 3d c0 1c 42 bb
       -0.06698491 0.08396093 0.06450144 -0.0029619187
0000e0 68 3a b0 3c cc e1 eb bc d2 87 60 3d fd 7e 26 bd
       0.021512225 -0.028794192 0.05481703 -0.04064845
0000f0 c7 61 93 3d 0d 9a 84 3d d4 cb e8 bc a9 ac 8b 3d
       0.07196384 0.06474695 -0.028417505 0.06820042
000100 e2 f0 6d 3d 05 d3 94 3d c0 78 7a bd 08 51 d6 bc
       0.058091052 0.07266811 -0.061150312 -0.026161686
000110 d2 43 03 3d ef ec a8 3d 00 b8 48 3a 2e d9 0a 3d
       0.0320471 0.082483165 0.00076568127 0.033898525
000120 dd 6a 67 bd 4c bb e4 bc 60 83 96 bc 78 49 80 bd
       -0.056498397 -0.027921341 -0.018373191 -0.06264013
000130 7c 68 0b bd 9f 72 bd 3d 58 ac 5e 3c 78 4a fd bc
       -0.03403519 0.09250378 0.013590895 -0.030919299
000140 be 41 16 3d f1 5a 84 3d f4 29 fd bc 50 17 bb 3b
       0.03668379 0.06462658 -0.030903794 0.005709566
000150 98 fb a4 bd 9e 9e a5 bd d1 b6 88 3d d4 4a cb 3c
       -0.080558 -0.080868945 0.066754945 0.024815954
000160 db 07 bb bd b1 ec 87 3d 60 6d a6 bc c4 19 80 bd
       -0.09132358 0.06636942 -0.020315826 -0.062549144
000170 e4 07 e2 3c 8e 6b 6c 3d 2a 22 02 bd ac 01 bd bc
       0.027591653 0.05771976 -0.031770863 -0.023072086
000180 33 8f af 3d c3 d8 a7 3d fa 81 7d 3d 6c 08 c8 3c
       0.08572235 0.08195641 0.061891533 0.024418078
000190 af 7e 8b 3d 98 07 f0 bc 8c 37 f0 3c 57 a4 b0 bd
       0.06811272 -0.029300496 0.029323362 -0.08625095
0001a0 98 33 85 3c e0 85 e1 bc d3 fb 89 3d 33 69 c5 3d
       0.016259953 -0.027529657 0.06737485 0.09639206
0001b0 40 bf de bc b2 46 15 3d 93 02 91 bd c5 ec b4 bd
       -0.027190804 0.036444373 -0.07080569 -0.08834223
0001c0 58 f9 36 3c 23 f8 2b bd a0 10 33 3b 60 dd 95 bd
       0.011167847 -0.04198469 0.0027323142 -0.073176146
0001d0 48 8d a5 bc 70 55 27 3c 17 a8 c1 3d 42 a4 52 3d
       -0.02020897 0.010213241 0.09455889 0.05142618
0001e0 ce 6f 2d 3d 1f 9c af 3d 37 4e c4 3d a8 66 8d bc
       0.042342953 0.085746996 0.09585231 -0.017260864
0001f0 46 f6 5f 3d 9d 4b 68 bd f4 7b b6 bc 19 cd 93 3d
       0.054678224 -0.056712735 -0.022275902 0.07216854
000200 54 72 89 bd 09 5c cb 3d 60 83 a5 bb d2 d6 97 bd
       -0.067112595 0.09929664 -0.0050510615 -0.074140206
000210 90 d8 5e 3c 66 e0 55 3d fd 40 4b bd 00 d4 20 bc
       0.013601437 0.052215956 -0.049622525 -0.00981617
000220 b8 36 88 bc aa bc 7f bd d4 11 04 bd 8a 71 77 bd
       -0.016627654 -0.062435783 -0.032243565 -0.060411014
000230 bd 27 9b bd a0 cb 8b bd 92 b8 24 3d 7d 98 a3 3d
       -0.07575939 -0.06825948 0.040215082 0.07988069
000240 6f f1 a2 3d a8 74 ea bc 62 99 30 3d 0c 6d 86 3c
       0.07956206 -0.02862008 0.043115027 0.01640942
000250 07 b1 84 3d 00 dd 0a 3a 10 35 5d bc ed 5a 64 bd
       0.06479078 0.0005297214 -0.013501421 -0.055750776
000260 63 ea 7d bd 18 fe b6 bd 85 3b b9 3d 18 19 44 bc
       -0.061991107 -0.08935183 0.090445556 -0.011968873
000270 bd 35 8b bd 60 5c 06 bb f1 1e a7 3d 61 00 88 3d
       -0.06797359 -0.0020501837 0.081601985 0.06640697
000280 60 ba 3e bb 2d d3 94 3d 90 aa 42 3c c6 dc 4c 3d
       -0.0029102787 0.07266841 0.011881486 0.050015233
000290 00 7c 4a 39 7a 16 5b 3d ad a9 85 bd c0 78 b2 3a
       0.00019310415 0.053488232 -0.06526504 0.0013616309
0002a0 20 aa f8 bb d0 82 64 bd 54 6f d9 3c 1d f0 73 bd
       -0.00758864 -0.055788815 0.026542343 -0.05955516
0002b0 fa 1c 06 bd 61 a4 af 3d 00 30 59 bb b3 7c a5 3d
       -0.032742478 0.08576275 -0.0033140182 0.08080425
0002c0 a5 c6 8a 3d 02 e1 10 3d dd 4a 68 bd 8d a0 6b bd
       0.0677617 0.035370834 -0.05671202 -0.05752616
0002d0 a8 6d 8c bc 6e 48 69 3d 00 38 0a bc 30 de 44 bd
       -0.017142132 0.05695384 -0.008436203 -0.048063457
0002e0 e0 1b 8e 3b 17 48 6e bd f2 ab 41 3d c8 6f c3 3c
       0.004336819 -0.05817422 0.04728312 0.023857012
0002f0 80 d4 d8 3a aa 7f 9b bd fd 8a 90 3d 08 13 a9 3c
       0.0016542822 -0.07592709 0.0705776 0.020638958
000300 f6 39 06 bd 57 da 47 bd 07 28 a5 3d 37 ac 9e 3d
       -0.03277012 -0.04879221 0.08064275 0.07747691
000310 ad 31 5b bd 47 8b b4 3d c0 a8 3b 3c a6 a3 05 bd
       -0.05351417 0.088156275 0.011453807 -0.03262677
000320 98 0d ee bc 40 89 69 bb 18 d4 ca bc 93 27 8d bd
       -0.029059216 -0.0035634786 -0.024759337 -0.06892314
000330 5e c6 18 3d 6c 22 ed bc d2 fe 36 3d 15 3c 82 3d
       0.037298553 -0.028947078 0.04467661 0.06359116
000340 83 9e b4 bd 42 27 20 3d 00 7f b8 bc e5 91 93 3d
       -0.08819296 0.03909994 -0.022521496 0.072055615
000350 5f f3 8f 3d 80 4e 2b bc 70 7a 2a 3c 80 db b9 3a
       0.07028841 -0.010455728 0.010405168 0.0014179796
000360 12 6e 5e 3d 9f 08 c9 3d 60 ff 73 bb 5a 3b af bd
       0.05430419 0.098160975 -0.0037231073 -0.08556242
000370 cc 90 c7 3c 80 bc 10 3c c0 85 09 3c 0a 08 0e 3d
       0.024361037 0.008834004 0.008393705 0.034675635
000380 70 9a 0f bc f0 d3 6f 3c 3b 35 a2 3d b3 a7 b7 3d
       -0.008764848 0.014637932 0.07920309 0.08967533
000390 b4 22 9a 3c e5 bc 8f 3d 89 74 99 3d 00 b5 cb bd
       0.018815376 0.07018451 0.074929304 -0.099466324
0003a0 67 69 be 3d a2 0b 75 3d 73 81 7b bd af 13 92 3d
       0.09297448 0.059825547 -0.06140275 0.071326606
0003b0 e1 6c bc 3d c7 e0 88 3d c0 a6 04 3b da 2f 1a bd
       0.092004545 0.06683498 0.0020240992 -0.03764329
0003c0 43 b9 80 3d aa db 0a bd 11 aa ae 3d 43 33 68 bd
       0.06285336 -0.033900894 0.08528531 -0.056689512
0003d0 af a0 b0 3d b0 f4 d4 bb 98 d7 cb 3c bf 03 b5 bd
       0.08624398 -0.0064988956 0.024883077 -0.08838605
0003e0 80 01 f8 bb 43 68 a4 bd 51 2a a2 3d 8a 02 6a 3d
       -0.007568538 -0.08027699 0.079182275 0.057131328
0003f0 b3 2e 2d bd 5d 2e 52 bd 40 a9 bc 3c 5d 9d 85 3d
       -0.042280864 -0.051313747 0.023029923 0.06524155

controller.0.weight f4 [100, 28]
000000 87 02 13 3c e4 51 e2 be 23 0f 95 3e 21 cc 06 3d
       0.008972771 -0.44203103 0.2911311 0.032909516
000010 bd df 91 be 17 eb d3 3e cc 72 96 3b 39 f0 f0 3e
       -0.2849101 0.41390297 0.0045913216 0.47058275
000020 bb 2e 10 3c d5 0e 40 3c d7 1a 72 3d fe cd d0 3c
       0.008800204 0.011722286 0.059107628 0.02548885
000030 1c 36 b0 3c 20 d8 9e bd fb d1 28 3e 5c ec 1d 3e
       0.021510176 -0.07756066 0.16486351 0.15422195
000040 84 de c4 bd 3e 45 ff 3d 3a 23 3e be 0e 2c e1 3b
       -0.09612754 0.12464379 -0.18568125 0.006871707
000050 d9 43 98 3d 1f e3 68 3c cf 55 a8 bd 99 2f cb bd
       0.07434816 0.014214306 -0.08219492 -0.09921188
000060 d8 3d 32 3d fe 68 15 be 6a c4 d0 3c 2d eb e4 bd
       0.04351601 -0.14590833 0.025484283 -0.11177669
000070 cb 42 34 be 2f 57 1f be f3 42 0c be df 93 0d be
       -0.17603604 -0.15560602 -0.13697414 -0.1382594
000080 8c 3f 41 be a6 8f 88 be 3c 1c 31 be cd 62 d4 be
       -0.18871897 -0.26672095 -0.17295927 -0.4148163
000090 3e 78 c4 3d 55 44 38 bd 7f 12 95 3b e4 da 51 3d
       0.09593247 -0.04498704 0.004549324 0.05123414
0000a0 52 c6 74 3d 61 aa ce bd 60 7d 51 3d c6 f0 db 3d
       0.059759445 -0.10091091 0.051144958 0.10739283
0000b0 af b4 81 bd a1 48 ea 3c 8d 3a 89 bd 25 d2 19 3d
       -0.06333291 0.028599085 -0.06700621 0.037553925
0000c0 3e d3 93 3d 81 63 a8 bd d5 e9 79 bd 1f 51 b7 ba
       0.072180256 -0.08222104 -0.061014015 -0.0013985968
0000d0 82 13 0f bd 77 d9 b4 bd e1 27 01 3e 1b 3c 86 bd
       -0.034930713 -0.088305406 0.12612869 -0.06554433
0000e0 d3 87 ac be cc 5f 82 be 97 a5 99 be 08 79 9c be
       -0.33697376 -0.25463712 -0.30009148 -0.3056109
0000f0 8a de 98 be fc 4a b9 be ff 7c 0e be 59 9d 8a 3d
       -0.29857284 -0.3619002 -0.1391487 0.06768293
000100 22 99 98 3b b9 9a 3f be 77 b3 33 bd e8 9b 43 bd
       0.0046569267 -0.18711366 -0.043872323 -0.047756106
000110 ce de 74 3e a2 b8 0d be f5 03 00 bd 72 21 51 3e
       0.23913118 -0.13839963 -0.031253774 0.20422915
000120 65 11 44 be dc a8 52 3e fd 17 3b 3c 24 15 5a 3e
       -0.1914726 0.20572227 0.0114192935 0.21297127
000130 8d f5 ac 3c 2f 62 ae bd 1c 85 c6 bd 87 b9 9d bd
       0.021113181 -0.08514821 -0.09693357 -0.07701402
000140 bd 4e 63 be ff 7e 85 bd 24 1b 5a 3d 55 68 09 3d
       -0.22198005 -0.06518363 0.05324854 0.033546764
000150 fd e5 e5 3e 25 6e a2 be f2 dc 07 3f 4f 60 32 3f
       0.4490203 -0.3172466 0.5307151 0.69678205
000160 46 08 f2 be 3a e3 68 be e2 d3 32 3f b2 71 aa be
       -0.47271937 -0.2274293 0.6985456 -0.33289868
000170 f0 97 a9 3b 96 81 84 bd d2 9d 33 be 27 b5 cc bd
       0.005175583 -0.06470029 -0.17540672 -0.099954896
000180 a2 0f e2 3d 4f 07 09 3e 4e 33 d1 3c d1 d9 00 be
       0.11038138 0.13381694 0.02553716 -0.1258309
000190 35 02 d3 bc 07 3f 54 bd 1a c9 cf 3c bf 35 11 3e
       -0.025757888 -0.05181792 0.025364447 0.14180659
0001a0 12 2f c0 bd 18 a3 f7 3d aa f1 db bd 0e 88 8e bc
       -0.09383978 0.120916545 -0.10739453 -0.01739886
0001b0 3c ac f7 3d d3 d2 d3 3c 2b f0 45 be 02 1e 12 3e
       0.12093398 0.025857365 -0.19329898 0.1426926
0001c0 ff 31 cf be 10 90 07 be 19 c8 96 3d a5 c1 47 3f
       -0.40467831 -0.13238549 0.07362384 0.78029853
0001d0 1b 41 2f 3f ef 7e 3f 3f 20 c2 36 3f ef 3f 8e bd
       0.6845872 0.7480306 0.7138996 -0.06945788
0001e0 7b 7d 5e 3d 81 58 2e bd 65 ab 75 be 98 9b 30 3e
       0.054318886 -0.042564873 -0.23991163 0.17246854
0001f0 f5 aa 3e 3e 6f b9 08 bd 17 fe 1c 3e a8 e2 99 bd
       0.18619902 -0.03337997 0.15331303 -0.075139344
000200 f1 41 e8 3d bb be 0a 3e 8a 7b 91 bd b0 46 93 3e
       0.11340702 0.1354932 -0.07103641 0.28764868
000210 eb 8b f2 3c b9 21 0d be c8 24 87 bd 0d 85 5c ba
       0.029607734 -0.13782395 -0.06598812 -0.000841216
000220 af 4f 40 bd 62 6d d3 bd 77 d6 0d 3e f7 cb cb 3c
       -0.046950992 -0.103235975 0.13851343 0.024877531
000230 61 f8 01 3f 8e 88 06 3f 7e ea 00 3f bf a5 31 3f
       0.5076962 0.52552116 0.50357807 0.69393533
000240 38 2c 28 3f 1f 20 df be db 17 9c be bc 34 d0 3d
       0.6569247 -0.43579194 -0.3048695 0.10166308
000250 f2 60 6c bd b2 00 1d be 62 40 74 be 05 20 3e 3d
       -0.05770964 -0.15332296 -0.23852685 0.046417255
000260 97 66 1b 3e 94 fc 3b be 47 69 30 3d cd 58 8f 3d
       0.15175854 -0.1835807 0.04306915 0.06999359
000270 c4 75 52 be d1 bc c8 3d 92 2f 61 be 4f 5f fd 3d
       -0.20552737 0.09801639 -0.21990803 0.12371694
000280 7e e4 0e 3e a9 0f cd bd 02 16 7e bd 8f ff 50 be
       0.1395435 -0.100127526 -0.062032707 -0.20409988
000290 35 49 36 be b9 0b dd bd 75 bb 50 bc 05 93 8e bd
       -0.17801364 -0.107932515 -0.012740006 -0.069616355
0002a0 c5 9f a1 3e 2a 15 e9 3b 7f e0 09 3f 55 31 09 be
       0.31567207 0.0071131187 0.5385818 -0.13397725
0002b0 e8 57 1f 3f 39 b5 2c 3f 5e ac 08 bf d3 24 93 be
       0.6224351 0.67464024 -0.5338801 -0.28739032
0002c0 28 14 2b 3e b1 cf b8 bd 16 f4 0f be 1f 1e 50 bd
       0.16706908 -0.09023989 -0.14057955 -0.050809976
0002d0 36 de 62 3e 9a d2 17 be 38 5b 30 3e 9d 49 27 3e
       0.22155079 -0.14826432 0.17222297 0.16336675
0002e0 fe 98 7c 3c 28 64 1a 3e d3 3b 1c bd 03 e9 83 3d
       0.015417336 0.15077269 -0.03814299 0.06440928
0002f0 9b d8 fa bc ba 8e 2a bd 74 2c 3f be 84 9c 02 3d
       -0.030620864 -0.04164002 -0.18669301 0.031887546
000300 43 96 2e be 36 6d 8f bd 55 a7 2a 3d b1 c0 5e 3d
       -0.17049508 -0.07003252 0.041663487 0.054382984
000310 d6 35 27 3d d3 94 0e 3d e8 c3 3a be 54 4e 5b 3f
       0.040822826 0.0348099 -0.18238795 0.85666394
000320 4a ba 50 3e fe 66 25 be 12 b3 48 3f b0 51 21 3f
       0.20383564 -0.1615257 0.7839824 0.6301527
000330 fe 79 83 bc d4 78 1f be 36 a8 b8 bd e5 5d 74 bd
       -0.016049381 -0.15573436 -0.09016459 -0.059659857
000340 a4 d5 dc 3c 81 82 a7 bd 6d fb ff 3d 10 3e 31 3d
       0.02695734 -0.081791885 0.124991275 0.043272078
000350 d2 aa f8 bd a7 ce 15 3e fc c2 a2 3c 35 88 18 3e
       -0.121419564 0.14629613 0.019868366 0.14895709
000360 84 11 dc 3d 5c 34 d7 3d f4 6d 94 bc 62 b9 e9 bc
       0.10745528 0.10508034 -0.018118836 -0.02853078
000370 61 a9 2d 3d ab e8 ce 3d df 58 c0 bd 7e ac b2 bb
       0.04239786 0.10102972 -0.09391951 -0.0054526916
000380 e9 d7 35 3f 66 2a e8 be 56 2f 55 3f 62 5e a3 be
       0.7103258 -0.45344847 0.83275354 -0.31907946
000390 ef 06 1f 3f 28 09 9e bd fe e0 3b 3f 82 25 4e 3f
       0.62119955 -0.0771659 0.73390186 0.8052598
0003a0 70 81 2b bd 48 0d 9d bc 7c ec fa bd 6f b8 01 3d
       -0.041871488 -0.019171372 -0.12252137 0.03167003
0003b0 34 de 08 3e a7 15 f4 bc 42 2a 87 3d 3b b7 53 bc
       0.13366014 -0.02979548 0.06599857 -0.0129221035
0003c0 d5 9d 2f 3c 99 72 d1 ba 85 8d 47 bd 0c b3 02 3e
       0.010718782 -0.0015979587 -0.048718948 0.12763613
0003d0 c7 fe 59 bd 1b c8 21 3d c5 9c 19 be 41 ff 81 bd
       -0.05322149 0.039497476 -0.15001209 -0.06347514
0003e0 08 0d 43 bd 3e d7 c6 3d 45 4e 8b 3c ff 7a d6 bc
       -0.04761985 0.09709023 0.017005095 -0.026181696
0003f0 2c 28 ac be 7a 52 a7 be 81 87 b0 be cc a8 ae be
       -0.336244 -0.32680112 -0.3447838 -0.34113157

controller.0.bias f4 [100]
000000 67 bf d9 3e bd 06 ed 3c 47 c2 92 3e 09 9a 7d 3e
       0.4252884 0.028933877 0.28663847 0.24765791
000010 70 30 d3 3c 68 f2 28 3e 86 ac 13 3f ab ce a5 3d
       0.025779933 0.1649872 0.57685125 0.080960594
000020 a2 a2 75 3d 7a 4d 7c 3e 43 67 06 3f 8b 1e 79 3e
       0.05996955 0.2463893 0.52501315 0.24328057
000030 db fa bc 3e 57 25 a2 3e b6 06 44 3e fe bf ec 3d
       0.36910138 0.31669113 0.19143185 0.11560057
000040 6b ee 3a 3d b9 ac d0 3c 9d b1 12 3e 9f 00 ed 3e
       0.04563753 0.025472986 0.14325567 0.46289536
000050 90 4c eb 3e 3e de 97 3e 67 c7 8b 3e 78 37 87 3e
       0.4595685 0.29661745 0.2730057 0.26409507
000060 26 21 81 be e8 24 b5 3e fd b6 ba 3e c9 cb 04 3f
       -0.25220603 0.3537972 0.36467734 0.5187345
000070 75 36 90 3e b3 ae e7 3e 6d 30 9c 3e 44 1e 74 3e
       0.28166547 0.45250472 0.30505696 0.2383967
000080 4a 2c 37 3d 65 31 31 3f 7c cd 33 3e 3c b9 97 3e
       0.04471997 0.69215995 0.17558855 0.2963351
000090 fa ab d9 3e a8 08 82 3e 5c c6 7a 3e 45 c9 07 3e
       0.4251402 0.2539723 0.2448973 0.13260372
0000a0 12 94 e7 3d 3f 72 2f 3e a1 df 10 3f 37 05 bd 3e
       0.11307539 0.17133425 0.5659123 0.3691804
0000b0 ff a8 f4 3e c6 50 ad bf 18 e2 48 3f 26 cf ac b9
       0.47785184 -1.3540275 0.7846999 -0.00032960734
0000c0 55 e2 07 bd ec c7 76 3e 8c ce 3e 3e 90 91 6f 3e
       -0.03317483 0.24099702 0.18633479 0.23395371
0000d0 0c 81 88 3e ab 95 26 3f 8e b9 bd 3d e0 25 92 bc
       0.26660955 0.65072125 0.092639074 -0.017840326
0000e0 ed e2 bd 3e e8 4e 8b 3e e4 d9 10 3d 55 1a be 3d
       0.37087193 0.27208638 0.035364047 0.09282366
0000f0 e0 82 53 bd f7 0d b4 3e 59 10 96 3e e4 bc 45 3e
       -0.051638484 0.35166904 0.29309347 0.19310337
000100 94 d9 97 b8 38 4a 89 3e f0 34 9d 3e 13 e2 af 3e
       -7.240768e-05 0.26814437 0.3070445 0.34352168
000110 c4 fa a1 3d 67 57 bb 3e 13 33 43 be 41 81 52 3e
       0.07909158 0.3659012 -0.19062452 0.20557119
000120 51 57 86 3e 6f fd a6 3e 24 74 c6 3e 9b 83 14 3f
       0.26238492 0.3261523 0.38760483 0.58013314
000130 bd f3 3e 3e 78 66 30 3e 89 3d b0 3e fd 0d 94 3e
       0.18647666 0.17226589 0.34421948 0.28916922
000140 08 e5 43 3e 4e 1d a5 3e 7a 81 03 3f 24 55 96 3e
       0.19130337 0.3224892 0.5136944 0.29361832
000150 f0 29 70 3e cf a9 78 3e 99 96 46 3e 4d a1 48 3e
       0.23453498 0.24283527 0.19393386 0.19592781
000160 0d 3f 8f 3e f2 d1 7f 3e 9e a2 3e 3f eb 70 ac 3e
       0.2797779 0.24982432 0.74466884 0.336799
000170 85 c0 51 3e 56 bf 24 3e ba 53 20 3f 63 a5 d5 3e
       0.20483597 0.16088614 0.62627757 0.41727743
000180 f5 a0 ba 3e c3 76 2c 3c e5 4a 16 bd 91 de 63 3e
       0.36450925 0.010526362 -0.03669252 0.22252871

read_head.key_layer.weight f4 [20, 100]
000000 7e f1 60 3b c7 e9 27 3e ca ae 31 3d 16 66 6c be
       0.0034323628 0.16397773 0.043379582 -0.23085818
000010 17 df d0 bd 11 0c ba bd 0e 1a 06 bc 0c cd e0 bc
       -0.10198801 -0.09084333 -0.008184923 -0.027441524
000020 4b 53 8e 3c aa 79 03 3e 0a 9b 5d 3d 36 70 5a 3d
       0.017373702 0.1283938 0.054102935 0.05332967
000030 60 1c 2a 3d 88 97 ff 3c 2b c5 82 3d b0 10 19 3d
       0.041530967 0.031200185 0.06385263 0.03736943
000040 c2 ee 65 3e 80 5a 2a 3d 51 0d b3 3d 03 24 e5 3c
       0.2245436 0.041590214 0.08742774 0.027971273
000050 0c 4c 93 bd 4e eb 85 3d f1 44 ad 3d 16 9b 69 be
       -0.07192239 0.065390214 0.08460415 -0.22813067
000060 a1 81 c4 bb 1b 3c d4 bc 25 cb a7 bd 60 f4 8f bc
       -0.0059968983 -0.025907567 -0.081930436 -0.017572582
000070 d1 b7 30 3c d7 ad bb bd e9 2a 8c 3d 7b da eb bc
       0.010786013 -0.09164017 0.06844122 -0.028790703
000080 2a 9a 76 bc 80 66 17 be 46 fd 86 bd cc 2b 9e 3c
       -0.015051404 -0.14785194 -0.06591277 0.019307993
000090 c9 1d d8 bc 30 08 36 3c d0 a9 8d bd 1c ec 2e 3d
       -0.02638139 0.0111103505 -0.06917155 0.04270564
0000a0 7c 22 fb bc 61 9f ef bb 02 0e f1 3c d7 79 65 be
       -0.030656092 -0.0073127006 0.029425625 -0.2240976
0000b0 97 c1 9d 3d 45 31 bc bb 98 24 d9 3d 23 9d d4 3c
       0.0770294 -0.005743178 0.10602683 0.025953835
0000c0 9f 15 be bd c0 bc 2d be fb 8b 0c 3e 2f 0b f9 3d
       -0.09281468 -0.16966534 0.13725273 0.12160336
0000d0 67 13 63 3d 85 07 9b bd 59 e8 b4 bd dc 98 24 3b
       0.055438425 -0.075697936 -0.08833379 0.0025115525
0000e0 c3 8b 40 3d 95 da 8c 3a 57 eb 3c bd 84 c3 96 bd
       0.047008287 0.0010746295 -0.046122875 -0.073615104
0000f0 b4 01 76 bd 99 6b 0e bd 62 ff be bc a9 d9 46 bd
       -0.060060218 -0.034770582 -0.023315135 -0.04854742
000100 3a c8 99 20 b7 e0 21 be a4 28 25 bd 6a 46 a4 3d
       2.6051707e-19 -0.15808378 -0.04032196 0.08021243
000110 5e 55 00 be e1 78 2a bd aa aa 97 bb 8d dc 54 be
       -0.12532565 -0.041619185 -0.004628499 -0.20787258
000120 97 66 da bc a4 50 94 bd f3 d4 93 3d 5b 4b 24 bc
       -0.026660247 -0.072419435 0.07218351 -0.010027732
000130 35 5b cb 3d 5e 08 ce 3d 87 34 79 bc b0 1d 38 3c
       0.09929506 0.1006019 -0.015210277 0.011237547
000140 1e 13 d7 3d bc 4d 0d bd 13 26 8c bd 14 4f ea bd
       0.10501693 -0.03449796 -0.068431996 -0.11440864
000150 a1 d6 af bd 96 2a b9 3d 5b 6b 56 be 71 c5 22 be
       -0.08585859 0.09041326 -0.2093939 -0.1589563
000160 b9 f4 01 3c 19 ac 24 be a7 12 c2 3d 3b 5a 0c 3d
       0.007931882 -0.16081275 0.09476214 0.034265738
000170 3a 19 43 3d ae 9b 87 3d 8c 54 7f bd e4 95 d6 3c
       0.04763148 0.066214904 -0.06233649 0.02619452
000180 47 71 79 3d ef 40 2b bd ad e6 86 bd 06 66 70 3d
       0.060899045 -0.041809972 -0.06586967 0.058691047
000190 ef b0 27 3d 14 09 61 bd 41 4a 67 3c 9e 11 5d bc
       0.04094022 -0.0549403 0.014116825 -0.01349297
0001a0 0c 27 95 3c 55 81 7b 3d bc a9 ab 3c 65 dd 86 3d
       0.018207096 0.061402638 0.02095496 0.065851964
0001b0 9b 4c 17 3d e3 c8 59 bc c3 aa 7d bc ed f9 02 be
       0.03693829 -0.013292524 -0.015482607 -0.12790652
0001c0 cc 76 36 3d 89 4c 3a 3d 67 c7 d7 bd f9 f0 9e 3d
       0.044546887 0.045483146 -0.1053608 0.07760806
0001d0 77 6a 52 be 32 4d 69 3d 67 24 14 3d 04 be 98 3d
       -0.20548426 0.056958385 0.03616753 0.074581176
0001e0 7d b9 3b bd ab f1 f2 3c 05 8d a7 3d 94 d7 89 3d
       -0.045831192 0.029656252 0.08181194 0.067305714
0001f0 e1 e7 fd 3c b1 00 55 bc ad bd 0f 3c 9b 84 fe 3a
       0.030994358 -0.013000653 0.00877325 0.0019418182
000200 42 5b 49 bd 23 8d df bb be f1 d7 3c 1a 35 74 bd
       -0.049159296 -0.0068222447 0.026360389 -0.059620954
000210 39 41 b4 3a 68 93 5e be 7f 51 b0 3d dc db 66 3d
       0.0013752348 -0.21735919 0.08609294 0.056362018
000220 c8 42 cb bc 93 b0 38 3d 6e f5 7f 3b 25 32 10 3d
       -0.024812117 0.04509027 0.00390562 0.03520407
000230 d9 19 88 3d f2 2f 3d 3d 60 98 8d bd e8 31 1a 3d
       0.06645555 0.046188302 -0.06913829 0.03764525
000240 6b c9 a6 3c 21 d9 1b 3d 7d 0e 95 bd ce c2 ff bc
       0.020359715 0.038048867 -0.07278154 -0.03122082
000250 38 67 bc 3d 36 6c 54 3d b5 c0 88 bd 57 0a 4b bd
       0.09199375 0.05186101 -0.06677381 -0.049570408
000260 c0 10 6b bd 4b 05 6a bb b3 2a ab bc 22 a1 e4 3d
       -0.05738902 -0.0035708721 -0.020894384 0.11163546
000270 4e 91 4e bd 5c 4f 4a bb ca c0 47 3d 6d d9 59 3d
       -0.050431542 -0.0030870056 0.048767842 0.05318587
000280 6c 77 d2 3c eb 88 d7 3d 56 bd 4c 3c 55 f1 94 bc
       0.02569171 0.10524162 0.012496313 -0.018181482
000290 f0 36 ae b2 ab d2 7f 3d 8a de 95 bc e8 49 9f bc
       -2.0281249e-08 0.062456768 -0.018294591 -0.019444421
0002a0 f9 03 6c bd ac 8a 20 3d 3e 13 38 3d 8e 6f e4 3c
       -0.057620976 0.039194748 0.044940226 0.027885225
0002b0 e8 41 b6 bc 00 b1 b7 3d 1a 25 70 bd 24 a4 4a 3d
       -0.022248223 0.08969307 -0.058629133 0.049472943
0002c0 26 a9 7a bd 88 50 e3 bd 94 ac b5 bc b8 06 c1 3c
       -0.06119647 -0.110993445 -0.022177018 0.023562774
0002d0 4b 08 ab bd bd d1 c4 bc 45 55 f9 bc 4e 3c e2 3d
       -0.08351191 -0.024025792 -0.030436167 0.110466585
0002e0 dd 28 dd 3d 63 aa 46 bd f0 8e 3d 3d cf 7f de 3c
       0.1079881 -0.048502337 0.046278894 0.027160553
0002f0 61 f6 f4 3c b2 83 09 3d 92 fd 46 bd 1c 1c 96 bd
       0.029902639 0.03357286 -0.048581667 -0.0732958
000300 00 ae ae 3d 1f 33 bc bc f0 f3 d1 3a bd 1a 2b bd
       0.085292816 -0.022973595 0.0016018134 -0.041773546
000310 39 1b 13 bd 91 21 d5 3c fc b1 6f 3d e3 46 52 3d
       -0.035914633 0.026016982 0.05851935 0.051337134
000320 19 62 a4 bd af 05 93 bd 7d 81 81 bd bf b0 11 3e
       -0.08026523 -0.071788184 -0.06323526 0.1422758
000330 a5 c5 aa 3d 93 7b 0c bd 54 7a c0 bc 60 7c 09 bd
       0.08338479 -0.034297537 -0.02349583 -0.03356588
000340 95 93 b2 3c 60 b8 c1 bc 6c 13 a7 3d 10 79 a5 3c
       0.021798888 -0.023647487 0.08158001 0.020199329
000350 bb f2 68 bd 92 00 ca bd 51 59 f8 ba 27 5f 66 bd
       -0.05687211 -0.0986339 -0.0018947517 -0.056243088
000360 67 0d 5d bd 99 4c 55 3c e8 87 60 3d d0 07 b4 3d
       -0.05396786 0.013018751 0.05481711 0.087905526
000370 da 8d 98 bc 13 16 b7 bd 7d 62 91 3b ff e5 f1 3d
       -0.018622328 -0.08939757 0.0044367895 0.118114464
000380 77 da 5d bc 39 ef c2 bc 5f 85 c8 3d 27 2c 8b 3d
       -0.013540856 -0.02379571 0.097910635 0.06795531
000390 f0 3b 01 be 02 6c 8d 3d 83 e0 92 3c 7f 53 d9 3c
       -0.1262052 0.069053665 0.017929321 0.026529072
0003a0 7e d6 b5 bd 8d 27 88 3d 09 fe 76 bd 1e d0 56 bb
       -0.08878802 0.06648169 -0.06030086 -0.0032777856
0003b0 29 09 77 3d c6 70 33 bd a5 a7 72 3d ea a5 1f 3d
       0.06031147 -0.04380872 0.05924191 0.038976587
0003c0 02 74 d9 3c 7d 6e 40 3c 1a f0 8a bc 12 9f 79 3d
       0.026544575 0.011745092 -0.016960192 0.060942717
0003d0 68 52 b1 bc 10 40 ff bb 9f a3 b3 3a 3b d0 64 bd
       -0.02164574 -0.0077896193 0.0013705379 -0.055862647
0003e0 92 76 b3 3c a0 ab f3 3d fe 9d 99 bc 33 d5 b8 bd
       0.021907125 0.11897969 -0.018752094 -0.090250395
0003f0 ed bb 05 3d 80 be ea bc 27 0f 83 bc ca 96 0a bd
       0.032649923 -0.02865529 -0.015998436 -0.03383521

read_head.key_layer.bias f4 [20]
000000 3b 5a bb 3d 50 51 e6 bd b0 01 67 3d 01 7e 83 3d
       0.091480695 -0.11245978 0.056398094 0.06420518
000010 99 c0 19 bd d2 aa a2 bc 9c ac db bc 4d 2b cc 3d
       -0.03753719 -0.019856844 -0.026815705 0.099691965
000020 79 81 f3 bd 11 70 3d 3d fc ee 3e bd c1 ea 21 bd
       -0.11889929 0.046249453 -0.046614632 -0.03953052
000030 a3 0e 5d 3d a9 cd 89 bd ef c2 9e bd 5b e2 6b 3c
       0.053969037 -0.0672868 -0.077520244 0.014397229
000040 59 08 76 bc 8b 72 7e bd f1 97 76 bd 36 4f 09 bd
       -0.015016639 -0.062120955 -0.060203496 -0.033522807

read_head.beta_layer.weight f4 [1, 100]
000000 1f a6 b9 3e f7 66 cb 3d 27 4c 83 3e 3a 74 05 3e
       0.36259553 0.09931748 0.25644037 0.13032618
000010 fe 44 21 3e 94 9a a4 3e 29 bc 9b 3e 24 2b c3 3e
       0.15748975 0.32149184 0.30416992 0.3811885
000020 40 1e a8 3e d4 e6 52 3e 56 6a a4 3e 95 0d 38 3e
       0.3283558 0.20595866 0.32112378 0.17973931
000030 be 5b 9e 3e fc d0 8d 3e e0 28 93 3e 71 54 ae 3e
       0.3092937 0.27698505 0.28742123 0.340488
000040 d6 57 d0 3d d4 a4 cf 3e 64 00 8c 3e 88 16 5f 3e
       0.101730034 0.4055544 0.27344048 0.21785939
000050 df f4 98 3e 7f a9 ba 3e ed 68 76 3e 00 d6 af 3d
       0.29874322 0.3645744 0.24063464 0.08585739
000060 e9 19 a6 3e 26 40 41 3e d2 78 81 3e 28 f9 bd 3e
       0.32441643 0.18872127 0.2528749 0.37104154
000070 ae 99 aa 3e 4d 9b 4e 3e bd 11 9b 3e b0 55 5c 3e
       0.33320373 0.2017643 0.3028697 0.21517062
000080 07 52 7a 3e b3 41 aa 3e f4 f4 6b 3e f2 20 46 3e
       0.24445353 0.3325325 0.23042661 0.19348505
000090 a9 29 98 3e 70 50 5f 3e 90 d0 27 3e 20 c3 7b 3e
       0.29719284 0.21808028 0.16388154 0.24586153
0000a0 3b 53 b3 3e 12 91 8d 3e c6 b6 a7 3e 3c a2 30 3e
       0.35024437 0.27649742 0.32756633 0.17249388
0000b0 81 47 85 3e 75 f9 46 3d 45 a5 f2 3e 6c b2 95 3e
       0.26031116 0.048577745 0.47391716 0.29237688
0000c0 5d 89 63 3e fc 4d 1c 3e c4 75 3d 3e f3 74 1a 3e
       0.22220369 0.15264124 0.18501955 0.15083675
0000d0 17 c4 48 3e c9 32 93 3e 07 54 89 3e 46 79 2c 3e
       0.19606052 0.28749683 0.2682192 0.16843137
0000e0 3c cb ad 3e b8 b1 05 3e 24 b7 6c 3e 21 20 5f 3e
       0.33944118 0.13056076 0.23116738 0.217896
0000f0 d3 e0 92 3e 6c 37 84 3e 4b 2e 8f 3e dc f6 67 3e
       0.28687152 0.25823534 0.27965006 0.22652763
000100 d8 5b 05 80 11 31 2f 3e 75 31 95 3e 52 d5 59 3e
       -4.92125e-40 0.17108561 0.29139295 0.21272781
000110 64 82 0d 3e 03 2e 97 3e 27 cc 42 3e 0c 34 ef 3d
       0.13819271 0.29527292 0.1902319 0.11679849
000120 cc 9d 48 3e d8 41 9d 3e 38 bb a1 3e c1 1b a2 3e
       0.19591445 0.30714297 0.3158815 0.316618
000130 a3 08 9b 3e 7e d6 1b 3e 4e 87 a8 3e fc 65 94 3e
       0.30280027 0.15218541 0.3291573 0.28984058
000140 66 04 7f 3e f1 79 62 3e ca 43 9c 3e 2c f5 d4 3d
       0.24904022 0.2211683 0.3052047 0.10398325
000150 f7 0f 72 3e fe b3 18 3e be a7 09 3e cb f0 b4 3d
       0.23638903 0.14912412 0.13442895 0.0883499
000160 59 c1 64 3e d1 18 ed 3d 3d 45 e0 3e 93 ac 9c 3e
       0.22339381 0.11576999 0.43802825 0.30600414
000170 64 3a c3 3e 9d 6c 47 3e 9d 2d 6e 3e 92 fc cd 3e
       0.38130486 0.19475026 0.23259588 0.40231758
000180 d0 4f d0 3e a8 9a 54 3e 44 8f 5a 3e da b5 50 3e
       0.40685892 0.20762122 0.21343714 0.20381871

write_head.key_layer.weight f4 [20, 100]
000000 1b 6c 2e 3e c7 c9 8c 3c 20 a2 9e 3d e7 b5 18 3e
       0.17033426 0.017186059 0.07745767 0.1491314
000010 75 f9 bd 3d 73 b3 18 3e 80 d1 09 3e e5 65 15 3e
       0.09276096 0.14912204 0.13458824 0.14589651
000020 0a e1 8d 3d 9a 50 6f 3d 04 2a d6 3d d8 24 77 3d
       0.069276884 0.058426477 0.104572326 0.06033787
000030 98 13 46 3d ff fb b7 3d 8a ef 4e 3d 93 c4 6a 3d
       0.04835853 0.08983611 0.05052141 0.057316374
000040 75 a7 ac 3c 63 29 8b 3d 8c 7b f6 3d 61 fa 3f 3e
       0.021075943 0.06795003 0.120352834 0.18747856
000050 0d b5 c1 3d f5 ad 50 3c 78 39 e4 3c 4c a3 23 3e
       0.09458361 0.012736787 0.027859434 0.15980262
000060 59 c1 00 bc 8e 2d 10 3d 6a cc b4 3d 23 33 23 3e
       -0.007858598 0.035199694 0.088280514 0.15937476
000070 b9 c8 b8 3d a0 e6 d5 3d 4c 72 e3 3d 80 b1 9f 3d
       0.0902266 0.10444379 0.11105785 0.07797527
000080 a5 a9 d3 3d 6f 62 bf 3d ec bc 57 3d 21 ce 82 3d
       0.103350915 0.093449466 0.052670404 0.06386972
000090 42 4c f5 3d 59 5a 8a 3d 47 4a c3 3d 27 9e 9f 3d
       0.11977436 0.06755514 0.09535652 0.07793837
0000a0 77 4b 91 3d a5 5b 30 3e 2d f0 a3 3d 46 a6 cd 3d
       0.07094472 0.1722246 0.08004794 0.1004148
0000b0 b8 00 20 3e 16 3d 46 bb be e9 f2 3d df 4c 86 3d
       0.15625274 -0.0030248812 0.11860989 0.06557631
0000c0 0f 6c 0e bd 91 c5 2b 3d a7 b6 a1 3d f8 e1 96 3d
       -0.03477102 0.04193646 0.07896166 0.07367319
0000d0 8d f2 38 3d d5 4c 37 3e 64 4c 12 bc 3a 15 52 3d
       0.04515319 0.17900403 -0.008929346 0.051289774
0000e0 f5 09 d9 3d f5 fd a0 3d 98 51 8e 3d b9 3f d5 3c
       0.10597602 0.078609385 0.069491565 0.026031362
0000f0 9d 9a a1 3d 5c 87 21 3d 92 1b 65 3d fe 73 bf 3d
       0.07890818 0.03943573 0.055934496 0.09348296
000100 42 56 e1 9b 0f 1a a0 3d b3 0f 29 3e 5d 78 c6 3d
       -3.727887e-22 0.0781747 0.16509895 0.09690926
000110 cc a7 3c 3a 31 08 ca 3d 1f 64 73 3d c3 84 6b 3d
       0.00071966345 0.09864844 0.059421655 0.05749966
000120 de bf 44 3d 3e ba 06 3e 01 d5 c8 3d db 76 ac 3d
       0.04803454 0.13156983 0.09806252 0.084211074
000130 0c 6b 9d 3d 3f d2 63 3d c4 83 9d 3d 21 38 ab 3c
       0.07686433 0.05562043 0.07691148 0.020900788
000140 f6 1f cd 3d 50 6f 61 3d e2 de c2 3d 59 40 d1 3d
       0.10015862 0.055037796 0.09515168 0.102173515
000150 ed da 08 3e 7c f0 94 3d ae 57 8a 3c cf 18 43 3d
       0.13364764 0.07272431 0.016887512 0.04763108
000160 44 cb 95 3d 58 b9 81 3b 33 87 cc 3d 42 7a 38 3e
       0.073141605 0.0039588623 0.09986725 0.18015388
000170 c6 a4 ff 3d 0f b4 7b 3d 2c 50 fe 3d 10 fa c0 3d
       0.124826 0.061451014 0.12417635 0.09422696
000180 7b 78 bf 3d a4 20 65 3d ce a9 1c 3d eb 47 8b 3d
       0.09349152 0.05593933 0.038247876 0.06800827
000190 76 cc 6d bd 0f cc b6 bb 1c 15 62 bd 07 55 f7 3b
       -0.058056317 -0.005578525 -0.055195913 0.007547978
0001a0 1a f5 b4 3d 3a 8b 81 3d bb 89 93 b8 31 6c 19 3d
       0.08835812 0.063253835 -7.0351605e-05 0.037456695
0001b0 8f 0e 3b 3d 9e 23 3a bd d0 ee f1 bc 4a ab 8a bc
       0.04566818 -0.045444123 -0.02953282 -0.01692738
0001c0 b1 8c b1 3c d0 7a 19 bc e0 40 01 bd e5 16 04 3c
       0.021673532 -0.00936766 -0.03155601 0.008062099
0001d0 7e 01 59 bb 60 92 e4 bc ae 1e 9d 3c 94 3c 3f bd
       -0.0033112462 -0.027901828 0.019179668 -0.04668863
0001e0 db 82 91 3c 76 a5 0c bc b6 27 d6 3d 3c ab 74 3c
       0.017762592 -0.008584371 0.10456793 0.014933404
0001f0 e3 e8 fa 3d 5b f4 37 3d 78 a3 88 3c ec ec 8f bd
       0.12251451 0.04491077 0.01667951 -0.07027611
000200 fe da b3 3c 33 ed 21 3e 3e 7f b6 3c ad 17 9b 3d
       0.02195501 0.1581314 0.02227747 0.07572875
000210 21 b1 d8 3c cf 71 be 3c a0 7a 00 3e 3b 1a a5 bd
       0.02645165 0.023247628 0.12546778 -0.08061644
000220 02 00 ab 3d c4 90 55 bc a3 76 c5 3b 18 3b db 3d
       0.08349611 -0.013035003 0.0060261055 0.107046306
000230 50 d4 b1 3d b3 c8 2d bc 9a 93 bb bc ad b0 63 3d
       0.086830735 -0.010606932 -0.02289753 0.055588413
000240 74 56 f9 bc 21 3e db 3d 26 f4 ff 3c 4a 7f 39 3d
       -0.030436732 0.107052095 0.031244349 0.045287408
000250 3e 0d 12 3e 71 77 0d 3d 26 e5 14 bd c8 1e 48 bd
       0.14262864 0.034537736 -0.036351345 -0.04885748
000260 d2 6c 8c 3d e6 aa 21 bd 6e 66 0e 3e f6 be 34 3c
       0.06856693 -0.039469622 0.13906261 0.011031857
000270 13 72 8f bb 0c d5 8b 3d 74 cc 2e 3d 7f d9 ca 3d
       -0.0043776124 0.06827745 0.04267545 0.09904765
000280 9c 17 82 3d 54 f0 a0 bd 1f 9b 3a 3d 12 aa 8d 3d
       0.063521594 -0.07858339 0.04555809 0.06917204
000290 7d f8 23 99 1b 4e 2e 3b 65 ea fd 3c 2c 86 ad bb
       -8.477084e-24 0.0026596847 0.030995557 -0.0052955355
0002a0 27 3b 9f 3d 45 16 23 bd 9c c3 5d 3d 59 80 73 3d
       0.07774954 -0.03981616 0.054141626 0.059448574
0002b0 b3 e1 98 3d 28 3c 89 3d 7e 08 c4 3c 58 81 5c 3c
       0.07464924 0.06700927 0.02392983 0.013458572
0002c0 d8 ea 0f 3d 23 de ac bc 46 0e 96 bd 60 dd 8d 3d
       0.035136074 -0.021102017 -0.07326941 0.069269896
0002d0 8c 50 b9 3d d8 06 00 bd 63 4e 50 bd d9 2b a8 3c
       0.09048566 -0.031256527 -0.050856005 0.02052872
0002e0 ec 8e a8 3b ae f6 0b bd 4a 93 ca 3d 1c 8a ac 3d
       0.0051439907 -0.0341708 0.098913744 0.0842478
0002f0 c0 cf be bc 3b b7 f5 3c c6 c2 4d 3c dd 11 5e 3d
       -0.023292422 0.029994598 0.012558645 0.054216255
000300 c4 34 c3 3d f3 4f 03 bd d6 e4 ec 3c 3a 37 e6 3c
       0.095315486 -0.032058667 0.028917711 0.028102506
000310 e3 5e 85 3c c2 15 77 3d ee b0 41 3c ce a3 7c bd
       0.016280597 0.060323484 0.0118219685 -0.061679654
000320 89 2d 21 3c 5f c0 4b bd d1 23 ad bd be 68 cf 3d
       0.009837517 -0.049744006 -0.08454097 0.101274
000330 13 c7 bc 3d ee 44 57 3b 89 05 78 3c e1 6f 85 3c
       0.09217658 0.0032847482 0.015138038 0.0162887
000340 32 b0 b7 3c c2 47 ea bd 41 a7 fe 3c 3f f1 a9 bd
       0.022422884 -0.11439468 0.031085612 -0.08297967
000350 e9 67 ce 3c 3e 17 9b 3d 4f 92 e4 bd 67 6c 53 3d
       0.025196033 0.075727925 -0.11160719 0.051617052
000360 4a 4c 79 bd da aa 7a 3d 9a c1 8b 3d 92 35 57 bd
       -0.06086377 0.061198093 0.06824036 -0.052541323
000370 d7 5d b3 3c 6c c8 49 3d f6 76 41 3d e5 04 22 3d
       0.021895332 0.049263403 0.04723259 0.03955545
000380 21 dc 9b 3d 83 2c b2 3d cd 74 2e 3d 72 33 d6 bd
       0.07610346 0.08699896 0.04259186 -0.10459031
000390 4d b0 a2 3c b0 a1 dd 3d 5c 67 5a 3c b6 61 57 3b
       0.019859457 0.10821855 0.013330307 0.0032864637
0003a0 38 30 7d 3d d0 42 41 3d 93 ce 0b 3e 06 94 17 3d
       0.061813563 0.047182858 0.1365302 0.0370064
0003b0 70 a3 94 3c 53 2c d0 3d 04 4e 14 3d d6 c9 d8 3c
       0.01814434 0.10164704 0.036207214 0.02646343
0003c0 80 55 5d 3d 22 ee 96 bb 59 b1 42 3d c8 c2 07 3d
       0.054036617 -0.0046060244 0.047532413 0.033144742
0003d0 1b 05 05 3b 41 47 4f 3c 31 80 11 3b 3d d9 48 3d
       0.0020297233 0.012651266 0.0022201652 0.0490353
0003e0 f6 fd d9 3d 45 99 e1 3d c6 b1 fa bd fb 37 9e bd
       0.10644142 0.11015562 -0.12240939 -0.07725521
0003f0 bf 12 f2 bc 66 e1 21 bb b3 73 dc 3d a5 44 05 3e
       -0.029549954 -0.0024700998 0.107642554 0.13014467

write_head.key_layer.bias f4 [20]
000000 24 0c 31 3e 80 7b bf bd f9 cf 12 bc 75 6b 3a bc
       0.17289788 -0.09349728 -0.008960717 -0.011378159
000010 ba ce af bd a8 ee bc 3d 49 be 12 3d 20 fb f1 3d
       -0.08584352 0.092252076 0.035826 0.118154764
000020 9a 1b 33 be af 17 01 3e 11 07 33 be a5 f4 56 bd
       -0.17490998 0.12606691 -0.17483164 -0.052479405
000030 86 34 1f 3e ce ac e2 bb 22 aa ee bd eb a2 cf bb
       0.1554738 -0.0069175726 -0.11653544 -0.00633656
000040 c0 c2 30 bd d8 34 85 be 2d ff 2e 3b 63 dc 23 be
       -0.043154478 -0.2601688 0.002670239 -0.1600204

write_head.beta_layer.weight f4 [1, 100]
000000 ea 9a ae 3e ee e8 f1 3c a5 39 6d 3e 2d f8 a5 3e
       0.34102565 0.029530015 0.23166521 0.32415906
000010 d3 23 82 3e be 8e a2 3e ea 32 ab 3e 0a e4 b0 3e
       0.25417957 0.3174953 0.33437282 0.3454898
000020 c1 67 a2 3e 68 47 07 3e f7 f8 8a 3e 49 0c 49 3e
       0.31719783 0.13210833 0.2714307 0.19633593
000030 21 16 b5 3e 74 bc aa 3e 9b b2 3b 3e 6a c3 a3 3e
       0.35368446 0.33346903 0.18329851 0.31985027
000040 24 47 21 3d ed 20 9d 3e bc d4 a8 3e 18 00 e2 3e
       0.039374486 0.30689183 0.32974803 0.44140697
000050 6c 07 b6 3e 25 87 8e 3e a8 55 8c 3e 89 44 b2 3e
       0.35552537 0.27837482 0.274091 0.34817913
000060 6b ad 7e 3e a5 89 98 3e 01 f9 9c 3e fb 4e b1 3e
       0.24870841 0.29792514 0.30658725 0.3463057
000070 c8 70 96 3e dd 46 a8 3e 70 93 6c 3e b0 47 a8 3e
       0.2938292 0.32866564 0.23103118 0.32867193
000080 86 4d 36 3e d7 15 e6 3e d2 48 b2 3e ed f0 b4 3e
       0.1780301 0.44938537 0.34821182 0.35340062
000090 d4 21 80 3e b3 45 80 3e 22 cd 7a 3e 24 c0 60 3e
       0.2502581 0.25053176 0.24492314 0.21948296
0000a0 18 ce b1 3e 4d 3b b4 3e e1 bb 9f 3e d9 00 c8 3e
       0.3472755 0.35201493 0.31198028 0.39063147
0000b0 cd 30 bb 3e b2 61 2a bc 06 5c e5 3e 88 d8 9c 3e
       0.3656067 -0.010399269 0.4479677 0.3063395
0000c0 5c 93 37 3e 11 60 92 3e d8 f9 35 3e 0a 79 6b 3e
       0.17927307 0.28588918 0.17771089 0.22995391
0000d0 53 9e 9e 3e 5e 76 ee 3e e2 84 a1 3e 01 91 8b 3e
       0.30980167 0.46574682 0.31546694 0.27259067
0000e0 26 e3 8f 3e e1 64 8d 3e 21 d7 86 3e 6f ba 8d 3e
       0.28102988 0.27616027 0.26336005 0.276813
0000f0 dc 5d a8 3e 94 10 4f 3e 2b 86 aa 3e 09 6c a4 3e
       0.3288411 0.20221168 0.33305487 0.32113674
000100 75 78 08 19 0a fa 50 3e ae a5 86 3e 2b 17 93 3e
       7.055361e-24 0.20407882 0.2629828 0.28728613
000110 94 90 64 3e 7d 25 bd 3e 8a be 62 3e 5d a6 af 3e
       0.22320777 0.36942664 0.22142997 0.34306613
000120 97 0f c0 3e 35 64 80 3e 3d dd 69 3e 8f 7d b8 3e
       0.37511894 0.25076452 0.22838302 0.36033294
000130 ca 82 8c 3e 20 79 1c 3e fe e8 81 3e d8 e4 a3 3e
       0.27443534 0.1528058 0.2537307 0.3201053
000140 42 f4 92 3e ec f0 61 3e 3a 6a 87 3e a0 23 cd 3e
       0.2870198 0.2206456 0.26448232 0.40066242
000150 7e 30 af 3e 66 34 32 3e a2 79 af 3e 2e dc 7e 3e
       0.34216684 0.17402801 0.34272486 0.2488868
000160 0f 0f 8a 3e d2 bc 9f 3e 1f 6e b4 3e 71 20 af 3e
       0.26964614 0.31198746 0.35240266 0.34204438
000170 15 b3 9a 3e 7f 65 03 3e f1 7e cf 3e c6 06 c1 3e
       0.30214754 0.12831686 0.40526536 0.3770048
000180 f9 48 aa 3e 79 f6 8b 3e c3 0e 8d 3e c5 d5 0f 3e
       0.332588 0.2733648 0.27550325 0.1404639

write_head.erase_layer.weight f4 [20, 100]
000000 49 45 8d 3b 23 ba 18 bd be 3d b3 bc 1e 9f 22 3d
       0.004311238 -0.03728689 -0.021880027 0.039702527
000010 bf e9 41 3d b4 e2 bc 3c 09 45 19 3d bf 2e 0d 3d
       0.04734206 0.02305732 0.037419353 0.03446841
000020 4d c5 8f 3c 57 b3 e0 bc d2 07 37 3d 03 2c 00 bd
       0.017550135 -0.027429266 0.044685192 -0.031291973
000030 32 0b e6 3c b5 29 13 3c 7d 31 dd bc 8c 38 1a 3d
       0.02808151 0.008982112 -0.027001137 0.037651584
000040 8d 79 3e bd fc 5e 05 3d f6 81 6a 3c ac 38 60 3c
       -0.04650264 0.032561287 0.014313212 0.013685387
000050 15 b8 49 3d ea 4a 11 3d d4 ef 3d 3d 6a ca 24 3d
       0.04924782 0.035471834 0.046371296 0.0402321
000060 55 e9 57 3d 11 c3 02 3d 75 f6 66 3d 86 22 e7 3c
       0.052712757 0.03192431 0.056387383 0.028214704
000070 50 4d d8 3c 16 04 7e 3d c7 11 4b 3d de 95 7a 3c
       0.026404053 0.062015615 0.0495775 0.01529452
000080 4b 0d f1 3c 90 94 26 3d db e5 5d 3d 5e 4a d0 3c
       0.029425284 0.040669024 0.054174285 0.025426086
000090 f6 bc aa 3c e5 70 de 3c 9d f0 3e 3d f7 46 cc 3c
       0.020842057 0.027153442 0.046616185 0.024936182
0000a0 5a 89 23 3d ea e4 bd 3c 1c 5a 6a 3d 37 0e 7f 3d
       0.03992591 0.023180444 0.05721484 0.062269416
0000b0 ef 32 59 3c f5 52 a7 3d 31 18 a8 3c 98 c3 68 3d
       0.013256772 0.0817012 0.020519348 0.056827158
0000c0 32 6e 89 3d cb 4f 27 3d b0 03 7f bc a9 a4 e5 bc
       0.06710471 0.04084758 -0.015564844 -0.028032618
0000d0 bb da fa 3c 44 fd 86 3c a7 3c b3 3d d1 b8 36 3d
       0.030621877 0.016478188 0.08751803 0.04460985
0000e0 c5 1b 4a 3c 88 48 09 3d fd 00 88 3d 83 8a 68 3d
       0.012335722 0.033516437 0.066408135 0.05677272
0000f0 09 bc 3a 3d 13 28 26 3d c5 a5 1d 3d 34 c7 34 3d
       0.04558948 0.04056556 0.03848817 0.044135287
000100 8b 92 05 00 90 8d 52 3d 9b 16 a7 3c ca 15 9e 3c
       5.11747e-40 0.051404536 0.020396521 0.0192975
000110 53 db 61 3d a3 85 cf 3c ab ac e2 3c 2d 4b 89 3d
       0.055140804 0.025332278 0.027670225 0.06703792
000120 cf 24 b0 3c f5 02 07 3d 46 99 29 3d 18 9f f7 3c
       0.021501927 0.032961804 0.04140594 0.030227229
000130 c0 a3 4e 3d be c0 92 bc 6d 2c b1 bb f6 11 2e 3d
       0.050449133 -0.017914172 -0.0054069073 0.042497598
000140 5c f9 13 3d 8c 56 1a 3d 7d 91 2a 3d 02 e9 2c 3d
       0.03612648 0.037680194 0.041642655 0.0422144
000150 bb f8 23 3d 08 c7 2f bc c0 fa 96 3d df 9d 89 3d
       0.04003213 -0.010728605 0.073720455 0.06719565
000160 16 55 ad 3c 55 b3 8b 3d 82 26 9e 3c 76 37 c9 3c
       0.021158736 0.06821314 0.019305471 0.024562579
000170 23 c9 88 3c 2c e8 fb 3a 0d 1e 0d 3d 3b 8b f4 3c
       0.016697472 0.0019218973 0.034452487 0.029851547
000180 70 20 3e 3d 3d 1a 32 3d e2 bb 34 3d 61 27 42 bc
       0.046417654 0.043482054 0.04412449 -0.011850209
000190 fd 6b 8e 3d 07 f9 83 3b 25 1b 8b 3c bd ee 58 3d
       0.06954191 0.004027489 0.016980717 0.052962054
0001a0 f7 88 93 3d ed 62 49 bb 82 45 21 3d bc 92 78 3d
       0.07203858 -0.003072913 0.03937293 0.06068681
0001b0 01 16 8b 3d 77 3c 6f 3c 7b eb 35 3b f1 92 40 3c
       0.06791306 0.014601818 0.0027758766 0.011753784
0001c0 d9 34 9f 3b ca 25 56 3d f1 71 44 3c 41 bc 1d 3d
       0.004858595 0.052282132 0.011990056 0.03850961
0001d0 72 27 ac 3b ab d8 4c 3b 31 28 7b 3d c5 f6 0f 3d
       0.0052537257 0.0031257074 0.061317626 0.035147447
0001e0 d5 36 b9 3c bf 22 8e 3c 18 6f fd 3c 42 20 bd 3c
       0.022609154 0.017350553 0.030936763 0.02308667
0001f0 62 fb a6 b7 aa 2a 32 bc 93 82 c1 3c 67 f9 d2 3d
       -1.9905801e-05 -0.01087443 0.023621833 0.10301476
000200 59 a4 6a 3d 54 19 38 3d 92 d2 3d 3d 2e ca 9a 3d
       0.05728564 0.04494603 0.046343394 0.07558094
000210 e6 2c 5e 3d de 29 74 3d 77 99 4a 3d cd b2 13 3d
       0.054242037 0.05961024 0.04946276 0.03605919
000220 a8 50 92 3d 73 c6 65 3d aa cb bd 3c 33 08 90 3d
       0.0714429 0.05609746 0.023168404 0.07032814
000230 b1 40 9e 3d 5b e4 7b 3d f7 65 27 3d a3 92 b6 3c
       0.07727183 0.061497074 0.040868726 0.022286719
000240 78 22 70 3d 83 dd 2a 3d 00 58 c7 3d 3e 0a 4e 3d
       0.058626622 0.041715156 0.097335815 0.050302736
000250 36 4f 84 3c 49 cc 8c 3d 76 c2 89 3c 2d 53 3b 3c
       0.016151052 0.06874902 0.016816359 0.011433405
000260 09 4e 79 3d a6 8a d6 3d 3b a9 31 3d a4 be 6f 3d
       0.060865436 0.10475664 0.04337428 0.05853142
000270 aa 89 1c 3d ea f2 9a 3d c2 e6 94 3c 93 05 94 3c
       0.038217224 0.075658634 0.01817644 0.018069064
000280 aa 4e 91 3d e6 73 25 3b 25 6b 47 3d e4 1d 69 3c
       0.07095082 0.0025246083 0.048686165 0.014228318
000290 2c 78 05 00 3d fd 32 3c b3 af b0 3d c7 f2 8b 3d
       5.02287e-40 0.0109246345 0.08627262 0.068334155
0002a0 82 00 f4 3b bb 90 25 3d 5c e2 10 3d 5d fe d5 3c
       0.0074463496 0.04042123 0.035372123 0.026122266
0002b0 1d fe 61 3d ab df 3e 3c fd 90 fa 3c f1 e7 9b 3d
       0.055173982 0.011650006 0.030586714 0.07612599
0002c0 53 41 46 3c 6a 85 94 3c dc 70 23 3d d1 eb 25 3c
       0.012100535 0.018130023 0.039902553 0.010127024
0002d0 9e 3c 76 3c dd c0 7a 3d 4d 0a 53 3d 40 c2 71 3d
       0.015029101 0.061219085 0.051523495 0.05902314
0002e0 7e df 4b 3d 41 dc 97 3c bb c3 1e 3d fb d7 55 3d
       0.049773686 0.018537642 0.038760882 0.05220793
0002f0 b9 53 3f 3d 03 df 24 3c 5c 08 10 3d e3 cb b7 3b
       0.046710704 0.010062936 0.035164222 0.005609022
000300 b3 cd bc 3b c5 80 ba 3c b4 bb 8b 3d b2 8e 03 3d
       0.005761826 0.02276648 0.06822911 0.032118507
000310 42 fb f0 3c b1 ed f6 3c db 7a 42 3c 6b ab 9c 3c
       0.029416684 0.030142637 0.011870111 0.019124707
000320 aa b0 31 3d 95 10 2f bb 82 61 ff 3c aa 96 8b 3d
       0.04338137 -0.0026712765 0.031174425 0.06815846
000330 15 4f 86 3d b8 a3 ca 3c d7 37 e9 3c 70 b9 61 3d
       0.065580525 0.02473627 0.02846901 0.055108488
000340 ec 15 7e 3d 01 32 0c 3d a8 5e 31 3c 35 84 e2 3c
       0.062032625 0.034227375 0.01082579 0.027650932
000350 9d e1 8e 3c 29 67 14 3d ad ce 08 3d c6 b9 84 3d
       0.017441565 0.036231194 0.033400226 0.06480746
000360 91 3e 2a bb 50 c7 7f 3d 7b 14 7c 3d 92 b6 7d 3d
       -0.0025977234 0.06244594 0.06154297 0.06194169
000370 6f 9b 63 3d 46 23 b3 3c b6 e8 47 3d 6b 60 48 3d
       0.055568155 0.021867406 0.048805915 0.048920076
000380 d5 98 6a 3d 04 6a 46 3d c9 95 5e 3d 67 6c 88 3d
       0.05727466 0.048440948 0.054342065 0.06661301
000390 28 4b 48 3d df 30 c3 3c 36 54 13 3d cf ed 3e 3d
       0.0488998 0.023827014 0.03596898 0.04661351
0003a0 6e 59 11 3d cb 2a 5f 3d 3a d3 0e 3d 5f 09 2c 3d
       0.035485677 0.05448417 0.03486941 0.042001124
0003b0 56 06 6f 3d 03 44 74 3d 0a 72 14 3d c0 94 24 3d
       0.05835565 0.059635174 0.03624157 0.04018092
0003c0 89 1d 96 3d b2 bb 05 3d f9 d7 48 3d da 5a 56 3d
       0.07329852 0.032649703 0.049034093 0.052332737
0003d0 a9 dd 3e 3d 18 42 c3 3b 78 b1 8f 3d c8 da 43 3d
       0.04659811 0.0059588067 0.07016271 0.047816068
0003e0 fc 64 6e 3d b4 73 8a 3d 5a 0e 0b 3d a5 ea ef 3c
       0.058201775 0.0676035 0.033949234 0.029286692
0003f0 21 32 53 3d b0 60 8c 3d 91 b5 82 3d 6f 78 45 3d
       0.05156148 0.06854379 0.06382287 0.048210558

write_head.erase_layer.bias f4 [20]
000000 ba c3 3d 3c a6 86 80 3d 0c 91 69 3d 89 ec 7a 3c
       0.011582309 0.06275682 0.057023093 0.015315183
000010 68 34 82 3b 04 59 81 3d 0f 51 cf 3c 65 a0 b9 bc
       0.0039735325 0.063158065 0.025307206 -0.02265949
000020 7d 87 30 3d 41 22 95 bd 9e b7 9f 3c 84 2a 12 3d
       0.04309796 -0.07281924 0.019496735 0.035685077
000030 14 d3 5e 3d ea 6f bc 3c fd c4 fd bc 82 a0 44 3d
       0.05440052 0.023002584 -0.03097772 0.048004635
000040 35 49 ec bb fe db e7 bc 9a 11 45 bd e4 cd 9a bd
       -0.0072108754 -0.028303143 -0.04811249 -0.07558802
